model/p.pth (torch, 279442 bytes, 12 tensors)

net.0.weight f4 [128, 14]
00000000: b01c 8b3e 1c9f 9dbd f96b afbc b30b e63d
00000010: 1ab7 f1bc 2f29 9bbe d9e4 393d 0079 fa3c
00000020: 07b8 15be 0d3b 18be 1c80 a43c 7bfe 983d
00000030: 64fe de3d 60f4 fd3d e067 b43d 0b7e 7dbe
00000040: b388 0abd 0b1d 813e 5972 7e3e 0d9e 853e
00000050: 85a7 aabd 0bb7 01be 1675 ccbd 3390 0cbe
00000060: 2d17 49be dc3a 80bd 29a3 90bd 3da3 793e
00000070: 4cdc 663d 87c9 a8bd f849 46be 8454 253d
00000080: ad40 363e abe5 71be 8009 13bc f625 753e
00000090: 570d ab3d e7dc d0bd d5d7 07be 7bc6 5cbe
000000a0: 245b 19bd cf45 3e3d a34e 003e 6b5a 8fbd
000000b0: fb82 85be 313c 383e 9a1e 7dbe 2eb6 903e
000000c0: bbf8 f5ba 6cfb 6a3e 15dd 14be 4e02 393e
000000d0: e7a9 4e3d 6f44 d3bd aaa9 7cbe 1c0c 7cbd
000000e0: a5a3 ddbd eebf 6fbe aab5 903d b75a 42be
000000f0: 56bb b93c 2692 5b3d 72a9 7fbe 6a52 37be
00000100: d9b2 88be 34d2 2bbd 38ab eebc 11fb e5bc
00000110: 9297 5d3e 0c5c 30bb 307a 6cbe 7ae4 573b
00000120: a9a3 1ebe 7625 583e 6763 55be 0c24 30be
00000130: f041 1c3e cfd0 56be a0fa eebd 75da dabd
00000140: 4361 4e3e 7c96 6d3e 7e58 20be fee1 1a3e
00000150: 5c80 23bc 1b5a acbb 8b5d 5e3b bef6 a93d
00000160: 99fd 323e 765c 9b3e 7e42 2d3e fc11 b43d
00000170: 1fff 14bd 392c 01bd 2ee5 2d3e db58 76be
00000180: a20b 143e b85c d6bc 8b02 513e b571 6ebe
00000190: 290f ed3d f1d5 4ebd 8f6c 903e 3d89 00bc
000001a0: f1a7 443e 70ad ca3d 815c 053c 0c6c 183d
000001b0: d317 35be 4051 0ebe ed1a 673e e8a0 743d
000001c0: 5681 583e 22ac ffbd b3c1 983c fbb3 f13d
000001d0: 480f 16bd 1bc5 8ebe 758a c5bd 70f1 4fbe
000001e0: c4d8 213e 6637 443e 6fd7 5abd 8d89 f7bd
000001f0: 5510 8bbd 53db 213e ccb7 2d3e 79f2 32be
00000200: 81dd 4e3d c2a5 2d3e cbe8 80be 90b6 aabe
00000210: f86f c1bd 5cbb 0d3e 3c86 093e 8ee4 3d3e
00000220: 8872 55bc 4df1 163e 16cb ef3d f563 8f3e
00000230: aee0 e5bd fe70 2abe 5a46 d1bd 6865 793e
00000240: 808e cdbd f1ce be3d 8fec 57be 02eb 3d3e
00000250: 0a9f 10be 1e22 bb3d e569 733e 9733 5c3e
00000260: dc87 67be bca3 893e e9ef 8c3d 70bb 1abd
00000270: e7d6 c13d c454 f93d 15a8 423e 2fd6 803e
00000280: d8f3 34be 859e 01be 2025 a6bd cdf4 313d
00000290: 3685 7cbd 31f2 c13d 4a34 49bd 9c8e b73c
000002a0: 05d8 16be bed6 373e 8ee5 1fbe c747 f83d
000002b0: 1e15 dfbc 2bde 14be d37f 633d 4034 133e
000002c0: 0c9c 4e3e 5436 85be c9cd 753e 1c79 dd3c
000002d0: f1cb 6abe bb67 5f3e 7358 63be 94ef b6bd
000002e0: 85df fc3b 937f 933d 351c f43d 2d42 aa3e
000002f0: 6bd5 123e 686b 6abe 6d9d 0ebe 1a99 763e
00000300: bef1 11be 9e38 883e 14b0 ebbd 90c2 3c3e
00000310: b4f9 a0bd ed7c 623e fa6d 96bd 8f48 7c3e
00000320: e05f 8abd 9c0a 263e c32e 163d 8c0b 153e
00000330: a8f1 c0bd ff90 b73d 91b2 cfbc 2959 323d
00000340: fb19 983b b2a6 2e3e e226 cb3d 67fa 293e
00000350: b709 7a3e a32b 1d3e 5442 28be b054 55be
00000360: 30b2 28be 6207 3e3e 8cbe 4abe 2940 f7bd
00000370: c1bd 4f3e 9854 983c b15a 6c3e 29bb 7ebe
00000380: 43fe 06be 378c a4bb f069 b43c 0652 96bd
00000390: d96a 823e 84ef 1d3e 4fd5 e2bd be8a 2cbe
000003a0: 073e 3cbe d12e 9b3d 782e 2fbe 7e88 2d3e
000003b0: da9f 293e a16b 1bbc 4eec 13be 9819 1dbd
000003c0: 46ee da3d e0a0 f93d 3651 733e 13ea 993e
000003d0: d7fd 5abc 4054 6b3c da04 6ebe 0f55 6b3c
000003e0: 2b8f e73d 1507 1dbd 9c77 b8bd babf dcbc
000003f0: 3fea a33d 7357 e33b 3254 4abe 6141 65bd
0.27170324 -0.07696363 -0.02141379 0.112327 -0.029506255 -0.30304858 0.04538426 0.030575275
-0.14620982 -0.14866276 0.020080619 0.07470413 0.10888365 0.124001265 0.08808875 -0.24755113
-0.033821773 0.2521747 0.24848308 0.26097146 -0.08332733 -0.12667482 -0.0998327 -0.13726883
-0.19637747 -0.062612265 -0.0706237 0.24378677 0.056362435 -0.08241563 -0.19364154 0.040363804
0.1779811 -0.23622768 -0.008974433 0.23940262 0.08352154 -0.10198384 -0.13265927 -0.2156009
-0.037440434 0.046453293 0.12529998 -0.06999668 -0.26076493 0.17991711 -0.24718705 0.28263992
-0.0018766144 0.22947472 -0.14537461 0.18067285 0.050455 -0.10315787 -0.24674097 -0.061534986
-0.10822228 -0.23413059 0.070659 -0.18979917 0.022672337 0.053606175 -0.24966982 -0.17902532
-0.2669895 -0.041948512 -0.029134378 -0.02807382 0.2163985 -0.0026910333 -0.23093486 0.003294258
-0.15492119 0.2110804 -0.208387 -0.17201251 0.15259528 -0.20978092 -0.11668897 -0.106861986
0.2015429 0.23201936 -0.15658757 0.15125272 -0.009979334 -0.005259765 0.0033930268 0.082990155
0.17479552 0.3034398 0.16919896 0.08792493 -0.036376115 -0.031536315 0.16981956 -0.24057333
0.14457563 -0.026167259 0.20411126 -0.23285563 0.11575157 -0.050497 0.28207824 -0.00784522
0.1920469 0.09896362 0.00813973 0.037212417 -0.1768487 -0.13898182 0.22568865 0.059723765
0.21143088 -0.124840036 0.01864705 0.11801907 -0.036635667 -0.27884755 -0.09645549 -0.20306945
0.15805346 0.19161758 -0.05342811 -0.120867826 -0.067902245 0.15806322 0.16964644 -0.17475308
0.05050421 0.16957763 -0.25177607 -0.3334241 -0.094451845 0.13841003 0.13430113 0.18544218
-0.013027795 0.14740486 0.117086574 0.2800595 -0.11224495 -0.16644666 -0.102184966 0.2435509
-0.10036945 0.09316815 -0.21086334 0.1854668 -0.14123169 0.09137367 0.23770864 0.21504055
-0.2261042 0.26882732 0.06881697 -0.03777641 0.094648175 0.12174371 0.1900943 0.2516341
-0.17671144 -0.12658127 -0.0811255 0.04344635 -0.061650477 0.094700225 -0.049122132 0.022406869
-0.14730842 0.17953011 -0.15614912 0.121230654 -0.02723175 -0.14537875 0.055541825 0.143754
0.20176715 -0.26018012 0.24004282 0.027035289 -0.2292936 0.21816914 -0.2220171 -0.08932415
0.0077170753 0.07202067 0.119194426 0.33253613 0.14339225 -0.22892535 -0.1392724 0.24081841
-0.14252374 0.26605695 -0.115081936 0.18433595 -0.07860127 0.22117968 -0.07345195 0.24637054
-0.06756568 0.16214985 0.03666569 0.14555186 -0.09421092 0.08963203 -0.025353702 0.04354206
0.004641769 0.17055777 0.09919526 0.16599427 0.24417768 0.15348677 -0.16431552 -0.20833087
-0.16474223 0.18557504 -0.1979925 -0.120727845 0.20287229 0.018595025 0.23081471 -0.24876083
-0.1318293 -0.0050215977 0.022023171 -0.073398635 0.25472143 0.15423399 -0.11075842 -0.16849801
-0.18383037 0.07577289 -0.1710757 0.16946599 0.16564885 -0.00948611 -0.14445612 -0.038354486
0.10689978 0.121888876 0.23761448 0.30061397 -0.013366184 0.0143633485 -0.23244038 0.014363541
0.11306604 -0.038336832 -0.09007189 -0.026946891 0.08003663 0.006937915 -0.1975868 -0.055970553

net.0.bias f4 [128]
00000000: 2c56 673e e705 513e bd79 84be 81ee 80be
00000010: 51cf 063e cbb6 34be 6785 7bbe 7bff 23bc
00000020: 180d 03be ed4f 713e eead 19be b09e 593d
00000030: 294e 68be dbe0 533e 5fda 69be e248 ddbc
00000040: a1ec 38bc ec9f 2bbe 76b2 e23d b96e b23d
00000050: cbfd 50be 9003 a43b f74e 0d3e 34ad 1ebe
00000060: cf1a 8e3d 01d8 c4bd a11f cabc f963 ad3d
00000070: 75ca 69bc ac54 efbd ac3b a9bd ce74 503d
00000080: 5c1b 543e 48f3 693e ab72 f1bd 928f 243c
00000090: a709 61be 1f73 1f3e bfeb 883e 2154 efbc
000000a0: abf9 f7bc 8c92 97bd c430 c2bd 5526 46be
000000b0: 46b3 0fbe fd91 05be 5926 5f3e cd61 18bc
000000c0: 97fd e43d 1f9d e3bc 76d7 cabd 0d26 f7bd
000000d0: 8a05 3ebd 9264 29be 1e91 8a3c c913 ba3d
000000e0: 835c d23d 0925 933d 1248 003e cd42 c93d
000000f0: 3260 3b3e 0e6c 34be 02a8 28be 0a71 533e
00000100: 789a f33d ef3e cc3c a8fd 8f3d 6448 803e
00000110: 79ee 443e 2396 48bd fb38 833e a3ac 01be
00000120: eddf 6abe 0509 4c3e 5a75 5c3e 01ac f83c
00000130: dff2 753e 033a 3dbd 8873 1e3e f279 1c3e
00000140: 1ca2 8ebd 35b7 4abd e38c e83d 8456 fd3d
00000150: c48a 11be 96f0 6bbe 27f9 f73d eca4 613d
00000160: e2e4 6d3d 21b4 643e 2bd7 233e ccfb 063e
00000170: 68a4 2bbe 385e 893e d888 1c3e 4307 21be
00000180: b95c 88bd 63df 66be 8c5c 9bbd ab51 82be
00000190: d0fb a1bb e1e2 54be eff1 74bc e78c 5f3e
000001a0: f1f2 1cbe 0538 823d 8a6c 77be 3fd8 b4bb
000001b0: 9ad9 123e dc0d f4bd b3c0 89be 9858 3bbe
000001c0: d61d 37be e896 603d 1e6e 77be 539c 8d3e
000001d0: a963 50be c5e9 14be 96ac 6b3e 8692 92bd
000001e0: 5c6c e4bd db8c 3fbe 6d59 28bd 7d66 153e
000001f0: d7f4 75be 45d6 683e b3cc 7cbd f2dc 27be
0.22591466 0.20412408 -0.2587413 -0.25181964 0.13165022 -0.17647855 -0.24562608 -0.010009642
-0.12797964 0.23565646 -0.15007755 0.05312985 -0.22686066 0.20691244 -0.22837208 -0.027012292
-0.0112868855 -0.16760224 0.11069195 0.08712525 -0.20409314 0.0050053075 0.13799654 -0.15495759
0.06938707 -0.09611512 -0.024673285 0.08466334 -0.014269461 -0.11686072 -0.08263335 0.050892644
0.20713562 0.2284671 -0.11789449 0.010043995 -0.21976338 0.15571259 0.2674236 -0.02921492
-0.030270418 -0.074009985 -0.094819576 -0.1935056 -0.14033231 -0.13043971 0.21791972 -0.009300661
0.11181181 -0.027784882 -0.09904377 -0.120678045 -0.046392 -0.16542271 0.0169149 0.09085805
0.102715515 0.07184798 0.12527493 0.09827194 0.18298414 -0.17619345 -0.1647034 0.2064859
0.11894697 0.024932353 0.07030803 0.2505523 0.19231595 -0.048971307 0.2562941 -0.12663512
-0.22936983 0.19925316 0.21529141 0.030355455 0.24018429 -0.046197902 0.15473759 0.15280893
-0.06964514 -0.049491126 0.11354997 0.12370017 -0.14213091 -0.23040995 0.12108069 0.055088922
0.058079608 0.22334339 0.16000049 0.1318199 -0.16761935 0.26829696 0.15286577 -0.15725426
-0.066583104 -0.22546153 -0.07586011 -0.25452933 -0.0049433485 -0.20789672 -0.01495026 0.21831094
-0.1532705 0.06358341 -0.24162498 -0.0055189426 0.14340821 -0.11916706 -0.2690483 -0.18295515
-0.17882475 0.054831415 -0.241631 0.27658328 -0.20350517 -0.14542301 0.23015055 -0.071568534
-0.111534804 -0.18706076 -0.041100908 0.14589877 -0.2401918 0.22737987 -0.061718654 -0.16392878

net.2.weight f4 [128, 128]
00000000: 4484 853d e027 9ebd f3af 1b3d 66b1 42bd
00000010: 39d5 85bd b3bc 773d 4ede 003c 3ad0 a4bb
00000020: 8ba1 4bbd 5a60 a33d aa55 edbc 4f96 53bb
00000030: b765 c2bc f049 88bd 1a67 6b3c 0db6 4a3d
00000040: ee52 a2bd 706e 8d3d 3788 803d 452e 863c
00000050: 9e76 5c3d aa09 023d 5e03 d83a df80 40bd
00000060: 3a44 8f3d 5252 85bd a3dd 703c 0a60 6c3d
00000070: 58bf 923d da3c 1b3d 9512 1bbd 1d6a ae3d
00000080: 8e00 4abd 29af 11bd 8b57 9f3c 0106 b03d
00000090: 332b 8cbd 5573 8fbd e099 52bd dd4b 493d
000000a0: 3bf4 a83d c72b 053c 78b5 f63c 01b0 b7bc
000000b0: 3de4 4539 e820 c33d 9bd3 6dbd ed74 8e3d
000000c0: 4fa4 2cbd 9eda f33b bdd2 c8bb 4be9 de3c
000000d0: fc2f a7bd 436e 193d 89fc 6fbd 2b59 5dbd
000000e0: cb38 2dbd 18e9 5f3d 0ed8 80bd 680a 6e3d
000000f0: 5e5d bd3c 1126 c33c 7278 a0bd ea7e 203d
00000100: a9fe 09bd 47c5 433d 4174 673d 6fe7 b03d
00000110: c95b b83d ec86 80bc 41d6 bbbc b0ed ccbb
00000120: db64 34bc b7a6 0e3d efbf 243d 61b7 cfbc
00000130: 8aee bb3d b0e7 d73c 63f7 05bd b54c 19bd
00000140: c948 08bd 5f53 3d3d a7cb 2b3d 9b85 8ebd
00000150: 9382 9b3d fa69 8bbd e38d 0e3d 6860 293d
00000160: 6e3c bcba a264 4bbd cc63 11bd 206f 92bd
00000170: ed1b 333d d8fb 823d 365f 4ebd 3575 aa3c
00000180: fe40 d7bc 28b1 21bd b789 b1bd 77eb 843d
00000190: 7e95 8fbd d11b e13a 7077 3fbc dc88 90bd
000001a0: 39b7 a83d 77fd 943d 1c38 2fbd c24d 7c3d
000001b0: 3fe4 eb3b a94b 343d f9b1 e3bc 2f73 4c3d
000001c0: 3bb2 7dbc 3817 a03c 3113 21bd ceee 4abd
000001d0: 882b 44bd 4588 a33c c546 abbd b6f5 263d
000001e0: f1d8 80bd 64eb 0dbd 7d81 e03c 8652 a83d
000001f0: c615 a03d 4e66 b13d 5d09 b9bd dd2d 313d
00000200: 9bf0 af3d 40b2 773c e0f1 8e3c 0bf7 8d3d
00000210: b219 6c3d 2050 603b a5db ae3d d9ef 9d3d
00000220: 95c8 873d bcba 2abd 3951 38bd 747f fa3c
00000230: 180a a83c 686b 70bc 7e8c a3bd 4410 b0bc
00000240: 62c1 483d e237 f8bc 6724 18bd a2ec 463d
00000250: 4e5b d7bc b7ea 26bd 7cc4 b2bd 3031 e43c
00000260: dcd9 a43c 0634 3f3d 5e31 50bd 9bfd 5bbd
00000270: 14a4 8fbc 700d 26bd fd5d a43d e456 88bd
00000280: d1f6 b4bd 3e54 03bd 0d7e a43d 00f0 3339
00000290: bc58 e83c 7e11 04bd 00a8 0138 f201 6a3d
000002a0: 0746 8a3d f828 8b3c 40ad 81bc 9870 a2bd
000002b0: 70d9 4ebd 0439 30bd 21ff 863d 550b 4fbd
000002c0: 9131 a13d 7760 8abd bd8b a33d 2a4d 333d
000002d0: 3606 9abd 7a85 b0bd ef2f 913d 08b3 223c
000002e0: 3219 41bd 8ca0 e23c 8b6d 843d eaa5 8fbd
000002f0: a320 973d 3b76 91bd 5004 00bd 3e57 5d3d
00000300: 6a5b abbd 61f1 35bd 8220 1d3d c26f a8bd
00000310: b2a1 6ebd 54ae f63c 58e1 77bd 6c2e cebc
00000320: 2248 073d 8aa1 1b3d 789f d2bc 6c23 92bd
00000330: 0022 253b 402c 90bc 0767 ae3d 20e2 a0bd
00000340: 2a5b 73bd 1669 dcbc 45ea 8a3d 7d92 ab3d
00000350: c707 88bd 88fb 86bc 04f5 c03c c555 a5bd
00000360: f4dd a0bd 002d 643c f010 e43c 1ded b13d
00000370: 3024 86bb ac21 99bc a9c1 99bd 5b1e 9e3d
00000380: 5c97 843c 8bdb 84bd 641e ffbc 33d4 a6bd
00000390: 1aa7 5b3d 606c 8d3c 9bcc 8b3d 5e9c b0bd
000003a0: 5ca0 d6bc a6d1 223d a0cb 2b3b a0f1 16bc
000003b0: c181 9b3d 6493 dabc b856 eb3c b691 9dbd
000003c0: 56a1 1e3d bda2 99bd 88b3 30bc 00fc 25b9
000003d0: 67e4 b43d 6bc2 b2bd 484d fb3c 8851 afbc
000003e0: 3e2c 6bbd 80d1 da3b 1be4 a43d 4717 a43d
000003f0: 1cd3 cfbc 8574 3bbd c7fb 9d3d 901b 6d3c
0.06519368 -0.07722449 0.038009595 -0.04753246 -0.065348096 0.060482692 0.007865502 -0.0050297054
-0.049714606 0.07977362 -0.028971512 -0.0032285636 -0.023730142 -0.066547275 0.014367843 0.049490023
-0.07925974 0.0690583 0.06275981 0.016379485 0.05382406 0.031747498 0.0016480496 -0.0469979
0.06995435 -0.06509842 0.01470128 0.057708777 0.07165402 0.03789983 -0.037859518 0.08516333
-0.049316935 -0.035567436 0.019450923 0.08594895 -0.06844177 -0.0700442 -0.051416278 0.049144614
0.08249708 0.008128113 0.030115828 -0.022422792 0.0001887241 0.09527761 -0.05806313 0.069558956
-0.042148884 0.0074418327 -0.0061286376 0.027210852 -0.08163449 0.03745867 -0.058590446 -0.054040115
-0.04229049 0.054665655 -0.06291209 0.058115393 0.02311581 0.023821862 -0.07835473 0.039183535
-0.03369013 0.04779556 0.056507353 0.086378925 0.09001882 -0.015689336 -0.022929313 -0.0062539205
-0.011010374 0.03482696 0.040222105 -0.025355997 0.09176357 0.026355594 -0.03270663 -0.03742667
-0.03327254 0.046222087 0.041942265 -0.06959077 0.075932644 -0.06807323 0.034803282 0.041351706
-0.0014361271 -0.049656518 -0.035495564 -0.07150102 0.043727804 0.06395692 -0.05038377 0.020807842
-0.026276108 -0.03947559 -0.08668845 0.06490224 -0.07010935 0.0017174428 -0.011686191 -0.07057354
0.08238072 0.07274907 -0.04277812 0.061597593 0.00719884 0.044017468 -0.027794825 0.049914535
-0.015484388 0.019542322 -0.039324943 -0.04954415 -0.047893077 0.01996244 -0.083631076 0.040761672
-0.06291378 -0.034648314 0.027405495 0.08218865 0.07816653 0.08662091 -0.09034989 0.04325663
0.08590814 0.015118182 0.01744932 0.06931885 0.057641692 0.0034227446 0.085379876 0.07711763
0.06630055 -0.04168199 -0.044999335 0.030578353 0.020512626 -0.014674045 -0.07985781 -0.021492131
0.04901255 -0.030300085 -0.03714409 0.048565514 -0.026288655 -0.040751185 -0.08728883 0.027855486
0.020123415 0.046680473 -0.05082833 -0.053708654 -0.017534293 -0.04054016 0.08025739 -0.06657198
-0.08836139 -0.03206276 0.08031855 0.00017160177 0.028362624 -0.032243244 3.091246e-05 0.05713076
0.06751638 0.016987309 -0.015829682 -0.07931632 -0.050500333 -0.043023124 0.06591631 -0.050547916
0.07870782 -0.067566805 0.07985637 0.04377476 -0.07520716 -0.08619209 0.07089221 0.00993038
-0.04714317 0.027664445 0.06466206 -0.070140675 0.07379272 -0.07102629 -0.031254113 0.05403828
-0.08367045 -0.04441965 0.03836108 -0.08224441 -0.058259673 0.030112423 -0.06051764 -0.02516862
0.033027776 0.037995853 -0.025710806 -0.071356624 0.0025197268 -0.017599225 0.08515745 -0.0785563
-0.059413113 -0.026905578 0.067829646 0.0837755 -0.066421084 -0.016477361 0.023554333 -0.08073
-0.07854834 0.013926744 0.027840108 0.08687804 -0.0040936694 -0.018692814 -0.07507641 0.077206336
0.016185455 -0.06487187 -0.031142421 -0.081459425 0.053626157 0.017263591 0.06826135 -0.08623575
-0.026199512 0.039750718 0.00262139 -0.009212881 0.07593108 -0.02668161 0.028727874 -0.07693808
0.03872808 -0.07501743 -0.010784991 -0.00015829504 0.08832627 -0.087284885 0.030676499 -0.021401182
-0.05741524 0.0066778064 0.0805132 0.08012252 -0.02536922 -0.04576542 0.07714038 0.014471903

net.2.bias f4 [128]
00000000: 3272 99bd 5cbd 96bd 7162 4e3d eaaa 413a
00000010: 4286 fdbc 6d81 ad3d 5ac6 303d 678c 59bd
00000020: 02b6 e33b a5ce 67bd d0ea b6bb e0f8 24bb
00000030: ee82 ab3d b7cd 533d 8bb4 c83c 4f46 a0bd
00000040: 8c31 a83d 5e69 91bd 8f5d 87bd a5f1 dcbb
00000050: 27ee 973d 0895 1cbd 656e 86bc 88e4 213d
00000060: 1e70 3fbd f82c 63bc da70 17bd 5b50 9d3b
00000070: ee11 233d bc6f b83d 6ea6 263d d0a8 6b3c
00000080: 55ef dcbc 9432 9a3d 9ac3 3cbd dc16 9f3d
00000090: 07ef 123c 034d 5f3c 09a0 633c 2a8b f1bc
000000a0: aac2 a73d e961 9dbd 5a6e 6cbd b074 dcbc
000000b0: 40d9 4a3b 4bd0 01bd 9874 79bd d93c efbc
000000c0: fb60 c0bc 5d2b 9dbd d2b2 433d 2d76 8ebd
000000d0: d65f a4bd 24f4 843d 4f64 023d e777 b13d
000000e0: a56c dc3d e922 cdbc 1a4c 84bd 86d6 6cbd
000000f0: 53b4 a0bd 05d8 4ebd c48d 7bbd 1385 813c
00000100: 572c b83d ecb8 af3c 5c23 a0bc 82b6 393c
00000110: b3d8 89bd 166c 93bc 014c 5ebd ccfe 463d
00000120: 7dd8 3ebd 2270 613c 5637 a4bd 83e7 a73d
00000130: 9f0b 5e3d a339 6f3d a452 b03d a778 943d
00000140: fd03 193d 91a5 9bbd c3bd 07bd dd54 0f3d
00000150: 5be3 173c be2b 3dbd 37f7 1e3d 4fe0 543d
00000160: 1025 593d 9275 c43d 2e32 2dbd 9eab 6dbb
00000170: 10df 65bc f4a3 b6bc 9584 0e3b 1bc9 05bd
00000180: bcfd a2bd 98e2 803d ffa0 e93c 8d4a 36bd
00000190: 7f03 463d df75 6abd 1f09 62bc d603 9c3d
000001a0: a98e 923d 222a 863d 1a96 6ebd 6eff 2f3d
000001b0: f9f7 a93c 77c6 bb3c fe1e 8cbd ca9f b83c
000001c0: ccb5 b73c 508e b83d ccf8 663d c6f8 d0bb
000001d0: 5e1d 99bd 7213 16bd 7b15 0dbc 70a1 833c
000001e0: df2b 1abd 7ad7 823d c643 e13c d12e 96bd
000001f0: 13b5 773d b027 6cbd ee92 fdbc ba35 00bd
-0.07492484 -0.07360336 0.05038685 0.0007387834 -0.030947808 0.08471952 0.043157913 -0.053112414
0.0069491873 -0.056593556 -0.005582191 -0.0025172755 0.08374582 0.051709857 0.024500152 -0.0782591
0.08212575 -0.07100175 -0.06609642 -0.0067426735 0.07418471 -0.038228065 -0.016410062 0.039524585
-0.046737783 -0.013865702 -0.036972858 0.004800839 0.03981202 0.09005687 0.040686063 0.01438351
-0.026969591 0.07529178 -0.046084978 0.07768032 0.008968121 0.013629201 0.013893136 -0.029485304
0.08191426 -0.076846905 -0.057722427 -0.02691111 0.0030952245 -0.031692784 -0.060902208 -0.02920382
-0.023483744 -0.076742865 0.04777796 -0.06956134 -0.08026092 0.06491879 0.031833943 0.08665448
0.1076291 -0.02504106 -0.06459828 -0.057821773 -0.07846894 -0.05049898 -0.061414495 0.015810525
0.08992832 0.021450482 -0.01954811 0.011335017 -0.06730785 -0.017995875 -0.0542717 0.048582837
-0.046593178 0.013759645 -0.08018367 0.08198454 0.0542103 0.058404576 0.086095124 0.07249575
0.03735732 -0.07599939 -0.033139955 0.03499304 0.009270514 -0.046184294 0.03880998 0.05197173
0.05301386 0.09592737 -0.042284183 -0.0036265622 -0.014030233 -0.022294976 0.0021746506 -0.032662492
-0.07958552 0.06293219 0.028519152 -0.04450469 0.048343178 -0.057241317 -0.01379612 0.07617919
0.071561165 0.06551005 -0.058248617 0.042968206 0.020748125 0.022921784 -0.06841849 0.02253713
0.022425555 0.09011519 0.056389615 -0.0063773124 -0.074763045 -0.03663964 -0.008611078 0.01606819
-0.037639495 0.06388755 0.027498137 -0.07333148 0.06047542 -0.057655036 -0.03095385 -0.031301238

net.4.weight f4 [128, 128]
00000000: c467 833d db46 a13d cf2a c43d d9f4 c23c
00000010: d07b 46bc f467 c53d 66f6 bebc 7d08 88bc
00000020: a3a9 11bc f857 08bd 4ea2 593d f0f9 2ebc
00000030: 7cdb a63c 3128 903d d102 9bba f373 873d
00000040: 7edf 0b3b b538 443d 8fb7 47bd 3076 853d
00000050: fec0 b1bd 3177 9ebc 4007 7e3d 4fb0 89bd
00000060: ea23 3bbd 4005 e83c d874 21bd 6b09 073c
00000070: 20d1 743b d456 d63d 944b 62bd abb7 96bd
00000080: 2926 5f3d abed 173d e187 6cbd c4e1 d1bc
00000090: a005 f3bc fc28 2d3d 0ec6 cb3d 65fc 69bb
000000a0: 6a55 8bbd 1992 1bbd 7f9e d93d 4009 443b
000000b0: c019 c8ba eaea 5bbd c470 8abd 1ab7 3ebd
000000c0: 69aa b53d b230 94bd b72d 993d 2f33 9d3d
000000d0: 0ef5 313d 6019 163d 352f aebd 70fe a6bd
000000e0: 092c ef3b b768 5e3d 27e9 79bd 60fe cb3c
000000f0: 60ab 9c3b 8c49 c43c 5528 e7bc 06fc 313d
00000100: 3c31 bd3c c343 953d a0c2 2ebc 6212 9cbd
00000110: 711d 45bd eff5 a0ba 8d57 c2bc 971f a1bd
00000120: f784 103d f471 f33c 305c abbd e0e0 76bd
00000130: 882b 02bd eecd 883d e46e af3d 740c 8d3d
00000140: ecd3 823d dfd7 8f3d dafd b13d 8908 ebbb
00000150: 08c0 40bd e96f 55bd e0d5 3c3d 9f58 71bd
00000160: 81a1 9abd 53d8 3a3d 22b6 2c3d ca91 adbc
00000170: fac5 7a3d 06a5 2d3d 643a 063d d3e4 5f3d
00000180: 2a31 373d ad75 f0bc 2bd6 1e3d 7731 1bbb
00000190: 35eb 6f3d fe35 583d bb4c 9fbc cafe bbbd
000001a0: dd23 83bd 007d a23b 1ca0 99bd 9741 c73d
000001b0: daaa 17bd 172e b93d 8653 c53d 61f3 683d
000001c0: ecf0 b0bd f326 8dbd 6e6f 7b3d 7157 853d
000001d0: 2ba0 8cba 5f05 09bd 6f65 38bd 10f4 07bc
000001e0: 9098 183c 4cc5 3abd 27ed 5ebd 1c4e ab3d
000001f0: 82f7 00bd d7f3 9d3c 84e4 393c 5057 a63b
00000200: 908c f83c 40ef b5bb 50c1 723c b822 663c
00000210: 00d0 f5b7 ca60 9bbd 90f4 96bc a8ec 14bd
00000220: 333b 67bd 79f6 a8bd 3075 62bd 10a9 33bd
00000230: c462 afbc ef01 76bd b6aa 7cbd 129c 323d
00000240: 4dfa 57bd b3f0 a4bd 6e24 aabd ce09 62bd
00000250: 4ff7 983d aa43 4e3d 9c7f 933c 6ea0 89bd
00000260: ba20 a5bd f821 3f3c 18a7 e83c efe3 aabd
00000270: 524c 213d ed71 04bd a226 71bd 9082 ad3b
00000280: b221 013d a2f0 8cbd 88aa a6bd 006f 8939
00000290: 6427 c0bc 89b9 44bd 2cf1 9e3c a84f 29bc
000002a0: faba 483d 26c8 4dbd 7067 563c 909b 863c
000002b0: 030d aebd 31f0 2bbd e13d 4fbd 23e6 a13d
000002c0: c0e1 cc3a 260f 83bd f898 aabc 40af 86bc
000002d0: 78ca 8abd 835a a03d 72ae 4d3d ce42 183d
000002e0: 08d0 8e3c dcb1 ebbc 84e4 e03c 7ec9 4d3d
000002f0: 50e4 8b3b bef9 a0bd 021e 443d 204a 14bb
00000300: eefb a1bd 00fa 0cbb 5f4f ab3d c0ae c4bb
00000310: 1d4b ab3d 45e4 53bd a0ad 32bb 78fc 78bd
00000320: 1cd4 e73c c04c fbbb 526b 173d 6b29 9bbd
00000330: 3f1a 833d 0663 693d 1ebd 793d 2970 21bd
00000340: c410 2ebd f463 01bd 3d77 98bd 0e93 5a3d
00000350: b1ba 923d 8eb0 6ebd f381 7bbd f43a df3c
00000360: 5bb7 963d 7040 f0bb d4c4 c1bc 5370 ad3d
00000370: 0dc0 963d 805b 23bb 1ee9 523d f754 8b3d
00000380: 3ab7 79bd 888c 2a3c 77c7 823d 08cc eabc
00000390: 836c 823d c6b8 a9bd d993 883d 50c8 123c
000003a0: 2e91 693d 1492 dcbc 8012 833b b4ca 8abc
000003b0: b24d 183d db07 ae3d 5c5e a2bc e08e 36bd
000003c0: 008c 9a38 421f 3fbd e0f2 623b e1b0 6dbd
000003d0: 8078 6abb 9e91 f1bc 5ee2 12bd 392f a73d
000003e0: 1fde 11bd 8466 893c caf1 4c3d 4d5c 3fbd
000003f0: 20e4 913b 5f89 8abd ca32 733d 6a1f b4bd
0.06416276 0.07874843 0.095784776 0.023798393 -0.01211448 0.09638968 -0.023310851 -0.01660561
-0.008890542 -0.03328702 0.0531333 -0.010679707 0.02036833 0.07038916 -0.0011826401 0.066139124
0.0021342929 0.047905643 -0.04875904 0.06516683 -0.086793885 -0.019343944 0.062018633 -0.06723081
-0.045688547 0.028322816 -0.03941807 0.0082419915 0.0037356094 0.1046578 -0.05524786 -0.07359251
0.05447975 0.037091892 -0.05774677 -0.025620349 -0.029665768 0.042275414 0.09949885 -0.0035703417
-0.06803401 -0.037981126 0.10625934 0.002991274 -0.0015266463 -0.05369083 -0.067597896 -0.046561338
0.08870394 -0.072358504 0.074794225 0.07675778 0.043446593 0.036645293 -0.08505098 -0.08153999
0.0072989506 0.054299083 -0.061013367 0.024901569 0.0047811717 0.023960851 -0.028217474 0.04345324
0.023094766 0.07288315 -0.010666519 -0.07620694 -0.04812378 -0.0012280325 -0.023723388 -0.078673534
0.035283055 0.029717423 -0.08367193 -0.06027305 -0.031779796 0.06679903 0.085660726 0.06887141
0.06388077 0.07023596 0.086909965 -0.0071726483 -0.047058135 -0.05210868 0.046102405 -0.058922406
-0.07550336 0.04561646 0.042165883 -0.021187682 0.06122396 0.042393707 0.03277053 0.054661583
0.04472462 -0.029352987 0.038778465 -0.0023680606 0.05857392 0.052785866 -0.019445768 -0.091794565
-0.06403325 0.004958749 -0.075012416 0.09729307 -0.03702817 0.09041994 0.096350715 0.05687273
-0.08639702 -0.068921946 0.061385565 0.06510819 -0.0010728886 -0.033452388 -0.04501861 -0.008297935
0.0093137175 -0.045598313 -0.054425385 0.083645076 -0.03148604 0.019281311 0.011345986 0.0050763264
0.030340463 -0.0055522025 0.014816597 0.0140463635 -2.9303133e-05 -0.075868204 -0.018427163 -0.036358505
-0.05645294 -0.08250136 -0.05528754 -0.043862402 -0.0214094 -0.060060438 -0.06168624 0.04360587
-0.05272894 -0.08053722 -0.0830773 -0.05518513 0.07469045 0.0503575 0.018005185 -0.06720053
-0.08062883 0.011665814 0.028399989 -0.08344256 0.039379425 -0.03233521 -0.058874734 0.0052951053
0.031526275 -0.068818346 -0.08137995 0.00026213378 -0.023456283 -0.048028503 0.01940211 -0.010333933
0.04900644 -0.050239705 0.013086185 0.0164316 -0.084985755 -0.04197711 -0.05059612 0.07905223
0.0015631244 -0.06399374 -0.020824894 -0.016440988 -0.06776899 0.07829764 0.050215192 0.037173085
0.017433181 -0.028771333 0.027452715 0.050240986 0.0042691603 -0.078601345 0.04788018 -0.002262719
-0.0790938 -0.0021511316 0.08364748 -0.006002277 0.08363936 -0.051731367 -0.0027264133 -0.060787648
0.028299384 -0.0076690614 0.036967583 -0.07576259 0.064014904 0.0569792 0.06097137 -0.039413605
-0.042496458 -0.031589463 -0.07444618 0.0533629 0.07164515 -0.058273844 -0.061403226 0.02724979
0.07359191 -0.0073319003 -0.023653425 0.0846869 0.073608495 -0.0024926364 0.05149185 0.06803315
-0.060965754 0.010409482 0.06385701 -0.028661743 0.06368353 -0.08287196 0.06668825 0.008958891
0.05702322 -0.026925124 0.004000008 -0.01694236 0.03718347 0.08497592 -0.019820385 -0.04456985
7.369369e-05 -0.04666067 0.0034629628 -0.058030013 -0.003577739 -0.029488381 -0.03586041 0.08163304
-0.03561222 0.016772516 0.050035276 -0.046718884 0.0044522434 -0.06764483 0.059374608 -0.08795054

net.4.bias f4 [128]
00000000: c4c1 1f3d d093 3cbc c2bd 963b 7495 6bbd
00000010: 1868 ae3d 3dd4 a4bc 6986 9f3c 00bc 0139
00000020: 7904 0bbc 27b2 81bd 15a2 263d ca93 b13d
00000030: 7f2d ab3d b681 123d 868b b43d 4c8c 9fbc
00000040: b78b f7bc 4131 04bc f5be 67bd c589 72bd
00000050: e4e5 813d c6d2 b8bb 661e bf3d 9e56 a0bd
00000060: 60c9 0dbd 7e06 6fbc ffb2 28bc 1cc7 28bd
00000070: ab88 af3b 3431 a2bd d8cd 1ebd e41f 68bd
00000080: 4883 41bd fa79 3c3d 7e44 da3c 595e 7b3d
00000090: d72d 9d3d 9484 94bc 9522 333d d2ff 8bbd
000000a0: 114b 27bd a6b9 893d 89e5 e4bb 2b36 53bd
000000b0: 4cfc 1a3d 0ab7 68bd b278 85bd ddb9 2f3c
000000c0: 4fa8 903c 3c5f 21bc 4dfe 70bd c815 6f3d
000000d0: 51fd 28bd fbd9 893d 385d c2bc 47d5 3ebd
000000e0: a446 a53c 9c58 eabc 8a11 43bd 0c5b 563b
000000f0: a83f 37bd 751a e9bb 17f9 8c3d a07e cfbc
00000100: 10eb 8e3d 501e 9cbb a14d a63d 2f96 933d
00000110: 0374 bd3d 8779 eabc 8e05 51bd 5cab a63d
00000120: bc24 5fbd 6c92 823d 8ae4 7c3d 73e0 443d
00000130: ed7e 1f3c cab2 4c39 8dc1 9f3d 883c 083c
00000140: dd1a b2bd 5797 49ba 46b1 bd3b bb32 81bd
00000150: 3006 6dbd 3e9b a33d 50ec a6bc 104c 9e3d
00000160: 04d8 873d a903 2abd fee7 653c fbf0 84bc
00000170: b610 e2bc d428 8cbd a6c3 66bd f4ca 4f3d
00000180: d852 7b3c dc80 093d 9e3f e83c 978c 903d
00000190: 5a5c c6bc cb0c 51bd 5e3e e6bc 0dea a4bd
000001a0: 2d47 14bd e02e 913d 318c a9bb 8af3 143d
000001b0: 329b 143c ce9a 1dbc 4a96 29bd 9afd 32bc
000001c0: 6c92 563c f813 813c 05ad 113c d336 acbd
000001d0: 7eb2 1f3d 41b6 663d 43b1 823d e817 27bd
000001e0: cd1a 4ebd 36d7 533d ca02 383d a925 34bd
000001f0: 30d6 88bb e91f 683d a9de 8a3d 90a3 1bbd
0.03900315 -0.011509851 0.0046002576 -0.057515576 0.08515948 -0.020120734 0.019473271 0.00012372434
-0.008484953 -0.06332808 0.040681917 0.08670767 0.08358287 0.035768233 0.088156745 -0.019476078
-0.030217988 -0.008068384 -0.056578595 -0.05921342 0.06342676 -0.0056403605 0.0933197 -0.07829021
-0.034615874 -0.01458895 -0.010296582 -0.04120551 0.0053568683 -0.07919541 -0.038770527 -0.05667104
-0.04724434 0.046014763 0.026643988 0.061369274 0.07674759 -0.018129624 0.043734152 -0.06835903
-0.040843073 0.06724863 -0.0069853705 -0.05156533 0.037838265 -0.056815185 -0.065171614 0.010725466
0.01765838 -0.009849366 -0.05883627 0.05837038 -0.041257206 0.067310296 -0.02372609 -0.046590116
0.020175286 -0.028606705 -0.04762415 0.0032708077 -0.04473844 -0.0071137496 0.068834476 -0.025328934
0.06978428 -0.0047643557 0.08120275 0.072063796 0.09250643 -0.028622402 -0.051030688 0.08138153
-0.054478392 0.06375584 0.06174139 0.048065614 0.009734851 0.0001952156 0.07800589 0.008315213
-0.0869653 -0.0007690093 0.005788955 -0.06308504 -0.05786723 0.079885945 -0.020376354 0.077293515
0.066329986 -0.041507397 0.014032362 -0.01622819 -0.027595859 -0.06843725 -0.05633893 0.05073066
0.015339576 0.033570156 0.028350648 0.070580654 -0.024213959 -0.05103759 -0.02810591 -0.08052454
-0.03620069 0.07089019 -0.005174183 0.03636507 0.009070205 -0.009619428 -0.041403092 -0.010924721
0.013096433 0.015756592 0.008891349 -0.084088944 0.038988583 0.056326155 0.06381466 -0.040794283
-0.050318528 0.051718913 0.044924535 -0.043981228 -0.0041759238 0.056671057 0.0678075 -0.037997782

net.6.weight f4 [256, 128]
00000000: 3dd2 943d ce41 593d b627 73bd 0869 9b3d
00000010: a784 11bd fcbd 0abd 84bf 4ebd 40a8 23bb
00000020: b084 e13b 3312 a5bd f87e a33c ee3c 743d
00000030: fa70 723d f580 acbd d2ff 53bd 3b99 923d
00000040: b679 323d 461e 913d e755 333d 9601 ab3d
00000050: a029 1bbd d0ce 47bc d9f3 84bd 5585 963d
00000060: 0081 733b a414 923d 5ed1 6f3d eed6 94bd
00000070: e8f5 8fbd 57ec 8ebd 0fc0 913d ae4f b0bd
00000080: ffa8 3e3d 0175 863d 94fe ed3c f887 d73c
00000090: 33bf fb38 4e36 8fbd b8fb 1ebd 9dc9 61bd
000000a0: fb50 df3c 5cd2 3abd 7db6 5bbd 2ce0 59bd
000000b0: 4014 e3bc 836f 59bd 1174 61bd 5ae8 9abd
000000c0: 2d3d 61bc 0386 0abd 9d8b 233d 3a9b a1bd
000000d0: 1c15 3a3d 3a59 8d3d e826 d83c ff13 ab3d
000000e0: 4edb 8fbd 846a 063d 9972 c3bc ea7a 0b3d
000000f0: 2c64 993c 4890 b03c 20e3 21bd 8ee4 183d
00000100: 3b57 3dbd 48ea 0b3d 5f5c a4bd 5d74 8bbd
00000110: a320 6c3d 27d9 293d c7a4 9a3d 0800 4a3c
00000120: 405d c8bb f712 533b b3eb 83bd e28f 3b3d
00000130: 0903 0e3d 3c30 b13d d46c 56bd de61 5b3d
00000140: 460c 48bd 5816 733d 5867 fabb 043e 86bd
00000150: ca02 0b3d c046 513d 805c b0ba fd14 663d
00000160: e39f 723d b256 863c 4ffe 453d 944f 18bd
00000170: 5d12 64bd faba 2f3d d58a a33d f0e9 5fbd
00000180: c053 153d 32d8 4fbd 724b 1bbd 30da 1e3c
00000190: eedb 89bc 2748 913d 33ca 13bd f316 acbc
000001a0: 1441 d03c 25cc ac3c d58b e33a 8331 a43d
000001b0: c20c b8bc 9e46 903d bf5b 1ebd 086e 903d
000001c0: ae1f 943d 1c7c 56bd f3d2 733d ad4c 853d
000001d0: b295 46bd 613b 993d 4516 a1bd 8021 2abd
000001e0: 0633 293d c630 2e3d c925 83bd b077 8b3b
000001f0: 927e afbd f5d9 edbb 8062 b1ba a048 92bc
00000200: 398e e6bc 6ea7 083d 1dd5 dbbc f95c c63d
00000210: 2391 af3d 810c b1bc 59aa af3d f619 1abd
00000220: 8a4d 6ebc 25ef 0e3d fe9b a43d fa60 22bc
00000230: 22a1 f5bc c06b 58bd b1cd 52bd 0c23 c13c
00000240: a8c2 0d3d 1ba9 873d 95af f73d a55a 3abd
00000250: 978e 883d f00f 3cbd 4bb0 533b e39f d83c
00000260: 9a5e adbd b12d 813d 2de4 9d3d 8556 46bd
00000270: d63e ee3c 8bc5 1fbd 1312 9b3d f70e 12bc
00000280: d8cb 99bb 0645 41bd 6b91 cabb 1c47 523d
00000290: 4ead 5e3c 4c3d 1f3d 9701 9b3d 6c1a cf3c
000002a0: b372 013d 3858 313d a2fd 9c3c d68b 533d
000002b0: 62df d13d c3ea aa3d 3858 18bc 9af4 a03c
000002c0: ba9b 423c e2e2 3e3d eb2e fcbc cfd5 80bd
000002d0: 4497 ce3c be17 90bd f495 2cbd fedf afbd
000002e0: b71e a9bd 592d 88bc 7b37 81bd 795b 243c
000002f0: b6d2 70bd cafe 953d ffe0 84bd 7ccb 39bd
00000300: 5563 44bd c07b a63c 2806 013d 4799 0e3d
00000310: 2ce7 87bd 77ce 3c3d 9809 163c 0819 e23d
00000320: f61e 513d 5fa0 a2bc 506e c43d abb4 3dbd
00000330: 27ca bcbc 9c77 433c 8a6e 31bd e5a8 98bd
00000340: 48d1 cbbc 25a1 17bd a56b c0bc 1e7e aabd
00000350: 5bed 0cbd 799b 383d e095 eebc b016 8d3d
00000360: 9c56 5a3d b702 8bbc aa9e b43d 1607 903c
00000370: c337 953d 92ed 263d d52b 703d 197a 8c3d
00000380: 0d88 4abd 5ef2 893d d38b 3fbc 1b62 ebbc
00000390: 5214 503d 8ef1 58bc d1f8 b03d b094 a1bb
000003a0: be33 81bd 348f 0cbc f155 ab3b 8f14 89bd
000003b0: d76c 7e3c 2aef e83c 3cde 9dbd 31db d2ba
000003c0: 33aa 25bd 7d8c 46bd cd2c 823c 6f75 5d3d
000003d0: cc02 16bd 6ed8 8bb9 63d8 013b 3eb2 393d
000003e0: 2f23 7cbd 3258 6b3d b57f 793c 7709 373d
000003f0: 1856 72bc 515c 16bd 32ba 533d a42b e0bc
0.07266662 0.053041272 -0.059364043 0.075883925 -0.035526898 -0.03387259 -0.050475612 -0.002497211
0.0068822727 -0.08060112 0.019958004 0.05962842 0.059189774 -0.08423034 -0.05175764 0.07158133
0.043573104 0.07085852 0.043783095 0.08349912 -0.037881494 -0.012195304 -0.06491823 0.0734965
0.0037155747 0.07132843 0.058549277 -0.07267557 -0.07029325 -0.06978672 0.071167104 -0.08608948
0.046547886 0.065652855 0.029052056 0.026309952 0.00012004226 -0.0699278 -0.038814276 -0.055123914
0.027260294 -0.04561077 -0.05364083 -0.053192303 -0.027719617 -0.05308486 -0.05504233 -0.07563849
-0.013747496 -0.03381921 0.039928067 -0.07890935 0.045430288 0.06901784 0.02638574 0.08353423
-0.07024251 0.032816425 -0.023858355 0.034052767 0.018724523 0.021553174 -0.039523244 0.03732734
-0.046225768 0.034158975 -0.08025431 -0.06809304 0.057648312 0.04146686 0.0755096 0.012329109
-0.006114632 0.003220735 -0.064414404 0.045791514 0.034670863 0.08651778 -0.05234988 0.05356013
-0.04883983 0.05934748 -0.007641714 -0.06554797 0.033938207 0.051092863 -0.0013455302 0.05617236
0.05923451 0.016398761 0.04833823 -0.037185267 -0.055681575 0.042902924 0.079854645 -0.05466646
0.036456823 -0.05074329 -0.037913747 0.009695575 -0.016828503 0.0709384 -0.036081504 -0.021007037
0.025421657 0.021093437 0.0017360399 0.08017256 -0.02246702 0.07044719 -0.038661715 0.07052237
0.07232605 -0.052364454 0.05952735 0.06508765 -0.048482604 0.07482029 -0.07865576 -0.041535854
0.041308425 0.042526983 -0.06403691 0.004256211 -0.08569063 -0.0072586485 -0.0013533384 -0.017856896
-0.028143989 0.0333628 -0.026835019 0.09685702 0.085726045 -0.021612408 0.08577413 -0.037622415
-0.014544854 0.034896035 0.08037566 -0.009910816 -0.02998406 -0.052837133 -0.051465694 0.023576282
0.034609467 0.06624051 0.120940365 -0.0454966 0.06667822 -0.045913637 0.0032301124 0.026443427
-0.084653094 0.06307543 0.07709537 -0.048422355 0.029082697 -0.03900675 0.07571807 -0.008914701
-0.0046934895 -0.047184967 -0.006181886 0.051337346 0.013591124 0.038876817 0.075686626 0.025281154
0.031603526 0.043297023 0.01916391 0.05164703 0.10247685 0.083455585 -0.009298377 0.019647885
0.011877948 0.04660309 -0.030784091 -0.06290781 0.025218613 -0.070357785 -0.042135194 -0.08587645
-0.082578115 -0.016623186 -0.0630941 0.010031574 -0.0587947 0.07323988 -0.06488227 -0.045360073
-0.047946293 0.02032268 0.03150001 0.034814145 -0.066358894 0.046095338 0.009157561 0.110399306
0.051054917 -0.019851862 0.09591353 -0.046314877 -0.023045612 0.011930373 -0.04331831 -0.07454089
-0.024880067 -0.037018914 -0.023488829 -0.08324836 -0.034406047 0.045070145 -0.0291242 0.06889093
0.053305253 -0.016969068 0.08819325 0.017581504 0.07286026 0.04075391 0.05863555 0.06859226
-0.049446154 0.06735681 -0.011691052 -0.028733304 0.05080063 -0.013241185 0.08641208 -0.004931055
-0.06308697 -0.008579064 0.005228751 -0.06693374 0.015528879 0.028434355 -0.077084035 -0.0016087053
-0.040445518 -0.048473824 0.015890503 0.05406707 -0.03662376 -0.000266734 0.0019812814 0.045336
-0.06155699 0.057457156 0.015228202 0.04468676 -0.014791034 -0.036709134 0.05169124 -0.02736456

net.6.bias f4 [256]
00000000: c2ac 98bd 671f 373b fc9f b63c f646 27bd
00000010: c08a 333d fbe5 60bd c3c5 773c 83a3 433d
00000020: c03d 263d fe47 693c 7897 28bd 1472 0f3d
00000030: bfda a7bd 0b5c 8cbd 2404 87bd 9dc9 b3bc
00000040: b30e f83b cff1 3a3d 4475 873d c767 0a3c
00000050: 783e 3fbd 86a6 003c f406 9c3d 107c bdbd
00000060: 9cb9 1bbd 050e 1abd fe68 6cbd a464 a3bd
00000070: e8ae 7f3d 8d31 33bd a1da 0d3d 8075 25bc
00000080: 17af 8a3d b2da c3bd 2720 873d e000 3a3c
00000090: 4116 433c 6411 6cbd d44b e93d cef4 93bd
000000a0: 2bab a83d 2523 46bd c56b 8d3d 30d4 eebc
000000b0: f7fc 95bd 5ad3 0d3c 1c62 ba3d efbd 2dbc
000000c0: bf57 723d 8f44 a2bd 815e 90bb f130 80bd
000000d0: ffaf 67bd ae1e 533d 5760 aebd f117 02bd
000000e0: 1cb1 2d3d d20a c03d 84d8 c4bc 2671 1f3d
000000f0: 24d3 30bd a3e9 3d3c 4d1d 26bd c0fa 9dbd
00000100: 24ef a1bc 30b9 9c3c 710c ad3d 6889 c5bc
00000110: c09c 85bd bcfd ac3d c670 b4bd 208c a53c
00000120: 2c5b 9cbd 175a 8abd f668 e73a fa14 4e3c
00000130: 51b3 8cbd 15c6 b2bd dc86 a13d a8e3 2ebc
00000140: ab08 aa3d 983c 2f3d 9456 533d 8fd2 7c3d
00000150: 75b1 4d3d db59 903d 6b74 90bc 950e 5e3d
00000160: 2c39 8bbd 4435 84bd abd9 5b3c bc70 95bc
00000170: 60b8 85bd 519b 84bd 027d acbc cc21 8b3c
00000180: 6a4a f73c 180c a1bd a0e7 94bd 1f4a a2bd
00000190: cf9f d83c 0d82 ff3c 16fa 8c3d 02c7 b3bb
000001a0: 1a4f a6bd 09d0 4a3d d262 813a ce70 1e3d
000001b0: 4b4a 3c3b 6427 f4b8 97fe bd3d 1e1f 7b3d
000001c0: 59c9 88bd b5fb 6ebd 368b 6abd 29bf 8c3d
000001d0: 1808 cebc 01a6 a1bc e139 183d 803b 78ba
000001e0: d905 e8bc a5e4 603d 3174 2ebd 6312 c03d
000001f0: 203a 0ebd ca97 ab3c 5fbc 763d 3d8c a63d
00000200: 6097 b03d 043d 793d 0079 f0bb 7355 3a3c
00000210: 86ca 08bd 34b0 f4bb 1bf6 d53d a08c 6dbb
00000220: 0dea 9d3d 87ef 923d 3c0d d53c 4162 96bb
00000230: 0f2a 8fbd 41c3 1abd d3bf 61bd 530d 693d
00000240: 69b0 713c f2f7 b03d 9388 bc3b f1bd 9dbd
00000250: d41d 66bb 76c7 56bd 7ef0 13bd f6a0 463d
00000260: 0066 8e3d cd8c f73c 7eb2 a43d cda1 943d
00000270: 4e1d 933d bc73 27bc d487 d43b af55 443c
00000280: fc06 c4bc 7e2b b1bd 2822 dd3c 6c9c 993d
00000290: 1376 213d 81f5 9bbd ccd9 193d 7ad2 173d
000002a0: d0d1 9cbb 8458 973d 9c78 8e3d 50b0 76bd
000002b0: dd09 003c 7cf8 6d3d b017 fbbb 9bbf 97bd
000002c0: 0c6a 4c3b b200 d5bb bcc9 c43c cc18 833c
000002d0: d206 233d ed01 e63c e089 48bd a7e9 acbd
000002e0: 0169 b43d 9c07 3e3d 92a2 a4bd d782 30bd
000002f0: a4cc c33c 1d97 54bd a8d0 37bd 07fb ab3d
00000300: 03cc 53bc b67f 30bb ba65 a0bd 4973 90bd
00000310: e76d 743d 20b9 48bb 10cd 7ebd b91b 5b3c
00000320: 7e47 11bd 70f4 a4bd 75d6 0abd 4917 39bc
00000330: 7795 79bd ac11 7dbd 37b9 64bd 60ff f13c
00000340: fa56 cf3c 1685 8f3d e86a 843d de47 25bd
00000350: 4a16 9ebd f03c 5a3b 3251 8ebd cb86 953d
00000360: c104 a03d 736b 093d 1ac6 90bd 2dd1 113d
00000370: 8638 0b3b 9d2b b23b 542d 813d e7a8 39bb
00000380: 3cbc 023d 2e0e d8bc c1bf b1bc a23b 33bc
00000390: 2f9e b93d 09ce cd3c 3f9c 38bd 8b95 d4bb
000003a0: 80e4 77ba cc8e c83c 2b43 adbd 62ab f83c
000003b0: bc9b 113c 31ab a23d 716c 0d3d 1d00 67bd
000003c0: 976a 353d 16b4 463d b243 dc3c bb3c 41bd
000003d0: 18e6 913c ecc8 51bc 3b57 80bd 0c7e fb3c
000003e0: afac b2bd 3f53 96bd 7b4b 03bd b8ad 78bd
000003f0: b970 c5bc 9f3a 523d 4764 54bd 5ff1 373d
-0.07454826 0.0027942301 0.022293083 -0.040839158 0.043833494 -0.054906826 0.015122834 0.04776336
0.040586233 0.014238356 -0.041160077 0.035020903 -0.081960194 -0.06853493 -0.06592587 -0.021946723
0.0075701117 0.045640763 0.066141635 0.008447594 -0.046690434 0.007852202 0.07618514 -0.09252179
-0.038018808 -0.037611026 -0.057717316 -0.0797818 0.062422663 -0.043748427 0.03463233 -0.010098815
0.06771677 -0.09563197 0.065979294 0.011352748 0.011907161 -0.057633772 0.11391416 -0.07224427
0.08235773 -0.04837336 0.06905321 -0.029153913 -0.0732364 0.008656347 0.09100744 -0.010604366
0.059165712 -0.07923233 -0.004405797 -0.06259335 -0.056564327 0.05154293 -0.08514469 -0.031761114
0.042405233 0.09377064 -0.024029024 0.038926266 -0.04317011 0.011591348 -0.040555287 -0.077138424
-0.019767351 0.019131273 0.08449639 -0.024113372 -0.06524038 0.084468335 -0.08810572 0.020208418
-0.07634577 -0.067554645 0.0017655182 0.012578243 -0.068701394 -0.087291874 0.078870505 -0.010674395
0.083024345 0.042782396 0.05159624 0.06172424 0.050218064 0.070483886 -0.017633637 0.054213125
-0.06798014 -0.06455472 0.013418595 -0.018242233 -0.06529307 -0.06474937 -0.021055702 0.016983889
0.03018685 -0.07863635 -0.072707415 -0.07924294 0.02644339 0.031189943 0.068836376 -0.00548637
-0.08120556 0.049514804 0.000987137 0.038681798 0.0028730805 -0.00011642164 0.09277075 0.061308973
-0.06679029 -0.058345515 -0.05726167 0.068723984 -0.025150344 -0.019732477 0.037164573 -0.00094693154
-0.0283231 0.054905552 -0.042591278 0.09378507 -0.0347234 0.020946402 0.06023824 0.08132217
0.086226225 0.060849205 -0.007338643 0.011372912 -0.033396266 -0.007467294 0.104473315 -0.003624715
0.07710657 0.071745925 0.026007287 -0.0045893495 -0.06990444 -0.037783865 -0.05511458 0.056897473
0.014751532 0.08641042 0.0057535856 -0.07702244 -0.0035112994 -0.052436315 -0.036118023 0.048493348
0.06953049 0.030218506 0.08041857 0.072574235 0.07183324 -0.010220464 0.0064859185 0.011983319
-0.023929112 -0.086508736 0.026993826 0.07500538 0.039419245 -0.076151855 0.037561223 0.03706596
-0.004785754 0.0738993 0.06956598 -0.06022674 0.007814852 0.0580983 -0.007662736 -0.07409593
0.0031191139 -0.006500327 0.024021976 0.016003035 0.039801426 0.02807709 -0.048959613 -0.08443003
0.088090904 0.046393976 -0.0803882 -0.04309353 0.023901291 -0.051901925 -0.044876724 0.08397489
-0.012927058 -0.002693159 -0.07831903 -0.07053239 0.059675124 -0.0030627921 -0.06220728 0.013373309
-0.03546857 -0.08054435 -0.03389593 -0.0112970555 -0.060933556 -0.06178443 -0.055840697 0.029540718
0.025310028 0.07007806 0.06465703 -0.04035174 -0.07719095 0.0033300482 -0.069490805 0.073011
0.07813407 0.033549737 -0.07069035 0.035599876 0.0021243407 0.005437328 0.06307474 -0.0028329433
0.031917796 -0.026373949 -0.02169788 -0.010939511 0.09063374 0.02512266 -0.045070883 -0.0064875535
-0.00094563514 0.024482153 -0.08460077 0.03035516 0.008887228 0.079428084 0.034527246 -0.056396592
0.044291105 0.048511587 0.026887748 -0.047177058 0.017809913 -0.012804251 -0.06266638 0.030699752
-0.08724343 -0.07340097 -0.032054406 -0.060712546 -0.024101602 0.051325437 -0.051853444 0.044907924

μ.weight f4 [2, 256]
00000000: f00e 3ebd 678a e4bc 93fd 70bd 88fb 183c
00000010: 57c5 843d a638 54bd 5cc2 5f3d cc25 803d
00000020: 9422 673d f13b 25bd 7583 1ebd 8072 cf3b
00000030: 005c 28bb be31 2c3c a05a 493b c676 f2bb
00000040: 331b e0bc d2ad 46bd 4660 fdbc 9340 52bd
00000050: 440b 6bbd 2baf 41bd eb7a 723d 85b1 503d
00000060: 9cd3 5b3d b49c 22bd f478 5bbd 04d5 7abc
00000070: 063b 0abc dc1f 3d3d 2145 92bd 1cdf 9fbc
00000080: e31c ffbc 7cf7 bf3c 41e9 5bbc 20a2 47bc
00000090: 74c2 ef3c a87e 2ebd 5d97 dcbc 8a98 49bd
000000a0: 7444 393d b0be 0dbd adbf a6bd 93c7 13bd
000000b0: da6d 653d e2e8 ee3a 0764 243d 9e96 f4bc
000000c0: e2d4 c63b e90a 71bd 1648 e9bc 0a42 5cbd
000000d0: c2b3 38bd b8e6 513c 9900 7e3d 61e4 05bd
000000e0: bde3 8938 e8b2 323d 2f28 8aba 3a6e e43c
000000f0: 3ee1 1fbd 1d92 bbbc e28b 1a3d d086 e43c
00000100: 1dd3 0c3d ce10 7a3c 6abb 23bd d2ed 513d
00000110: e43f a93c 2598 f2bc 1009 43bc b3b7 b1bc
00000120: 90db 3d3d ef7c bdbd 1917 2cbc 4125 83bd
00000130: c0d3 643c eafe 2cbd be00 05bd e8e3 3cbc
00000140: e511 103d d304 06bd 0dfa 1e3d d9d9 19bc
00000150: d02e 53bd 8525 4ebd 6be1 423d c35d 883c
00000160: c2bb 5b3d c472 c83c 4799 80bb bc3b bb3c
00000170: 089f a93c b23b 103d 453c 89bd 2503 0c3d
00000180: 49ec 85bb 2eea 6cbd 90a4 983b 5065 513d
00000190: c578 a63b 82cc 733c 9180 d7bc cb50 e3bc
000001a0: e00a 903b 2af8 ec3c 2ed3 64bd 22b8 e53b
000001b0: a10b f5bc efde 19bc b575 25bd aaef 813c
000001c0: c873 b93c adc4 4cbd 0028 af39 aba2 82bc
000001d0: 06c5 8f3c 05a2 83bd ae08 76bc 483d 9b3c
000001e0: 601b 893d c44b 503d b4f2 453d 2986 3a3c
000001f0: 327a 563d 746f e83c 8444 26bd 1589 61bd
00000200: 3e95 9e3b 7498 6abd 7270 783d 4405 213d
00000210: 1c2a 2dbd 5c4a 00bd b61c 53bc 7aec 6ebd
00000220: 3c33 7fbd 775e 22bc 6d9e 3dbd 9c02 803d
00000230: dc49 ea3c 106e 33bd 6eca 693d 21fc 8dbc
00000240: 2346 82b8 ff4f 5b3d 44ee a83b 03f7 dc3b
00000250: 8ed5 f2bc 90d3 0dbc 53c0 32bc 9f7f 713d
00000260: 82f9 353b 70cb 35bc 52f0 f2bc a66f c1bb
00000270: 34e6 fbbc 4f29 46bd 37ed 8b3d 2179 a83b
00000280: 8cbc 5b3d 70fe 333d be59 f9bc fdce 7fbc
00000290: d248 393d 0dc7 81bd ed30 e73a 28fa 813d
000002a0: 92e5 6bbd 745b cfbc e5ef 653d 409c 6f3b
000002b0: f3c3 ecbc 8494 ae3c b0c3 e63c c018 743d
000002c0: 191c 2cbd 2d50 57bd 74b9 4fbd 27f3 803d
000002d0: bbc7 a1bc 19c7 4dbd 8b7f e63c b0ff 8c3b
000002e0: ea5a 1c3d 292f b3bc 3c17 03bd b679 573d
000002f0: 867f 283d 1832 17bd 6b4e 5c3d 2ce4 8c3d
00000300: 58bd e03c 3f4f 9a3d cce7 4f3d 60b7 6dbc
00000310: c50b 5a3d 32b8 72bd 5d45 89bc f3bb 84bc
00000320: 3e36 81bd 7014 08bc 9678 82bc 21bb 9b3b
00000330: 7d46 d13c 1bea 283b cf3a 91bc d43f f93b
00000340: bcb3 0bbd 82ed 0abd eb28 bc3c c414 33bd
00000350: 7820 9e3c e953 093d 369d bcbb d017 1f3d
00000360: feb1 873c 11ee bdbc c139 ab3a c0f1 463d
00000370: c5ee be3d 0808 d0bc b2da 5bbd bb56 873d
00000380: 5951 febc 949e b73c fad3 c63c 42e7 2ebd
00000390: bde7 39bd 56ad 55bd 4058 503d 4739 433c
000003a0: 1c9d 603d cda7 12bc 60e4 b5bc 81ba 053d
000003b0: 0fe8 e8ba ab4f 393c dcc5 c23c f8dd 06bc
000003c0: 2c2f f73c e828 d2bb e179 35bd 6dae 5d3c
000003d0: 7475 863d 0a87 ab3c 6ce0 cebc b00a 6d3d
000003e0: fef3 02bd 4c23 24bd a859 563d d0eb 343d
000003f0: 989a 973d e1b9 453d 4265 37bd e57e 293d
-0.046400964 -0.027898027 -0.058835577 0.0093373135 0.06482952 -0.051811837 0.054628715 0.06257209
0.05642946 -0.040340368 -0.038699586 0.006330788 -0.0025689602 0.010509906 0.0030724183 -0.007399413
-0.02735672 -0.04850561 -0.030929696 -0.051331114 -0.05738379 -0.047286194 0.059199255 0.050950546
0.053668603 -0.039700225 -0.053582147 -0.015309576 -0.008436924 0.04617296 -0.071420915 -0.019515567
-0.031141704 0.02343344 -0.013422311 -0.01218465 0.029267527 -0.042601258 -0.026927644 -0.04921774
0.045231298 -0.034605682 -0.08142028 -0.036079 0.056012966 0.0018227363 0.040134456 -0.029856976
0.006067858 -0.058848295 -0.028476756 -0.053773917 -0.045093305 0.012811355 0.06201229 -0.032688502
6.5750886e-05 0.04362765 -0.001054054 0.027884591 -0.039033167 -0.02289682 0.03773106 0.027896315
0.03438102 0.015262796 -0.039973654 0.051252194 0.020660348 -0.029613564 -0.011904016 -0.02169404
0.04635197 -0.09252345 -0.010503554 -0.0640359 0.013966501 -0.042235292 -0.03247141 -0.011528946
0.035173316 -0.032719444 0.038812686 -0.009390318 -0.051558316 -0.05032875 0.047578257 0.016646272
0.053645857 0.024468787 -0.003924522 0.022855632 0.020705715 0.03521318 -0.067009486 0.034182686
-0.0040870053 -0.05784052 0.0046582893 0.05112201 0.005080315 0.014880301 -0.026306422 -0.027748486
0.0043958277 0.028926928 -0.05586546 0.0070104757 -0.029912772 -0.00939153 -0.040395457 0.015861351
0.022638217 -0.049992252 0.00033408403 -0.015946707 0.017550003 -0.06427387 -0.015016718 0.01895012
0.066946745 0.050853506 0.048327163 0.011384525 0.05236263 0.028373457 -0.040592685 -0.055062372
0.0048395684 -0.057274297 0.06065411 0.039311662 -0.042276487 -0.031320915 -0.012885263 -0.05833099
-0.06230472 -0.0099102175 -0.046293665 0.06250498 0.028599672 -0.043806136 0.057077818 -0.017332138
-6.211947e-05 0.053543087 0.0051553566 0.0067433133 -0.029642846 -0.008656397 -0.0109101115 0.0589596
0.0027767126 -0.011095867 -0.02965561 -0.005903202 -0.030749418 -0.04837924 0.068323545 0.005141393
0.05364661 0.043943822 -0.0304383 -0.015613315 0.045235462 -0.06336794 0.0017638482 0.06346542
-0.057591982 -0.025312163 0.056136984 0.0036561638 -0.02890203 0.021311052 0.028169483 0.059593916
-0.042018984 -0.052566696 -0.05071397 0.06296378 -0.01974856 -0.050238702 0.02813699 0.0043029413
0.03817264 -0.021873074 -0.03200458 0.052606307 0.04113724 -0.036913007 0.053785723 0.06879458
0.027434036 0.07534646 0.050758168 -0.014509052 0.05323388 -0.059257694 -0.016756708 -0.016202902
-0.06309174 -0.008305654 -0.01592664 0.004752532 0.025546307 0.0025774303 -0.017728237 0.007606486
-0.034106955 -0.03391791 0.02296873 -0.043720976 0.019302592 0.03352729 -0.0057560457 0.03884107
0.016564365 -0.023184808 0.0013063477 0.048570395 0.093228854 -0.025394455 -0.05367536 0.066083394
-0.031044649 0.022414483 0.024271 -0.042701013 -0.04538702 -0.05216726 0.05086541 0.011915511
0.05483733 -0.00895114 -0.022203624 0.032648567 -0.0017769354 0.011310498 0.023775987 -0.008231632
0.03017386 -0.006413568 -0.044305686 0.013530356 0.06565371 0.020938415 -0.025253497 0.05787152
-0.03197097 -0.040072724 0.052331597 0.0441702 0.07402533 0.04827297 -0.0447743 0.04138078

μ.bias f4 [2]
00000000: a7d5 4abd f9c3 56bc
-0.04952016 -0.013108247
