model/p.pth (torch, 148088 bytes, 8 tensors)

net.0.weight f4 [128, 13]
-0.23610488 0.16942766 0.05804198 0.20043889 0.18936208 0.11277002 -0.22152764 -0.10636477
-0.29431212 -0.13772956 0.22092162 -0.038819306 0.13651587 -0.09088687 0.011002262 -0.1634556
-0.06423373 -0.19437519 -0.078418426 -0.11296049 0.24604237 -0.09347486 -0.021529049 0.25498313
0.1787794 -0.13840346 -0.19337918 0.27330264 0.13542776 -0.21221168 0.16958942 0.0071651186
0.23757829 0.03405755 -0.13007611 0.20477472 -0.17029972 0.06617459 -0.2287657 0.2613105
0.06808472 -0.17725126 0.094860695 -0.21166201 0.21954486 0.16280906 0.25363803 0.011244635
-0.21300581 -0.13812128 0.19681662 -0.03822254 0.18417609 0.04283452 0.2537041 0.18500543
-0.08665005 0.27100733 -0.032961123 0.2597405 -0.020331768 -0.0013873085 0.19472383 0.023109052
0.21386987 -0.16162105 0.018327726 -0.25088945 -0.10690608 0.07558151 -0.15868206 -0.019113213
-0.2011712 -0.11606618 -0.10242646 -0.12462927 -0.06939611 -0.12533964 0.19235039 0.10292225
-0.12503995 -0.26911607 0.10118593 0.06226397 0.072418466 0.13121344 -0.24254145 -0.20074163
0.23690467 0.12777007 -0.04594511 0.22218637 0.10452609 -0.10652966 0.12277211 0.025565986
-0.17954451 -0.08489038 -0.0071114004 -0.05593641 -0.055635 0.017437596 -0.23915027 0.1227203
0.16888516 -0.19917461 0.15116738 -0.2691411 -0.03423685 0.11106739 -0.2662401 -0.11057152
0.06077961 0.18742642 -0.18490104 -0.14807113 -0.19398564 -0.16087754 -0.25640273 -0.201012
-0.2641748 -0.25923738 -0.32768732 0.14108911 -0.017513517 -0.19341962 0.08559623 0.006907567
0.17104435 0.05408149 0.09763783 -0.28849226 -0.062519275 -0.05028046 -0.30555922 -0.12322571
0.20558435 0.078622326 -0.059917122 -0.08236263 0.05834384 0.00035550594 -0.109381005 0.22011256
-0.25421515 0.14227201 -0.21619436 0.14841731 0.3009889 -0.23366381 0.07378903 -0.036205
-0.06303012 0.10019861 -0.24866337 -0.012863527 -0.20857571 0.19926098 0.2684588 0.2814784
0.27355114 0.27883363 0.004826444 -0.062047977 -0.0030807718 -0.2292667 -0.11694574 -0.08386179
0.18302509 -0.21337683 -0.09412784 0.1888445 0.02449519 0.10501091 -0.070692554 -0.1995006
-0.14583676 0.112192884 -0.057490412 -0.0606125 -0.0017146659 -0.149711 -0.046282846 -0.21399772
0.15421633 -0.020426823 0.26199853 0.066795915 0.20427784 0.20080478 0.23791508 -0.21716228
-0.081333704 -0.15076055 0.2395084 0.13803525 0.2639961 -0.21515657 -0.12055238 -0.2606343
0.11617525 -0.25607798 -0.24511474 -0.10912282 -0.008762919 0.15849571 0.0015346268 0.22128478
-0.1319987 0.111724384 -0.017520538 0.03713905 0.06668839 -0.09420262 -0.23805203 -0.15844932
0.08675362 0.19350056 -0.04322219 -0.05860244 -0.24641605 0.2217915 -0.11146535 0.06766163
0.26518542 -0.24588333 0.35668734 0.023444515 -0.2420873 -0.14462051 0.19358325 -0.22257806
-0.196243 0.08425391 0.19488956 -0.13276511 -0.20249715 -0.29778808 0.12051051 -0.20483889
0.24985613 0.023203898 0.05354327 0.12272362 0.22502287 -0.123730965 -0.2645229 -0.1974761
-0.09680273 0.05286888 -0.29199526 -0.20926213 -0.026434006 0.13696846 0.004257067 0.0040924195
00000000: 7ac5 71be 727e 2d3e 6dbd 6d3d da3f 4d3e
00000010: 22e8 413e f8f3 e63d 24d8 62be c6d5 d9bd
00000020: 14b0 96be fa08 0dbe 4739 623e fe00 1fbd
00000030: d1ca 0b3e e522 babd d542 343c e860 27be
00000040: f98c 83bd 4a0a 47be d799 a0bd d457 e7bd
00000050: 88f2 7b3e bf6f bfbd b05d b0bc 268d 823e
00000060: f211 373e a3b9 0dbe 3105 46be 53ee 8b3e
00000070: 93ad 0a3e 054e 59be d9a8 2d3e 5fc9 ea3b
00000080: b947 733e ee7f 0b3d ac32 05be 77b0 513e
00000090: 0d63 2ebe 8b86 873d 8e41 6abe 7dca 853e
000000a0: 0070 8b3d 5b81 35be 5346 c23d edbd 58be
000000b0: 5ed0 603e 6bb7 263e d8dc 813e 6b3b 383c
000000c0: 321e 5abe aa6f 0dbe 4c8a 493e 3d8f 1cbd
000000d0: a898 3c3e 4073 2f3d 81e5 813e 1072 3d3e
000000e0: 9575 b1bd 79c1 8a3e 3e02 07bd b5fc 843e
000000f0: cf8e a6bc 59d6 b5ba af65 473e 324f bd3c
00000100: b400 5b3e fd7f 25be 0724 963c 9574 80be
00000110: 93f1 dabd 7bca 9a3d 8d7d 22be 5093 9cbc
00000120: d3ff 4dbe 1bb4 edbd f7c4 d1bd a13d ffbd
00000130: 8c1f 8ebd 0959 00be 80f7 443e e7c8 d23d
00000140: 790a 00be 95c9 89be 923a cf3d 8108 7f3d
00000150: 2250 943d d15c 063e c95c 78be 378f 4dbe
00000160: 2397 723e 28d6 023e f130 3cbd d384 633e
00000170: c611 d63d 392c dabd f26f fb3d c26f d13c
00000180: 84da 37be 02db adbd c006 e9bb 941d 65bd
00000190: 87e1 63bd 4ad9 8e3c cfe3 74be c854 fb3d
000001a0: 3bf0 2c3e 6ef4 4bbe 9fcb 1a3e ddcc 89be
000001b0: f03b 0cbd 4d77 e33d 9f50 88be 5273 e2bd
000001c0: 0af4 783d b6ec 3f3e b356 3dbe f59f 17be
000001d0: 2ca4 46be 15bd 24be 3847 83be 17d6 4dbe
000001e0: eb41 87be c3ba 84be a2c6 a7be aa79 103e
000001f0: 8278 8fbc cb0f 46be 144d af3d df58 e23b
00000200: 4026 2f3e 8d84 5d3d 58f6 c73d 42b5 93be
00000210: 1b0a 80bd e2f2 4dbd 4272 9cbe c35d fcbd
00000220: b484 523e be04 a13d a86b 75bd bdad a8bd
00000230: f3f9 6e3d 3363 ba39 2603 e0bd 3065 613e
00000240: 7d28 82be c1af 113e 0e62 5dbe b5fa 173e
00000250: 381b 9a3e 9145 6fbe b41e 973d b24b 14bd
00000260: f015 81bd ee34 cd3d 9ca1 7ebe 8bc1 52bc
00000270: df94 55be 120b 4c3e 6f73 893e f01d 903e
00000280: e50e 8c3e 48c3 8e3e 2627 9e3b 0526 7ebd
00000290: c6e6 49bb e4c4 6abe 4081 efbd bbbf abbd
000002a0: ee6a 3b3e 757f 5abe 19c6 c0bd 7460 413e
000002b0: 23aa c83c f60f d73d 42c7 90bd e349 4cbe
000002c0: 3b56 15be 62c5 e53d 117b 6bbd d044 78bd
000002d0: a4be e0ba d74d 19be 1593 3dbd 3822 5bbe
000002e0: e3ea 1d3e 2756 a7bc ac24 863e 4ccc 883d
000002f0: 362e 513e c59f 4d3e 03a0 733e ca5f 5ebe
00000300: 4992 a6bd f960 1abe b141 753e 1d59 0d3e
00000310: 7f2a 873e 0152 5cbe 2be4 f6bd dc71 85be
00000320: 4aed ed3d a71c 83be 5cff 7abe c97b dfbd
00000330: 5992 0fbc b34c 223e 8825 c93a 7a98 623e
00000340: ab2a 07be c1cf e43d 3b87 8fbc 1e1f 183d
00000350: ec93 883d 4eed c0bd e9c3 73be 8a40 22be
00000360: e2ab b13d 0325 463e c009 31bd 1d09 70bd
00000370: 7d54 7cbe 501d 633e f247 e4bd 2e92 8a3d
00000380: 62c6 873e d7c8 7bbe b99f b63e b60e c03c
00000390: bce5 77be 6617 14be b03a 463e 81eb 63be
000003a0: edf3 48be 508d ac3d 2191 473e 94f3 07be
000003b0: 6a5b 4fbe ae77 98be 37ce f63d 49c1 51be
000003c0: 49da 7f3e 1a16 be3c 3050 5b3d 8556 fb3d
000003d0: 656c 663e a966 fdbd 8c6f 87be 2d37 4abe
000003e0: 8240 c6bd 0a8d 583d 6780 95be d048 56be
000003f0: 218c d8bc 7641 0c3e de7e 8b3b b419 863b

net.0.bias f4 [128]
-0.08100664 0.06737617 -0.16062374 -0.1095112 -0.13358964 -0.2675181 0.19932024 0.04540112
-0.16063982 -0.11314806 0.2887575 -0.104500294 0.15006106 -0.18056497 0.29193792 -0.16268143
-0.029192414 -0.0566564 0.097372346 0.09691672 0.124346346 -0.1938453 0.10305517 0.15486647
0.039874393 -0.09262912 0.033668444 0.098888785 -0.18438393 -0.21909194 0.032618433 0.009534545
0.17580515 -0.13628018 0.1545188 -0.07213705 0.022950666 0.24907409 0.2833665 0.16271962
0.14761947 -0.13841905 -0.03196809 0.17099825 0.18278873 -0.07123917 0.0044134525 -0.0370695
0.099962145 0.29318896 -0.17566535 0.018383482 -0.25695524 0.19869064 -0.17959014 0.075021684
-0.044602077 -0.23223355 0.11969011 -0.051232588 -0.1459972 0.13916552 0.20407811 0.17525075
-0.077593744 0.01820838 -0.22877967 -0.0053662355 0.27608082 0.07433404 -0.264181 -0.1821458
0.09034596 -0.10190239 0.25714377 0.2757002 -0.13866471 0.19536199 -0.015056427 -0.08429537
0.16954048 -0.26596147 -0.04860691 0.280155 0.28321978 0.20517132 -0.21661271 0.07156774
-0.12830372 0.17077373 0.20203182 -0.17851625 -0.1122543 -0.13391994 0.0663826 0.08194399
0.11329941 0.16416603 -0.23334815 -0.15637392 0.13949716 -0.28313097 -0.0192014 -0.21222131
0.090639584 -0.2656604 -0.1299577 0.27665532 -0.035928804 -0.069124915 0.16141357 -0.19345962
0.15100153 0.008952445 0.18902783 -0.08692523 0.046801474 -0.14287141 -0.20513502 -0.023617582
0.018604243 -0.04162038 -0.15246394 0.17913173 0.31195605 -0.16219261 -0.06589944 0.08144097
00000000: cfe6 a5bd 84fc 893d 8d7a 24be 6847 e0bd
00000010: b9cb 08be 22f8 88be 9b1a 4c3e 86f6 393d
00000020: c47e 24be 2cba e7bd 06d8 933e 4004 d6bd
00000030: 9ba9 193e 06e6 38be e378 953e f695 26be
00000040: ee24 efbc 8b10 68bd 276b c73d 467c c63d
00000050: 4ca9 fe3d 627f 46be 970e d33d 5195 1e3e
00000060: 5553 233d 56b4 bdbd ece7 093d 3486 ca3d
00000070: 24cf 3cbe a359 60be e89a 053d c836 1c3c
00000080: 4406 343e 088d 0bbe 2d3a 1e3e 97bc 93bd
00000090: 0903 bc3c 470d 7f3e 6a15 913e f99f 263e
000000a0: 8f29 173e b9bd 0dbe f9f0 02bd 2a1a 2f3e
000000b0: f82c 3b3e d8e5 91bd b99e 903b 30d6 17bd
000000c0: f4b8 cc3d dd1c 963e 9ee1 33be f598 963c
000000d0: a38f 83be 8f75 4b3e 7ae6 37be f8a4 993d
000000e0: abb0 36bd a2ce 6dbe 1720 f53d 43d9 51bd
000000f0: 4a80 15be 6881 0e3e daf9 503e ef74 333e
00000100: 78e9 9ebd be29 953c 3845 6abe 3fd7 afbb
00000110: 775a 8d3e 723c 983d bb42 87be 6e84 3abe
00000120: 4d07 b93d 33b2 d0bd 59a8 833e 9428 8d3e
00000130: 1ffe 0dbe f90c 483e 3baf 76bc 0da3 acbd
00000140: 059c 2d3e 1a2c 88be 0a18 47bd 7a70 8f3e
00000150: 2f02 913e 6e18 523e b9cf 5dbe 1b92 923d
00000160: 0d62 03be 4fdf 2e3e 6ee1 4e3e f7cc 36be
00000170: 95e5 e5bd 4f22 09be 9af3 873d 40d2 a73d
00000180: 8509 e83d 241b 283e d1f2 6ebe 7c20 20be
00000190: 58d8 0e3e 8bf6 90be 414c 9dbc 8b50 59be
000001a0: 3fa1 b93d a404 88be a213 05be c4a5 8d3e
000001b0: 152a 13bd 5d91 8dbd 9949 253e 471a 46be
000001c0: 25a0 1a3e 47ad 123c 8390 413e db05 b2bd
000001d0: e7b2 3f3d e24c 12be ea0e 52be a979 c1bc
000001e0: ed67 983c 227a 2abd 821f 1cbe 4f6e 373e
000001f0: b4b8 9f3e d215 26be 49f6 86bd 86ca a63d

net.2.weight f4 [256, 128]
0.058540504 0.056531202 0.0016433181 -0.045785695 -0.012946767 -0.04979166 0.08371106 0.07319967
0.020455802 -0.07762587 0.079009876 0.013590005 0.032370795 0.06280644 0.04296639 -0.0054857666
0.013021515 0.049155865 -0.06563696 0.049596183 -0.07602017 -0.00055421906 0.070787765 -0.036435794
0.05465276 -0.041164603 0.08186469 0.063259624 0.06778047 -0.029568942 -0.077043995 -0.039051723
0.008647852 -0.02659082 0.03430199 -0.060345873 0.008721225 -0.058159195 0.013182794 0.05620369
0.062272422 -0.01828669 -0.007088306 -0.01774567 0.12803505 -0.10588774 0.058594767 -0.026273685
0.0024613903 0.08495879 -0.016092472 0.056894828 0.003037714 -0.05344211 0.09653169 0.03616741
-0.019816564 0.02838132 0.0043046307 -0.050013617 0.07974148 -0.0330784 0.008818124 0.06641095
-0.0144068 -0.030483507 0.013825059 -0.050923534 -0.06564168 -0.056593284 -0.01286222 -0.076881744
-0.005269218 0.00017820118 0.034863114 -0.046502117 -0.029791437 0.05050191 0.046065107 0.06797036
0.060369406 -0.013104237 0.035808105 -0.046776783 0.042026684 0.012501935 -0.058543593 -0.042624325
0.07211453 0.035837416 0.00032194846 -0.021237295 0.06440186 0.010677702 -0.027274908 0.082502
-0.08457865 0.057805788 -0.047723845 0.052638367 0.019535983 -0.031401083 0.112944946 -0.032477457
0.024654897 0.10348238 0.056465827 -0.084852606 0.07861474 0.036068793 -0.037764426 -0.08895305
-0.062813126 0.0454302 0.09979801 0.080061 0.009833393 -0.020405851 -0.07689182 0.017324647
0.06316145 -0.008918165 -0.038460366 0.028247133 0.07340012 0.06735846 -0.09091241 -0.050598845
-0.038781174 -0.064437516 -0.039088797 -0.07099563 0.052578103 0.022349909 0.01871449 0.019929115
-0.07066042 -0.04478657 0.04228904 0.08973011 -0.026360447 0.038516413 -0.031253602 0.03683824
0.062451947 -0.0081180055 -0.038865972 0.0008212686 -0.019515859 -0.05094107 0.032440223 0.05599546
0.016168416 -0.0070933085 0.06605443 -0.059347685 0.09029748 -0.01701983 0.07348086 -0.072015196
-0.0021023653 0.05146872 0.0730697 0.018680403 0.11442985 -0.05121298 0.04803995 0.06302252
-0.042603526 0.06547028 0.0764758 -0.06030988 -0.06403602 0.057020053 0.06622162 0.10905407
-0.06640783 0.021233216 -0.10662857 0.052236013 -0.064532705 0.06095485 -0.12670906 0.05127151
-0.06866607 -0.07100221 -0.07061185 0.026327768 0.018479532 0.056985587 -0.0818245 0.0036184276
-0.01760071 0.078184165 0.0008633757 0.03264326 0.06176878 0.083964035 0.0002580136 0.08230065
0.037776396 -0.079683706 0.002330985 0.05658466 0.055505253 0.025655359 0.0016115047 0.009276949
-0.031201348 0.01873774 -0.053241324 0.08154408 -0.038956247 0.024232684 0.025709657 -0.07273526
0.08175694 0.10753924 -0.023464736 -0.009474495 -0.031074848 0.031573545 0.090350024 0.007202529
-0.031678356 -0.06726708 -0.050718006 -0.041137345 -0.03201786 0.073501885 -0.005846383 0.07292247
-0.073189564 0.030216511 -0.02966098 0.098559916 -0.07282414 -0.007547922 0.09841313 -0.022932392
0.0012468325 0.017207462 0.027928166 0.07630449 -0.112047166 -0.054494902 0.06252973 0.073919415
0.0021481514 -0.089197285 -0.031261913 0.017154664 0.023391418 0.034419976 0.057890587 0.0063822875
00000000: 2bc8 6f3d 438d 673d 9b64 d73a c889 3bbd
00000010: ad1e 54bc 57f2 4bbd b470 ab3d b5e9 953d
00000020: ed92 a73c 50fa 9ebd eecf a13d 9da8 5e3c
00000030: 3d97 043d aaa0 803d 86fd 2f3d f2c1 b3bb
00000040: 3158 553c a957 493d ac6c 86bd 5e25 4b3d
00000050: 76b0 9bbd 0349 11ba 2df9 903d b33d 15bd
00000060: 93db 5f3d 379c 28bd ada8 a73d 438e 813d
00000070: 7dd0 8a3d 913a f2bc 3ec9 9dbd b3f4 1fbd
00000080: b8af 0d3c fed4 d9bc 3e80 0c3d 3c2d 77bd
00000090: 78e3 0e3c 5638 6ebd a5fc 573c d735 663d
000000a0: 5e11 7f3d f8cd 95bc 0545 e8bb 5e5f 91bc
000000b0: 9f1b 033e acdb d8bd 1101 703d e93b d7bc
000000c0: 474f 213b e0fe ad3d 5cd4 83bc 8d0a 693d
000000d0: 6214 473b 1de6 5abd 68b2 c53d 4724 143d
000000e0: 5956 a2bc f17f e83c dc0d 8d3b 14db 4cbd
000000f0: 804f a33d 377d 07bd e579 103c 7702 883d
00000100: 800a 6cbc 8cb8 f9bc 8082 623c 3295 50bd
00000110: 256f 86bd 5cce 67bd 10bc 52bc 2d74 9dbd
00000120: 67a9 acbb 84db 3a39 a0cc 0e3d 0179 3ebd
00000130: 2c0d f4bc 17db 4e3d c4ae 3c3d 0b34 8b3d
00000140: e945 773d 27b3 56bc 85ab 123d 0399 3fbd
00000150: 2c24 2c3d ead4 4c3c 68cb 6fbd d896 2ebd
00000160: c8b0 933d 41ca 123d 31cb a839 d6f9 adbc
00000170: 1fe5 833d 87f1 2e3c a16f dfbc cff6 a83d
00000180: 9237 adbd c3c5 6c3d 147a 43bd 549b 573d
00000190: ed09 a03c 6c9e 00bd ae4f e73d 1507 05bd
000001a0: 11f9 c93c 92ee d33d b648 673d 34c7 adbd
000001b0: c400 a13d dfbc 133d dfae 1abd 042d b6bd
000001c0: 2ba4 80bd 0415 3a3d e662 cc3d 06f7 a33d
000001d0: 3d1c 213c 2c2a a7bc 7579 9dbd 6bec 8d3c
000001e0: ca5a 813d 7f1d 12bc 9e88 1dbd 8866 e73c
000001f0: cd52 963d 3bf3 893d 4930 babd bc40 4fbd
00000200: 02d9 1ebd d1f7 83bd 931b 20bd 2866 91bd
00000210: 235c 573d 2817 b73c 214f 993c 6242 a33c
00000220: 69b6 90bd 1f72 37bd 4637 2d3d 6bc4 b73d
00000230: ddf1 d7bc 63c3 1d3d c703 00bd b2e3 163d
00000240: 9dcd 7f3d 6201 05bc ed31 1fbd 674a 573a
00000250: b9df 9fbc 95a7 50bd 0ae0 043d 7f5b 653d
00000260: a073 843c fc6e e8bb 8c47 873d 8f16 73bd
00000270: e3ed b83d 2c6d 8bbc 227d 963d b47c 93bd
00000280: d6c7 09bb ddd0 523d 91a5 953d a507 993c
00000290: 325a ea3d b4c4 51bd 8ac5 443d f311 813d
000002a0: 0981 2ebd 4815 863d 589f 9c3d 7e07 77bd
000002b0: 5125 83bd dc8d 693d 339f 873d be57 df3d
000002c0: d400 88bd 48f1 ad3c 1460 dabd 6ef5 553d
000002d0: b929 84bd cbab 793d 05c0 01be 1302 523d
000002e0: cca0 8cbd 9b69 91bd f29c 90bd 55ad d73c
000002f0: 6362 973c b869 693d 9a93 a7bd 2423 6d3b
00000300: 5d2f 90bc 051f a03d 2a54 623a f0b4 053d
00000310: 4301 7d3d 56f5 ab3d 0046 8739 3e8d a83d
00000320: 6cbb 1a3d 3631 a3bd 70c3 183b 51c5 673d
00000330: 7a59 633d 302b d23c 2039 d33a 58fe 173c
00000340: f899 ffbc e47f 993c 9313 5abd 9500 a73d
00000350: 9690 1fbd 9f83 c63c 0f9d d23c 39f6 94bd
00000360: 2f70 a73d 883d dc3d 1e39 c0bc ea3a 1bbc
00000370: ae90 febc 4353 013d 6f09 b93d 3103 ec3b
00000380: 2ac1 01bd 53c3 89bd afbd 4fbd a27f 28bd
00000390: 2925 03bd 2888 963d 0493 bfbb 6058 953d
000003a0: 69e4 95bd 9e88 f73c 95fb f2bc c8d9 c93d
000003b0: d324 95bd 8f54 f7bb d38c c93d b6dc bbbc
000003c0: c26c a33a aaf6 8c3c 9cc9 e43c 8745 9c3d
000003d0: fc78 e5bd 0c36 5fbd 960f 803d 1063 973d
000003e0: 00c8 0c3b 11ad b6bd 7e0c 00bd f087 8c3c
000003f0: 5c9f bf3c f6fb 0c3d ae1e 6d3d 8222 d13b

net.2.bias f4 [256]
0.07656366 -0.038406596 0.0427663 -0.019268546 0.0340092 0.031460688 -0.05234842 -0.027150685
0.10305514 -0.015758947 -0.077437855 -0.022361659 -0.054353397 0.033846207 -0.060097076 0.06323602
0.00025757594 -0.07604156 -0.045325752 0.011353193 -0.06653106 0.031680383 0.019819312 0.014929849
0.03489885 -0.03229562 0.063587144 0.040944662 0.06737107 -0.003376418 -0.017802767 -0.0129336445
-0.04667774 0.050842706 -0.052164156 0.08135159 -0.022259511 -0.024687285 0.03898063 -0.06697905
-0.027611803 0.00869616 0.09672687 -0.063422896 0.011656154 0.031382777 0.06385894 -0.009443986
-0.028850606 0.03154625 -0.023448342 0.07392921 -0.01389696 0.018968854 -0.054310456 0.08723984
0.05718764 0.0044396557 -0.06319742 0.08123172 0.06751379 0.013059113 -0.03716957 0.071485646
0.037812162 0.07692377 -0.048132394 0.10728993 -0.056272365 0.003086406 -0.0575974 -0.01701447
0.013443523 0.108101845 0.028507277 0.07979848 0.0595962 0.06234048 0.007430457 0.109818414
-0.021022161 0.09621421 -0.017213894 0.016902938 0.041483562 -0.079454266 -0.07069064 0.004821836
0.036772113 0.07535242 0.005806819 -0.058782708 0.04376989 0.09648551 -0.06420068 0.118665196
-0.034402728 0.013538132 0.0022534325 -0.009386685 0.024210922 0.01650765 -0.0080452915 0.007827624
0.082704864 -0.06971766 0.009001729 0.08671453 -0.0029424997 0.08799715 -0.058465935 -0.030097188
0.07092065 -0.011104232 -0.030105397 0.075675905 -0.08054526 -0.065741844 0.074446045 0.0052127284
-0.004555166 0.06666958 -0.034552615 0.09044146 0.054380972 -0.046047054 0.0027972811 0.034488935
-0.055667188 -0.045507915 -0.020379025 0.08550911 -0.04417787 -0.056819767 -0.009603843 -0.07710973
0.02782388 0.010637132 0.041975655 0.07351855 0.08496478 -0.044223987 -0.014780875 -0.017388934
0.087417 -0.07895906 0.055453572 0.022158096 -0.07776167 -0.08631908 0.04135164 -0.019586174
0.01498624 0.005067489 0.016546797 0.05156966 0.081233025 0.068196446 0.054169893 -0.02648084
0.019671347 0.071585685 0.017747223 0.065784596 0.09002663 0.094882235 -0.03293085 -0.03431039
0.069820546 -0.049124375 -0.022020029 0.027678998 -0.051897813 -0.028832834 0.07265784 -0.046044193
0.035053823 -0.006062114 0.06929087 -0.083260275 0.040798794 -0.016510926 0.10502499 -0.053025905
0.07541037 0.002625243 0.081991985 -0.016753169 0.0863574 0.090504535 -0.05015328 -0.053482626
0.05787182 0.024157127 -0.047995977 0.030875653 -0.061313163 -0.038570337 0.015053681 0.083597176
-0.010399408 0.054016914 0.0038872962 -0.060576353 -0.05975175 0.075590484 -0.08078067 -0.050929323
-0.016820654 0.0982334 0.0006046936 0.06714425 0.076653585 0.081617765 0.107198894 0.047240987
0.052770454 0.022694357 0.029814582 -0.033415116 -0.08146933 -0.028513663 -0.008118734 -0.07273683
0.07939169 0.042799044 0.06859505 -0.071674675 0.0794858 -0.007495607 -0.01709839 0.06486285
-0.0149995275 -0.060588192 0.06390943 -0.049732327 -0.06878111 -0.053341504 0.026705096 -0.0390146
-0.060646813 0.0442679 -0.05837351 -0.08869169 -0.016134892 -0.012004767 0.0069780354 0.07110354
0.05188928 0.092838235 0.0043112147 -0.08760568 0.056759626 -0.037205752 0.07137619 -0.024321593
00000000: 68cd 9c3d 3c50 1dbd b72b 2f3d 12d9 9dbc
00000010: 3b4d 0b3d ecdc 003d 4c6b 56bd 1d6b debc
00000020: 930e d33d e818 81bc bd97 9ebd cc2f b7bc
00000030: aba1 5ebd 52a2 0a3d 5a28 76bd e381 813d
00000040: 420b 8739 adbb 9bbd 7fa7 39bd be02 3a3c
00000050: 7041 88bd 4ac3 013d 1c5c a23c 539c 743c
00000060: 19f2 0e3d 6948 04bd fa39 823d 97b5 273d
00000070: d8f9 893d e546 5dbb 1cd7 91bc a3e7 53bc
00000080: 2831 3fbd 7140 503d 15aa 55bd aa9b a63d
00000090: 9459 b6bc fd3c cabc 27aa 1f3d 502c 89bd
000000a0: 2632 e2bc 577a 0e3c bd18 c63d dde3 81bd
000000b0: 74f9 3e3c 3a8b 003d 7ac8 823d f3ba 1abc
000000c0: 1b58 ecbc a436 013d bd16 c0bc 3368 973d
000000d0: 13b0 63bc 9264 9b3c a474 5ebd cdaa b23d
000000e0: 963d 6a3d 887a 913b a66d 81bd d15c a63d
000000f0: ac44 8a3d e4f5 553c 1e3f 18bd 1167 923d
00000100: ede0 1a3d 368a 9d3d 7926 45bd d3ba db3d
00000110: da7d 66bd 4d45 4a3b 40eb 6bbd ee61 8bbc
00000120: 3942 5c3c 8064 dd3d 1888 e93c 636d a33d
00000130: 251b 743d bb58 7f3d 317b f33b 7ae8 e03d
00000140: ab36 acbc f50b c53d 2704 8dbc 0878 8a3c
00000150: abea 293d ebb8 a2bd 41c6 90bd 7e00 9e3b
00000160: 5b9e 163d 5f52 9a3d 2147 be3b 23c6 70bd
00000170: 0e48 333d 329a c53d a57b 83bd bd06 f33d
00000180: e0e9 0cbd 0bcf 5d3c 53ae 133b 9cca 19bc
00000190: fc55 c63c 0d3b 873c 66d0 03bc 6f3f 003c
000001a0: 2b61 a93d 22c8 8ebd fd7b 133c 6397 b13d
000001b0: f4d6 40bb da37 b43d fa79 6fbd 618e f6bc
000001c0: d93e 913d 86ee 35bc 989f f6bc f8fb 9a3d
000001d0: eaf4 a4bd a9a3 86bd 2b77 983d 89cf aa3b
000001e0: 8043 95bb 108a 883d 0b87 0dbd 5f39 b93d
000001f0: 95be 5e3d d69b 3cbd 9752 373b 4544 0d3d
00000200: 4703 64bd 8266 3abd eaf1 a6bc 661f af3d
00000210: dbf3 34bd d8bb 68bd 7059 1dbc b5eb 9dbd
00000220: e8ee e33c 5e47 2e3c aaee 2b3d e590 963d
00000230: 0402 ae3d 3624 35bd 7c2b 72bc 3d73 8ebc
00000240: af07 b33d 4ab5 a1bd 4923 633d e584 b53c
00000250: 8341 9fbd 0fc8 b0bd 5660 293d 2f73 a0bc
00000260: d988 753c 2e0d a63b 268d 873c b53a 533d
00000270: 805d a63d 94aa 8b3d 40e1 5d3d 59ee d8bc
00000280: ce25 a13c 849b 923d a062 913c 13ba 863d
00000290: e25f b83d 9e51 c23d 80e2 06bd 0d89 0cbd
000002a0: 13fe 8e3d a436 49bd 5963 b4bc 11bf e23c
000002b0: cd92 54bd d632 ecbc a2cd 943d d698 3cbd
000002c0: 9994 0f3d b3a4 c6bb 5fe8 8d3d 5d84 aabd
000002d0: a31c 273d ec41 87bc 5817 d73d b131 59bd
000002e0: c170 9a3d 450c 2c3b 6aeb a73d f13d 89bc
000002f0: 26dc b03d 715a b93d 876d 4dbd 9910 5bbd
00000300: 000b 6d3d 2be5 c53c 6e97 44bd f0ee fc3c
00000310: 8323 7bbd eefb 1dbd b7a3 763c ff34 ab3d
00000320: 4762 2abc d740 5d3d 02c2 7e3b e91e 78bd
00000330: 40be 74bd 2fcf 9a3d 5670 a5bd 449b 50bd
00000340: 78cb 89bc 982e c93d 4d84 1e3a ed82 893d
00000350: 8efc 9c3d 3727 a73d 188b db3d c47f 413d
00000360: d525 583d 84e9 b93c b63d f43c 4ade 08bd
00000370: 64d9 a6bd 7c95 e9bc 7004 05bc 0cf7 94bd
00000380: 1c98 a23d 0d4e 2f3d 907b 8c3d 2cca 92bd
00000390: 73c9 a23d b59d f5bb ec11 8cbc d0d6 843d
000003a0: 94c0 75bc 532b 78bd f2e2 823d 20b4 4bbd
000003b0: 1cdd 8cbd 9f7c 5abd a5c4 da3c c6cd 1fbd
000003c0: cb68 78bd 4252 353d 1019 6fbd fda3 b5bd
000003d0: 522d 84bc a4af 44bc 01a8 e43b bc9e 913d
000003e0: db89 543d f921 be3d 1745 8d3b 9b6a b3bd
000003f0: c87c 683d 0f65 18bd ae2d 923d 143e c7bc

μ.weight f4 [3, 256]
0.04403742 -0.07873577 -0.0027173674 -0.059832063 0.011045086 -0.02072384 -0.020942628 0.028191373
0.01990643 -0.05177745 -0.026178202 0.031302724 0.03359762 0.014263901 0.007515572 -0.005033424
0.06974413 -0.042781807 -0.046117384 0.068156004 -0.025106916 0.042386636 0.0033179463 0.037014443
-0.02656183 -0.043174896 0.004262232 -0.0681925 -0.020957863 0.036196396 -0.017707773 0.028015593
-0.04111291 0.05835628 0.08722268 -0.09071687 0.00273896 0.05437084 -0.011404385 -0.027939929
0.06142502 -0.0165779 0.08270834 -0.08408201 -0.040042393 -0.029796317 -0.0070583937 -0.05663566
-0.036488865 -0.093357384 -0.02342145 -0.02524063 0.06789404 -0.07992664 -0.039245702 0.052537907
-0.05094018 0.037851766 0.0027872175 0.084497064 -0.06254053 0.04700218 0.03394348 0.054374035
-0.024516072 0.026150579 -0.04977688 0.048188314 0.02398525 0.017699616 -0.044648938 0.0122817615
0.00022007499 0.01959643 0.047343142 0.028958304 -0.055414554 0.010590305 -0.022121772 0.057831805
0.054671366 0.00198003 0.04637613 -0.022652453 0.07551741 -0.076250434 -0.010843734 0.031249128
-0.010534926 -0.007134946 0.023083711 -0.01727207 -0.02753996 0.00032598432 0.015248194 -0.004317214
-0.04034524 0.033209726 -0.05198424 0.01204007 -0.07559133 -0.081377275 0.04911984 0.009070204
-0.071397044 0.019813243 -0.020382445 -0.023769708 0.026196068 0.023668256 -0.08343356 0.07415155
0.016104233 -0.07142505 0.04220186 -0.05451573 -0.0016539111 0.07033389 -0.024799906 0.049305182
-0.07200867 -0.03421625 -0.03663937 0.023831252 0.02602366 0.0066596936 -0.048918303 0.024803815
0.054528072 -0.057804354 0.012187785 0.082644574 -0.048727468 0.006898001 0.047513895 0.028234564
0.0057597677 0.064983614 -0.055711634 -0.042011674 -0.0038613756 -0.0087833265 -0.023954097 0.08440591
0.0014785972 0.058390036 -0.038039308 0.04326216 -0.04355246 -0.021833949 -0.009973307 -0.029848086
-0.039798398 -0.017730827 0.039242513 -0.03378252 -0.0009971431 0.03190527 0.088516295 -0.05388726
-0.0036965145 -0.053923447 0.020738833 0.006096964 0.057164107 0.025941016 0.034628727 -0.061590265
0.07074274 -0.064925335 0.010960852 0.086132534 -0.010714656 -0.07105792 -0.055130348 -0.034887914
-0.0053482507 0.025323186 -0.043154668 0.00085383654 -0.023882695 0.016924305 0.058302514 0.035673644
0.032866206 0.0055694324 -0.07474782 -0.03701919 -0.043779686 -0.050286736 -0.052859217 -0.0035856212
-0.06562034 0.06390774 -0.024588669 0.02423285 -0.054269902 0.019833522 0.052157465 0.045345087
0.019828571 -0.08721602 0.06176488 0.028799817 -0.05637303 -0.044192187 0.037472323 -0.023437127
-0.107329994 0.011314467 0.08197385 0.02649695 -0.030967869 0.016111061 -0.020880222 -0.03719727
0.018362306 0.03829547 -0.008171532 -0.037666403 -0.046187174 -0.021070078 0.04741109 -0.068239905
-0.04472047 -0.03572938 0.02758897 -0.05063385 -0.030124165 0.050533023 0.03356307 0.02531722
0.047329716 -0.06876343 -0.02842439 0.07154071 0.10112267 0.04829376 0.027145738 0.05626834
-0.045998283 0.071285374 0.0068282415 -0.005959245 0.016587334 -0.05289656 -0.034957796 -0.022554804
-0.0041030906 -0.057952873 -0.026389405 0.035815094 0.122565776 -0.049869593 0.024856681 0.02167465
00000000: 9560 343d 3840 a1bd dc15 32bb 7712 75bd
00000010: 73f6 343c 0bc5 a9bc e08f abbc 98f1 e63c
00000020: cf12 a33c 9714 54bd ab73 d6bc 4937 003d
00000030: a89d 093d 23b3 693c 3045 f63b 6cef a4bb
00000040: 03d6 8e3d fa3b 2fbd 95e5 3cbd 6095 8b3d
00000050: 05ad cdbc 9c9d 2d3d e771 593b 759c 173d
00000060: 3298 d9bc 29d8 30bd 32aa 8b3b 82a8 8bbd
00000070: d3af abbc ac42 143d e40f 91bc f580 e53c
00000080: 0366 28bd ff06 6f3d cea1 b23d c4c9 b9bd
00000090: 2080 333b f5b3 5e3d 75d9 3abc 47e2 e4bc
000000a0: cd98 7b3d 60ce 87bc fd62 a93d 3033 acbd
000000b0: 7e03 24bd 6817 f4bc 194a e7bb cbfa 67bd
000000c0: 5975 15bd 2832 bfbd 57de bfbc 70c5 cebc
000000d0: 080c 8b3d 94b0 a3bd 1ac0 20bd fd31 573d
000000e0: a6a6 50bd 740a 1b3d c0a9 363b cc0c ad3d
000000f0: 4015 80bd 5c85 403d 5208 0b3d 4fb7 5e3d
00000100: eed5 c8bc bd39 d63c d7e2 4bbd 1c61 453d
00000110: b77c c43c c9fe 903c cee1 36bd 7139 493c
00000120: eec3 6639 b188 a03c e2ea 413d f739 ed3c
00000130: 5ffa 62bd f582 2d3c b838 b5bc 0be1 6c3d
00000140: 15ef 5f3d 64c3 013b e6f4 3d3d a391 b9bc
00000150: dfa8 9a3d 3029 9cbd eba9 31bc 2cfe ff3c
00000160: af9a 2cbc 44cc e9bb 0d1a bd3c 287e 8dbc
00000170: 7b9b e1bc e0e8 aa39 90d3 793c 6a77 8dbb
00000180: 0d41 25bd ec06 083d 6ded 54bd b743 453c
00000190: a1cf 9abd 21a9 a6bd e331 493d 319b 143c
000001a0: 9d38 92bd 624f a23c 16f9 a6bc b1b8 c2bc
000001b0: 2399 d63c eee3 c13c 37df aabd c5dc 973d
000001c0: 06ed 833c 4c47 92bd dcdb 2c3d e34b 5fbd
000001d0: 0cc8 d8ba 370b 903d 2c29 cbbc 3bf4 493d
000001e0: 4879 93bd 5726 0cbd 2a13 16bd c239 c33c
000001f0: 922f d53c 8f39 da3b 8f5e 48bd 5f31 cb3c
00000200: d458 5f3d 42c4 6cbd 46af 473c 8f41 a93d
00000210: 7496 47bd a008 e23b ee9d 423d 2c4c e73c
00000220: 6fbc bc3b 2116 853d e231 64bd 6f14 2cbd
00000230: 220f 7dbb f1e7 0fbc 623b c4bc 01dd ac3d
00000240: 7dcd c13a 642a 6f3d 1bcf 1bbd aa33 313d
00000250: 1064 32bd 1cdd b2bc 1567 23bc f983 f4bc
00000260: a503 23bd 3d40 91bc c2bc 203d 8a5f 0abd
00000270: 92b2 82ba 1aaf 023d 0848 b53d e3b8 5cbd
00000280: 3941 72bb d5de 5cbd 7ce4 a93c 0ac9 c73b
00000290: e924 6a3d 4182 d43c dad6 0d3d 1346 7cbd
000002a0: 92e1 903d 93f7 84bd 2595 333c 4166 b03d
000002b0: 868c 2fbc d186 91bd 5cd0 61bd a1e6 0ebd
000002c0: 6140 afbb 9272 cf3c f3c2 30bd 00d4 5f3a
000002d0: a4a5 c3bc d7a4 8a3c 9ece 6e3d 871e 123d
000002e0: b79e 063d c97f b63b 6315 99bd 6fa1 17bd
000002f0: 5452 33bd 77f9 4dbd e882 58bd befc 6abb
00000300: f563 86bd 10e2 823d 2d6e c9bc f883 c63c
00000310: 1e4a 5ebd e979 a23c 11a3 553d c5bb 393d
00000320: 876f a23c 509e b2bd 2cfd 7c3d 98ed eb3c
00000330: 68e7 66bd de02 35bd 947c 193d 38ff bfbc
00000340: d4cf dbbd 5060 393c e8e1 a73d 2210 d93c
00000350: 54b0 fdbc 58fb 833c 000d abbc 2a5c 18bd
00000360: 8c6c 963c b6db 1c3d e4e1 05bc 1648 1abd
00000370: c32e 3dbd 289b acbc 2232 423d 5dc1 8bbd
00000380: d02c 37bd f858 12bd 4302 e23c 7165 4fbd
00000390: f4c6 f6bc b7fb 4e3d 6e79 093d 0f66 cf3c
000003a0: cedc 413d d7d3 8cbd 44da e8bc f083 923d
000003b0: 6719 cf3d adcf 453d bd60 de3c a279 663d
000003c0: b268 3cbd 11fe 913d 71bf df3b c545 c3bb
000003d0: 29e2 873c 10aa 58bd e82f 0fbd dac4 b8bc
000003e0: 3873 86bb fe5f 6dbd 982e d8bc d9b2 123d
000003f0: c403 fb3d 0f44 4cbd 3da0 cb3c 098f b13c

μ.bias f4 [3]
0.0039127227 0.053733505 0.017669387
00000000: 4c36 803b aa17 5c3d 64bf 903c

σ.weight f4 [3, 256]
-0.06845364 -0.026331523 -0.017352022 -0.06628909 -0.07626434 -0.04233228 -0.049062632 -0.041159347
-0.057311047 -0.02075193 -0.03797684 0.0095016435 0.013996355 -0.071116254 0.023706652 -0.021147778
0.026298052 -0.039028864 0.008227291 -0.014735826 0.0069993655 -0.004106005 -0.07372701 -0.011812229
0.017119667 0.012309458 -0.012641252 -0.017461818 0.02401534 0.0153312795 0.015370764 0.010774884
0.023681376 -0.024840167 0.042197123 -0.022776224 -0.030459352 -0.038993947 0.0074128383 -0.011711857
0.030430188 0.0129267145 0.027054453 -0.045547493 -0.06920559 0.02742593 0.012396957 -0.07119259
0.0290438 0.015551974 0.035430375 -0.06088239 -0.019700957 -0.06135499 0.042850792 -0.050329167
0.03668445 0.018680606 -0.029866688 -0.053342473 -0.044364486 -0.078347474 0.0062172622 -0.017455408
-0.048225228 -0.016494092 -0.06785544 -0.030789817 -0.054863777 0.013165123 0.047538206 0.025136858
-0.05320777 0.022071699 -0.02249025 -0.019878708 0.029094504 0.0051576444 0.034583066 0.047841072
0.04810199 -0.05502755 0.042225834 -0.027002407 -0.059157707 0.045005344 -0.039062172 0.04369801
-0.008905248 0.027762031 -0.05235704 -0.05343998 -0.07299078 0.040340666 0.003369678 0.009422133
0.050482888 -0.030509675 -0.023431849 -0.030989144 -0.069712594 0.0056947586 0.01676395 0.0070989495
-0.022853632 -0.030193405 -0.04932743 0.045831565 -0.039006494 -0.05998298 -0.027511442 0.03680431
0.04643872 -0.0638558 0.041057598 -0.02576359 0.013333085 -0.037680242 0.019042127 0.009122274
0.020638099 -0.058746655 0.022366943 0.0076709455 0.04269305 0.045862213 -0.03902463 -0.049359642
0.014246495 0.037963863 -0.04764332 -0.02883926 0.054346673 -0.0048295856 0.069274954 0.039598584
-0.02344953 0.03124126 0.018482698 -0.058843613 0.027553061 0.046394218 0.050880603 0.055610143
-0.05085632 0.062167414 0.022877991 0.0052846386 0.04735454 -0.029126324 -0.06373724 0.0013248394
-0.043821543 -0.06854853 -0.052979503 0.03640724 -0.064644404 0.020917442 -0.00040359225 -0.030143535
-0.006193723 0.027789352 -0.05731514 0.038824864 0.021939712 -0.079089165 -0.019982563 0.036702823
0.021056132 0.043093536 -0.0031051813 -0.05122147 0.013435255 0.028425487 -0.020800602 0.05512946
0.054639224 -0.01040775 -0.049612638 -0.014126353 0.03949181 0.018139755 -0.08150059 -0.074756294
-0.01699855 -0.08334402 0.04926293 -0.06479147 0.03631481 0.044458743 -0.027859919 -0.0047825724
0.021939876 0.043485615 0.040276602 0.038350064 0.011304732 -0.06639932 -0.057734966 -0.063751
-0.016815169 0.0042388984 0.04860554 -0.02503951 -0.017783506 0.026018435 0.06617731 0.054804858
0.006832028 0.025853897 -0.01731356 0.038296286 0.007704141 0.046495445 -0.05922501 0.021950144
-0.023798151 -0.058209307 -0.022647899 -0.056114607 0.027006058 0.02406516 -0.02051773 -0.007139961
0.014492652 -0.013958226 -0.0025895764 0.055387944 -0.076771945 -0.019739036 -0.026927076 -0.005113852
-0.0767571 -0.059296418 0.06817271 -0.025163636 0.0015494343 -0.06165317 0.02272513 -0.052759927
-0.009691801 0.053071428 0.006761916 0.0055014067 -0.07260173 -0.07997404 0.064075164 -0.08068959
-0.050781757 -0.07826927 9.6302094e-05 -0.05570197 -0.06742333 -0.025401682 -0.010957744 -0.032796077
00000000: 6c31 8cbd 35b5 d7bc d425 8ebc 93c2 87bd
00000010: 7a30 9cbd 9d64 2dbd e6f5 48bd b496 28bd
00000020: fdbe 6abd f4ff a9bc 9a8d 1bbd c8ac 1b3c
00000030: f850 653c 66a5 91bd 7434 c23c 1b3e adbc
00000040: 036f d73c bbdc 1fbd c2cb 063c 896e 71bc
00000050: ef5a e53b ab8b 86bb 30fe 96bd 1488 41bc
00000060: 8b3e 8c3c 9cad 493c 411d 4fbc 160c 8fbc
00000070: d1bb c43c 0c30 7b3c a8d5 7b3c 2489 303c
00000080: 72ff c13c 9b7d cbbc e4d6 2c3d 3495 babc
00000090: e485 f9bc 1eb8 1fbd 65e7 f23b 17e3 3fbc
000000a0: bb48 f93c 92ca 533c 4da1 dd3c 0290 3abd
000000b0: a9bb 8dbd 58ac e03c 9b1c 4b3c 6ccd 91bd
000000c0: 43ed ed3c b5cd 7e3c 711f 113d d05f 79bd
000000d0: e763 a1bc 5f4f 7bbd 5084 2f3d f525 4ebd
000000e0: 6f42 163d 1208 993c fcaa f4bc a37d 5abd
000000f0: 89b7 35bd a474 a0bd 2dba cb3b a5fe 8ebc
00000100: d187 45bd 9e1e 87bc cbf7 8abd ed3a fcbc
00000110: d7b8 60bd 87b2 573c 6cb7 423d d0eb cd3c
00000120: 64f0 59bd b5cf b43c 793d b8bc acd8 a2bc
00000130: 9957 ee3c 7501 a93b f9a6 0d3d 00f5 433d
00000140: 9806 453d 9164 61bd fff4 2c3d 2734 ddbc
00000150: 5a4f 72bd 8657 383d a8ff 1fbd affc 323d
00000160: 51e7 11bc 336d e33c 5674 56bd e1e3 5abd
00000170: 317c 95bd 413c 253d d1d5 5c3b 4a5f 1a3c
00000180: 25c7 4e3d 6def f9bc 26f4 bfbc f2dc fdbc
00000190: 7ac5 8ebd 199b ba3b 8d54 893c 4e9e e83b
000001a0: 8a37 bbbc 2958 f7bc 8f0b 4abd e1b9 3b3d
000001b0: 46c5 1fbd b7b0 75bd ad5f e1bc 1ec0 163d
000001c0: 8736 3e3d d4c6 82bd 032c 283d 2a0e d3bc
000001d0: 0373 5a3c 9956 1abd 3cfe 9b3c 9775 153c
000001e0: 3b11 a93c 55a0 70bd e13a b73c 8e5c fb3b
000001f0: e8de 2e3d 04da 3b3d 4ad8 1fbd 562d 4abd
00000200: 226a 693c ff7f 1b3d a425 43bd 5040 ecbc
00000210: 9e9a 5e3d 8041 9ebb 07e0 8d3d 2032 223d
00000220: 3b19 c0bc aced ff3c 0769 973c 0006 71bd
00000230: f5b6 e13c dd07 3e3d 2e68 503d 76c7 633d
00000240: b74e 50bd 42a3 7e3d a06a bb3c c32a ad3b
00000250: d6f6 413d 549a eebc ac88 82bd 3ca6 ad3a
00000260: 387e 33bd 2c63 8cbd 0901 59bd c21f 153d
00000270: 4964 84bd 0e5b ab3c 3c99 d3b9 93ef f6bc
00000280: b7f4 cabb 7fa6 e33c 48c3 6abd d206 1f3d
00000290: e9ba b33c 80f9 a1bd 79b2 a3bc b355 163d
000002a0: e97d ac3c d982 303d 4c80 4bbb 9bcd 51bd
000002b0: 8b1f 5c3c 91dc e83c 0666 aabc 6ecf 613d
000002c0: 61cd 5f3d 4485 2abc 9f36 4bbd 3872 67bc
000002d0: 2ac2 213d d399 943c c8e9 a6bd d419 99bd
000002e0: 8b40 8bbc 45b0 aabd edc7 493d 64b1 84bd
000002f0: d7be 143d 5f1a 363d 7c3a e4bc 20b7 9cbb
00000300: 41bb b33c f91d 323d 14f9 243d f514 1d3d
00000310: 7c37 393c 5efc 87bd 807b 6cbd e28f 82bd
00000320: f7bf 89bc 75e6 8a3b 9a16 473d a91f cdbc
00000330: b7ae 91bc 9d24 d53c f887 873d 0f7b 603d
00000340: 34df df3b 8dcb d33c 2bd5 8dbc 91dc 1c3d
00000350: 0573 fc3b 0272 3e3d ed95 72bd cad0 b33c
00000360: 57f4 c2bc e26c 6ebd 1688 b9bc 6ed8 65bd
00000370: cf3b dd3c 4c24 c53c cc14 a8bc 55f6 e9bb
00000380: 9772 6d3c 0bb1 64bc e2b5 29bb 78de 623d
00000390: 9c3a 9dbd c2b3 a1bc 2c96 dcbc 1a92 a7bb
000003a0: d432 9dbd cde0 72bd 229e 8b3d f823 cebc
000003b0: 6316 cb3a 0988 7cbd 0d2a ba3c cb1a 58bd
000003c0: 5cca 1ebc 6d61 593d 1093 dd3b 2545 b43b
000003d0: 37b0 94bd 6ec9 a3bd d739 833d 9540 a5bd
000003e0: 8800 50bd a44b a0bd cbf5 c938 c027 64bd
000003f0: 3e15 8abd 3017 d0bc 1c88 33bc 2e55 06bd

σ.bias f4 [3]
-0.022011131 0.01235328 -0.030416705
00000000: b050 b4bc 6965 4a3c 742c f9bc
