model/p.pth (torch, 148088 bytes, 8 tensors)

net.0.weight f4 [128, 13]
0	0xbde29684	-0.11063865
1	0xbd870d5b	-0.06594344
2	0x3e83959b	0.25700077
3	0x3daeaf04	0.08529475
4	0x3dc4b1df	0.09604239
5	0x3e1e97d2	0.15487602
6	0x3e114a93	0.14188604
7	0x3b597127	0.0033179016
8	0x3df3d2fd	0.11905477
9	0x3e2ae7e4	0.16690022
10	0x3e399567	0.18123399
11	0xbe6390c7	-0.22223197
12	0x3e6b6e8d	0.2299139
13	0x3e714ec0	0.23565197
14	0xbe821530	-0.2540679
15	0xbe32a5fe	-0.17446133
16	0x3befa42e	0.007313273
17	0xbe6cf39d	-0.23139806
18	0xbe3c4673	-0.18386249
19	0xbd336540	-0.04379773
20	0x3e947e70	0.29002714
21	0x3db8d836	0.09025614
22	0xbd7d9ba4	-0.06191601
23	0x3d4acdc0	0.049512625
24	0xbe46311c	-0.19354671
25	0xbe57b473	-0.2106493
26	0x3cd28b1c	0.025701098
27	0xbc767799	-0.015043163
28	0xbdd2a0c9	-0.102845736
29	0x3e91a05e	0.28442663
30	0x3dddc4aa	0.10828526
31	0x3e999789	0.29998425
32	0x3cb5ed5d	0.02220791
33	0xbe7f7509	-0.24946989
34	0xbdcecbf7	-0.10097497
35	0x3e538b91	0.20658709
36	0xbe7eb507	-0.24873744
37	0xbe1914ef	-0.14949392
38	0x3d4f803d	0.050659407
39	0xbbd445a3	-0.006478028
40	0x3e8ddb7a	0.2770651
41	0x3e6b90c7	0.23004447
42	0x3a090e4b	0.0005228265
43	0x3dda6227	0.10663252
44	0xbd983952	-0.07432808
45	0x3e3e5351	0.1858647
46	0xbc5d3d13	-0.013503331
47	0x3d608514	0.054814413
48	0xbd977abd	-0.07396457
49	0xbcb0cc21	-0.021581711
50	0x3ba9a02a	0.0051765637
51	0xbe3c8481	-0.18409921
52	0x3d831bdf	0.064018
53	0x3e57304e	0.2101452
54	0x3e8c7940	0.27436256
55	0x3e8b820d	0.27247658
56	0xbdf102a5	-0.117680825
57	0xbd605892	-0.054771967
58	0xbe7b80e9	-0.24560894
59	0x3e42652b	0.18983905
60	0xbe145961	-0.1448722
61	0xbe7a5497	-0.24446331
62	0xbe1825dd	-0.14858194
63	0x3e2793c1	0.16364957
64	0x3e8cf170	0.27527952
65	0x3e5ba20c	0.21448535
66	0xbde844dc	-0.11341259
67	0x3e50983e	0.20370576
68	0xbd22ccc1	-0.03974605
69	0x3e3ef1a9	0.18646874
70	0x3e38855e	0.18019626
71	0x3d629272	0.055315442
72	0xbdf91fa2	-0.121642366
73	0x3e814c4f	0.2525353
74	0xbce14656	-0.02749936
75	0x3e64f8c1	0.22360517
76	0x3de9dc9d	0.11419032
77	0xbe5f2f9e	-0.21795508
78	0xbded1a72	-0.1157731
79	0xbe475ce5	-0.1946903
80	0x3d2ee0a7	0.042694714
81	0xbe273e27	-0.16332303
82	0x3e5e347e	0.21699712
83	0x3e99ca64	0.30037224
84	0x3e536eeb	0.2064778
85	0xbe27ca02	-0.16385654
86	0x3cbe3e47	0.023223056
87	0x3e396961	0.18106605
88	0x3df70b37	0.12062686
89	0xbd3febc3	-0.0468557
90	0x3e793956	0.24338278
91	0xbd66555d	-0.056233753
92	0xbdde7193	-0.10861506
93	0xbd69bcbb	-0.057064753
94	0x3d6231fb	0.055223446
95	0xbe9e3786	-0.30901736
96	0x3d222720	0.039588094
97	0xbe422349	-0.18958773
98	0x3d11f980	0.035638332
99	0xbe498d8a	-0.19682899
100	0xbe28bd05	-0.16478355
101	0xbdc618af	-0.09672677
102	0x3e8c800e	0.27441448
103	0x3e306ec4	0.17229754
104	0xbe440b3f	-0.19144915
105	0xbd24b7e9	-0.040214453
106	0xbe66d2d4	-0.22541362
107	0x3c396675	0.011315932
108	0x3df68ece	0.120389566
109	0xbe341881	-0.17587472
110	0x3e0712a4	0.13190705
111	0xbd71c128	-0.0590221
112	0xbe798d72	-0.24370363
113	0xbd910703	-0.070814155
114	0x3d19ecb7	0.037579264
115	0xbe15cb2d	-0.14628287
116	0xbe7a4233	-0.24439315
117	0x3dbfe6d8	0.09370202
118	0xbdf04f5e	-0.11733888
119	0xbdd14da3	-0.10219886
120	0x3e36650e	0.17811987
121	0x3d7898f9	0.06069276
122	0xbe1d5280	-0.15363503
123	0x3e56dad8	0.2098192
124	0x3e846bd8	0.25863528
125	0x3ce9846f	0.028505532
126	0xbe51565a	-0.20443097
127	0xbde6612f	-0.11249005
128	0xbd0a19d7	-0.03371605
129	0x3e45d927	0.19321118
130	0x3e7860d2	0.24255684
131	0x3e795261	0.24347831
132	0x3e89de24	0.26927292
133	0x3df06eca	0.11739881
134	0x3b3d6ef2	0.002890524
135	0xbd68b016	-0.056808554
136	0x3e1319b2	0.1436527
137	0x3d43586c	0.047691748
138	0x3d83e873	0.064408205
139	0xbe6aa821	-0.22915699
140	0x3d8d3298	0.068944156
141	0xbe888af8	-0.26668525
142	0x3de70775	0.11280719
143	0xbe183595	-0.1486419
144	0xbe024696	-0.12722239
145	0xbd9f1b5a	-0.07768889
146	0x3d963e47	0.07336097
147	0xbe69eb9d	-0.22843786
148	0xbe8866d2	-0.26640946
149	0x3e1986b2	0.14992788
150	0x3cb083c2	0.021547202
151	0xbdc968ab	-0.09834417
152	0xbdd2d1d6	-0.10293929
153	0x3d9abd3b	0.07555624
154	0xbe659a4f	-0.22422145
155	0x3e65cd83	0.22441678
156	0x3e0272d3	0.12739114
157	0x3e45a19a	0.19299927
158	0xbd753ad8	-0.05987057
159	0x3e8d0354	0.27541602
160	0xbde4acaa	-0.111657456
161	0x3dab12df	0.08353209
162	0x3dba1ff1	0.090881236
163	0xbc9667dc	-0.01836007
164	0xbc5599ce	-0.013037158
165	0x3e4d1365	0.2002693
166	0x3db69abf	0.08916234
167	0x3d60a56f	0.05484527
168	0x3e7c3e97	0.24633251
169	0x3e4b93dd	0.19880624
170	0xbe612865	-0.21988066
171	0xbe3c397f	-0.18381308
172	0x3e662518	0.22475088
173	0xbe3c738e	-0.18403456
174	0xbd3e8fdd	-0.046523917
175	0x3dfe23d4	0.124091774
176	0x3dc91c0c	0.09819803
177	0x3d9910d6	0.07473914
178	0x3e23c259	0.15992106
179	0xbe854078	-0.26025748
180	0xbdc73865	-0.09727553
181	0x3d007c21	0.03136838
182	0xbe2816d5	-0.1641496
183	0x3c860f9b	0.016364863
184	0x3de1dd89	0.110285826
185	0x3e542838	0.20718467
186	0xbe03fc12	-0.12889126
187	0xbdc6fb58	-0.09715909
188	0xbe76be2b	-0.24095981
189	0x3de53e6b	0.11193546
190	0xbd6fd13e	-0.05854916
191	0x3df07d3d	0.11742637
192	0x3d839b4b	0.06426104
193	0xbd09dd49	-0.0336583
194	0x3e5b1f08	0.21398556
195	0xbd4f3620	-0.050588727
196	0xbddad907	-0.10685926
197	0xbd2fe93f	-0.04294705
198	0xbe0f06b4	-0.13967401
199	0x3db71bf0	0.089408755
200	0x3d825cf8	0.06365389
201	0x3e042cde	0.1290774
202	0xbe526ea0	-0.20550013
203	0x3e8e66ed	0.278129
204	0xbe48b10c	-0.19598788
205	0xbe29c194	-0.1657775
206	0x3e88419b	0.26612553
207	0xbe702b25	-0.23453958
208	0x3e93d2cf	0.28871772
209	0x3e466802	0.19375613
210	0x3e5c78a3	0.21530394
211	0x3d943878	0.07237333
212	0xbe62960f	-0.22127555
213	0x3e7411ff	0.2383499
214	0x3e4056e8	0.18783152
215	0x3e45f530	0.19331813
216	0xbdd3664f	-0.10322248
217	0xbd804b2c	-0.06264338
218	0x3e4fee4e	0.2030575
219	0x399699a2	0.00028724695
220	0x3e745a4e	0.23862574
221	0xbe64e81c	-0.22354168
222	0x3d96052d	0.07325206
223	0x3e74f4a7	0.23921452
224	0xbe357740	-0.17721272
225	0x3e225bf3	0.15855388
226	0xbdab298e	-0.08357535
227	0xbdcbdbf3	-0.09954061
228	0xbe85af71	-0.26110414
229	0xbe2ebfdf	-0.1706538
230	0x3d13c77e	0.036078922
231	0x3e331455	0.17488225
232	0xbdd19666	-0.10233764
233	0xbe4637dd	-0.19357248
234	0xbe53c524	-0.20680672
235	0x3d2acc34	0.04169865
236	0xbe73c39a	-0.23805085
237	0x3e53daa7	0.20688878
238	0x3ea41909	0.3205035
239	0x3e87635b	0.2644299
240	0x3c8f395d	0.017483408
241	0xbcb50ce1	-0.022100868
242	0x3e5e579d	0.2171311
243	0xbe643c36	-0.22288594
244	0x3e74cc09	0.23905958
245	0x3d879889	0.06620891
246	0x3e806d81	0.25083545
247	0x3d9972ab	0.07492574
248	0xbe62118a	-0.22077003
249	0x3e2bae83	0.1676579
250	0x3ba96582	0.0051695714
251	0x3e8e7a3d	0.27827635
252	0x3e61dc50	0.22056699
253	0x3e55435b	0.20826475
254	0xbd4a1939	-0.04934046
255	0xbc2b0287	-0.010437614

net.0.bias f4 [128]
0	0xbd9c3069	-0.07626421
1	0x3e00da6c	0.12583321
2	0x3e43871a	0.19094506
3	0xbe21c8e2	-0.15799287
4	0x3d3fbaef	0.046809133
5	0x3e86d724	0.26336014
6	0xbe0995a9	-0.13435997
7	0xbd7c1c00	-0.06155014
8	0xbdb48f61	-0.0881641
9	0x3dbef942	0.09324886
10	0xbd4d313b	-0.050095778
11	0xbdb0bdaa	-0.086299255
12	0x3ea2f50c	0.3182758
13	0x3e8da41d	0.2766427
14	0x3d029a80	0.031885624
15	0x3e0c1b30	0.13682246
16	0x3e28b537	0.16475378
17	0x3e19fae3	0.15037112
18	0x3e46cd2a	0.19414201
19	0x3e79ab4b	0.2438175
20	0x3e5c16ae	0.21493027
21	0x3d0037ab	0.03130309
22	0x3d39075b	0.04517303
23	0xbd998a9f	-0.07497143
24	0xbe11c8e6	-0.14236793
25	0x3d9ea391	0.077460416
26	0xbe2ab772	-0.16671541
27	0xbd9d37cb	-0.07676657
28	0x3e63ec90	0.2225821
29	0x3e881501	0.26578525
30	0xbdd7073b	-0.10499426
31	0x3dd69e2c	0.10479388
32	0xbd62a9c8	-0.055337697
33	0x3e02ad78	0.12761486
34	0xbe3f9785	-0.18710144
35	0xbe182e51	-0.14861418
36	0x3d914872	0.07093896
37	0x3de3b24d	0.111179926
38	0xbda41663	-0.080120824
39	0xbdbbc9bb	-0.091693364
40	0x3de422df	0.11139464
41	0xbcef89d7	-0.029240532
42	0xbcea121b	-0.028573086
43	0x3e30c142	0.17261222
44	0xbe3fcc16	-0.18730196
45	0xbe37d0a1	-0.1795068
46	0x3ddb9a03	0.10722735
47	0x3e96bd8f	0.29441497
48	0x3e0de3bd	0.13856407
49	0xbe57560a	-0.21028915
50	0xbe25159a	-0.16121522
51	0xbe078151	-0.13232924
52	0x3e3fbd34	0.18724519
53	0x3dcb468d	0.09925566
54	0x3e5b920a	0.21442428
55	0xbe882baf	-0.26595828
56	0xbd399a13	-0.045312952
57	0xbe5d8d1b	-0.21635859
58	0xbe3a153c	-0.18172163
59	0x3c719bf1	0.014746652
60	0xbde54391	-0.11194528
61	0x3e39b7e7	0.1813656
62	0x3e810f6c	0.25207078
63	0xbdd69c96	-0.10479085
64	0xbd3d3ee2	-0.046202548
65	0xbbefd686	-0.0073192744
66	0x3dd2268d	0.10261259
67	0xbe0db6f1	-0.13839318
68	0x3e468b08	0.19388974
69	0xbe57eafa	-0.2108573
70	0x3e6d493f	0.23172472
71	0x3e60c827	0.21951352
72	0xb9087b5f	-0.0001301593
73	0xbdc5cb6c	-0.0965794
74	0x3db4e0f0	0.08831966
75	0x3d0019c2	0.031274565
76	0xbdf9dd87	-0.12200456
77	0xbe29bd4e	-0.1657612
78	0x3d9018b7	0.07035964
79	0xbc347fde	-0.011016814
80	0x3e4b2978	0.19840038
81	0xbdd899fe	-0.10576247
82	0x3e1ad5b8	0.1512059
83	0x3c608f57	0.01370605
84	0xbd773160	-0.060349822
85	0x3dfd42f9	0.1236629
86	0x3dde9cc7	0.10869747
87	0x3e8311ad	0.25599423
88	0x3e1e84be	0.15480325
89	0x3e652aec	0.22379655
90	0x3e53929a	0.20661393
91	0xbe7589a3	-0.23978285
92	0x3e8fe62c	0.28105295
93	0xbe8d3bd6	-0.27584714
94	0x3d1ba91e	0.03800308
95	0xbd96c95e	-0.073626265
96	0xbe0f59e7	-0.13999139
97	0x3dc2144e	0.09476529
98	0x3d74dcfb	0.059781056
99	0x3e6a8802	0.22903445
100	0xbe62728a	-0.22114006
101	0x3e95b01f	0.29235932
102	0x3e7cceb5	0.24688227
103	0x3df4978b	0.11942967
104	0xbe29bd98	-0.1657623
105	0x3e647ee2	0.22314027
106	0x3d5227d6	0.05130752
107	0x3e80d75f	0.25164315
108	0xbe2e39fa	-0.17014304
109	0xbe638574	-0.22218877
110	0xbe27cd5c	-0.16386932
111	0x3dfd69a9	0.12373669
112	0x3de001b4	0.10937825
113	0x3e81a6d6	0.25322598
114	0x3e064978	0.13113964
115	0x3df585b4	0.119883925
116	0x3e491c42	0.19639686
117	0xbe04d2ea	-0.12971082
118	0xbdde105f	-0.10842966
119	0x3e7e35a3	0.24825148
120	0x3e329538	0.17439735
121	0x3e6f0ad5	0.23343976
122	0xbac200ec	-0.00148013
123	0xbe11524c	-0.1419155
124	0x3e03a629	0.12856354
125	0xbe580e94	-0.21099311
126	0xbe345050	-0.17608762
127	0x3e2e6ca7	0.17033635

net.2.weight f4 [256, 128]
0	0x3d8624d4	0.06549993
1	0x3d2fae43	0.0428908
2	0x3dac5004	0.08413699
3	0x3d6e2f01	0.058150295
4	0xbd4adfaf	-0.049529728
5	0xbd57e91e	-0.052712552
6	0x3d64020a	0.055666007
7	0x3c4845ab	0.012223641
8	0xbc63c3e5	-0.013901685
9	0xbc817d76	-0.015806895
10	0xbd7d626e	-0.061861448
11	0xbd0f6591	-0.03500897
12	0x3d5b9b1f	0.053614732
13	0x3cf22b5f	0.029561697
14	0x3d4861a5	0.048921246
15	0x3da06544	0.07831815
16	0x3d78d75c	0.060752258
17	0x3d2761a1	0.04086459
18	0xbd38ec20	-0.04514706
19	0x3d211777	0.03932902
20	0xbd5e5179	-0.054276917
21	0x3d8c2e4c	0.06844768
22	0x3c28ad54	0.010295231
23	0x3d3e9048	0.046524316
24	0xbdd3a999	-0.103350826
25	0x3d159526	0.036519192
26	0x3d5c3afe	0.053767197
27	0x3d5b52a3	0.053545605
28	0x3ca47a24	0.020077772
29	0x3c1d07a8	0.009584345
30	0x3db7d49b	0.08976098
31	0x3d4a38ac	0.049370453
32	0xbcea5b5f	-0.028608022
33	0xbd9efbcc	-0.0776287
34	0xbd892300	-0.06696129
35	0xbd471732	-0.048606105
36	0xbc9653bd	-0.018350476
37	0xbd45b91a	-0.04827223
38	0xbd41e803	-0.047340404
39	0xbbd7c33a	-0.006584552
40	0xbd285aa1	-0.041102055
41	0xbd909a01	-0.07060624
42	0xbd4940ab	-0.049133938
43	0x3dcc8930	0.09987104
44	0x3c552137	0.013008407
45	0x3af7bd75	0.0018901067
46	0x3d41a5ac	0.047277138
47	0x3d9f832d	0.07788692
48	0xbd13e1b3	-0.036103915
49	0x3d5143db	0.051090103
50	0x3bde8542	0.006790788
51	0xbd5e2b74	-0.05424066
52	0xbd62c698	-0.055365175
53	0x3dddd3fb	0.10831448
54	0x3d85f339	0.06540532
55	0x3ca3a0e6	0.019974183
56	0xbd2c5181	-0.042069916
57	0xbd8f8fc1	-0.07009841
58	0x3d7d6f5b	0.061873775
59	0xbd639478	-0.055561513
60	0xbbafaa8e	-0.005360908
61	0x3d9e7ee2	0.07739045
62	0xbd08f199	-0.03343353
63	0x3ab62929	0.0013897765
64	0x3d9f949a	0.077920154
65	0xbd92579f	-0.07145619
66	0x3d30e03e	0.043182604
67	0x3d3efd43	0.046628248
68	0xbd04cd8d	-0.03242259
69	0x3d0bd2d4	0.03413661
70	0xbb35ee9c	-0.002776063
71	0x3dc0d568	0.09415704
72	0xbce1995f	-0.027538953
73	0xbd30faa9	-0.0432078
74	0x3d292303	0.041293155
75	0x3c27a48b	0.010232101
76	0x3cd2d88a	0.02573802
77	0xbd1805e2	-0.037114985
78	0xbcd10ff7	-0.025520308
79	0xbda40c05	-0.08010105
80	0xbd1ca4ce	-0.038243107
81	0x3b297017	0.0025854164
82	0x3d8a2f6c	0.06747326
83	0xbd47802f	-0.04870623
84	0x3ccc67e0	0.024951875
85	0xbd0edac7	-0.03487661
86	0x3ca1fcfa	0.019773949
87	0x3c878697	0.01654367
88	0xbce67c91	-0.02813557
89	0x3c01d1f4	0.007923592
90	0xbd0359cb	-0.032068055
91	0x3aac4486	0.001314298
92	0x3d3ddc42	0.046352632
93	0x3da23e81	0.07922078
94	0x3d373037	0.044723716
95	0x3db16e3a	0.08663602
96	0xbd7c5fc1	-0.061614756
97	0xbda7e47a	-0.08197875
98	0xbd30910f	-0.04310709
99	0x3d160d9d	0.036634076
100	0x3d555211	0.052080218
101	0x3d46542f	0.048420127
102	0x3d9a526a	0.075352505
103	0x3d8befce	0.068328485
104	0x3d6921b8	0.056916922
105	0xbd2d5832	-0.042320438
106	0x3d4507bc	0.04810308
107	0x3b984e12	0.0046479786
108	0x3d860e87	0.065457396
109	0x3dd1ba16	0.10240571
110	0xbd83e3d9	-0.06439943
111	0xbd36cc98	-0.04462871
112	0x3d5405be	0.05176329
113	0x3db25fdb	0.08709689
114	0xbd1e2cc5	-0.038616914
115	0x3dac0976	0.08400242
116	0x3d334302	0.043765076
117	0x3c967fdc	0.018371515
118	0xbd19add0	-0.037519276
119	0x3b9a2ae0	0.004704818
120	0xbc584dc9	-0.013202139
121	0x3bb7d59f	0.0056101824
122	0xbd365ae9	-0.044520292
123	0xbdbae8d0	-0.09126437
124	0x3db2340a	0.08701332
125	0x3b5c0ae7	0.0033575834
126	0x3db0cf17	0.08633249
127	0xbd9b2fc9	-0.07577474
128	0x3af637c4	0.001878493
129	0x3d9585ea	0.07300933
130	0xbd40fe01	-0.047117237
131	0xbd27159b	-0.04079209
132	0xbce941dc	-0.028473787
133	0xbca39326	-0.019967627
134	0x3ca72ae2	0.02040619
135	0xbd044a74	-0.032297567
136	0x3da636b7	0.08115905
137	0xbd572fd0	-0.052535832
138	0xbd573a41	-0.05254579
139	0xbbd7a76e	-0.0065812385
140	0x3bb100c6	0.0054017035
141	0x3b963f6a	0.0045851963
142	0x3d542f77	0.05180308
143	0x3c115d00	0.008872271
144	0xbc4d7692	-0.012540476
145	0xbc04e6de	-0.008111684
146	0xbd874466	-0.06604843
147	0xbd30706e	-0.04307597
148	0xbd1da97e	-0.03849172
149	0xbcaae45f	-0.020860849
150	0xbcde20a8	-0.027115181
151	0xbd5d051b	-0.053959947
152	0xbd3a949a	-0.045551874
153	0xbc312df1	-0.010814176
154	0xbd0e0546	-0.034672998
155	0xbc6f9159	-0.014622056
156	0xbd5eb867	-0.05437508
157	0xbd51c60d	-0.051214267
158	0xbb35477d	-0.0027661019
159	0x3ca3b721	0.019984784
160	0xbd8c034c	-0.06836566
161	0xbd9f44c4	-0.07776788
162	0x3d440b0a	0.04786209
163	0x3c9a59c4	0.018841632
164	0xbb9cb46e	-0.004782251
165	0xb9df4578	-0.00042585633
166	0x3c495a30	0.012289569
167	0x3c658b67	0.014010287
168	0xbd20a636	-0.03922101
169	0x3d8f0b4d	0.06984577
170	0x3c3c355b	0.01148733
171	0x3da5d95e	0.080981
172	0x3d86c354	0.06580225
173	0xbd60825c	-0.05481182
174	0x3d5cd0ef	0.053910192
175	0x3c198598	0.00937023
176	0xbd11a76f	-0.035560068
177	0xbdaf7c96	-0.08568685
178	0x3d51ad96	0.051190935
179	0xbcbbbc24	-0.02291686
180	0xbb1eb3b9	-0.002421601
181	0xbd6aa22a	-0.057283558
182	0x3d394900	0.045235634
183	0xbd3f478a	-0.046699084
184	0x3d921657	0.07133167
185	0xbd3c2a2b	-0.045938652
186	0x3d2e2332	0.042514034
187	0xbd4f7274	-0.05064626
188	0xbd147d54	-0.036252335
189	0x3d76a2e7	0.06021395
190	0xbd9cf279	-0.076634355
191	0x3cb5215f	0.02211064
192	0x3d4e2a9a	0.050333597
193	0xbd8e10d4	-0.069368035
194	0x3c41b493	0.011822837
195	0xbd3f0ce3	-0.04664315
196	0xbc56c3a1	-0.013108165
197	0x3d9d0269	0.07666475
198	0xbd8d1e8f	-0.06890594
199	0x3d0dd01f	0.034622308
200	0x3d39f108	0.04539588
201	0xbd8b2599	-0.067942806
202	0x3c65e82a	0.014032403
203	0xbd2be6f0	-0.041968286
204	0x3d169170	0.036759794
205	0xbd27bab4	-0.04094954
206	0xbcc9c88a	-0.024631757
207	0xbd0e12d6	-0.034685932
208	0xbd972f25	-0.07382039
209	0xbc394845	-0.011308734
210	0xbd65cfc0	-0.05610633
211	0x3c1ede86	0.009696608
212	0x3ab69d00	0.0013932288
213	0x3d94a941	0.07258845
214	0xbd69ce7e	-0.057081692
215	0xbcd3811a	-0.025818396
216	0xbc57331c	-0.013134744
217	0xbd8d1825	-0.06889371
218	0x3d9cbe5b	0.07653495
219	0x3cd074a8	0.025446251
220	0xbc1f5453	-0.009724694
221	0x3da374de	0.07981275
222	0xbd1f42dd	-0.038882125
223	0x3c7092c7	0.014683432
224	0x3c8e1bb8	0.017347202
225	0xbb9288a0	-0.0044718534
226	0xbd74ed49	-0.059796605
227	0xbb9282ec	-0.0044711735
228	0xbd04fe8d	-0.03246932
229	0xbc8c3671	-0.017115803
230	0xbca964af	-0.020677892
231	0xbb6e10bd	-0.0036325895
232	0x3c6ff1d8	0.014645062
233	0xbbd9a6a4	-0.0066421796
234	0x3d55a290	0.052156985
235	0x3d2b17bb	0.041770678
236	0x3bd1537b	0.0063881255
237	0xba373e23	-0.0006990155
238	0xbda4c784	-0.08045867
239	0x3daf7fdf	0.08569311
240	0xbd0bde9d	-0.034147847
241	0xbbe1c233	-0.0068896054
242	0x3da3f61f	0.08005928
243	0xbd044f51	-0.032302205
244	0xbda18e72	-0.078884974
245	0xbd1888c6	-0.037239812
246	0x3d75ca0a	0.060007133
247	0x3c566ba3	0.013087186
248	0x3d2517dd	0.04030596
249	0x3d666b63	0.056254756
250	0x3da564b1	0.08075846
251	0x3ca6b3ef	0.02034947
252	0x3cc397ab	0.023876032
253	0x3dadaf7c	0.084807366
254	0xbcb00d2c	-0.021490656
255	0x3d64ac86	0.055828594

net.2.bias f4 [256]
0	0x3d2e3558	0.04253134
1	0xbd2fb4b7	-0.042896952
2	0xbd673da4	-0.05645527
3	0xbda3b0cd	-0.079927064
4	0x3ce988a7	0.028507544
5	0x3750c948	1.2444631e-05
6	0x3d3df2e8	0.04637423
7	0x3cbbfff9	0.022949206
8	0x3bb46529	0.0055052233
9	0x3d805ec5	0.06268076
10	0x3d168858	0.03675112
11	0xbb85d9b0	-0.0040847883
12	0xbd572a29	-0.05253044
13	0x3d7a4fca	0.06111125
14	0xbc2c1181	-0.01050222
15	0xbccf216c	-0.025284491
16	0xbd7860b2	-0.06063909
17	0xbd1e7d37	-0.038693633
18	0xbcb39f2e	-0.021926489
19	0x3d13c2ce	0.036074452
20	0xbc7f9484	-0.015599374
21	0x3d139834	0.036033824
22	0x3dc3886c	0.09547505
23	0xbc55c278	-0.013046853
24	0xbd855637	-0.06510585
25	0xbbffea61	-0.0078099226
26	0xbcf98106	-0.030457031
27	0xbd8556f2	-0.06510724
28	0x3c963698	0.01833658
29	0x3bd8bd79	0.006614384
30	0xbc3f5504	-0.011677984
31	0x3c0a4cb8	0.008441143
32	0x3bc8d0ce	0.006128407
33	0x3cce04a6	0.0251487
34	0x3d77ed6a	0.06052915
35	0x3cb55a6b	0.022137841
36	0xbcd941d3	-0.026520645
37	0xbcbbdc17	-0.022932095
38	0xbc822d84	-0.015890844
39	0x3d9c169c	0.076215
40	0xbc538f85	-0.012912636
41	0x3dba1363	0.09085729
42	0x3dc800e4	0.09765795
43	0x3df51508	0.11966902
44	0xbd9cb597	-0.07651823
45	0x3cb4fac6	0.022092234
46	0xbcf4556f	-0.029825894
47	0x3d42cd9f	0.047559377
48	0x3d8aa362	0.06769444
49	0x3d80552b	0.062662445
50	0x3c7a2030	0.015266463
51	0x396cd6d1	0.00022586739
52	0x3dc1d57f	0.09464549
53	0xbc9d9938	-0.0192381
54	0x3cb49c1b	0.022047093
55	0x3c997607	0.018733038
56	0x3d822f40	0.063566685
57	0x3db2e277	0.08734601
58	0x3d71ed98	0.059064478
59	0x3d903349	0.07041032
60	0x3d6e3d9c	0.058164224
61	0x3d818118	0.06323451
62	0x3da6597a	0.08122535
63	0x3d221c01	0.039577488
64	0xbdabb400	-0.08383942
65	0x3d92fce0	0.07177138
66	0xbcb1d493	-0.021707809
67	0x3dcecde5	0.10097865
68	0xbcf9d3a2	-0.030496422
69	0xbd243bbd	-0.040096033
70	0xbd855b2d	-0.06511531
71	0x3d4da935	0.050210197
72	0xbd869fd7	-0.06573456
73	0xbd78b1b7	-0.060716357
74	0xbcd4c669	-0.025973516
75	0x3d443c02	0.04790879
76	0x3c9bbcfd	0.019011015
77	0x3db31a73	0.08745279
78	0x3d475308	0.04866317
79	0xbcdde4ea	-0.027086694
80	0xbd4809c1	-0.048837427
81	0xbb7f88d9	-0.003899148
82	0xbb89b2f1	-0.0042022397
83	0xbb64b4de	-0.0034897844
84	0x3d7fb5e4	0.062429324
85	0xbd305205	-0.04304697
86	0xbd2d8f97	-0.042373266
87	0xbd5f8f66	-0.054580115
88	0xbd7f5057	-0.062332477
89	0x3d3c4e88	0.04597333
90	0x3da1aee1	0.07894684
91	0xbd01990c	-0.031640097
92	0x3d7e5ec4	0.062102094
93	0x3d6e91cb	0.058244508
94	0xbd8d830d	-0.069097616
95	0xbd4172a1	-0.04722846
96	0x3cea8373	0.028627133
97	0xbcdcaa97	-0.026936812
98	0xbc9cbc7b	-0.019132843
99	0x3d7f173a	0.06227801
100	0xbab68dc0	-0.0013927743
101	0x3d116297	0.035494413
102	0x3db4044c	0.08789882
103	0x3dac82b6	0.08423369
104	0x3dcdf48b	0.100564085
105	0xbc4858f3	-0.012228238
106	0x3da228c7	0.07917934
107	0xbce5ad6d	-0.028036797
108	0x3da67748	0.0812822
109	0xbd82c44e	-0.063850984
110	0x3d02c8cd	0.03192978
111	0xbd212ae6	-0.03934755
112	0x3d87c26f	0.06628882
113	0xbd39ad25	-0.04533114
114	0x3d916917	0.071001224
115	0x3d40d74a	0.047080316
116	0xbd31be29	-0.04339424
117	0xbd71e670	-0.059057653
118	0x3dbdc675	0.09266368
119	0xbda9e0fa	-0.08294864
120	0x3d86595d	0.065600134
121	0x3d7394fa	0.059468247
122	0xbd8f5cdb	-0.07000133
123	0x3d9faf2c	0.07797083
124	0xbd97f4cd	-0.07419739
125	0x3d21eeee	0.0395345
126	0x3c6b2b2a	0.014353553
127	0x3d806622	0.0626948
128	0xbdaec94e	-0.085344896
129	0x39aed900	0.00033349544
130	0xbc82c264	-0.015961833
131	0x3d533b1f	0.051570054
132	0x3d1567d0	0.036475956
133	0xbcebf95b	-0.028805425
134	0x3a8cda96	0.0010746296
135	0xbd34a26b	-0.044100206
136	0xbc1e2246	-0.009651726
137	0xbc5ced97	-0.01348438
138	0x3d583401	0.05278397
139	0x3d0f1692	0.034933634
140	0x3c64f9f0	0.013975605
141	0x3d4ebc79	0.05047271
142	0x3db6fdca	0.08935125
143	0x3d3d0815	0.046150286
144	0x3da46ea3	0.08028915
145	0x3d314c17	0.043285456
146	0x3d1ff9e8	0.03905669
147	0x3dc519cf	0.09624063
148	0x3d6b8ded	0.057508398
149	0xbd0f96ec	-0.03505604
150	0x3d7dac8b	0.061932128
151	0x3d80079c	0.062514514
152	0xbbe671d8	-0.007032614
153	0xbd5d3f48	-0.054015428
154	0x3d8314fd	0.064004876
155	0x3d4034e7	0.04692545
156	0x3d8d5ffa	0.06903072
157	0xbd33c112	-0.043885298
158	0x3cc31e8f	0.023818282
159	0x3c5687c6	0.013093894
160	0xbd714b4c	-0.0589097
161	0x3d934c36	0.071922705
162	0x3cb17603	0.021662718
163	0x3d7f5847	0.062340047
164	0x3d39c546	0.04535415
165	0x3dbb928e	0.091588125
166	0xbb7827de	-0.003786556
167	0xbd9e970f	-0.07743656
168	0xbd9fe9f0	-0.07808292
169	0x3d42d4c0	0.047566175
170	0xbcc90d91	-0.024542602
171	0x3de197c0	0.11015272
172	0x3cdfac24	0.027303763
173	0xbc0895ea	-0.008336524
174	0xbbd93033	-0.0066280602
175	0x3d551539	0.052022193
176	0x3d8b0a77	0.067891054
177	0x3db013b8	0.08597511
178	0x3d854280	0.065068245
179	0xbc5dcd6e	-0.013537748
180	0xbce0cf50	-0.027442604
181	0x3d9b846e	0.07593618
182	0x3d47000b	0.048584025
183	0xbd6ec891	-0.058296744
184	0xb9f9215f	-0.00047517844
185	0xbd9eb6e7	-0.077497296
186	0xbad2cda5	-0.0016083015
187	0xbcf69dfc	-0.03010463
188	0x3d2b5979	0.041833375
189	0x3d72b648	0.05925587
190	0xbcc7c670	-0.024386615
191	0x3c0b3255	0.008495887
192	0x3b7b961c	0.0038389033
193	0xbd1348d0	-0.03595811
194	0xbcd198f8	-0.025585636
195	0xbda1acb0	-0.07894266
196	0x3ce91114	0.028450526
197	0x3d7fc5b2	0.062444396
198	0xbd9ae0e4	-0.07562426
199	0x3d911c52	0.0708548
200	0xbd57aa3c	-0.052652583
201	0xbcbcf2a5	-0.02306492
202	0xbd2f176f	-0.042746957
203	0xbdb10db1	-0.086451896
204	0x3cca0547	0.02466072
205	0x3d052dae	0.032514267
206	0xbd74d024	-0.05976881
207	0x3d98273e	0.0742936
208	0xbc87a1b4	-0.016556598
209	0xbc0ffbc8	-0.008788057
210	0x3c6545b6	0.013993671
211	0xbdac2703	-0.084058784
212	0x3db11353	0.08646264
213	0x3a4950ab	0.0007679562
214	0x3d880aba	0.06642671
215	0xbd179b87	-0.037013557
216	0xbd04032a	-0.03222958
217	0xbd574ea9	-0.05256525
218	0x3d61bab6	0.055109702
219	0xbd84385b	-0.064560615
220	0x3d1e1c06	0.038600944
221	0xbdafcee6	-0.085843846
222	0xbca87fe4	-0.020568796
223	0x3d098e8a	0.0335832
224	0x3c80cdea	0.015723187
225	0xbd57787c	-0.052605137
226	0x3da7420e	0.08166896
227	0xbd9aaae0	-0.07552123
228	0x3d76218a	0.06009058
229	0x3d0a9b02	0.033839233
230	0x3d9c3ce8	0.076288044
231	0x3db3b9c6	0.08775668
232	0x3d3b0476	0.04565855
233	0xbd4cd765	-0.050010104
234	0x3d881e84	0.066464454
235	0x3d6a4e3b	0.057203513
236	0xbd44d7aa	-0.048057236
237	0xbd6c5189	-0.057694945
238	0xbda18a72	-0.078877345
239	0x3ceff6f5	0.029292563
240	0xbd76e524	-0.06027712
241	0x3d62a2cf	0.055331048
242	0xbd04a01c	-0.032379255
243	0xbd3d0d7b	-0.046155434
244	0x3dd98053	0.10620179
245	0xbd05cee0	-0.032667994
246	0x3db01e0c	0.08599481
247	0xbb79edf7	-0.0038136223
248	0xbd8b23f4	-0.06793967
249	0xbd9c68cc	-0.07637176
250	0xbc9b5fa6	-0.018966507
251	0xbc328696	-0.010896346
252	0xbbcc000b	-0.006225591
253	0x3c02f127	0.0079920655
254	0x3bcab782	0.0061864266
255	0x3bc05cd4	0.005870441

μ.weight f4 [3, 256]
0	0x3c6d9ce4	0.014502738
1	0x3d09a64b	0.033605855
2	0x3cff3ee4	0.031157918
3	0xb9cbfdd0	-0.00038908282
4	0xbd721b29	-0.059107933
5	0x3d4eb040	0.050461054
6	0x3b18e613	0.0023330494
7	0xbd912733	-0.07087555
8	0x3d6cb2ad	0.057787586
9	0x3ce0e5b8	0.027453288
10	0xbd39017b	-0.045167428
11	0x3d72a824	0.059242383
12	0x3cf8a494	0.030351914
13	0x3d78cf46	0.060744546
14	0x3c02f0e1	0.007992
15	0x3cb7ef50	0.02245298
16	0x3d5f4d2c	0.054516956
17	0xbb9b0b93	-0.0047316044
18	0xbc079df1	-0.008277402
19	0x3c770e25	0.015079056
20	0xbc8fd6c0	-0.017558455
21	0x3b80c82e	0.0039301133
22	0xbbddda00	-0.0067703724
23	0xbd0f1edc	-0.03494154
24	0x3c11f715	0.008909007
25	0x3d13d2d5	0.036089737
26	0x3d460bf6	0.04835125
27	0x3b72e7e0	0.0037064478
28	0x3d25c66b	0.04047243
29	0xbda3d9ba	-0.080005124
30	0x3d5b9a72	0.053614087
31	0xbd1fbe16	-0.03899964
32	0x3c3ae6e7	0.0114075905
33	0xbd77744e	-0.06041365
34	0xbd8df3ef	-0.06931292
35	0xbd90e1bd	-0.07074306
36	0x3d61feba	0.055174567
37	0x3d4eeb5f	0.050517436
38	0xbc20e840	-0.009820998
39	0x3d5cbfa8	0.053893715
40	0x3bd7624e	0.006572998
41	0xbd2d0086	-0.042236827
42	0x3d2ac8dd	0.041695464
43	0xbc43aa0d	-0.011942399
44	0xbd4806be	-0.048834555
45	0xbcc6913a	-0.024239171
46	0x3cd0b048	0.025474682
47	0xbc876ffb	-0.016532889
48	0xbbf946dd	-0.0076073245
49	0x3cfb6a9c	0.030690484
50	0xbab9a5cd	-0.0014163792
51	0xbd37e8be	-0.044899695
52	0xbb8147b9	-0.0039453176
53	0xbd228ac4	-0.03968312
54	0xbd224807	-0.039619472
55	0x3d01eeac	0.031721756
56	0x3d4dcda4	0.050244942
57	0xbb40d45a	-0.0029423446
58	0x3bca1828	0.0061674304
59	0x3981901e	0.00024712173
60	0x3b3f1d12	0.0029161614
61	0x3cfff89b	0.031246474
62	0xbb2ea44e	-0.0026648226
63	0xbd58c9c8	-0.05292681
64	0xbd4bdaca	-0.0497692
65	0xbc183b8f	-0.009291544
66	0xbb2b848a	-0.0026171529
67	0x3d6ccaab	0.057810467
68	0x3cf2f226	0.029656481
69	0xb9381400	-0.00017555058
70	0xbcd9c1db	-0.026581695
71	0xbc96bdac	-0.01840099
72	0x3d0e0cb4	0.034680083
73	0x3d480452	0.048832245
74	0xbc6b9f56	-0.01438125
75	0x3d34e4b6	0.04416343
76	0x3860781c	5.3517622e-05
77	0x3d54ce12	0.051954336
78	0xbc804b0d	-0.015660787
79	0x3cdf84e0	0.02728504
80	0xbcabce90	-0.02097252
81	0x3c1217f2	0.008916842
82	0x3da07235	0.07834283
83	0x3cdc7b10	0.02691415
84	0xbd81cb78	-0.06337637
85	0xbd26682c	-0.04062669
86	0x3bbb8df6	0.00572371
87	0xbcf40592	-0.029787812
88	0xbd84ed55	-0.0649058
89	0x3d6f77af	0.05846375
90	0x3d24a62e	0.040197544
91	0xbd2c2b3d	-0.042033423
92	0xbc35d524	-0.01109818
93	0xbbf80a58	-0.0075695924
94	0xbc491e65	-0.012275313
95	0xbd0454fc	-0.03230761
96	0xbb8b5050	-0.0042515174
97	0x3d8d4e2b	0.06899675
98	0xbd04f902	-0.032464035
99	0xbce32d82	-0.02773166
100	0x3cb40cb4	0.021978714
101	0xbcf8ea5e	-0.030385192
102	0x3c83bcdf	0.016081272
103	0x3c286eab	0.010280292
104	0x3d560b3c	0.052256808
105	0x3d2506d2	0.040289707
106	0x3c3fb820	0.011701614
107	0x3d184163	0.037171733
108	0xbd180f98	-0.037124246
109	0x3d680aea	0.056651033
110	0xbd4fd410	-0.050739348
111	0xbd8fff6a	-0.07031138
112	0xbcdd534c	-0.027017258
113	0x3d8c68f7	0.06855958
114	0x3d5a8ba6	0.053355835
115	0xbd46f37f	-0.04857206
116	0xbd3e9eba	-0.046538092
117	0xbcd6c5a3	-0.026217287
118	0x3a1f7e5b	0.0006084197
119	0xbd00ad12	-0.031415053
120	0x3d4e43e9	0.050357733
121	0xbd0d6132	-0.03451652
122	0xbd5cfad2	-0.05395014
123	0xbd378930	-0.044808567
124	0x3d05864d	0.032598782
125	0x3c0dc265	0.008652304
126	0x3ceb7bd0	0.028745562
127	0xbd18e3b9	-0.03732655
128	0xbd0de25b	-0.034639698
129	0x3d155e34	0.036466792
130	0x3d62af29	0.055342827
131	0xbb99f64b	-0.00469855
132	0xbd68a1a5	-0.05679478
133	0x3d3d5fbb	0.046233874
134	0x3d10c3c8	0.03534296
135	0x3ce10c16	0.027471583
136	0xbbe9a682	-0.007130445
137	0xbd4810e3	-0.04884423
138	0xbc4a5287	-0.012348778
139	0x3cc1089a	0.023563672
140	0xbc107ca3	-0.008818778
141	0x3d0ffdac	0.03515403
142	0x3c382a49	0.01124055
143	0xbcbab137	-0.02278958
144	0x3ca694ef	0.020334689
145	0x3d947abd	0.07249973
146	0xbc1b5399	-0.00948038
147	0xbc1b43c3	-0.009476605
148	0x3d459846	0.048240922
149	0x3d44d58e	0.048055224
150	0x3b4546e9	0.003010208
151	0xbd8d7f0f	-0.06909
152	0xbb66382d	-0.0035128698
153	0xbcea72b3	-0.028619146
154	0x3c051f34	0.008125115
155	0xbd58e6f8	-0.052954644
156	0x3d1e001c	0.038574323
157	0x3cc6b29d	0.024255091
158	0x3cb791c0	0.022408366
159	0xbd290dbd	-0.041272867
160	0x3c656fda	0.014003718
161	0x3c50aff6	0.012737265
162	0x3b1b5e28	0.0023707245
163	0x3c995a3d	0.018719787
164	0xbbb49190	-0.0055105165
165	0xbcefcde6	-0.029272985
166	0xbd24d0fd	-0.04023837
167	0xbd90e6dc	-0.07075283
168	0x3d0bed0d	0.034161616
169	0xbd7a1d50	-0.06106311
170	0xbd32a265	-0.043611903
171	0x3cd4b479	0.025964962
172	0xbc94cdce	-0.018164542
173	0x3b74be2e	0.0037344801
174	0x3d998c5e	0.07497476
175	0x3d5427ce	0.051795773
176	0xbb9613fb	-0.0045800186
177	0xbc1cc79d	-0.009569076
178	0xbd03b9b4	-0.032159522
179	0xbcf81c3b	-0.030286899
180	0x3d793daf	0.06084984
181	0x3cac1cab	0.021009764
182	0xbd007748	-0.031363755
183	0xbd0c5b80	-0.03426695
184	0xbb3a4696	-0.002842342
185	0xbccc1b68	-0.024915412
186	0xbcae69fc	-0.021290772
187	0x3d66a520	0.05630982
188	0xbc4a49f6	-0.012346735
189	0xbd0e1e1c	-0.034696683
190	0xbc9797f1	-0.018505068
191	0xbd0fb549	-0.035084996
192	0x3d85c524	0.06531742
193	0x3d509c22	0.05093015
194	0xbba4cd61	-0.005029366
195	0x3a98522a	0.0011621166
196	0xbd305350	-0.043048203
197	0x3d0752f4	0.033038095
198	0xbd56fa1a	-0.05248461
199	0x3c258347	0.0101021
200	0xbd8cf41b	-0.06882497
201	0x3d1ac157	0.03778204
202	0xbd22acc8	-0.03971556
203	0xbd07642b	-0.033054512
204	0xbb8917a7	-0.004183728
205	0x3cc0eaa4	0.023549385
206	0x3cf7d918	0.030254886
207	0x3bcfc213	0.006340274
208	0x3bcd5a80	0.006266892
209	0x3c116130	0.008873269
210	0xbd843f42	-0.06457378
211	0xbd0bfe91	-0.03417832
212	0xbd44db80	-0.048060894
213	0xbd69f18b	-0.05711512
214	0xb900ee5f	-0.00012295831
215	0xbd3117e7	-0.043235686
216	0x3d3a7274	0.045519307
217	0x3d4b444d	0.049625684
218	0xbd4057c6	-0.046958707
219	0xbd56ce99	-0.05244312
220	0x3d591ad3	0.053004097
221	0x3d1d2706	0.038367294
222	0x3cb0589c	0.021526627
223	0xbc9911b4	-0.0186852
224	0x3d1ac34d	0.03778391
225	0xbccfb4e7	-0.025354816
226	0xbb2583f6	-0.0025255657
227	0x3cc5b250	0.024132878
228	0xbd1c7b02	-0.038203247
229	0xbc90ba6b	-0.017667016
230	0x3d578c05	0.052623767
231	0x3d6e809c	0.05822812
232	0x3c90f206	0.01769353
233	0x3d0bafe9	0.034103308
234	0x3d1d560d	0.038412143
235	0x3cad29cc	0.021138094
236	0x3d58992b	0.052880447
237	0xbcacf1ec	-0.021111451
238	0xba9adaf2	-0.0011814518
239	0x3ce6c9f4	0.02817247
240	0x3cfde5d9	0.030993389
241	0xbd46aa7c	-0.04850243
242	0x3d1215a4	0.03566517
243	0x3d3de31c	0.046359167
244	0x3d033810	0.032035887
245	0xbd76138c	-0.060077235
246	0x3cd0a379	0.025468575
247	0xbc13d18d	-0.009022129
248	0xbd5e3a25	-0.05425467
249	0x3db3f009	0.087860174
250	0x3d6d878e	0.057990603
251	0xbd5ca22b	-0.053865593
252	0x3b955a16	0.004557858
253	0xbcc753d5	-0.024331966
254	0x3cee1bcc	0.029065989
255	0xbc7bc22a	-0.015366117

μ.bias f4 [3]
0	0x3d01806f	0.031616624
1	0x3d3f1e56	0.04665979
2	0x3bcc06ff	0.00622642

σ.weight f4 [3, 256]
0	0xbb7759d9	-0.0037742762
1	0x3d4b0143	0.04956175
2	0xbd3ecfd4	-0.04658492
3	0xbcd838c1	-0.02639425
4	0xbd8c4929	-0.06849892
5	0xbcc97c20	-0.02459532
6	0xbd4edfbc	-0.05050634
7	0xbce72337	-0.028215034
8	0xbd3bd999	-0.045861814
9	0xbd9f41cc	-0.07776222
10	0xbd59dbc6	-0.053188108
11	0x3d002f04	0.031294838
12	0xbd3916bb	-0.045187693
13	0xbd507c7c	-0.050899968
14	0x3d096977	0.033547845
15	0xbd448446	-0.04797771
16	0x3d574dfc	0.052564606
17	0x3ceb2a1c	0.028706603
18	0xbd182864	-0.037147895
19	0xbc0c6cf0	-0.008570895
20	0xbd5edbf9	-0.054409
21	0x3c59490a	0.013262043
22	0x3b6a0384	0.0035707662
23	0xbbd381ab	-0.0064546666
24	0x3d6a93c0	0.05726981
25	0x3d1edd5c	0.038785324
26	0x3d02e98e	0.031961016
27	0x3d5c5554	0.053792313
28	0xbc55710a	-0.013027439
29	0xbca8b6fc	-0.020595066
30	0x3d78fa81	0.060785774
31	0xbc9117d0	-0.01771155
32	0x3c8e8a19	0.017399834
33	0x3d0227e3	0.03177632
34	0xbd4a33aa	-0.049365677
35	0x3d3569a6	0.044290207
36	0x3d348a26	0.04407706
37	0xbd802c8d	-0.062584974
38	0x3cca0d40	0.024664521
39	0xbd3ee120	-0.046601415
40	0xbc1e27e7	-0.009653068
41	0x3cc6f539	0.024286853
42	0xbceee2b8	-0.029160842
43	0xbd7908bb	-0.06079934
44	0xbd7aa7cd	-0.061195184
45	0xbd84abf8	-0.06478113
46	0x3caba0c7	0.020950688
47	0xbc62193d	-0.013799963
48	0x3cc198ff	0.023632525
49	0x3d4d931d	0.050189126
50	0x3c9c34d6	0.019068163
51	0x3c28ec7f	0.010310291
52	0x3d0741c3	0.0330217
53	0xbd36541e	-0.044513814
54	0x3c572c7b	0.013133164
55	0x3d382f11	0.04496676
56	0xbd80f1e8	-0.0629614
57	0x3d43090c	0.04761605
58	0xbd25d10a	-0.04048256
59	0x3d317d8f	0.043332633
60	0xbcc20d70	-0.023688048
61	0xbd3f5b5a	-0.04671798
62	0xbd391858	-0.04518923
63	0xbc13d2d1	-0.0090224305
64	0xbce4708c	-0.027885698
65	0xbd93d6fd	-0.0721874
66	0xbd1eb503	-0.038746845
67	0xbd8710c3	-0.06594994
68	0x3d2094f4	0.039204553
69	0xbd254b66	-0.04035511
70	0x3d2c2993	0.042031836
71	0x3d0125e8	0.03153029
72	0xbcd9d6e8	-0.026591733
73	0x3ac5578c	0.0015055998
74	0x3d22b81e	0.03972637
75	0xbcfbb0f0	-0.030724019
76	0xbc3fc159	-0.0117038125
77	0xbd61f552	-0.055165596
78	0x3cb41744	0.02198375
79	0x3d3626b0	0.04447049
80	0xbca6f8f1	-0.020382376
81	0xbc439a80	-0.011938691
82	0xbd7c2728	-0.06156078
83	0xbd18ced1	-0.03730661
84	0x3cc87c05	0.0244732
85	0xbd1454f4	-0.03621383
86	0xbd83be00	-0.06432724
87	0xbb8d760a	-0.00431705
88	0xbca8a1dd	-0.020584995
89	0xbca34800	-0.019931793
90	0x3d187cbd	0.037228335
91	0xbd36224f	-0.044466313
92	0xbc662a70	-0.014048204
93	0x3d20e656	0.039282165
94	0xbd95100a	-0.0727845
95	0x3cd09b20	0.025464594
96	0xbd805d95	-0.06267849
97	0xbbfde14a	-0.007747804
98	0x3d134e45	0.035963316
99	0x3bae937d	0.0053276406
100	0x3ccf07d8	0.025272295
101	0xbcccb323	-0.024987763
102	0xbc0b6902	-0.0085089225
103	0x3cc383ea	0.023866612
104	0xbda205fd	-0.079112984
105	0x3d0d7fb6	0.034545623
106	0x3be41015	0.006959925
107	0xbd0c08b9	-0.034188006
108	0xbd3308ed	-0.043709684
109	0xbc830cd8	-0.015997335
110	0xbd926532	-0.07148208
111	0x3c14713a	0.009060198
112	0x3c51acce	0.0127975475
113	0x3c95f7b9	0.0183066
114	0xbd5999ac	-0.05312507
115	0x3d2dc172	0.042420812
116	0x3c442d17	0.011973641
117	0x3c001b55	0.007819016
118	0xbd9d3570	-0.07676208
119	0x3cbc32dc	0.02297347
120	0xbca468b6	-0.020069461
121	0xbce0b920	-0.027432024
122	0xbd6445ba	-0.05573056
123	0xbd1bdeb4	-0.038054183
124	0x3af4d517	0.0018679228
125	0xbd21b698	-0.039480776
126	0xbd337bd6	-0.04381927
127	0xbd4da8e7	-0.050209906
128	0xbd8a3876	-0.0674905
129	0x3d388d26	0.045056485
130	0xbd962b89	-0.073325224
131	0x3d6407ef	0.05567163
132	0xbda81624	-0.08207348
133	0xbc96435f	-0.018342672
134	0xbbd5b8e6	-0.0065222858
135	0x3d341b10	0.04397112
136	0x3d1dfec0	0.038573027
137	0xbd785b0c	-0.060633704
138	0xbd9db82b	-0.07701143
139	0xbd37197f	-0.04470205
140	0xbd8cbbea	-0.06871779
141	0xbd8b6dd2	-0.06808056
142	0xbce59a52	-0.028027687
143	0x3d1fff5e	0.039061897
144	0xbd386da0	-0.04502642
145	0xbd26b109	-0.040696178
146	0x3b252b23	0.0025202713
147	0xbd64347d	-0.05571412
148	0xbd00391a	-0.031304456
149	0xbd4b869a	-0.049688913
150	0xbd1c98a8	-0.03823152
151	0xbd1c4eba	-0.038161017
152	0xbd101ab6	-0.035181724
153	0x3c6fa4ef	0.014626726
154	0xbd461565	-0.048360247
155	0xbcb8b62c	-0.022547804
156	0xbda2bcf6	-0.07946198
157	0x3cdf9fda	0.027297903
158	0x3cbbc78c	0.0229223
159	0x3d10f2ba	0.035387732
160	0x3cf68995	0.030094901
161	0xbbe17ba7	-0.0068811956
162	0x3d1295c3	0.035787355
163	0xbc24bec6	-0.01005525
164	0xbd46acdc	-0.048504695
165	0x3bfe4520	0.007759705
166	0xbd5749b9	-0.05256054
167	0x3d362d12	0.044476576
168	0x3d8cffb0	0.06884706
169	0xbcb7f987	-0.022457851
170	0x3aa21888	0.001236693
171	0xbb116543	-0.00221856
172	0xbd3ccbe8	-0.046092898
173	0xbc0f824e	-0.008759094
174	0xbc4cc6e9	-0.012498596
175	0xbd385414	-0.04500206
176	0x3c8a5468	0.016885951
177	0x3c965e5c	0.01835554
178	0xbd9d4526	-0.07679205
179	0xbd367f91	-0.04455525
180	0xbd306183	-0.043061744
181	0xbd39f12d	-0.04539602
182	0x3d266b39	0.0406296
183	0xbc7addc2	-0.01531166
184	0xbd4684fa	-0.04846666
185	0xbd54b18b	-0.05192713
186	0xbc504e84	-0.012714032
187	0xbc871efb	-0.016494265
188	0xbbe9a2f2	-0.0071300203
189	0x3d8f00a2	0.069825426
190	0x3d45c8a1	0.048287038
191	0xbbae756c	-0.0053240564
192	0x3d7bc8fc	0.06147097
193	0xbd18435c	-0.037173614
194	0xbda05b58	-0.078299224
195	0x3d1a239c	0.037631616
196	0x3aa5c980	0.0012648553
197	0x3d260ec4	0.040541425
198	0x3ae00b20	0.0017093159
199	0x3ce840ac	0.02835115
200	0xbd037c47	-0.032100942
201	0x3b4fcb2a	0.0031706789
202	0xbd3890d3	-0.04505999
203	0xbd29587f	-0.041344162
204	0xbc8a67bf	-0.016895173
205	0xbce1afa1	-0.027549567
206	0xbd4ec3ca	-0.050479688
207	0xbcd0d120	-0.025490344
208	0x3c817ab4	0.01580558
209	0x3c455ec8	0.012046523
210	0x3d19f5c3	0.037587892
211	0xbd842ba3	-0.064536355
212	0xbc5c411b	-0.013443257
213	0x3bc60cf2	0.0060440237
214	0x3d0ff792	0.03514821
215	0x3c22d11b	0.00993755
216	0x3d34349e	0.043995492
217	0x3d4808b1	0.048836414
218	0x3c42e209	0.011894711
219	0x3d6bf1d5	0.057603676
220	0xbd921c70	-0.0713433
221	0xbd885c59	-0.06658239
222	0xbd9732a2	-0.07382704
223	0xbd4470c6	-0.04795911
224	0xbc861715	-0.016368428
225	0xbcf4f154	-0.02990023
226	0x3d9da38b	0.07697209
227	0x3cda4804	0.026645668
228	0xbbc65a90	-0.0060532764
229	0xbcabfe2b	-0.02099522
230	0xbd92918e	-0.071566686
231	0xbd941680	-0.07230854
232	0x3c6b3f1c	0.014358308
233	0xbcad0e39	-0.021124946
234	0xbcb425f9	-0.021990763
235	0xbd63b566	-0.055592917
236	0xbd91e7a3	-0.07124259
237	0xbc583b58	-0.013197742
238	0x3c76fb0c	0.015074503
239	0xbd581ffb	-0.052764874
240	0xbd0c7a09	-0.03429607
241	0xbce92610	-0.028460532
242	0x3ceb19af	0.02869877
243	0xbd9bf301	-0.07614709
244	0xbd506246	-0.05087497
245	0xbb286729	-0.0025696254
246	0xbd899fe9	-0.067199536
247	0xbba6980b	-0.005084043
248	0x3b5c8ce6	0.0033653318
249	0xbd951568	-0.072794735
250	0x3d2525fb	0.040319424
251	0xbd772c5c	-0.06034504
252	0x3d229ddc	0.039701328
253	0x3bc8876e	0.00611966
254	0xbd80a31f	-0.06281113
255	0x3c8cda63	0.017193979

σ.bias f4 [3]
0	0xbcddfa07	-0.027096761
1	0xbd6c8c4e	-0.057750992
2	0x3d1fb3fc	0.038990006
