model/p.pth (torch, 152696 bytes, 8 tensors)

net.0.weight f4 [128, 22]
0.0073965928 0.18233404 0.12241681 0.06884138 -0.08689496 0.20354356 0.01203101 0.10302589
0.15637946 0.0653347 0.018983873 -0.17730539 -0.07091424 -0.09981137 -0.13116527 0.078646675
-0.14722618 0.13769893 0.19772416 0.14256503 -0.16393767 0.01649181 0.22051367 -0.015054953
-0.16098389 0.0913612 -0.12615705 -0.09749921 -0.18986367 -0.113492735 0.22813259 0.0053741075
0.17119981 0.21548165 -0.14388613 0.16519067 -0.18591323 -0.070744365 0.116666056 0.07989814
0.120828845 -0.119458415 -0.1035803 -0.019107182 0.094271444 0.052283183 0.1899442 -0.12197991
0.14754717 0.04702205 0.047932737 0.139726 0.0019817648 0.08255564 -0.11462912 -0.1742179
0.12640382 0.18068597 -0.12645672 -0.14446463 -0.091391504 0.022031903 0.08359163 0.22105473
0.14962126 0.2039864 -0.12969823 -0.09731078 0.13966367 0.051771898 0.19333127 0.10807471
-0.09310665 0.10333565 -0.01445398 -0.15985261 0.085162275 -0.10105632 -0.16006246 0.20997438
-0.1201999 0.05313429 -0.15884583 -0.061587956 0.09914666 0.18946043 0.00077607046 0.18383518
-0.20290545 -0.054646056 0.18342467 0.053287603 -0.018703002 -0.09884854 -0.10336755 0.09788418
-0.18241762 -0.14247169 0.10581291 -0.075721055 -0.14719303 -0.058490608 -0.17300346 -0.16599359
-0.21048734 -0.06707007 0.10745792 0.030402284 -0.10476135 0.07082732 -0.053073134 -0.1213889
0.040309604 -0.07424064 0.012910206 -0.20328923 -0.07271686 -0.057051394 -0.22897503 0.13397424
-0.20394337 0.12515157 0.17040095 -0.1474903 -0.21894528 0.037517488 0.20117983 -0.008198948
-0.15789913 -0.021126434 -0.15102257 -0.12925199 0.20187326 -0.19553022 -0.06622466 -0.123096906
-0.15286373 -0.10985107 -0.12738398 0.10732902 -0.01947387 0.085693255 0.09693339 0.10536883
-0.10185866 -0.0440166 -0.08366081 0.007855711 0.002422369 -0.10329538 0.15827875 0.029938031
-0.12353543 -0.053403173 0.08902421 0.061448503 0.05163191 0.15846987 -0.031476 -0.073460296
0.18799739 0.023909565 -0.16470294 -0.17199461 -0.026203563 0.18989211 -0.062279627 -0.094773985
-0.2324357 -0.15205432 0.10424477 0.16996261 -0.18847215 -0.1144819 0.11435675 -0.09002292
-0.12783405 0.19423987 0.08534661 0.071312785 -0.16227578 0.00878878 -0.17479008 0.20976111
0.1129162 0.053786274 -0.1584187 -0.13733324 0.06188641 0.14376715 0.17533258 -0.057448417
-0.15464945 0.101609096 -0.101704456 -0.10415957 0.1367687 0.16303746 0.18394876 0.09449685
0.06370625 -0.10235588 0.028380262 0.04997678 0.05321288 0.020298852 0.03406991 -0.08419941
0.12192809 0.003360181 -0.16647717 -0.10304398 0.17858234 0.098025315 0.20296073 0.017203817
0.0043656966 -0.18112561 0.02173319 -0.20632206 -0.04396575 0.008457387 -0.00928575 -0.13418919
0.17041339 -0.087042555 0.115596555 -0.1302552 0.19169776 0.11241107 0.13362677 -0.1418017
-0.10848179 0.04919963 -0.08731322 -0.20057777 -0.13176122 0.018500768 -0.05094898 -0.009415561
0.04281577 -0.10117785 0.060767446 -0.21610582 0.1629505 -0.12749153 -0.20038968 0.10293261
0.03925419 0.12657654 0.018694982 0.124527365 -0.15527758 -0.011440697 0.1723756 0.13866217
00000000: 1e5f f23b c6b5 3a3e aab5 fa3d b6fc 8c3d
00000010: fcf5 b1bd b96d 503e b71d 453c 3dff d23d
00000020: f021 203e 33ce 853d 1184 9b3c 8b8f 35be
00000030: 7c3b 91bd e769 ccbd 3050 06be 8211 a13d
00000040: 76c2 16be f300 0d3e 3478 4a3e 91fc 113e
00000050: 47df 27be d519 873c 56ce 613e 0da9 76bc
00000060: f6d8 24be 951b bb3d 502f 01be aaad c7bd
00000070: 9f6b 42be e16e e8bd 979b 693e 4819 b03b
00000080: 014f 2f3e 39a7 5c3e e356 13be be27 293e
00000090: 0a60 3ebe 6ce2 90bd 9dee ee3d a3a1 a33d
000000a0: 1d75 f73d 9da6 f4bd e921 d4bd aa86 9cbc
000000b0: 6311 c13d e426 563d bb80 423e 9ad0 f9bd
000000c0: 9b16 173e 319a 403d 1e55 443d 5514 0f3e
000000d0: 7fe0 013b ee12 a93d acc2 eabd 2d66 32be
000000e0: 0170 013e be05 393e df7d 01be 89ee 13be
000000f0: 782b bbbd 407c b43c 1732 ab3d 2c5c 623e
00000100: 5136 193e d0e1 503e 9dcf 04be e04a c7bd
00000110: fe03 0f3e c50e 543d a2f8 453e 4656 dd3d
00000120: b3ae bebd a4a1 d33d 63d0 6cbc 67b0 23be
00000130: 8f69 ae3d 9ef6 cebd 6ae7 23be 8603 573e
00000140: 5d2b f6bd 57a3 593d 7ba8 22be a743 7cbd
00000150: 670d cb3d ea01 423e 3571 4b3a 4a3f 3c3e
00000160: 72c6 4fbe 8bd4 5fbd add3 3b3e 1a44 5a3d
00000170: 0a37 99bc 1a71 cabd 5eb2 d3bd 8077 c83d
00000180: afcb 3abe 19e4 11be 70b4 d83d a413 9bbd
00000190: c5b9 16be d993 6fbd d227 31be 39fa 29be
000001a0: fe89 57be 085c 89bd e612 dc3d 360e f93c
000001b0: 1e8d d6bd ea0d 913d 3763 59bd be9a f8bd
000001c0: af1b 253d 7a0b 98bd 5485 533c 0d2b 50be
000001d0: 94ec 94bd b9ae 69bd 6e78 6abe 8b30 093e
000001e0: 88d6 50be bc27 003e 967d 2e3e b207 17be
000001f0: 3133 60be f0ab 193d 1602 4e3e e154 06bc
00000200: 4fb0 21be 5811 adbc a9a5 1abe a25a 04be
00000210: ddb7 4e3e 1339 48be cba0 87bd 3b1a fcbd
00000220: 4f88 1cbe 99f9 e0bd f270 02be 51cf db3d
00000230: aa87 9fbc f27f af3d 0385 c63d 9dcb d73d
00000240: 469b d0bd c04a 34bd 5c56 abbd 3db5 003c
00000250: 9cc0 1e3b 878c d3bd d313 223e 9a40 f53c
00000260: 2500 fdbd 49bd 5abd 5352 b63d 6db1 7b3d
00000270: fb7b 533d ed45 223e faec 00bd 5a72 96bd
00000280: 6382 403e fedd c33c e3a7 28be 5b1f 30be
00000290: dba8 d6bc 1473 423e ec18 7fbd dd18 c2bd
000002a0: a003 6ebe 21b4 1bbe 487e d53d ae0a 2e3e
000002b0: d8fe 40be 7d75 eabd df33 ea3d f05d b8bd
000002c0: eee6 02be d1e6 463e 34ca ae3d 700c 923d
000002d0: 9f2b 26be d1fe 0f3c 2cfc 32be 9ecb 563e
000002e0: 9c40 e73d ff4e 5c3d 8338 22be 16a1 0cbe
000002f0: 9b7c 7d3d b237 133e 628a 333e 084f 6bbd
00000300: 6d5c 1ebe 6e18 d03d 6d4a d0bd 9d51 d5bd
00000310: 180d 0c3e 4bf3 263e 105d 3c3e 9187 c13d
00000320: 6c78 823d f69f d1bd b97d e83c 74b4 4c3d
00000330: c0f5 593d c749 a63c e48c 0b3d be70 acbd
00000340: 6fb5 f93d 7c36 5c3b fe78 2abe b908 d3bd
00000350: 4ade 363e 7fc1 c83d f0d4 4f3e 05ef 8c3c
00000360: 1e0e 8f3b fe78 39be ce09 b23c 1746 53be
00000370: 6e15 34bd da90 0a3c 4223 18bc e468 09be
00000380: d980 2e3e 5e43 b2bd e3bd ec3d 9f61 05be
00000390: 6b4c 443e c637 e63d 75d5 083e 7734 11be
000003a0: b32b debd 8d85 493d 46d1 b2bd 4264 4dbe
000003b0: 6aec 06be ec8e 973c e1af 50bd ba43 1abc
000003c0: 975f 2f3d 5536 cfbd 49e7 783d d84a 5dbe
000003d0: 7fdc 263e 248d 02be f432 4dbe 55ce d23d
000003e0: 00c9 203d 489d 013e 3826 993c 3408 ff3d
000003f0: 1601 1fbe c371 3bbc 3b83 303e 75fd 0d3e

net.0.bias f4 [128]
-0.12073783 -0.10323553 -0.13103898 -0.120895244 -0.04118917 -0.12898009 0.07202652 0.19363485
-0.056923386 -0.06390549 0.09132096 0.20345426 -0.09651768 0.17841989 7.395702e-05 -0.118466415
0.09000559 0.03514078 -0.17125568 0.13293813 0.21544905 0.14121577 -0.11783349 -0.13086405
0.061116952 0.2122691 0.1782297 0.10410069 0.1941774 -0.17128904 -0.17147875 0.19768845
-0.16754238 -0.09977242 -0.16498318 -0.14760594 -0.0108545255 0.07318338 -0.0648695 -0.12366649
-0.07958064 0.16100165 0.013776932 -0.03839768 0.01791416 -0.08527757 0.20331311 0.069664866
-0.19584619 0.16258621 -0.10960117 0.035857357 0.0899147 0.05929331 0.0038066842 0.013277394
0.032680828 -0.19434758 0.1942421 0.1864157 -0.07019831 -0.053396136 0.06883374 0.023258377
-0.1064944 -0.12845454 -0.0695585 -0.18898068 -0.15179253 -0.18883625 0.039648797 0.21613997
-0.040763143 -0.09046556 0.19795895 -0.20545895 -0.13015288 -0.019415861 0.11673134 0.0178281
0.1614921 0.18453184 0.01631034 0.18386936 -0.19628339 0.066324085 -0.16526936 -0.018388646
-0.1623394 0.1240799 -0.14740427 -0.027754692 -0.113262706 0.19231856 -0.14742438 0.007179225
0.17561471 -0.18049312 -0.17604423 0.10601803 -0.14759119 0.1585839 -0.17419451 -0.11589167
0.110598356 -0.18978675 -0.14721942 0.17964536 -0.077400684 -0.19987932 -0.07974498 0.17257032
0.15194847 -0.17575012 -0.09426576 -0.062214877 -0.072479874 -0.16503179 0.14739412 -0.13606817
0.18853605 -0.18840563 -0.025400696 -0.08215325 0.07929615 0.002016826 0.12887731 0.18727046
00000000: 6545 f7bd 266d d3bd 152f 06be ed97 f7bd
00000010: fab5 28bd 5b13 04be a482 933d 3748 463e
00000020: 7f28 69bd e2e0 82bd 7c06 bb3d 5056 503e
00000030: 10ab c5bd b4b3 363e 5f19 9b38 859e f2bd
00000040: da54 b83d c7ef 0f3d a65d 2fbe ef20 083e
00000050: ad9e 5c3e de9a 103e af52 f1bd 3a01 06be
00000060: c555 7a3d 125d 593e d981 363e be32 d53d
00000070: 71d6 463e 6566 2fbe 2098 2fbe d76e 4a3e
00000080: 3b90 2bbe 7c55 ccbd 5af1 28be 0326 17be
00000090: 2ed7 31bc 2be1 953d 4dda 84bd db44 fdbd
000000a0: 2dfb a2bd 9edd 243e a4b8 613c e346 1dbd
000000b0: b7c0 923c 02a6 aebd 5031 503e 74ac 8e3d
000000c0: e78b 48be 007d 263e 9476 e0bd 2adf 123d
000000d0: 3325 b83d 8bdd 723d 9079 793b 6d89 593c
000000e0: 55dc 053d 0d03 47be 67e7 463e c2e3 3e3e
000000f0: 22c4 8fbd e8b5 5abd b4f8 8c3d 5a88 be3c
00000100: bc19 dabd 9689 03be b074 8ebd 2784 41be
00000110: 806f 1bbe 4a5e 41be c766 223d cc53 5d3e
00000120: 41f7 26bd 0246 b9bd c0b5 4a3e d563 52be
00000130: cc46 05be 030e 9fbc d710 ef3d 3c0c 923c
00000140: 2f5e 253e eaf5 3c3e 439d 853c 4048 3c3e
00000150: 83fe 48be ecd4 873d 5f3c 29be c9a3 96bc
00000160: 4d3c 26be 9a1d fe3d 25f1 16be cf5d e3bc
00000170: 47f6 e7bd 28ef 443e 6bf6 16be b43f eb3b
00000180: 58d4 333e 30d3 38be f044 34be fb1f d93d
00000190: 2522 17be d163 223e 0c60 32be 9d58 edbd
000001a0: 6481 e23d 7557 42be b0c0 16be f4f4 373e
000001b0: 4084 9ebd 2aad 4cbe 5651 a3bd 46b6 303e
000001c0: 6198 1b3e d7f7 33be 680e c1bd 07d5 7ebd
000001d0: 5470 94bd 18fe 28be 7cee 163e 7455 0bbe
000001e0: 980f 413e 68ed 40be 1f15 d0bc f73f a8bd
000001f0: 0566 a23d ba2c 043b 6af8 033e d4c3 3f3e

net.2.weight f4 [256, 128]
0.07532087 -0.01959863 0.06934389 -0.058019098 0.07476906 -0.051960677 0.055705618 -0.07584633
-0.012895291 -0.047075503 -0.048190325 -0.020195125 -0.04951129 0.084876694 -0.015740292 0.07580325
-0.071798645 0.051494326 -0.05017516 -0.08169507 0.08783903 0.006936883 0.004094136 -0.005167595
-0.025238007 0.082857534 -0.045612194 -0.015178223 0.06724192 -0.0034394104 -0.07193659 -0.010899776
0.032612313 -0.0729132 0.033315774 -0.071532466 -0.05856564 0.010901673 0.08128774 -0.08238218
0.0013914502 0.02545257 -0.05902849 -0.06963585 0.09625411 0.052044436 0.047479514 0.08321926
-0.08188857 -0.01459737 -0.07157292 -0.03924255 -0.02914138 0.05650467 0.07346066 -0.033807397
0.0499301 0.036046386 -0.066496305 0.030201223 -0.065397374 0.06717291 -0.009935084 0.08142
0.07426391 0.005114721 0.058839645 0.063290946 -0.040467724 -0.028927766 0.08765321 -0.08825129
0.051689725 0.02227519 0.026244981 0.04118806 -0.029112779 0.07022957 0.07412577 0.06421622
-0.059979763 0.07694109 0.018420637 0.001440089 0.012263871 0.0812772 0.044434816 -0.06961232
0.08597585 0.015135692 0.079274625 0.020042235 0.087017246 0.07003151 -0.06180418 -0.023053018
-0.012370513 0.0050410777 0.06416948 0.077656336 -0.06961089 0.04840211 -0.044328313 -0.07244318
0.08762405 0.053397775 -0.051060587 -0.023753682 -0.02187722 -0.050784204 -0.017254032 0.029266557
-0.084581524 -0.028223611 -0.05694712 0.06808432 0.07447718 0.051682375 0.088150375 -0.03894279
-0.008564259 0.04321774 -0.07591542 0.06756872 -0.07335882 -0.039556324 -0.033493716 -0.04210124
0.0025371783 0.019582313 0.07965328 0.06588382 0.034932595 -0.024412578 0.07467435 0.063097216
-0.07024867 0.08525526 -0.0057868217 0.075358965 0.03096603 0.007533342 -0.029829206 0.08754842
-0.065946646 -0.04208606 -0.07365167 0.0800295 -0.04609863 0.072503604 0.035401087 -0.016533257
0.07774242 0.061707146 -0.05721872 -0.053963732 0.0674461 0.028580982 -0.05117409 0.04475543
0.006800487 0.05997252 0.030322233 0.042438183 -0.06869434 0.06500181 0.012440888 0.0021542609
-0.05319884 0.008741682 0.103909284 -0.06318892 0.103740916 0.03475309 -0.044597242 -0.0025564255
0.044610135 0.041415144 -0.01358767 0.017350052 0.048809245 -0.02360652 0.011410745 0.053352904
-0.010437764 0.046279114 -0.049192548 0.001941472 0.0577378 0.044462387 0.042686325 -0.008180162
0.089606725 -0.011539062 0.021121647 0.05678305 0.09897446 0.069158494 0.03916424 -0.032460827
-0.052620426 0.064366214 0.019406138 0.014099872 -0.056472097 0.051428627 0.017819326 0.048698213
0.030915305 0.09955691 0.039622113 0.08676441 0.0090124365 0.077150255 0.05583802 0.07730007
-0.055206563 -0.07177288 0.061599538 -0.047860865 -0.02808154 0.09544761 0.02240344 0.030063316
-0.05392855 0.021810055 -0.06282102 0.0597008 -0.056373872 -0.0015333139 -0.062220786 0.09114083
0.040126666 0.0995863 -0.048433874 0.01813655 0.026491044 0.0011167516 -0.055304445 0.070519455
0.07988386 -0.08173086 -0.0053646653 0.05300603 0.090986654 0.01982466 0.0040590907 0.07523995
-0.039547615 0.06444099 -0.0530562 -0.070804596 0.017537765 0.082944416 0.04452992 -0.025999151
00000000: d441 9a3d 4e8d a0bc 2b04 8e3d 6fa5 6dbd
00000010: 8520 993d b8d4 54bd 932b 643d 5255 9bbd
00000020: c546 53bc 3ed2 40bd 3863 45bd 3f70 a5bc
00000030: 5acc 4abd d5d3 ad3d c9f1 80bc bc3e 9b3d
00000040: 2b0b 93bd b7eb 523d 7884 4dbd bf4f a7bd
00000050: f3e4 b33d cb4e e33b 1a28 863b ee54 a9bb
00000060: f0bf cebc 36b1 a93d dad3 3abd 15ae 78bc
00000070: 22b6 893d bb67 61bb 7e53 93bd f994 32bc
00000080: 7d94 053d 8453 95bd 1f76 083d 9d7f 92bd
00000090: 86e2 6fbd ee9c 323c 307a a63d fdb7 a8bd
000000a0: 5261 b63a e881 d03c dcc7 71bd 3e9d 8ebd
000000b0: e020 c53d 8c2c 553d e179 423d dc6e aa3d
000000c0: 32b5 a7bd cf29 6fbc d394 92bd ccbc 20bd
000000d0: e7b9 eebc 7171 673d 8b72 963d a079 0abd
000000e0: 8183 4c3d 60a5 133d 372f 88bd 8e68 f73c
000000f0: 0fef 85bd f391 893d c3c6 22bc 87bf a63d
00000100: ad17 983d 6499 a73b d701 713d af9e 813d
00000110: 7cc1 25bd ecf9 ecbc 8783 b33d 18bd b4bd
00000120: 9bb8 533d 767a b63c b7ff d63c d0b4 283d
00000130: ec7d eebc 85d4 8f3d 40cf 973d cb83 833d
00000140: 57ad 75bd 4a93 9d3d e0e6 963c 5ec1 bc3a
00000150: 67ee 483c a974 a63d 4801 363d e790 8ebd
00000160: 1b14 b03d b2fb 773c bc5a a23d 9d2f a43c
00000170: 1936 b23d ae6c 8f3d 6126 7dbd afd9 bcbc
00000180: b1ad 4abc a02f a53b 4a6b 833d 490a 9f3d
00000190: 2790 8ebd 4a41 463d 9b91 35bd 175d 94bd
000001a0: 3d74 b33d a0b7 5a3d e824 51bd 1597 c2bc
000001b0: db37 b3bc 1903 50bd 5458 8dbc 6bc0 ef3c
000001c0: 1439 adbd 3435 e7bc 6241 69bd cb6f 8b3d
000001d0: 7e87 983d e6b0 533d 2f88 b43d 7a82 1fbd
000001e0: 1b51 0cbc 1605 313d 8b79 9bbd 7861 8a3d
000001f0: 263d 96bd d005 22bd b530 09bd 5a72 2cbd
00000200: ca46 263b 166b a03c 4221 a33d 19ee 863d
00000210: 7b15 0f3d e3fc c7bc deee 983d 1d39 813d
00000220: 89de 8fbd 4f9a ae3d 619f bdbb cd55 9a3d
00000230: 79ac fd3c 41da f63b 615c f4bc 964c b33d
00000240: 090f 87bd 6f62 2cbd b0d6 96bd 82e6 a33d
00000250: ebd1 3cbd c57c 943d bb00 113d c170 87bc
00000260: 6b37 9f3d a2c0 7c3d 2d5e 6abd 1309 5dbd
00000270: 2e21 8a3d aa22 ea3c ec9b 51bd 7851 373d
00000280: 9fd6 de3b bfa5 753d 5566 f83c a9d3 2d3d
00000290: 9eaf 8cbd ab1f 853d ded4 4b3c 802e 0d3b
000002a0: 07e7 59bd 4639 0f3c 64ce d43d 3169 81bd
000002b0: 1e76 d43d 4259 0e3d 99ab 36bd b489 27bb
000002c0: 1eb9 363d eda2 293d d29e 5ebc b221 8e3c
000002d0: 34ec 473d 7662 c1bc 22f4 3a3c 9388 5a3d
000002e0: 2803 2bbc 2b8f 3d3d 207e 49bd fd78 fe3a
000002f0: 797e 6c3d 311e 363d dbd7 2e3d 1606 06bc
00000300: bb83 b73d 550e 3dbc 4e07 ad3c 5895 683d
00000310: 1fb3 ca3d f8a2 8d3d af6a 203d a5f5 04bd
00000320: 8488 57bd 6fd2 833d 9ff9 9e3c 2603 673c
00000330: 494f 67bd d3a6 523d d6f9 913c c777 473d
00000340: 1842 fd3c 7ee4 cb3d cc4a 223d 8ab1 b13d
00000350: e6a8 133c f400 9e3d 68b6 643d 804f 9e3d
00000360: 4720 62bd a9fd 92bd cc4f 7c3d c109 44bd
00000370: 420b e6bc 097a c33d 6b87 b73c 5847 f63c
00000380: 2fe4 5cbd 00ab b23c 4fa8 80bd d388 743d
00000390: 4ae8 66bd 7af9 c8ba 39db 7ebd 0ba8 ba3d
000003a0: dc5b 243d e7f3 cb3d 9962 46bd 1a93 943c
000003b0: bf03 d93c f75f 923a ea86 62bd 816c 903d
000003c0: 269a a33d 8262 a7bd 13ca afbb da1c 593d
000003d0: 3657 ba3d 5367 a23c 1f02 853b 6717 9a3d
000003e0: aefc 21bd a3f9 833d 7551 59bd 0002 91bd
000003f0: 5cab 8f3c c3de a93d 0165 363d 2cfc d4bc

net.2.bias f4 [256]
-0.015503444 0.10628919 -0.03473246 0.062104177 -0.031693704 -0.041484505 0.083731495 -0.044341296
0.0019905835 -0.04574172 -0.05356622 0.053021204 -0.08190982 -0.012630807 0.016708286 -0.016782165
0.032832302 -0.023373306 -0.06367377 -0.066519156 0.057201058 -0.06284485 0.051258486 -0.069169134
0.05453686 -0.033876747 0.035703745 0.0005675065 -0.045680955 -0.06266777 -0.068107635 -0.055703934
0.08583888 0.03592704 0.05458587 0.059117313 0.035989404 0.020947613 -0.08480644 0.0013885058
-0.053593434 0.057774734 0.052506246 -0.04852001 0.015980711 -0.06750128 -0.049067233 -0.08500473
0.060464464 -0.00051371 0.009730159 -0.038490202 0.0770961 0.036995236 -0.038075186 0.065310635
-0.057782486 0.058942378 -0.009885731 0.005623655 -0.017733788 0.04854796 -0.0023912592 -0.026700845
0.017058926 -0.063602306 0.0035331098 -0.07534768 -0.012214263 0.045947403 -0.028877536 -0.026567824
0.06386697 0.005494356 -0.045029614 0.011097011 -0.07833266 0.037192184 -0.070804976 -0.023109011
-0.018089697 -0.045915723 0.0034260496 -0.063282765 0.065653116 -0.025736364 0.017888227 0.014093215
0.034718152 -0.010607097 -0.04952819 0.009613593 -0.03485591 0.031162273 0.06761571 -0.02853706
-0.025320748 0.016849952 -0.05953493 -0.05937561 0.09162335 0.007127071 -0.015780803 -0.04058284
-0.079440884 0.06699388 0.0018297232 -0.01605235 -0.0400545 -0.0006892227 0.0108590545 -0.030194877
-0.08180101 -0.053349093 0.055708285 0.012850859 0.06071148 -0.05228129 -0.021542072 -0.07534452
-0.033434972 -0.009825261 -0.010031416 -0.07902007 -0.061302103 0.06404537 -0.017574022 0.072936445
-0.07444471 0.03259197 -0.070701584 0.059608597 0.059405375 0.049237546 -0.03748584 0.062629804
0.08358839 0.0023581386 -0.005383692 0.0071876105 0.051501974 0.0054479525 0.022854859 -0.054841734
-0.0066780834 -0.04708355 -0.069996 0.008076171 0.06385381 0.0078104087 0.070517465 0.023477802
-0.07731246 -0.06135299 -0.019055592 -0.0699653 0.027243678 -0.015626866 -0.040584557 -0.051524132
-0.08608181 0.08448068 0.08922996 0.058835834 0.045608588 -0.09060595 -0.07737629 -0.07230299
-0.05228567 0.016045457 -0.015025518 0.051284656 -0.051473785 0.018481357 0.01692928 0.040452927
0.028397564 0.08331099 0.093751386 0.030636422 0.022424798 -0.085562386 0.03737647 -0.058644235
-0.07814262 -0.010490175 0.08136816 0.03623356 0.03466687 -0.046006843 0.0022714564 -0.0026314927
0.0057140584 -0.053241458 0.05839813 0.03522465 -0.0109250685 0.007523883 0.068400405 -0.018657772
-0.061270915 0.019506114 -0.036173638 0.071319066 -0.051095854 -0.07211134 0.08711443 0.06709647
0.00081368844 -0.040409658 -0.049849167 -0.05627288 -0.055412818 -0.047107056 0.012507154 -0.00085352414
-0.05907202 0.05391992 0.014515884 -0.0143822385 -0.036880974 -0.0067574983 -0.06428999 0.067228645
0.040762864 -0.04482901 0.0024571521 0.03805746 0.01175535 0.026491782 -0.08036467 0.032371446
-0.011531988 0.052818418 0.089352906 -0.011178534 0.028274098 0.0614389 -0.0144308 0.01656642
0.07019973 0.065414734 0.054022282 -0.067320734 0.028611202 0.04837939 -0.010228407 0.048937716
0.009642821 -0.032774955 -0.03683272 -0.01590157 -0.009077102 -0.0008374825 -0.022049831 -0.053087354
00000000: 2802 7ebc 26ae d93d a043 0ebd f360 7e3d
00000010: 42d1 01bd a8eb 29bd 6b7b ab3d 389f 35bd
00000020: 7374 023b ab5b 3bbd 4168 5bbd c32c 593d
00000030: 56c0 a7bd 72f1 4ebc d1df 883c c07a 89bc
00000040: 2a7b 063d 6079 bfbc 6567 82bd 323b 88bd
00000050: a84b 6a3d cdb4 80bd 6bf4 513d 8ca8 8dbd
00000060: 0b62 5f3d 58c2 0abd 173e 123d b7c4 143a
00000070: f41b 3bbd f657 80bd 047c 8bbd cf29 64bd
00000080: 4bcc af3d 3b28 133d 6f95 5f3d ff24 723d
00000090: a069 133d 549a ab3c 00af adbd 86fe b53a
000000a0: ca84 5bbd 33a5 6c3d ca10 573d ebbc 46bd
000000b0: fbe9 823c 1c3e 8abd b9fa 48bd f616 aebd
000000c0: 96a9 773d 7faa 06ba 3f6b 1f3c e7a7 1dbd
000000d0: 8fe4 9d3d 5188 173d baf4 1bbd 95c1 853d
000000e0: 54ad 6cbd 906d 713d c3f7 21bc a346 b83b
000000f0: 7346 91bc 3ada 463d acb6 1cbb bbbb dabc
00000100: 29bf 8b3c ed41 82bd bf8b 673b e24f 9abd
00000110: 551e 48bc 5833 3c3d 9590 ecbc c4a4 d9bc
00000120: b0cc 823d 000a b43b f970 38bd 3dd0 353c
00000130: e06c a0bd d556 183d 3302 91bd 1c4f bdbc
00000140: d830 94bc 2012 3cbd 9387 603b 659a 81bd
00000150: 2475 863d 11d5 d2bc 558a 923c 3ae7 663c
00000160: 9f34 0e3d 64c9 2dbc 12de 4abd 5582 1d3c
00000170: 12c5 0ebd 0648 ff3c 1b7a 8a3d 8dc6 e9bc
00000180: 756d cfbc e908 8a3c e6da 73bd d733 73bd
00000190: 06a5 bb3d 348a e93b be46 81bc 313a 26bd
000001a0: e7b1 a2bd 1634 893d 53d3 ef3a 3880 83bc
000001b0: 3010 24bd f4ac 34ba 2dea 313c 3f5b f7bc
000001c0: 4a87 a7bd 9484 5abd 5f2e 643d 698c 523c
000001d0: 9aac 783d e824 56bd 0079 b0bc 3a4e 9abd
000001e0: 1cf3 08bd 22fa 20bc cf5a 24bc 46d5 a1bd
000001f0: ea17 7bbd 382a 833d 65f7 8fbc b45f 953d
00000200: 7876 98bd 287f 053d fecb 90bd 2528 743d
00000210: 0d53 733d 4fad 493d c18a 19bd 0e44 803d
00000220: 6430 ab3d 008b 1a3b af69 b0bb 0c86 eb3b
00000230: bcf3 523d bd84 b23b 1d3a bb3c baa1 60bd
00000240: d3d3 dabb aeda 40bd 105a 8fbd eb51 043c
00000250: c9c5 823d 75ee ff3b 766b 903d 8554 c03c
00000260: ff55 9ebd 464d 7bbd 791a 9cbc f849 8fbd
00000270: 222e df3c ea03 80bc fe3b 26bd f80a 53bd
00000280: a94b b0bd 3504 ad3d 33be b63d d8fd 703d
00000290: 12d0 3a3d 9d8f b9bd 7677 9ebd 9713 94bd
000002a0: 8029 56bd c371 833c 972d 76bc dc0f 523d
000002b0: 2dd6 52bd 3766 973c 46af 8a3c f8b1 253d
000002c0: 02a2 e83c f49e aa3d ba00 c03d 3cf9 fa3c
000002d0: 36b4 b73c 553b afbd 1218 193d f034 70bd
000002e0: 3d09 a0bd fcde 2bbc 5aa4 a63d a469 143d
000002f0: d9fe 0d3d ac71 3cbd b7dc 143b 1f75 2cbb
00000300: ff3c bb3b b713 5abd e132 6f3d b947 103d
00000310: 0fff 32bc e88a f63b 8315 8c3d 2fd8 98bc
00000320: 36f7 7abd 49cb 9f3c cf2a 14bd bb0f 923d
00000330: e349 51bd 1caf 93bd 0d69 b23d e069 893d
00000340: b54d 553a 9984 25bd a42e 4cbd 647e 66bd
00000350: 8df8 62bd 54f3 40bd ceea 4c3c 09bf 5fba
00000360: 81f5 71bd 22db 5c3d 08d4 6d3c 7ba3 6bbc
00000370: 8110 17bd 016e ddbb 78aa 83bd 2caf 893d
00000380: f6f6 263d a09e 37bd 2c08 213b 24e2 1b3d
00000390: 8399 403c 4b05 d93c 3b96 a4bd ec97 043d
000003a0: aaf0 3cbc 2058 583d a8fe b63d 2b26 37bc
000003b0: 159f e73c 5ba7 7b3d 2a6f 6cbc 4db6 873c
000003c0: e0c4 8f3d 29f8 853d 7846 5d3d 74df 89bd
000003d0: 0a62 ea3c 7829 463d 0c95 27bc ea72 483d
000003e0: ecfc 1d3c 083f 06bd e8dd 16bd 0244 82bc
000003f0: 20b8 14bc 808a 5bba d9a1 b4bc 2072 59bd

μ.weight f4 [3, 256]
-0.0313919 0.07271252 -0.05659334 -0.03298631 0.03803997 -0.0044563483 0.046778042 -0.018034447
-0.045379322 0.053475615 0.008538872 0.018163692 -0.005322069 0.026181988 -0.0440381 -0.021604579
0.054880798 -0.051573902 -0.032584447 -0.0061904807 -0.007117532 0.025469728 -0.026764862 -0.046563055
-0.00798949 0.025349589 -0.04255952 -0.015117686 -0.0048954636 -0.018356621 0.033800557 0.055843744
-0.00891481 0.030848572 -0.0154737495 0.0011397758 0.013000851 0.0009972939 -0.037955943 0.05398326
0.00377091 0.0108905975 -0.02669104 0.021581529 0.05957117 0.022461915 0.059771746 0.0006660667
-0.027042875 0.06340639 -0.016174972 0.02161997 0.057480805 0.007743191 0.019391583 -0.05085157
-0.016032167 0.06250742 0.005545695 -0.028896475 0.04804993 0.03342196 0.01568844 -0.015667668
-0.04920579 -0.01723853 -0.049232285 -0.043462124 -0.036197696 -0.0034657659 -0.050572757 -0.0128938155
0.049582217 -0.038644593 0.03817143 -0.041173954 -0.038574416 0.054053947 -0.0324236 -0.056076128
-0.036268067 0.06816573 0.0026258235 -0.05735074 0.0706293 0.028384205 -0.0148920035 0.0002667644
0.046115406 -0.03635956 -0.0537323 0.004308458 0.06774189 0.030624058 0.057232037 0.011456715
0.017584931 0.015542905 0.0061002173 -0.015196751 0.05344202 -1.403932e-05 0.0336983 -0.007072518
0.014287638 -0.06168102 -0.027348408 -0.014560239 -0.06135596 -0.0010203889 -0.04882813 0.044264786
-0.013066911 0.07250685 -0.0504001 0.060186047 0.06559804 0.0061893803 0.0051971264 0.0452843
0.031175537 0.0518349 0.039626364 0.046020325 0.051975846 -0.035472717 -0.019895654 0.028286885
-0.05155208 0.019932799 0.03700386 0.00019736968 0.015622289 0.065790005 0.03173231 -0.019189605
0.03699554 -0.010753359 0.04822101 0.017372198 0.009654748 -0.040264085 -0.03321893 -0.05725221
0.025002133 -0.04690696 0.041517317 -0.006588952 0.026568659 0.036205295 -0.006426674 -0.04021823
0.025638208 -0.014509558 0.019233482 0.032268077 0.01202114 0.018057914 -0.009480714 0.056999028
0.012171589 0.027529474 0.052570354 -0.030955499 -0.036619835 -0.047002513 0.011811084 0.0013284319
0.0034413703 -0.05945758 -0.0064783855 0.042669527 0.029043237 0.07175178 -0.047805592 0.029404016
0.05986207 -0.04307512 -0.005330693 0.036235895 0.04378751 0.072777376 -0.014984384 -0.01433501
0.001165279 -0.038478285 -0.017368134 0.007682167 -0.045025766 -0.054879308 -0.02912846 -0.04192876
-0.04830882 0.032062992 -0.022107463 0.07437899 -0.055550527 -0.017112095 0.054428276 0.05508248
-0.02495125 0.0038672676 0.007100623 -0.00067563617 -0.047639444 0.061508726 0.024863714 0.056285128
0.009057793 0.05424237 -0.0043702577 -0.031822987 0.057499535 -0.044203214 -0.004152049 0.06597887
0.0010123929 0.018001286 0.034896273 -0.010016554 0.010890065 0.014820475 0.0416305 -0.014213207
-0.03540306 0.014727798 0.010046617 0.044155404 -0.008378997 -0.018028334 -0.03606298 0.032893613
0.059381306 0.024068845 0.06733221 -0.021202346 -0.04324161 0.03681864 0.06645075 -0.011636084
-0.052087132 -0.0034830878 0.045582145 0.0143781835 -0.05916567 0.012878956 0.035397813 0.033973362
-0.04081498 0.06041978 -0.048304405 -0.052641515 -0.042459905 0.043730028 0.018038161 0.06357784
00000000: cb94 00bd 4dea 943d 6bce 67bd a71c 07bd
00000010: cdcf 1b3d 8f06 92bb 559a 3f3d fabc 93bc
00000020: abdf 39bd 3f09 5b3d a0e6 0b3c 06cc 943c
00000030: c064 aebb 9c7b d63c 4b61 34bd 16fc b0bc
00000040: b0ca 603d 283f 53bd 4577 05bd 84d9 cabb
00000050: 303a e9bb e4a5 d03c fc41 dbbc e7b8 3ebd
00000060: 5ae6 02bc f1a9 cf3c e452 2ebd 2cb0 77bc
00000070: 206a a0bb a060 96bc 7472 0a3d 69bc 643d
00000080: 6c0f 12bc 25b6 fc3c 9c85 7dbc 8864 953a
00000090: 8501 553c a1b7 823a b177 1bbd 8d1d 5d3d
000000a0: 5f21 773b 7a6e 323c 2ba7 dabc bfcb b03c
000000b0: e600 743d 0d02 b83c 38d3 743d fb9a 2e3a
000000c0: 0589 ddbc 36db 813d 6081 84bc 5d1c b13c
000000d0: fe70 6b3d 98ba fd3b 19db 9e3c bc49 50bd
000000e0: e455 83bc e403 803d a9b8 b53b 4db8 ecbc
000000f0: 01d0 443d 77e5 083d 0b85 803c 7b59 80bc
00000100: 038c 49bd d137 8dbc cba7 49bd 5705 32bd
00000110: 0944 14bd e721 63bb 6125 4fbd 9540 53bc
00000120: b916 4b3d cb49 1ebd a559 1c3d 05a6 28bd
00000130: 3500 1ebd ac67 5d3d 9cce 04bd 15b0 65bd
00000140: d38d 14bd 799a 8b3d 0216 2c3b 9ce8 6abd
00000150: 18a6 903d fe85 e83c 97fd 73bc 83dc 8b39
00000160: 82e3 3c3d c3ed 14bd 6616 5cbd f72d 8d3b
00000170: 43bc 8a3d 4edf fa3c 246c 6a3d f2b4 3b3c
00000180: 460e 903c aba7 7e3c 55e4 c73b cbfb 78bc
00000190: 05e6 5a3d 6c8a 6bb7 3b07 0a3d 95c0 e7bb
000001a0: b216 6a3c 3da5 7cbd c509 e0bc 128e 6ebc
000001b0: 6350 7bbd 92be 85ba 0100 48bd fe4e 353d
000001c0: 9916 56bc 797e 943d 5670 4ebd a585 763d
000001d0: 4458 863d 49d0 ca3b a84c aa3b 087c 393d
000001e0: d763 ff3c d550 543d 414f 223d cf7f 3c3d
000001f0: a0e4 543d d74b 11bd 36fc a2bc e6b9 e73c
00000200: 4628 53bd 1c4a a33c 5c91 173d 05f5 4e39
00000210: a1f4 7f3c e9bc 863d bdf9 013d 8533 9dbc
00000220: a388 173d db2e 30bc 6583 453d 2450 8e3c
00000230: f32e 1e3c f4eb 24bd 9310 08bd 4b81 6abd
00000240: 46d1 cc3c 8321 40bd 100e 2a3d 23e8 d7bb
00000250: 84a6 d93c 014c 143d d996 d2bb dfbb 24bd
00000260: 3807 d23c 7fb9 6dbc 898f 9d3c 882b 043d
00000270: 51f4 443c 31ee 933c ff54 1bbc d077 693d
00000280: 586b 473c 7e85 e13c 0354 573d 6396 fdbc
00000290: aefe 15bd b585 40bd 4783 413c c71e ae3a
000002a0: 9d88 613b cb89 73bd a348 d4bb 3ec6 2e3d
000002b0: 15ec ed3c 99f2 923d cccf 43bd b1e0 f03c
000002c0: ee31 753d 896f 30bd 18ad aebb 176c 143d
000002d0: 885a 333d 4e0c 953d 1081 75bc 64dd 6abc
000002e0: 46bc 983a 689b 1dbd 9e47 8ebc b0ba fb3b
000002f0: f06c 38bd 20c9 60bd cf9e eebc 7ebd 2bbd
00000300: 78df 45bd 7c54 033d b61a b5bc 0354 983d
00000310: f388 63bd aa2e 8cbc 2ff0 5e3d 2b9e 613d
00000320: 9066 ccbc fc71 7d3b 58ac e83b 2d1d 31ba
00000330: 9421 43bd 93f0 7b3d fdae cb3c 3c8b 663d
00000340: 2367 143c 3f2d 5e3d 6134 8fbb d258 02bd
00000350: a284 6b3d 6e0e 35bd e90d 88bb ee1f 873d
00000360: 45b2 843a 6f77 933c 65ef 0e3d 791c 24bc
00000370: 3e6c 323c 94d1 723c be84 2a3d 83de 68bc
00000380: cd02 11bd dd4c 713c 919a 243c 4cdc 343d
00000390: 1048 09bc 28b0 93bc c6b6 13bd 74bb 063d
000003a0: d039 733d 072c c53c 78e5 893d 8bb0 adbc
000003b0: 1d1e 31bd 24cf 163d 5517 883d 46a5 3ebc
000003c0: 5159 55bd 8444 64bb 58b4 3a3d 7992 6b3c
000003d0: b457 72bd 4202 533c 4cfd 103d a727 0b3d
000003e0: 9c2d 27bd bb7a 773d d7da 45bd a19e 57bd
000003f0: 70ea 2dbd 421e 333d c4c4 933c 1935 823d

μ.bias f4 [3]
-0.04176885 -0.018646426 -0.07140978
00000000: d015 2bbd 64c0 98bc 4a3f 92bd

σ.weight f4 [3, 256]
0.006596211 0.0526118 -0.034744017 0.06787113 -0.052206863 -0.025175748 0.07086455 -0.0031027496
0.035201065 0.02299771 0.04915845 0.041498926 0.04745473 -0.0032729334 0.052188642 0.06926022
-0.04452886 -0.03777302 0.050661676 0.02808136 0.060680844 -0.0031706095 -0.0049673547 -0.00903229
0.020928392 -0.030571548 0.03471878 0.06713456 0.012654684 -0.042357925 0.04896953 -0.016266875
0.048826702 0.06541845 0.037878778 0.07234438 0.03579085 -0.034319744 -0.024547784 0.010749058
0.02082492 -0.0012867474 -0.019353382 -0.0037962187 0.014380303 0.009206306 -0.025436822 0.0024824666
-0.04026603 -0.0065517155 -0.0095918905 -0.033079047 0.023639685 -0.059377998 0.033392403 0.010822167
-0.056584224 -0.016618887 -0.025307314 -0.057715062 -0.055117566 -0.0033249892 -0.048999205 -0.039813258
0.056123205 0.07017933 0.0686998 0.028770411 -0.037244163 -0.0025611357 -0.03408412 -0.0035964758
-0.043487236 0.01990755 -0.046282854 -0.03434838 0.056754906 0.049813777 -0.025488347 -0.029506473
0.044898175 -0.012679309 -0.015631258 -0.045327887 -0.028107753 0.06396934 -0.02416094 0.039199326
-0.044601392 0.034365565 -0.01929577 0.0023076204 -0.006483738 0.027463926 0.061495557 0.040468223
0.034244876 -0.020401262 -0.011548241 -0.016910011 0.007300058 0.051671922 0.053145092 -0.0047536693
0.024692921 0.047031786 0.0585138 0.05294198 0.06373205 0.040094186 0.012299505 0.027065365
0.035361674 -0.016468301 0.038500573 0.012957816 0.049046803 -0.02798445 -0.050368633 0.059555035
-0.005814667 0.053181857 0.021042576 0.02880953 -0.05030647 -0.007817062 -0.019712133 0.046902623
-0.017020676 0.04286534 -0.011361621 0.04263532 0.04965775 0.052088 0.006179272 -0.030289508
-0.03312167 -0.0020424882 0.031977907 0.031257175 -0.039928753 0.05613428 0.030664768 0.04155324
0.034179855 -0.00028157965 -0.03402649 0.030786142 0.020552052 0.0016994473 0.06794765 0.039670926
0.022052824 0.0064894576 -0.0070931516 -0.022775128 0.03150423 0.021381026 0.021320663 0.06159728
-0.01569652 -0.029119326 0.029015297 0.0410603 -0.00309705 0.018704865 0.010912844 0.042540006
0.028106838 -0.023027917 -0.030388901 0.006055028 -0.009130378 -0.015883403 -0.02370445 0.058797255
0.020565996 0.042888638 -0.0028381478 0.049385436 0.041107044 0.0002820637 -0.026570924 0.061588466
0.04189314 -0.022099648 -0.034457263 -0.005928017 -0.0073392065 0.033745542 0.06716514 0.031204863
0.072632946 -0.029302448 0.019196672 0.005983225 0.0037974624 0.018202005 -0.03123799 0.009504855
0.056881923 0.033750236 0.03908988 0.04987162 -0.026874544 0.020520842 -0.016157709 0.06427975
-0.044667147 -0.023951367 -0.03172127 -0.04666975 0.032970127 -0.026263285 0.05513088 -0.024276476
0.070235446 0.05662457 0.06805649 -0.022972742 0.05111397 -0.052474968 -0.011887271 -0.05030493
-0.0005020893 0.059022557 -0.05033515 0.016364405 0.037025206 0.06186614 0.019614736 -0.036231376
0.050726023 0.055003967 0.010591956 -0.0025952165 0.032633964 0.07220865 -0.04796642 -0.015369406
-0.039030556 0.00735693 0.07639964 0.069064796 0.020459305 -0.0022151389 -0.0024296057 0.061341602
0.06668001 0.012450683 -0.032651328 -0.01666686 -0.0104874745 0.059121065 -0.004220917 0.05899411
00000000: 0725 d83b 797f 573d be4f 0ebd 0500 8b3d
00000010: ddd6 55bd 5f3d cebc 6f21 913d 8057 4bbb
00000020: fe2e 103d b265 bc3c 5f5a 493d c7fa 293d
00000030: e45f 423d b67e 56bb c2c3 553d 4dd8 8d3d
00000040: e563 36bd e2b7 1abd 9e82 4f3d e10a e63c
00000050: 7a8c 783d 00ca 4fbb 31c5 a2bb 2cfc 13bc
00000060: 0572 ab3c 2f71 fabc 4835 0e3d d87d 893d
00000070: 9755 4f3c 817f 2dbd 4694 483d 1c42 85bc
00000080: 82fe 473d 1cfa 853d c726 1b3d 4a29 943d
00000090: 6d99 123d dc92 0cbd 6f18 c9bc d11c 303c
000000a0: 0699 aa3c 14a8 a8ba fc8a 9ebc fbc9 78bb
000000b0: 5d9b 6b3c 0cd6 163c e260 d0bc e1b0 223b
000000c0: feed 24bd c6af d6bb 4e27 1dbc e57d 07bd
000000d0: 03a8 c13c 5836 73bd 79c6 083d 754f 313c
000000e0: dcc4 67bd 5524 88bc 4951 cfbc a166 6cbd
000000f0: f5c2 61bd 10e8 59bb 64b3 48bd 3a13 23bd
00000100: 72e1 653d 2eba 8f3d 7bb2 8c3d edaf eb3c
00000110: 568d 18bd bad8 27bb ca9b 0bbd dab2 6bbb
00000120: ac1f 32bd 2915 a33c 1793 3dbd e3b0 0cbd
00000130: d577 683d 8809 4c3d f0cc d0bc 8fb7 f1bc
00000140: 26e7 373d e0bc 4fbc 200d 80bc bca9 39bd
00000150: 3b42 e6bc 5b02 833d 2aed c5bc 798f 203d
00000160: f3af 36bd e8c2 0c3d 2a12 9ebc 723b 173b
00000170: 8975 d4bb 07fc e03c c4e2 7b3d 02c2 253d
00000180: 5b44 0c3d 8c20 a7bc d534 3dbc dd86 8abc
00000190: 5335 ef3b f0a5 533d abae 593d abc4 9bbb
000001a0: cf48 ca3c 67a4 403d 2bac 6f3d b1d9 583d
000001b0: f385 823d cd39 243d dd83 493c 2fb8 dd3c
000001c0: 67d7 103d 88e8 86bc c7b2 1d3d 054d 543c
000001d0: 4de5 483d a53f e5bc 574f 4ebd fbef 733d
000001e0: f688 bebb 38d5 593d 7b61 ac3c f701 ec3c
000001f0: 280e 4ebd 2213 00bc 577b a1bc f71c 403d
00000200: f26e 8bbc 9193 2f3d 1826 3abc 60a2 2e3d
00000210: ed65 4b3d 3a5a 553d 7e7b ca3b b421 f8bc
00000220: 97aa 07bd 44db 05bb 44fb 023d 8607 003d
00000230: 558c 23bd 0fed 653d ae34 fb3c bb33 2a3d
00000240: 2d00 0c3d fba0 93b9 5c5f 0bbd 3833 fc3c
00000250: c75c a83c fdbf de3a 2328 8b3d fb7d 223d
00000260: 20a8 b43c 84a5 d43b ab6d e8bb e892 babc
00000270: 940a 013d 4327 af3c aca8 ae3c 6e4d 7c3d
00000280: fd95 80bc a78b eebc 7db1 ed3c d82e 283d
00000290: e0f7 4abb f23a 993c c9cb 323c 6e3e 2e3d
000002a0: 5040 e63c 0ba5 bcbc 25f2 f8bc 4269 c63b
000002b0: 9597 15bc e91d 82bc d62f c2bc 64d5 703d
000002c0: 057a a83c ffab 2f3d 3800 3abb 6248 4a3d
000002d0: dc5f 283d f3e1 9339 44ab d9bc 3044 7c3d
000002e0: 2498 2b3d 520a b5bc 0f23 0dbd d03f c2bb
000002f0: ba7d f0bb c438 0a3d e08d 893d 57a1 ff3c
00000300: 95c0 943d b00b f0bc 5742 9d3c ee0e c43b
00000310: d9de 783b 5f1c 953c d0e6 ffbc 40ba 1b3c
00000320: 05fd 683d b03d 0a3d b61c 203d 2f46 4c3d
00000330: 0128 dcbc 531b a83c 2c5d 84bc 1aa5 833d
00000340: e6f4 36bd a835 c4bc 2aee 01bd c828 3fbd
00000350: af0b 073d 1a26 d7bc ebd0 613d 76df c6bc
00000360: 9ad7 8f3d 2aef 673d 3361 8b3d 5531 bcbc
00000370: e25c 513d feef 56bd d4c2 42bc 8b0c 4ebd
00000380: a49e 03ba a3c1 713d 3b2c 4ebd a50e 863c
00000390: bea7 173d 5a67 7d3d 15af a03c 5a67 14bd
000003a0: 17c6 4f3d d74b 613d e289 2d3c 8214 2abb
000003b0: 31ab 053d 21e2 933d 7078 44bd f6cf 7bbc
000003c0: 81de 1fbd 6712 f13b 6a77 9c3d d871 8d3d
000003d0: 469a a73c dd2b 11bb 053a 1fbb 5541 7b3d
000003e0: 878f 883d f3fd 4b3c 66bd 05bd f088 88bc
000003f0: a8d3 2bbc ee28 723d 9e4f 8abb cfa3 713d

σ.bias f4 [3]
-0.049256157 -0.07750436 0.0049602063
00000000: d3c0 49bd 9bba 9ebd 3a89 a23b
