model/p.pth (torch, 144504 bytes, 8 tensors)

net.0.weight f4 [128, 10]
000000 0c f4 86 3d ba 5d 86 3d b7 76 71 be 13 ef a5 be
       0.06589517 0.06560846 -0.23580442 -0.32408962
000010 91 e3 98 be a6 d9 ea bd 43 41 41 3e c7 32 68 be
       -0.2986112 -0.114672944 0.18872552 -0.2267562
000020 1f 65 30 3e 4e 0b ca 3d 4b 48 bb bd 69 fd 4b 3e
       0.17226075 0.098654374 -0.09144648 0.19920887
000030 5e f7 a7 3e 68 13 41 3d 7d 09 0b 3e 03 ea 84 3e
       0.32805914 0.047137648 0.13577838 0.25959787
000040 90 13 5c 3e 10 04 fe 3b d7 72 90 be f2 14 47 bc
       0.21491838 0.007751949 -0.28212616 -0.01215099
000050 26 58 07 be 20 f4 87 be df 79 5e 3e 4f ad 95 3e
       -0.1321722 -0.2655344 0.21726178 0.29233786
000060 72 92 c4 bc 69 b3 77 3e cf 91 62 be f0 a9 5e 3d
       -0.023995612 0.24189533 -0.22125934 0.054361284
000070 fc b2 3d 3c 62 6f 5b be 25 09 2c 3c f9 33 1d ba
       0.011578318 -0.21429208 0.010500227 -0.0005996819
000080 9d ff 82 3e 88 05 67 be 6a fc 1f 3e 9d 78 87 be
       0.25585642 -0.22560704 0.15623632 -0.26459208
000090 71 dc f0 bd ec 95 b2 3c 22 f4 96 3d 16 40 65 be
       -0.11760796 0.021800004 0.073707834 -0.22387728
0000a0 d6 41 f7 bd af 71 21 be 9d d7 d3 3d 75 b7 43 3d
       -0.12073104 -0.15766023 0.10343859 0.04778238
0000b0 0f 74 97 be 8f fb 9f be f6 8c 3c 3e 1e f9 2a bd
       -0.29580733 -0.3124661 0.18413147 -0.041741483
0000c0 35 08 1a 3e b1 a6 ac 3d 5b 4c 4e be 72 ee 81 be
       0.15042193 0.08430231 -0.20146315 -0.25377232
0000d0 51 65 95 3e 11 74 94 3e 26 38 5a 3e 7e 18 9a be
       0.2917886 0.28994802 0.21310481 -0.3009681
0000e0 e3 16 fe 3d dc fc 92 3e ee a8 57 3e 06 d7 96 3e
       0.12406709 0.2870854 0.21060535 0.29460925
0000f0 8d ae e4 ba 04 f8 5b be 27 3c f9 bd 6d 6b 5f 3e
       -0.001744704 -0.21481329 -0.12169676 0.21818323
000100 82 5d 70 3e 7c ed 88 3e 02 76 84 3e 91 cd 4b 3e
       0.2347317 0.26743686 0.25871283 0.19902636
000110 f5 b3 81 3e 38 47 eb 3d 63 ba a7 3d 09 23 07 3e
       0.2533261 0.11488193 0.08189847 0.13196959
000120 44 34 cf bc 20 8c ce bd 1d fa aa 3e 8f 85 a9 3e
       -0.025293477 -0.100853205 0.33393946 0.3310971
000130 23 4c 0c 3e b2 d5 a4 3e 16 6f 86 be d2 2c d1 bd
       0.13700919 0.32194287 -0.26256627 -0.10213627
000140 d1 7d 71 3e 76 34 3e 3e 1a 0c 7d 3e df cb a6 3e
       0.23583151 0.185747 0.24711648 0.32577416
000150 85 e1 61 be 25 5a 90 bd 11 74 83 be 38 48 ea 3d
       -0.22058685 -0.07048444 -0.2567449 0.11439556
000160 99 44 98 3e 0e ff 08 be 01 b1 98 3e 46 07 57 3e
       0.29739836 -0.13378546 0.29822543 0.20998868
000170 72 57 85 be 56 43 5e be b6 e0 33 3e 14 94 81 be
       -0.26043278 -0.21705374 0.17566189 -0.25308287
000180 1a 39 be bd 28 26 50 3d 00 ce 62 3b 12 90 11 be
       -0.09288235 0.05081764 0.003460765 -0.14215115
000190 1e 03 1c bd 71 8f f2 3d ed e5 19 3e 8b 61 9f bd
       -0.03808891 0.118437655 0.15029116 -0.07782277
0001a0 77 d1 d3 3d 74 18 68 3e ff 4d 76 3e 2e 8d 14 be
       0.103426866 0.22665578 0.2405319 -0.14506981
0001b0 3d e1 71 3d 6b d5 2d 3e 56 1e 7b be bb e4 94 3e
       0.059052695 0.16975944 -0.24523291 0.29080757
0001c0 d0 31 8f bd 48 7a 53 3e 5b 04 15 be d8 dc 80 be
       -0.06991923 0.20652115 -0.14552443 -0.2516849
0001d0 62 20 49 bc 7d 31 90 bd 0b 32 07 bd 1b bf bc bc
       -0.012275787 -0.07040689 -0.03300671 -0.023040345
0001e0 77 bf d5 3d ff 82 39 3d 58 ed 83 be 6b a9 a4 be
       0.1043691 0.045290943 -0.25767016 -0.32160506
0001f0 88 8c 9f 3d b7 02 31 3e dd 28 15 3e 93 f9 95 3e
       0.07790476 0.17286192 0.1456637 0.29291973
000200 b8 70 99 bd 08 6e 0a 3e eb 4a e2 bd 2c 1a 45 3e
       -0.074922025 0.13518536 -0.11049446 0.19248265
000210 7e ca c4 3d 5c cb 9a be a2 35 16 be 07 e4 0d 3e
       0.09608935 -0.30233276 -0.14668897 0.13856517
000220 33 84 57 3e bf a5 37 3e b0 47 72 3e b1 91 19 3e
       0.21046524 0.17934321 0.23660159 0.14996983
000230 da 99 d5 bd d7 ce 76 bd 58 3e 8a bd 2a 55 9a bd
       -0.104297355 -0.06025585 -0.067501724 -0.07535775
000240 10 3a 75 be 8a 51 52 3e ee 57 85 be 33 13 6d bd
       -0.2394793 0.20538917 -0.26043648 -0.057879638
000250 be a3 15 bc 3e 8d c8 bd f0 32 0c be d4 94 91 be
       -0.009133277 -0.09792565 -0.13691306 -0.2843386
000260 1b 37 0f 3e ee 3f 94 3d 87 36 f3 bd 12 91 98 3e
       0.13985865 0.07238756 -0.11875635 0.2979818
000270 b6 82 42 be fb 5d 19 be c0 c3 fe bb b1 b3 6d 3e
       -0.18995175 -0.14977257 -0.0077748 0.23213078
000280 5a 7d 72 be 20 29 9f be 4d 05 14 be ee 30 34 3e
       -0.2368063 -0.31086063 -0.14455147 0.1759679
000290 12 77 60 be fb 99 17 be 83 4f 9e 3d fd 4f c9 bb
       -0.21920422 -0.14804833 0.077300094 -0.0061435685
0002a0 4f 65 60 be c1 09 4b 3e 4a 27 05 be fe b1 84 be
       -0.21913646 0.1982794 -0.13003269 -0.25917047
0002b0 f7 37 98 be a4 26 3a bd 92 4f 9e 3e 9f f0 8c 3d
       -0.29730198 -0.045447007 0.30920082 0.06881832
0002c0 7b e4 83 3d 73 1a 8c be 8b f1 c0 3d 39 95 99 bd
       0.064400636 -0.2736393 0.09421071 -0.07499165
0002d0 e1 21 64 3e b6 e2 63 be e8 e2 0c bd c5 af 7f 3e
       0.22278549 -0.22254452 -0.034396082 0.24969395
0002e0 df 05 b2 bd 8a c7 a6 bd 54 b5 4b 3d 65 6c 3a 3e
       -0.08692526 -0.08143528 0.049733475 0.18205412
0002f0 c1 24 41 3d 19 b3 96 3b 8a 90 9d be ed 99 76 be
       0.047154192 0.004598987 -0.30774337 -0.24082156
000300 c9 a5 20 3e 1c 8f c6 3d 6a e2 47 bd 83 17 82 be
       0.15688242 0.09695265 -0.04879991 -0.25408563
000310 2c bd 96 be 5b 45 25 be c6 ed 3f be f4 87 4c 3e
       -0.29441202 -0.16139738 -0.18743047 0.19973737
000320 a1 1f 5d 3d ff 18 13 bc b1 a6 1a be 04 c4 2f be
       0.05398524 -0.0089781275 -0.1510265 -0.17164618
000330 6a 39 64 be 8a c5 6e bd 8e 5f 47 3e 0a 91 93 3e
       -0.22287527 -0.058293857 0.19470045 0.28821594
000340 3d ac 73 bb 25 40 44 3c 67 40 e5 3d ba a5 0c be
       -0.003718152 0.011978184 0.111939244 -0.13735095
000350 a9 85 cc bd 2b d4 9e 3e 74 49 76 be 53 28 22 3d
       -0.09986431 0.31021246 -0.24051458 0.039589237
000360 9c fe 90 be 7e f2 8a be 1b 69 35 3e e6 f3 17 bd
       -0.28319252 -0.27138132 0.17715876 -0.037097834
000370 bb d8 31 3e 03 ba 86 3d 60 3d 96 be 6e f7 90 3e
       0.17367832 0.06578448 -0.293437 0.28313774
000380 4d 4e 81 3e f7 4e 1a be 7b 3c 36 3e 10 58 55 3e
       0.2525505 -0.15069185 0.17796509 0.20834374
000390 23 7e 80 bd 93 33 f5 3d 06 62 d0 bd 0e 20 7b be
       -0.06274059 0.119727276 -0.101749465 -0.24523947
0003a0 c4 96 94 be fa 0c 18 bd da af 98 3d cb 03 c1 3d
       -0.29021275 -0.03712175 0.07455416 0.094245516
0003b0 97 47 16 3e a3 f1 74 bd f0 0d 92 3d 4f 77 91 3e
       0.14675747 -0.059800755 0.071315646 0.28411338
0003c0 d7 96 29 bb 38 34 8a bd 34 53 72 3e 96 91 7c be
       -0.002587726 -0.06748241 0.23664552 -0.24664912
0003d0 30 8c 7e 3e 80 28 6c 3e 17 1f 0a be b1 08 9b bd
       0.24858165 0.23062325 -0.13488422 -0.07570017
0003e0 5c 8b fd 3d 9e f7 32 be a8 e4 a3 bd 11 ba 92 3e
       0.12380096 -0.17477271 -0.08002597 0.28657582
0003f0 7b de 0e 3e 41 4c fc bc f1 9e 24 3d f2 4b a2 bd
       0.13952057 -0.03079808 0.04019064 -0.07924642

net.0.bias f4 [128]
000000 07 ef 22 3e 0e 34 39 bd 38 e5 42 be e8 bf 5a 3d
       0.15911494 -0.04521566 -0.19032753 0.053405672
000010 12 3b 2b 3e c8 d1 e4 3d 0d 62 7d be f8 b3 a6 3e
       0.16721752 0.11172825 -0.24744435 0.3255918
000020 89 46 96 3e b4 2f 84 3d 65 20 25 3e 39 76 3b 3e
       0.2935069 0.06454411 0.16125639 0.18306817
000030 04 e9 7f bd 6f fe 8c bd 13 97 1c 3e 19 63 3e be
       -0.06247808 -0.06884467 0.15292005 -0.1859249
000040 bc fe 07 be ca 7c a1 be ec cf 64 3e 74 c8 1c be
       -0.13280767 -0.3154052 0.22344941 -0.15310842
000050 fb 87 6a be b6 95 09 be b7 44 9d 3c 95 fe 8d be
       -0.22903435 -0.13436016 0.019197805 -0.27733293
000060 7b fb 01 be 32 0c 2d 3e f7 8b 7c 3e 88 c8 85 3e
       -0.12693588 0.16899183 0.24662767 0.26129556
000070 a7 5b df bd 5c ea 27 3e d8 eb 40 bd ab 0a 7c be
       -0.10906153 0.16397995 -0.047099918 -0.24613445
000080 dd 1f 8e be 82 cf b0 bc 45 ec 66 be 9d aa e2 bd
       -0.27758685 -0.021583322 -0.22551067 -0.11067698
000090 ed dd 3b 3e e7 25 40 3e c4 0c ad 3e 20 1d 67 be
       0.18346377 0.18764459 0.33798802 -0.22569704
0000a0 51 4d 22 3e e9 08 f6 3d 31 e2 f8 bd 59 e5 80 be
       0.15849806 0.12013418 -0.121525176 -0.25174978
0000b0 0a 3a 4e 3e 97 1e 7b 3d c4 03 d4 bd ca 09 6e 3e
       0.20139328 0.06130847 -0.10352281 0.23245922
0000c0 ee 27 fb 3c 9e cb 8f bd b0 15 b8 3d cf 25 69 bd
       0.030658688 -0.07021259 0.089885116 -0.056920823
0000d0 43 05 70 3c 90 c2 13 be 29 d0 84 3e a0 90 c2 3d
       0.014649692 -0.14429688 0.25940064 0.09500241
0000e0 e2 20 9e 3e 53 a6 9b be 86 8f 02 3e 0e 3c bb 3c
       0.30884463 -0.30400333 0.12750062 0.022855785
0000f0 b2 60 e9 3d 5f c2 8c 3e 82 c3 39 3e 3b 43 03 be
       0.11395396 0.27492043 0.18140987 -0.12818615
000100 75 05 8c 3e 89 07 00 bd f4 92 7f be 21 b9 64 be
       0.27347913 -0.031257186 -0.24958402 -0.22336246
000110 f6 e0 4e bc bf 80 85 3e f8 c0 96 be 51 18 89 3d
       -0.012626877 0.26074788 -0.29444098 0.06694091
000120 3c c3 ab bd 70 f8 cc bc 9b 6f 95 bc 8a ca 62 be
       -0.083868474 -0.025020808 -0.018241694 -0.22147575
000130 27 7e 86 3d 03 a3 91 be d8 84 9e be 4a 7e 91 be
       0.065670304 -0.2844468 -0.30960727 -0.28416663
000140 64 00 95 be 91 64 95 be 43 51 81 bd c4 5a 9c 3e
       -0.2910186 -0.2917829 -0.063143276 0.30538
000150 d0 6b 5b be f9 47 38 3e c4 2a f2 bd 01 28 67 3e
       -0.21427846 0.17996205 -0.11824563 0.22573854
000160 d8 f6 8e 3d 5c e6 8d 3d da a5 c0 bd 76 23 9d 3d
       0.069806755 0.06928703 -0.09406634 0.07672779
000170 4c 15 17 be d0 7e 5c 3e fb 3d 53 bd 74 37 03 be
       -0.14754218 0.2153275 -0.05157278 -0.12814122
000180 8f 70 8a bd f8 db 01 3e 95 df 9c 3e 6f f4 87 be
       -0.0675975 0.12681568 0.3063933 -0.26553676
000190 4c b9 aa 3d f2 74 3b 3e 93 7d fd 3d b2 44 9d be
       0.08336124 0.1830633 0.12377467 -0.30716473
0001a0 be 22 a4 bc 4b 4b 97 3e 81 c7 0b be 50 3f 31 be
       -0.020036098 0.2954963 -0.13650323 -0.17309308
0001b0 32 59 94 be b1 2f 63 be 08 99 87 be 91 54 52 3e
       -0.289743 -0.22186162 -0.2648394 0.20540072
0001c0 52 93 14 3e 07 89 84 be 7e f5 79 be e5 bb 74 be
       0.14509323 -0.25885794 -0.24410054 -0.23899801
0001d0 43 b1 3c be 06 e3 66 bd 16 be 77 3e 68 6d 72 3e
       -0.18426995 -0.05636885 0.24193606 0.23674548
0001e0 a6 a0 56 3e 5f 47 45 bd d2 25 63 3e 6f bf 60 bd
       0.2095972 -0.048163768 0.22182396 -0.054870065
0001f0 87 51 1c 3e 03 89 0d 3e 6b 95 75 3e d7 01 39 be
       0.15265475 0.13821797 0.2398278 -0.18067108

net.2.weight f4 [256, 128]
000000 66 4c 56 3d 03 f1 a4 3c 46 7f 1f bd d6 83 05 3d
       0.052318953 0.020134455 -0.038939737 0.03259643
000010 6f 9d e0 3d 25 74 4d 3d 3e ba 98 bd a8 4b bc bd
       0.10967528 0.050159592 -0.07457398 -0.09194118
000020 83 ce d4 3c 00 9a 88 bd 45 9e 49 39 4e ac 23 3d
       0.025977379 -0.06669998 0.00019227814 0.039959244
000030 99 77 1f 3d 3f 8e d8 3c e5 b5 74 bd 2a d5 b5 3a
       0.038932417 0.026435016 -0.05974378 0.0013872732
000040 a5 15 45 3d 16 e9 dd bc f3 88 67 bc 7e b7 59 bd
       0.048116345 -0.027088683 -0.014131772 -0.053153507
000050 35 ba 4e bb d3 60 b1 3d d5 a8 50 3d 5a e8 af 3d
       -0.0031544094 0.08661046 0.05094226 0.085892394
000060 44 1b 92 3c 3a 64 06 bd 34 dc c5 bd ce 8c 85 3b
       0.017835267 -0.032810427 -0.09661141 0.004075623
000070 5f 72 88 3d 72 ef 9a 3c 77 54 ad bd 5e 7f 00 3d
       0.066624396 0.018913005 -0.08463376 0.031371467
000080 bd fb a0 bd 66 74 ca bb ac 6d 3e 3d ca 33 9a bd
       -0.07860515 -0.0061784266 0.04649131 -0.07529409
000090 f0 28 a3 3d d9 bb 34 bd 7b 9b 46 bd c0 0a a0 3a
       0.079667926 -0.044124458 -0.04848812 0.0012210235
0000a0 0f a3 52 3d e1 19 0c bd 0c 6d 67 bd ff 45 eb 3b
       0.051425036 -0.034204368 -0.05650048 0.007179975
0000b0 a3 c7 62 bd c6 07 2c 3d 0f 7a 95 bc fd 98 81 3d
       -0.05536617 0.0419996 -0.018246679 0.06328008
0000c0 d7 51 82 bd 6c 2c ad bc a9 95 ef ba 6e 2d 3f 3d
       -0.06363266 -0.021139346 -0.0018278855 0.046674185
0000d0 23 35 18 bd c9 4c b1 bc 58 ee 66 bc b3 0e 31 bd
       -0.03716005 -0.02164306 -0.0140949115 -0.04322691
0000e0 80 fd 26 3b 40 ea 33 3b 1a 94 59 3d 5d 9c bd bb
       0.0025480688 0.0027452856 0.053119756 -0.005786462
0000f0 9e 70 8f 3d cb 22 bc 3d 24 2d af 3d 24 9c c9 bd
       0.07003902 0.09186324 0.08553532 -0.098442346
000100 c8 3e 4e 3d 40 46 4b bc df 18 cf bc d6 cd 29 3d
       0.05035284 -0.012406886 -0.025280414 0.041456066
000110 1c 60 a1 3c 4d e0 c6 3d d4 73 e0 bc 2a 09 c8 bc
       0.019699149 0.09710751 -0.027398981 -0.024418432
000120 c8 be c0 3d e5 f2 be 3d d8 4e f4 bc 44 09 6a bd
       0.09411389 0.09323672 -0.029822752 -0.057137743
000130 ff 99 e5 3b 90 93 e9 ba 5a 37 39 3d d8 77 69 3c
       0.007006883 -0.0017820466 0.045218803 0.014249764
000140 71 3b 06 bd 57 c0 0f bd 94 97 54 bd 93 7f 7b bd
       -0.03277153 -0.03509554 -0.05190237 -0.06140096
000150 3e b9 51 bd 34 14 cb 3d 38 ca cd bd dc 5f b5 bd
       -0.05120205 0.09915963 -0.10048336 -0.08856174
000160 28 6c 2e 3a 85 5d 71 3d f7 9f 93 bd e8 f1 99 bb
       0.000665369 0.058927078 -0.07208245 -0.004698027
000170 c4 3e fc bb d0 24 7d 3c d2 48 bc 3d 29 f1 a9 3d
       -0.007697912 0.015450671 0.09193577 0.08297951
000180 d8 18 f6 3c c4 91 3c bc b9 7a 1b bd 24 79 d3 bc
       0.030041143 -0.011509363 -0.037958834 -0.0258146
000190 59 14 16 bd c7 a6 05 bd f4 a2 24 3d c0 2d 45 3c
       -0.0366405 -0.032629754 0.040194467 0.012034833
0001a0 b7 17 4e 3d 95 ca 95 3d 9e 1e 73 3d ee 19 96 3d
       0.050315585 0.0731403 0.05935537 0.073291644
0001b0 b1 58 19 bd cb 00 84 bd 78 5b df 3d bf 79 46 3d
       -0.0374381 -0.06445464 0.10906118 0.04845595
0001c0 12 96 5c 3d d3 4a 8e bb 4b 27 97 3d 53 37 c7 3d
       0.053854056 -0.004342416 0.073805414 0.09727349
0001d0 fc c9 d0 3c ff a5 d4 3b be 2f 53 3d 74 1c b0 3c
       0.025486939 0.006489515 0.051559202 0.021497943
0001e0 94 e7 c8 3b c8 4b 71 bd c0 a9 99 bd c5 b4 87 3d
       0.006131122 -0.05891016 -0.0750308 0.06626276
0001f0 8d 84 8a bd 36 19 b4 3d fa 96 1f 3d fa 5e c4 3b
       -0.06763563 0.08793871 0.03896234 0.0059927674
000200 b5 7f 23 3b ec 9a 14 bd fc 85 8e 3c cc b9 82 3d
       0.0024947945 -0.036280558 0.017397873 0.06383094
000210 56 81 e5 3b 95 fe 5e bc 5f e7 b7 3c 04 12 1d 3c
       0.0070039434 -0.013610502 0.022449194 0.009586815
000220 ad ba 1a bd d0 76 b2 bc 8c 47 19 bd e8 28 a4 3d
       -0.037775684 -0.02178517 -0.037421748 0.08015615
000230 2c c0 92 3d 0e 58 7f bd 46 89 71 3d fb 0c 6c bd
       0.0716556 -0.062339835 0.058968805 -0.057629567
000240 55 51 2f bc e0 eb 4c bb 45 73 a1 3c 42 45 0b bc
       -0.010700543 -0.0031268522 0.019708285 -0.008500399
000250 84 5a 36 bd ee 8f 1f 3d 1f 77 9f 3d fa 34 12 3d
       -0.044519916 0.03895562 0.077863924 0.035695054
000260 c0 6e 90 3c 81 65 fb bc be 4d f7 3a 03 8f aa 3d
       0.017630935 -0.03068805 0.0018867773 0.083280586
000270 b2 22 af 3d ac 5b 50 3d 6e f3 31 3d 62 ab 05 bd
       0.085515395 0.050868675 0.043445043 -0.032634147
000280 6b 75 4f 3d 3a c6 21 3d 15 b0 9d 3c f8 63 58 bc
       0.050649088 0.039495684 0.019249002 -0.013207428
000290 47 14 88 3d d9 28 81 bd 3f 0d b9 bc 58 ff 72 bd
       0.066444926 -0.06306619 -0.022589324 -0.059325546
0002a0 c8 00 41 3d 72 88 39 3d 71 23 cf ba 12 8e 81 bc
       0.047119886 0.04529614 -0.0015803409 -0.015814815
0002b0 ba 65 dd bc d1 12 af 3d 45 b3 13 bd c0 c7 7c 3d
       -0.027026046 0.08548511 -0.036059637 0.061713934
0002c0 d5 2a 94 3b 56 5b 8e bb 01 3b b6 bd f0 b0 6c bd
       0.0045217075 -0.004344384 -0.08897973 -0.05778593
0002d0 3e 9a c9 bc 93 97 8a 3d 49 41 c1 bd 5e 56 9f bd
       -0.024609681 0.06767192 -0.0943628 -0.07780145
0002e0 05 54 b1 bc dd b3 8c bd 89 06 78 bd 62 5e 50 3d
       -0.021646509 -0.06870244 -0.060553107 0.05087126
0002f0 ae 1b b4 bd 08 f1 79 bc 6f bc 2d bc 2c 18 e8 3c
       -0.08794342 -0.01525522 -0.010604008 0.028331839
000300 c1 94 f4 bc 7a 3a 84 bc 33 a3 9e bc ca 2c 41 3d
       -0.029856088 -0.016141165 -0.019364929 0.047161855
000310 66 d3 6a bd b3 a1 22 3d d0 87 b1 bc 25 53 1d bd
       -0.05733051 0.03970499 -0.021671206 -0.03840937
000320 d9 03 87 3d f3 76 b4 bc 50 b7 99 3d c8 cc 8a 3c
       0.06592531 -0.022029376 0.07505667 0.01694335
000330 4a 71 35 3d b0 9e ad bb 7a 59 f3 bc 2d 23 9b 3d
       0.044297494 -0.005298458 -0.029705752 0.075750686
000340 ca 61 e3 bc e6 59 a1 bd 4e c0 4d bd cf ae 97 bb
       -0.02775659 -0.07878475 -0.050232224 -0.004628993
000350 cb 89 b5 bc ad 7e 4a 3d bf c4 a1 bd b8 31 9c 3c
       -0.022160431 0.049437214 -0.078988545 0.019066676
000360 16 e4 f3 bc 65 e1 79 bc c0 98 52 bc d6 ba d5 bb
       -0.029771846 -0.015251492 -0.012853801 -0.0065225167
000370 4d 6d 11 bd a5 5b d3 bc 76 01 0d bd 19 05 11 bb
       -0.035504628 -0.025800535 -0.03442522 -0.0022128283
000380 29 12 9d 3d 42 06 05 3d 28 fa dd bc ea f7 88 bc
       0.076694794 0.03247667 -0.027096823 -0.016719777
000390 c3 8e 81 bc 1b ef 10 bd 65 dd b9 bd 94 d7 8e bd
       -0.015815144 -0.03538428 -0.09075431 -0.06974712
0003a0 6f 40 70 3d 21 2c a1 3d 00 01 b2 39 ec 8d 9b bd
       0.0586552 0.07869745 0.0003395155 -0.07595429
0003b0 d4 a7 8f 3c 40 4f 35 3b c8 87 9e 3d 89 f6 00 bd
       0.017536081 0.0027665645 0.07740742 -0.031485114
0003c0 73 37 af bd 3a f6 04 bd 6b ff 37 bd b0 fe 35 3d
       -0.08555498 -0.032461382 -0.04492132 0.044432342
0003d0 f0 13 38 3c c0 2b df 3c 49 7c 93 3d 9e 34 57 bd
       0.011235222 0.027242541 0.0720144 -0.052540414
0003e0 76 bb 90 bc e4 c1 8a 3c 17 ca 6b bd 00 86 ae 3c
       -0.017667513 0.016938157 -0.057565775 0.02130413
0003f0 7d 92 39 3d 64 63 e2 bc b7 a5 25 3d ff 49 83 3d
       0.045305718 -0.027635284 0.04044124 0.06410598

net.2.bias f4 [256]
000000 eb 3e 77 3c 77 40 85 bd 96 10 1e 3d f8 65 c1 ba
       0.015090684 -0.06506436 0.038590036 -0.001475512
000010 31 ac ed bc ef 0a e7 bc 80 75 90 3d 4e b1 81 3d
       -0.029012771 -0.028203456 0.07053661 0.06332646
000020 d5 fd 17 ba b4 07 d8 bc 08 45 86 bd 80 70 3d 3d
       -0.0005798017 -0.02637086 -0.065561354 0.046249866
000030 58 f7 78 3d ae e3 36 bb 94 90 a2 3c 3f 72 5c bd
       0.06078276 -0.0027906704 0.01984433 -0.05381989
000040 ad 37 95 bc 06 79 b4 bd 20 81 c3 3d 91 6d 64 bd
       -0.018215025 -0.08812146 0.09546113 -0.055768553
000050 1a b0 a1 bd e7 92 86 3d 6d 81 a2 bd 48 6b 56 3d
       -0.07894917 0.06570988 -0.07934842 0.052348405
000060 64 9d e4 bc e5 4a 09 bd 06 c6 73 bd 4c 29 b2 3d
       -0.027907081 -0.03351869 -0.05951502 0.08699283
000070 c0 a7 7a bd 68 71 46 3d 3e d3 dc bc 90 03 31 bc
       -0.061195135 0.048447996 -0.026956197 -0.010804072
000080 0d 57 20 bd cd 94 43 3d ca f1 65 3d 4d a8 c8 bb
       -0.039145518 0.04774933 0.05613879 -0.0061235786
000090 10 e6 3c 3d 32 1b 0e bd ea 5f a2 b9 64 f3 03 3d
       0.046117842 -0.034693904 -0.0003097051 0.032214537
0000a0 bd 8d b4 3d 4d 81 af 3b 4e 44 2e bd 38 57 da bc
       0.08816097 0.00535599 -0.04254561 -0.026652917
0000b0 fa 0f 13 bd d5 db d8 bc 05 c3 25 3d f1 81 39 bc
       -0.03590391 -0.026472012 0.04046919 -0.011322484
0000c0 ab 6e 2b 3c 2f e8 95 3c ef 53 16 bd 20 83 94 3c
       0.010463397 0.01829919 -0.03670114 0.018128932
0000d0 f1 09 c2 3d 7f 00 ac bc ec 01 b5 3c 73 2a 35 bd
       0.094745524 -0.02099633 0.022095643 -0.044229936
0000e0 5b 18 9d bc e9 a5 a5 3d 4d 83 96 3d 7b 0e 53 bd
       -0.019176653 0.080882855 0.073492624 -0.05152748
0000f0 2f 6f 94 3b a3 db a7 3d 7b 9c a9 3d 5b 31 02 bc
       0.0045298557 0.08196189 0.082817994 -0.007946338
000100 5d 1e c7 3c f1 1d 7e 3d 58 ef 82 bd 96 a7 47 3a
       0.02430647 0.062040273 -0.063933074 0.000761622
000110 cd f5 2f 3d ed b1 5f bd 68 a0 99 bc 3a b6 3c bd
       0.042959023 -0.054613043 -0.018753245 -0.046072222
000120 5e 8d ba 3c a0 d2 89 3d 69 d1 92 bd 48 96 8b bc
       0.022772487 0.06729627 -0.07168848 -0.017039433
000130 b7 9f a8 3d 5a 4a 0d 3d 18 23 40 3c ba b0 bc 3c
       0.08233588 0.034494735 0.011727117 0.023033489
000140 da 72 4c 3b 5c 32 c5 bd 2d 67 87 bb 00 30 ff 3b
       0.0031196387 -0.09628746 -0.0041321726 0.0077877045
000150 54 2f 80 bc 67 ba 31 3d 4d 15 6c 3d 2d ce 24 3d
       -0.015647568 0.043390658 0.0576375 0.040235687
000160 45 b7 6e 3c 2b ed a0 3d 87 40 07 3d 9b 74 20 3d
       0.014570062 0.07857736 0.033020522 0.039173704
000170 88 2b 04 bd 00 ed 34 3c 80 5b 61 3c ea 33 2e bd
       -0.032268077 0.011042833 0.013754725 -0.042529978
000180 a7 69 08 bd ce fa a0 bd 08 aa 66 3d 73 d2 89 bd
       -0.033303883 -0.07860337 0.0563145 -0.06729593
000190 68 7f 58 bd 60 58 c5 3c 10 2f 84 3c 0a f8 47 3d
       -0.05285588 0.024089992 0.016135722 0.048820533
0001a0 5d c9 5a bd 5b 25 84 bb 8e 19 b4 3c 3a cb af 3c
       -0.05341469 -0.0040327734 0.021984842 0.02145921
0001b0 8b 90 7c bd da 0d 0d bc dd 60 83 3d 61 26 60 3d
       -0.061661284 -0.0086092595 0.064149596 0.0547241
0001c0 61 69 56 3d 1a 87 a8 3d 84 26 b3 bd fe 89 95 3d
       0.05234659 0.082288936 -0.08747581 0.073017105
0001d0 67 6a 4f bd 9a 9c 04 3d 0d 00 4e 3b d1 19 7b 3d
       -0.050638583 0.03237591 0.0031433136 0.061303917
0001e0 b3 cb b5 3a 70 f4 69 bd 40 ed a5 3c ef 10 ac 3d
       0.0013869911 -0.05711788 0.020254731 0.08401667
0001f0 cd af 1c bc 7e ca 6b bd fe 5f 48 3d 07 54 6b 3a
       -0.009563399 -0.05756616 0.04891967 0.00089770596
000200 cc 7c 85 3a 3b d4 b3 3d 1d 8c 82 3b cf da d1 3c
       0.0010184287 0.08780714 0.003983988 0.025617031
000210 f0 9a 9b 3d ff f1 9d 3d 15 f6 a3 bc 4d 68 7c 3d
       0.07597911 0.07712173 -0.020014802 0.061622906
000220 f9 54 27 bd 47 bc 0a bd c0 e1 53 bd c0 9d 87 bd
       -0.04085252 -0.03387096 -0.051728964 -0.06621885
000230 48 cd 89 3c ed ac 4d 3c 94 dc 44 bd f7 8c 1d bd
       0.016821519 0.012553436 -0.048061922 -0.038464513
000240 e2 d7 2c bd 52 f2 82 bd 33 7a 85 3b 89 ce 80 bd
       -0.04219807 -0.06393875 0.004073405 -0.062893935
000250 29 6d 0e 3d 3d c8 64 3d 53 85 86 3d fc d6 6e bc
       0.034772072 0.055855025 0.06568398 -0.014577623
000260 51 a2 2c bd 34 8e a0 bd 80 4f 30 bd 34 91 8e bc
       -0.042146984 -0.07839623 -0.043044567 -0.017403223
000270 51 fa 01 3d 68 f6 64 bd 8d 41 08 bd be 46 6b 3d
       0.03173286 -0.055899054 -0.03326564 0.057440512
000280 31 21 9b 3c fd 86 10 3d 3c 36 8a 3d c9 80 33 bd
       0.018936725 0.035284985 0.06748626 -0.04382399
000290 3d a2 1b 3d d6 f7 1f bc ea af 00 bd b4 8f 94 3d
       0.03799652 -0.009763679 -0.031417765 0.07253972
0002a0 3a 75 3e bd 40 60 22 bc 99 77 ee 3a d8 c1 e7 3c
       -0.046498515 -0.009910643 0.0018193602 0.028290674
0002b0 45 8d 7d bd f4 2e 92 3d 28 e3 e7 39 fb ec ba 3b
       -0.061902303 0.07137862 0.00044228998 0.00570452
0002c0 11 de 95 3c 46 2d 5d bc 6b 8e af bd 23 2b 86 bd
       0.018294366 -0.013499564 -0.08572086 -0.065511964
0002d0 ed 30 6b bd e2 36 f2 3b bc 70 a3 bd 93 aa 89 3c
       -0.057419706 0.0073917964 -0.07980487 0.016804969
0002e0 88 80 75 3c c0 69 2d bd ea 63 d2 bc 12 6f 4c 3d
       0.0149842575 -0.04233718 -0.025682408 0.049910612
0002f0 b8 16 85 bd 67 e7 93 3d dd 9f ea 3c 40 8c 72 bd
       -0.06498474 0.07221871 0.028640682 -0.059215784
000300 ac 62 cf 3d 61 5b 8d 3d 59 5c 1f 3c 6e 2b 99 bd
       0.10126242 0.06902195 0.009726607 -0.07478987
000310 f0 ab 81 bd f1 39 47 3d fb 65 01 3c 70 3a 5b 3c
       -0.063316226 0.04863924 0.007897849 0.013380632
000320 24 7d af 3d 2f a2 90 3d 1b b0 6b bd 3b f7 88 3d
       0.085687906 0.07062184 -0.057540994 0.066877805
000330 d0 7c 75 bd 61 36 26 3d 50 d3 b7 bb 60 42 1a bd
       -0.059933484 0.040579204 -0.005609907 -0.037660956
000340 f8 a1 f4 bc 29 e6 47 bd a0 ba 7d 3d 2c 52 6b 3c
       -0.029862389 -0.048803482 0.061945558 0.014362853
000350 40 c2 ad bb 49 e4 ed bc b7 42 ba bb 42 3e 96 3b
       -0.0053026974 -0.029039519 -0.0056842226 0.0045850584
000360 4e e6 18 bd b3 b8 b4 3d 72 f2 8b bd ce 13 ae bd
       -0.03732901 0.08824291 -0.06833352 -0.08499871
000370 fd 60 4d bc 39 15 40 3c e1 5e 18 3d 2c c4 3a 3d
       -0.012535331 0.01172381 0.03719986 0.04559724
000380 e4 ce 2f bd ef 09 3d 3d 2e 36 b0 bc b9 be 10 bd
       -0.042921916 0.04615205 -0.02151021 -0.035338137
000390 e2 46 dc bc d7 88 9c 3c 69 96 b5 3d a9 6b ad bd
       -0.026889268 0.01910822 0.08866579 -0.084678
0003a0 93 93 80 bd 7f 95 1e bd 59 89 74 3c 67 8f 64 3b
       -0.062781475 -0.03871679 0.014925324 0.0034875514
0003b0 86 ce a7 3d 5f ca 10 3d 29 09 79 3d 67 68 0b bd
       0.08193688 0.035349246 0.06079975 -0.034035113
0003c0 c7 27 45 3c 11 7b 73 3b 27 e1 2c 3d a7 56 2a 3d
       0.012033409 0.003715221 0.04220691 0.041586544
0003d0 83 cb 83 ba d8 99 6a 3d 25 2e ba bc e6 da f7 3c
       -0.0010055158 0.057275623 -0.022727082 0.030255746
0003e0 6a ee aa bd d7 db bf bc f0 b4 a6 bd d5 f4 a0 3d
       -0.08346255 -0.023420257 -0.0813998 0.07859198
0003f0 bd 39 71 bd 52 a5 a7 3d bc 7c 84 3c 2c f6 74 bd
       -0.058892954 0.08185829 0.01617276 -0.05980508

μ.weight f4 [2, 256]
000000 45 00 31 3d f9 81 2c 3d a0 35 ef bb 54 3c 6e 3d
       0.043213148 0.04211614 -0.007300094 0.058163002
000010 45 c0 d2 bc 61 6d 8b bb d2 da 74 3d 20 83 d6 39
       -0.025726447 -0.0042549823 0.059778996 0.00040914956
000020 5e 65 6a 3d 98 67 10 3c bb 75 1e 3d 85 e7 38 3d
       0.057225578 0.008813761 0.038686495 0.04514267
000030 68 68 03 bd 5a a0 ad bc fd 82 a6 3a 50 bb 90 3c
       -0.03208199 -0.021194626 0.0012703832 0.017667443
000040 7b 25 37 3d 39 87 75 bc 21 04 07 3c bd f6 3e bd
       0.04471348 -0.014985853 0.0082407305 -0.046622027
000050 3f c9 87 bd e1 0c 15 bd 89 be ee bc 5e c7 72 3d
       -0.066301815 -0.036389235 -0.029143589 0.059272163
000060 f4 97 bc bc b5 85 59 3d 92 b4 5f bc 96 85 2f 3d
       -0.023021676 0.05310603 -0.013653891 0.042852007
000070 17 01 3f 3d 19 fc 41 bd 6a 7b 0d bd 80 b4 6a 3c
       0.0466319 -0.04735956 -0.034541525 0.014325261
000080 8a 32 b1 3c a1 c2 c7 3c 1b 94 1a bd fc 09 1e 3d
       0.021630544 0.024384798 -0.0377389 0.03858374
000090 4e da 87 3c d6 78 46 bd bd b0 57 bd 35 85 23 bd
       0.016583588 -0.048455082 -0.052658785 -0.039921958
0000a0 d9 d6 71 bd 23 1d 1b 3d 42 0e 63 bd 6a 71 7d bd
       -0.059042785 0.037869584 -0.05543352 -0.06187574
0000b0 bf 5b 0a bd 05 6c 3d bc a0 0e 6c 3d b0 e8 05 bb
       -0.033778902 -0.011561398 0.057631135 -0.0020432882
0000c0 3e 7a 2f bd b3 5e d3 bb e8 e4 50 3c 26 a9 1e bd
       -0.04284119 -0.006450498 0.012749888 -0.03873553
0000d0 cb 65 3e bd 62 c5 9a 3c 30 00 c4 bc 5f e4 4e bc
       -0.046483796 0.018892948 -0.02392587 -0.01262769
0000e0 e9 0b 0b 3c 74 a0 60 bd 3c 41 33 bd 30 14 fd 3c
       0.008486726 -0.05484052 -0.043763384 0.030893415
0000f0 32 b2 8a 3c 78 30 1d bd 62 df 2d 3d e2 08 92 bd
       0.016930673 -0.0383763 0.042449363 -0.071306005
000100 fe 22 49 3d 94 7d e0 bc 33 b4 3c 3d 07 ec 6b 3d
       0.049105637 -0.02740363 0.04607029 0.05759814
000110 d7 8d ac ba d5 b2 23 bd 8d 5d 1a bd b1 94 20 3d
       -0.001316483 -0.03996547 -0.037686873 0.039204303
000120 30 72 95 3c 0b e5 78 bb 42 e7 b4 3c f6 1c 0b 3d
       0.018242925 -0.0037978317 0.022082929 0.033963166
000130 23 84 c1 bc c2 be 57 3d 80 8b 7a 3a 3f f8 cf 3c
       -0.023622578 0.052672155 0.000955753 0.025386928
000140 87 7e 36 bd 1b 29 e7 bc dc a9 63 bd 5c 44 ec bc
       -0.04455426 -0.028217843 -0.055581912 -0.02884119
000150 1c c4 95 bc 6c 81 60 3d 86 9a 8b 3d 5b d7 9a bb
       -0.018281989 0.054810926 0.068165824 -0.0047253794
000160 fa 3a ee 3c 3c d8 8a 3c 1a 4b 59 bd 6a 31 ff 3c
       0.029080857 0.016948812 -0.053050138 0.031151492
000170 9b 10 3e 3d 03 5e 4f 3c 04 fb 54 bd 23 25 46 3d
       0.046402555 0.0126566915 -0.0519972 0.04837526
000180 a7 7b a2 3c 35 e8 e7 3c 36 22 7d 3d 24 d3 60 3d
       0.019834353 0.028308967 0.061800204 0.05488886
000190 0c 38 29 3d bd dd b4 bc d7 86 6d ba 02 cf 82 bd
       0.041313216 -0.02207839 -0.0009060925 -0.0638714
0001a0 36 e2 7e bb dc 13 34 bc 81 32 78 3d c0 49 10 bd
       -0.0038892156 -0.010991063 0.06059504 -0.035226583
0001b0 71 72 4c 3d 12 e5 09 3d d0 f2 31 3d 4c a3 1f 3b
       0.049913827 0.033665724 0.043444455 0.0024358807
0001c0 cf 97 4d 3d a0 09 0b bd 50 76 bd 3c c5 f0 1e 3a
       0.050193604 -0.033944726 0.023127705 0.0006063099
0001d0 be b3 d8 3c 42 2a 91 3c 81 da 56 bc 92 a8 5a bd
       0.026452895 0.017720345 -0.013113619 -0.053383417
0001e0 78 4c a7 3c c7 cc 44 3d 9c cf 95 3c c1 72 b8 38
       0.020422205 0.048046853 0.018287472 8.795178e-05
0001f0 49 8e 57 3d 08 a6 7b 3d 98 a4 7e bd 6e 08 7f 3d
       0.052625928 0.061437637 -0.062168688 0.0622639
000200 80 b5 08 bd 14 86 45 3d f1 57 14 bd 40 09 2a bd
       -0.033376217 0.04822357 -0.03621668 -0.041512728
000210 35 21 ee 3c c0 16 d2 3b b0 64 66 3d b9 9f 54 3d
       0.029068569 0.0064114034 0.056248367 0.051910136
000220 1b 23 25 3c db 17 77 3d 5f 11 4c bd ea dd 57 3d
       0.010079171 0.060325485 -0.049821254 0.052701868
000230 d3 14 76 3d 7c 22 f5 3c aa e2 d0 3a a1 a5 b5 3c
       0.060078453 0.02992367 0.0015936692 0.022173705
000240 c9 54 1f bd a3 a1 5e bd dd 2d 99 3c a2 99 b0 bc
       -0.038899217 -0.054353368 0.018698627 -0.021557633
000250 90 f3 96 bc f7 b5 25 3c a8 4a 89 3d 2b 2f f4 bc
       -0.018426687 0.010114185 0.06703693 -0.029807648
000260 a2 0e 58 3d 9b 24 55 bd 65 2f 99 3a 46 ac 16 3d
       0.05274833 -0.052036863 0.0011687098 0.036785387
000270 41 f2 e2 3c 59 39 0c bd 9a d2 7c 3c 44 26 c6 bc
       0.027703406 -0.03423438 0.015431071 -0.024188168
000280 72 31 1c 3d 52 dd c9 bc 9f 0b 5c 3d 4e a5 e6 bc
       0.038133092 -0.024641667 0.05372202 -0.028154995
000290 50 8e 62 bd 68 f7 df 3c 5c 7c c2 bb f1 eb 02 3d
       -0.0553115 0.027339652 -0.005935235 0.031963293
0002a0 85 6c 8f bc ec 0b 33 bd cf 93 8a 3c 26 66 65 3d
       -0.0175078 -0.04371254 0.016916184 0.05600562
0002b0 37 e3 7f 3d 44 f5 28 bb 6e 42 85 bd a5 83 78 bb
       0.06247255 -0.0025780955 -0.06506811 -0.0037920263
0002c0 c7 0d 77 3d 0e e4 5e 3d fa b4 10 bd a1 09 ba bc
       0.060315873 0.05441671 -0.035328843 -0.02270967
0002d0 c0 9e 27 3c e3 22 53 bc 0a e1 59 3d d6 3a ba bc
       0.01023072 -0.012886736 0.05319313 -0.022733133
0002e0 60 fc 47 bd b4 6a 42 bd ef 7e 9a 3c cd 84 dd 3b
       -0.048824668 -0.04746504 0.018859355 0.006760216
0002f0 28 d6 3c bc 06 b4 fb bc 4c 10 80 3d 03 c1 ca 3c
       -0.011525668 -0.03072549 0.062531084 0.024750238
000300 5e f0 7b 3c 0e c0 61 3d 2a 18 9d 3b 8d 8d 6e bd
       0.015377132 0.0551148 0.0047941403 -0.058240462
000310 fc b1 8a 3c d5 dd 69 bd 27 f3 18 ba 6e 48 45 bd
       0.016930573 -0.05709632 -0.00058345724 -0.048164777
000320 4e b6 4a 3c 10 ab 33 3d ef 09 a6 bc f4 e2 30 3d
       0.012372566 0.04386431 -0.020268409 0.04318519
000330 95 66 7d 3d 3b fc f4 3a 48 69 91 bc 2b b4 d0 bc
       0.061865408 0.0018690893 -0.017750397 -0.025476536
000340 80 46 c5 3b 68 b4 5b bd 8e f8 18 3d 77 1e 18 bc
       0.006020367 -0.053638846 0.037346415 -0.009284607
000350 d0 19 21 bc 4f c5 bb 3b 84 b0 c4 bc fa d3 df bc
       -0.009832814 0.005730308 -0.02400995 -0.027322758
000360 04 e9 22 bd 1c 4d 97 bc 5f 33 df bc 97 cf a6 bb
       -0.039773002 -0.018469386 -0.027246175 -0.0050906646
000370 73 da 13 bc 7c 0f 07 bd 16 52 5d 3d d1 c0 45 bd
       -0.00902425 -0.03297375 0.05403336 -0.048279587
000380 cc ac f5 bb 69 fb 4f bb ce f5 1b 3d 20 4e 84 3d
       -0.0074974056 -0.0031735545 0.038076214 0.06460214
000390 f2 d6 0d bd 12 3a 72 3d 21 9d 7e 3d 9d b3 7c bc
       -0.034628816 0.05913741 0.06216157 -0.0154236825
0003a0 03 40 4e 3d 34 77 cc 3b ee 1c f0 bc 2a f8 ac 3a
       0.050354015 0.006239796 -0.02931067 0.0013196517
0003b0 14 6a 12 bc 1c 08 bd bc 31 b7 89 3c c4 40 63 3d
       -0.008936424 -0.023075156 0.016810985 0.055481687
0003c0 f0 9d 64 bd 11 a8 20 bd 68 ca 77 bd 90 a6 cb bc
       -0.055814683 -0.03922278 -0.060495764 -0.024859697
0003d0 06 bd 2b 3d e3 44 72 3d 3b c3 5a 3c 20 2f 42 bd
       0.041928314 0.059147727 0.013352211 -0.047408223
0003e0 9a 88 00 bd f3 43 03 3c ae f8 5c bd 25 39 0b 3d
       -0.031380273 0.008011806 -0.053948097 0.033990044
0003f0 12 bc 06 bc fc d6 6e bd cc 9e a2 3c 6f 47 2a 3d
       -0.00822355 -0.058310494 0.01985111 0.04157203

μ.bias f4 [2]
000000 d5 85 b6 3b c6 1b 91 bc
       0.0055701532 -0.017713439

σ.weight f4 [2, 256]
000000 43 84 15 3d e6 06 2b bd 50 86 35 bc 04 79 2d bd
       0.036503088 -0.041754626 -0.011079386 -0.042351738
000010 4c 07 7e bd a8 d5 b2 bc 8d a2 df bb 65 1c e6 3b
       -0.062018678 -0.021830395 -0.0068247975 0.007022428
000020 39 f4 0b bd f0 6a 95 bb c1 c4 73 3d f3 09 7b 3d
       -0.034168456 -0.004559867 0.05951381 0.061288785
000030 ce 8b bf bc 0f da 1a 3d fd b8 88 3d 63 2b 7e 3d
       -0.023382094 0.037805613 0.06675909 0.062053096
000040 49 48 d0 bc 8a bd 0c bc e7 04 db 3b 8e 43 58 bd
       -0.025425093 -0.0085901115 0.006683934 -0.0527988
000050 99 75 64 bd 89 31 82 bd 34 b1 8d 3c 34 2f 7a 3d
       -0.055776212 -0.06357104 0.017296411 0.061080173
000060 74 a2 67 bd 4f f3 3e 3d e6 73 0a 3d 52 56 31 bd
       -0.05655141 0.046618756 0.033801936 -0.043295212
000070 ff ea 73 3d 9c 6a c1 bc 6e 02 49 bd 0c c7 16 bd
       0.05955028 -0.023610406 -0.049074583 -0.03681092
000080 30 9c 64 bd 7c 0e 08 bd e1 30 0e bd 48 f0 b5 bc
       -0.055813015 -0.03321694 -0.034714583 -0.022209302
000090 10 2d 86 3d 62 d9 0e bd 3e 29 2b bd ed b6 39 bd
       0.06551564 -0.03487528 -0.04178738 -0.045340467
0000a0 68 e1 05 bc 16 a8 2b bd 29 83 b6 3b 70 39 2b 3d
       -0.008171417 -0.041908346 0.0055698347 0.041802824
0000b0 16 6b c0 3c c4 1c 34 3d c6 b9 68 b8 1e 16 02 bd
       0.023488563 0.043972746 -5.5486125e-05 -0.031759374
0000c0 37 fd 13 3c 9d 0b 0a bd 96 52 37 bd 2b 6c 4b 3d
       0.009032539 -0.03370248 -0.044756494 0.049663704
0000d0 c5 03 0e bd df d2 e2 bb 30 fa e5 3b da 2b 4c 3d
       -0.034671564 -0.0069221104 0.00701835 0.049846508
0000e0 6f b0 79 3b a4 33 4c 3b bf c8 69 3d cb 55 83 ba
       0.0038099547 0.003115871 0.057076212 -0.0010020075
0000f0 92 df 57 3d 78 62 1a bd 46 5d 74 3d 1a 43 7f 3d
       0.052703448 -0.037691563 0.059659265 0.062319852
000100 80 18 c7 3b d9 c3 0e bd 87 9a 28 bd 26 46 0d bd
       0.0060759187 -0.034854744 -0.041162994 -0.034490727
000110 0c 5d 43 bd 33 a6 df 3c e4 08 c0 3c 2d 46 96 3c
       -0.04769616 0.02730093 0.02344174 0.01834401
000120 65 0c 90 3c ad 40 91 bb 96 96 05 3d 97 1d af bc
       0.017584035 -0.004432759 0.032614313 -0.021376414
000130 7c ad 70 3d e7 51 17 bd 28 40 25 bd 85 e9 74 bc
       0.058759198 -0.036943343 -0.040344387 -0.0149482535
000140 72 fb 23 3d 1f a7 92 bb 6c c0 2d bd 00 62 9e bc
       0.04003472 -0.004475489 -0.042419836 -0.01933384
000150 b8 8d 10 bd 07 12 b6 bc bf 90 2c bd 78 a6 67 3d
       -0.035291404 -0.022225393 -0.042130228 0.05655524
000160 a6 52 67 bd ba ca 8c 37 68 39 8a bc a9 68 09 3d
       -0.056475304 1.6783702e-05 -0.016873077 0.033547077
000170 52 94 37 bd 22 fa 08 3d 40 32 d7 3b e0 aa 21 3d
       -0.044819184 0.03344167 0.0065672696 0.0394696
000180 a7 9e d7 bc 40 fd 83 3b 68 92 45 3c 0a 9b e2 3c
       -0.026320769 0.0040279925 0.012058832 0.027661819
000190 6d d5 4c 3d db f8 cb bb 36 9f b1 3c b3 4d 9d 3c
       0.050008226 -0.0062247342 0.021682363 0.019202089
0001a0 93 83 4f bd 5f 83 b9 3c b4 28 7e bd de b8 f1 3c
       -0.05066259 0.02264565 -0.062050536 0.029507097
0001b0 29 86 c9 3c 93 fe 58 bc eb a3 12 3d dc db 64 3d
       0.024600105 -0.013244289 0.035800856 0.055873737
0001c0 29 95 42 bd 8c 5a 59 bd 86 44 68 bd 36 b7 83 3d
       -0.04750553 -0.053064868 -0.056705974 0.06431429
0001d0 eb 8c ac 3c ad ab 52 3c 05 01 75 3c 50 d8 e1 3c
       0.021063289 0.0128583135 0.014953856 0.027568966
0001e0 f2 71 92 3a 3e 76 64 bb 98 57 fd bc 12 9e 5b 3d
       0.0011172874 -0.0034860517 -0.030925557 0.053617544
0001f0 86 44 2a 3c d8 16 81 bc 53 b5 37 3c 0b ea f9 3c
       0.010392314 -0.015757963 0.011212665 0.030507108
000200 a7 cb 41 3c b2 80 20 3d 38 e3 2c bc 66 4e 62 bd
       0.01182834 0.039185233 -0.01055222 -0.055250548
000210 d5 ae 1e bd cf 1d 17 3b 9b 70 7e bd 91 a0 60 3c
       -0.03874095 0.0023058539 -0.062119108 0.013710157
000220 29 19 21 bd 3e 04 44 bd bf 50 5f bd 24 57 11 3d
       -0.039330635 -0.04785561 -0.054520365 0.035483494
000230 71 0c 5c 3d dd 92 14 3c 55 9d 43 bd dc 11 bf bb
       0.053722803 0.009068218 -0.047757465 -0.0058309864
000240 40 80 0b bd 3f 98 5e 3d 5d 5c 1c 3d c0 c9 ea bc
       -0.034057856 0.054344412 0.038174022 -0.028660655
000250 ec 7f 40 bd 59 e4 00 bd f2 99 ed 3b 8b 20 19 3d
       -0.046996996 -0.03146777 0.0072510177 0.03738455
000260 60 06 3e 3d 4c f8 77 3b 65 72 3e bd fd 1c 3a bd
       0.0463928 0.0037837205 -0.046495814 -0.0454378
000270 fd 09 1a bd 2f 9b 2b bd d9 07 96 3c 20 c0 e0 bb
       -0.03760718 -0.04189604 0.018314289 -0.0068588406
000280 c7 15 90 bc b1 f1 05 3d 2f f3 3b 3b a0 a2 51 bd
       -0.01758851 0.032701198 0.0028678884 -0.051180482
000290 f4 d2 58 3d f6 ad 86 3d 17 14 c9 3c fa 6d 6f 3c
       0.052935556 0.06576149 0.024545712 0.014613623
0002a0 8a b9 19 bd ed 2d 4c bd ad 62 5c 3d 68 6d 0b bd
       -0.03753046 -0.049848486 0.053805042 -0.034039885
0002b0 fd 2f 6e 3d 32 76 01 bd a2 79 e7 bc 17 2d 64 3c
       0.058151234 -0.03160686 -0.028256241 0.013926766
0002c0 6d 97 3f 3d 23 91 d7 39 0e 04 4c 3d e9 83 4f 3d
       0.04677527 0.0004111613 0.049808554 0.05066291
0002d0 20 17 eb bb 30 8f 3e bd ca ab 01 bd b2 8f 64 3c
       -0.0071743876 -0.046523273 -0.03165797 0.013950275
0002e0 30 20 b0 bb 32 d3 3f bd 6e 64 f1 3b 61 0b 81 bb
       -0.005374931 -0.04683227 0.0073667085 -0.003938124
0002f0 a0 48 8b bc 8d c3 34 bb 4e 19 ea 3c e4 fa 14 bb
       -0.017002404 -0.0027582378 0.02857652 -0.002273255
000300 12 fd 31 3d 70 49 ff 3c dc 94 b3 3c 7d da 1d 3c
       0.043454237 0.031162947 0.021921568 0.009634611
000310 98 ce 06 bd a5 85 10 3d e4 f6 a0 bb 76 b5 0a 3d
       -0.032911867 0.035283703 -0.004912244 0.03386446
000320 89 5d 94 3c 89 8f 4a bd 49 7e 02 bc a4 6c 81 3c
       0.018111007 -0.049453292 -0.007964679 0.015798874
000330 a4 55 4a 3d 98 e4 ae 3b 9a 24 7a 3d 90 7f d1 bc
       0.04939808 0.005337309 0.061070062 -0.025573522
000340 b8 77 5a bc 7b 34 0e bd 5f dc 4c 3c e6 cc f7 bc
       -0.013334207 -0.034718018 0.012503712 -0.03024907
000350 c0 da 35 bb 62 1e df 3c 39 8d 76 3d b0 97 5c 3b
       -0.0027748793 0.027236167 0.060193274 0.0033659749
000360 8c e0 6f 3d 63 24 ed bb 3a d2 e3 bc 22 60 73 bd
       0.058563754 -0.0072370037 -0.027810205 -0.05941785
000370 93 94 1e bd 0d fb 2c 3d 0d b2 57 3c 86 c9 62 bd
       -0.03871591 0.04223161 0.013165009 -0.05536797
000380 b9 06 42 bd c3 59 14 bd a7 1f 19 3d c1 43 dd 3b
       -0.047369692 -0.036218416 0.0373837 0.0067524617
000390 2c fd 18 bd dd d5 19 bd c5 d7 e9 bc 34 ea 0e 3c
       -0.03735082 -0.03755747 -0.02854527 0.008722831
0003a0 d0 67 7c bd 54 48 7a bd 21 7d 1a bd 27 d5 03 bd
       -0.06162244 -0.061104134 -0.03771699 -0.0321857
0003b0 74 dc f7 3c 98 b4 31 3d a4 b1 54 3d 74 73 04 3b
       0.030256487 0.04338512 0.051927224 0.0020210417
0003c0 ee 4c 40 bc f8 09 fe bc b4 34 19 bd 14 48 51 3b
       -0.0117370915 -0.031010613 -0.037403777 0.003193383
0003d0 a7 37 fc bc bd cc 5d 3c 98 0f 11 3b 84 04 3d 3d
       -0.030788256 0.013537583 0.0022134539 0.046146885
0003e0 40 a2 43 3c 51 18 73 3d 5d 21 28 3c 8a 0a 8e bc
       0.011940539 0.05934936 0.010261861 -0.01733901
0003f0 2c 26 d9 3b 2d 2f a8 3c eb cb 78 3c 8a 90 34 bd
       0.006626865 0.020530308 0.015185337 -0.044083156

σ.bias f4 [2]
000000 5a 68 d8 3c a1 88 48 bd
       0.026416946 -0.048958424
