model/p_level0.pth (torch, 278278 bytes, 10 tensors)

net.0.weight f4 [128, 13]
0	0x3d15f7e0	0.036613345
1	0xbe27faaa	-0.16404215
2	0xbe8d2a2c	-0.27571237
3	0xbdde690c	-0.1085988
4	0x3cd808d0	0.02637139
5	0x3d981d54	0.07427469
6	0x3b2bb680	0.0026201308
7	0x3e834851	0.2564111
8	0xbdbe1b82	-0.092825904
9	0x3e0a6936	0.13516697
10	0x3be82440	0.0070843995
11	0x3e6b27ca	0.22964397
12	0xbe4828a4	-0.19546753
13	0xbd814d4e	-0.06313573
14	0xbe36182e	-0.17782661
15	0x3df416a4	0.11918381
16	0x3e7b943e	0.24568269
17	0x3d4ba720	0.04971993
18	0xbe4c0beb	-0.19926421
19	0x3da016fc	0.07816884
20	0x3d3be070	0.045868337
21	0xbe1926e7	-0.14956246
22	0x3e74d04a	0.23907581
23	0x3d97baa4	0.07408646
24	0x3e8c5e2f	0.27415606
25	0xbe2e16fb	-0.17000954
26	0xbe3475a9	-0.17623009
27	0xbe78f877	-0.24313532
28	0xbd80ddaa	-0.06292279
29	0x3da56600	0.080760956
30	0xbd31e91c	-0.0434352
31	0x3e436f70	0.19085479
32	0xbe87de2e	-0.26536697
33	0xbc074b20	-0.008257657
34	0x3e1a9eba	0.15099612
35	0xbd63cd94	-0.055615976
36	0x3e849861	0.25897506
37	0x3e1378a4	0.1440149
38	0x3ce5d260	0.028054416
39	0xbd278f74	-0.040908292
40	0xbd86c11a	-0.065798
41	0xbe694305	-0.22779472
42	0xbe717fee	-0.23583958
43	0xbe77c3c4	-0.24195772
44	0x3e606d7e	0.21916768
45	0x3e6166cc	0.2201187
46	0xbc99aae0	-0.018758237
47	0x3e160250	0.1464932
48	0xbdb3b8d8	-0.087754905
49	0x3daadb64	0.08342627
50	0xbe33c511	-0.17555644
51	0x3e1d51cc	0.15363234
52	0xbd8af148	-0.06784302
53	0x3c2197e0	0.00986287
54	0x3e548cec	0.20756882
55	0x3e4d913e	0.20074937
56	0x3e132816	0.1437076
57	0xba88ef00	-0.0010447204
58	0xbd2b40bc	-0.041809782
59	0xbe60d17e	-0.21954915
60	0xbe152091	-0.14563204
61	0xbe8665ed	-0.26249638
62	0xbe5b3ec6	-0.21410665
63	0x3d985c24	0.074394494
64	0xbe2caeb6	-0.16863522
65	0x3e68f63e	0.22750184
66	0xbdc430b8	-0.09579605
67	0x3e8cd8c3	0.27509126
68	0x3dee84ec	0.116464466
69	0xbe82c125	-0.25537983
70	0xbc4114e0	-0.011784762
71	0xbe8c695e	-0.2742414
72	0x3dc41174	0.095736414
73	0xbe2ce9e8	-0.16886103
74	0xbe8b4ba5	-0.2720615
75	0xbe8004b4	-0.25003588
76	0xbd450554	-0.048100784
77	0x3cb878c0	0.022518516
78	0xbdf870de	-0.12130903
79	0xbc88bfc0	-0.016692996
80	0x3dde8038	0.108642995
81	0xbe46bf59	-0.19408931
82	0xbe13eed7	-0.14446579
83	0xbe0b5594	-0.13606864
84	0x3d822898	0.06355399
85	0xbdd0c528	-0.101938546
86	0xbe2721be	-0.16321465
87	0xbca7a950	-0.020466477
88	0x3e303dd2	0.17211083
89	0xbe3c80d2	-0.18408516
90	0xbde2a010	-0.11065686
91	0x3e7753be	0.24153039
92	0x3e717b4a	0.23582187
93	0xbdbf220e	-0.09332667
94	0x3dd436c0	0.10362005
95	0x3e5da400	0.21644592
96	0xbe869035	-0.26281896
97	0xbcc0a900	-0.023518085
98	0x3ddbacc4	0.10726312
99	0x3e6588c6	0.22415456
100	0xbe334c2b	-0.17509525
101	0x3e818251	0.25294736
102	0x3e3b17b4	0.18270761
103	0x3dde16b4	0.10844174
104	0xbc31fb80	-0.010863185
105	0x3e8c61df	0.2741842
106	0x3d8cbce4	0.068719655
107	0x3c95a1d0	0.018265635
108	0x3e0bc160	0.13647985
109	0xbdcf3b5a	-0.10118742
110	0x3e7ad996	0.24497065
111	0xbe7fe4d4	-0.24989635
112	0xbdb45c04	-0.08806613
113	0x3d643b40	0.055720568
114	0xbde30266	-0.11084442
115	0x3e05393e	0.13010117
116	0xbdc27dce	-0.094966516
117	0x3e3ab97a	0.18234816
118	0xbe31aee0	-0.17351866
119	0x3e75b842	0.2399607
120	0x3d7d7578	0.061879605
121	0x3def4d40	0.11684656
122	0xbc169f60	-0.009193271
123	0xbe5fc0af	-0.21850847
124	0xbdbfe30a	-0.09369476
125	0xbe105ff8	-0.14099109
126	0xbe1dd428	-0.15412962
127	0x3dbcbab4	0.09215298
128	0x3e76e78e	0.24111769
129	0xbe873007	-0.2640383
130	0xbe68055e	-0.22658297
131	0xbe1c93ff	-0.15290831
132	0xbd353288	-0.044237643
133	0xbd2d2ce4	-0.04227914
134	0x3e1ca292	0.1529639
135	0x3e06e86a	0.13174596
136	0xbd7546b4	-0.05988188
137	0xbd960666	-0.07325439
138	0xbda08862	-0.07838513
139	0x3e4b0634	0.19826585
140	0x3d760b08	0.060069114
141	0x3da84abc	0.082173795
142	0xbdd424ea	-0.10358603
143	0x3e0e1bfe	0.13877866
144	0xbe5a1d16	-0.21300158
145	0x3e10ff8c	0.14159983
146	0x3e16fb16	0.14744219
147	0xbd29eb7c	-0.04148434
148	0xbe89dcd6	-0.26926297
149	0x3cd61fc0	0.026138186
150	0x3e8ab13d	0.27088347
151	0xbe8747d7	-0.26421997
152	0xbe1a3182	-0.15057948
153	0x3e69716e	0.22797176
154	0xbe1b976f	-0.15194486
155	0xbe0abd72	-0.1354883
156	0xbd7cd21c	-0.061723813
157	0x3e332450	0.17494321
158	0xbe0df1b5	-0.13861735
159	0xbd751254	-0.059831932
160	0x3dcc9d14	0.09990898
161	0xbe089fff	-0.13342284
162	0xbe3770a8	-0.17914069
163	0x3e14ef5a	0.1454443
164	0xbe68bf18	-0.22729146
165	0x3d1bba58	0.038019508
166	0x3d546970	0.051858366
167	0x3d9737b8	0.073836744
168	0xbdacd792	-0.08439554
169	0x3de6fa1c	0.11278173
170	0xbc8bc230	-0.01706037
171	0xbe3c3521	-0.18379642
172	0xbe6c3950	-0.23068738
173	0xbe2015e6	-0.15633354
174	0xbd978630	-0.07398641
175	0xbe121989	-0.14267553
176	0xbe21ba64	-0.15793759
177	0xbe4fc2fe	-0.20289227
178	0x3e6bba5e	0.23020312
179	0xbce06410	-0.027391464
180	0xbd0c7ab4	-0.034296706
181	0x3e0a36ea	0.1349751
182	0xbdf0f60a	-0.11765678
183	0xbca32200	-0.019913673
184	0xbe03a8d7	-0.12857376
185	0x3e867e01	0.26268008
186	0x3e105082	0.14093211
187	0xbcccf140	-0.02501738
188	0xbe413945	-0.18869503
189	0xbd1b5904	-0.03792669
190	0xbe567628	-0.2094351
191	0xbdd01baa	-0.101615265
192	0x3da6ce80	0.081448555
193	0x3e5866d4	0.21132976
194	0x3e0f0aac	0.13968915
195	0x3d256dc0	0.04038787
196	0xbd23dea8	-0.040007263
197	0xbe159a4c	-0.14609641
198	0x3d3ebe68	0.046568304
199	0x3e699bd2	0.22813347
200	0x3df2ec90	0.11861527
201	0xbdac3c2e	-0.08409916
202	0xbdf78722	-0.120863214
203	0xbe8a916a	-0.27064067
204	0x3e22e686	0.1590825
205	0x3de1c9e4	0.11024836
206	0x3cc68f30	0.024238199
207	0xbe6fd274	-0.23420125
208	0xbe61d211	-0.2205279
209	0xbe8c1fc4	-0.27367985
210	0x3e8b27cb	0.27178797
211	0x3e7e52f6	0.24836335
212	0x3d1fede0	0.039045215
213	0xbe5768d2	-0.2103608
214	0x3e3c0854	0.18362552
215	0xbdbca8dc	-0.09211895
216	0x3e11bee6	0.14232978
217	0xbe867e74	-0.2626835
218	0xbe27b330	-0.16376948
219	0xbd8b7a28	-0.06810409
220	0xbd535108	-0.05159095
221	0xbe882b3c	-0.26595485
222	0x3e4a30b0	0.19745135
223	0x3d8bbf18	0.068235576
224	0xbe6eceac	-0.23321027
225	0x3e5c4d88	0.21513951
226	0x3deaaafc	0.11458394
227	0x3d6c6af8	0.0577192
228	0x3e5ddac6	0.21665487
229	0x3e02512a	0.12726274
230	0x3da94c4c	0.082665056
231	0xbc73c320	-0.014878064
232	0xbd967482	-0.07346441
233	0x3bdf2f40	0.0068110526
234	0xbd970a0e	-0.07374965
235	0x3d1b6c90	0.03794533
236	0xbe1a8b98	-0.15092313
237	0xbc59aec0	-0.013286293
238	0x3d20fb30	0.03930205
239	0x3e747826	0.23873958
240	0xbc9c4040	-0.019073606
241	0x3c650c40	0.013979971
242	0xbcf8c7e8	-0.03036876
243	0xbe7bcd5d	-0.24590059
244	0xbe43e916	-0.19131884
245	0x3d72f020	0.059311032
246	0x3c415320	0.011799604
247	0xbdc1ddfa	-0.09466167
248	0x3d2c85a8	0.042119652
249	0x3e26cc3e	0.1628885
250	0x3b93c7c0	0.004509896
251	0xbe804c62	-0.25058275
252	0xbe845947	-0.25849363
253	0x3d84e36c	0.0648869
254	0x3e0fea26	0.14054164
255	0x3e59b64a	0.21260944

net.0.bias f4 [128]
0	0x3e55b590	0.20870042
1	0xbd15333c	-0.036425814
2	0xbe7ad65b	-0.24495833
3	0x3e0cf4ca	0.13765255
4	0x3e61d61c	0.22054332
5	0x3d0d9590	0.034566462
6	0xbcbd3a20	-0.023099005
7	0xbcb5c560	-0.022188842
8	0xbe277960	-0.16354895
9	0xbd907692	-0.070538655
10	0x3cd04170	0.025421828
11	0x3e2d5306	0.16926202
12	0xbe60ceac	-0.21953839
13	0xbe672ace	-0.22574922
14	0xbdf3e694	-0.11909214
15	0x3de3c638	0.111217916
16	0x3e8d95bd	0.27653304
17	0x3e411a02	0.18857577
18	0xbe8302b1	-0.2558799
19	0x3e028ca0	0.12748957
20	0x3e608eb6	0.2192944
21	0xbcf20fd8	-0.02954857
22	0x3dcd7110	0.100313306
23	0xbe7cc014	-0.24682647
24	0xbe3217a6	-0.17391834
25	0xbce3d2b8	-0.02781044
26	0xbc9356a0	-0.017985642
27	0x3d3b3890	0.04570824
28	0xbe8c63a6	-0.27419776
29	0x3e5485f2	0.20754221
30	0xbc7dae80	-0.015483499
31	0xbe61c300	-0.22047043
32	0xbda6f104	-0.08151439
33	0x3d8742ac	0.066045135
34	0xbdaf7b16	-0.08568399
35	0xbe40c21f	-0.18824051
36	0xbd87f5ea	-0.06638701
37	0xbe2fef1c	-0.17181057
38	0x3e368c2c	0.17826909
39	0x3e5b1c5e	0.2139754
40	0x3e7d9996	0.2476562
41	0xbe5fd434	-0.21858293
42	0xbe6d39bf	-0.2316656
43	0xbe82862a	-0.25492984
44	0xbe27f2b1	-0.16401173
45	0xbe0e12fb	-0.13874428
46	0xbd482f80	-0.048873425
47	0xbe080cc0	-0.13286114
48	0xbe84f8e8	-0.2597115
49	0x3d1fcc60	0.039013267
50	0xbe7c3a0d	-0.2463152
51	0x3e0ecf6a	0.1394631
52	0xbde2d2be	-0.11075352
53	0xbe5b1030	-0.21392894
54	0xbe0066b6	-0.12539181
55	0xbe857a3d	-0.26069823
56	0xbe3709af	-0.17874788
57	0x3e1ed87e	0.15512273
58	0xbd9fe898	-0.078080356
59	0xbe31ff4a	-0.17382541
60	0x3e84722f	0.25868365
61	0xbd145af0	-0.036219537
62	0x3bedfd00	0.007262826
63	0xbc340600	-0.010987759
64	0xbe1394ac	-0.14412183
65	0x3e600a20	0.21878862
66	0x3c44bbe0	0.0120076835
67	0x3e64d4a2	0.22346738
68	0xbe836ca9	-0.2566884
69	0xbe30d98e	-0.1727049
70	0xbe16d967	-0.1473137
71	0x3e8667db	0.2625111
72	0xbe627da9	-0.22118248
73	0xbd6e822c	-0.05822961
74	0x3d89a374	0.06720629
75	0x3e78a65e	0.24282214
76	0xbdb58e28	-0.08865005
77	0x3e71351e	0.23555419
78	0x3e311190	0.17291856
79	0x3c6d0d80	0.014468551
80	0xbdda48c6	-0.10658412
81	0x3cbf32d0	0.023339659
82	0xbe842c7d	-0.25815192
83	0xbe4f1bcc	-0.20225447
84	0x3deaeb30	0.1147064
85	0x3d361918	0.044457525
86	0x3e0c2416	0.1368564
87	0xbe4e9b88	-0.20176518
88	0x3e82c317	0.25539467
89	0xbd24d6c8	-0.040243894
90	0x3c9a8260	0.018860996
91	0x3e6d727a	0.231882
92	0x3e86a8dd	0.26300707
93	0xbe7d7a9b	-0.24753802
94	0xbd81d3d6	-0.063392326
95	0xbe7e30d1	-0.2482331
96	0x3d9d1514	0.07670036
97	0x3e184f8a	0.14874092
98	0x3e722d32	0.23650053
99	0xbe2d80d6	-0.16943678
100	0xbe2397fe	-0.15975949
101	0xbe137fe6	-0.14404258
102	0xbe215c24	-0.15757805
103	0x3e5e6da2	0.21721509
104	0xbd9ccf22	-0.07656695
105	0x3c8dbe50	0.017302662
106	0x3e10b4a4	0.14131409
107	0x3e6f0cc2	0.2334471
108	0xbe040774	-0.12893468
109	0x3e0c04f8	0.1367377
110	0x3e87f149	0.26551273
111	0xbe3e18e8	-0.18564188
112	0xbe872bb6	-0.26400536
113	0xbe612722	-0.21987584
114	0x3e737f9a	0.23779145
115	0xbe45688b	-0.19278161
116	0xbe8635f5	-0.2621304
117	0x3d129e58	0.03579554
118	0x3dde9988	0.108691275
119	0x3e608d90	0.21929002
120	0x3e8caf3f	0.27477452
121	0xbdfbc704	-0.122938186
122	0xbe0d784a	-0.13815418
123	0x3e0f2918	0.1398052
124	0xbe06cb63	-0.13163523
125	0xbda51e40	-0.0806241
126	0x3cba1cc0	0.022718787
127	0x3df6db60	0.12053561

net.2.weight f4 [128, 128]
0	0xbd8db0d1	-0.06918491
1	0x3d43a13e	0.047761194
2	0x3d1af6da	0.037833072
3	0xbd8cc0ec	-0.068727344
4	0xbd250095	-0.04028376
5	0x3d69ebfa	0.05710981
6	0x3da7ab95	0.081870236
7	0xbda975aa	-0.08274396
8	0x3d890b47	0.06691604
9	0x3d6c6152	0.05771
10	0xbd6cc09e	-0.05780088
11	0xb9bbf000	-0.00035846233
12	0xbd934404	-0.07190707
13	0xbd8144e6	-0.063119695
14	0xbd861c0c	-0.06548318
15	0x3d5d0cae	0.05396717
16	0xbcfb9146	-0.03070892
17	0xbdb16db7	-0.086635046
18	0x3d08e6d8	0.033423275
19	0x3cde0ffc	0.027107231
20	0xbcbb54d8	-0.022867605
21	0x3d78a7da	0.06070695
22	0xbd9c5482	-0.07633306
23	0xbc80cab0	-0.015721649
24	0x3cb2eee8	0.021842435
25	0xbd91e5e6	-0.07123928
26	0xbd63f974	-0.05565782
27	0xbd244e2e	-0.04011362
28	0xbd590495	-0.052982885
29	0xbd9bc411	-0.07605756
30	0xbd5ce4ad	-0.05392902
31	0xbcc34c9c	-0.023840241
32	0xbd823d51	-0.063593514
33	0xbdb34ab3	-0.08754482
34	0x3d27db3a	0.040980555
35	0xbc7c8060	-0.015411466
36	0xbd09afbf	-0.03361487
37	0xbcf01de0	-0.02931112
38	0xbc481110	-0.012211099
39	0x3db24a5b	0.087055884
40	0x3c017b08	0.007902868
41	0x3d73668e	0.059423976
42	0xbc9ebf9c	-0.019378476
43	0x3d9a5d85	0.07537369
44	0xbd2edc44	-0.04269053
45	0x3d1bb31e	0.038012616
46	0xbd1f94a1	-0.038960103
47	0x3d07145c	0.0329784
48	0x3c27b728	0.010236539
49	0xbdb25c01	-0.087089546
50	0x3d319a22	0.043359883
51	0x3d105ce4	0.035244837
52	0xbd25090e	-0.04029184
53	0x3dad9117	0.08474939
54	0x3cd99338	0.026559457
55	0xbd9effae	-0.07763611
56	0x3bf7b360	0.007559225
57	0xbd19fd9f	-0.037595388
58	0x3daf7caf	0.085687034
59	0x3d00f058	0.03147921
60	0x39ea5b00	0.00044699758
61	0x3c9bfce0	0.019041479
62	0x3d87bd0b	0.06627854
63	0xbc52e248	-0.0128713325
64	0x3d971401	0.07376862
65	0x3d3af8ee	0.045647554
66	0xbd448029	-0.047973786
67	0xbdab4b58	-0.0836398
68	0x3d84b957	0.06480663
69	0xbcc1e3a0	-0.02366811
70	0x3daa5935	0.08317796
71	0x3c52fa18	0.01287701
72	0xbca16eec	-0.019706212
73	0xbd6135e0	-0.05498302
74	0xbda1c9e0	-0.07899833
75	0x3db11b8d	0.08647833
76	0xbd340864	-0.043953314
77	0xbac10e40	-0.0014728978
78	0x3d95d46d	0.073159076
79	0xbd5d372a	-0.054007687
80	0x3d23ad1a	0.039960004
81	0x3d9d4b1f	0.07680344
82	0x3d7e82f6	0.062136613
83	0x3db3ded7	0.08782738
84	0x3cd925ec	0.02650734
85	0x3d099b62	0.03359545
86	0xbc59a2c0	-0.0132834315
87	0xbd3ca351	-0.04605419
88	0xbda7f2aa	-0.08200581
89	0x3da70d97	0.08156889
90	0x3d6b29d2	0.05741293
91	0x3d9c698d	0.0763732
92	0xbda83763	-0.08213689
93	0x3c889410	0.016672164
94	0x3d83afc3	0.06430008
95	0x3d25f01e	0.040512197
96	0x3bcca9e0	0.0062458366
97	0xbd8300df	-0.063966505
98	0x3da5a9bb	0.08089014
99	0x3a804540	0.0009786263
100	0x3c88b020	0.016685545
101	0x3d75405a	0.059875824
102	0x3c373118	0.011181138
103	0xbd61ee87	-0.055159118
104	0xbd48719c	-0.04893647
105	0xbd7245ed	-0.059148718
106	0x3c852f48	0.016257897
107	0x3d81808d	0.06323347
108	0xbd2acb57	-0.041697826
109	0x3ccfa1ec	0.025345765
110	0xbcf2b7e8	-0.029628709
111	0x3cda65bc	0.026659839
112	0xbbba6220	-0.005687967
113	0xbd9b826e	-0.07593237
114	0x3dadb30f	0.08481418
115	0xbc3cd538	-0.011525445
116	0xbd30e14e	-0.043183617
117	0xbacd5d00	-0.0015667975
118	0xbdab39f9	-0.08360667
119	0x3d962b65	0.073324956
120	0xbd548bc1	-0.051891092
121	0x3d2b846e	0.04187434
122	0x3d5e0e32	0.054212756
123	0x3d6bcd1a	0.057568647
124	0xbc361f00	-0.011115789
125	0xbcbbd13c	-0.02292692
126	0xbda0fcf6	-0.078607485
127	0x3c9d323c	0.019188993
128	0x3cc7740c	0.024347328
129	0x3d847e11	0.06469358
130	0x3d5a9bea	0.053371347
131	0x3d4e1bc6	0.050319456
132	0x3d714c32	0.058910556
133	0x3ca6ba4c	0.020352505
134	0xbcf3d3be	-0.029764052
135	0x3cae5424	0.021280356
136	0x3cbb9098	0.022896096
137	0xbcd403f4	-0.025880791
138	0xbd9f799e	-0.077868685
139	0x3c8ed8c8	0.017437354
140	0x3d84c679	0.06483168
141	0x3d41112e	0.047135524
142	0x3dac06c5	0.08399729
143	0x3d8ccbf3	0.06874838
144	0xbd559ed5	-0.052153427
145	0xbc9a430c	-0.018830799
146	0x3d41916e	0.047257833
147	0x3b967120	0.0045911223
148	0xbcc3f34c	-0.023919724
149	0x3c8609e8	0.016362146
150	0xbd87d206	-0.06631856
151	0xbd151a2d	-0.036401916
152	0x3d6f21fa	0.058382012
153	0xbc5d3f28	-0.013503827
154	0xbc9cd41c	-0.01914411
155	0x3d992571	0.074778445
156	0xbd8dfb73	-0.06932726
157	0xbd86ac0e	-0.065757856
158	0x3c23d108	0.009998567
159	0xbd977152	-0.07394661
160	0xbda5f455	-0.08103243
161	0x3d1514d2	0.03639681
162	0xbd9b0a86	-0.075703666
163	0x3db20947	0.08693176
164	0xbbcde460	-0.006283328
165	0xbd86ca53	-0.06581559
166	0xbd348a2b	-0.04407708
167	0x3cbe7b70	0.023252219
168	0x3d9b2fd3	0.07577481
169	0x3d76ed26	0.060284756
170	0x3dabb6d3	0.0838448
171	0xbda97e22	-0.08276011
172	0xbd5b7753	-0.053580593
173	0x3d8b922b	0.06814989
174	0x3c6a9588	0.014317878
175	0xbda46b4b	-0.08028277
176	0x3c86d1c4	0.016457446
177	0xbc8b7d54	-0.017027535
178	0xbd20fd60	-0.039304137
179	0x3d9e8d17	0.077417545
180	0xbd25824a	-0.040407456
181	0x3d48402a	0.048889317
182	0x3d2d927e	0.042376034
183	0x3cb50460	0.022096813
184	0x3daf605f	0.08563303
185	0x3d082f84	0.03324844
186	0xbc7f2648	-0.015573092
187	0xbd156685	-0.036474723
188	0x3c390158	0.011291824
189	0xbd8ad56b	-0.067789875
190	0xbc36b0f8	-0.011150591
191	0x3d4c1386	0.049823307
192	0x3d9db409	0.077003546
193	0x3c5a6440	0.0133295655
194	0xbd9255b8	-0.07145256
195	0x3d8d5b1d	0.06902144
196	0x3d36014e	0.044434838
197	0xbd715efa	-0.058928467
198	0x3d2cbd52	0.042172737
199	0xbd5e9f50	-0.05435115
200	0xbc5eb8d8	-0.013593875
201	0x3c95f3c4	0.018304713
202	0x3cf3f7f4	0.02978132
203	0xbccafa90	-0.02477768
204	0x3d726a1e	0.059183232
205	0x3d36791a	0.044549085
206	0xbc990530	-0.018679231
207	0xbda4ae41	-0.08041049
208	0x3da15071	0.07876671
209	0xbd7a5b54	-0.061122254
210	0xbca99180	-0.020699263
211	0xbd249d60	-0.040189147
212	0xbda5eda2	-0.081019655
213	0x3d27760e	0.04088407
214	0x3d8e1f53	0.06939568
215	0x3bcba750	0.0062150136
216	0x3ce421f4	0.027848221
217	0x3d8e6ac7	0.0695396
218	0xbd81731f	-0.06320786
219	0xbd511d30	-0.051053226
220	0x3c8d090c	0.017216228
221	0xbd0fd625	-0.035116334
222	0x3da022a9	0.07819111
223	0xbd9c412c	-0.07629618
224	0xbd47087d	-0.04859208
225	0x3d8428cd	0.06453095
226	0xbcbb5bcc	-0.02287092
227	0x3cf6570c	0.030070804
228	0x3d2dfc9a	0.042477228
229	0x3cdbcb58	0.02683036
230	0xbd86f2a4	-0.06589249
231	0x3d91216f	0.07086455
232	0x3d0c1d02	0.03420735
233	0xbd498bf2	-0.049205728
234	0x3cc76200	0.024338722
235	0x3d724f7a	0.059157826
236	0xbd44aad2	-0.04801447
237	0x3d84aba5	0.06478051
238	0xbca88968	-0.020573333
239	0xbd01865c	-0.031622276
240	0xbdb06b62	-0.08614232
241	0x3db32a53	0.08748307
242	0x3ce5c5e0	0.028048456
243	0xbd4721cd	-0.04861622
244	0xbc42b438	-0.011883788
245	0xbd4ad93a	-0.04952357
246	0x3d72291a	0.05912123
247	0xbda9bcab	-0.08287939
248	0x3d4fc096	0.050720774
249	0x3d79c90a	0.06098274
250	0x3cbeacf4	0.02327583
251	0x3d4676fe	0.048453324
252	0x3d2fcd82	0.042920597
253	0x3d2884ca	0.041142263
254	0xbd84c6bd	-0.06483219
255	0xbdae79ba	-0.08519311

net.2.bias f4 [128]
0	0x3ca0bfe8	0.019622758
1	0x3d85b13d	0.06527946
2	0x3dafa971	0.0857724
3	0xbd9a1871	-0.07524193
4	0x3d5d745e	0.054066055
5	0xbcae15d4	-0.021250643
6	0xbc117568	-0.0088780895
7	0xbd74cdfa	-0.059766747
8	0xbd2e6a42	-0.042581804
9	0x3c953f48	0.018218651
10	0x3d577a1a	0.05260668
11	0x3ce20ca4	0.027593918
12	0x3c053880	0.008131146
13	0x3d6d1122	0.057877667
14	0x3c4a61d8	0.012352429
15	0xbd9897f4	-0.07450858
16	0xbd4aadb2	-0.049482055
17	0xbd35ff60	-0.044432998
18	0xbd8d2e04	-0.068935424
19	0xbc469d30	-0.012122437
20	0xbd77450c	-0.060368583
21	0x3bf02720	0.007328883
22	0xbc670ae0	-0.014101714
23	0x3d0e381e	0.034721486
24	0x3d7622be	0.060091726
25	0xbd59e9e5	-0.053201575
26	0xbc0d0170	-0.0086063
27	0x3ab90240	0.001411505
28	0x3cc47c94	0.023985185
29	0x3ce6c108	0.028168216
30	0x3d9753fb	0.07389065
31	0xbbabb290	-0.005239792
32	0x3d7cc906	0.06171515
33	0xbd978464	-0.073982984
34	0xbc0e4de8	-0.0086855665
35	0xbd5436cb	-0.051810067
36	0x3d074910	0.033028662
37	0xbc8e45b8	-0.017367229
38	0xbd5dbac9	-0.05413321
39	0x3d79c7b6	0.060981475
40	0xbd6ce22a	-0.057832874
41	0xbd19d214	-0.03755386
42	0x3d99a895	0.075028576
43	0xbc8a68f8	-0.016895756
44	0x3d859a8f	0.0652362
45	0x3c61dee8	0.013786055
46	0x3cc666e0	0.024218976
47	0xbd456e69	-0.048201
48	0x3d510d92	0.051038332
49	0xbcd50ef2	-0.026008103
50	0xbb8832a0	-0.0041564256
51	0xbc78ed60	-0.015193313
52	0xbb8131b0	-0.003942691
53	0xbcbc216c	-0.022965156
54	0x3ce8b54c	0.028406762
55	0xbd625ecd	-0.05526619
56	0x3d97a50f	0.07404529
57	0x3d86bd01	0.065790184
58	0xbd71963c	-0.058981165
59	0x3cbb7450	0.02288261
60	0xbd3d1bb9	-0.046169017
61	0xbd1f5dbb	-0.038907748
62	0x3c9ca324	0.01912076
63	0x3d9802a3	0.07422378
64	0xbcb65308	-0.02225639
65	0x3d1bd2ce	0.038042836
66	0x3c08ba68	0.008345224
67	0x3d42b59e	0.047536485
68	0xbdb372ce	-0.08762132
69	0xbda61629	-0.081096955
70	0xbd9675ff	-0.07346725
71	0xbc4b8530	-0.012421891
72	0xbd2c9d31	-0.042142097
73	0x3cb4d520	0.022074282
74	0xbd9b79ad	-0.07591567
75	0xbda7fa1a	-0.08202
76	0xbd6b8118	-0.05749616
77	0x3d3781fe	0.044801705
78	0xbd1e9b11	-0.0387221
79	0xba0a0f80	-0.0005266592
80	0x3d9b0225	0.075687684
81	0xbdb34c0d	-0.0875474
82	0xbcda52e4	-0.026650853
83	0x3d8ada8f	0.06779968
84	0x3cf42170	0.0298011
85	0x3d634e52	0.055494614
86	0x3d98e38d	0.07465277
87	0x3cc323ac	0.02382072
88	0xbd9f8eb2	-0.07790889
89	0x3d7fd4da	0.06245885
90	0xbd85d950	-0.0653559
91	0x3d6f55de	0.0584315
92	0xbcaef9a4	-0.021359272
93	0xbd604f1d	-0.05476295
94	0x3d608d5e	0.05482232
95	0x3c2abad0	0.010420516
96	0xbbc1f480	-0.0059190392
97	0xbd61b4d8	-0.055104107
98	0x3d99f961	0.075182684
99	0xbc1d5a68	-0.009604074
100	0x3cf0e894	0.029407777
101	0xba99c6c0	-0.0011732206
102	0xbd65e89b	-0.056130033
103	0x3d873893	0.066025876
104	0xbd82158e	-0.063517675
105	0x3d57d036	0.0526888
106	0xbd5740dd	-0.052552093
107	0x3d430b3a	0.04761813
108	0x3db1e649	0.086865015
109	0xbd0f7b53	-0.03502972
110	0xbd3a2864	-0.045448676
111	0xbccae650	-0.024768025
112	0xbbf18b30	-0.007371329
113	0x3cf3ab9c	0.029744916
114	0x3c2ac718	0.010423444
115	0xbcdff152	-0.02733675
116	0xbd96e2b4	-0.07367459
117	0xbd0274e2	-0.03184975
118	0x3a3b6000	0.0007147789
119	0x3d884547	0.066538386
120	0xbd56db5f	-0.052455302
121	0xbd0ee940	-0.034890413
122	0xbc9bb2fc	-0.019006245
123	0x3da7cee5	0.08193759
124	0x3c7034e8	0.014661051
125	0x3cc79eb8	0.024367675
126	0xbd5c43d2	-0.053775616
127	0xbcca8ddc	-0.024725847

net.4.weight f4 [128, 128]
0	0xbd8cf852	-0.06883301
1	0x3d45f7ee	0.048332147
2	0xbc6ee558	-0.014581047
3	0xbd8c8ead	-0.06863151
4	0xbd5cca3a	-0.053903796
5	0xbd5d1983	-0.053979408
6	0xbd975e04	-0.07390979
7	0x3cf25460	0.029581249
8	0x3d8ee663	0.069775365
9	0xbd9f8f04	-0.0779095
10	0xbd6ba706	-0.057532333
11	0x3cbf5488	0.023355737
12	0x3da3f435	0.08005563
13	0xbc6f9498	-0.01462283
14	0xbd913c1f	-0.07091545
15	0x3da66f21	0.08126665
16	0xbd9b777e	-0.07591151
17	0xbc991df4	-0.01869104
18	0x3cd0742c	0.02544602
19	0x3d959e65	0.07305602
20	0x3ca1c2b8	0.01974617
21	0x3d97505d	0.07388375
22	0x3c3633d8	0.011120759
23	0x3d8cf3a9	0.06882412
24	0x3da51333	0.080603026
25	0xbd8217ca	-0.06352194
26	0xbd9df7f9	-0.07713313
27	0xbc775100	-0.0150949955
28	0x3a92a680	0.0011188537
29	0x3d33ea12	0.0439244
30	0x3d34e52e	0.044163875
31	0x3da2dfd5	0.07952849
32	0x3d05bae0	0.03264892
33	0xbceed802	-0.029155735
34	0xbda3b539	-0.0799355
35	0xbcf4e23a	-0.02989303
36	0xbd58d1ea	-0.052934565
37	0x3d41cf2e	0.047316723
38	0xbcfb840a	-0.03070261
39	0xbd11b461	-0.035572413
40	0x3d2e176e	0.042502813
41	0x3da78fcb	0.08181723
42	0x3d922c15	0.07137314
43	0xbd9da77a	-0.07697959
44	0x3d965c11	0.07341779
45	0x3d1b2d66	0.037885092
46	0xbd82d42e	-0.06388126
47	0x3d686e36	0.05674573
48	0x3d7896ce	0.060690694
49	0xbce4c7e8	-0.027927354
50	0x3d3024f6	0.043004
51	0x3cd0bb64	0.02547998
52	0xbc82be70	-0.015959948
53	0x3d365b56	0.0445207
54	0x3d45385e	0.04814946
55	0xbd6e79ff	-0.058221813
56	0xbdab3ab0	-0.08360803
57	0x3cea2188	0.028580442
58	0xbca44cc8	-0.020056143
59	0xbd49d74c	-0.04927759
60	0xbd9a019f	-0.075198404
61	0x3bc92fd0	0.006139733
62	0x3cbc1b78	0.022962317
63	0x3d824595	0.06360928
64	0xbdb4990a	-0.088182524
65	0xbce589a2	-0.02801973
66	0x3cb82944	0.022480614
67	0x3d94ae61	0.07259823
68	0xbda06983	-0.07832625
69	0x3c338f58	0.010959469
70	0xbd0c5ae7	-0.03426638
71	0xbc422260	-0.011849016
72	0xbc8463a0	-0.016160786
73	0xbb7889e0	-0.0037923977
74	0x3d1ad8d6	0.037804447
75	0xbced1f1a	-0.028945494
76	0x3c8950bc	0.01676213
77	0xbd27a18c	-0.040925547
78	0x3d7e995e	0.06215798
79	0x3da2ef1b	0.07955762
80	0xbdb323b2	-0.08747043
81	0x3c971fe4	0.018447824
82	0x3d89a2d9	0.06720514
83	0xbd4119bc	-0.047143683
84	0xbd812328	-0.06305534
85	0x3d5d2956	0.0539945
86	0xbda1c4cd	-0.07898865
87	0x3cf55d38	0.029951677
88	0x3c804ca0	0.015661538
89	0xbc802c04	-0.015645988
90	0xbd5522c7	-0.05203512
91	0xbd5652c2	-0.052325018
92	0xbd119928	-0.03554645
93	0x3d2bfb72	0.041987844
94	0x3d68b00a	0.05680851
95	0xbb99b8b0	-0.004691206
96	0xbd336d6a	-0.043805517
97	0x3a99e080	0.001173988
98	0xbda6a3d6	-0.08136718
99	0x3c55d8b0	0.013052151
100	0xbd75ed3a	-0.06004069
101	0x3cf29aac	0.029614769
102	0xbd3ea8be	-0.046547644
103	0xbcee4f1e	-0.02909046
104	0xbda26548	-0.07929474
105	0xbd91a96e	-0.07112394
106	0xbd98b062	-0.07455517
107	0x3c0f3810	0.008741394
108	0x3d8245b9	0.06360955
109	0x3d2a6e46	0.04160907
110	0x3c97a27c	0.018510096
111	0xbd4a9448	-0.04945782
112	0x3d422ae2	0.047404177
113	0x3d9c8f7d	0.07644556
114	0x3db37b91	0.08763803
115	0x3d69ac52	0.057049103
116	0xbd7c34e7	-0.06157389
117	0xbd7020dc	-0.058625087
118	0xbc7ab2f8	-0.015301459
119	0xbd2425b3	-0.040075015
120	0xbd3db20a	-0.04631237
121	0x3d28797a	0.041131474
122	0xbcc226f0	-0.023700207
123	0xbdb35413	-0.0875627
124	0xbd034655	-0.032049496
125	0x3d4ed9f6	0.050500832
126	0x3d9941dd	0.074832655
127	0x3dafc7b7	0.085830145
128	0xbd5830c0	-0.052780867
129	0x3d65d352	0.056109734
130	0xbce6edd6	-0.02818958
131	0x3daa8291	0.08325685
132	0xbd053a31	-0.0325262
133	0xbd79d3d2	-0.060993023
134	0xbd6a3cff	-0.057187077
135	0x3bed78d0	0.007247068
136	0x3d8cce37	0.0687527
137	0xbc4e1dd0	-0.01258035
138	0xbbb58dc0	-0.0055405796
139	0xbc602248	-0.013680048
140	0xbccfd010	-0.025367767
141	0xbc584908	-0.013201006
142	0xbd3ef06f	-0.046616014
143	0xbc998aa8	-0.018742874
144	0x3d8210d3	0.06350865
145	0xbd65daf3	-0.05611701
146	0x3cf7cd6c	0.03024932
147	0xbd8a57d8	-0.06755036
148	0x3d0f485e	0.034981124
149	0x3dabf829	0.08396942
150	0xbdb3e6c6	-0.08784251
151	0xbd23cb2b	-0.039988678
152	0x3ca1f4b8	0.019770011
153	0x3d8d9153	0.06912484
154	0x3da7a56f	0.08185851
155	0xbd99c54a	-0.07508333
156	0x3d9ada77	0.075612
157	0xbce795cc	-0.02826967
158	0x3d91e719	0.071241565
159	0xbb0e9f20	-0.0021762326
160	0x3d13ebde	0.036113612
161	0x3d7fb4be	0.06242823
162	0xbd834b4c	-0.06410846
163	0xbbf922c0	-0.0076030195
164	0x3c5aff50	0.013366535
165	0x3c404c10	0.011736885
166	0xbccee1fc	-0.025254242
167	0x3b944c80	0.004525721
168	0xbd904a9c	-0.070454806
169	0xbc2c2268	-0.01050625
170	0x3caedecc	0.021346472
171	0x3daf5e3f	0.08562898
172	0x3d9db719	0.07700939
173	0x3cbd9bc8	0.023145571
174	0xbc81e308	-0.015855327
175	0x3d40bb32	0.047053523
176	0xbd8c3afe	-0.06847189
177	0x3c076fa0	0.00826636
178	0xbd936e48	-0.07198769
179	0xbd8caecf	-0.068692796
180	0xbdaeea21	-0.0854075
181	0x3ccf9b84	0.02534271
182	0x3d9a32e9	0.075292416
183	0xbdaa7829	-0.083237
184	0x3cc07924	0.023495264
185	0xbd47c092	-0.048767634
186	0x3d46d9a6	0.04854741
187	0x3d8a6c4f	0.067589395
188	0xbb97d860	-0.004633948
189	0xbd387eb0	-0.045042694
190	0x3be748f0	0.0070582554
191	0xbd7da321	-0.06192315
192	0xbcbfd3c0	-0.0234164
193	0x3d830fbb	0.06399485
194	0xbd2c0650	-0.041998208
195	0xbd2b838a	-0.041873492
196	0xbd6f5e37	-0.05843946
197	0x3d61da3e	0.055139773
198	0xbbedbc70	-0.0072551295
199	0xbd9247aa	-0.07142575
200	0x3d91dbff	0.07122039
201	0xbc647e40	-0.013946116
202	0x3bb67570	0.005568199
203	0xbc1aa1e0	-0.009438008
204	0x3d8f9b75	0.07012073
205	0xbbcb9990	-0.0062133744
206	0xbc8422cc	-0.016129874
207	0x3cebd9d8	0.0287904
208	0xbd389693	-0.045065474
209	0xbd3223d8	-0.043491215
210	0xbd58ccb6	-0.052929603
211	0x3ae57340	0.0017505661
212	0x3d9ddd55	0.07708231
213	0xbc268858	-0.010164343
214	0xbd79d454	-0.060993508
215	0x3d810dff	0.06301498
216	0x3d9090a5	0.07058839
217	0x3d977acf	0.07396471
218	0x3d3345b2	0.04376764
219	0x3cb0ba28	0.021573141
220	0xbd933724	-0.071882516
221	0xbdac9c79	-0.08428282
222	0x3c668720	0.014070302
223	0xbd6d7ebb	-0.057982188
224	0x3ccf7ac8	0.025327101
225	0x3d544fe6	0.05183401
226	0xbcea04fa	-0.028566826
227	0xbdaab57e	-0.08335398
228	0xbc717430	-0.014737174
229	0xbc993c88	-0.018705621
230	0xbd6b4686	-0.057440303
231	0xbafe0f40	-0.0019383207
232	0xbc22cc90	-0.009936467
233	0x3da67a6b	0.08128818
234	0x3d815aa3	0.06316116
235	0xbd005294	-0.031328753
236	0x3d87d641	0.066326626
237	0xbd63fd74	-0.055661634
238	0xbb3e8620	-0.0029071644
239	0x3c9e6834	0.019336797
240	0x3ca2e774	0.019885756
241	0xbdaeb056	-0.08529727
242	0x3db1a747	0.08674484
243	0xbccac13c	-0.024750344
244	0xbce9ee1c	-0.028555922
245	0xbd3c4093	-0.04596002
246	0xbd418060	-0.04724157
247	0x3d792f66	0.06083622
248	0x3db4e90b	0.08833512
249	0x3d4aa4ce	0.049473576
250	0xbcc29d10	-0.023756534
251	0xbd611df4	-0.054960206
252	0x3dabc989	0.08388049
253	0x3d912003	0.07086184
254	0x3db2acb5	0.087243475
255	0xbd73b3fc	-0.05949782

net.4.bias f4 [128]
0	0x3d804037	0.06262248
1	0x3d7184d6	0.058964573
2	0x3d86d335	0.06583253
3	0xbcda7e9e	-0.026671704
4	0x3bf22180	0.0073892474
5	0x3d1d52de	0.038409106
6	0x3aab18c0	0.0013053641
7	0xbd4d8f7e	-0.050185673
8	0xbc9cfa40	-0.019162297
9	0x3cb10a5c	0.021611385
10	0xbd8285f2	-0.06373204
11	0xbd3bbebe	-0.045836203
12	0x3d9ff301	0.07810021
13	0xbcec6fc4	-0.028861888
14	0x3ce90a48	0.028447285
15	0xbd334957	-0.043771114
16	0x3d88d8f5	0.06682006
17	0x3cd976d8	0.026545927
18	0xbd02fe95	-0.03198107
19	0x3d199ea6	0.037504815
20	0x3d97b5fd	0.074077584
21	0x3d94ea5d	0.07271264
22	0xbd06c275	-0.032900292
23	0xbcc1fb10	-0.023679286
24	0xbdb0d3e4	-0.08634165
25	0x3d8bf557	0.06833904
26	0xbd8c1149	-0.068392344
27	0x39cf0600	0.00039486587
28	0x3d131972	0.03591294
29	0x3d985aa3	0.074391626
30	0x3bb214f0	0.005434625
31	0xbd33b488	-0.04387334
32	0x3ce188fc	0.02753114
33	0x39c70400	0.00037959218
34	0xbd44933e	-0.047991984
35	0x3d863375	0.065527834
36	0xbd4af473	-0.04954953
37	0x3d91578f	0.070967786
38	0xbd70a46a	-0.058750547
39	0xbd8a10c7	-0.06741481
40	0xbd881a32	-0.06645621
41	0xbcee5e62	-0.02909774
42	0x3c9a700c	0.018852256
43	0x3d8ab44b	0.067726694
44	0xbc42c560	-0.011887878
45	0x3d9040e9	0.07043631
46	0xbd2365cc	-0.039892003
47	0xbccbd048	-0.02487959
48	0xbd8705ca	-0.06592901
49	0xba90b440	-0.0011040047
50	0x3da5b2f1	0.08090771
51	0x3d3f312a	0.046677746
52	0x3b8dc980	0.004326999
53	0xbd512749	-0.051062856
54	0xbdb18e5d	-0.08669732
55	0x3ab8f380	0.0014110655
56	0x3daeb279	0.08530135
57	0xbd45c7c0	-0.0482862
58	0x3c8ff9f8	0.01757525
59	0xba188100	-0.00058175623
60	0x3d7cc0ee	0.06170743
61	0x3c13f688	0.009030946
62	0x3ce8cf2c	0.0284191
63	0x3daa40d1	0.08313144
64	0xbcf6f474	-0.030145861
65	0xbd96625d	-0.0734298
66	0x3d6d8fea	0.057998575
67	0x3d8feaef	0.07027232
68	0x3cba5d28	0.022749498
69	0x3d967919	0.07347316
70	0xbd348f0a	-0.044081725
71	0x3d9043a5	0.07044152
72	0x3d9bb5ff	0.076030724
73	0x3d2381ee	0.039918832
74	0x3d1e1c32	0.038601108
75	0xbad2dfc0	-0.0016088411
76	0xbdabb211	-0.08383573
77	0x3d9583c5	0.07300524
78	0xbd40061e	-0.046880834
79	0x3c54eb98	0.012995623
80	0xbda1db0f	-0.0790311
81	0xbd928c57	-0.07155674
82	0xbd36ef13	-0.044661593
83	0xbd5063bf	-0.050876375
84	0xbd777cbe	-0.060421698
85	0xbc9fec2c	-0.019521795
86	0x3d851475	0.064980425
87	0x3d754796	0.059882723
88	0x3c495f68	0.012290813
89	0xbd689e06	-0.056791328
90	0xbc3aed98	-0.011409186
91	0x3db46c4d	0.08809719
92	0x3d9a11f9	0.07522959
93	0x3cfc5f54	0.030807175
94	0xbd10cc13	-0.03535087
95	0x3cedaba4	0.029012509
96	0xbd98be52	-0.07458176
97	0xbd823913	-0.06358542
98	0xbd909622	-0.070598856
99	0xbd9b564f	-0.075848214
100	0xbd0b4ce0	-0.03400886
101	0xbd7aad9c	-0.061200723
102	0xbcb5ab80	-0.022176504
103	0x3db3ffd7	0.08789032
104	0xbd85b17c	-0.06527993
105	0x3d97e501	0.07416726
106	0xbcabc9d8	-0.02097027
107	0xbcae8eb8	-0.021308288
108	0xbcb58178	-0.022156462
109	0xbced8034	-0.028991796
110	0xbd23e21a	-0.04001055
111	0xbd77f27a	-0.060533978
112	0xbd14b29b	-0.036303144
113	0x3d984ead	0.07436881
114	0x3bd0a470	0.0063672587
115	0xbc37fe48	-0.011230059
116	0x3d8c1e0b	0.06841668
117	0x3dab9967	0.083788686
118	0xbd49811e	-0.0491954
119	0xbc0a1e88	-0.008430131
120	0x3ca60e04	0.020270355
121	0x3d89ebaf	0.06734406
122	0x3d7d10f6	0.061783753
123	0xbc772460	-0.015084356
124	0x3cf419b4	0.029797412
125	0xbcecfb0a	-0.028928299
126	0xbda2bbe3	-0.07945993
127	0xbcc8c90c	-0.02450993

net.6.weight f4 [256, 128]
0	0x3c16baf0	0.009199843
1	0xbd9a107e	-0.07522677
2	0x3d4a97de	0.049461238
3	0xbd1c2c3f	-0.038128134
4	0x3d196ee6	0.037459277
5	0xbc4344c0	-0.011918247
6	0xbd368699	-0.044561956
7	0x3d41a9c2	0.047281034
8	0x3bbbee90	0.005735226
9	0xbbd9a5e0	-0.0066420883
10	0xbd8c9b9e	-0.06865619
11	0x3d65e93e	0.05613064
12	0xbcc1b4b8	-0.023645744
13	0x3d7c08fe	0.061532013
14	0xbce12796	-0.027484696
15	0x3c307118	0.010769151
16	0x3db0973f	0.08622598
17	0x3d10c1da	0.03534112
18	0xbd89ac0f	-0.06722271
19	0xbcf34c22	-0.029699389
20	0x3d59e33a	0.053195216
21	0xbd03b734	-0.032157138
22	0x3d0eb0f2	0.034836717
23	0x3d3c88a6	0.046028756
24	0xbb76b4a0	-0.0037644282
25	0xbd56459c	-0.05231248
26	0xbd83500e	-0.064117536
27	0x3be04350	0.006843962
28	0x3d547096	0.051865183
29	0xbcad3e38	-0.021147832
30	0x3c0acaf0	0.008471236
31	0x3c804d3c	0.015661828
32	0x3d0b8270	0.03405994
33	0xbd4ed41a	-0.050495245
34	0x3d59c702	0.053168304
35	0x3d29e936	0.041482173
36	0xbce44b14	-0.027867831
37	0x3d3ee252	0.046602555
38	0xbc96903c	-0.018379323
39	0xbaad4dc0	-0.0013222024
40	0xbda6ef75	-0.081511416
41	0xbd0ec130	-0.034852207
42	0xbcb43ea0	-0.022002518
43	0x3ce557b8	0.02799593
44	0xbc939d00	-0.0180192
45	0xbd230e18	-0.039808363
46	0x3d755aea	0.059901156
47	0xbbe41470	-0.006960444
48	0xbbc2b220	-0.0059416443
49	0x3d783066	0.06059303
50	0xbc1bfd30	-0.009520814
51	0x3d7c7afa	0.061640717
52	0x3d14737c	0.036242947
53	0xbd260d8c	-0.040540263
54	0xbd9a55dc	-0.075359076
55	0xbd63f325	-0.055651803
56	0x3d95d079	0.07315154
57	0xbcba4d6c	-0.022741996
58	0x3bf6abc0	0.0075277984
59	0xbdb04755	-0.086073555
60	0x3c387338	0.011257939
61	0xbd3542c4	-0.044253126
62	0x3d73feca	0.059569158
63	0xbd050706	-0.0324774
64	0x3d026362	0.03183306
65	0xbdae4862	-0.085099
66	0xbc224ff0	-0.009906754
67	0xbd8e03a5	-0.06934289
68	0xbce97060	-0.028495967
69	0x3ccfe5d0	0.025378138
70	0xbd7d0b42	-0.061778314
71	0x3cbaddd4	0.022810854
72	0x3d3ddd12	0.046353407
73	0x3d35a4ce	0.044346623
74	0xbc071f90	-0.008247271
75	0xbd5d555c	-0.054036483
76	0xbc8bf558	-0.017084762
77	0x3d67ad7e	0.05656194
78	0x3cbc2dfc	0.022971146
79	0x3d406562	0.046971686
80	0xbc8c06cc	-0.017093085
81	0x3d8adf1b	0.06780835
82	0x3daed819	0.08537311
83	0x3d3644be	0.04449915
84	0x3d5d5782	0.054038532
85	0xbd8fff3a	-0.070311025
86	0x3da8a6a9	0.08234913
87	0xbd652d20	-0.055951238
88	0x3d1751a2	0.036943085
89	0x3d99bd7d	0.07506845
90	0x3d7e593e	0.062096827
91	0x3daf202f	0.085510604
92	0x3c248b78	0.010043018
93	0x3d7a8fc2	0.061172254
94	0x3b08ad60	0.0020855293
95	0xbd27542a	-0.04085175
96	0xbda61d02	-0.081110016
97	0xbbdb4ef0	-0.0066927597
98	0xbc868cd4	-0.016424574
99	0x3c917570	0.017756194
100	0xbd89afa2	-0.067229524
101	0x3d748132	0.059693523
102	0x3d52eb96	0.051494204
103	0x3b90b250	0.0044157878
104	0x3d70ece6	0.058819674
105	0x3db2103d	0.086945035
106	0xbc1926d0	-0.0093476325
107	0x3c761878	0.015020482
108	0x3d0caf78	0.034347028
109	0xbd30c199	-0.04315338
110	0xbda11d86	-0.07866959
111	0xbd31fad3	-0.043452095
112	0xbd3b79b3	-0.04577036
113	0x3d35c8ce	0.044380955
114	0x3d5fe39a	0.054660417
115	0xbd581ed7	-0.052763786
116	0x3c0a3738	0.008436017
117	0x3c50f360	0.012753338
118	0x3d8116cf	0.063031785
119	0x3d4fba7a	0.050714947
120	0x3d9980bd	0.07495258
121	0xbda87c6b	-0.08226856
122	0xbd74f404	-0.059803024
123	0xbd46e91a	-0.048562147
124	0xbdb31e87	-0.08746057
125	0xbbff4880	-0.007790625
126	0x3d4a703a	0.049423434
127	0x3d03b246	0.032152437
128	0x3d0246a0	0.031805634
129	0xbd65a37d	-0.056064118
130	0xbd7c604d	-0.061615277
131	0xbcfdc274	-0.030976512
132	0xbcd02080	-0.025406122
133	0xbd974acd	-0.07387314
134	0xbca3de58	-0.020003483
135	0x3c11bd40	0.008895218
136	0x3d0ad562	0.033894904
137	0xbb546d20	-0.0032413676
138	0xbd98ecb9	-0.07467026
139	0xbd6d8bd8	-0.057994694
140	0x3d8d377b	0.06895348
141	0x3d94e08b	0.07269391
142	0x3d6fa502	0.058506973
143	0x3be23450	0.006903209
144	0x3d57d496	0.052692972
145	0x3bba6a00	0.0056889057
146	0x3d7550d2	0.05989153
147	0x3d9050b5	0.07046644
148	0x3c49a678	0.012307756
149	0xbaa2d280	-0.0012422353
150	0x3d53ff82	0.051757343
151	0xbda5b52d	-0.08091197
152	0xbd20454f	-0.039128598
153	0xbdaaf34c	-0.083471864
154	0x3b9cbe40	0.0047834218
155	0x3d9a6ed7	0.07540672
156	0x3b417b40	0.0029522926
157	0x3cfed3a8	0.031106785
158	0xbc10b818	-0.008832954
159	0xbd0e38f6	-0.03472229
160	0x3c967800	0.018367767
161	0xbcee0f58	-0.02906005
162	0x3dabad35	0.08382646
163	0x3b165ae0	0.002294235
164	0xbd0a0050	-0.033691704
165	0xbd6c1ad0	-0.057642758
166	0x3d6fa626	0.05850806
167	0x3ce22cac	0.027609192
168	0xbbe8d180	-0.0071050525
169	0xbcca18e0	-0.024670064
170	0x3dae892f	0.085222594
171	0x3c83d3bc	0.016092174
172	0xbd21f3cb	-0.03953914
173	0xbbcd2780	-0.0062608123
174	0x3d35f4f2	0.04442305
175	0x3d8ea92f	0.06965863
176	0x3d962eb5	0.073331274
177	0x3d1dfeb2	0.038572975
178	0x3ca90cb0	0.020635933
179	0xbd6a6966	-0.057229422
180	0x3da76b85	0.081748046
181	0x3d0040a8	0.03131166
182	0x3cd6673c	0.026172273
183	0xbd8db45a	-0.06919165
184	0x3d8f19e5	0.06987361
185	0x3d1058f6	0.03524109
186	0xbd89bcd2	-0.06725468
187	0xbda4b14f	-0.080416314
188	0xbc9fbe58	-0.019499943
189	0xbdac0ef6	-0.08401291
190	0x3d0b3d1e	0.033993833
191	0x3d6a0d62	0.05714167
192	0xbc8c621c	-0.017136626
193	0x3cd83830	0.02639398
194	0x3d90160d	0.07035456
195	0xbc8be1e0	-0.017075479
196	0x3d25feae	0.040526085
197	0x3d9c3581	0.076273926
198	0x3b2782a0	0.0025560036
199	0x3d9c80fd	0.0764179
200	0xbd748922	-0.059701093
201	0x3bd41f20	0.006473437
202	0x3c9bf624	0.019038267
203	0xbd4f9220	-0.050676465
204	0xbd9f09b6	-0.07765524
205	0x3da5f89d	0.0810406
206	0x3db203d5	0.08692137
207	0xbb25c0c0	-0.002529189
208	0x3d4426ca	0.047888555
209	0xbd4ed978	-0.050500363
210	0x3d84473f	0.064589016
211	0xbd866176	-0.06561558
212	0xbc355768	-0.011068203
213	0xbda54e1a	-0.08071537
214	0x3caf6184	0.021408804
215	0xbd3c3d2f	-0.045956787
216	0xbd9f31e4	-0.07773188
217	0xbcb89134	-0.022530176
218	0x3c8836cc	0.016627692
219	0xbd0bd4df	-0.034138557
220	0x3b164360	0.0022928342
221	0xbd7d7024	-0.061874524
222	0x3cd93364	0.026513763
223	0x3d0bbdf2	0.034116693
224	0x3da445db	0.080211364
225	0x3d9ae0f3	0.07562437
226	0xbd4f9ebb	-0.050688487
227	0x3d8d04af	0.06885659
228	0x3da52e3b	0.080654584
229	0xbb979c20	-0.004626766
230	0xbd88bd2d	-0.066767074
231	0x3d8dcd4f	0.06923925
232	0x3d527e62	0.05139006
233	0xbd0305e8	-0.031988055
234	0x3d9d00f5	0.07666198
235	0xbd81befa	-0.06335254
236	0xbd87a634	-0.066234976
237	0x3da4e107	0.08050733
238	0x3d06f778	0.03295085
239	0xbda56d00	-0.08077431
240	0x3d939263	0.072056554
241	0xbcfcda9c	-0.03086596
242	0xbda49105	-0.08035473
243	0x3d150200	0.03637886
244	0x3d994d3d	0.07485435
245	0x3cd75b98	0.026288792
246	0xbc0911b8	-0.008366041
247	0xbd151a3b	-0.03640197
248	0x3daaeedd	0.08346341
249	0x3da0146f	0.078163974
250	0x3db36a4f	0.08760511
251	0xbd844517	-0.0645849
252	0xbc65c350	-0.014023617
253	0xbd0c82e3	-0.03430451
254	0xbd7a4b96	-0.06110724
255	0x3c5b6828	0.013391532

net.6.bias f4 [256]
0	0x3cb83904	0.022488125
1	0x3d7bdb12	0.06148822
2	0x3ccba070	0.024856776
3	0x3db3c879	0.087784715
4	0x3d953fbd	0.07287548
5	0xbd2dcd1d	-0.04243194
6	0xbc553480	-0.013013005
7	0x3d8ae30b	0.06781586
8	0xbb0a7300	-0.0021125674
9	0xbd200375	-0.039065797
10	0x3d46dff6	0.04855343
11	0x3d496c22	0.04917539
12	0x3d9ece83	0.07754233
13	0xbd1a8243	-0.037721884
14	0x3b98d450	0.0046639815
15	0xbd22776f	-0.039664682
16	0x3aff4f40	0.0019478574
17	0xbd389c1a	-0.045070745
18	0x3d6894ba	0.05678246
19	0xbc1138d0	-0.008863643
20	0xbdad0a46	-0.08449225
21	0xbd95c0d9	-0.073121734
22	0x3ccd34ec	0.02504965
23	0x3aaf8d80	0.0013393611
24	0xbdb25b5a	-0.0870883
25	0xbd029b47	-0.031886365
26	0x3b33c6c0	0.0027431697
27	0x3d9cc389	0.07654483
28	0x3c35d608	0.011098392
29	0x3cba222c	0.022721373
30	0x3d6545ae	0.055974655
31	0x3d247d8a	0.040158786
32	0x3d124bb0	0.035716712
33	0xbd8aacac	-0.06771216
34	0xbda008f4	-0.07814208
35	0xbd73bdb6	-0.059507094
36	0xbd7dffd4	-0.062011555
37	0xbcc4b26c	-0.02401086
38	0x3db3f801	0.08787537
39	0x3d8a6303	0.06757166
40	0x3d3fbe2a	0.046812214
41	0x3c6fdff0	0.014640793
42	0x3d3181de	0.04333674
43	0x3cc120dc	0.023575239
44	0xbaf09b00	-0.001835674
45	0xbd23ebc0	-0.04001975
46	0x3d57837a	0.05261562
47	0x3c700a80	0.014650941
48	0x3dafbd6f	0.085810535
49	0xbc7e06a8	-0.015504517
50	0x3b4a3d20	0.0030859187
51	0xbd06f8a4	-0.032951966
52	0x3cf641bc	0.030060641
53	0x3d98b565	0.07456473
54	0x3c932a14	0.0179644
55	0xbce83f92	-0.028350625
56	0x3cb86414	0.022508658
57	0x3bcfe200	0.00634408
58	0x3d60c96a	0.054879583
59	0xbce80b60	-0.028325737
60	0x3d7de84e	0.06198912
61	0xbd86ab32	-0.06575622
62	0x3d3590f6	0.0443277
63	0x3dabc149	0.083864756
64	0x3c181b70	0.009283885
65	0x3dad7451	0.08469451
66	0x3cd0e998	0.025502011
67	0x3d5ff172	0.05467362
68	0x3da15c57	0.078789406
69	0x3ceac3c4	0.028657801
70	0x3c792020	0.015205413
71	0xbbf17ee0	-0.007369861
72	0x3d7e667e	0.062109463
73	0xbd14562d	-0.036214996
74	0xbda45394	-0.08023754
75	0x3b33f000	0.0027456284
76	0xbda32e74	-0.079678446
77	0xbc5533d8	-0.013012849
78	0x3db0e55f	0.08637499
79	0x3dac4cd5	0.08413092
80	0x3da5c88b	0.08094891
81	0xbd45c6d3	-0.048285317
82	0x3d501ad6	0.050806843
83	0x3c7153f8	0.014729492
84	0x3db2eebb	0.087369405
85	0x3cd1ed8c	0.025625966
86	0xbd99d59f	-0.07511448
87	0xbc1da310	-0.009621397
88	0xbd26c0b0	-0.040711105
89	0x3d8c1a5d	0.06840966
90	0x3cce3598	0.02517204
91	0x3c44fc48	0.012023039
92	0xbd498a30	-0.04920405
93	0xbda9b5c7	-0.082866244
94	0xbd9722f7	-0.07379716
95	0x3c166748	0.009179898
96	0xbd397cb2	-0.045284934
97	0x3d73e392	0.0595432
98	0x3d3ee39a	0.046603777
99	0x3ac38c40	0.0014919117
100	0xbd47467e	-0.04865121
101	0x3cd1e670	0.025622576
102	0x3bde0440	0.006775409
103	0xbd1d7587	-0.03844216
104	0xbc9b40a8	-0.018951729
105	0x3d4dcfe6	0.050247096
106	0xbc978704	-0.018496998
107	0x3da8698f	0.08223259
108	0x3c9624d4	0.018328108
109	0x3d477e9e	0.048704736
110	0x3daa9cd7	0.08330696
111	0x3daae3ad	0.08344207
112	0x3d91cc81	0.07119084
113	0x3d7d687e	0.06186723
114	0x3db4b6df	0.088239424
115	0xbd2020d6	-0.039093815
116	0x3ce8277c	0.02833914
117	0xbcbffd1c	-0.023436122
118	0x3d232c32	0.03983707
119	0xbd8ba1da	-0.0681798
120	0x3cbc39dc	0.022976808
121	0x3c715208	0.01472903
122	0x3d132b52	0.035929985
123	0x3dadeb1d	0.0849211
124	0x3db338f7	0.087510996
125	0x3d6083be	0.05481314
126	0xbda8d3c1	-0.08243514
127	0xbd098f4a	-0.033583917
128	0x3d9bffc3	0.07617142
129	0x3d263cd2	0.040585347
130	0xbd2a6d62	-0.04160822
131	0x3d4af316	0.04954823
132	0xbd93beec	-0.0721415
133	0x3d852e77	0.06503003
134	0xbd460cce	-0.048352055
135	0x3c9b5b88	0.018964544
136	0xbdaf672b	-0.085645996
137	0x3d0e47ee	0.034736566
138	0xbd916bc6	-0.07100634
139	0x3d32d32a	0.043658413
140	0xbcc3bfa0	-0.023895085
141	0xbd151a82	-0.036402233
142	0xbd15120b	-0.03639416
143	0xbd117be3	-0.03551854
144	0xbc1e7b48	-0.009672947
145	0x3d0f9204	0.03505136
146	0xbd8eafc8	-0.06967121
147	0x3dafa753	0.085768364
148	0x3d2d41f6	0.042299233
149	0xbd24e8a6	-0.040260933
150	0xbd6191e3	-0.05507077
151	0xbd800ff9	-0.062530465
152	0x3d784fce	0.060622983
153	0x3d803501	0.0626011
154	0x3db36975	0.08760349
155	0x3d84b701	0.06480218
156	0x3d0456a8	0.032309204
157	0xbd3e0188	-0.04638818
158	0xbc938cbc	-0.018011443
159	0x3db13c1f	0.08654045
160	0x3be23ec0	0.006904453
161	0x3dadc8cd	0.08485565
162	0xb88b4800	-6.6414475e-05
163	0x3d749e06	0.059721015
164	0xbc6df3a0	-0.014523417
165	0xbcb15870	-0.021648616
166	0x3cac70e0	0.021049917
167	0xbc4bfa20	-0.012449771
168	0x3c914890	0.017734796
169	0xbc870898	-0.01648359
170	0xbda6bd45	-0.08141569
171	0x3c81ae54	0.015830196
172	0xbd9fa93c	-0.07795951
173	0xbd30b3b0	-0.043140113
174	0xbd16a33a	-0.03677676
175	0x3dad946d	0.084755756
176	0x3d8ba7c1	0.06819106
177	0x3d896ceb	0.067102276
178	0x3d6edeee	0.05831807
179	0x3b785580	0.003789276
180	0x3bc12e80	0.005895436
181	0xbc494128	-0.012283601
182	0xbcbd6fd4	-0.023124613
183	0xbbaaffc0	-0.005218476
184	0x3d97d699	0.07413978
185	0xbc53ead0	-0.012934402
186	0x3d3600f6	0.04443451
187	0xbdb46023	-0.08807399
188	0xbd36613c	-0.044526324
189	0x3c12a240	0.008949816
190	0xbc761740	-0.015020192
191	0xbbf8da40	-0.007594377
192	0x3dad61d9	0.084659286
193	0x3d073c7a	0.03301666
194	0xbb179500	-0.0023129582
195	0xbb23a4c0	-0.0024970025
196	0x3d3084ca	0.043095388
197	0x3bd3c400	0.006462574
198	0xbcd0b2fc	-0.025475971
199	0xbd9e8377	-0.07739919
200	0x3ba10210	0.004913576
201	0xbc6cc430	-0.014451072
202	0x3cdbdd24	0.026838847
203	0xbd20b384	-0.0392337
204	0x3d804d31	0.06264723
205	0x3cb70254	0.022339977
206	0xbda3d1eb	-0.07999023
207	0xbd19e671	-0.03757328
208	0xbd6cfc2e	-0.057857685
209	0x3d19727a	0.03746269
210	0x3da88733	0.08228912
211	0x3c20ac58	0.009806715
212	0x3c8842a8	0.016633347
213	0xbb489d80	-0.0030611455
214	0xbc529630	-0.01285319
215	0x3d153068	0.036423117
216	0x3b4a56a0	0.0030874386
217	0x3ceb85ac	0.028750263
218	0xbdacea0d	-0.08443079
219	0xbd361384	-0.044452205
220	0xbd6dcbfe	-0.05805587
221	0x3c943748	0.018092766
222	0xbd315786	-0.04329636
223	0xbcc703ec	-0.024293862
224	0xbd978c46	-0.07399802
225	0xbb475820	-0.0030417517
226	0xbda9dbff	-0.08293914
227	0xbd21e51e	-0.039525144
228	0xbd8c2ce0	-0.06844497
229	0xbd9f0348	-0.07764298
230	0x3d2b8806	0.04187777
231	0x3bf564e0	0.007488832
232	0x3da5eda1	0.08101965
233	0xbb4e6e60	-0.0031498894
234	0xbd56b642	-0.05241991
235	0xbd203a12	-0.03911788
236	0x3d3a72ca	0.045519628
237	0xbcc6a4a0	-0.024248421
238	0xbdb31bf4	-0.08745566
239	0x3d9b7a0f	0.0759164
240	0xbd9c89d8	-0.07643479
241	0xbd55872d	-0.052130867
242	0xbc9e002c	-0.019287191
243	0x3daa0527	0.08301764
244	0xbce5ad96	-0.028036874
245	0xbda06e18	-0.07833499
246	0x3c67a4d8	0.014138423
247	0xbb2aff00	-0.0026091933
248	0x3dad3cef	0.08458888
249	0x3d9a0645	0.07520727
250	0x3d691192	0.056901522
251	0x3d14c490	0.03632027
252	0xbda30e6a	-0.07961734
253	0xbb7b0c00	-0.0038306713
254	0xbc812550	-0.015764862
255	0x3d5d6236	0.05404874
