model/p_no34.pth (torch, 152696 bytes, 8 tensors)

net.0.weight f4 [128, 22]
00000000: 0beb f03b 767b 3a3e 24aa fb3d 1c31 8d3d
00000010: a56b b1bd 9b93 503e 3777 493c 51d5 d23d
00000020: 0b1a 1f3e 3e94 853d a667 9b3c dc9a 35be
00000030: 7d94 90bd 4ce3 cdbd 1049 06be bd86 a03d
00000040: 1eb0 16be e3f0 0c3e a28a 4a3e 0b25 123e
00000050: 45fc 27be 6afd 863c 7eb3 613e 434f 77bc
00000060: a38a 24be a1e3 ba3d 7403 01be 8bab c7bd
00000070: dc48 42be 8175 e8bd 3868 683e 2e0d b03b
00000080: a997 2f3e 479c 5c3e 874c 13be 8fb9 283e
00000090: 7642 3ebe 793a 91bd f5e9 ee3d fdc0 a33d
000000a0: 248e f73d c67a f5bd ac22 d4bd 4b41 9abc
000000b0: 5c50 c13d 13cf 523d 80c2 413e 3b64 f8bd
000000c0: b1ba 163e 07bc 433d 72b6 423d 2985 0e3e
000000d0: 7769 d33a c352 aa3d 94df eabd c2b5 31be
000000e0: 8a2d 023e e63e 383e cd48 02be 628d 13be
000000f0: e8bf bcbd 7e6e b93c b199 a93d b72d 633e
00000100: 36d6 193e 6bd3 503e fa6e 06be 02a1 c4bd
00000110: b444 103e 5ed8 4e3d 6354 473e 6c88 da3d
00000120: 30e4 bbbd ffef d63d 6446 7fbc 571d 25be
00000130: 3b1a ab3d 67bb d1bd c7fa 24be 7ce4 553e
00000140: a083 f3bd e233 543d bf49 21be 58e8 80bd
00000150: 16ca cd3d 32a6 403e 6c75 21ba 9d97 3a3e
00000160: 2afa 4fbe a0a0 5ebd 727e 3c3e 7e1d 593d
00000170: 7fb2 95bc 12e5 cabd 5ba4 d2bd 453b c93d
00000180: b9e0 39be 19e4 11be 2ab8 d83d a346 9bbd
00000190: a70f 17be 2220 70bd 9bdf 30be ba70 2abe
000001a0: e42c 57be c3ba 89bd a0cc dc3d 5326 fd3c
000001b0: 1e8d d6bd a411 913d a11f 57bd 5b7a f7bd
000001c0: 373d 253d c5f9 98bd d98c 4b3c 23aa 50be
000001d0: cae1 95bd f2d3 67bd 43ce 69be 1f08 093e
000001e0: dc8e 50be 00a3 ff3d 43d7 2d3e b31c 16be
000001f0: e9b3 5fbe e993 1b3d 0d88 4e3e 7b19 0cbc
00000200: 3d46 21be 526c b2bc 15ce 1abe f612 04be
00000210: 3eb9 4e3e 73c6 48be c6e4 87bd 8e76 fbbd
00000220: f9a0 1cbe f244 e0bd 798b 02be ffaa db3d
00000230: c318 a6bc d059 b03d 484b c63d d26e d83d
00000240: 6784 cfbd 1c79 34bd f8f9 abbd 963f 023c
00000250: b5c6 0d3b db33 d3bd 7abb 213e 0dc5 fb3c
00000260: 4726 fcbd c130 5bbd c480 b63d 90a0 793d
00000270: 6d9e 533d 998e 223e 7cde 00bd e6c6 95bd
00000280: 337b 403e 0099 c23c 34a5 29be 6cd2 2fbe
00000290: 4d4e d6bc cdbd 423e 60cf 7cbd cdc8 c2bd
000002a0: cd46 6ebe 8db7 1bbe 4d02 d53d 4139 2e3e
000002b0: aa45 41be d3ac e8bd b4cd ea3d 5647 b8bd
000002c0: 15ac 03be 8590 473e 4ebb b03d fe23 903d
000002d0: ba4a 25be ba39 023c 4f26 32be 9b45 573e
000002e0: 39f7 e43d e3b4 583d f1c8 22be b97b 0dbe
000002f0: cce5 7d3d 7a21 123e b082 343e 70d3 6ebd
00000300: a9a3 1dbe e59f ce3d 3c95 cebd 7d1f d6bd
00000310: a126 0b3e dd62 263e 8a3e 3c3e e1a9 c13d
00000320: b972 823d fc30 d2bd b1a8 e83c 4298 4b3d
00000330: f118 5a3d e5b3 a53c 3c70 0a3d 4481 acbd
00000340: cac5 f93d 182b 5a3b 5873 2abe d509 d3bd
00000350: d026 373e b5b6 c83d f0d4 4f3e 05ef 8c3c
00000360: 2915 903b fe78 39be b9c7 b13c e13d 53be
00000370: 3fc9 32bd 8498 f43b 7234 29bc 667b 08be
00000380: d507 2e3e 6335 b0bd 0fb1 eb3d 9135 06be
00000390: 2c29 443e a1b9 e73d 7fd4 083e cf4b 10be
000003a0: f069 dcbd 8f54 463d 74c6 b4bd a4e3 4cbe
000003b0: eff7 07be b191 9e3c c6e3 54bd 1815 0dbc
000003c0: 4e63 323d 4238 cfbd fc96 7b3d e405 5dbe
000003d0: 4a51 263e 8269 02be a396 4dbe 21c6 d23d
000003e0: 9912 1f3d ef45 013e a2fc a33c 1b91 ff3d
000003f0: 7c94 1ebe d5ea 37bc f416 303e 5d3c 0f3e
0.007352238 0.18211159 0.12288311 0.068941325 -0.0866311 0.20368807 0.012296489 0.10294593
0.15537278 0.065224156 0.018970322 -0.17734855 -0.07059572 -0.10053119 -0.13113809 0.07838199
-0.14715621 0.13763766 0.19779447 0.14271943 -0.16404827 0.01647826 0.22041127 -0.015094581
-0.1606851 0.09125448 -0.12598974 -0.09749516 -0.18973106 -0.11350537 0.22696006 0.005372665
0.17147698 0.2154399 -0.14384662 0.16477035 -0.1858004 -0.07091231 0.116657175 0.07995794
0.12087658 -0.11986308 -0.10358176 -0.018829962 0.094391555 0.051467013 0.18921852 -0.121284924
0.14719655 0.04778674 0.047537275 0.13917984 0.0016129453 0.08316567 -0.114684254 -0.17354491
0.12712684 0.17992744 -0.12723084 -0.14409402 -0.09216291 0.022635695 0.082812674 0.22185408
0.15023121 0.2039315 -0.13128272 -0.09601022 0.14088708 0.050499313 0.19465785 0.10670552
-0.09174383 0.10494994 -0.015580747 -0.16124474 0.083546124 -0.10240822 -0.16111289 0.20887941
-0.1189034 0.05180729 -0.15750788 -0.06294316 0.100483105 0.18813398 -0.000615916 0.18221898
-0.20310274 -0.054352403 0.1840761 0.05300664 -0.01827359 -0.09906973 -0.102852546 0.09825758
-0.18152131 -0.14247169 0.105820015 -0.07581832 -0.14752065 -0.058624394 -0.17272799 -0.16644564
-0.21013218 -0.06725075 0.107812166 0.030902063 -0.10476135 0.07083443 -0.052520398 -0.12083884
0.040341582 -0.07469515 0.012423717 -0.20377402 -0.073184565 -0.05659861 -0.22832589 0.13382004
-0.20366997 0.12482262 0.16976647 -0.14659385 -0.21845974 0.037982855 0.20169087 -0.008550997
-0.1574945 -0.021780167 -0.15117677 -0.12897858 0.20187852 -0.19606952 -0.06635432 -0.12278472
-0.15295781 -0.1095065 -0.12748517 0.10725974 -0.02027548 0.086108804 0.096823275 0.10568012
-0.101326756 -0.04406081 -0.08397287 0.00794973 0.0021633331 -0.10312625 0.15794173 0.03073361
-0.12311988 -0.053513292 0.08911279 0.06094414 0.05166476 0.15874709 -0.031462178 -0.073133275
0.18796997 0.023754597 -0.16566926 -0.17170113 -0.026160384 0.19017716 -0.061721206 -0.09510956
-0.23269196 -0.15206738 0.104008295 0.17014028 -0.18874231 -0.113610886 0.11465016 -0.08997981
-0.12858613 0.19488724 0.086294755 0.07038115 -0.16141787 0.007948333 -0.17397426 0.21022646
0.111799665 0.052906882 -0.15896966 -0.13816728 0.06198673 0.14270583 0.17627978 -0.05830711
-0.15394463 0.10089091 -0.10087058 -0.10455225 0.13588955 0.16248651 0.18383232 0.0945623
0.06369538 -0.10263249 0.02840075 0.04970575 0.053246442 0.020227382 0.03379844 -0.08423093
0.121959284 0.0033289846 -0.16645563 -0.1030461 0.178859 0.098004736 0.20296073 0.017203817
0.0043970537 -0.18112561 0.02170168 -0.20629074 -0.043648954 0.0074644703 -0.010327445 -0.13328323
0.16995175 -0.08603933 0.115083806 -0.13106371 0.19156331 0.11314703 0.13362311 -0.14091419
-0.107623935 0.048420485 -0.088269144 -0.20008713 -0.13278173 0.01935658 -0.051975034 -0.008610986
0.043551736 -0.10118152 0.061423287 -0.21584278 0.16241947 -0.1273556 -0.20076995 0.10291696
0.038836095 0.12624334 0.020017926 0.124788485 -0.1548633 -0.011225422 0.17196256 0.1398787

net.0.bias f4 [128]
00000000: 186a f7bd 0683 d3bd e064 05be 6f55 fabd
00000010: 502a 2abd 7a7b 04be d925 943d af8d 463e
00000020: f892 6cbd 3df1 82bd 9c1d bd3d 3276 503e
00000030: 1d8e c4bd 63de 363e 075f 2bb8 0338 f2bd
00000040: 4c49 b83d ddd7 103d ee14 2fbe efcf 073e
00000050: 1157 5c3e 41db 103e 95ab efbd 745a 06be
00000060: 801b 7d3d 8c1b 593e 437d 363e c5de d53d
00000070: 3095 473e ffd0 2ebe 658c 2fbe 381e 4a3e
00000080: d99b 2bbe 4c13 cdbd ef9c 28be 8f10 17be
00000090: a794 2ebc 4c2c 953d 5cf4 87bd db44 fdbd
000000a0: 8bfc a3bd a62c 253e 46a7 673c 9728 1cbd
000000b0: 0d13 913c 25a6 aebd 9db4 503e 4751 8e3d
000000c0: ffbf 48be 85aa 263e fda2 e1bd 6477 133d
000000d0: cc76 b83d 7098 733d 6c29 8a3b 0cd5 573c
000000e0: dc40 053d b3ce 46be 1c8b 473e 1187 3e3e
000000f0: f740 8fbd d2c4 59bd 7b4b 8d3d 1436 c43c
00000100: f1d2 d9bd 6235 03be 5660 8ebd 6d06 42be
00000110: 4857 1bbe 3193 41be c766 223d f640 5d3e
00000120: 2874 28bd 8af4 b8bd b583 4a3e bb3c 52be
00000130: cc46 05be 17fa 9abc b320 ee3d d9fa 943c
00000140: 2987 253e deb5 3c3e a80c 853c 5e6c 3c3e
00000150: 6f62 48be fb0c 883d f608 29be c9a3 96bc
00000160: 49a7 26be a574 fe3d 2cee 16be c8e7 e1bc
00000170: 47f6 e7bd 5a3c 453e 2884 16be 8326 e63b
00000180: 3a8c 333e 30d3 38be f044 34be 68bc d93d
00000190: f07f 17be 1790 223e 3c5e 32be ed0c edbd
000001a0: a1c8 e33d 4471 42be fa05 17be 0445 383e
000001b0: adfb 9ebd 2370 4cbe 5651 a3bd 9189 303e
000001c0: 2767 1b3e 2828 33be 9278 c1bd 9505 7dbd
000001d0: 49c2 94bd 7717 29be c0d3 163e 92a8 0abe
000001e0: a850 413e 7a21 41be 5e7e cdbc e83b a9bd
000001f0: d140 a23d 70ee f53a 1028 043e 003f 403e
-0.12080783 -0.10327725 -0.13026762 -0.122233264 -0.04154426 -0.12937728 0.07233781 0.19389986
-0.057757348 -0.06393669 0.09234163 0.20357588 -0.095974185 0.17858271 -4.0858078e-05 -0.1182709
0.08998355 0.035362113 -0.17097828 0.13262914 0.21517588 0.14146139 -0.117026486 -0.13120443
0.061793804 0.21201915 0.17821221 0.104428805 0.19490504 -0.17071913 -0.171434 0.1973809
-0.1675867 -0.10013446 -0.16466115 -0.1475241 -0.010655559 0.072838396 -0.06638405 -0.12366649
-0.08007153 0.16130313 0.014139002 -0.038124647 0.01770928 -0.08527783 0.20381398 0.06949096
-0.1960449 0.16275986 -0.11017416 0.03600253 0.09007034 0.059471548 0.0042163637 0.013173353
0.032532558 -0.19414787 0.1948666 0.18606211 -0.06994813 -0.053166218 0.068991624 0.023951568
-0.10635937 -0.12813333 -0.06951968 -0.18947764 -0.15170014 -0.18903805 0.039648797 0.21606812
-0.0411264 -0.09031017 0.19776805 -0.2053098 -0.13015288 -0.01891808 0.11627331 0.01818602
0.16164841 0.18428752 0.016241387 0.18400714 -0.195688 0.06643101 -0.16507325 -0.018388646
-0.16274752 0.12424592 -0.14739293 -0.027576342 -0.113262706 0.19261304 -0.14698851 0.007023634
0.17533961 -0.18049312 -0.17604423 0.10631639 -0.14794898 0.15875278 -0.1741876 -0.11574731
0.11122251 -0.1898852 -0.14748374 0.17995077 -0.07762847 -0.19964652 -0.07974498 0.17239977
0.15176068 -0.17495787 -0.09446825 -0.0617729 -0.072636195 -0.16512857 0.14729214 -0.13540867
0.18878424 -0.18860427 -0.02508467 -0.08263379 0.07922519 0.0018763077 0.12905908 0.18774033

net.2.weight f4 [256, 128]
00000000: d441 9a3d 2339 a0bc 2b04 8e3d 6fa5 6dbd
00000010: 8520 993d aba6 54bd ae52 643d 567d 9bbd
00000020: 79de 56bc 30b1 3ebd 3863 45bd 360a a6bc
00000030: 5acc 4abd 2baa ab3d c7a7 89bc 9035 9b3d
00000040: f924 94bd 05be 523d 7884 4dbd bf4f a7bd
00000050: d798 b33d 9f6b f03b 1a28 863b 3a42 bfbb
00000060: 8a91 ccbc 47c8 a83d 32e9 3abd b007 7fbc
00000070: b9e6 893d 6751 6bbb a698 93bd 695d 30bc
00000080: 2cef 053d 8453 95bd 2ce8 083d 9d7f 92bd
00000090: c897 70bd b311 323c 307a a63d fdb7 a8bd
000000a0: 2931 e33a e876 cf3c 3f50 72bd 3e9d 8ebd
000000b0: 1fed c43d 2485 563d e179 423d 99ae aa3d
000000c0: a1a3 a7bd 82db 6fbc d808 91bd 332c 21bd
000000d0: 54a7 efbc 07c2 683d 8d13 963d f29e 0abd
000000e0: a937 4c3d 704d 133d f1f3 87bd c385 fa3c
000000f0: 06ef 84bd f391 893d b67c 12bc 87c2 a63d
00000100: 6ce1 973d 6499 a73b 83bc 6f3d af9e 813d
00000110: 94a9 24bd c6cd ecbc 8783 b33d 18bd b4bd
00000120: 8161 513d 767a b63c b9cb d63c b137 243d
00000130: ec7d eebc 85d4 8f3d 2c02 993d 6983 833d
00000140: a4f2 75bd 466b 9d3d 2f31 953c 5ec1 bc3a
00000150: 67ee 483c 0b31 a63d 4801 363d e790 8ebd
00000160: 9592 af3d e26f 7d3c 2fd6 a13d eb3d a43c
00000170: 1936 b23d 2f46 8f3d d9e7 7bbd f999 bcbc
00000180: 972d 4bbc a02f a53b 4a6b 833d 64f9 9d3d
00000190: 4dda 8ebd 4a41 463d 9b91 35bd c8f5 94bd
000001a0: bc61 b33d b806 5a3d 977a 50bd f376 c3bc
000001b0: 16b6 afbc 4d65 50bd 5458 8dbc 15ee f13c
000001c0: bbcc acbd e766 eabc fb07 67bd cb6f 8b3d
000001d0: 2a05 993d a4a0 533d 5482 b43d 7a82 1fbd
000001e0: ab47 0ebc 0fc8 323d d51f 9cbd 3a68 8a3d
000001f0: a568 96bd 75b7 1fbd c2f0 06bd 0f02 2cbd
00000200: 1a84 373b 4dd7 a13c 414e a33d 179d 853d
00000210: c02d 0d3d 97a9 cabc b958 993d 39a5 803d
00000220: 7fa1 8dbd 7082 ae3d 53a0 bbbb af9f 9a3d
00000230: f193 f63c 1717 f53b 8ae7 f6bc 4062 b33d
00000240: c958 87bd 5b0a 2bbd 2aba 97bd 31d8 a33d
00000250: 0872 3abd 390d 953d 483e 103d 043d 89bc
00000260: 9275 9e3d 2dd7 7b3d d8c2 6abd 9b42 5dbd
00000270: 083c 8a3d 8666 e93c fcce 50bd f2a6 363d
00000280: 80a8 dc3b 5bc2 733d 8453 fd3c 42d7 2a3d
00000290: 4daa 8cbd a080 843d 2dff 383c 802e 0d3b
000002a0: 1448 5cbd e093 0e3c a335 d53d 67f5 81bd
000002b0: 632f d43d 78cb 0e3d a3bd 38bd cb54 2bbb
000002c0: 3b83 373d d145 2a3d 95f1 62bc 4d9a 8e3c
000002d0: 59fe 473d 21a6 c3bc d607 373c b6cd 5a3d
000002e0: 8d1a 27bc 4545 3f3d b7d5 4bbd 3e77 013b
000002f0: c719 6b3d a43d 353d d700 2f3d 7102 15bc
00000300: 33d6 b73d 6370 47bc 3c14 ae3c d441 643d
00000310: 122f ca3d 81b3 8d3d af6a 203d 1f03 05bd
00000320: 778b 55bd 26a5 833d f81e 9f3c 8852 683c
00000330: 494f 67bd 048c 513d f373 913c 1567 473d
00000340: b02c ff3c 5723 cc3d b955 243d 4d39 b03d
00000350: d602 0b3c cdfc 9d3d 33f1 643d 804f 9e3d
00000360: bbac 5fbd dcde 93bd e2d8 7e3d a843 43bd
00000370: 420b e6bc 25a5 c33d 8ddd bb3c 50b3 f53c
00000380: 7ecf 5cbd 00ab b23c 4fa8 80bd 6de9 743d
00000390: 9081 65bd b1dd e9ba 0985 7fbd 85b8 ba3d
000003a0: eded 263d 6a49 cc3d 1b79 45bd 5bcb 953c
000003b0: 1e2b d83c 2e5d c03a ea86 62bd 6a44 903d
000003c0: 433f a63d a9ba a5bd 7efa b7bb ebd4 573d
000003d0: 84ff ba3d d9cb a53c c9c1 943b 656f 983d
000003e0: 4b31 22bd e5d2 833d 0954 59bd 9962 92bd
000003f0: a6d2 8c3c 9753 a93d dd7e 373d e59e dbbc
0.07532087 -0.019558495 0.06934389 -0.058019098 0.07476906 -0.05191676 0.055742912 -0.07592265
-0.013114565 -0.046555698 -0.048190325 -0.02026854 -0.04951129 0.08382066 -0.016803635 0.075785756
-0.072336145 0.051450748 -0.05017516 -0.08169507 0.08769386 0.007337048 0.004094136 -0.0058367522
-0.024971742 0.08241325 -0.04563255 -0.015565798 0.0673346 -0.0035906674 -0.0720685 -0.010764458
0.032698795 -0.0729132 0.03342454 -0.071532466 -0.0587385 0.010868478 0.08128774 -0.08238218
0.0017333376 0.025325254 -0.05915856 -0.06963585 0.0961554 0.052373067 0.047479514 0.08334083
-0.081855066 -0.014639737 -0.07081765 -0.039348792 -0.029254593 0.056825664 0.07327948 -0.03384299
0.04985777 0.035962522 -0.06638325 0.03058136 -0.064909026 0.06717291 -0.008940866 0.08142572
0.07416043 0.005114721 0.05852939 0.063290946 -0.040200785 -0.028906714 0.08765321 -0.08825129
0.051118378 0.02227519 0.02622019 0.040092174 -0.029112779 0.07022957 0.074711174 0.06421549
-0.060045853 0.076864764 0.01821193 0.001440089 0.012263871 0.08114823 0.044434816 -0.06961232
0.0857288 0.0154685695 0.079021804 0.020049056 0.087017246 0.06995808 -0.061500404 -0.023022639
-0.012401006 0.0050410777 0.06416948 0.07713583 -0.06975231 0.04840211 -0.044328313 -0.072734416
0.08758876 0.053229064 -0.05089816 -0.02386043 -0.02144913 -0.050877858 -0.017254032 0.029532472
-0.08437487 -0.02861352 -0.056404095 0.06808432 0.07471688 0.05166687 0.088139206 -0.03894279
-0.008684079 0.043647822 -0.07623259 0.06758161 -0.07344178 -0.038993318 -0.03294445 -0.04199415
0.0028002323 0.019755984 0.0797391 0.06524103 0.03446746 -0.02473907 0.07487626 0.06281514
-0.069155686 0.08520973 -0.0057258992 0.075499885 0.03009984 0.007479559 -0.030139703 0.08758974
-0.06608731 -0.041757923 -0.07408555 0.080002196 -0.045518905 0.07277913 0.035215646 -0.016752727
0.077372685 0.061484504 -0.057314724 -0.054018598 0.06749731 0.02849127 -0.050978646 0.044592805
0.006733954 0.059511524 0.030923612 0.041709192 -0.0686842 0.06469846 0.011291307 0.0021542609
-0.053779677 0.008702248 0.10410621 -0.06345635 0.10360601 0.03486201 -0.045102727 -0.002614307
0.044802886 0.04157049 -0.013851543 0.01740756 0.04882655 -0.023882927 0.011171302 0.053418837
-0.010199201 0.04669692 -0.04976436 0.0019754912 0.05739763 0.04424824 0.04272541 -0.00909482
0.08976402 -0.012172791 0.021249883 0.05572684 0.09872259 0.06919003 0.03916424 -0.03247368
-0.052134957 0.06427984 0.019423947 0.014179833 -0.056472097 0.05115892 0.017755484 0.04868229
0.031149238 0.09967678 0.040120814 0.08604679 0.008484563 0.077142335 0.055894088 0.07730007
-0.054608088 -0.072202414 0.062218554 -0.047671944 -0.02808154 0.09552983 0.022932792 0.02999273
-0.053908817 0.021810055 -0.06282102 0.059792925 -0.056031764 -0.0017842558 -0.06238273 0.091172256
0.040754247 0.0997494 -0.0482112 0.018285444 0.026387747 0.0014676207 -0.055304445 0.07044299
0.08117535 -0.08092243 -0.005614578 0.05269329 0.09130767 0.020238804 0.0045397026 0.07443122
-0.03959779 0.06436709 -0.053058658 -0.07147712 0.017190289 0.082678966 0.04479872 -0.026809165

net.2.bias f4 [256]
00000000: a129 7fbc 4da3 d93d a043 0ebd 02c0 7e3d
00000010: e40f 00bd 0216 29bd a862 ab3d cbb2 34bd
00000020: 329f a83a 29a6 3bbd 9782 5dbd 9603 583d
00000030: 56c0 a7bd 69bd 4abc b0cd 843c ad02 8bbc
00000040: 2de1 043d 6079 bfbc 4af1 81bd a11b 88bd
00000050: ef8d 6c3d cdb4 80bd 2404 503d e4f8 8dbd
00000060: 0e11 603d a737 0abd 173e 123d beef 613a
00000070: af29 3bbd efb2 80bd 563b 8bbd 9e84 62bd
00000080: 2f53 af3d 60db 133d 2551 603d a28d 733d
00000090: a069 133d ed92 ad3c 8a36 aebd a297 9e3a
000000a0: 4dc2 5cbd b2ca 6d3d 90bb 573d 1dba 47bd
000000b0: 7aa1 853c 1c3e 8abd b1a7 47bd 7daa adbd
000000c0: c203 783d c7aa 52ba 3f6b 1f3c 5ddc 1cbd
000000d0: 1d7e 9e3d 5188 173d d1e8 1bbd 95c1 853d
000000e0: 54ad 6cbd ee92 703d bf84 24bc 37e9 af3b
000000f0: 7346 91bc f4aa 453d acb6 1cbb 8f5e ddbc
00000100: 32f8 8c3c 276d 82bd 6c1c 533b 8e00 9abd
00000110: a0e8 47bc f2d5 3c3d 57bf eabc c4a4 d9bc
00000120: b0cc 823d 693a bb3b 34a1 37bd fd6d 383c
00000130: 3e42 9fbd c3a3 173d 3302 91bd 1c4f bdbc
00000140: fa0a 96bc 1e1b 3dbd 7747 523b 659a 81bd
00000150: fe04 863d d8b9 d3bc cbea 903c 57bd 703c
00000160: 8072 0f3d 64c9 2dbc 1f5a 4cbd 7023 183c
00000170: f8b5 0ebd 54dc 003d 16ea 883d 5951 e9bc
00000180: 1e68 cdbc b2ca 8a3c ffa9 72bd cc2c 75bd
00000190: 843f bb3d 2a6a f23b 9e5f 7dbc 313a 26bd
000001a0: b1a1 a1bd 1634 893d bca4 c93a 6b30 81bc
000001b0: 3010 24bd a3b0 d2b9 1791 333c 1210 fcbc
000001c0: 77f3 a6bd de78 59bd 9277 633d d234 553c
000001d0: a981 793d 1dc0 54bd 0079 b0bc 39cd 9abd
000001e0: 5364 07bd da8b 21bc 08ed 28bc 18ff a2bd
000001f0: ea17 7bbd d9a0 833d af88 8ebc 46c9 953d
00000200: e932 98bd dd9d 053d 0d8c 90bd 10e1 6f3d
00000210: 9d24 743d 901d 493d b269 19bd 4e80 803d
00000220: 762f aa3d cc3f 243b 577c a1bb f6d3 e53b
00000230: 3ad8 523d 10ea ac3b 4830 bd3c 7d57 60bd
00000240: 50a2 d2bb c18e 40bd 47bc 8ebd 64a3 043c
00000250: ef7f 823d d140 fa3b b2cb 903d 22b0 c13c
00000260: ff55 9ebd cb71 7cbd deea 9cbc f4ad 90bd
00000270: 3119 e13c 0899 81bc 292e 25bd 2854 54bd
00000280: c0e0 afbd 79e9 ad3d fb43 b63d 18e4 713d
00000290: 12d0 3a3d 4869 b9bd f16f 9ebd b672 93bd
000002a0: 8f0b 55bd c371 833c 38b2 7abc 8f0d 513d
000002b0: 836c 53bd 9756 963c d2b7 893c 30a3 283d
000002c0: 1734 ea3c 903e aa3d 0c80 bf3d a147 f93c
000002d0: 584b b63c 91bc aebd 1218 193d 169d 6fbd
000002e0: f573 9fbd 2dff 2abc d711 a73d a469 143d
000002f0: 7dd8 0d3d 6b5e 3fbd e1da 1b3b b277 1cbb
00000300: e6f9 b33b b713 5abd dcef 6e3d 745a 113d
00000310: c789 39bc 7cca f13b 1047 8c3d 14ee 99bc
00000320: 36f7 7abd 1aaa a03c f6b7 15bd f2a3 923d
00000330: ee12 52bd 9927 94bd e6b1 b23d bce4 893d
00000340: e0e6 3d3a 26a9 24bd 8d18 4bbd 647e 66bd
00000350: 8e55 63bd ddcb 40bd adc4 4a3c 7e51 89ba
00000360: cb1d 71bd b119 5b3d 0e9a 713c a5a4 6abc
00000370: 4666 16bd 7476 e5bb cdec 83bd 169f 893d
00000380: cb89 253d 3e37 38bd 5781 133b a473 1d3d
00000390: 4f03 3a3c 51a0 dc3c d533 a4bd ec97 043d
000003a0: 9bf2 3fbc 2058 583d 127e b63d 2652 42bc
000003b0: 5c45 e53c 1aa5 7a3d 7425 73bc 4db6 873c
000003c0: 134e 903d 29f8 853d c778 5c3d 58b9 89bd
000003d0: b0c9 ef3c 2969 473d 7213 26bc aa39 473d
000003e0: 0460 1f3c dd4b 07bd 64eb 17bd a181 84bc
000003f0: 20b8 14bc 808a 5bba 1cc0 b2bc f721 5abd
-0.01557389 0.1062685 -0.03473246 0.06219483 -0.031265154 -0.041280754 0.083684266 -0.044115823
0.0012864827 -0.04581276 -0.05407962 0.052737795 -0.08190982 -0.01237426 0.01621136 -0.01696905
0.032441307 -0.023373306 -0.0634485 -0.06645895 0.057752546 -0.06284485 0.0507852 -0.06932238
0.054703765 -0.03374448 0.035703745 0.0008618793 -0.04569405 -0.06284129 -0.06798427 -0.055302255
0.08560788 0.036097884 0.054764885 0.059461243 0.035989404 0.021188224 -0.08506496 0.0012099633
-0.053896237 0.058054633 0.052669108 -0.048761476 0.01631235 -0.06750128 -0.048743907 -0.08479784
0.06055046 -0.0008036312 0.009730159 -0.038296092 0.07738898 0.036995236 -0.038063828 0.065310635
-0.057782486 0.058733873 -0.010041415 0.0053683775 -0.017733788 0.048258737 -0.0023912592 -0.027022628
0.017208192 -0.063684754 0.0032212986 -0.07519637 -0.012201458 0.04610247 -0.028655691 -0.026567824
0.06386697 0.00571375 -0.04483147 0.011256692 -0.077763066 0.03702141 -0.070804976 -0.023109011
-0.01831578 -0.04616844 0.0032086053 -0.063282765 0.06543921 -0.025845453 0.017690083 0.01469358
0.035021305 -0.010607097 -0.049890634 0.009285793 -0.034841508 0.03146012 0.06685273 -0.028481172
-0.025074061 0.016942356 -0.059244152 -0.059857175 0.09142974 0.0073979096 -0.015464691 -0.04058284
-0.07892168 0.06699388 0.0015384178 -0.015770158 -0.0400545 -0.00040185926 0.010959885 -0.030769382
-0.08151906 -0.053093784 0.055533953 0.013013082 0.06091467 -0.051941026 -0.021542072 -0.07558674
-0.03305466 -0.009860003 -0.010310419 -0.079588115 -0.061302103 0.06427164 -0.01739916 0.073137805
-0.07431585 0.032621253 -0.070579626 0.058564246 0.05960523 0.04910046 -0.037454315 0.06274472
0.08309834 0.002506244 -0.0049281525 0.007013793 0.05147574 0.005276926 0.023094311 -0.054770935
-0.0064280406 -0.04701114 -0.06969505 0.008095596 0.06372058 0.0076371212 0.07070102 0.023643557
-0.07731246 -0.06163196 -0.019154962 -0.07064429 0.027477833 -0.015820041 -0.040327225 -0.05183807
-0.085877895 0.08491797 0.08899685 0.059055418 0.045608588 -0.09053284 -0.07736195 -0.07199614
-0.052012976 0.016045457 -0.01530128 0.05103832 -0.051617157 0.018351836 0.016811285 0.041171253
0.028589291 0.08312714 0.09350595 0.030429663 0.022252724 -0.0853206 0.03737647 -0.05849942
-0.07785789 -0.010436815 0.081576996 0.03623356 0.034630287 -0.046720903 0.0023781585 -0.0023875055
0.0054924367 -0.053241458 0.058334216 0.035486653 -0.011324353 0.0073788743 0.068494916 -0.018790282
-0.061270915 0.01961236 -0.036552392 0.07160176 -0.051287584 -0.07234115 0.08725338 0.06733081
0.0007244181 -0.040200375 -0.04958396 -0.05627288 -0.055501513 -0.04706942 0.012375993 -0.0010476557
-0.058866303 0.053491298 0.014746202 -0.014321481 -0.03671863 -0.007002646 -0.064416505 0.06719796
0.040414613 -0.044974558 0.0022507512 0.03844036 0.011353328 0.026931914 -0.08017699 0.032371446
-0.0117155565 0.052818418 0.08910765 -0.011860406 0.027987175 0.06119261 -0.0148404725 0.01656642
0.070461415 0.065414734 0.05382612 -0.06724805 0.029270977 0.048684273 -0.010136472 0.048638977
0.009727482 -0.033031333 -0.03708972 -0.016175093 -0.009077102 -0.0008374825 -0.02182012 -0.053255048

μ.weight f4 [3, 256]
00000000: 6e66 01bd e572 953d 6bce 67bd 9b5c 06bd
00000010: 5b35 1b3d 8c18 86bb f7bc 403d 8e3f 91bc
00000020: c5c1 3abd 1ff0 5b3d 593a 0b3c 87f3 973c
00000030: c064 aebb 66db d83c e131 33bd 4a6d aebc
00000040: 775e 633d 283f 53bd 433f 06bd 0087 bebb
00000050: b2e0 e6bb e4a5 d03c f263 d9bc 02de 3cbd
00000060: 115d fcbb 3f0c d33c e452 2ebd f1dd 76bc
00000070: 38be 9abb bdd4 97bc 3486 0b3d 2d33 633d
00000080: 7dae 0dbc ce31 fe3c d26f 78bc 11bd bd3a
00000090: 8501 553c 84de b63a 3b59 1cbd 7556 5e3d
000000a0: 5e78 893b 8690 373c 2f1c d8bc a92f b03c
000000b0: cd81 753d 0d02 b83c 0f65 763d f6d7 7a3a
000000c0: 976a dabc e672 823d 6081 84bc 60b3 b33c
000000d0: 0473 6c3d 98ba fd3b 7380 973c bc49 50bd
000000e0: e455 83bc 5be2 803d 416b bf3b 55ac f3bc
000000f0: 01d0 443d e7e6 093d 0b85 803c 5df1 76bc
00000100: 56fd 48bd dcad 8abc e9bc 49bd f8b2 30bd
00000110: 8132 14bd b6cf 35bb 3177 4ebd 9540 53bc
00000120: b916 4b3d 990f 1dbd 7cd7 1b3d 09a6 27bd
00000130: ba9f 20bd a2b4 5e3d 9cce 04bd 15b0 65bd
00000140: ed38 13bd 7595 8b3d 0b72 573b 9ce8 6abd
00000150: f923 913d cbf8 e83c 4329 6ebc 9a6f 9939
00000160: fcf2 3d3d c3ed 14bd 7d4e 5dbd f822 9a3b
00000170: 2648 8b3d 8a72 fd3c bf9a 6a3d 7ddf 3f3c
00000180: 0c6d 923c 9023 813c fcf6 d13b 5bb2 80bc
00000190: 5968 5c3d c8f3 8d39 3554 0b3d 95c0 e7bb
000001a0: 09ab 6e3c 3da5 7cbd dcb9 dcbc 51e6 68bc
000001b0: 6350 7bbd 6934 33ba cdf7 46bd 4476 363d
000001c0: 4e93 52bc 5b0e 953d aac3 4cbd 3742 783d
000001d0: aefb 863d 2322 d93b a84c aa3b 5003 3b3d
000001e0: 9c31 013d f597 553d 3324 233d d8fa 3a3d
000001f0: a0e4 543d e652 10bd aa0a a0bc fb9f e93c
00000200: bbd5 53bd 4bae a43c 3e1f 153d 7fb4 37b9
00000210: 4a29 773c 4545 873d 1e9e 023d aecb 9abc
00000220: 6064 193d aca5 2abc 964f 443d ca39 913c
00000230: 2ec8 223c 9757 25bd d4d3 06bd 1557 6bbd
00000240: 312e cd3c 053c 3fbd 53fb 2a3d e735 cfbb
00000250: 3124 dc3c f643 163d 5680 c9bb 78b0 25bd
00000260: 3807 d23c 71ae 6abc 0e2a 9d3c 0906 023d
00000270: ff19 4a3c 53f2 973c ce18 17bc a27f 6b3d
00000280: 9687 4e3c 982f e43c b6e3 583d 3f38 fbbc
00000290: aefe 15bd c1fa 3fbd f12e 473c 5675 873a
000002a0: 0c8a 763b cb89 73bd e816 c2bb b662 303d
000002b0: 29c6 f03c 7a94 933d 5b70 44bd 83ba ed3c
000002c0: 9a06 763d bf39 2fbd 1e37 a6bb 5625 163d
000002d0: 77a0 343d a486 943d 1081 75bc 6c68 64bc
000002e0: 85ef ae3a f80a 1dbd 398f 8cbc b0ba fb3b
000002f0: bdd4 36bd e90d 61bd a2e8 ebbc 892b 2abd
00000300: d162 44bd 7c54 033d e127 afbc 0089 983d
00000310: ba68 62bd 747f 8abc e92a 603d 091b 633d
00000320: 9066 ccbc 9080 863b a8d0 f43b 5386 7bb9
00000330: 34b5 41bd 512c 7d3d 10ee cb3c 1ee5 673d
00000340: 6c24 173c 517d 5f3d 92e5 88bb d258 02bd
00000350: 1996 6c3d 09b2 34bd c36b 97bb 48cd 873d
00000360: 5b0c ae3a d1da 923c e918 103d b6d5 1cbc
00000370: 65f2 373c 6f38 783c d73b 2c3d ee0b 64bc
00000380: 4076 0fbd a28d 763c 772b 2c3c 6de4 353d
00000390: c6f5 00bc 9c57 91bc 5e8c 12bd 74bb 063d
000003a0: 99bb 733d 072c c53c 48a6 8a3d 5422 adbc
000003b0: d5e8 2fbd 7e35 183d 18fa 883d 46a5 3ebc
000003c0: 0a5c 54bd 8444 64bb 64b0 3b3d bfa4 673c
000003d0: dfc7 72bd dd83 563c 4789 123d 3c7d 0b3d
000003e0: 4d00 28bd a3c0 783d 84e0 45bd 7ef5 56bd
000003f0: 70ea 2dbd 421e 333d c6da 953c 3aab 823d
-0.031591825 0.07297305 -0.05659334 -0.03280316 0.03789268 -0.0040922817 0.04705521 -0.0177305
-0.04559495 0.053695794 0.008497798 0.01854874 -0.005322069 0.026471805 -0.04374874 -0.021292347
0.05551001 -0.051573902 -0.032775175 -0.005814433 -0.0070458287 0.025469728 -0.026536915 -0.04611016
-0.007701524 0.025762675 -0.04255952 -0.015067563 -0.004722383 -0.018534059 0.034063533 0.055468727
-0.008647558 0.031029608 -0.015163379 0.0014475902 0.013000851 0.0013951813 -0.038171034 0.05428167
0.004195257 0.011203891 -0.026380626 0.021507101 0.05993824 0.022461915 0.06015497 0.0009568924
-0.026662154 0.063695714 -0.016174972 0.021936119 0.057726875 0.007743191 0.018493867 -0.05085157
-0.016032167 0.06293174 0.005841643 -0.02974526 0.04804993 0.03366747 0.01568844 -0.015072194
-0.049069725 -0.016928606 -0.049252424 -0.043139428 -0.036180977 -0.0027742214 -0.05040664 -0.0128938155
0.049582217 -0.038344953 0.0380473 -0.040929828 -0.039214827 0.054371484 -0.0324236 -0.056076128
-0.03594296 0.06815616 0.0032874371 -0.05735074 0.07086939 0.028438946 -0.014536205 0.00029265584
0.046374306 -0.03635956 -0.05402993 0.0047038756 0.068008706 0.030938406 0.057276484 0.011710999
0.017874263 0.015764028 0.0064076167 -0.015710047 0.05381045 0.00027075247 0.034015853 -0.007072518
0.014567145 -0.06168102 -0.026944093 -0.014215068 -0.06135596 -0.0006836118 -0.048576165 0.04454638
-0.012852503 0.07278129 -0.049991287 0.060610022 0.06590973 0.006626384 0.0051971264 0.045657456
0.03154145 0.05214687 0.039829444 0.04564938 0.051975846 -0.035235308 -0.019536335 0.028518667
-0.0517175 0.02010264 0.036406748 -0.0001751948 0.015085528 0.06605009 0.031889074 -0.01889595
0.03744924 -0.010415476 0.04792746 0.017727751 0.009935422 -0.040366735 -0.03291686 -0.057456095
0.02504644 -0.0466881 0.041743588 -0.0063235643 0.026872726 0.036685906 -0.006149332 -0.040451497
0.025638208 -0.014323817 0.019185092 0.031744037 0.0123352995 0.018548166 -0.0092222225 0.057494767
0.012605568 0.027854726 0.052951537 -0.030666469 -0.036619835 -0.046869997 0.012157188 0.0010334651
0.0037618903 -0.05945758 -0.005923141 0.043062888 0.029391365 0.07206054 -0.047958713 0.0290196
0.06006489 -0.04277968 -0.0050724884 0.0366567 0.044098344 0.07252243 -0.014984384 -0.013940912
0.0013346529 -0.03834054 -0.017158138 0.007682167 -0.044636477 -0.054944906 -0.028797451 -0.041545425
-0.0479458 0.032062992 -0.02138132 0.07448006 -0.055275656 -0.016906478 0.054728422 0.055445705
-0.02495125 0.0041046813 0.007471163 -0.00023987265 -0.04729195 0.06180984 0.02489379 0.056614988
0.009224992 0.05456287 -0.0041777575 -0.031822987 0.05776033 -0.0441151 -0.0046210005 0.06630951
0.0013278829 0.017926605 0.035180006 -0.009572437 0.011227225 0.015150174 0.042049255 -0.01391886
-0.03502488 0.015048416 0.01050841 0.044407297 -0.007871097 -0.01774197 -0.035778396 0.032893613
0.05950508 0.024068845 0.06769997 -0.021134533 -0.042946655 0.03716039 0.066883266 -0.011636084
-0.051845588 -0.0034830878 0.045822516 0.0141384 -0.059272643 0.013092962 0.03577545 0.03405498
-0.04101591 0.060730588 -0.048309818 -0.052480213 -0.042459905 0.043730028 0.018292796 0.06380315

μ.bias f4 [3]
00000000: ea47 2abd d8a0 9abc 3fd0 91bd
-0.04157249 -0.018875524 -0.07119798

σ.weight f4 [3, 256]
00000000: 1731 b33b 0a98 563d be4f 0ebd 41f1 893d
00000010: dceb 57bd 3f7e d0bc 515b 903d fa14 74bb
00000020: 5235 0f3d 4c1f bf3c 01d5 443d 0e60 293d
00000030: e45f 423d 9ab6 68bb 50ac 533d 3a63 8d3d
00000040: 020b 32bd e2b7 1abd 7ec7 4b3d d437 e43c
00000050: 8753 783d 00ca 4fbb 52b4 a6bb dfec 17bc
00000060: 73c4 a73c 59e8 f8bc 4835 0e3d bb66 883d
00000070: 3376 483c 09db 2cbd a214 463d fe5c 88bc
00000080: 5496 463d 56a6 853d 8e1c 1a3d 4099 933d
00000090: 6d99 123d 059e 0cbd ae4a d0bc b54e 2e3c
000000a0: 4d9a a93c b789 c0ba 0808 a0bc 818c 9fbb
000000b0: dc26 693c 0cd6 163c 2961 d1bc 2141 0c3b
000000c0: b3e0 23bd 94ad d1bb 4e27 1dbc dad8 08bd
000000d0: 4a91 bf3c 5836 73bd a803 053d 754f 313c
000000e0: dcc4 67bd 2c4a 89bc 715e d0bc 81e8 6bbd
000000f0: f5c2 61bd 0f4a 63bb 64b3 48bd df07 22bd
00000100: 4270 643d 140a 903d 7337 8b3d 7227 e83c
00000110: b814 1abd aa9b 22bb 8e4e 0dbd dab2 6bbb
00000120: ac1f 32bd be04 9f3c f962 40bd 01c0 0dbd
00000130: c7ed 693d cb08 4b3d f0cc d0bc 8fb7 f1bc
00000140: cb7b 373d 2c9d 56bc e87b 7cbc bca9 39bd
00000150: d6e7 e6bc 0d3f 823d b25f c8bc 3294 213d
00000160: 2c4d 37bd e8c2 0c3d 3d63 a7bc c9e1 1e3b
00000170: 0a5a ddbb e9ea dc3c 5c41 7d3d a23f 233d
00000180: a136 0b3d 7508 aabc 6a72 3dbc 2f36 87bc
00000190: ccfc ed3b 6409 533d 63ca 583d abc4 9bbb
000001a0: bb5e cf3c 67a4 403d 0410 6f3d 8d3f 583d
000001b0: f385 823d 8cbb 233d 920c 433c 29c0 e23c
000001c0: e739 103d ab25 89bc ea90 1c3d c2a7 513c
000001d0: 8642 483d 84af e8bc 574f 4ebd 29df 723d
000001e0: fa2b c7bb e744 593d a5c2 a83c 876f e23c
000001f0: 280e 4ebd c68f 06bc 3628 a4bc 4a0d 3f3d
00000200: 29c8 91bc d222 2e3d 79c4 3fbc 0739 313d
00000210: 1324 4a3d 8ea7 543d c192 b53b 26d8 f9bc
00000220: 9ce0 05bd 956e 27bb f215 033d aa26 ff3c
00000230: 3f8b 24bd aefe 653d 87d7 fa3c 35c0 253d
00000240: 07d4 083d fb01 8dba 3071 0cbd a9d1 f93c
00000250: 58af a63c f310 113b 796c 8a3d c8fc 213d
00000260: 20a8 b43c 0deb c73b d9dc fabb 29f0 b9bc
00000270: d642 ff3c 289c b03c 8b8e ac3c 58f5 7e3d
00000280: 1f19 82bc 9776 edbc a3ff eb3c 80fd 253d
00000290: e0f7 4abb 1acf 963c c357 2e3c bb90 2a3d
000002a0: 4580 e43c 0ba5 bcbc 1ff8 f7bc 21cc bf3b
000002b0: c4a6 15bc c5d4 83bc 17d9 bbbc b896 703d
000002c0: d3de a53c dd5e 323d 31cb 46bb 0da6 4a3d
000002d0: 9aec 273d cd2e 9338 44ab d9bc 71e6 7b3d
000002e0: eef2 283d 8055 adbc 96b0 0ebd d03f c2bb
000002f0: cd98 f5bb 2c59 0b3d 126b 883d 5481 fd3c
00000300: 2866 943d b00b f0bc ec00 973c 9744 b53b
00000310: c13a 403b a570 923c da0c 01bd 9307 1c3c
00000320: 05fd 683d f661 083d e877 1b3d 74ba 493d
00000330: 4204 d9bc 8209 a63c f742 89bc ff1a 833d
00000340: d5af 37bd ee61 c5bc 118d 04bd c828 3fbd
00000350: eb9a 053d 5097 ddbc 8a9e 5d3d 61be c8bc
00000360: aa6b 8f3d 54c4 633d 0bc5 8a3d 4ca7 bdbc
00000370: 4000 503d 35ef 56bd be92 46bc 2e66 4ebd
00000380: a00f 92b9 f324 713d 1d71 4dbd 30c4 813c
00000390: 2e51 173d 3d01 803d ae3c 9c3c 5a67 14bd
000003a0: 6310 4f3d d74b 613d 9832 2b3c 3770 d4ba
000003b0: d738 043d 3c41 933d 87a8 43bd f6cf 7bbc
000003c0: 167a 21bd 6712 f13b 814b 9c3d a360 8b3d
000003d0: 7ff7 9d3c 7b5d 2abb 6ab0 2cbb 4a5f 783d
000003e0: 9422 883d f1bb 4b3c d844 03bd 0884 8abc
000003f0: a8d3 2bbc ee28 723d bbb6 91bb 47af 703d
0.0054684984 0.05239109 -0.034744017 0.06735469 -0.052715167 -0.025450824 0.07048667 -0.0037243948
0.03496296 0.023330353 0.0480547 0.04135137 0.04745473 -0.003550923 0.051678002 0.069036916
-0.04346753 -0.03777302 0.049750797 0.027858652 0.060626533 -0.0031706095 -0.005087414 -0.009272783
0.020479416 -0.03038423 0.03471878 0.06660219 0.012235212 -0.042201076 0.04835952 -0.016645905
0.048483208 0.06525867 0.037624888 0.072069645 0.03579085 -0.034330387 -0.025426235 0.010638882
0.02070346 -0.001468948 -0.01953508 -0.0048690443 0.014230456 0.009206306 -0.025559025 0.0021401125
-0.04000921 -0.006398866 -0.0095918905 -0.03340993 0.023384709 -0.059377998 0.03247419 0.010822167
-0.056584224 -0.016759 -0.025435658 -0.05759478 -0.055117566 -0.0034681594 -0.048999205 -0.039558288
0.05577112 0.07033172 0.067976855 0.028339121 -0.037617415 -0.0024812021 -0.034498744 -0.0035964758
-0.043487236 0.019411441 -0.046969388 -0.034606937 0.057111528 0.049568933 -0.025488347 -0.029506473
0.044795793 -0.013098996 -0.015410401 -0.045327887 -0.02818672 0.06359682 -0.024459694 0.03944797
-0.04475133 0.034365565 -0.020433063 0.0024243465 -0.0067551183 0.026967483 0.06182991 0.039855607
0.033987645 -0.020755986 -0.011562923 -0.016505329 0.0072628018 0.051522627 0.052927386 -0.0047536693
0.025313726 0.047031786 0.058364883 0.05279498 0.06373205 0.03997378 0.011904852 0.02767952
0.03521147 -0.016741594 0.03822414 0.012796344 0.048891567 -0.028404005 -0.050368633 0.059294853
-0.0060782405 0.053044226 0.020600626 0.027641071 -0.05030647 -0.008212989 -0.020038705 0.046643533
-0.01779564 0.042513676 -0.011704558 0.043267276 0.04935081 0.051917605 0.005541176 -0.030498575
-0.032684907 -0.002554809 0.03200335 0.031146366 -0.040171858 0.056151085 0.03062035 0.040466506
0.03340533 -0.0010758037 -0.03428763 0.030495482 0.020347282 0.0022135347 0.06758971 0.03954771
0.022052824 0.0061010183 -0.0076557216 -0.022697525 0.0311598 0.021558836 0.021064064 0.062245697
-0.01588112 -0.028987212 0.02880842 0.04052496 -0.00309705 0.0184093 0.010641041 0.041641932
0.027893195 -0.023027917 -0.03026968 0.0058531915 -0.009133998 -0.016092667 -0.022930665 0.058737487
0.020247852 0.0435475 -0.0030333514 0.049474765 0.040997125 7.0182236e-05 -0.026570924 0.061499063
0.0412473 -0.021158934 -0.034836374 -0.005928017 -0.007495022 0.034020588 0.06661047 0.030945458
0.07246047 -0.029302448 0.018433057 0.005531858 0.0029331895 0.017875979 -0.031506397 0.00952329
0.056881923 0.033296548 0.03795615 0.04925008 -0.026491288 0.020268206 -0.016755564 0.064016335
-0.04484542 -0.024094548 -0.032361094 -0.04666975 0.032618444 -0.02704969 0.054106273 -0.024504842
0.07002957 0.055607155 0.06775864 -0.023151062 0.05078149 -0.05247422 -0.012119947 -0.050390415
-0.00027858932 0.05887313 -0.0501567 0.01584062 0.036942653 0.06250236 0.019071903 -0.036231376
0.050552737 0.055003967 0.010449074 -0.0016207759 0.03228077 0.07190177 -0.047768142 -0.015369406
-0.03942307 0.00735693 0.07631589 0.06805541 0.019283054 -0.002599566 -0.0026350268 0.06063775
0.0664722 0.012434945 -0.032048076 -0.01690866 -0.0104874745 0.059121065 -0.004446832 0.058760908

σ.bias f4 [3]
00000000: 7bb8 4abd eddf 9ebd 3b4a 843b
-0.04949234 -0.07757554 0.0040371693
