model/p_no43.pth (torch, 143992 bytes, 8 tensors)

net.0.weight f4 [128, 9]
0	0x3e9c5b05	0.30538192
1	0xbe057ee5	-0.13036688
2	0x3e51e316	0.20496783
3	0x3d9ff812	0.078109875
4	0x3eb542b7	0.35402462
5	0x3e50fdd9	0.20409335
6	0x3e5234fb	0.20528023
7	0xbe84c5fa	-0.25932294
8	0xbde5c3a8	-0.11218959
9	0x3e748f01	0.23882677
10	0x3e1f27b2	0.15542486
11	0xbc35e14e	-0.01110108
12	0xbe360aa1	-0.17777492
13	0xbe5609d7	-0.20902191
14	0xbde9c5d2	-0.11414684
15	0xbe2098e4	-0.15683323
16	0x3d048618	0.032354444
17	0x3dca1f2e	0.09869228
18	0x3cb2bae6	0.021817636
19	0x3e5553ef	0.208328
20	0x3d70f562	0.058827765
21	0x3d3382e9	0.043826018
22	0x3e75f1ba	0.24017993
23	0xbe4a78bf	-0.19772623
24	0xbe2127bb	-0.15737812
25	0x3c6fd70b	0.014638673
26	0xbd3733a8	-0.044726998
27	0xbd0f46c0	-0.03497958
28	0x3ea0417f	0.3129997
29	0x3db77c32	0.08959235
30	0xbeb56f12	-0.35436302
31	0xbd71b128	-0.05900684
32	0xbd736b6f	-0.05942863
33	0xbd93ffab	-0.07226499
34	0x3e27b9a7	0.16379414
35	0x3e8aa6b3	0.27080306
36	0x3e546d98	0.20744932
37	0xbead0970	-0.33796263
38	0x3eab0726	0.3340389
39	0x3e94ad60	0.29038525
40	0xbdb88615	-0.09009949
41	0xbe9825c8	-0.29716325
42	0x3dae6683	0.08515646
43	0x3bac77b3	0.0052632927
44	0xbe04dd22	-0.1297498
45	0x3da323f7	0.07965844
46	0xbea9797d	-0.331005
47	0xbe3fddc2	-0.18736938
48	0xbc68a009	-0.014198312
49	0x3ca7a1e7	0.020462943
50	0xbdee605f	-0.11639475
51	0xbe8b0acd	-0.27156678
52	0xbe618d56	-0.22026572
53	0x3e390b5c	0.1807074
54	0xbe637c27	-0.22215329
55	0x3db5b2a4	0.088719636
56	0xbe769a0c	-0.24082202
57	0x3e225438	0.1585244
58	0xbe0c09e4	-0.13675648
59	0xbe675dd8	-0.22594392
60	0x3c103553	0.008801776
61	0x3e223ecb	0.15844266
62	0x3e4fedb7	0.20305525
63	0x3e3042ab	0.17212932
64	0x3e9ad408	0.30239892
65	0xbcfe8fb3	-0.03107438
66	0xbdfd0c01	-0.12355805
67	0xbeb19165	-0.3468124
68	0xbc194e8a	-0.009357104
69	0xbe99815d	-0.2998151
70	0xbe83725d	-0.2567319
71	0x3d338887	0.043831374
72	0xbe927bb6	-0.2861001
73	0x3e59b460	0.21260214
74	0x3d894661	0.06702877
75	0xbeaa5fd0	-0.33276224
76	0xbe81181c	-0.25213706
77	0xbe004b8f	-0.12528823
78	0xbe08c11f	-0.1335492
79	0x3e8db0a7	0.27673838
80	0x3e5ecc0f	0.2175753
81	0x3dded49a	0.10880394
82	0x3e8841ce	0.26612705
83	0x3e7e7cd1	0.24852301
84	0xbe7d535e	-0.24738833
85	0x3e950920	0.29108524
86	0x3de93964	0.113878995
87	0x3e35288e	0.17691252
88	0xbd2769da	-0.040872432
89	0xbe9eb7b0	-0.30999517
90	0xbe11db5c	-0.14243835
91	0x3db2198e	0.086962804
92	0xbe35ab9d	-0.17741247
93	0xbdbd7af2	-0.092519656
94	0x3e987ae4	0.29781258
95	0x3d5daf6a	0.054122366
96	0xbd01be58	-0.031675667
97	0xbe8d7200	-0.27626038
98	0xbcd00e5f	-0.025397478
99	0xbe71979f	-0.23592995
100	0xbe7e742c	-0.24849004
101	0xbe9aceab	-0.302358
102	0x3ea3220e	0.3186192
103	0xbd89ae8b	-0.067227446
104	0x3e535880	0.20639229
105	0x3eb18781	0.34673694
106	0x3cd24ae1	0.02567047
107	0x3e9695e7	0.2941124
108	0xbe4b4629	-0.19850983
109	0xbd3eb6ce	-0.046561055
110	0xbd26fe55	-0.040769894
111	0x3e67c790	0.22634721
112	0x3eac6ef2	0.33678395
113	0xbe36f85c	-0.17868179
114	0x3e32a197	0.17444454
115	0x3d9f472c	0.07777247
116	0xbe6b3dbd	-0.2297277
117	0x3e657603	0.22408299
118	0x3e0f50fd	0.13995738
119	0xbe6049d9	-0.2190317
120	0x3df79918	0.12089747
121	0xbe8c7714	-0.274346
122	0xbea092c0	-0.3136196
123	0xbb4573ec	-0.003012891
124	0x3eaccc28	0.3374951
125	0xbd5c3932	-0.053765483
126	0x3e4f09b4	0.20218545
127	0x3d9aae28	0.07552749
128	0x3e2120c5	0.15735157
129	0xbdb825bd	-0.08991573
130	0xbe00e252	-0.12586334
131	0xbd8420ef	-0.06451594
132	0xbdd26154	-0.1027247
133	0xbdcb37cd	-0.099227525
134	0x3e855f77	0.26049396
135	0x3df2a947	0.11848693
136	0x3d6b07f5	0.057380635
137	0x3e870046	0.26367396
138	0xbdcdb3c4	-0.10044053
139	0x3d997aa9	0.07494099
140	0xbdd4232b	-0.1035827
141	0xbddb6803	-0.10713198
142	0xbe1f9472	-0.15583971
143	0x3e82e512	0.25565392
144	0xbcb6b091	-0.02230099
145	0x3e8eefdb	0.2791737
146	0xbe909186	-0.28236026
147	0x3dc84198	0.09778136
148	0xbeb1b5ad	-0.3470892
149	0xbe7a27c7	-0.24429236
150	0xbe12f368	-0.14350665
151	0x3e9ef484	0.31045926
152	0xbdb2f62e	-0.08738361
153	0xbea86195	-0.3288695
154	0x3e2ca297	0.16858898
155	0xbe6c0b7d	-0.23051257
156	0xbd8bb0a5	-0.06820802
157	0xbe552262	-0.20813897
158	0xbea47876	-0.32123154
159	0xbe3a17d8	-0.18173158
160	0xbc2ced52	-0.010554628
161	0x3d19a429	0.03751007
162	0xbe1a67e2	-0.1507869
163	0xbd86de2e	-0.06585346
164	0x3d57ef89	0.052718673
165	0x3e883e1b	0.26609883
166	0xbe5c08f1	-0.21487786
167	0xbe06dfd2	-0.13171318
168	0xbe717f97	-0.23583828
169	0x3c64bcc4	0.013961021
170	0x3e55a838	0.20864952
171	0xbe94ec1c	-0.29086387
172	0xbeb23051	-0.34802487
173	0xbd80aee2	-0.06283356
174	0x3e957713	0.2919241
175	0x3e9fc368	0.3120377
176	0x3e271ad9	0.16318835
177	0x3b0e45d5	0.0021709104
178	0x3cc062e9	0.023484664
179	0xbdcdefd8	-0.10055512
180	0x3b80989f	0.003924444
181	0x3e944467	0.28958437
182	0xbe9726c8	-0.29521775
183	0x3dc0b441	0.09409381
184	0xbe7d37e3	-0.2472835
185	0xbcfdd828	-0.03098686
186	0xbe8fb975	-0.2807118
187	0x3e587c3a	0.21141139
188	0x3dff8dfe	0.12478255
189	0xbc82d344	-0.01596988
190	0xbe83b0bc	-0.25720775
191	0x3daa0d17	0.08303278
192	0x3d6f76ad	0.058462787
193	0x3e50f602	0.20406345
194	0x3dee6437	0.11640208
195	0xbe53cfed	-0.20684786
196	0x3ea47dab	0.32127127
197	0x3e225d1e	0.15855834
198	0x3d0323c6	0.032016538
199	0xbe62c8d7	-0.22146927
200	0x3b12d115	0.0022402455
201	0xbd55cc2b	-0.052196663
202	0xbc08dcde	-0.00835344
203	0x3e9766e8	0.295707
204	0x3e33b095	0.1754783
205	0xbe9a8f55	-0.3018748
206	0x3dc36533	0.095407866
207	0x3e8e2ccd	0.27768555
208	0xbde25044	-0.11050466
209	0x3cdd81b7	0.027039392
210	0x3e5a3c4d	0.21312065
211	0xbcaf38ff	-0.021389483
212	0xbea59290	-0.3233838
213	0xbd5ab154	-0.05339177
214	0x3e5f39b6	0.21799359
215	0xbe506182	-0.20349696
216	0xbe03fbdb	-0.12889044
217	0x3e93a8b1	0.2883964
218	0x3d4b7e56	0.04968103
219	0x3e93cb53	0.28866062
220	0xbd9a0a76	-0.075215265
221	0xbe41d907	-0.18930446
222	0xbd0e8e19	-0.034803484
223	0xbe956d30	-0.29184866
224	0x3e8237ac	0.254331
225	0x3beed8cf	0.007289029
226	0xbd1af35c	-0.03782974
227	0x3eabbae8	0.33541036
228	0xbd076eb3	-0.033064555
229	0x3e2201c0	0.1582098
230	0xbe4f2c1c	-0.2023167
231	0xbe8262f6	-0.25466126
232	0x3d8a6be4	0.0675886
233	0x3e16cc37	0.1472634
234	0xbd8fcf8a	-0.07022007
235	0x3e806496	0.2507674
236	0xbe932029	-0.28735474
237	0xbd454392	-0.048160143
238	0x3c32c55f	0.010911315
239	0xbda91a33	-0.0825695
240	0x3cdd048f	0.026979713
241	0x3e999435	0.29995885
242	0x3d3df75d	0.046378482
243	0xbe9a2672	-0.30107456
244	0xbe8252bf	-0.25453755
245	0xbd285488	-0.04109624
246	0xbe91c315	-0.28469148
247	0x3e689765	0.22714002
248	0xbd6beed5	-0.057600815
249	0x3da6482b	0.08119234
250	0x3e968ee0	0.2940588
251	0x3ea8e630	0.3298812
252	0xbe0cec76	-0.13762078
253	0xbcc84e57	-0.024451418
254	0xbe3daabd	-0.18522163
255	0xbe1a5357	-0.15070854

net.0.bias f4 [128]
0	0x3d9a161e	0.0752375
1	0x3dfb3b74	0.12267199
2	0x3e945d0d	0.28977242
3	0x3d7131df	0.05888545
4	0xba54c7e7	-0.0008116946
5	0x3d4d5fb2	0.05014009
6	0x3e87c0ee	0.2651438
7	0x3e9a0de6	0.3008873
8	0xbe75fcac	-0.24022168
9	0xbdbb3cdf	-0.091424696
10	0x3df05a9a	0.11736031
11	0xbd455b03	-0.0481825
12	0x3d2d678e	0.042335086
13	0x3e4496db	0.19198172
14	0xbe870d7a	-0.2637747
15	0xbe66b3cd	-0.22529526
16	0x3eaa2564	0.33231652
17	0x3dee59a4	0.11638191
18	0x3d7d6381	0.061862472
19	0xbdfe9f1b	-0.12432691
20	0x3e76b00e	0.24090597
21	0x3ea89e7b	0.3293341
22	0x3e254a59	0.16141643
23	0xbde2113e	-0.11038445
24	0x3e83d993	0.25751933
25	0x3e94af7f	0.29040143
26	0x3da94b53	0.0826632
27	0xbd6b1dd0	-0.05740148
28	0xbe1c4158	-0.15259302
29	0xbe590e1b	-0.21196787
30	0xbe6c0caa	-0.23051706
31	0xbcda910f	-0.026680497
32	0xbe8a1d65	-0.2697555
33	0xbe64f9dd	-0.2236094
34	0x3e26370a	0.16231933
35	0x3e355b2d	0.17710562
36	0xbde44dcd	-0.11147652
37	0xbdc28dd5	-0.094997086
38	0x3e99cafb	0.30037674
39	0x3ddfd504	0.109293014
40	0x3da2a784	0.07942107
41	0x3e55a469	0.20863499
42	0x3e0d03df	0.13771008
43	0xbe86e9f6	-0.26350373
44	0xbe632fc3	-0.22186188
45	0xbd0c2890	-0.03421837
46	0x3e7b7322	0.24555638
47	0x3e98e979	0.29865626
48	0x3d92cec5	0.071683444
49	0x3e7a3663	0.2443481
50	0x3e6562c7	0.22400962
51	0x3e5f75df	0.21822308
52	0xbd28d928	-0.04122272
53	0x3e936f10	0.2879567
54	0x3e9565e3	0.29179296
55	0x3e8b644b	0.27224955
56	0x3e88885d	0.26666537
57	0x3e084fb4	0.13311654
58	0xbd3439e0	-0.044000506
59	0x3e98c207	0.2983553
60	0x3e9c7b54	0.30562842
61	0x3d06d242	0.03291536
62	0x3db7fffe	0.089843735
63	0x3da8aef7	0.08236497
64	0x3e96c215	0.29444948
65	0xbe6e8abc	-0.2329511
66	0x3e514526	0.20436534
67	0x3e6247d9	0.2209772
68	0xbe6e4c0c	-0.23271197
69	0xbde610ce	-0.11233674
70	0x3e23c7b5	0.15994151
71	0xbaa0a5d0	-0.0012256447
72	0xbda0c708	-0.07850462
73	0xbbd94940	-0.0066310465
74	0xbe811e6a	-0.25218517
75	0x3e29f9b4	0.1659916
76	0x3e7c6052	0.24646118
77	0xbcfb108d	-0.03064754
78	0x3e573e05	0.21019752
79	0xbe3f31a8	-0.18671286
80	0x3ea4f976	0.32221574
81	0xbe8ad003	-0.27111825
82	0x3e999d3b	0.3000277
83	0x3e37fc85	0.17967422
84	0x3c241f6b	0.010017256
85	0x3df581c5	0.11987642
86	0xbd18277b	-0.037147027
87	0x3e848884	0.25885403
88	0xbd680c12	-0.056652136
89	0xbdb02195	-0.08600155
90	0xbe914ce6	-0.2837898
91	0x3ea42cd4	0.3206545
92	0x3e15b967	0.14621507
93	0xbe44f598	-0.19234312
94	0x3e1f79b4	0.1557377
95	0x3c0baeb2	0.008525537
96	0xbd16e0ad	-0.03683536
97	0x3eafa100	0.3430252
98	0xbd0314a4	-0.032002106
99	0xbd924866	-0.07142715
100	0x3e26cb99	0.16288604
101	0x3e3129cf	0.17301105
102	0x3e8b1bb8	0.27169585
103	0x3d80357a	0.062602
104	0x3da4f8ca	0.08055265
105	0x3e5b6225	0.21424158
106	0xbd573b5f	-0.052546855
107	0xbe6fed1a	-0.23430291
108	0x3e5f996f	0.21835874
109	0x3ea06d7f	0.3133354
110	0x3dbd917b	0.09256264
111	0x3d9efba5	0.07762841
112	0xbe72908a	-0.2368795
113	0xbe3fa8a8	-0.18716681
114	0x3e32dbb1	0.17466618
115	0xbe80385e	-0.25043005
116	0xbe544fe3	-0.207336
117	0x3db2269e	0.08698772
118	0x3e8d107a	0.27551633
119	0x3e96708c	0.2938274
120	0xbcae179b	-0.02125149
121	0x3e89acd5	0.26889673
122	0xbe0756b6	-0.13216671
123	0x3da22f0c	0.0791913
124	0x3eae739b	0.34072575
125	0x3da7ee21	0.08199716
126	0xbd394023	-0.04522718
127	0xbbd03f04	-0.0063551683

net.2.weight f4 [256, 128]
0	0xbd49be77	-0.049253907
1	0xbd1169b5	-0.0355012
2	0x3da31d90	0.07964623
3	0xbd8e4022	-0.06945826
4	0xbdb1a362	-0.08673741
5	0xbd93d003	-0.072174095
6	0xbd8fb610	-0.070171475
7	0xbdc9594e	-0.09831487
8	0xbd0a964b	-0.033834737
9	0x3da82f06	0.08212094
10	0x3dc62a79	0.0967607
11	0xbd7e23cf	-0.06204587
12	0xbb8fe59a	-0.0043913843
13	0x3d75587d	0.059898842
14	0xbdaab363	-0.083349966
15	0x3cace825	0.021106789
16	0x3b1bc9d8	0.0023771431
17	0xbd80546b	-0.062661014
18	0x3cd5f047	0.02611555
19	0x3d43b45a	0.04777942
20	0x3d8a8982	0.06764509
21	0x3d0badfc	0.03410147
22	0x3d5510c8	0.052017957
23	0xbd9c9ba8	-0.076468766
24	0xbd774a57	-0.06037363
25	0xbd9d27a3	-0.07673576
26	0xbd76d555	-0.060262043
27	0xbceb466c	-0.028720103
28	0xbdc22446	-0.09479575
29	0x3d920d23	0.07131412
30	0x3b512cb4	0.0031917514
31	0xba159506	-0.0005706105
32	0x3d4f8eac	0.050673172
33	0xbc5b6ddc	-0.013392892
34	0x3dba7da3	0.091059946
35	0x3da7523c	0.08169982
36	0x3cad5a07	0.021161092
37	0x3c98c8bf	0.01865041
38	0x3c5a3f99	0.013320827
39	0xbd9e0c5b	-0.077172
40	0x3cc4f57f	0.024042843
41	0xbc287c87	-0.010283596
42	0xbd8999a2	-0.06718756
43	0xbd80d631	-0.06290854
44	0xbd7fea36	-0.06247922
45	0x3d473a94	0.04863985
46	0x3db83cc8	0.08995968
47	0xbaeeaa15	-0.0018208647
48	0x3c0b4992	0.008501427
49	0x3b727182	0.0036993925
50	0xbd62e8f3	-0.05539794
51	0xbc1abf17	-0.009444973
52	0x3d075644	0.033041254
53	0xbd839e82	-0.06426717
54	0x3c71d0d1	0.014759258
55	0x3da0b2e8	0.07846624
56	0x3d8071c1	0.06271697
57	0x3d27b199	0.040940855
58	0x3dbd8c55	0.09255282
59	0x3d520c14	0.05128105
60	0x3da49ea9	0.080380745
61	0xbc52bfa8	-0.012863077
62	0x3d388af8	0.045054406
63	0xbd45c51b	-0.048283678
64	0xbda20e9b	-0.07912942
65	0x3b92d0f9	0.004480478
66	0x3cef2454	0.029192127
67	0xbd86f118	-0.06588954
68	0x3db79b6c	0.08965191
69	0x3d77928f	0.060442504
70	0x3ba2af24	0.004964726
71	0x3d623857	0.05522951
72	0xbdbf46d4	-0.09339681
73	0x3c876bfb	0.016530981
74	0x3d15011e	0.03637802
75	0x3c53fcd3	0.012938696
76	0xb7369207	-1.0882045e-05
77	0xbc55584b	-0.013021539
78	0x3da7132d	0.08157954
79	0x3d98acb3	0.07454815
80	0x3cf1c289	0.029511707
81	0x3d918930	0.071062446
82	0xbd96b01f	-0.07357811
83	0xbd9e24f9	-0.07721896
84	0x3c8c714e	0.017143872
85	0x3d73890d	0.059456874
86	0x3d95c8c1	0.073136814
87	0xbca231fd	-0.019799227
88	0xbd71a264	-0.05899276
89	0x3ca12852	0.019672547
90	0xbcce7fa6	-0.025207352
91	0xbd6cc21a	-0.057802297
92	0x3db70301	0.0893612
93	0xbd9e49f6	-0.07728951
94	0x3db0c054	0.08630434
95	0xbdd429bd	-0.103595234
96	0xbd8fe378	-0.07025808
97	0x3cdc8e2c	0.026923262
98	0xbd12780d	-0.03575902
99	0x3c692639	0.014230304
100	0xbcbcb76e	-0.023036685
101	0x3cd35c22	0.025800768
102	0xbca0c92b	-0.019627174
103	0xbc995d22	-0.018721167
104	0x3d2dd2b3	0.042437267
105	0xbc3cf50a	-0.011533031
106	0x3d51fd85	0.051267166
107	0x3d140b0e	0.036143355
108	0xbd0cecbf	-0.034405466
109	0x3d87ecd1	0.06636966
110	0x3db5ad91	0.08870996
111	0xbce0b45f	-0.027429758
112	0xbca545cf	-0.020174889
113	0x3d669018	0.056289762
114	0xbd98ac49	-0.07454736
115	0xbd824712	-0.06361212
116	0x3db2015c	0.086916655
117	0xbbcb09ef	-0.0061962525
118	0xbc1b42f8	-0.009476416
119	0xbc3b9e40	-0.011451304
120	0x3cc7eb8e	0.024404313
121	0x3bf8fab0	0.0075982437
122	0xbbd587b4	-0.006516421
123	0xbd430476	-0.047611676
124	0x3d226c5d	0.039654125
125	0xbd3baa6f	-0.045816835
126	0x3d9d45e1	0.07679344
127	0x3d43a305	0.04776289
128	0xbcd45ae3	-0.025922244
129	0x3c0f5850	0.008749083
130	0x3dbb3f69	0.09142954
131	0xbd67ffb0	-0.056640327
132	0xbd610c37	-0.05494329
133	0x3d60eab7	0.05491134
134	0x3d8948a5	0.06703309
135	0x3d8bb7ed	0.068221904
136	0x3cab5bba	0.020917762
137	0x3c6f94f5	0.0146229165
138	0x3d11b39d	0.035571683
139	0xbca622c8	-0.020280257
140	0xbd98ca0f	-0.074604146
141	0xbd267b5e	-0.040644996
142	0x3c312470	0.01081191
143	0xbd7b2c54	-0.06132157
144	0xbd7af863	-0.061272036
145	0x3c27cc9f	0.010241657
146	0x3caeb7e5	0.021327922
147	0xbd0c4dd3	-0.034253906
148	0x3d7325cf	0.05936223
149	0xbd7eaf24	-0.062178746
150	0x3c710137	0.014709762
151	0x3ceb72d6	0.028741281
152	0x3d25377b	0.040336113
153	0x3d17f3bc	0.037097678
154	0xbd14634d	-0.036227513
155	0xbd00a6f6	-0.031409226
156	0x3d26b136	0.040696345
157	0x3db98415	0.09058396
158	0xbcf97a48	-0.030453816
159	0xbd121504	-0.035664573
160	0xbd6e5a4c	-0.058191583
161	0x3d6ecc9b	0.058300596
162	0xbdb06383	-0.0861273
163	0xbdade99d	-0.08491824
164	0xbd94fd3f	-0.07274865
165	0x3dba7796	0.091048405
166	0xbcbebaae	-0.023282375
167	0xbcb098c7	-0.021557225
168	0x3da4ca6c	0.080464214
169	0xbd3e1237	-0.04640409
170	0x3ca5c098	0.020233437
171	0xbd8fefb4	-0.070281416
172	0xbd4517ce	-0.048118405
173	0xbc2501ed	-0.01007126
174	0x3dbad418	0.09122485
175	0x3d21bc99	0.0394865
176	0x3d266162	0.040620215
177	0xbd13d628	-0.036092907
178	0x3d7de068	0.06198159
179	0xbd1114c5	-0.035420198
180	0x3d8a3b94	0.06749645
181	0xbd002c99	-0.03129253
182	0x3b0dce34	0.00216378
183	0x3ae28c13	0.0017284177
184	0x3d5b1629	0.05348793
185	0xbdc0ff08	-0.09423643
186	0xbce8e417	-0.028429074
187	0x3d028096	0.03186091
188	0x3c7425c6	0.014901584
189	0x3caaf33c	0.020867936
190	0x3cd96dfd	0.026541704
191	0xbcde77bc	-0.027156703
192	0xbcc0e019	-0.023544358
193	0xbcb0e243	-0.021592265
194	0x3c29d57d	0.010365841
195	0xbbd4bce5	-0.0064922445
196	0x3d4f6051	0.050628964
197	0x3beee431	0.007290386
198	0x3cd5b152	0.02608553
199	0xbd6c05b1	-0.057622615
200	0x3d6e4c77	0.05817839
201	0xbd6d7300	-0.057971
202	0x3c8d8d36	0.017279249
203	0xbd858912	-0.06520285
204	0xbc59b11e	-0.013286857
205	0xbd827fe5	-0.0637205
206	0xbc88a832	-0.016681764
207	0xbdb2d196	-0.087313816
208	0xbd2ac627	-0.04169288
209	0x3d80242f	0.062569015
210	0x3c28cb23	0.010302338
211	0xbd3ce2c0	-0.046114683
212	0xbda88f36	-0.0823044
213	0x3da79520	0.0818274
214	0xbd22119c	-0.039567575
215	0x3aa10899	0.0012285887
216	0xbd782eed	-0.060591627
217	0xbd886a62	-0.06660916
218	0xbcd80038	-0.026367292
219	0xbd62f5c2	-0.055410154
220	0x3c019781	0.0079096565
221	0xbb38ae9d	-0.002818025
222	0x3c28f15f	0.010311454
223	0xbd820461	-0.063484915
224	0xbb97e21f	-0.00463511
225	0x3d8639c4	0.06553987
226	0xbd9b56d3	-0.0758492
227	0x3da36e6f	0.07980048
228	0x3c8ae977	0.016957028
229	0x3d91a087	0.07110696
230	0xbd9fa4e3	-0.077951215
231	0xb98c4953	-0.00026757512
232	0xbd261885	-0.040550727
233	0x3dc03c60	0.093865156
234	0xbd711a59	-0.058863018
235	0xbd946e69	-0.072476216
236	0xbdad1006	-0.08450322
237	0x3cc17357	0.023614569
238	0xbd898aea	-0.06715949
239	0x3d64ae8e	0.05583053
240	0x3d7e1d3d	0.062039603
241	0x3d52f9a1	0.051507596
242	0x3d537c78	0.051632375
243	0x3d511c2e	0.051052265
244	0x3c1a3c5d	0.009413806
245	0xbd83259e	-0.06403659
246	0xbda815cf	-0.08207285
247	0xbc984cc9	-0.018591302
248	0x3c66fb59	0.014098012
249	0x3db06934	0.08613816
250	0xbc977d25	-0.01849229
251	0xba21e0fb	-0.00061751873
252	0x3da171be	0.07883023
253	0xbd9d338f	-0.0767585
254	0x3d273168	0.0408186
255	0x3da643e8	0.08118421

net.2.bias f4 [256]
0	0xbbe29d71	-0.006915741
1	0x3d58502d	0.052810837
2	0xbbcfd64b	-0.0063426844
3	0xbbfc5a40	-0.0077011883
4	0x3d290090	0.041260302
5	0xbd8f9433	-0.07010689
6	0xbca2d38c	-0.019876264
7	0xbbb604c3	-0.005554767
8	0xbd9f28fd	-0.0777149
9	0x3c717cfc	0.014739271
10	0x3d8a5395	0.06754223
11	0xbc0c124b	-0.008549283
12	0xbd774ee8	-0.060377985
13	0x3cf94fdf	0.030433593
14	0xbd8de576	-0.06928532
15	0x3c9f87cd	0.019473935
16	0x3d836606	0.06415944
17	0xbd889ff3	-0.06671133
18	0x3cb643b6	0.022249084
19	0x3d9280f3	0.07153501
20	0xbca3622d	-0.019944275
21	0xbce5725b	-0.02800863
22	0x3c995006	0.018714916
23	0xbcfe58e8	-0.031048253
24	0x3d047a30	0.03234309
25	0xbd390572	-0.04517121
26	0x3d764389	0.060123
27	0x3da734ac	0.08164343
28	0xbd9355f8	-0.071941316
29	0xbc464cc1	-0.0121032605
30	0xbca3a329	-0.019975262
31	0xbcaa1706	-0.020762932
32	0xbd80b59f	-0.062846415
33	0xbd068b41	-0.032847647
34	0xbd9b7a79	-0.07591719
35	0xbdbabc2a	-0.09117921
36	0x3d116f0c	0.035506293
37	0x3dabc3f6	0.08386986
38	0x3c1cee1b	0.009578253
39	0xbd38d36e	-0.04512351
40	0xbbf37341	-0.007429511
41	0xbd7ff7dd	-0.06249224
42	0x3d833f80	0.06408596
43	0x3d66b163	0.056321513
44	0xbd99a26b	-0.07501682
45	0xbd1ace79	-0.037794564
46	0x3d2d08ef	0.042244848
47	0xbd7f4243	-0.06231905
48	0x3d73269e	0.059363
49	0xbda05bc5	-0.07830004
50	0x3d8f77c3	0.070052646
51	0xbda65619	-0.081218906
52	0xbcf75a96	-0.030194562
53	0xbc8984c6	-0.016786944
54	0x3d64f1d4	0.055894688
55	0xbd0da596	-0.034581743
56	0xbd9eab12	-0.07747473
57	0x3d67561a	0.056478597
58	0xbda3f8ba	-0.08006425
59	0x3c0834aa	0.008313337
60	0x3dcd9d66	0.10039787
61	0xbdab8d0b	-0.08376511
62	0xbdabdd9c	-0.08391878
63	0x3db0e897	0.08638113
64	0x3cd1e966	0.025623988
65	0x3d1f1505	0.038838405
66	0xbd48a895	-0.048988897
67	0x3d3efcf1	0.046627942
68	0xbd8f3af0	-0.06993663
69	0xbcaf766c	-0.021418773
70	0xbd2d2e93	-0.042280745
71	0xbd8527a0	-0.065016985
72	0x3d3e7c4b	0.046505254
73	0x3dae0e71	0.08498848
74	0x3d95ec55	0.073204674
75	0xbca8817a	-0.020569552
76	0xbcb1a517	-0.021685166
77	0x3da3d756	0.080000564
78	0xbd5e3e05	-0.054258365
79	0xbd438871	-0.047737543
80	0xbcc70293	-0.02429322
81	0x3d827393	0.063697
82	0xbb0c690c	-0.0021424918
83	0x3cf4b38e	0.029870775
84	0xbd193753	-0.037406277
85	0x3dd304ae	0.10303627
86	0x3cc520c8	0.024063483
87	0x3d3bb717	0.045828905
88	0xbcd36c73	-0.025808549
89	0xbd091c5c	-0.03347431
90	0x3d3783c0	0.04480338
91	0x3ca43c8c	0.020048402
92	0xbd5c8980	-0.053842068
93	0xbc927391	-0.017877372
94	0xbd2ff594	-0.04295881
95	0xbd86d71c	-0.065839976
96	0xbd140e97	-0.036146726
97	0x3d2f3bc1	0.042781595
98	0xbd3670d5	-0.0445412
99	0xbd481c8d	-0.048855353
100	0xbd45c497	-0.048283186
101	0x3ceb2fd8	0.028709337
102	0xbdade0ad	-0.08490119
103	0xbd854429	-0.06507141
104	0xbd325456	-0.04353746
105	0x3b7c44a0	0.0038493052
106	0x3c7113aa	0.014714161
107	0xbd14e33f	-0.03634953
108	0xbd3f4627	-0.046697762
109	0xbd722a31	-0.059122268
110	0x3be26800	0.0069093704
111	0x3c3af35c	0.01141056
112	0x3ca770e6	0.020439576
113	0x3db4d1c3	0.088290714
114	0xbd847d36	-0.064691946
115	0xbc96c210	-0.018403083
116	0x3c97a841	0.018512847
117	0xbc9cbb81	-0.019132378
118	0xbd9b3b19	-0.07579631
119	0xbd6ce9b2	-0.057840057
120	0x3d70a0e2	0.05874718
121	0x3c0197ec	0.007909756
122	0x3d95871d	0.073011614
123	0xbd1e628a	-0.038668193
124	0xbd17bd19	-0.037045572
125	0xbd60a346	-0.05484321
126	0x3d5e9fc3	0.05435158
127	0xbcac85f4	-0.021059968
128	0xbbf62cae	-0.0075126505
129	0x3d419cdc	0.047268733
130	0x3dadf4b8	0.08493942
131	0x3d3afb51	0.04564983
132	0x3d5e6c87	0.05430272
133	0x3d536e95	0.05161913
134	0xbb5b1984	-0.0033431957
135	0x3ca0add0	0.01961413
136	0xbd39a784	-0.04532577
137	0x3dae14b1	0.0850004
138	0xbd98e2cd	-0.07465134
139	0x3d624209	0.055238757
140	0x3d96fc7f	0.073723786
141	0xbd14e456	-0.03635057
142	0xbb6452f1	-0.0034839476
143	0x3d8677bb	0.065658055
144	0xbd904d86	-0.070460364
145	0xbd567a88	-0.05236295
146	0x3db1080d	0.08644114
147	0xbd5c25fc	-0.053747162
148	0x3d42195d	0.04738747
149	0x3d99bf9c	0.0750725
150	0xbcd2e5c6	-0.02574433
151	0x3dc061ed	0.09393678
152	0x3d9b19ba	0.07573266
153	0x3dbfa04d	0.09356747
154	0x39392f8d	0.00017660689
155	0x3c6adc8e	0.014334811
156	0xbc5e1304	-0.013554338
157	0xbd5be50d	-0.053685237
158	0x3d777cc4	0.06042172
159	0x3d866511	0.06562246
160	0xbd7054a9	-0.05867449
161	0x3da24612	0.07923521
162	0x3ae534c4	0.0017487039
163	0x3cb09b18	0.02155833
164	0x3d518c63	0.051159274
165	0xbd39f425	-0.04539885
166	0x3d856016	0.065124676
167	0x3c502993	0.012705225
168	0x3d958a5d	0.07301781
169	0x3dbf9eb1	0.0935644
170	0xbd802857	-0.06257694
171	0xbbf565fe	-0.007488965
172	0xbdaae20d	-0.08343897
173	0xbd0940da	-0.033509113
174	0x3d56807a	0.05236862
175	0x3d6c4b3a	0.05768893
176	0x3c4403cd	0.011963797
177	0x3c312d2a	0.010813991
178	0x3db3cf68	0.08779794
179	0x3d3b5acd	0.04574089
180	0xbd8a31e8	-0.067478
181	0x3d19b227	0.037523415
182	0x3d3b43c6	0.04571893
183	0x3d9f97be	0.077926144
184	0xbd576874	-0.05258985
185	0x3b988641	0.004654676
186	0x3d02063a	0.03174422
187	0x3c7fd6a1	0.015615136
188	0xbd31f309	-0.043444667
189	0x3ccacefd	0.024756903
190	0xbd77b7e8	-0.06047812
191	0xbd67faac	-0.056635544
192	0xbd8fb713	-0.070173405
193	0xbd553b16	-0.052058302
194	0x3d8d00dd	0.0688493
195	0xbce1c1b6	-0.027558189
196	0x3d3b8204	0.04577829
197	0x3caebc93	0.021330154
198	0xbcbf04ad	-0.02331766
199	0x3d996aed	0.074910976
200	0xbd97dbd2	-0.07414974
201	0x3d7e612a	0.06210438
202	0x39ebc889	0.00044972103
203	0x3dc0ee69	0.09420473
204	0xba159340	-0.0005705841
205	0x3dcc6461	0.09980083
206	0x39953000	0.00028455257
207	0xbd375581	-0.044759277
208	0xbd9cfb68	-0.076651394
209	0x3d8f2de7	0.06991177
210	0xbd7c1624	-0.061544552
211	0x3a222a23	0.00061860884
212	0xbd96dd17	-0.07366388
213	0x3d4caf89	0.04997209
214	0x3dcb6108	0.099306166
215	0xbd0f623b	-0.03500579
216	0xbd839857	-0.06425541
217	0x3d6377e1	0.055534247
218	0xbc5487fb	-0.012971873
219	0xbd5f5eeb	-0.05453388
220	0x3cd4ee00	0.025992393
221	0x3d8b8a75	0.06813518
222	0x3d2f6016	0.042816244
223	0xbd1de99b	-0.03855286
224	0xbd1c35f4	-0.03813739
225	0xbd24916a	-0.04017774
226	0xbcf93de0	-0.030425012
227	0x3d0e2597	0.034703817
228	0xbd91fe9a	-0.071286395
229	0xbd4ffd8a	-0.050778903
230	0x3be7a55b	0.0070692725
231	0xbd21f6f7	-0.039542165
232	0x3d8ed187	0.06973558
233	0x3daf9ff1	0.08575428
234	0x3cc8633f	0.024461387
235	0x3db9c67d	0.09071062
236	0x3ca6e8c1	0.020374658
237	0xbc15dfb1	-0.0091475705
238	0xbd99c3da	-0.07508059
239	0xbda1ba8e	-0.078969106
240	0xbd32fb45	-0.04369666
241	0xbd8a4de0	-0.06753135
242	0xbca39f0e	-0.019973304
243	0xbd67c9c7	-0.056588914
244	0xbd37d530	-0.044881046
245	0x3c850231	0.016236397
246	0x3d85f2f1	0.06540478
247	0xbdae346b	-0.08506092
248	0x3cc1bd69	0.023649888
249	0x3ce61144	0.028084405
250	0xbd842a42	-0.064533725
251	0x3db53a93	0.08849063
252	0x3d8c881d	0.06861899
253	0x3b153298	0.0022765752
254	0x3d5f8aa1	0.054575566
255	0xbc948f09	-0.01813461

μ.weight f4 [2, 256]
0	0x3d20fc0b	0.039302867
1	0xbd525df0	-0.051359117
2	0x3ca8b095	0.020592013
3	0x3d221408	0.039569885
4	0x3c012513	0.007882374
5	0x3c8c7974	0.017147757
6	0x3cc6b9ac	0.024258457
7	0xbb8a6875	-0.004223878
8	0x3cf97887	0.03045298
9	0x3d4d2631	0.05008525
10	0xbd689dc6	-0.05679109
11	0x3b4f7700	0.0031656623
12	0xbcc36d14	-0.023855723
13	0xbd5efe09	-0.054441486
14	0xbd348a2f	-0.044077095
15	0x3ceefd39	0.02917348
16	0xbd3e23c8	-0.046420842
17	0xb911809b	-0.00013876187
18	0x3b5848c8	0.0033002365
19	0x3d3825b2	0.044957824
20	0x3c6267b1	0.013818667
21	0x3ba8aaf9	0.0051473347
22	0x3d1d9d06	0.038479827
23	0x3c854027	0.016265942
24	0xbd349b65	-0.04409351
25	0x3d5c3c4d	0.053768445
26	0xbc81c65d	-0.015841657
27	0x3d119f3b	0.035552245
28	0xbd32e6f9	-0.043677304
29	0xbce0b213	-0.027428662
30	0x3ad77426	0.0016437813
31	0xbc21c315	-0.009873171
32	0xbd077ee2	-0.03307999
33	0x3cbd1d91	0.023085387
34	0xbd456bd2	-0.04819853
35	0xbd3b29c8	-0.045694143
36	0x3c998d06	0.018744003
37	0xbd63fd93	-0.05566175
38	0x3cb9218e	0.022599008
39	0x3cda75dc	0.026667528
40	0xbd2803c2	-0.04101921
41	0xbd064f39	-0.032790396
42	0x3c660be0	0.014040917
43	0x3d6fbff2	0.058532663
44	0x3cf97916	0.030453246
45	0xbce19559	-0.027537035
46	0xbbc3bbeb	-0.0059733293
47	0xbd52c2f3	-0.05145545
48	0x3ce59662	0.02802581
49	0xbcb50814	-0.022098579
50	0x3d3c7eb7	0.046019282
51	0x3d52d2a8	0.05147043
52	0xbd74b5a0	-0.059743524
53	0xbc8ac544	-0.016939767
54	0x3b6e6907	0.003637852
55	0x3b4cc8b1	0.003124755
56	0x3cf80bba	0.03027903
57	0xbcdaaea0	-0.026694596
58	0xbc4cfde0	-0.0125117
59	0xbc3698af	-0.011144801
60	0xbd5cc060	-0.0538944
61	0x3c6f7a60	0.014616579
62	0x3a606633	0.0008560151
63	0xbbba9351	-0.005693831
64	0xbd251e78	-0.04031226
65	0xbd351c9a	-0.04421673
66	0xbd2afe4b	-0.04174642
67	0x3c60fd5a	0.013732279
68	0xbd74cc0f	-0.059764918
69	0x3ca5aa57	0.020222826
70	0x3d367af2	0.044550844
71	0x3d2dc80e	0.042427115
72	0xbc026e10	-0.007960811
73	0x3d31e7f8	0.043434113
74	0xbd6b3b06	-0.057429336
75	0x3c1d1115	0.009586592
76	0x3c9553a6	0.018228363
77	0xbb0311a1	-0.0019999521
78	0xbb560740	-0.003265813
79	0xbcadd3c4	-0.021219142
80	0x3d35bca0	0.04436934
81	0xbd4cb2ba	-0.049975134
82	0xbd0749f3	-0.033029508
83	0xbce62837	-0.028095348
84	0xbcfb243d	-0.030656928
85	0x3d07084f	0.032966908
86	0xbd30027e	-0.042971127
87	0xbd00f67c	-0.031485066
88	0x3c44a662	0.012002559
89	0x3d2ab02b	0.041671913
90	0x3cf569fc	0.029957764
91	0x3c8e0df2	0.017340634
92	0xbd24d076	-0.040237866
93	0xbc90786b	-0.017635545
94	0x3b1a6f05	0.0023564708
95	0x3d102df2	0.035200067
96	0x3d0f83d3	0.035037827
97	0x3d39d079	0.04536483
98	0xbc9726c6	-0.018451106
99	0x3d6a6734	0.05722733
100	0xbd533096	-0.051560007
101	0x3cf9d800	0.030498505
102	0xbd3993a0	-0.0453068
103	0xbd4a5a5e	-0.049402587
104	0x3d007356	0.031359993
105	0xbcf03194	-0.029320516
106	0x3cd11042	0.025520448
107	0x3c1380c0	0.009002864
108	0x3d47cea8	0.048781067
109	0x3d257cdf	0.04040229
110	0x3ca0aecd	0.019614602
111	0x3d60ba50	0.05486518
112	0xbd123741	-0.035697225
113	0xbd032013	-0.03201301
114	0x3d505675	0.0508637
115	0xbd305483	-0.043049347
116	0x3af70955	0.0018847386
117	0x3c3d3448	0.011548109
118	0x3ce189c4	0.027531512
119	0xbd4d7d6e	-0.050168447
120	0x3cadaf66	0.0212018
121	0x3cdda615	0.027056733
122	0x3d68136c	0.056659147
123	0x3c1fb8a0	0.009748608
124	0xbc15ecf8	-0.009150736
125	0x3d3d92bd	0.04628252
126	0x3d461188	0.048356563
127	0x3d7001cf	0.058595475
128	0x3d6b8f40	0.05750966
129	0xbd1d7654	-0.038442925
130	0xbcbe34d8	-0.023218557
131	0xbc077899	-0.008268499
132	0x3d6f005d	0.058349956
133	0xbd14f735	-0.036368567
134	0x3d7cb496	0.061695658
135	0xbc60dcb0	-0.013724491
136	0xbd1da9c5	-0.038491983
137	0xbc786678	-0.015161149
138	0xbca57aba	-0.020200122
139	0x3d53158b	0.051534217
140	0x3cae89ca	0.021305937
141	0xbb7de940	-0.0038743764
142	0xbd2d2b83	-0.042277824
143	0xbc905301	-0.017617704
144	0xbcd0dbec	-0.025495492
145	0xbcad4a36	-0.02115355
146	0xbd2836aa	-0.041067757
147	0x3cb2665b	0.021777323
148	0x3b2a11c6	0.0025950535
149	0x3cbd5070	0.023109645
150	0x3d2a6666	0.04160156
151	0xbc8b5986	-0.017010462
152	0xbd498910	-0.04920298
153	0xbd2ba3df	-0.041904327
154	0xb88cf212	-6.720809e-05
155	0x3d54530d	0.051837016
156	0x3c81bd1a	0.015837241
157	0xbc826de6	-0.015921544
158	0xbbb435ba	-0.005499569
159	0x3c5ffa53	0.013670522
160	0xbbcdd60f	-0.0062816213
161	0x3ca621e6	0.020279836
162	0x3b3f222f	0.0029164662
163	0x3cca2521	0.024675908
164	0x3ce9b0e6	0.028526735
165	0xbd7bcbda	-0.061473705
166	0xbba8ca7b	-0.0051510907
167	0x3d7c4d5e	0.06159722
168	0xbc6110bc	-0.0137369
169	0x3d364969	0.044503603
170	0x3b808963	0.003922628
171	0xbd6da5b5	-0.05801936
172	0x3d02f7a0	0.031974435
173	0x3b530700	0.0032200217
174	0xbd060310	-0.032717764
175	0x3ca30f47	0.019904746
176	0x3c3a7fe2	0.011383029
177	0xbd048114	-0.03234966
178	0xbc5d057d	-0.013490078
179	0x3d13b7aa	0.036063828
180	0xbcb72cdb	-0.022360256
181	0x3c855e97	0.016280456
182	0xbc38ed8a	-0.0112871025
183	0x3d5241fe	0.051332466
184	0x3aec7555	0.0018040339
185	0xbb2856ed	-0.0025686577
186	0xbc5367b4	-0.012903143
187	0x3d2d0575	0.042241532
188	0xbcf01ea9	-0.029311495
189	0x3c9e950b	0.019358179
190	0x3d57f25b	0.052721363
191	0x38d8941a	0.00010327269
192	0x3a071f75	0.0005154529
193	0xbc941290	-0.018075258
194	0xbd0c6b9b	-0.034282308
195	0x3d349026	0.044082783
196	0xbd166ce4	-0.03672494
197	0xbcd89156	-0.02643649
198	0xbd582684	-0.052771106
199	0xbd495a00	-0.049158096
200	0x3d8570cc	0.06515655
201	0x3c39bac1	0.0113360295
202	0xbc940f19	-0.018073605
203	0x3ce16853	0.027515566
204	0x3c51818c	0.012787234
205	0xbd78ca7f	-0.06073999
206	0x3d548f20	0.051894307
207	0x3ce77104	0.028252132
208	0x3bbd2f0a	0.0057734298
209	0xbd64bb6a	-0.055842794
210	0x3d4ec454	0.0504802
211	0xbb29ab25	-0.0025889364
212	0xbd11172e	-0.035422496
213	0x3d2b25e5	0.041784186
214	0xbbac336f	-0.005255155
215	0xbce2151e	-0.02759796
216	0x3d44d97f	0.048058983
217	0xbd9183cc	-0.071052164
218	0x3c98e18d	0.018662238
219	0x3b5e36e0	0.003390722
220	0x3a0e8561	0.0005436745
221	0xbd043486	-0.032276653
222	0xbd589fd7	-0.05288681
223	0x3d5536cd	0.052054215
224	0x3ca190a7	0.019722296
225	0xbcc4f395	-0.02404193
226	0x3d2ca2d2	0.042147465
227	0xbc455393	-0.012043851
228	0xbc87a17f	-0.0165565
229	0xbd1ba9a2	-0.03800357
230	0xbd509c92	-0.050930567
231	0x3d7c5ff7	0.061614957
232	0xbcf7ea1c	-0.030263
233	0x3d0cf7ee	0.03441613
234	0x3d3cd846	0.046104692
235	0x3d3eb155	0.046555836
236	0xbc77c742	-0.01512319
237	0x3d071ae1	0.032984618
238	0x3c98caa4	0.018651314
239	0xbd439465	-0.047748942
240	0x3ae774bd	0.0017658692
241	0xbc93859c	-0.018008046
242	0x3d0126b6	0.03153106
243	0x3c9bcb84	0.019017942
244	0x3cca7f7a	0.024718989
245	0x3d138013	0.036010813
246	0xbc5e9e7e	-0.013587592
247	0xbd2da018	-0.042389005
248	0xbd57ed24	-0.05271639
249	0xbcd1f4b9	-0.025629388
250	0xbd228026	-0.039672993
251	0xbd6e22b1	-0.058138553
252	0x3d079c67	0.03310814
253	0x3c3e56ea	0.011617402
254	0xbc27ba3c	-0.010237273
255	0x3d41b51a	0.047291853

μ.bias f4 [2]
0	0x3adbf80b	0.0016782297
1	0xbd158bb5	-0.036510188

σ.weight f4 [2, 256]
0	0x3d62f322	0.05540765
1	0xbc78f2b6	-0.015194586
2	0xbd58628c	-0.052828357
3	0x3d05494a	0.032540597
4	0xbd36bdcf	-0.04461461
5	0x3d335425	0.04378142
6	0x3d21c97a	0.039498784
7	0xbd24752f	-0.040150817
8	0xbcd91b65	-0.02650232
9	0x3d155612	0.036459036
10	0x3d09ad68	0.03361264
11	0xbcfa8713	-0.030581987
12	0x3c93ccb8	0.018041953
13	0xbcea1c73	-0.028578019
14	0x3d808d16	0.0627691
15	0xbd758a58	-0.059946388
16	0xbd1b2c72	-0.037884183
17	0xbba89e17	-0.005145799
18	0xbbdfc94e	-0.0068294173
19	0x3c9122a9	0.017716723
20	0x3d451cd1	0.048123185
21	0x3cefd811	0.029277833
22	0xba9da70b	-0.0012027932
23	0x3d5c0ccd	0.053723145
24	0xbcce72a2	-0.025201146
25	0x3d6aed36	0.05735513
26	0xbd0ca8d1	-0.034340683
27	0xbce4d7ac	-0.027934872
28	0xbccd179a	-0.025035668
29	0xbd1f0aae	-0.038828544
30	0xbbf8ef22	-0.007596866
31	0x3d185c80	0.03719759
32	0xbcfef2ed	-0.031121695
33	0x3d767c6b	0.060177248
34	0xbbcf572e	-0.0063275313
35	0xbcb08e1e	-0.021552142
36	0x3d17e737	0.037085738
37	0x3d48faa5	0.04906716
38	0x39f4b2bf	0.00046672483
39	0x3ce48f98	0.027900502
40	0xbc351e5e	-0.011054603
41	0xbd214427	-0.039371636
42	0xbd67b57a	-0.056569554
43	0xbcff4fa2	-0.031165902
44	0xb9539df5	-0.00020181372
45	0x3c2ebd6a	0.010665277
46	0x3bba8399	0.005691957
47	0x3b2045cd	0.0024455667
48	0xbbdaf787	-0.0066823396
49	0x3d0c5e04	0.034269348
50	0xbd08bd79	-0.03338382
51	0xbd8408dc	-0.06447002
52	0xbd16ea80	-0.03684473
53	0xbcce7caf	-0.025205938
54	0xbd3a2686	-0.045446895
55	0xbd5bff90	-0.05371052
56	0xbbdcb5b3	-0.0067355274
57	0x3becc290	0.007225342
58	0x3d5ae3b4	0.05343981
59	0x3d751761	0.05983675
60	0xbccbb260	-0.02486533
61	0x3c87238c	0.016496442
62	0x3cd629bf	0.026142953
63	0x3d5f0bd8	0.054454654
64	0x3c95517b	0.01822733
65	0x3d625f44	0.055266634
66	0x3cd63617	0.026148839
67	0x3c712dcd	0.014720392
68	0xbc97c485	-0.018526325
69	0x3ca64917	0.020298524
70	0x3a478209	0.00076106243
71	0xbd1c354c	-0.038136765
72	0xbd6d89ae	-0.05799263
73	0xbd4578ec	-0.048211023
74	0xbd6bff6a	-0.05761663
75	0xbca8cde5	-0.02060599
76	0x3c9aa226	0.018876147
77	0xbc9ff563	-0.01952619
78	0x3cf8cc58	0.030370876
79	0xbc888560	-0.01666516
80	0xbd514e7e	-0.051100247
81	0x3d090966	0.03345623
82	0xbb90ac4b	-0.00441507
83	0x3d294ace	0.041331105
84	0xbd425cfc	-0.047451958
85	0xbc6a01a0	-0.014282614
86	0xbd5a9688	-0.053366214
87	0xbcaf4347	-0.021394385
88	0xbc7d06ba	-0.015443498
89	0x3d257273	0.04039235
90	0xbd16c8f4	-0.036812738
91	0x3d740d13	0.05958278
92	0xbd3458a0	-0.044029832
93	0xbc98f76b	-0.018672666
94	0x3cd13615	0.025538484
95	0xbcc7236c	-0.024308883
96	0xbd573509	-0.052540813
97	0xbcaa6e30	-0.020804495
98	0xbd1d6bb1	-0.03843278
99	0xbd4e0b5f	-0.050303813
100	0xbd40a730	-0.047034442
101	0x3cea0428	0.028566435
102	0xbc8098cf	-0.015697865
103	0x3c11f86e	0.008909328
104	0xbd2daecc	-0.042403027
105	0x3c3efbc8	0.011656709
106	0xbd169f4c	-0.03677301
107	0xbd08ba48	-0.033380777
108	0x3d3e313a	0.046433665
109	0xbcfe8992	-0.031071458
110	0x3c9e3973	0.019314503
111	0x3d036117	0.032075014
112	0xbd6e6e9d	-0.058210958
113	0x3d1ece05	0.038770694
114	0xbd2636ac	-0.040579483
115	0x3d18fccb	0.037350457
116	0x3d5a02c6	0.0532253
117	0xbb9a2cfb	-0.004705069
118	0xbd59aaa5	-0.053141255
119	0x3c696e7a	0.014247531
120	0x3ca83a26	0.02053554
121	0x3d45d290	0.04829651
122	0x3ce4bd4a	0.027922291
123	0xbc8c564d	-0.017130995
124	0xbb0688b4	-0.0020528259
125	0x3d0fe766	0.035132788
126	0x3b25ecd1	0.0025318156
127	0x3cea9a25	0.028637955
128	0xbd29ec9e	-0.04148542
129	0x3d14f4b3	0.036366176
130	0x3d16a012	0.03677375
131	0x3a94798e	0.001132773
132	0x3cf22128	0.029556826
133	0x3d6eec0b	0.058330577
134	0x3d68a186	0.056794666
135	0xbcd6c624	-0.026217528
136	0x3b37f8f8	0.002807198
137	0x3d33a88e	0.04386192
138	0xbb0c0c23	-0.0021369539
139	0x3d4a67b6	0.049415313
140	0x3d390b09	0.04517654
141	0xbd6178ec	-0.05504696
142	0xbc908f40	-0.017646432
143	0x3d575b78	0.052577466
144	0x3d445a10	0.047937453
145	0x3d32185d	0.043480266
146	0xbc8a353c	-0.016871087
147	0x3d86f048	0.06588799
148	0xbd8aa273	-0.06769266
149	0x3d6d0b2f	0.057871994
150	0xbc705787	-0.014669306
151	0xbbf70c0d	-0.0075392784
152	0x3d214bf5	0.03937908
153	0xbca3e0e0	-0.02000469
154	0xbd478f6b	-0.04872076
155	0x3d5d74f5	0.054066617
156	0x3d1d834f	0.038455304
157	0xbd756780	-0.05991316
158	0xbd0956f1	-0.03353018
159	0x3aee1944	0.0018165489
160	0x3d1db4a5	0.038502354
161	0x3d3e9455	0.04652818
162	0x3c6ffa99	0.0146471495
163	0x3d220436	0.039554797
164	0xbceafb80	-0.028684378
165	0x3d012a0d	0.031534243
166	0x3c119934	0.008886624
167	0x3bdce8e2	0.006741629
168	0x3d187846	0.037224077
169	0x3d4a5737	0.04939958
170	0x3d388857	0.0450519
171	0x3d669f7a	0.056304432
172	0x3d4c3308	0.049853355
173	0x3bad4630	0.005287908
174	0x3d591104	0.052994743
175	0x3c8244ce	0.01590195
176	0x3d081566	0.033223532
177	0x3d1856b8	0.037192076
178	0xbbcdb52a	-0.0062777
179	0x3c0b2305	0.008492236
180	0xb9d93f25	-0.00041436512
181	0xbd4c4486	-0.049870037
182	0xbd1e3391	-0.038623396
183	0x3d63945a	0.0555614
184	0x3ce1a32f	0.027543632
185	0x3c62686d	0.013818842
186	0xbd014527	-0.03156009
187	0xbd2ff6be	-0.04295992
188	0x3d372afa	0.04471872
189	0xbd479544	-0.048726335
190	0xbd4e68f5	-0.050393064
191	0xbd0e7fb7	-0.034789767
192	0xbc227598	-0.009915732
193	0x3d458476	0.048222028
194	0xbc2a355e	-0.0103887
195	0xbca34fdc	-0.01993554
196	0xbd25f08a	-0.0405126
197	0x3b2bc3ec	0.0026209308
198	0x3d7454ee	0.059651308
199	0x3d36438b	0.044498008
200	0xbb6744a1	-0.0035288709
201	0x3cb41f09	0.021987455
202	0x3d5d59bf	0.054040667
203	0x3ce83ba2	0.028348748
204	0xbd0318e8	-0.032006174
205	0x3d573761	0.052543048
206	0x3c5e5730	0.013570592
207	0xbd6ef0e0	-0.058335185
208	0x3be85344	0.007090004
209	0xbca817ea	-0.020519216
210	0x3cfe940f	0.03107646
211	0xbb0d283b	-0.0021538872
212	0x3c4d6170	0.012535438
213	0x3d351840	0.04421258
214	0xbc8dcec9	-0.017310517
215	0xbd68bc3c	-0.05682014
216	0x3bf1d1bb	0.007379738
217	0x3d1ea3a4	0.03873028
218	0x3d5a8c48	0.05335644
219	0xbc976460	-0.01848048
220	0x3ced7ac8	0.02898921
221	0x3d58b3e9	0.05290595
222	0xbd56d0eb	-0.052445333
223	0xbd3eb2cc	-0.046557233
224	0xbc0a3fbb	-0.008438046
225	0xbd77b7be	-0.060477965
226	0x3cd1c3a4	0.025605984
227	0xbd37d127	-0.044877198
228	0x3cf41662	0.02979583
229	0x3be52060	0.006992385
230	0x3ca580cf	0.020203022
231	0xbd80e532	-0.062937155
232	0xbd194c9b	-0.037426572
233	0x3d74eace	0.05979424
234	0x3bced1e1	0.0063116406
235	0x3b5182ab	0.0031968753
236	0x38d01f86	9.9240846e-05
237	0x3d501fae	0.050811462
238	0x3d4c1be0	0.04983127
239	0x3d57c973	0.05268235
240	0x3c0ddb93	0.008658308
241	0xbbf3e3a4	-0.0074429084
242	0x3d519871	0.05117077
243	0x3c00b0d7	0.007854662
244	0x3c2cc6a7	0.010545409
245	0xbd18d193	-0.03730924
246	0xbd796a6a	-0.0608925
247	0xbbf74c2b	-0.0075469217
248	0x3c75eaa3	0.015009555
249	0xbab8e349	-0.0014105822
250	0xbced6b1c	-0.028981738
251	0x3a9bd6ee	0.0011889616
252	0xbcdf8756	-0.027286213
253	0xbc46e5e4	-0.012139771
254	0xbbabd555	-0.005243937
255	0xbcf36282	-0.029710058

σ.bias f4 [2]
0	0xbd161d97	-0.036649313
1	0x3cbc2ce3	0.022970622
