model/p_no24.pth (torch, 145528 bytes, 8 tensors)

net.0.weight f4 [128, 12]
0.100749135 -0.05653765 -0.11656844 0.16270085 0.27588198 -0.27128848 -0.235165 0.11247276
-0.022410378 -0.029243015 0.28049174 0.05138509 -0.24014004 -0.12796232 -0.24815783 -0.10414123
-0.0780729 -0.24593191 -0.22071783 0.08128733 -0.13305902 0.10819456 -0.25407383 0.13061878
-0.05042687 0.058332913 -0.015380498 -0.2665569 -0.28299493 -0.1049976 -0.19663681 -0.13933487
-0.08446605 0.17492485 0.06387544 -0.08825243 -0.16327365 -0.1675888 0.14304608 -0.24814671
-0.028669417 -0.15200762 -0.08560578 -0.07758072 -0.20573902 -0.12590462 -0.12970623 0.12909566
0.12886372 -0.048635285 -0.19519207 0.14993587 -0.21835034 0.15087727 -0.045504406 -0.20063896
-0.23501995 0.19009726 0.048960842 -0.0006403168 0.15064074 0.23373114 0.099304445 -0.27668506
0.1404414 0.07701658 0.2597009 -0.29140243 0.25571966 0.22408539 -0.051130123 -0.17901428
0.024778377 -0.26710013 0.13397966 -0.075074755 -0.21906058 -0.093186505 -0.09353338 0.21152204
-0.13442044 0.25542846 0.25611502 0.1270165 0.19842911 0.24640787 0.29668865 0.1708746
0.08462711 -0.17746076 -0.24517672 -0.2815957 -0.26650253 0.087262094 0.0503923 0.2590546
-0.008037937 0.09758273 -0.27285913 -0.1347485 -0.2206825 -0.08206653 0.27093372 0.10221849
0.13264154 -0.20439461 -0.24111211 0.050627172 0.24346083 0.16218215 -0.045221906 0.21059002
-0.20395961 -0.101199396 -0.15213707 0.027190678 0.2191397 0.08175793 -0.036600202 0.20598394
-0.28411323 0.22796366 -0.025746377 0.18823162 -0.08176526 0.12623811 0.010900725 -0.018129783
-0.1834694 0.042067144 -0.272815 0.21394932 -0.13394336 0.18368661 0.043979913 -0.16892561
0.06706965 0.0023079515 0.13771203 -0.031992197 0.21771413 0.13604847 0.21849751 -0.016544044
0.23627503 0.26897445 0.029807018 0.0010437593 -0.14435318 0.16685663 -0.087617725 0.16060317
-0.2110931 -0.28251582 0.16341914 0.015986776 0.103444785 0.08600032 -0.08068287 -0.1312856
-0.27751768 -0.27158666 0.11243591 -0.23904662 -0.17954433 0.2696656 0.108133465 0.1046652
-0.060204174 -0.041044436 0.2237293 0.2564606 0.1661932 -0.14728883 0.008036641 0.03745199
-0.11139998 0.21789002 -0.111465685 -0.042229984 -0.29170817 -0.027778296 0.047859427 0.13212599
0.0043992717 0.1164772 -0.27317524 0.011680793 -0.061162524 0.0774337 0.038515814 0.14502205
-0.16305427 0.06836071 0.010906995 -0.119616516 0.29362234 -0.092296384 -0.23597497 0.27264667
-0.2852089 -0.16495603 0.12670189 0.10114845 0.23947702 0.28205734 -0.21712193 0.13566592
-0.28625193 -0.055877622 -0.19811708 -0.17596947 0.12912148 -0.19012703 0.16694044 -0.086215556
0.062026136 0.2532242 0.04631765 0.019423176 -0.1051638 0.25360858 -0.15073644 0.033967342
-0.118346125 0.095747024 0.10178195 0.033000052 -0.1346464 -0.30711776 0.21923445 0.23158985
-0.12116868 0.16859517 -0.049644504 -0.14333218 0.03830032 -0.2692129 -0.24023394 -0.18097578
-0.20538123 0.22051698 0.14623342 -0.07864297 0.13459954 0.031442787 0.22585665 0.073073745
-0.12328704 0.00015420064 0.10667739 -0.22033927 0.28795105 -0.13527569 0.13240784 0.09825969
00000000: 9055 ce3d 0694 67bd 6fbb eebd 0d9b 263e
00000010: 6740 8d3e 53e6 8abe 18cf 70be 1e58 e63d
00000020: f895 b7bc 0c8f efbc 9d9c 8f3e 2c79 523d
00000030: 45e7 75be 8e08 03be 161d 7ebe ff47 d5bd
00000040: afe4 9fbd 93d5 7bbe db03 62be f979 a63d
00000050: a040 08be 1c95 dd3d f715 82be eec0 053e
00000060: 688c 4ebd 7eee 6e3d 7cfe 7bbc 257a 88be
00000070: b6e4 90be fb08 d7bd 295b 49be cdad 0ebe
00000080: 89fc acbd 801f 333e 20d1 823d b1bd b4bd
00000090: 3531 27be 669c 2bbe ac7a 123e 2c1a 7ebe
000000a0: 20dc eabc e3a7 1bbe 1552 afbd a4e2 9ebd
000000b0: 40ad 52be 24ed 00be b6d1 04be a731 043e
000000c0: daf4 033e cb35 47bd 6ee0 47be ca88 193e
000000d0: 3b97 5fbe 927f 1a3e d462 3abd 4d74 4dbe
000000e0: 12a9 70be dba8 423e 2a8b 483d efda 27ba
000000f0: 9141 1a3e 3757 6f3e 2160 cb3d aaa9 8dbe
00000100: dfcf 0f3e deba 9d3d 84f7 843e b332 95be
00000110: b0ed 823e a476 653e d26d 51bd 854f 37be
00000120: 06fc ca3c 59c1 88be f731 093e cbc0 99bd
00000130: 6b51 60be 91d8 bebd 6e8e bfbd 3c99 583e
00000140: 83a5 09be 85c7 823e 8221 833e 9d10 023e
00000150: 0031 4b3e 5852 7c3e 93e7 973e c0f9 2e3e
00000160: fa50 ad3d 46b8 35be 9b0f 7bbe 502d 90be
00000170: 0573 88be 78b6 b23d 2868 4e3d cea2 843e
00000180: 8db1 03bc 74d9 c73d 31b4 8bbe 83fb 09be
00000190: 98fa 61be 7f12 a8bd d3b7 8a3e ed57 d13d
000001a0: 2fd3 073e d24c 51be 18e6 76be 705e 4f3d
000001b0: cc4d 793e 1413 263e 9b3a 39bd e9a4 573e
000001c0: cada 50be a141 cfbd d2c9 1bbe fcbe de3c
000001d0: 2866 603e b470 a73d 18ea 15bd 74ed 523e
000001e0: 4a77 91be 4e6f 693e 11ea d2bc cabf 403e
000001f0: 8b74 a7bd 9044 013e f498 323c e984 94bc
00000200: 67df 3bbe 994e 2c3d 68ae 8bbe 8815 5b3e
00000210: 7328 09be 5818 3c3e 4824 343d d6fa 2cbe
00000220: d05b 893d 0041 173b 6204 0d3e 400a 03bd
00000230: 74f0 5e3e 4a50 0b3e d0bd 5f3e 6087 87bc
00000240: 15f2 713e 05b7 893e d92d f43c c0ce 883a
00000250: 52d1 13be 77dc 2a3e ec70 b3bd 2875 243e
00000260: ca28 58be eaa5 90be 5957 273e b3f6 823c
00000270: dcda d33d f020 b03d 0f3d a5bd bb6f 06be
00000280: cc16 8ebe 680d 8bbe cc44 e63d a3c8 74be
00000290: 78da 37be 9c11 8a3e 1475 dd3d b55a d63d
000002a0: a798 76bd 361e 28bd 4b19 653e ce4e 833e
000002b0: 8d2e 2a3e e2d2 16be 1eac 033c 4267 193d
000002c0: ac25 e4bd 901e 5f3e 1f48 e4bd 59f9 2cbd
000002d0: c65a 95be 4f8f e3bc 3f08 443d 094c 073e
000002e0: c427 903b 998b ee3d a0dd 8bbe cc60 3f3c
000002f0: 8e85 7abd 8f95 9e3d c2c2 1d3d a980 143e
00000300: b3f7 26be b300 8c3d 41b3 323c 81f9 f4bd
00000310: ab55 963e e305 bdbd 6ca3 71be 5898 8b3e
00000320: e706 92be 3cea 28be 24be 013e eb26 cf3d
00000330: 7739 753e d269 903e 3655 5ebe 02ec 0a3e
00000340: 9d8f 92be efdf 64bd 34df 4abe 5731 34be
00000350: 6c38 043e a9b0 42be 6ff2 2a3e c891 b0bd
00000360: 1e0f 7e3d 9aa6 813e 93b7 3d3d 5a1d 9f3c
00000370: 1e60 d7bd fcd8 813e a75a 1abe 5721 0b3d
00000380: 745f f2bd 0417 c43d 0e73 d03d 102b 073d
00000390: bfe0 09be 8a3e 9dbe ff7e 603e e425 6d3e
000003a0: 4927 f8bd 36a4 2c3e 0958 4bbd acc5 12be
000003b0: cce0 1c3d 46d6 89be e3ff 75be b751 39be
000003c0: 754f 52be 34cf 613e 37be 153e 910f a1bd
000003d0: 76d4 093e 27ca 003d f746 673e b0a7 953d
000003e0: ea7d fcbd ebb0 2139 ad79 da3d 9ea0 61be
000003f0: 526e 933e b685 0abe ec95 073e 603c c93d

net.0.bias f4 [128]
-0.14631118 0.20735705 -0.23496482 0.2764448 -0.28843588 0.101151414 0.22600594 0.25768232
0.05636977 -0.12889484 0.13878073 -0.19623742 -0.071892574 0.26336333 -0.080983385 0.2050533
-0.17973271 -0.08400343 -0.27717814 0.29225394 0.124372676 -0.24882716 -0.25875962 0.17998262
-0.01579692 -0.20702118 -0.16123623 -0.256579 0.21731026 0.08282896 -0.2411771 -0.055897295
-0.19068114 -0.11375491 0.19467662 0.20121354 -0.20901464 0.10423296 -0.026841298 0.0141021665
0.22525725 -0.17361045 0.1689431 0.28163803 -0.13941579 -0.05409889 0.0701323 0.26382503
0.24525161 0.042812712 0.097853936 0.2008028 0.29267815 0.21129982 -0.088066384 -0.10249235
-0.03499632 -0.072295874 -0.06488528 -0.25090343 -0.2626913 0.12264068 0.14830576 0.014222854
0.27973232 -0.11122012 0.23028357 0.22803932 0.23283118 -0.23675182 -0.2043123 -0.10562984
-0.1923838 0.04059439 -0.27573895 -0.035712276 0.27941874 0.2721128 0.22928742 0.19483052
0.07942775 -0.18677147 -0.1250173 0.1997676 0.2590582 0.10239905 -0.20078252 -0.018164778
-0.1097541 0.079157814 0.28919473 -0.08596636 -0.082868956 0.25238812 -0.13673231 -0.012084832
-0.037637398 0.11965497 -0.2549666 0.26976654 -0.02018599 -0.1029382 -0.16580309 0.19462793
-0.25282636 -0.11909129 0.016965948 -0.20341139 0.14599141 -0.21800537 0.29915416 -0.023098925
0.019868063 0.14690718 0.20360269 0.17928691 0.11284367 -0.019283388 -0.04744029 0.24608609
-0.2128584 -0.14046611 -0.030015197 0.07324555 0.28037092 0.09552661 -0.22420393 -0.120418906
00000000: 99d2 15be 6855 543e 9e9a 70be 2c8a 8d3e
00000010: dead 93be 7928 cf3d 1a6e 673e f0ee 833e
00000020: fde3 663d 02fd 03be 891c 0e3e 76f2 48be
00000030: 6a3c 93bd 8fd7 863e 9eda a5bd 7ef9 513e
00000040: da0b 38be fe09 acbd 4bea 8dbe 4fa2 953e
00000050: 1ab7 fe3d 8ccc 7ebe 247c 84be 5d4d 383e
00000060: 8b68 81bc 5cfd 53be 1c1b 25be 535e 83be
00000070: 9586 5e3e 3ba2 a93d 21f7 76be 90f4 64bd
00000080: eb41 43be 56f8 e8bd 4f59 473e ec0a 4e3e
00000090: ef07 56be 1778 d53d 48e2 dbbc c60c 673c
000000a0: d6a9 663e f0c6 31be 6cff 2c3e dc32 903e
000000b0: 03c3 0ebe cc96 5dbd 86a1 8f3d 1314 873e
000000c0: 3d23 7b3e 625c 2f3d a567 c83d 409f 4d3e
000000d0: e9d9 953e fb5e 583e 265c b4bd 82e7 d1bd
000000e0: 4d58 0fbd dc0f 94bd 93e2 84bd 6a76 80be
000000f0: 797f 86be 092b fb3d 77dd 173e f906 693c
00000100: 1339 8f3e 60c7 e3bd 75cf 6b3e 2483 693e
00000110: 4c6b 6e3e 126f 72be 3e37 51be 7554 d8bd
00000120: 4200 45be 4e46 263d a82d 8dbe 0947 12bd
00000130: f90f 8f3e 5e52 8b3e 52ca 6a3e a781 473e
00000140: 04ab a23d 0541 3fbe 8904 00be e18f 4c3e
00000150: 47a3 843e 98b6 d13d ef99 4dbe 4dce 94bc
00000160: c2c6 e0bd 7e1d a23d 5511 943e 220f b0bd
00000170: 33b7 a9bd 0439 813e 8e03 0cbe 76ff 45bc
00000180: ac29 1abd aa0d f53d fb8a 82be d71e 8a3e
00000190: 175d a5bc 43d1 d2bd 49c8 29be 8b4c 473e
000001a0: 7572 81be 22e6 f3bd 2cfc 8a3c 134b 50be
000001b0: c67e 153e cd3c 5fbe bc2a 993e f539 bdbc
000001c0: 59c2 a23c d66e 163e 397d 503e fd96 373e
000001d0: 951a e73d 32f8 9dbc c050 42bd fefd 7b3e
000001e0: 8df7 59be 59d6 0fbe 6ee2 f5bc c301 963d
000001f0: c78c 8f3e 75a3 c33d b795 65be 309e f6bd

net.2.weight f4 [256, 128]
0.014332764 -0.02975557 -0.07622729 0.0350597 -0.0062372256 0.06506569 0.013980859 -0.03131065
0.047318514 -0.04315912 -0.011561497 -0.05948427 -0.026799819 0.07430489 0.03128751 0.00802514
0.05183686 -0.0679886 -0.016405767 0.007780102 -0.03446616 -0.069942474 0.06425423 -0.021187076
0.068242714 -0.06469892 0.08798788 -0.016112221 -0.029020196 -0.048172437 0.0038914643 -0.031127485
0.01822671 0.011433381 -0.02294173 -0.058484655 0.06367665 0.056187894 0.001732604 -0.059387438
0.06755472 0.0071849576 -0.05236777 -0.019172711 -0.07523366 0.00019456878 -0.06670624 -0.0809743
0.043840755 -0.052861243 -0.0775703 0.04478759 -0.05888589 0.023063913 -0.089455485 0.07566846
0.053734403 0.058819417 -0.05044747 -0.035468746 -0.07923066 -0.08081151 0.034945525 -0.060272466
0.06407034 -0.054060273 0.06109738 0.027517993 0.07631322 -0.05870976 -0.08575194 -0.028190557
-0.043161668 0.052317735 -0.08253556 0.0013953655 0.032747433 -0.09058588 0.015389864 -0.036674816
0.027949484 -0.0741191 -0.06984109 0.07170584 0.02379458 0.05380342 0.06569046 0.04218282
-0.058822587 0.06409064 -0.004179241 0.011309362 -0.019304013 -0.07526944 -0.045457616 -0.016929083
0.04305437 -0.06090475 -0.057158306 0.051045917 -0.07193347 0.08020963 -0.03907854 0.04705519
-0.024329104 -0.04343318 0.045379203 0.02333866 0.02176232 0.042582907 0.047106095 -0.0706479
0.06419121 -0.009984466 -0.060723573 -0.0014774698 -0.056774165 -0.016628427 0.079084 0.032191616
0.0071027526 -0.06269896 -0.07116813 0.046877142 0.0031726412 0.07157431 0.0061770645 -0.009174364
-0.0021586195 0.03903974 0.04886545 0.015263597 0.007085762 0.08471115 -0.0011735706 0.0551102
-0.050407723 0.010782913 -0.04931172 0.04559966 0.052370686 -0.054174524 0.028151413 0.08766653
0.032465845 0.007594204 0.052684177 0.07810009 -0.024497958 -0.03328406 -0.060225125 0.071704075
-0.02939792 -0.03128512 0.06911468 -0.048666093 0.045905408 -0.052588955 -0.02633622 -0.032714356
-0.044298586 -0.054804243 0.08283619 -0.0400843 -0.01899787 -0.023328075 -0.080691114 -0.0011666123
0.07429865 0.0739399 0.0510475 0.066072166 -0.046720006 -0.04374863 -0.031941295 0.05191897
-0.05064057 0.027398847 -0.013072541 -0.030044766 0.07208663 -0.047539283 0.008603562 -0.0011491762
-0.07117323 -0.03810721 0.022274392 0.035813127 0.021848004 0.01824059 0.03755651 -0.02979168
0.027698448 -0.039654735 0.05513971 -0.010260358 0.07923982 -0.0845289 0.07624946 -0.031409804
-0.062804736 -0.032866362 -0.05421918 0.05907163 0.007778444 -0.010089649 -0.022029333 -0.048744272
0.051672388 -0.073811784 0.038387246 0.0017094633 0.08534222 0.048660617 0.029407378 0.017738955
0.024071349 0.0034224612 -0.011136226 0.043641813 -0.05580487 0.022347368 -0.023241334 0.07034781
-0.06754516 0.063301824 0.06459245 0.056973137 0.07821588 0.029465146 -0.030516747 -0.02326229
0.011397222 -0.046607457 0.0386808 -0.022748662 -0.022226024 -0.059571054 0.021245623 0.03158308
0.009354163 0.06986851 0.03730242 -0.027108327 0.014259934 0.005079368 0.03040573 0.07135237
0.016938793 0.025516476 -0.0015075 -0.06814371 0.06810087 0.00092906697 -0.03782789 0.060517553
00000000: f8d3 6a3c f4c1 f3bc 0e1d 9cbd c39a 0f3d
00000010: a461 ccbb 2941 853d f90f 653c 993f 00bd
00000020: 0fd1 413d 9ec7 30bd 6f6c 3dbc c7a5 73bd
00000030: 4b8b dbbc 2a2d 983d 5527 003d e07b 033c
00000040: e352 543d 9b3d 8bbd 6365 86bc 3af0 fe3b
00000050: 632c 0dbd 003e 8fbd b997 833d 8590 adbc
00000060: d6c2 8b3d de80 84bd fd32 b43d c7fd 83bc
00000070: c3bb edbc 7650 45bd f007 7f3b 11ff febc
00000080: 2e50 953c 1353 3b3c 4cf0 bbbc 9b8d 6fbd
00000090: e768 823d 4725 663d 8b18 e33a 3e40 73bd
000000a0: 215a 8a3d cb6f eb3b 967f 56bd 1710 9dbc
000000b0: 1b14 9abd 2905 4c39 489d 88bd dbd5 a5bd
000000c0: 5d92 333d 0885 58bd 2ddd 9ebd 3173 373d
000000d0: 5532 71bd 88f0 bc3c 7034 b7bd 11f8 9a3d
000000e0: 9b18 5c3d a1ec 703d 02a2 4ebd ad47 11bd
000000f0: af43 a2bd 8180 a5bd 0a23 0f3d 43e0 76bd
00000100: 4f37 833d 4e6e 5dbd 3f41 7a3d 6a6d e13c
00000110: 1b4a 9c3d a579 70bd b79e afbd e2ef e6bc
00000120: 4aca 30bd 1f4b 563d 6708 a9bd b2e4 b63a
00000130: 2c22 063d 1785 b9bd c525 7c3c 5538 16bd
00000140: 51f6 e43c c1cb 97bd d808 8fbd 83da 923d
00000150: daec c23c fa60 5c3d b888 863d e5c7 2c3d
00000160: f4ef 70bd f441 833d 04f2 88bb e74a 393c
00000170: 7323 9ebc dd26 9abd c431 3abd dcae 8abc
00000180: c759 303d 4277 79bd d41e 6abd 8615 513d
00000190: db51 93bd f244 a43d d210 20bd f1bc 403d
000001a0: d44d c7bc fde6 31bd 8bdf 393d b830 bf3c
000001b0: e546 b23c 6a6b 2e3d 52f2 403d d9af 90bd
000001c0: ae76 833d e395 23bc 48b9 78bd a9a7 c1ba
000001d0: 078c 68bd 5738 88bc cbf6 a13d 5bdb 033d
000001e0: 35be e83b 5068 80bd 99c0 91bd 3f02 403d
000001f0: 16ec 4f3b 8d95 923d f968 ca3b 1250 16bc
00000200: a077 0dbb 22e8 1f3d 2327 483d 2a14 7a3c
00000210: ae2f e83b 0a7d ad3d 7fd2 99ba 3cbb 613d
00000220: 5478 4ebd d1aa 303c 16fb 49bd b6c6 3a3d
00000230: a582 563d 1be6 5dbd cb9d e63c 828a b33d
00000240: e8fa 043d cdd8 f83b 5dcb 573d f1f2 9f3d
00000250: f1af c8bc de54 08bd 9fae 76bd 96d9 923d
00000260: e8d3 f0bc d324 00bd ff8b 8d3d 1956 47bd
00000270: 4f07 3c3d 8467 57bd 0ebf d7bc 7dff 05bd
00000280: 6f72 35bd 6a7a 60bd 05a6 a93d 6f2f 24bd
00000290: 6ca1 9bbc 851a bfbc 6241 a5bd 03e9 98ba
000002a0: e429 983d cd6d 973d 2f17 513d d850 873d
000002b0: 7a5d 3fbd c331 33bd e0d4 02bd fca8 543d
000002c0: 7d6c 4fbd 8c73 e03c 362e 56bc 7120 f6bc
000002d0: 28a2 933d 8db8 42bd f4f5 0c3c f49f 96ba
000002e0: 45c3 91bd 4e16 1cbd c978 b63c c9b0 123d
000002f0: 96fa b23c 4a6d 953c dbd4 193d ae0d f4bc
00000300: dbe7 e23c 016d 22bd 2dda 613d 101b 28bc
00000310: 7d48 a23d 7d1d adbd ad28 9c3d 91a7 00bd
00000320: c59f 80bd e19e 06bd ee14 5ebd 18f5 713d
00000330: 51e2 fe3b 0e4f 25bc dc76 b4bc 13a8 47bd
00000340: 6da6 533d a22a 97bd f23b 1d3d 1210 e03a
00000350: e7c7 ae3d 5b50 473d bee7 f03c 4951 913c
00000360: 4731 c53c 5f4b 603b b874 36bc c2c1 323d
00000370: a693 64bd d411 b73c 9c64 bebc 8312 903d
00000380: 1e55 8abd 63a4 813d 0c49 843d aa5c 693d
00000390: a62f a03d e460 f13c 42fe f9bc 8f90 bebc
000003a0: 6abb 3a3c 76e7 3ebd c26f 1e3d 675b babc
000003b0: 5a13 b6bc c700 74bd 4d0b ae3c 425d 013d
000003c0: 3442 193c 3917 8f3d 6cca 183d 4812 debc
000003d0: 80a2 693c d470 a63b 7015 f93c 3121 923d
000003e0: 39c3 8a3c ee07 d13c 4e97 c5ba ee8e 8bbd
000003f0: 7878 8b3d a18c 733a 6bf1 1abd 41e1 773d

net.2.bias f4 [256]
-0.07419569 -0.009623272 -0.020289423 0.066785574 -0.06941614 -0.069362976 0.08560692 0.05466736
0.034541048 0.09052769 0.022923052 -0.04516787 0.09295044 -0.07242616 0.024562104 0.010523866
-0.012317904 -0.0005854939 -0.020586215 -0.035016846 -0.06771607 0.016854767 -0.06674693 -0.02738687
0.00961052 0.044250455 0.09508912 0.08277224 0.007353347 -0.0336772 -0.0089076 -0.052272607
-0.047707383 -0.01433152 -0.021822054 0.015917404 -0.08795351 0.08566389 -0.006477447 0.018310338
0.038350683 0.08085272 0.03490517 0.0017773252 -0.08217528 -0.05359442 0.01225434 -0.04781905
-0.0749064 0.07983982 -0.0103241345 -0.04652416 0.050506003 -0.012623817 -0.027652282 0.07498896
-0.017823929 0.009277985 -0.08346385 -0.06623411 0.044271026 0.075991265 -0.07690004 0.08905538
0.06396106 0.007965315 -0.0027361 -0.016911453 0.095057525 0.08118677 0.058956772 0.056177784
-0.037617184 -0.07666749 0.0744399 -0.04922427 0.016528923 0.07732705 -0.055007935 -0.031586822
0.07369001 0.023542415 -0.081950404 0.03762247 -0.051180713 -0.054087255 -0.055388518 -0.078560255
0.01916584 0.032433107 0.05683807 0.06602985 0.03557113 -0.020698538 -0.027113626 0.016566107
-0.08042905 0.015222879 -0.05085062 0.09180836 -0.06663101 0.02935324 0.04902305 0.025844187
0.074587956 0.07791756 0.05430377 0.062162053 -0.022138808 0.074690476 0.027545357 -0.08234787
-0.04551345 0.032733884 0.04115805 -0.04945256 -0.048720922 -0.08697715 0.08912214 -0.03747926
-0.050752368 -0.012597203 -0.016207047 -0.053933162 -0.057260167 -0.03457806 -0.076588646 0.009703725
0.001350425 -0.05204808 -0.07525807 0.049321964 -0.028024523 0.045776103 0.043946285 0.08673192
0.028403874 -0.0799674 -0.043824453 -0.01938573 0.0694625 -0.08241387 0.03521517 0.07440497
0.1041668 0.02590816 -0.08807831 -0.009992756 0.0058582895 0.040549576 -0.06869426 -0.059785563
0.04160479 0.075792514 -0.015679657 -0.046464276 -0.058042634 -0.047417935 0.069966376 -0.0033919949
0.06360693 0.041918747 0.08829809 -0.0399522 0.06744485 0.014648351 -0.0029613236 0.0025263405
0.06641057 -0.061733816 0.062110703 0.058490958 0.024796952 0.074655205 -0.05853332 -0.027148994
-0.025965355 -0.03986321 0.037084524 -0.046697233 -0.052208684 -0.015329642 -0.020350462 -0.05907882
0.027445361 -0.015656486 -0.032226216 0.010647863 -0.030054696 -0.048573535 -0.026302291 0.03727466
0.009431066 0.029587945 0.07347558 -0.028602326 -0.012084334 0.07206374 0.08589358 -0.055413965
-0.07328778 0.040298816 -0.0025249757 -0.027530324 0.052325916 -0.06911906 0.09209199 0.01592497
0.046436533 0.047782682 0.066148445 -0.051236767 0.06717022 0.05721255 -0.04831643 -0.04481369
-0.007491211 0.044701654 -0.0828495 0.011465024 0.04887126 0.049649753 -0.089913964 -0.0484568
0.010653198 -0.001985419 -0.056879252 0.08113498 0.07758998 0.03361345 0.09142388 0.037113994
0.05098806 -0.0034763855 -0.011914327 0.028530415 0.028636679 -0.06835003 0.04791642 0.100833885
-0.03251793 -0.029626166 -0.026178572 0.0023315672 0.010925881 -0.04526986 -0.054513372 -0.018023206
-0.017573733 -0.027833927 0.05378746 -0.029235179 0.040988863 -0.030950643 0.10415284 0.0076802587
00000000: e9f3 97bd eeaa 1dbc 0136 a6bc e0c6 883d
00000010: 0d2a 8ebd 2d0e 8ebd ae52 af3d e2ea 5f3d
00000020: ea7a 0d3d 9566 b93d 20c9 bb3c f201 39bd
00000030: cd5c be3d 2b54 94bd 7736 c93c 4b6c 2c3c
00000040: 09d1 49bc d57b 19ba 6ca4 a8bc d36d 0fbd
00000050: b9ae 8abd 0213 8a3c 9db2 88bd 6e5a e0bc
00000060: 7175 1d3c f73f 353d 16be c23d 7e84 a93d
00000070: 58f4 f03b 1bf1 09bd 2ff1 11bc cd1b 56bd
00000080: d168 43bd c0ce 6abc 2ac4 b2bc 3765 823c
00000090: f820 b4bd 8d70 af3d c440 d4bb 90ff 953c
000000a0: 9b15 1d3d 1c96 a53d b9f8 0e3d 23f5 e83a
000000b0: 834b a8bd d385 5bbd 6dc6 483c e8dd 43bd
000000c0: 8768 99bd 0f83 a33d 8f26 29bc 1e90 3ebd
000000d0: 62df 4e3d 20d4 4ebc 0a87 e2bc d093 993d
000000e0: 7d03 92bc b102 183c 18ef aabd c0a5 87bd
000000f0: 8955 353d 4fa1 9b3d c57d 9dbd ab62 b63d
00000100: 04fe 823d f480 023c 2450 33bb e389 8abc
00000110: 85ad c23d 4045 a63d a87c 713d ad1a 663d
00000120: 7a14 1abd d803 9dbd f273 983d 639f 49bd
00000130: aa67 873c a55d 9e3d 0050 61bd 2f61 01bd
00000140: caea 963d 06dc c03c 9dd5 a7bd 051a 1a3d
00000150: dea2 51bd 998a 5dbd 12df 62bd 33e4 a0bd
00000160: ae01 9d3c 94d8 043d 09cf 683d a83a 873d
00000170: 09b3 113d fb8f a9bc 651d debc a5b5 873c
00000180: fcb7 a4bd 6269 793c bd48 50bd 0506 bc3d
00000190: d775 88bd 3576 f03c 65cc 483d 30b7 d33c
000001a0: 92c1 983d 3e93 9f3d a16d 5e3d a39d 7e3d
000001b0: 725c b5bc 52f7 983d cda6 e13c 00a6 a8bd
000001c0: 506c 3abd f713 063d 5895 283d c48e 4abd
000001d0: 978f 47bd 1321 b2bd ab85 b63d da83 19bd
000001e0: b7e1 4fbd 8064 4ebc a4c4 84bc 05e9 5cbd
000001f0: a389 6abd b9a1 0dbd 82da 9cbd 5ffc 1e3c
00000200: be00 b13a 5e30 55bd e720 9abd d405 4a3d
00000210: af93 e5bc b97f 3b3d 0501 343d 81a0 b13d
00000220: 3eaf e83c f3c5 a3bd 4581 33bd d3ce 9ebc
00000230: 5b42 8e3d 9ac8 a8bd c83d 103d a261 983d
00000240: 6755 d53d 593d d43c 6762 b4bd a8b8 23bc
00000250: e5f6 bf3b 5017 263d 94af 8cbd b5e1 74bd
00000260: c969 2a3d 1b39 9b3d a072 80bc 5351 3ebd
00000270: 1dbe 6dbd 4f39 42bd 884a 8f3d 3b4c 5ebb
00000280: 5a44 823d feb2 2b3d a1d5 b43d eba4 23bd
00000290: 8720 8a3d a3ff 6f3c c412 42bb f690 253b
000002a0: 4402 883d 99dc 7cbd cb67 7e3d 3794 6f3d
000002b0: fa22 cb3c d4e4 983d a2c0 6fbd 9167 debc
000002c0: 4cb5 d4bc 9b47 23bd f1e5 173d 9945 3fbd
000002d0: c6d8 55bd 2e29 7bbc 03b6 a6bc a2fc 71bd
000002e0: 18d5 e03c 0842 80bc a3ff 03bd 6074 2e3c
000002f0: 4435 f6bc 0bf5 46bd e777 d7bc 50ad 183d
00000300: c284 1a3c 6b62 f23c 5d7a 963d 6d4f eabc
00000310: 5ffd 45bc 2796 933d f9e8 af3d c1f9 62bd
00000320: e717 96bd 5f10 253d 107a 25bb 4687 e1bc
00000330: b353 563d 4b8e 8dbd ba9a bc3d 1575 823c
00000340: 3c34 3e3d c6b7 433d d678 873d a5dd 51bd
00000350: 8a90 893d b557 6a3d 73e7 45bd 8f8e 37bd
00000360: d578 f5bb 1519 373d 00ad a9bd ccd7 3b3c
00000370: 3b2d 483d 8a5d 4b3d d024 b8bd a37a 46bd
00000380: c08a 2e3c ce1d 02bb 38fa 68bd 192a a63d
00000390: 7fe7 9e3d 42ae 093d 713c bb3d d804 183d
000003a0: dbd8 503d 12d4 63bb 4f34 43bc 9eb8 e93c
000003b0: 7897 ea3c 1afb 8bbd 0244 443d ff81 ce3d
000003c0: 8531 05bd 93b2 f2bc 7274 d6bc 35cd 183b
000003d0: 7702 333c e46c 39bd 6a49 5fbd 67a5 93bc
000003e0: caf6 8fbc fa03 e4bc 3d50 5c3d 9d7e efbc
000003f0: f0e3 273d 348c fdbc 164e d53d aeaa fb3b

μ.weight f4 [2, 256]
0.05747759 0.013861138 0.0429416 0.046488486 0.04766272 -0.0103558805 -0.014682294 -0.048146494
0.030675784 -0.007837044 0.043165635 0.02680553 -0.033150405 0.028256321 -0.049720623 -0.053694762
-0.004139425 -0.0020874247 0.05321606 0.042280614 -0.034281373 0.040598255 -0.037865058 -0.06518643
-0.022185033 -0.0034113855 -0.0070319693 0.012623838 -0.025203835 -0.05830652 0.008043393 -0.011454745
0.03782053 -0.06199453 0.063059 -0.046069898 -0.01900404 0.028361725 0.060271222 0.0015530802
-0.059531048 -0.039004225 0.048470307 0.006781149 -0.05605558 0.033798784 -0.057222538 -0.02433028
-0.046346296 -0.043553226 0.06533254 -0.0146972835 -0.029580215 -0.018535063 0.005881995 -0.042649593
0.010783206 -0.010332099 -0.0027127806 0.05210092 0.012203665 -0.005806329 -0.02171515 0.043393765
0.04131833 0.0028290895 -0.01869727 0.043995526 -0.035346884 -0.042405218 -0.017984407 0.045520224
0.027450502 0.033431247 -0.01347652 -0.055834573 -0.009297136 0.025306066 -0.02124063 -0.012168315
-0.03471742 0.013974152 -0.050261028 0.045835804 0.0032770517 -0.054525375 0.031905495 -0.058901094
0.048723496 0.04810241 -0.00073431217 -0.023485625 0.037738845 -0.048714485 -0.015603599 -0.037093047
0.046989184 0.010301451 0.06313917 0.022798251 -0.018137591 0.02300231 -0.05014913 -0.012201824
-0.0472161 0.042253688 0.039899126 0.03473402 -0.0016385666 -0.05610809 0.013666515 0.024810074
0.026027594 -0.05233038 -0.047423948 -0.021999035 0.014348969 -0.01734104 0.0042058527 -0.03923644
0.009234707 0.052433364 0.05426705 0.012619883 -0.053680986 0.03350687 0.0020563584 -0.02679616
-0.058014143 -0.017803553 -0.040357944 0.05890768 0.06355349 0.04723837 -0.046062328 -0.052379068
0.05820179 0.029725965 -0.012466483 -0.032140847 0.04008429 -0.023185942 -0.05327762 0.02588562
0.05944475 -0.030527715 -0.031219764 -0.025943235 0.019073829 0.025239764 0.0075382367 -0.019817395
-0.04062984 -0.045354035 -0.03092648 -0.032312896 -0.042282246 0.02827572 0.011628869 -0.055457275
-0.035958126 -0.030569442 0.019473981 -0.03069182 0.0077524083 -0.038142204 0.013153963 -0.014757082
0.041083906 -0.035266627 -0.044690944 -0.014674069 -0.056936152 0.00859678 0.051620957 -0.0374371
0.00363677 -0.030860975 -0.035900142 -0.01324729 -0.046067223 0.046345625 -0.014603722 0.03902157
-0.055953532 -0.028182976 -0.032385677 -0.03868267 -0.0013622269 0.048867427 0.014775064 -0.04502597
-0.061157525 -0.0524617 0.0023934536 -0.04700847 0.01713361 -0.024928283 -0.040312752 0.047785472
-0.034480914 -0.024506213 0.052562486 -0.041593537 -0.030770171 0.025749628 -0.014408222 -0.043275505
-0.020373471 -0.04806513 0.024918688 0.022859482 -0.011285142 0.031986192 -0.042214222 0.0478265
-0.0012824064 -0.050061233 -0.020173876 0.038441442 0.036078 0.05358117 0.009105434 0.048752513
0.04837854 0.044323027 -0.05130007 0.0045799925 -0.056444936 -0.05417378 -0.038530346 -0.010793292
-0.03785887 0.010470658 0.0024680381 0.027543208 -0.05009371 0.03858099 -0.061958194 0.006017577
-0.0011787819 -0.03066507 0.017537165 -0.059839774 -0.05512877 0.05863137 -0.036046132 -0.02727396
0.014379759 -0.013560031 0.056304336 -0.060561486 0.06270875 0.031968683 0.014898573 0.043839823
00000000: 9f6d 6b3d d419 633c 88e3 2f3d b66a 3e3d
00000010: fc39 433d b6ab 29bc 018e 70bc 4235 45bd
00000020: c84b fb3c f266 00bc 73ce 303d 4597 db3c
00000030: b8c8 07bd cd79 e73c daa7 4bbd 0aef 5bbd
00000040: 03a4 87bb 2dcd 08bb 15f9 593d 702e 2d3d
00000050: a06a 0cbd 5b4a 263d 6418 1bbd 7780 85bd
00000060: 63bd b5bc 8d91 5fbb 6f6c e6bb 37d4 4e3c
00000070: 4678 cebc d1d2 6ebd 6fc8 033c afac 3bbc
00000080: b3e9 1a3d faed 7dbd 1425 813d cab3 3cbd
00000090: 5cae 9bbc d956 e83c f5de 763d b990 cb3a
000000a0: d4d6 73bd e5c2 1fbd cd88 463d 6734 de3b
000000b0: 899a 65bd 9870 0a3d 2e62 6abd 4c50 c7bc
000000c0: 9dd5 3dbd de64 32bd 11cd 853d e0cc 70bc
000000d0: 3552 f2bc d8d6 97bc c0bd c03b 57b1 2ebd
000000e0: 0bac 303c f747 29bc e8c8 31bb c667 553d
000000f0: e2f1 473c 0543 bebb f8e3 b1bc a9bd 313d
00000100: 693d 293d 3f68 393b 042b 99bc a734 343d
00000110: e5c7 10bd 18b1 2dbd 0954 93bc 6a73 3a3d
00000120: e0df e03c 34ef 083d 9fcc 5cbc cbb2 64bd
00000130: 0453 18bc ab4e cf3c d400 aebc 9d5d 47bc
00000140: da33 0ebd d7f3 643c 82de 4dbd 53be 3b3d
00000150: cec3 563b 0056 5fbd 56af 023d 4642 71bd
00000160: 4a92 473d 0807 453d db7e 40ba ed64 c0bc
00000170: 0c94 1a3d d788 47bd 3da6 7fbc e1ee 17bd
00000180: bb77 403d 6bc7 283c 1c4f 813d 66c3 ba3c
00000190: 4995 94bc 576f bc3c 2d69 4dbd 29ea 47bc
000001a0: ab65 41bd 3412 2d3d 446d 233d 4245 0e3d
000001b0: 2cc5 d6ba 99d1 65bd 85e9 5f3c 7f3e cb3c
000001c0: d237 d53c 6158 56bd 9d3f 42bd 5237 b4bc
000001d0: f017 6b3c cc0e 8ebc 40d1 893b 64b6 20bd
000001e0: 2b4d 173c 5ec4 563d 2047 5e3d a0c3 4e3c
000001f0: 98e0 5bbd 803e 093d f8c3 063b 9f83 dbbc
00000200: 3da0 6dbd c2d8 91bc 5f4e 25bd 2e49 713d
00000210: 5528 823d 057d 413d daab 3cbd 6f8b 56bd
00000220: 0065 6e3d de83 f33c 3840 4cbc 1fa6 03bd
00000230: 6d2f 243d 72f0 bdbc a239 5abd 140e d43c
00000240: 577c 733d 4215 fabc 97c0 ffbc e886 d4bc
00000250: b840 9c3c 9fc3 ce3c 5003 f73b 1758 a2bc
00000260: 7a6b 26bd 27c5 39bd 8859 fdbc 875a 04bd
00000270: 2630 2dbd 7ca2 e73c 0387 3e3c 2b27 63bd
00000280: d448 13bd c46c fabc e687 9f3c 696d fbbc
00000290: ea07 fe3b 003b 1cbd b883 573c b0c7 71bc
000002a0: 9947 283d bd73 10bd da0d 37bd 826b 70bc
000002b0: e235 69bd 82d9 0c3c 7f70 533d a557 19bd
000002c0: e056 6e3b 28d0 fcbc 070c 13bd 290b 59bc
000002d0: fcb0 3cbd e9d4 3d3d 7344 6fbc 15d5 1f3d
000002e0: 882f 65bd fcdf e6bc d8a6 04bd b871 1ebd
000002f0: c08c b2ba 3629 483d 1c13 723c 276d 38bd
00000300: 5080 7abd 14e2 56bd 7ddb 1c3b f48b 40bd
00000310: c95b 8c3c 6636 ccbc fc1e 25bd b3ba 433d
00000320: dc3b 0dbd 41c1 c8bc c34b 573d fc5d 2abd
00000330: ba11 fcbc e2f0 d23c 7710 6cbc a841 31bd
00000340: 44e6 a6bc f1df 44bd 4722 cc3c cf43 bb3c
00000350: 51e5 38bc f403 033d d2e8 2cbd b8e5 433d
00000360: 6b16 a8ba 020d 4dbd af43 a5bc c674 1d3d
00000370: 86c6 133d ee77 5b3d f52e 153c b7b0 473d
00000380: 9328 463d 108c 353d 0620 52bd c313 963b
00000390: ce32 67bd 53e5 5dbd ffd1 1dbd 59d6 30bc
000003a0: e711 1bbd 1f8d 2b3c cfbe 213b 4ba2 e13c
000003b0: 102f 4dbd 1a07 1e3d e0c7 7dbd 182f c53b
000003c0: 5b81 9aba 5035 fbbc 1aaa 8f3c 8d1a 75bd
000003d0: b5ce 61bd 7327 703d 1ca5 13bd a46d dfbc
000003e0: 1599 6b3c e42a 5ebc 609f 663d 520f 78bd
000003f0: 726d 803d 98f1 023d 2519 743c 6391 333d

μ.bias f4 [2]
0.024964677 -0.049155433
00000000: b982 cc3c 3557 49bd

σ.weight f4 [2, 256]
-0.044709936 0.056874692 -0.020162025 -0.053917572 0.018250529 -0.009807427 0.040237233 0.015368266
-0.008797471 -0.030420693 -0.027021434 -0.047985923 -0.04655297 -0.051040716 -0.059191827 -0.010087519
-0.04148898 0.036074083 0.015414765 1.4533463e-05 -0.039937604 -0.05309301 0.022851938 0.04270128
-0.012628194 -0.0440972 0.046762317 0.032253273 -0.059086695 -0.01824394 0.052935813 0.017268775
-0.038396273 0.016049273 0.025995463 0.0038132102 -0.0049723717 0.04046354 0.052378673 0.033513907
0.010112892 0.05697168 0.024117364 0.04966117 0.054803547 -0.020169692 -0.04375947 0.048477575
0.02971477 -0.012549374 -0.04574358 -0.0027419932 0.02615247 -0.009986661 0.051032834 0.058069233
-0.03538767 -0.0039188447 0.034013435 -0.0021820504 -0.0364259 0.00084267446 -0.016359903 -0.012874977
5.8277456e-05 -0.052942473 -0.028355503 -0.028460886 0.016740913 -0.05088675 0.02454994 -0.027065316
-0.003814601 -0.014760807 0.05143184 -0.0031247304 0.013890089 -0.011854556 0.04990376 -0.022047957
0.031277195 0.002904606 0.017069899 -0.015924664 -0.03173677 -0.012325036 0.007555281 -0.00436813
-0.030378364 0.015219651 0.04295234 0.036684245 0.02055932 -0.052717682 -0.03778773 -0.035341185
-0.008052162 0.0336157 0.041462515 0.014285948 -0.017347338 0.0112249525 0.04843178 -0.0317548
0.018528702 0.021402637 -0.04962706 -0.03642384 0.020722406 0.026309753 -0.0542824 0.058629118
0.03365024 -0.032017164 -0.018405598 -0.041353405 -0.032275066 0.056599908 -0.06268594 0.06419574
-0.026103098 0.040774282 -0.014358126 -0.018978603 0.035616115 -0.048956927 0.023947913 0.017060371
0.035313617 -0.053557888 0.04210781 0.028104575 -0.048877038 -0.052209668 0.05633411 -0.017277177
-0.046788484 0.013122985 -0.006549668 -6.768773e-05 -0.059563115 0.010918314 0.02573864 -0.040526133
0.008748854 0.03606413 -0.023477294 -0.05875141 -0.04953348 -0.02445782 -0.02742882 -0.0044258186
0.03103292 0.04605141 -0.038183667 -0.018041775 0.012707153 -0.005979551 -0.010822535 -0.03451594
-0.018964536 -0.005541175 0.007251164 0.0100125335 0.03917174 -0.04584946 0.022298325 -0.034320515
0.041862253 0.0068956674 0.035030328 0.013704678 -0.03745589 0.00884858 -0.021445017 -0.023912737
0.050951943 0.0007988436 -0.032132674 -0.06021024 -0.016078196 0.05081827 -0.055653255 -0.014826673
-0.026778493 0.04270366 0.009176768 -0.020933986 0.012607552 -0.033435687 0.052766386 -0.02670609
0.0580965 0.04883051 0.014966734 0.05135437 0.012542968 -0.02270498 0.036628336 0.014533984
0.05246317 -0.046769943 0.023866745 -0.016760726 -0.007094744 0.0031303833 -0.019441517 -0.020017756
-0.029911326 0.0134938415 0.014032831 -0.024015168 0.04518027 -0.046878587 0.014130225 -0.062124267
-0.017901286 -0.0059308303 0.0294955 0.0016763603 0.022820858 0.020542886 0.026684634 0.02188664
0.010331554 0.05334256 0.043414585 -0.06575983 -0.008042589 0.050958216 -0.03600642 0.02458602
0.040214658 -0.041153513 -0.02403534 0.047787096 0.020061396 -0.061191887 0.007693529 0.009887591
0.0126002915 0.04681624 -0.023261514 -0.06264377 -0.010119477 -0.0560549 -0.014763645 0.032396
-0.007669631 -0.05266136 0.052760724 -0.032213114 -0.029221911 -0.022338659 -0.064998835 0.006015552
00000000: c421 37bd 70f5 683d d52a a5bc acd8 5cbd
00000010: 2282 953c 55af 20bc cccf 243d 2ecb 7b3c
00000020: 4523 10bc d134 f9bc 0e5c ddbc e38c 44bd
00000030: 54ae 3ebd 1210 51bd 2173 72bd 1f46 25bc
00000040: 59f0 29bd 6bc2 133d 368e 7c3c c0d4 7337
00000050: 9d95 23bd 0e78 59bd fd33 bb3c 8ae7 2e3d
00000060: 7ce6 4ebc 449f 34bd d889 3f3d 021c 043d
00000070: e404 72bd 5174 95bc 39d3 583d 3f77 8d3c
00000080: 6945 1dbd c479 833c 70f4 d43c 0de7 793b
00000090: 47ef a2bb 19bd 253d 058b 563d e145 093d
000000a0: 8bb0 253c 235b 693d c791 c53c 8369 4b3d
000000b0: af79 603d e93a a5bc 213d 33bd 6c90 463d
000000c0: 646c f33c e49b 4dbc 9f5d 3bbd 03b3 33bb
000000d0: b43d d63c 189f 23bc ce07 513d 01da 6d3d
000000e0: a9f2 10bd a769 80bb ac51 0b3d bb00 0fbb
000000f0: 5333 15bd ede6 5c3a 3405 86bc 91f1 52bc
00000100: f16e 7438 35da 58bd cd49 e8bc ce26 e9bc
00000110: 3d24 893c a06e 50bd f51c c93c 15b8 ddbc
00000120: 63fe 79bb 50d7 71bc 31aa 523d 47c8 4cbb
00000130: 4193 633c 9d39 42bc e367 4c3d eb9d b4bc
00000140: 841c 003d 345b 3e3b 2cd6 8b3c 7174 82bc
00000150: 6afe 01bd f3ee 49bc 4a92 f73b 8822 8fbb
00000160: 0cdc f8bc d85b 793c cbee 2f3d 3842 163d
00000170: 056c a83c 7fee 57bd 4fc7 1abd ebc1 10bd
00000180: 37ed 03bc 9eb0 093d 99d4 293d 9c0f 6a3c
00000190: 011c 8ebc dde8 373c 6760 463d 5211 02bd
000001a0: 81c9 973c 9554 af3c be45 4bbd 2a31 15bd
000001b0: 09c2 a93c 8d87 d73c 3957 5ebd 1625 703d
000001c0: d6d4 093d 6e24 03bd 56c7 96bc 3062 29bd
000001d0: dc32 04bd 4ed5 673d 7c61 80bd 0e79 833d
000001e0: 2ad6 d5bc ef02 273d 583e 6bbc 0479 9bbc
000001f0: 34e2 113d 0f87 48bd 6a2e c43c 31c2 8b3c
00000200: 03a5 103d 845f 5bbd 3d79 2c3d 913b e63c
00000210: 4a33 48bd ced9 55bd 99be 663d de88 8dbc
00000220: 48a5 3fbd ca01 573c 999e d6bb 93f3 8db8
00000230: 74f8 73bd bae2 323c d7d9 d23c bbfe 25bd
00000240: 5a57 0f3c fbb7 133d 7453 c0bc 52a5 70bd
00000250: 9ee3 4abd c45b c8bc 68b2 e0bc 7506 91bb
00000260: c038 fe3c 67a0 3c3d 7a66 1cbd 58cc 93bc
00000270: aa31 503c 1cf0 c3bb 0051 31bc 9660 0dbd
00000280: 845b 9bbc bf92 b5bb 2c9b ed3b 9c0b 243c
00000290: 8c72 203d a5cc 3bbd faaa b63c ab93 0cbd
000002a0: c177 2b3d 0df5 e13b f67b 0f3d 9689 603c
000002b0: 596b 19bd a2f9 103c 76ad afbc a5e4 c3bc
000002c0: fcb2 503d 7d69 513a 8d9d 03bd 039f 76bd
000002d0: 6cb6 83bc d126 503d abf4 63bd 93eb 72bc
000002e0: 925e dbbc 08ea 2e3d 285a 163c c07d abbc
000002f0: e88f 4e3c dcf3 08bd 9121 583d bbc6 dabc
00000300: 98f6 6d3d 8002 483d 0837 753c f658 523d
00000310: 0581 4d3c cbff b9bc 9807 163d f21f 6e3c
00000320: 9fe3 563d d791 3fbd 3184 c33c ca4d 89bc
00000330: 077b e8bb 1e27 4d3b d143 9fbc 47fc a3bc
00000340: 9908 f5bc 4615 5d3c f6e9 653c 75bb c4bc
00000350: f20e 393d c303 40bd 7682 673c 0476 7ebd
00000360: b8a5 92bc 6957 c2bb 8ca0 f13c 51b9 db3a
00000370: cff2 ba3c 8e49 a83c bc99 da3c 9c4b b33c
00000380: ae45 293c ba7d 5a3d 7ed3 313d 17ad 86bd
00000390: 10c5 03bc 90b9 503d 787b 13bd 9f68 c93c
000003a0: 20b8 243d 9690 28bd c3e5 c4bc 67bc 433d
000003b0: cc57 a43c 58a4 7abd 001a fc3b 90ff 213c
000003c0: 7471 4e3c 63c2 3f3d ee8e bebc 604b 80bd
000003d0: 2acc 25bc d399 65bd 37e3 71bc abb1 043d
000003e0: 8751 fbbb 70b3 57bd a11b 583d e6f1 03bd
000003f0: ca62 efbc 90ff b6bc 1c1e 85bd 1c1e c53b

σ.bias f4 [2]
0.010688704 -0.036972485
00000000: ad1f 2f3c 7670 17bd
