model/p_no45.pth (torch, 143992 bytes, 8 tensors)

net.0.weight f4 [128, 9]
0	0x3e5833aa	0.21113458
1	0x3d404fd3	0.046951126
2	0xbe137f0a	-0.1440393
3	0x3e800865	0.25006405
4	0xbd95387e	-0.07286166
5	0xbe5182ff	-0.20460127
6	0xbd9aa82a	-0.07551606
7	0xbdf68e6a	-0.12038882
8	0xbe5bc20c	-0.21460742
9	0xbe0a17be	-0.1348562
10	0xbdeee32f	-0.116644256
11	0x3e64db14	0.22349197
12	0x3e9aa5ac	0.30204523
13	0x3e52c2c1	0.20582105
14	0x3e2d450a	0.16920868
15	0xbe8b6e1d	-0.27232447
16	0xbe78ffbb	-0.24316303
17	0x3df6ea3c	0.120563954
18	0xbe55b793	-0.2087081
19	0x3e29056b	0.16505973
20	0x3de32f28	0.11092979
21	0xbe87868a	-0.26469833
22	0xbe1ef715	-0.15523942
23	0xbe10677b	-0.14101975
24	0x3e82757d	0.2548026
25	0x3e8890f2	0.26673084
26	0x3e7a704b	0.24456899
27	0x3d0ed87d	0.034874428
28	0xbe23a5ab	-0.15981166
29	0x3e840256	0.25783032
30	0x3e36c0cf	0.17846988
31	0xbe6166df	-0.22011898
32	0x3ea03067	0.31286928
33	0xbe9e615e	-0.3093366
34	0xbdb2e6bc	-0.08735415
35	0xbe5f0e33	-0.2178276
36	0x3e348bde	0.1763148
37	0xbea2aa26	-0.31770438
38	0x3e615fee	0.2200925
39	0x3e908e22	0.2823344
40	0xbe5b71f7	-0.21430193
41	0x3d96327b	0.07333847
42	0x3dbfdd9d	0.09368441
43	0xbd6e7b9d	-0.058223356
44	0x3e83c106	0.25733203
45	0xbcd434fa	-0.025904167
46	0x3e7ccef5	0.24688323
47	0xbd380d65	-0.04493465
48	0xbda9745f	-0.08274149
49	0xbe494888	-0.19656575
50	0xbc3807ee	-0.011232359
51	0xbe2a83da	-0.1665186
52	0xbe397898	-0.18112409
53	0x3db14e4e	0.086575136
54	0x3e732a0e	0.23746511
55	0xbdc02836	-0.0938267
56	0x3e7d035d	0.24708314
57	0x3e2ff873	0.1718462
58	0xbe88e7c5	-0.26739326
59	0xbe82d048	-0.2554953
60	0xbc0e591d	-0.008688238
61	0xbd9c6116	-0.07635705
62	0x3ea92567	0.33036348
63	0xbe184684	-0.1487065
64	0x3d073e7e	0.03301858
65	0x3d081184	0.03321983
66	0xbc571c72	-0.0131293405
67	0x3dc87637	0.09788173
68	0xbe8da9e9	-0.27668694
69	0x3e9089ec	0.28230226
70	0x3e16421b	0.14673655
71	0x3e2811ea	0.16413084
72	0x3e920cc3	0.2852536
73	0xbde72d9a	-0.11287995
74	0x3e058543	0.13039117
75	0xbe731afd	-0.23740764
76	0xbdb7cdde	-0.08974813
77	0x3c9c9b83	0.019117123
78	0x3e4fa48e	0.20277616
79	0x3df1ff37	0.118162565
80	0x3e867970	0.26264524
81	0x3d83bfac	0.06433043
82	0xbe83264b	-0.25615153
83	0xbca82c0d	-0.020528818
84	0x3e9fca47	0.31209013
85	0xbb803cc2	-0.003913493
86	0x3e63610d	0.2220499
87	0x3e769f96	0.24084315
88	0xbe64b079	-0.22332944
89	0x3e89953b	0.26871666
90	0x3e8ab833	0.27093658
91	0xbea6eba2	-0.3260165
92	0x3e995aea	0.29952174
93	0xbe3bfdf7	-0.18358599
94	0xbe9acfe4	-0.30236733
95	0xbb87ce92	-0.004144498
96	0xbdd8eb1e	-0.1059172
97	0x3e46c874	0.19412404
98	0xbcc2ad7a	-0.02376436
99	0xbea1fd00	-0.31638336
100	0x3cdde923	0.027088707
101	0x3e750489	0.23927511
102	0xbe2ab131	-0.16669156
103	0x3e4efb8a	0.20213142
104	0x3e44f7e5	0.1923519
105	0xbe3dc3f4	-0.18531781
106	0x3d4c416b	0.049867075
107	0xbe13f846	-0.14450178
108	0x3cf6e9e3	0.030140823
109	0x3d51bfc8	0.051208287
110	0x3e62e13c	0.22156233
111	0x3da27015	0.07931534
112	0x3da65f6b	0.08123668
113	0x3deb224f	0.11481153
114	0xbd3af3aa	-0.045642532
115	0xbe8c406e	-0.27392906
116	0x3e6eee2a	0.2333304
117	0xbdc0a8ce	-0.09407197
118	0xbdedad9e	-0.116053805
119	0xbe5dbb81	-0.21653558
120	0xbe4bb7fc	-0.19894403
121	0x3db3b92d	0.08775554
122	0x3eb799b8	0.35859466
123	0x3e8d807b	0.27637085
124	0x3e872342	0.26394087
125	0xbcc9080c	-0.02453997
126	0xbdcc788e	-0.099839315
127	0x3d7f2f56	0.062301002
128	0xbdd9596c	-0.10612759
129	0x3e736738	0.23769844
130	0xbea50088	-0.32226968
131	0xbd8daefa	-0.0691814
132	0xbe3b904d	-0.18316765
133	0x3e33ec96	0.17570719
134	0xbe6db784	-0.23214537
135	0xbd435bbe	-0.047694914
136	0x3e887afd	0.26656333
137	0xbe82d1e4	-0.2555076
138	0x3e27e532	0.16396025
139	0x3e4c5a77	0.19956385
140	0x3db009cc	0.085956186
141	0x3df615f2	0.120159045
142	0xbe3d2bbf	-0.18473719
143	0xbdfc6e68	-0.12325746
144	0x3a68a595	0.00088747713
145	0x3e1a185b	0.15048353
146	0x3d840240	0.06445742
147	0xbe62e4b8	-0.22157562
148	0xbea5f208	-0.32411218
149	0xbe81de6a	-0.25365
150	0x3dafe141	0.08587886
151	0x3db1cc33	0.08681526
152	0xbdcbf035	-0.09957925
153	0x3e938185	0.28809753
154	0xbea5e644	-0.3240224
155	0xbdf99170	-0.12185943
156	0x3e2729cc	0.16324538
157	0xbe634189	-0.22192968
158	0x3e54f8d7	0.2079805
159	0x3daa8216	0.08325593
160	0xbdf2a618	-0.11848086
161	0xbd6e8983	-0.05823661
162	0x3e0d10ae	0.13775894
163	0xbe9ea4d9	-0.30985144
164	0x3ea987c8	0.33111405
165	0x3dc7fcad	0.09764991
166	0x3e41ee37	0.18938528
167	0xbe0a327d	-0.13495822
168	0x3eadc57b	0.33939728
169	0x3ea2b0af	0.31775424
170	0xbdf16522	-0.11786868
171	0xbe6d5d46	-0.23180112
172	0xbe289708	-0.16463864
173	0xbe633b2d	-0.22190543
174	0xbdc4028e	-0.095708
175	0xbe3ea0ff	-0.18616103
176	0xbe97e5aa	-0.29667407
177	0x3d099dc2	0.033597715
178	0x3e923fa2	0.28564173
179	0xbdaf9ec3	-0.08575203
180	0xbe351d7b	-0.17687027
181	0x3e2d2f12	0.16912487
182	0x3e257c19	0.16160621
183	0x3bcff659	0.0063465056
184	0xbe8a0ccd	-0.2696289
185	0xbe0235ea	-0.12715879
186	0x3e8bf5c6	0.27335948
187	0x3e6d41fe	0.23169705
188	0xbe9df80e	-0.30853313
189	0xbe934eaf	-0.28770968
190	0xbe90d233	-0.2828537
191	0x3c7356fd	0.014852283
192	0x3e119c2d	0.14219733
193	0x3cdc7a3c	0.026913755
194	0xbd9f79d1	-0.077869065
195	0xbe8bbea4	-0.27293885
196	0x3eacca6a	0.3374818
197	0x3e094e0e	0.13408682
198	0x3e2de0d2	0.16980293
199	0xbdd53116	-0.10409753
200	0xbc93bba4	-0.01803381
201	0xbe0d71ad	-0.13812895
202	0x3e434e3f	0.19072817
203	0x3ea9d572	0.33170658
204	0xbd7af42a	-0.06126801
205	0x3e388f8e	0.18023512
206	0xbdd02c63	-0.10164716
207	0xbdf5b135	-0.1199669
208	0xbd515d89	-0.051114593
209	0x3ea71019	0.3262947
210	0xbdd503b6	-0.104010984
211	0xbe9686e4	-0.29399788
212	0xbdf62c94	-0.12020221
213	0x3d93af3a	0.07211156
214	0xbe5d62c6	-0.2161971
215	0x3e2ae275	0.16687949
216	0xbe799526	-0.24373302
217	0x3d1cebc7	0.038310792
218	0xbdcea4a3	-0.10089996
219	0x3d5712b7	0.052508082
220	0xbe2123bf	-0.15736292
221	0xbe7d7016	-0.24749789
222	0x3e76dfb6	0.24108776
223	0x3dea8a25	0.1145213
224	0xbe88af53	-0.26696262
225	0x3e39468f	0.18093322
226	0xbc5d8151	-0.013519601
227	0xbe7249c4	-0.23660952
228	0x3d17e672	0.037085004
229	0x3ea27bb8	0.31735015
230	0x3dcdf62c	0.10056719
231	0x3dc35422	0.095375314
232	0xbe61053e	-0.21974656
233	0x3df8b127	0.12143164
234	0xbc64b852	-0.013959961
235	0xbeafeefa	-0.34362012
236	0x3e1ab5c6	0.15108404
237	0xbbde938f	-0.0067924927
238	0xbdacf2f0	-0.08444774
239	0x3e93f451	0.28897336
240	0xbdfad86d	-0.12248311
241	0x3e860bd7	0.26180908
242	0x3cdccb30	0.026952356
243	0x3d2b3401	0.04179764
244	0xbead5659	-0.3385494
245	0x3e9b9113	0.3038412
246	0xbdae6815	-0.08515946
247	0x3dceb966	0.10093956
248	0x3e5657ed	0.20931979
249	0xbc1ed231	-0.009693668
250	0x3e87a91c	0.26496208
251	0x3d4b9eb7	0.04971191
252	0xbe2ca009	-0.16857924
253	0xbe7294c6	-0.23689565
254	0x3e8b0893	0.2715498
255	0xbd527140	-0.051377535

net.0.bias f4 [128]
0	0xbe405dcd	-0.18785782
1	0x3e73533e	0.23762223
2	0xbe882fec	-0.2659906
3	0xbe348dfc	-0.17632288
4	0xbda5df17	-0.08099192
5	0x3ea3398c	0.31879842
6	0x3e6e491a	0.23270074
7	0xbe8a30ef	-0.26990458
8	0xbe957b00	-0.29195404
9	0xbe72a206	-0.2369462
10	0x3eb55304	0.35414898
11	0xbe9d0000	-0.30664062
12	0x3dbb93f4	0.09159079
13	0x3d2b3629	0.041799698
14	0x3e33e504	0.17567831
15	0x3d78bc45	0.060726423
16	0xbde7bb0a	-0.11314972
17	0x3e3270b2	0.17425802
18	0xbd5ad58b	-0.053426307
19	0x3a6efe07	0.00091168325
20	0xbd7f0df0	-0.06226915
21	0x3db5ad43	0.08870938
22	0x3e4c4306	0.19947442
23	0xbe5c4781	-0.21511652
24	0x3dfe3a20	0.1241343
25	0x3e745a19	0.23862495
26	0xbe8fb1ad	-0.28065243
27	0xbe13b1e7	-0.14423333
28	0x3dd66e09	0.10470206
29	0xbe20d389	-0.15705694
30	0xbe6155f1	-0.2200544
31	0x3eab23fd	0.33425894
32	0xbd1ce5bf	-0.03830504
33	0x3ea8b2a3	0.3294879
34	0x3de15cdf	0.11004042
35	0xbe9ca215	-0.3059241
36	0xbe3e64d8	-0.18593156
37	0xbe16300d	-0.14666767
38	0xbea48fe8	-0.32141042
39	0x3e9f142b	0.31070074
40	0xbe66913b	-0.22516339
41	0x3e87ad8f	0.26499602
42	0x3e0d8aca	0.13822475
43	0xbd148a6c	-0.036264822
44	0x3e9ece8d	0.3101696
45	0xbe47821e	-0.1948323
46	0x3e31557e	0.17317769
47	0xbe804779	-0.2505453
48	0x3e844437	0.25833294
49	0x3e342d08	0.17595303
50	0x3e4f998d	0.20273419
51	0xbe7a9fa8	-0.24474967
52	0x3e8bf89b	0.27338108
53	0xbcef963a	-0.029246438
54	0xbde095cf	-0.10966074
55	0x3e0afbe7	0.13572656
56	0xbdf834b2	-0.12119426
57	0x3da6bde3	0.08141687
58	0xbe90873b	-0.28228173
59	0xbdbd1623	-0.09232738
60	0xbd9afe40	-0.075680256
61	0x3e99bf4b	0.30028757
62	0x3eab4dff	0.33457944
63	0x3db1400b	0.08654793
64	0x3e879f94	0.26488936
65	0xbb8ff6fc	-0.0043934565
66	0xbcf7c7fc	-0.030246727
67	0xbe9e430b	-0.30910525
68	0xbc77e811	-0.015131013
69	0x3e4f4fff	0.2024536
70	0xbe4f87e7	-0.20266686
71	0xbd4aaf17	-0.049483385
72	0x3da8d6fb	0.08244129
73	0xbd3e1c51	-0.046413723
74	0x3d0dbb48	0.034602433
75	0x3ea01a09	0.31269863
76	0xbdbc5ce7	-0.09197407
77	0xbe9b5f4e	-0.3034615
78	0x3e982895	0.29718462
79	0xbcf1a0b6	-0.029495578
80	0x3e89f3db	0.2694386
81	0xbea41757	-0.32049057
82	0x3e84edc4	0.2596265
83	0x3e9dbd17	0.30808327
84	0xbd99aa71	-0.07503212
85	0x3e2db09d	0.16961904
86	0x3e82cd76	0.2554738
87	0xbea6c477	-0.32571766
88	0x3e99f72b	0.30071387
89	0x3e0d44e9	0.13795818
90	0x3d8b8b88	0.06813723
91	0xbe4f0d0d	-0.20219822
92	0x3e2f3921	0.17111637
93	0x3df16ec6	0.117887065
94	0xbdfca0c9	-0.12335355
95	0xbdb2c60f	-0.08729183
96	0xbd381906	-0.04494574
97	0xbe011b27	-0.12608014
98	0xbe1c3bcc	-0.15257186
99	0xbc9bd6d5	-0.019023338
100	0x3dc92404	0.098213226
101	0xbe7f2e6c	-0.24920052
102	0x3dbf6a16	0.09346406
103	0x3e970de6	0.2950279
104	0xbe540a83	-0.20707135
105	0x3e1091b9	0.14118089
106	0x3c083235	0.008312752
107	0xbd9f9a83	-0.07793143
108	0xbe0f46cb	-0.13991849
109	0xbc18424e	-0.009293152
110	0x3d0d4639	0.034490798
111	0x3ea15a6a	0.31514293
112	0xbccdfc11	-0.025144609
113	0xbeaa3304	-0.33242047
114	0xbe866f5f	-0.26256844
115	0x3dcd11d1	0.10013164
116	0x3dd3add0	0.103358865
117	0xbd925bf7	-0.07146447
118	0xbe56dd72	-0.20982912
119	0xbd805feb	-0.06268295
120	0x3d38c6dc	0.045111522
121	0xbd0cdda8	-0.034391075
122	0x3ca2a1ff	0.019852636
123	0x3d93721c	0.07199499
124	0xbdda3eb0	-0.10656488
125	0x3e98082d	0.29693738
126	0x3ea29a6b	0.31758437
127	0x3e5ffb59	0.21873225

net.2.weight f4 [256, 128]
0	0x3d247023	0.040146004
1	0xbd4dae0c	-0.050214812
2	0xbd81593b	-0.063158475
3	0x3d94cc6e	0.07265554
4	0x3ca0cb29	0.019628124
5	0x3d5aae6e	0.053389005
6	0x3d8f2bbc	0.069907635
7	0xbcbc878b	-0.02301385
8	0x3da1e29b	0.0790455
9	0x3a96a860	0.0011494271
10	0x3cc38f3a	0.023872007
11	0xbd103268	-0.03520432
12	0xbd3d9e30	-0.046293437
13	0x3d344269	0.044008646
14	0x3c1ef76e	0.0097025465
15	0xbcc02d44	-0.023459084
16	0xbcbfa3c1	-0.023393514
17	0x3d776281	0.060396675
18	0xbdaf9b6a	-0.08574565
19	0x3d0f5c50	0.035000145
20	0x3d8a5ebd	0.06756351
21	0x3cfa25ac	0.030535541
22	0x3c542381	0.012947918
23	0x3dc1b2b0	0.0945791
24	0x3c0fdc64	0.008780573
25	0xbced133a	-0.028939832
26	0xbd089044	-0.033340707
27	0xbcb3f4c7	-0.021967305
28	0x3d71dbf9	0.059047673
29	0x3d466242	0.04843355
30	0xbcf06431	-0.02934465
31	0xbd9ed0d1	-0.07754672
32	0x3d381c76	0.044949017
33	0xbc93ad94	-0.018027104
34	0x3d9400f6	0.07226746
35	0xbd240f1f	-0.040053483
36	0x3c001ad5	0.007818897
37	0xbd374921	-0.044747476
38	0x3da1609b	0.07879754
39	0xbdaeb792	-0.08531107
40	0x3d08c28e	0.033388667
41	0x3d7c1d78	0.06155154
42	0x3db48675	0.08814708
43	0x3d83326e	0.06406103
44	0x3cfbe1d5	0.030747334
45	0xbd0cad81	-0.034345154
46	0x3cec225a	0.028824974
47	0x3d934115	0.07190148
48	0xbd1280d7	-0.035767402
49	0xbc01aeb3	-0.007915187
50	0x3d9bff2c	0.076170295
51	0xbdaf37dc	-0.08555576
52	0xbbefcd65	-0.007318186
53	0x3d15fe0c	0.03661923
54	0x3c6ce7d5	0.01445957
55	0xbd748fa8	-0.059707314
56	0x3d96622d	0.07342944
57	0x3c9733be	0.01845729
58	0xbc838857	-0.016056223
59	0xbc4bcfbd	-0.012439665
60	0x3d9128f5	0.0708789
61	0x3b1e46f6	0.0024151183
62	0xbdb2367d	-0.08701799
63	0xbd45e742	-0.048316248
64	0x3d85da4c	0.065357774
65	0x3d1291c4	0.035783544
66	0x3d073ca4	0.033016816
67	0xbdaf349e	-0.08554958
68	0xbdb8dec5	-0.09026865
69	0x3ac313be	0.0014883203
70	0x3c84b0b4	0.01619754
71	0x3d875bcd	0.066093065
72	0xbdb819cf	-0.089892976
73	0x3d1ff1f0	0.03904909
74	0x3d771265	0.060320277
75	0xbd9a7656	-0.07542102
76	0xbca76376	-0.020433169
77	0x3d4df9e5	0.050287146
78	0x3d844f18	0.064603984
79	0xbc0bcb3f	-0.008532344
80	0xbce53db1	-0.027983518
81	0x3d294ff2	0.041336007
82	0x3cdeb631	0.027186485
83	0x3d2b6f7e	0.041854374
84	0x3dad682a	0.08467133
85	0xbd3c7025	-0.046005387
86	0x3aa51f7c	0.0012597884
87	0xbb995b90	-0.0046801046
88	0xbd0a45de	-0.033758037
89	0x3c204b18	0.009783529
90	0xbd89c7ec	-0.06727585
91	0xbd71a0dc	-0.058991298
92	0x3cb793ab	0.02240928
93	0x3c507192	0.01272239
94	0x3d817eaf	0.06322991
95	0x3c1bc9e2	0.009508582
96	0x3d0f0468	0.03491631
97	0xbd35699e	-0.044290178
98	0xbd11ce7c	-0.03559731
99	0xbd921d01	-0.07134438
100	0xbd951db3	-0.07281055
101	0xbd878ac0	-0.06618261
102	0xbd379887	-0.044823196
103	0xbc6a92bc	-0.014317211
104	0x3cd929ec	0.026509248
105	0x3d88f4e1	0.06687332
106	0x3d7d9f6a	0.061919607
107	0x3d6be2f8	0.0575895
108	0x3d93f45b	0.072243415
109	0x3da2a838	0.079422414
110	0xbd357f07	-0.044310596
111	0x3d58a91e	0.052895658
112	0x3d009fe1	0.031402472
113	0xbcea293e	-0.028584119
114	0xbd0dcde6	-0.03462019
115	0x3cdec1ff	0.027192114
116	0x3d27daaf	0.040980037
117	0x3d51d952	0.051232643
118	0x3b57e435	0.0032942418
119	0xbd8108c4	-0.063005
120	0x3d6981e9	0.057008658
121	0xbcf05331	-0.029336544
122	0x3d4755e1	0.048665885
123	0xbd78a7f3	-0.060707044
124	0x3ce5eb9d	0.02806645
125	0xbc5f272a	-0.013620177
126	0xbd555c4c	-0.052089974
127	0x3d444e44	0.047926202
128	0x3db0c380	0.08631039
129	0xbc817762	-0.015803996
130	0x3a8c6def	0.0010713915
131	0xbd219df3	-0.039457273
132	0x3d62f13b	0.055405837
133	0x3c20e57f	0.009820341
134	0xbbeb85c6	-0.007187578
135	0x3d9c7daa	0.07641156
136	0xbda41339	-0.08011479
137	0xbd83d6fb	-0.06437489
138	0xbda1f6f6	-0.07908432
139	0xbc838d7e	-0.01605868
140	0xbda1dbef	-0.07903277
141	0x3a7cc531	0.0009642421
142	0xbd8c0f05	-0.06838802
143	0x3d55f662	0.052236922
144	0x3c8e3ef1	0.017363997
145	0xbcfa6a19	-0.03056817
146	0x3d10af9d	0.035323728
147	0x3d80131f	0.06253647
148	0xbd12327a	-0.03569267
149	0xbd01d9c6	-0.031701826
150	0x3c0fef0b	0.00878502
151	0xbd9a4c26	-0.075340554
152	0x3bd9cc59	0.0066466746
153	0xbd4d4dff	-0.05012321
154	0x3b90b385	0.0044159316
155	0xbd33f4ac	-0.04393451
156	0x3c46dcf3	0.012137639
157	0xbd2cb27c	-0.042162403
158	0xbcb0a1d2	-0.021561537
159	0xbd5af8cb	-0.053459924
160	0x3cd1504d	0.025550986
161	0xbcb88be8	-0.02252765
162	0x3c8e5e4c	0.017378949
163	0x3d9a6e52	0.07540573
164	0xbd7bf790	-0.06151539
165	0x3d0fd1b5	0.0351121
166	0x3cd5bdcc	0.026091479
167	0x3ce90efa	0.028449524
168	0xbd823461	-0.06357647
169	0x3d870538	0.06592792
170	0x3d0cf60b	0.034414332
171	0x3d7f1654	0.062277153
172	0xbd1c482c	-0.038154766
173	0xbce0b930	-0.027432054
174	0x3c3fa131	0.011696146
175	0xbd965f9f	-0.07342457
176	0x3d68f545	0.056874532
177	0x3c975aef	0.018475978
178	0x3d95681b	0.07295247
179	0x3d2bf002	0.041976936
180	0xbcdd5cea	-0.027021844
181	0x3c8cbbe5	0.017179439
182	0x3d869654	0.065716416
183	0xbcf927fa	-0.03041457
184	0xbd3375c2	-0.043813474
185	0xbcbca810	-0.023029357
186	0x3ca51c23	0.020155018
187	0x3a2d068f	0.00066004036
188	0xbcb0a3a0	-0.021562397
189	0xbd508893	-0.050911497
190	0x3c66ea22	0.014093908
191	0xbd010509	-0.031498943
192	0x3da108af	0.078629844
193	0x3cacf564	0.021113105
194	0x3d331979	0.043725464
195	0xba24f800	-0.00062930584
196	0xbbf40952	-0.0074474
197	0xbd2dce70	-0.042433202
198	0x3da9b14d	0.082857706
199	0x3b8c99ca	0.004290794
200	0xbd8b2730	-0.06794584
201	0xbd83c64c	-0.064343065
202	0xbd8b63a2	-0.06806113
203	0x3d6a5fe2	0.057220347
204	0x3c1d6eda	0.009608949
205	0x3d0f2bdd	0.03495394
206	0xbda3b6f1	-0.07993878
207	0x3d54eee8	0.05198565
208	0x3d7e8787	0.062140968
209	0x3d38b8ce	0.04509812
210	0x3d82e5a2	0.06391455
211	0xbd4b61b7	-0.049653735
212	0xbd5509ad	-0.05201118
213	0xbda30869	-0.079605885
214	0x3cdca22f	0.026932804
215	0xbca051a0	-0.019570172
216	0xbcde885d	-0.027164632
217	0xbd0ed9fa	-0.034875847
218	0x3d8fd69e	0.07023357
219	0x3da57f72	0.08080949
220	0x3d4b4a85	0.049631614
221	0x3c4b621e	0.01241353
222	0x3d909556	0.070597336
223	0x3c5cb640	0.013471186
224	0x3d661f1a	0.056182005
225	0xbd4f946b	-0.05067865
226	0xbd886093	-0.06659045
227	0x3c7380b8	0.014862232
228	0x3dae17dd	0.08500645
229	0xbd43ec17	-0.047832575
230	0x3c66625d	0.014061538
231	0x3d74f07d	0.05979966
232	0xbd75c604	-0.060003296
233	0xbd265079	-0.04060409
234	0x3c7fad65	0.015605305
235	0x3d6d8e15	0.057996828
236	0x3d7d6f5a	0.06187377
237	0xbdabd46a	-0.08390124
238	0xbc05ca25	-0.008165871
239	0x3d42372c	0.047415897
240	0x3dab293d	0.08357475
241	0xbd834780	-0.06410122
242	0xbd63357f	-0.05547094
243	0x3c80c725	0.01571996
244	0x3d3fab5b	0.046794277
245	0xbd5103e1	-0.05102909
246	0x3d69be36	0.057066165
247	0xbd4623aa	-0.048373856
248	0xbcb69c01	-0.022291185
249	0xbd94767f	-0.07249164
250	0xbbf87a6b	-0.0075829527
251	0x3d7e63dd	0.062106956
252	0x3d20ad15	0.039227564
253	0xbd240da1	-0.04005206
254	0x3d9a29b3	0.07527485
255	0xbd96fbbb	-0.073722325

net.2.bias f4 [256]
0	0x3cd9f8d8	0.026607916
1	0xbda3900b	-0.079864584
2	0xbbfa7463	-0.007643269
3	0xbd9fe00a	-0.07806404
4	0xbbd42072	-0.0064735943
5	0x3ca32429	0.019914703
6	0xbcef0c20	-0.029180586
7	0x373a8596	1.1117567e-05
8	0x3dcfb658	0.10142201
9	0xbd0ca5d8	-0.03433785
10	0xbd41b3df	-0.04729068
11	0xba38174d	-0.0007022515
12	0x3d1960ec	0.037445948
13	0xbcf55c45	-0.029951224
14	0x3c85fbd2	0.016355429
15	0x3d3b0248	0.045656472
16	0xbd4c6d40	-0.049908876
17	0xbd527c12	-0.051387854
18	0x3d8a772c	0.067610115
19	0xbcbba304	-0.02290488
20	0xbd0730a9	-0.03300539
21	0x3daf970b	0.08573731
22	0x3c741bf7	0.014899245
23	0x3db0dff0	0.08636463
24	0xbda8387f	-0.08213901
25	0xbcddc2e0	-0.027070463
26	0x3cf6e11b	0.030136636
27	0x3c8a821c	0.016907744
28	0x3cf0528c	0.029336236
29	0xbc53348f	-0.012890949
30	0x3db430c0	0.08798361
31	0x3dbb2f61	0.09139896
32	0xbcb52830	-0.02211389
33	0xb80553ef	-3.178784e-05
34	0xbdb33bc3	-0.08751633
35	0x3c82780b	0.015926382
36	0xbd855f26	-0.06512289
37	0xbc4b419e	-0.012405781
38	0x3dab8e9c	0.0837681
39	0x3dc32075	0.09527675
40	0xbda300db	-0.079591475
41	0xbd19153a	-0.03737376
42	0xbdab72b4	-0.08371487
43	0x3d86ef72	0.06588639
44	0x3d377f0d	0.0447989
45	0xbc3ae6e8	-0.011407591
46	0x3d917907	0.07103162
47	0xbd7b5a4b	-0.061365407
48	0xbd4a7125	-0.04942431
49	0x3d6fcf6b	0.05854742
50	0x3dd1b82d	0.10240207
51	0xbd0b4604	-0.03400232
52	0x3bfa7886	0.007643762
53	0x3d939730	0.07206571
54	0xbc62e153	-0.013847667
55	0xbd64b797	-0.055839147
56	0x3d6dbd26	0.058041714
57	0xbd0fcbfd	-0.035106648
58	0x3d1b8aa5	0.03797402
59	0xbd637bb0	-0.05553788
60	0xbd38d76b	-0.045127314
61	0x3d5ac813	0.053413462
62	0x3d6aefe9	0.057357702
63	0xbbbfa300	-0.0058482885
64	0xbcee458c	-0.029085897
65	0x3d2479b2	0.04015512
66	0xb9a60713	-0.00031667258
67	0x3907dd6a	0.00012957086
68	0xbd54a38a	-0.051913776
69	0xbd0be5ec	-0.034154817
70	0x3da00995	0.078143276
71	0x3c270542	0.010194125
72	0xbd73c5a2	-0.05951465
73	0xbcd4ddf7	-0.025984747
74	0x3d49dbb0	0.049281776
75	0x3d0ceabe	0.034403555
76	0xbd13d354	-0.03609021
77	0xbacb008f	-0.0015487837
78	0xbc1748bb	-0.009233649
79	0x3d7d0e37	0.061781134
80	0xbd448e39	-0.047987197
81	0x3d0997e9	0.03359214
82	0xbd96930c	-0.07352266
83	0x3d05e6d2	0.03269083
84	0x3cf8bd38	0.030363664
85	0xbd789f42	-0.060698755
86	0xbd68005d	-0.05664097
87	0xbd5e1ea6	-0.054228447
88	0xbd993408	-0.07480627
89	0xbbd9973c	-0.006640343
90	0xbcc3da1c	-0.023907714
91	0xbd4b5f55	-0.049651463
92	0xbc4a90e5	-0.012363647
93	0xbd8dd517	-0.06925409
94	0xbbb96d89	-0.0056588096
95	0xbd66e883	-0.056374084
96	0x3d19d789	0.037559066
97	0xbb64da93	-0.003492032
98	0x3da73f4b	0.08166369
99	0x3ce9cff3	0.02854154
100	0x3d232749	0.039832387
101	0xbd48bc07	-0.04900744
102	0xbda2476f	-0.07923781
103	0x3d20985b	0.039207797
104	0x3b49a093	0.0030765876
105	0x3d334b55	0.043773014
106	0xbd34100f	-0.043960627
107	0x3d81918c	0.06326589
108	0xbd8d1881	-0.068894394
109	0xbd5ccdc8	-0.053907186
110	0xbd2c1425	-0.0420114
111	0xbca57e13	-0.020201718
112	0xbd1415ce	-0.036153607
113	0x3d9b882a	0.075943306
114	0x3a0f9f4b	0.00054787536
115	0xbcf33672	-0.029689047
116	0x3d3cc659	0.046087597
117	0xba88f34e	-0.0010448487
118	0x3d8581c6	0.06518893
119	0xbd4231ce	-0.04741078
120	0x3ceae215	0.028672257
121	0xbcb2bb9c	-0.021817975
122	0xbd8cf495	-0.06882588
123	0xbd8ed60f	-0.06974422
124	0x3da85a7f	0.08220386
125	0x3cbdeada	0.023183275
126	0xbd61d0ee	-0.05513089
127	0xbd86c757	-0.0658099
128	0x3d458f7f	0.04823255
129	0xbd9b89ee	-0.075946674
130	0x3c949245	0.018136153
131	0xbd901ea9	-0.07037098
132	0xbcc81584	-0.024424322
133	0xbd2c39d1	-0.042047326
134	0x3ba96633	0.005169654
135	0x3d94540b	0.072425924
136	0xbc9624f8	-0.018328175
137	0x39a84ae3	0.00032099252
138	0xbce355bc	-0.027750842
139	0xbca01dbc	-0.019545428
140	0x3d8b7a7b	0.06810471
141	0xbd33e6ca	-0.04392127
142	0xbc869d2e	-0.016432371
143	0xbcad4a66	-0.02115364
144	0x3ce76ed2	0.028251085
145	0x3cf9f0a9	0.030510264
146	0x3da57be2	0.080802694
147	0xbc721869	-0.014776328
148	0x3d8bb676	0.06821911
149	0xbd5541e8	-0.052064806
150	0x3d387653	0.045034718
151	0xbbe8c33e	-0.007103353
152	0x3b805300	0.0039161444
153	0x3d889452	0.06668915
154	0xbcceee98	-0.025260255
155	0xbcab01d8	-0.020874903
156	0x3d37c6e3	0.044867408
157	0x3d248e51	0.040174786
158	0x3d02a65f	0.031896945
159	0xbd444187	-0.047914054
160	0x3ac6ac64	0.0015157578
161	0xbd49145f	-0.049091693
162	0x3d08318d	0.03325038
163	0xbbe19635	-0.006884361
164	0xbda69b22	-0.08135058
165	0xbb8a28fc	-0.0042163115
166	0x3cc4868e	0.023989942
167	0x3ceeca32	0.029149149
168	0x3d55891f	0.052132722
169	0x3bac3795	0.0052556493
170	0xbc6b4be0	-0.014361352
171	0x3da80499	0.08204002
172	0x3d35a22d	0.044344116
173	0x3d5171f8	0.05113408
174	0x3bd43ae2	0.006476746
175	0xbd473cc3	-0.04864193
176	0xbd7d8b2d	-0.061900306
177	0xbd4988c6	-0.049202703
178	0xbd076a05	-0.033060092
179	0xbd2e6e2d	-0.04258554
180	0x3d1ae0e5	0.037812132
181	0x3d1e4191	0.038636748
182	0xbcdabd2b	-0.02670153
183	0xbd2f548a	-0.042805232
184	0xbc71920e	-0.014744295
185	0xbda1319f	-0.078707926
186	0x3d9ae6df	0.075635664
187	0xbd5a9ea4	-0.053373948
188	0x3daf0f20	0.08547807
189	0x3d8bea0f	0.068317525
190	0xbb73543a	-0.003712906
191	0xbd17a38e	-0.037021212
192	0xbdb49875	-0.08818141
193	0x3d253329	0.040331993
194	0x3d5b8d3b	0.053601485
195	0xbd26f734	-0.040763095
196	0x3d792c69	0.06083337
197	0x3cc5886c	0.024112903
198	0xbd2b6cad	-0.04185169
199	0x3d614128	0.05499378
200	0x3d7de4e9	0.061985884
201	0x3dadc5c6	0.08484988
202	0xbcabf5a1	-0.020991148
203	0x3d930a8e	0.071797475
204	0xbd8df928	-0.069322884
205	0x3c8f1a4c	0.017468594
206	0xbc6e1600	-0.014531612
207	0x3c5c3ce8	0.013442256
208	0xbd65deb8	-0.056120604
209	0xbd518312	-0.05115039
210	0x3d967dde	0.07348226
211	0x3c3fb559	0.0117009515
212	0xbd0c7c6e	-0.034298353
213	0xbdab6dcb	-0.08370551
214	0x3d4ea5e6	0.05045118
215	0xbda7b563	-0.08188894
216	0xbd4985da	-0.049199916
217	0x3c502a0f	0.01270534
218	0xbd1e5f86	-0.038665317
219	0x3ce357e3	0.027751869
220	0xbd97d88f	-0.07414352
221	0xbcbe319c	-0.023217015
222	0x3da07327	0.078344636
223	0xbd1313b4	-0.035907462
224	0x3d9aee4d	0.075649835
225	0x3d795a0f	0.060876902
226	0x3d1db78d	0.038505126
227	0x3cf32a12	0.029683147
228	0x3b1ff3e0	0.0024406835
229	0xbce6d7cf	-0.028179077
230	0xbd82c0bd	-0.06384418
231	0x3cf23b64	0.029569335
232	0x3d53e19b	0.051728826
233	0xbdac1547	-0.08402496
234	0x3d3a7bf4	0.045528367
235	0xbd593498	-0.053028673
236	0x3d6a5003	0.05720521
237	0x3c7d52a6	0.015461599
238	0xbc8a602f	-0.016891567
239	0x3d53a5bb	0.051671725
240	0x3d198eca	0.03748969
241	0x3da2fd2a	0.079584435
242	0xbcbc36c3	-0.022975331
243	0xbdad6cdf	-0.08468031
244	0x3d59650f	0.053074893
245	0x3c8f8b24	0.017522402
246	0x3a8d6fd4	0.0010790774
247	0xbd56aeb1	-0.052412692
248	0x3cd8c5be	0.026461478
249	0xba646a42	-0.00087133434
250	0xbc95f288	-0.018304124
251	0x3d0b74f4	0.034047082
252	0x3da2c230	0.079471946
253	0x3d3d9a8a	0.046289958
254	0xbd5574ff	-0.05211353
255	0x3c872fde	0.016502317

μ.weight f4 [2, 256]
0	0x3ab5163f	0.0013815834
1	0xb8caff55	-9.67967e-05
2	0xbb41ffe7	-0.0029601993
3	0xbd56803b	-0.052368384
4	0x3bc58670	0.006027989
5	0xbbef47bf	-0.007302254
6	0x3bbd147e	0.005770265
7	0xbab92752	-0.0014126098
8	0x3cd66d1b	0.026175072
9	0xbd7ac22e	-0.06122034
10	0xbd58ef72	-0.052962728
11	0xbd02ef6b	-0.031966608
12	0xbd801944	-0.06254819
13	0xbd5a5145	-0.05330016
14	0xbd187124	-0.037217274
15	0x3ccd7f11	0.025085004
16	0x3d3f87e4	0.046760455
17	0x3cfac3f9	0.030611025
18	0x3c15c44d	0.00914104
19	0xbbe635e1	-0.007025466
20	0x3ce1bd1c	0.027555995
21	0x3d3917a5	0.045188565
22	0xbd6eeec8	-0.05833319
23	0x3d5ad30c	0.053423926
24	0xbc7f3a7f	-0.015577911
25	0x3d51a2c2	0.05118061
26	0x3c7f7b2c	0.015593331
27	0xbb93e466	-0.004513311
28	0x3ab48b85	0.001377449
29	0xbd53d5da	-0.051717617
30	0x3cc93e95	0.024565974
31	0x3d13a48e	0.036045603
32	0x3d9fa9a8	0.07796031
33	0x3d112555	0.035435993
34	0x3c2db45c	0.010602083
35	0xbcfbbfd1	-0.030731114
36	0x3d02d05d	0.031936992
37	0x3bf30e48	0.007417474
38	0xbc85c39f	-0.016328631
39	0xbd2efe36	-0.042722903
40	0xbca48c64	-0.020086475
41	0xbb88370e	-0.0041569537
42	0xbd711e47	-0.058866765
43	0xbd170cb8	-0.036877364
44	0x3d4f0c5b	0.050548892
45	0xbd6e9cd8	-0.058255047
46	0xbb8af735	-0.004240895
47	0x3d0df621	0.034658555
48	0xbd2842d1	-0.041079346
49	0xbd3af130	-0.04564017
50	0x3ba48ef1	0.0050219228
51	0xbd4cce6b	-0.050001543
52	0x3d47a376	0.048739873
53	0xbc9443d9	-0.018098759
54	0x3d53fd28	0.0517551
55	0x3d22fa25	0.039789338
56	0xbd39af05	-0.045332927
57	0x3c6dee34	0.014522124
58	0xbca49e9b	-0.02009516
59	0xbd513814	-0.05107887
60	0x3d3c6764	0.04599704
61	0xbc8696e4	-0.016429372
62	0xbd709806	-0.05873873
63	0xbce04ce3	-0.027380412
64	0xbd75b542	-0.059987314
65	0x3c7b4490	0.015336171
66	0xbcb9ee68	-0.022696689
67	0xbd4a3f0d	-0.049376536
68	0x3c005f0f	0.007835164
69	0xba48fa87	-0.0007666726
70	0xbd4e0516	-0.05029782
71	0x3ce077bd	0.027400846
72	0xbd1e80e0	-0.038697124
73	0x3d803630	0.062603354
74	0xbc4d2daa	-0.012523094
75	0xbced1688	-0.028941408
76	0xbbf80a46	-0.007569584
77	0x3d9a671c	0.07539198
78	0xbd2189ee	-0.03943818
79	0xbb842eb7	-0.004033889
80	0x3ced0cf0	0.028936833
81	0xbd3904f3	-0.045170736
82	0x3d72a748	0.059241563
83	0x3d4da656	0.05020746
84	0xbd1d75a6	-0.038442276
85	0x3c9ba17e	0.018997904
86	0x3cfebc10	0.031095535
87	0x3b377bc6	0.0027997359
88	0xbd0ba52d	-0.03409307
89	0x3af02702	0.0018322172
90	0x3d5058b2	0.050865836
91	0x3d298d28	0.041394383
92	0xbd492a7d	-0.049112786
93	0xbb209d79	-0.0024507924
94	0x3d4b9d0f	0.04971033
95	0xbd53291e	-0.051552884
96	0xbd64d5f3	-0.0558681
97	0xbbb602fb	-0.0055545545
98	0x3ca17524	0.019709177
99	0xbcc9c1b5	-0.0246285
100	0xbcc36fed	-0.023857081
101	0x3c81828d	0.015809322
102	0x3d7cefe7	0.061752226
103	0xbc75044f	-0.0149546405
104	0xbd665fd2	-0.056243725
105	0xbc90df19	-0.017684506
106	0xbd7ae6c8	-0.061255246
107	0xbb86cad8	-0.0041135363
108	0xbd0dec69	-0.034649286
109	0x3d0ac873	0.03388257
110	0xbd65f4c4	-0.05614163
111	0x3d33cf8d	0.043899108
112	0xbc175267	-0.009235955
113	0xbd3a547f	-0.045490738
114	0x3d9dd9fa	0.07707591
115	0x3d048c26	0.03236022
116	0xbd823ddc	-0.06359455
117	0xbd55d0d1	-0.052201096
118	0x3d85d07b	0.06533905
119	0xbc330d2f	-0.010928436
120	0x3d222407	0.03958514
121	0xbb2f5092	-0.0026750905
122	0xb99c797b	-0.0002984515
123	0x3c26afbf	0.010173737
124	0x3c9e9a7d	0.019360775
125	0xbc67f430	-0.01415734
126	0xbd6fe1f0	-0.05856508
127	0x3cb4b990	0.02206114
128	0x3cb507b8	0.022098407
129	0xbc9caa30	-0.01912412
130	0xbd615a1c	-0.055017576
131	0xbd6ef0de	-0.058335178
132	0xbc955ab0	-0.01823172
133	0xbcd8a16b	-0.026444158
134	0xbd299b6a	-0.04140798
135	0xbd57092a	-0.052498974
136	0xbcd72594	-0.026263036
137	0x3b077c65	0.002067351
138	0x3ab2a0c0	0.001362823
139	0xbce6cc97	-0.028173728
140	0xbd69f024	-0.05711378
141	0xbd2d853c	-0.04236339
142	0xbd3f5fc0	-0.046722174
143	0x3d7e89e7	0.062143233
144	0x3d8600e2	0.06543137
145	0x3cb58f3a	0.022163022
146	0xbcc10853	-0.02356354
147	0x3d52f19f	0.05149996
148	0xbd3ae41a	-0.04562769
149	0x3c4ffd1d	0.012694624
150	0xbd02c1b9	-0.03192303
151	0x3d82bf01	0.06384087
152	0xbd50cd0a	-0.05097679
153	0xbc697a4c	-0.014250349
154	0x3d23033a	0.039798
155	0x3d05543d	0.03255104
156	0x3d35e625	0.044408936
157	0x3d4f4668	0.050604254
158	0x3ced56cd	0.028972054
159	0x3c81d174	0.015846945
160	0x3d4a928d	0.049456168
161	0xbd5291ab	-0.05140845
162	0x3d0c814c	0.034302995
163	0xbd01442e	-0.03155916
164	0xbc80aa75	-0.01570628
165	0x3bb42592	0.005497643
166	0xbc718c12	-0.014742868
167	0x3d17fc25	0.0371057
168	0xbd42053c	-0.047368273
169	0x3d5e323f	0.054247137
170	0x3cfdb5a0	0.030970395
171	0xbd305f15	-0.043059427
172	0xbd302d74	-0.043012097
173	0xbc4c7422	-0.01247886
174	0x3d52695e	0.051370017
175	0x3d4c5cbc	0.049893126
176	0xbc402488	-0.01172746
177	0x3a7927aa	0.00095045066
178	0x3d519d3c	0.05117534
179	0xbcaa7754	-0.020808853
180	0x3d2b10e3	0.04176415
181	0xbc3f8930	-0.011690423
182	0xbd1f45cd	-0.038884927
183	0xbab695fa	-0.0013930195
184	0xbd5e2fe0	-0.054244876
185	0x3da0889e	0.07838558
186	0xbc42fded	-0.011901361
187	0x3d7141fe	0.058900826
188	0x3bc0c6e6	0.0058830855
189	0x3d101f99	0.035186384
190	0x3d42b320	0.04753411
191	0x3cb6ea29	0.022328453
192	0x3d00f769	0.03148595
193	0xbc8e5c47	-0.017377986
194	0xbd481247	-0.048845556
195	0x3d065356	0.03279432
196	0xbd72154a	-0.059102334
197	0x3d3379cc	0.043817326
198	0xbd179e36	-0.037016116
199	0x3d748be1	0.05970371
200	0x3d782656	0.060583435
201	0xbd4008e3	-0.046883475
202	0xbc1d736a	-0.009610036
203	0xbd120d3a	-0.035657145
204	0x3d322458	0.04349169
205	0x3d729420	0.059223294
206	0x3d50251e	0.050816648
207	0xbc871fb6	-0.016494613
208	0xba989600	-0.0011641383
209	0x3c97401f	0.018463193
210	0x3c0031b9	0.007824355
211	0xbc9ddacc	-0.01926937
212	0x3cc7608b	0.024338027
213	0x3cec5679	0.028849827
214	0xbcfd9992	-0.030957017
215	0xbc8d0830	-0.017215818
216	0x3c62e399	0.013848209
217	0x3c86b2f9	0.016442763
218	0xbd74b39f	-0.059741613
219	0xbd30cb0f	-0.0431624
220	0xbba0ce12	-0.004907378
221	0xbd22b6b4	-0.03972502
222	0xbc587715	-0.013211985
223	0x3c2f01f1	0.010681615
224	0x3c3b9a37	0.011450342
225	0x3d3896de	0.045065753
226	0x3cb73240	0.022362828
227	0xbcd52030	-0.026016325
228	0xbd54cf66	-0.051955603
229	0xbcc7c8e5	-0.024387786
230	0x3d1c6689	0.038183723
231	0xbd55c426	-0.052189015
232	0x3cc61ef1	0.024184676
233	0x3d47fdb8	0.04882595
234	0xbcd2b0aa	-0.025719006
235	0xbd441702	-0.047873504
236	0xbd10b189	-0.03532556
237	0xbce860cb	-0.028366467
238	0xbb888262	-0.0041659335
239	0x3d69e7df	0.057105895
240	0xbc9d1f14	-0.019179858
241	0xbd6337b1	-0.055473033
242	0xbd84a909	-0.064775534
243	0x3d2ca3f2	0.042148538
244	0x3b4832ad	0.0030547783
245	0x3d7e323d	0.06205963
246	0x3d31c9de	0.043405406
247	0x3d7c8a5c	0.061655387
248	0xbbc5740a	-0.006025796
249	0xbd1fee05	-0.039045352
250	0xbd6ec63a	-0.058294512
251	0xbc108508	-0.00882078
252	0x3d70ea2a	0.058817066
253	0xbd32b826	-0.04363265
254	0xbc280456	-0.01025494
255	0xbc92eac3	-0.017934209

μ.bias f4 [2]
0	0x3c077dba	0.008269722
1	0xbbee0c39	-0.0072646406

σ.weight f4 [2, 256]
0	0x3bbbc25a	0.0057299556
1	0xbd4dd4a1	-0.050251607
2	0x3d16a470	0.036777914
3	0xbd375526	-0.04475894
4	0x3cc7df95	0.024398604
5	0xba9ccc12	-0.0011962673
6	0xba60f02f	-0.0008580712
7	0xbcbb912e	-0.022896376
8	0xbca5e741	-0.020251872
9	0xbcc14980	-0.023594618
10	0x3c6c5bf8	0.014426224
11	0x3d19e4b8	0.03757164
12	0x3d64f276	0.05589529
13	0xbd292807	-0.04129794
14	0x3d099791	0.03359181
15	0xbd0c5f43	-0.034270536
16	0x3ceee3fc	0.029161446
17	0xbc8de028	-0.0173188
18	0x3cb38a97	0.02191667
19	0x3d7564e2	0.059910662
20	0x3c52a5da	0.012856925
21	0xbd3ae3ab	-0.045627277
22	0x3d5e9cef	0.054348882
23	0xbd2f6153	-0.042817425
24	0xbc102075	-0.008796801
25	0x3d53f2ae	0.05174511
26	0x3d4d1f51	0.050078694
27	0xbd422e00	-0.04740715
28	0xbb3e4caf	-0.0029037406
29	0xbbcee46b	-0.0063138506
30	0x3c08c96b	0.008348803
31	0xbbb6bbe5	-0.005576598
32	0x3a3d6798	0.00072252145
33	0x3d1c94f9	0.03822801
34	0x3d8786a4	0.066174775
35	0x3d85b854	0.065292984
36	0x3d2f645f	0.04282033
37	0xbd57a4b1	-0.052647296
38	0x3cf4a98e	0.029866006
39	0x3d90d21a	0.07071324
40	0xbd65889c	-0.056038484
41	0xbd09cc1e	-0.033641927
42	0xbab6d6d6	-0.0013949524
43	0x3cf215e5	0.029551456
44	0x3d06f80f	0.03295141
45	0xbd6e6e34	-0.058210567
46	0x3d53774a	0.051627435
47	0x3cbeee83	0.02330709
48	0x3d5240a8	0.051331192
49	0x3d859f4e	0.065245256
50	0xbbd47ae2	-0.0064843753
51	0xbca44abf	-0.020055173
52	0xbc3e4563	-0.011613223
53	0xbcdbdff0	-0.02684018
54	0x3d7790d0	0.06044084
55	0x3b2eab1e	0.0026652287
56	0x3c8114fb	0.015757075
57	0x3d1c5597	0.038167562
58	0xbcf73aed	-0.030179465
59	0xbd576425	-0.05258574
60	0xbce10178	-0.02746652
61	0xbc951b88	-0.018201604
62	0xbd2a47ca	-0.04157237
63	0xbccd2896	-0.025043767
64	0xbd243f2e	-0.040099315
65	0xbc494188	-0.01228369
66	0x3d4776f8	0.04869744
67	0xbd30aa0a	-0.043130912
68	0x3d302ec5	0.043013353
69	0xbd0976f5	-0.033560712
70	0xbb4ff520	-0.00317318
71	0x3c543fde	0.01295468
72	0xbd103a4c	-0.035211846
73	0x3d3c5859	0.045982692
74	0x3d7d6d20	0.061871648
75	0x3b96eaaa	0.004605611
76	0x3d1ab52c	0.037770435
77	0x3d6ba234	0.057527736
78	0x3d2f8791	0.042853896
79	0x3cb16644	0.02165521
80	0xbd39631b	-0.04526053
81	0x3bc0ba4a	0.0058815824
82	0x3d681f3d	0.056670416
83	0xbd1d0bbc	-0.03834127
84	0xb9dc2da5	-0.00041995678
85	0x3d773c28	0.060360104
86	0x3b75d380	0.0037510097
87	0xbcf7647e	-0.030199286
88	0xbd0fa62f	-0.035070594
89	0x3d0b09da	0.033944942
90	0x3c94dc3c	0.018171422
91	0xbcc94204	-0.024567612
92	0xbc98acff	-0.018637178
93	0x3d72eb66	0.059306525
94	0x3bb1c3e8	0.005424965
95	0x3d82f318	0.06394023
96	0x3d631ae9	0.055445585
97	0x3c8a883d	0.016910667
98	0x3d219bad	0.039455105
99	0x3ccc1fda	0.024917532
100	0xbd3ac075	-0.045593698
101	0x3c6b1549	0.0143483365
102	0x3cd3e24d	0.025864745
103	0x3d3d1fba	0.046172835
104	0x3c6757dd	0.014120069
105	0xbd32d912	-0.043664046
106	0xbcf5e7a8	-0.030017689
107	0x3c9e4ccb	0.019323727
108	0xbd06a4c6	-0.032871984
109	0xbc895797	-0.016765399
110	0xbcbe5928	-0.023235872
111	0x3c97a431	0.01851091
112	0x3cbc1488	0.022959009
113	0x3d064c41	0.032787565
114	0xbd66a249	-0.05630711
115	0xbccb7a14	-0.024838485
116	0x3c21af03	0.009868386
117	0x3d1d20fd	0.03836154
118	0x3c78a868	0.01517687
119	0x3d67b556	0.05656942
120	0x3c2f9bc7	0.010718293
121	0x3c363df1	0.011123166
122	0x3d543312	0.051806517
123	0xbd3fcb30	-0.046824634
124	0x3c0bc84e	0.008531643
125	0x3d36adbb	0.044599276
126	0x3ce48752	0.027896557
127	0x3d2b1ad0	0.041773617
128	0x3c2c6cae	0.010523958
129	0x3ae9e7ba	0.0017845549
130	0xbd4c1757	-0.049826946
131	0xbd4ddfe4	-0.050262347
132	0xbd4e6b8a	-0.050395526
133	0xbd29e717	-0.04148015
134	0x3ca94e61	0.020667257
135	0x3c26e1a6	0.010185635
136	0xbd75fafc	-0.06005381
137	0xbd5f9760	-0.05458772
138	0xbcd8fd50	-0.026487976
139	0xbc3aabbc	-0.011393484
140	0xbaf33300	-0.0018554628
141	0x3c9ce173	0.019150471
142	0xbc8ece9a	-0.0174325
143	0x3cc3aee4	0.023887105
144	0x3d744573	0.059636544
145	0x3b839ab1	0.0040162434
146	0x3d442dce	0.047895245
147	0x3d8c7805	0.068588294
148	0x3cc73723	0.024318283
149	0xbbb4af80	-0.0055140853
150	0x3d70eb4d	0.05881815
151	0x3d845461	0.064614065
152	0xbcdb4a7e	-0.02676892
153	0xbcea00a0	-0.028564751
154	0x3d131c91	0.035915915
155	0x3d31cef7	0.043410268
156	0x3d50cad4	0.050974682
157	0x3d0f82d7	0.035036888
158	0x3c82c1b9	0.015961515
159	0x3d05f4c5	0.032704134
160	0x3d08cddf	0.03339946
161	0x3d0a78a1	0.033806447
162	0x3d46dd42	0.04855085
163	0x3d1b4889	0.03791097
164	0xbaad6058	-0.0013227565
165	0xbca32f1b	-0.019919923
166	0x3cfc56dc	0.030803137
167	0x3d4818a9	0.048851643
168	0xbd1632e0	-0.036669612
169	0xbc8f539d	-0.017495925
170	0x3d785d80	0.060636044
171	0xbbe90487	-0.0071111354
172	0xbcfc2614	-0.030779876
173	0xbd2ee347	-0.042697217
174	0xbd20ea86	-0.03928616
175	0xbbf33ea5	-0.0074232393
176	0x3d4e7d52	0.050412484
177	0x3cd1f0e8	0.025627568
178	0x3d1804d4	0.03711398
179	0x3cdfc597	0.027315898
180	0x3c470d72	0.012149202
181	0x3cc7efcc	0.024406336
182	0x3cff4e98	0.031165406
183	0x3d59465b	0.05304561
184	0x3d1e4de7	0.038648512
185	0x39d785a3	0.00041107563
186	0x3c44c20c	0.012009155
187	0x3c559048	0.013034888
188	0x3c62e167	0.013847685
189	0x3d02904d	0.031875897
190	0x3d48c709	0.04901794
191	0xbd166721	-0.036719445
192	0xbd1d3d26	-0.038388394
193	0x3d7c7d30	0.061642826
194	0xbce29c56	-0.027662437
195	0xbc338078	-0.010955922
196	0x3d63099b	0.055429082
197	0xbd0fdd6b	-0.03512327
198	0x3c49254d	0.01227696
199	0x3cb6ea83	0.02232862
200	0xbd35a2b3	-0.044344615
201	0x3d8b1d5a	0.06792708
202	0x3b352c8b	0.0027644958
203	0x3c899a6d	0.016797269
204	0x3a7ed800	0.00097215176
205	0xbd3257e8	-0.043540865
206	0x3c246288	0.010033257
207	0xbc9836dd	-0.018580848
208	0x3c81ac84	0.015829332
209	0xbd446a14	-0.047952726
210	0x3d77e23a	0.06051848
211	0x3d46edc4	0.048566595
212	0xbcbe4d0c	-0.023230098
213	0x3d139e86	0.03603985
214	0x3ce8ee0e	0.028433826
215	0x3c16659e	0.009179501
216	0x3d8e52f3	0.06949415
217	0xbbbec522	-0.00582184
218	0xbc663c0e	-0.014052404
219	0xbc8d9497	-0.017282767
220	0xbcf48a86	-0.02985121
221	0xbca34420	-0.019929945
222	0xbd208266	-0.039186858
223	0x3d67f170	0.056626737
224	0xbd455c28	-0.04818359
225	0xbd327b55	-0.04357465
226	0x3d18cea6	0.03730645
227	0xbd05170b	-0.03249268
228	0x3bcd9f90	0.006275125
229	0x3d62fe81	0.055418495
230	0x3d4cf637	0.050039496
231	0x3c6d8569	0.0144971395
232	0xbb03bc5d	-0.0020101287
233	0xbd5e3cf2	-0.05425734
234	0x3c9b425d	0.018952543
235	0xbd475f4d	-0.04867487
236	0x3d39c992	0.045358248
237	0x3cdc1e3e	0.02686989
238	0xbbb09258	-0.0053885393
239	0x3d70ebda	0.058818676
240	0xbc8f9014	-0.017524756
241	0x3c03bdf2	0.008040892
242	0xbcc3e8c0	-0.023914695
243	0xbc913354	-0.01772467
244	0xbc570441	-0.013123573
245	0xbd61ef10	-0.05515963
246	0x3d69c652	0.0570739
247	0xbd24fd5e	-0.040280692
248	0xbd4ad70d	-0.049521495
249	0xbc0c5262	-0.0085645635
250	0xbcccfad7	-0.025021954
251	0xbd089cdb	-0.033352714
252	0xbd3cdde9	-0.046110068
253	0x3d81fbc9	0.06346852
254	0x3cf2cdd3	0.02963916
255	0x3d895a7d	0.067067124

σ.bias f4 [2]
0	0x3d83f4bf	0.06443166
1	0xbd984994	-0.07435909
