model/p_no10.pth (torch, 148600 bytes, 8 tensors)

net.0.weight f4 [128, 18]
0	0xbd973227	-0.07382613
1	0x3df74bd6	0.120750114
2	0xbcf0a1cb	-0.029374024
3	0xbe2f646d	-0.17128153
4	0x3d8e89e5	0.06959895
5	0xbd992961	-0.074785955
6	0xbe0ca0c2	-0.13733199
7	0xbdff83a6	-0.12476282
8	0x3e4d1072	0.20025805
9	0xbe417749	-0.1889316
10	0xbe30bfbe	-0.17260644
11	0x3e3d1311	0.18464305
12	0xbdb07906	-0.086168334
13	0x3b8f6a20	0.0043766648
14	0xbd89000e	-0.066894636
15	0x3de2706e	0.110566005
16	0xbd8f6fe4	-0.07003763
17	0xbda698ce	-0.08134614
18	0xbdc84c16	-0.09780137
19	0x3d4f2598	0.05057296
20	0xbd90e288	-0.070744574
21	0x3d86d26b	0.06583103
22	0x3e6acd3e	0.22929856
23	0x3e38b435	0.18037494
24	0xbdd823c8	-0.105537
25	0xbe2dabde	-0.16960093
26	0x3e949894	0.29022658
27	0xbc60c7fd	-0.013719556
28	0xbe17fe3d	-0.14843078
29	0xbe3ab930	-0.18234706
30	0xbe68dbc6	-0.22740087
31	0xbe0e3846	-0.13888654
32	0xbdd4be45	-0.103878535
33	0x3d94c532	0.072641745
34	0xbd8cf364	-0.068823606
35	0xbe06122d	-0.13092871
36	0x3e48d669	0.19613041
37	0x3deff14c	0.117159456
38	0xbe62b720	-0.22140169
39	0xbe3c9bd5	-0.1841882
40	0x3d0afb98	0.033931345
41	0xbe47395d	-0.19455476
42	0xbccaf8f8	-0.02477692
43	0xbe13b050	-0.14422727
44	0x3ca7a0a6	0.020462345
45	0xbd1378b6	-0.03600379
46	0xbd49d07d	-0.049271096
47	0x3cfd2b5e	0.030904468
48	0xbe0c6b37	-0.13712774
49	0x3e23ce93	0.1599677
50	0x3daae530	0.08344495
51	0xbe005c6e	-0.12535259
52	0xbe31a5e4	-0.17348439
53	0xbe512a95	-0.204264
54	0x3e048cab	0.12944286
55	0xbb9a311c	-0.0047055613
56	0x3d552fa1	0.052047376
57	0x3e75369c	0.23946613
58	0xbde6853a	-0.1125588
59	0xbe21c59f	-0.15798043
60	0xbe3febdf	-0.18742321
61	0xbe70d556	-0.23518881
62	0xbe37ce75	-0.17949851
63	0xbdc02bf9	-0.09383387
64	0xbd9018ba	-0.07035966
65	0x3e4f2302	0.20228198
66	0x3d1a666a	0.037695326
67	0xbe556dc4	-0.20842654
68	0xbd8342e4	-0.06409243
69	0x3e0184ba	0.12648287
70	0xb965b52a	-0.0002190663
71	0xbe0856c3	-0.13314347
72	0x3d624b8d	0.055247832
73	0xbc96fca6	-0.018431019
74	0x3ddc6d45	0.10763029
75	0xbe35dfcf	-0.17761157
76	0xbcf4e55e	-0.029894527
77	0x3e4b120b	0.19831102
78	0x3e4e07fb	0.20120232
79	0x3e6eae40	0.23308659
80	0xbe36466b	-0.178003
81	0xbe4ba912	-0.19888714
82	0xbddfd155	-0.10928599
83	0xbd1b4777	-0.03790995
84	0x3e220d3d	0.15825363
85	0x3e0e81ad	0.13916655
86	0xbe7b7ed2	-0.24560097
87	0xbd909cfe	-0.07061194
88	0xbd9439f2	-0.07237615
89	0x3e006a7f	0.12540625
90	0x3db972b0	0.09055078
91	0xbe0d1122	-0.13776067
92	0xbda97690	-0.08274567
93	0x3c8b404b	0.01699843
94	0x3d418333	0.047244262
95	0x3de4565b	0.111492835
96	0xbe3a7cfb	-0.18211739
97	0xbddf0c14	-0.108909756
98	0x3de98909	0.114030905
99	0x3e1a7d0e	0.15086767
100	0xbcd6ea49	-0.026234763
101	0xbe410012	-0.18847683
102	0xbd2f6735	-0.042823035
103	0xbe39b545	-0.18135555
104	0xbe6b6b68	-0.22990191
105	0xbe2710d0	-0.16315007
106	0xbb99a298	-0.004688572
107	0xbd017b4b	-0.031611722
108	0x3dd3a205	0.10333637
109	0xbe26f337	-0.16303717
110	0xbe163c0b	-0.14671342
111	0x3c9608af	0.018314688
112	0xbe67da9a	-0.22641984
113	0x3e78e4dc	0.24306053
114	0xbe075b57	-0.13218437
115	0x3e542ceb	0.2072026
116	0x3e3fb1c7	0.1872016
117	0xbd1f286b	-0.038856905
118	0xbe646cac	-0.2230708
119	0x3de7ad45	0.113123454
120	0xbdd0eba6	-0.10201196
121	0xbe5a777c	-0.21334642
122	0x3e31f861	0.17379905
123	0xbe5497b1	-0.2076099
124	0xbd436b27	-0.04770961
125	0x3e70b134	0.23505098
126	0x3dbdfd8f	0.09276878
127	0x3e12adc3	0.14324097
128	0x3d9cbe75	0.07653514
129	0xbd74a96e	-0.059731893
130	0xbc52bf99	-0.012863063
131	0x3dbfc376	0.09363453
132	0x3dcdbb52	0.10045494
133	0x3e2fcd34	0.17168123
134	0x3e31652d	0.17323752
135	0xbe107d98	-0.1411041
136	0x3e44e2cc	0.19227141
137	0xbe7d3fad	-0.24731322
138	0xbe313e2d	-0.17308874
139	0x3c903b19	0.017606305
140	0x3d3a0749	0.045417104
141	0x3e58e379	0.21180524
142	0xbba58646	-0.005051407
143	0x3d0749e0	0.033029437
144	0xbc5048a2	-0.0127126295
145	0xbe0944f3	-0.13405208
146	0x3cb461ce	0.022019293
147	0x3cf3fb65	0.02978296
148	0xbd9357ae	-0.07194458
149	0xbe1d4fd8	-0.15362489
150	0xbce001b2	-0.027344558
151	0x3dd51d8a	0.10406025
152	0xbe6b4e20	-0.22979021
153	0x3de2bc1f	0.110710375
154	0x3e6274ca	0.22114864
155	0x3b44a131	0.0030003304
156	0x3bd4d84b	0.0064955107
157	0x3e0fce0b	0.14043443
158	0x3e2d6258	0.16932046
159	0xbd2af5c8	-0.0417383
160	0x3dff5e68	0.124691784
161	0x3e231212	0.15924862
162	0x3e769c7c	0.24083132
163	0xbe0bc33c	-0.13648695
164	0x3df0a55a	0.11750288
165	0x3c03fef9	0.008056396
166	0xbe3ebbda	-0.18626347
167	0xbe0ddcce	-0.13853762
168	0x3c299b00	0.010351896
169	0xbe3a9586	-0.18221101
170	0xbc25bd18	-0.010115884
171	0xbc8206f6	-0.01587246
172	0xbc5184cb	-0.012788008
173	0x3c1b82bf	0.0094916215
174	0xbda32861	-0.07966686
175	0x3e29ce9f	0.16582726
176	0x3e319bb2	0.1734455
177	0xbdf4a65c	-0.11945793
178	0x3d29c4ce	0.041447453
179	0xbe17e958	-0.14835107
180	0x3e481091	0.1953757
181	0xbe0b80ce	-0.13623354
182	0xbd35f9b8	-0.044427603
183	0xbdf65adb	-0.12029048
184	0x3e2380b7	0.1596707
185	0x3e6b2815	0.22964509
186	0x3e8c2467	0.27371523
187	0x3dddc501	0.10828591
188	0xbda2a06d	-0.07940755
189	0xbe579b3c	-0.21055311
190	0xbb62aa7e	-0.0034586485
191	0xbd8b96ef	-0.06815898
192	0xbe4bdb53	-0.19907884
193	0x3e465a85	0.19370468
194	0xbd01bbe2	-0.03167332
195	0x3e3fd501	0.18733598
196	0x3db984ac	0.09058508
197	0x3e16895e	0.14700839
198	0x3db624f6	0.088937685
199	0xbdcbd93c	-0.099535435
200	0xbdfa8b95	-0.122336544
201	0x3e65cb52	0.22440842
202	0x3c97190f	0.018444566
203	0xbe1410f2	-0.14459589
204	0xbde256ab	-0.11051687
205	0x3d835717	0.064130954
206	0xbd12fcf9	-0.035885785
207	0x3e5146f3	0.20437221
208	0x3e67729f	0.22602318
209	0x3dfe385c	0.124130934
210	0xbe53eb85	-0.20695312
211	0xbd9cf9c3	-0.07664826
212	0x3e4199ee	0.18906376
213	0xbd6aa58b	-0.05728678
214	0x3dc3a1a7	0.09552317
215	0x3e534d92	0.2063506
216	0x3d02ead9	0.03196225
217	0xbd2b1bc9	-0.041774545
218	0xbe26afe2	-0.16278031
219	0x3e1eea56	0.1551908
220	0xbe34bc4e	-0.17649958
221	0xbdcacd00	-0.09902382
222	0x3d9ae3fd	0.075630166
223	0x3e06d4ec	0.13167161
224	0x3e827592	0.25480324
225	0xbe1c8446	-0.15284833
226	0xbe397536	-0.18111119
227	0xbe7b6cc8	-0.24553216
228	0xbe6bd4f0	-0.23030448
229	0xbdf183f4	-0.11792746
230	0xbe5187d4	-0.2046197
231	0x3e666b56	0.22501883
232	0x3dd5246c	0.104073375
233	0xbe03b61e	-0.12862441
234	0x3d670e6b	0.056410234
235	0x3de743dc	0.1129224
236	0xbd9ba1c5	-0.075992145
237	0x3d6b1230	0.05739039
238	0x3e3db2d4	0.18525249
239	0x3dff5b60	0.124686
240	0xbe5d23e9	-0.2159573
241	0x3de7fe72	0.113278285
242	0x3ca523f1	0.02015874
243	0xbe491ae3	-0.19639163
244	0x3d37e222	0.04489339
245	0x3de9ed27	0.11422186
246	0x3d467a7b	0.04845665
247	0x3e30dd4d	0.1727192
248	0xbe1511d7	-0.14557587
249	0x3e5c46f2	0.21511438
250	0x3df0458a	0.117320135
251	0x3e60adc6	0.2194129
252	0xbda30360	-0.07959628
253	0xbe6060b1	-0.21911885
254	0x3c6ad326	0.014332568
255	0x3e086c25	0.13322504

net.0.bias f4 [128]
0	0xbe428975	-0.18997748
1	0x3e5fbf7e	0.21850392
2	0xbc39283d	-0.011301097
3	0x3e230120	0.15918398
4	0x3df82755	0.12116877
5	0x3d3104d3	0.04321749
6	0xbdbd6d35	-0.09249345
7	0x3e01898c	0.12650126
8	0xbcd0b989	-0.025479095
9	0x393914d0	0.00017650728
10	0xbe51db70	-0.20493865
11	0x3e6f28ee	0.23355457
12	0xbd5c2bc8	-0.05375269
13	0x3e272a12	0.16324642
14	0x3e40723f	0.18793581
15	0xbe306939	-0.1722764
16	0x3e5d06ff	0.215847
17	0xbe25b784	-0.16183287
18	0x3df386b8	0.1189093
19	0xbdd4fdba	-0.10399957
20	0x3d4d6dc0	0.050153494
21	0xbe17be0e	-0.14818594
22	0x3e38190f	0.17978309
23	0x3e2757d1	0.16342093
24	0x3e5b5f47	0.21423064
25	0x3e22e24e	0.15906641
26	0x3e029c40	0.12754917
27	0x3e52d0a4	0.20587403
28	0xbddd259b	-0.10798188
29	0x3df50a65	0.11964873
30	0x3e38f487	0.1806203
31	0xbd9c8f2e	-0.07644497
32	0x3e30ca66	0.17264709
33	0x3e413b76	0.18870339
34	0x3e310f46	0.17290983
35	0x3e024a10	0.12723565
36	0xbd906aa0	-0.07051587
37	0x3dbd3fd8	0.09240693
38	0xbe199491	-0.1499808
39	0xbe4dd997	-0.20102535
40	0x3de5e669	0.11225588
41	0x3d8b207a	0.06793304
42	0x3dbfcb44	0.09364942
43	0x3e611559	0.219808
44	0xbe37da33	-0.1795433
45	0x3e511582	0.20418361
46	0xbe0835ef	-0.13301824
47	0x3e3dc20b	0.18531053
48	0xbe513608	-0.20430768
49	0x3dc268cc	0.09492645
50	0xbe5a5e73	-0.21325092
51	0xbbbf8af3	-0.0058454215
52	0x3e2b8fe6	0.16754112
53	0x3d10e876	0.035377942
54	0x3e09ec42	0.13469031
55	0xbe121ee8	-0.14269602
56	0xbe3077ba	-0.17233172
57	0x3e09ba79	0.1345004
58	0xbd6ec141	-0.05828977
59	0xbcfd9416	-0.030954402
60	0xbda8f67a	-0.08250137
61	0xbcb90ac5	-0.022588143
62	0x3d344af0	0.04401678
63	0xbe171c93	-0.14756994
64	0x3e4d8017	0.20068394
65	0xbd35db15	-0.044398386
66	0x3e747fa9	0.23876823
67	0x3e7c4a3a	0.2463769
68	0xbdcd3cc0	-0.10021353
69	0x3de445f4	0.11146155
70	0x3e2298fd	0.15878673
71	0xbca542aa	-0.02017339
72	0x3d88be16	0.06676881
73	0x3e680c27	0.22660886
74	0xbe35352d	-0.17696066
75	0x3d6792f4	0.05653663
76	0x3d0704ea	0.03296367
77	0x3d293f5d	0.041320194
78	0xbe61e8d1	-0.22061469
79	0xbd8f28bc	-0.06990191
80	0xbd0b9b78	-0.034083813
81	0xbda6172f	-0.08109891
82	0x3e31a8eb	0.17349593
83	0x3db88ec6	0.09011607
84	0x3dff376b	0.12461742
85	0x3e25513b	0.16144268
86	0x3d85ec65	0.06539229
87	0xbd69d72d	-0.057089973
88	0x3d61c369	0.055118
89	0xbd8ba1f8	-0.068180025
90	0xbe35a016	-0.17736849
91	0x3e683906	0.22678003
92	0xbe68b571	-0.22725464
93	0x3d6f6ddb	0.058454376
94	0xbe3297f2	-0.17440775
95	0x3e329a0c	0.17441577
96	0xbd9103e2	-0.07080819
97	0xbc419c75	-0.011817087
98	0xbdb7ccab	-0.08974584
99	0x3df0aee2	0.11752106
100	0xbd4fa4df	-0.050694343
101	0xbe3aa689	-0.1822759
102	0xbd48b37a	-0.048999287
103	0xbe0a5e79	-0.13512601
104	0xbc610222	-0.013733419
105	0xbe428d22	-0.1899915
106	0xbd936216	-0.07196443
107	0x3d6e6b06	0.058207534
108	0xbe6133c4	-0.21992403
109	0xbe27c360	-0.16383123
110	0x3dc7a86c	0.09748921
111	0xbe32cc02	-0.17460635
112	0xbd471d61	-0.048612002
113	0xbdb6e2a6	-0.089299485
114	0x3dae04d0	0.08497012
115	0x3e57cdb3	0.21074562
116	0xbe55e55e	-0.20888278
117	0x3c730011	0.014831559
118	0x3d2f5b43	0.042811643
119	0x3e0df72e	0.13863823
120	0xbe623d2e	-0.2209365
121	0x3df5b7e7	0.11997967
122	0x3dbc895c	0.09205887
123	0xbe0a65b8	-0.13515365
124	0xbe4f066e	-0.20217296
125	0x3df49a9c	0.11943552
126	0x3c5da771	0.013528691
127	0x3d17e716	0.037085615

net.2.weight f4 [256, 128]
0	0x3d4ebaad	0.050470997
1	0xbc744f60	-0.014911503
2	0x3c8b6b99	0.01701908
3	0xbcc1f713	-0.023677384
4	0xbd115b50	-0.035487473
5	0x3d89859c	0.06714937
6	0xbdb13842	-0.086533085
7	0x3c97b1a8	0.01851733
8	0x3d5c218b	0.053742927
9	0x3c8e90f3	0.017403102
10	0xbc72d2fd	-0.014820811
11	0x3cf0d6da	0.029399324
12	0xbcea7be5	-0.02862353
13	0xbc056863	-0.0081425635
14	0x3dd9e32e	0.10639034
15	0x3c6e2638	0.014535479
16	0x3d685e6e	0.05673068
17	0x3c6a7c9d	0.014311937
18	0x3cfce566	0.030871104
19	0x3d37b6ce	0.04485207
20	0xbd6946e6	-0.05695238
21	0xbd929a46	-0.071583316
22	0x3d49cc9e	0.049267404
23	0x3d8082e8	0.062749684
24	0x3d9b7d1c	0.07592222
25	0xbd169c99	-0.036770437
26	0xbd32f412	-0.043689795
27	0xbda62aa1	-0.081135996
28	0xbdab779f	-0.08372425
29	0x3c8c7c12	0.017149005
30	0xbd97e002	-0.07415773
31	0x3d02d5ce	0.03194218
32	0x3da3b874	0.07994166
33	0x3d4b9e48	0.049711496
34	0x3d22abf7	0.03971478
35	0x3be8ac5e	0.007100626
36	0xbca99a2e	-0.020703401
37	0xbdb15462	-0.08658673
38	0xbc8c8a44	-0.017155774
39	0xbd97f924	-0.07420567
40	0xbd3b4530	-0.04572028
41	0x3d964ebd	0.07339237
42	0xbd2dfb0b	-0.04247574
43	0xbd87613d	-0.066103436
44	0x3d9e3edb	0.077268325
45	0x3d7c172a	0.06154553
46	0xbd5312d0	-0.051531613
47	0x3ce283d0	0.027650744
48	0xbd31072b	-0.043219727
49	0x3d9ebc3c	0.077507466
50	0x3d29f9e4	0.04149808
51	0xbbbb7530	-0.005720757
52	0xbd99eb1e	-0.07515548
53	0x3d4de527	0.050267365
54	0x3d84bd08	0.06481367
55	0x3d5c23bc	0.053745016
56	0x3d04997b	0.032372933
57	0x3d7aca58	0.061228126
58	0x3d85fc3b	0.0654225
59	0xbbaa1558	-0.0051905327
60	0xbdb092c9	-0.08621747
61	0x3d40d164	0.04707469
62	0x3d8a2ac2	0.06746437
63	0x3bbce9fd	0.0057651983
64	0x3cd1b910	0.02560094
65	0x3dadf9b3	0.08494892
66	0xbd6a3c60	-0.057186484
67	0xbd9a1da7	-0.07525187
68	0x3d31e07c	0.043426976
69	0x392ab2e9	0.00016279113
70	0xbddabeec	-0.10680947
71	0x3d982580	0.074290276
72	0xbc6e871a	-0.014558578
73	0xbd9ef18e	-0.07760917
74	0xbbc55d2d	-0.0060230703
75	0xbce4a552	-0.027910862
76	0xbc8ea10f	-0.017410783
77	0xbd43eea6	-0.047835015
78	0xbd80fb0e	-0.06297885
79	0x3d57240f	0.052524623
80	0xbd68858d	-0.05676799
81	0xbdc569f1	-0.09639347
82	0x3d2ad71c	0.04170905
83	0x3d066c08	0.03281787
84	0x3d96c1ff	0.073612206
85	0xbd6de06e	-0.05807536
86	0xbd9144e7	-0.0709322
87	0x3bbd85bf	0.005783766
88	0xbdcd3bb0	-0.1002115
89	0x3d666032	0.056244083
90	0xbdba8d6c	-0.09109005
91	0x3c314743	0.010820213
92	0x3cac7605	0.02105237
93	0x3d443e7b	0.04791115
94	0x3d8008a9	0.06251652
95	0x3d3b10df	0.045670386
96	0xbd92feed	-0.071775295
97	0x3dd34cd1	0.10317386
98	0x3c4c0e5d	0.012454596
99	0xbcfb1c8b	-0.030653259
100	0xbdc65a5a	-0.09685202
101	0xbd80780e	-0.062728986
102	0x3d4ccd4f	0.050000485
103	0xbd76bc2d	-0.060238052
104	0xbb8673a2	-0.00410314
105	0x3d4629fa	0.048379876
106	0x3d03bbec	0.03216164
107	0xbdaaa997	-0.08333128
108	0xbcd700d0	-0.026245505
109	0x3d91f8b2	0.07127513
110	0xbd7759c0	-0.060388327
111	0x3bb72858	0.005589526
112	0xbd92f94f	-0.07176458
113	0x3dcded87	0.1005507
114	0xbc27978f	-0.0102290055
115	0x3d8a011b	0.06738492
116	0xbd106f69	-0.0352625
117	0x3cd04b12	0.025426421
118	0xbc9f6fbf	-0.019462464
119	0x3c8fc5b3	0.017550325
120	0x3d3d765a	0.046255447
121	0x3d01c43a	0.031681277
122	0xbd29747b	-0.04137085
123	0x3c0e97ea	0.008703211
124	0x3d0e6881	0.03476763
125	0xbd9d9dde	-0.076961264
126	0x3d07ddd8	0.03317055
127	0x3b98f2af	0.004667602
128	0x3dac7cf9	0.08422274
129	0x3d7e9f0c	0.062163398
130	0x3d87100e	0.06594859
131	0xbd648423	-0.055790078
132	0x3b5895ac	0.0033048196
133	0x3c3d95e4	0.011571381
134	0xbd67fc0c	-0.056636855
135	0x3c57220d	0.013130677
136	0x3d95b527	0.07309943
137	0xbcc9c7a8	-0.024631336
138	0x3be1593b	0.006877092
139	0x3db735b4	0.0894579
140	0x3d847892	0.064683095
141	0x3ddc80f6	0.10766785
142	0x3c23500a	0.009967813
143	0x3d2a6b0e	0.041606
144	0x3dbbaa97	0.09163397
145	0xbd8525ed	-0.065013744
146	0x3ceb3800	0.028713226
147	0xbd9f5d08	-0.07781416
148	0xbcc4a492	-0.024004254
149	0xbd407ab0	-0.046992004
150	0xbd813701	-0.06309319
151	0x3d853cd6	0.06505744
152	0xbc8471b5	-0.016167501
153	0x3d457c56	0.04821428
154	0x3dedc18f	0.11609184
155	0x3d4aede9	0.049543295
156	0x3d86fb9b	0.06590959
157	0x3d81efbd	0.063445546
158	0x3dd46e63	0.10372617
159	0x3da6ecfb	0.08150669
160	0xbc8a4ed7	-0.016883297
161	0xbdb74967	-0.08949547
162	0xbdaaf438	-0.08347362
163	0x3b97e89b	0.004635883
164	0xbca9ae29	-0.020712929
165	0xbb456862	-0.0030122031
166	0x3ca11040	0.019661069
167	0x3c227c77	0.00991737
168	0xbc1113fc	-0.008854862
169	0xbd2539d7	-0.040338363
170	0xbca03c1c	-0.019559912
171	0xbd5608ba	-0.052254416
172	0xbd1600a9	-0.036621723
173	0xbcd52da4	-0.02602274
174	0x3a74597a	0.00093211944
175	0x3dc668c9	0.09687955
176	0x3da11a4f	0.07866346
177	0x3d72c98f	0.059274253
178	0x3d03393a	0.032036997
179	0x3dc8b0f2	0.09799375
180	0xbbb01b01	-0.005374313
181	0x3d726af6	0.059184037
182	0x3d14c897	0.03632411
183	0x3cd16c1a	0.025564242
184	0x3c27ed57	0.010249457
185	0x3d2b9cf5	0.041897733
186	0x3ce7edbd	0.028311605
187	0xbd262aed	-0.04056828
188	0x3dab7ae9	0.083730526
189	0x3dcf9207	0.101352744
190	0xbcbe347b	-0.023218384
191	0x3d83f0d5	0.064424194
192	0x3bd829f7	0.0065967995
193	0x3cf203c6	0.029542815
194	0xbd5a8fbe	-0.05335974
195	0x3d93e24b	0.07220896
196	0xbc02634d	-0.007958245
197	0xbd53524b	-0.051592153
198	0x3d5f5a92	0.054529734
199	0x3bb2b27a	0.005453405
200	0xbd2a4b28	-0.04157558
201	0x3ccd682d	0.025074089
202	0x3d090a98	0.03345737
203	0xbd6b6845	-0.057472486
204	0x3d79253a	0.060826518
205	0xbdb15620	-0.08659005
206	0xbd5caef9	-0.053877804
207	0x3d630183	0.055421364
208	0xb91df70c	-0.00015064719
209	0xbc18d008	-0.009326942
210	0x3dbdaeff	0.092618935
211	0x3de397cb	0.111129366
212	0xbc874be5	-0.016515682
213	0x3daaf1dd	0.08346913
214	0xbcfae440	-0.030626416
215	0xbcfe358d	-0.031031394
216	0x3d98fe3a	0.07470365
217	0x3de2b118	0.11068934
218	0x3c7c3bd1	0.015395121
219	0x3c611947	0.013738937
220	0x3d85f813	0.06541457
221	0xbd75594c	-0.059899613
222	0xbcf51779	-0.02991842
223	0x3cc3a318	0.02388148
224	0xbcc04f0f	-0.023475198
225	0x3b9b5c7b	0.004741249
226	0x3dca2b13	0.09871497
227	0x3cc8aca4	0.024496384
228	0x3d1fa92a	0.038979687
229	0xbcab5b99	-0.0209177
230	0x3c9d42b5	0.019196847
231	0x3da5ec55	0.081017174
232	0x3d06d4dc	0.032917842
233	0xbdc29e9a	-0.09502907
234	0x3ce8458d	0.028353477
235	0x3c93d51a	0.01804595
236	0xbd4cd761	-0.05001009
237	0x3d5dd623	0.054159295
238	0x3dcdf1ea	0.10055907
239	0x3cd3e706	0.025866996
240	0x3cb8436f	0.022493092
241	0x3a6680b5	0.00087929826
242	0xbc8ccdc2	-0.017187957
243	0x3d5fad90	0.05460888
244	0x3d0e65a3	0.034764897
245	0x3d99b1c0	0.07504606
246	0x3d960d1c	0.07326719
247	0x3cbde133	0.023178672
248	0xbcbe0a30	-0.023198217
249	0x3c46dd56	0.012137732
250	0x3d77eca4	0.060528412
251	0x3d98f123	0.07467868
252	0xbd84989f	-0.06474423
253	0xbd3c946d	-0.046039987
254	0xbd1d0bf5	-0.03834148
255	0xbd64cd81	-0.055860046

net.2.bias f4 [256]
0	0x3db9a49b	0.09064599
1	0xbd00a249	-0.031404767
2	0xbd58f1cc	-0.05296497
3	0xbd31953c	-0.04335521
4	0xbd5975cb	-0.05309085
5	0xbda42b06	-0.080160186
6	0xbc83c255	-0.016083876
7	0xbdc5d2a9	-0.09659321
8	0x3be338cb	0.0069342605
9	0xbd52fb50	-0.0515092
10	0x3d1d5247	0.038408544
11	0x3d13623d	0.03598236
12	0xbcd8095e	-0.026371654
13	0xbb7433b9	-0.0037262274
14	0xbd9581f9	-0.07300181
15	0x3d6820b3	0.05667181
16	0xbda30b51	-0.07961143
17	0x3aca40c8	0.0015430683
18	0xbc979011	-0.018501313
19	0xbd054d9b	-0.032544713
20	0x3d0d138e	0.034442477
21	0xbce0bb7e	-0.027433153
22	0x3d8aaa50	0.06770766
23	0x3cde2512	0.027117286
24	0xbc18f525	-0.009335791
25	0xb9d4b300	-0.00040569156
26	0xbd17b990	-0.0370422
27	0xbd17acb0	-0.037029922
28	0x3c9d1fd3	0.019180214
29	0xbd2ea121	-0.042634133
30	0xbd7a8c48	-0.06116894
31	0x3d1f3af0	0.038874567
32	0x3d9f9906	0.07792859
33	0xbc6b564b	-0.014363836
34	0x3d02544a	0.031818666
35	0x3d63b3de	0.055591457
36	0x3d8818b8	0.0664534
37	0xbd51c5ea	-0.051214136
38	0xbc7a9a7d	-0.015295622
39	0x3d815660	0.06315303
40	0x3db4011b	0.08789273
41	0xbcb7cacd	-0.02243557
42	0x3dc7692e	0.09736858
43	0xbd0cef1b	-0.034407716
44	0x3c868e77	0.016425354
45	0xbd8c2210	-0.068424344
46	0xbd0c1ce7	-0.03420725
47	0xbd522f75	-0.05131479
48	0xbce9fab2	-0.028561924
49	0x3d69a51a	0.05704222
50	0xbced1f70	-0.028945655
51	0x3d3e67a0	0.046485543
52	0x3da32cd8	0.07967538
53	0x3c004898	0.007829808
54	0xbd0cda40	-0.034387827
55	0xbb9c2430	-0.004765056
56	0x3d6ff100	0.058579445
57	0xbd7636a6	-0.06011071
58	0xbca66d43	-0.020315772
59	0xbc9485a4	-0.018130131
60	0x3c05597d	0.008139011
61	0x3c40ee78	0.011775605
62	0xbd1bdb70	-0.03805107
63	0x3cb52935	0.022114376
64	0x3d55c6e3	0.052191626
65	0x3c936316	0.017991584
66	0x3b4d96ac	0.0031370325
67	0x3db25721	0.08708025
68	0x3d9e3f70	0.077269435
69	0x3c5b4cd9	0.013385021
70	0x3d7b9f59	0.061431263
71	0x3b95aac8	0.004567478
72	0xbd5e5b55	-0.05428632
73	0x3d357e2d	0.044309784
74	0xbda8b2a9	-0.08237202
75	0xbc37f740	-0.011228383
76	0xbd827ee1	-0.063718565
77	0x3ba0924f	0.004900254
78	0x3d1ea7ef	0.038734373
79	0x3c6bd300	0.014393568
80	0xbd853b48	-0.065054476
81	0x3c3d0981	0.01153791
82	0xbd15117b	-0.036393624
83	0xbd4018ea	-0.04689876
84	0x3d6e1cfc	0.05813311
85	0xbd31aba9	-0.0433766
86	0xbd96d359	-0.0736453
87	0x3d499b26	0.049220227
88	0xbd584147	-0.05279663
89	0xbb6def60	-0.0036306009
90	0x3d5bc90c	0.05365853
91	0x3d957143	0.072969936
92	0x3cb768bb	0.022388807
93	0xbd31b5ab	-0.043386143
94	0xbd936534	-0.07197037
95	0xbda608af	-0.08107125
96	0x3dab8eaf	0.08376824
97	0x3db4cd3d	0.088282086
98	0xbce2730f	-0.027642755
99	0xbd3c2bfb	-0.04594038
100	0xbba5c4b7	-0.0050588506
101	0x3d8cd079	0.068757005
102	0xbd31b463	-0.04338492
103	0xbd012a34	-0.03153439
104	0xbd48895a	-0.048959114
105	0x3d6f8afe	0.058482163
106	0xbc4beade	-0.012446133
107	0xbc2d9ace	-0.01059599
108	0xbd517f81	-0.051146988
109	0x3da1bcea	0.078973606
110	0x3d9a47b9	0.07533211
111	0xbca85a1f	-0.020550786
112	0xbcc37ffc	-0.023864739
113	0x3dc38cfa	0.095483735
114	0xbc46a2b2	-0.0121237505
115	0x3cca85c5	0.02472199
116	0xbd5635c4	-0.05229737
117	0xbc1b4916	-0.009477874
118	0xbd052ace	-0.032511525
119	0x3a2fe250	0.00067094434
120	0xbcce432b	-0.025178513
121	0x3cf64ac7	0.030064953
122	0x3cfef11d	0.031120831
123	0x3d106d24	0.035260335
124	0x3cb8644b	0.02250876
125	0xbb708fc4	-0.0036706785
126	0xbc5037a6	-0.01270858
127	0xbc4524b8	-0.01203268
128	0xbc329b7d	-0.010901329
129	0xbd8367d2	-0.064162865
130	0xbaaac802	-0.0013029578
131	0xbc0e9773	-0.0087031005
132	0x3d28c424	0.04120268
133	0xbc5ab93d	-0.013349828
134	0x3cfea6b3	0.031085348
135	0x3d589bde	0.05288302
136	0x3db85059	0.089997
137	0x3b8a0042	0.0042114565
138	0xbd3d6965	-0.04624309
139	0xbd827d7b	-0.0637159
140	0x3d178f7f	0.037002083
141	0xbc775129	-0.015095034
142	0xbd0eec7f	-0.03489351
143	0x3d0fefdb	0.035140853
144	0xbd2666e3	-0.040625464
145	0xbc0812df	-0.0083052805
146	0x3cbf23c4	0.023332484
147	0x3d7300d8	0.059326977
148	0xbcc860bd	-0.02446019
149	0x3ca01af3	0.0195441
150	0x3c8fccfe	0.017553803
151	0x3d23b9be	0.03997206
152	0xbdae35e9	-0.08506376
153	0x3dc2f41b	0.09519216
154	0x3d58c64c	0.052923486
155	0xbd91d1e4	-0.071201116
156	0xbda4760b	-0.080303274
157	0x3c15c1fb	0.009140487
158	0x3d620df8	0.055189103
159	0xbcb9cc43	-0.022680407
160	0x3da05ba2	0.078299776
161	0x3d52c33e	0.05145573
162	0xbd3ebf64	-0.046569243
163	0xbd02527f	-0.031816956
164	0x3d7a82bd	0.061159838
165	0x3ca3f65f	0.02001494
166	0xbda8c488	-0.0824061
167	0x3d81c957	0.06337231
168	0xbd3c6bb0	-0.046001136
169	0x3d149bc7	0.036281373
170	0xbd0fe841	-0.035133604
171	0x3d8bbc86	0.06823067
172	0x3d8255d0	0.06364024
173	0x3cc6dc93	0.0242751
174	0x3d503b48	0.050837785
175	0xbd53b534	-0.05168648
176	0xbd755af0	-0.059901178
177	0x3dc567c7	0.096389346
178	0x3cb3bcd0	0.021940619
179	0x3c99ebd4	0.01878921
180	0xbd67faf1	-0.0566358
181	0xbcf91c43	-0.030408984
182	0x3d790ad0	0.060801327
183	0xbcbc2094	-0.022964753
184	0xbdc39ead	-0.095517494
185	0xbd2497d3	-0.040183853
186	0xbc9a4e4b	-0.018836161
187	0x3d83833a	0.06421514
188	0xbc4f8826	-0.012666738
189	0x3d65cdb1	0.056104366
190	0xbda99d4f	-0.08281957
191	0x3c83a9fc	0.016072266
192	0x3d662ea9	0.056196842
193	0x3d972bda	0.07381411
194	0x3bcc606d	0.006237081
195	0x3b28b1eb	0.0025740813
196	0x3b36059d	0.0027774342
197	0x3d77455e	0.060368888
198	0xbdaca650	-0.08430159
199	0x3cbbd7bd	0.02293002
200	0x3d7eaaf8	0.062174767
201	0x3dbd88b1	0.092545874
202	0xbd94deee	-0.07269083
203	0xbd0b4b8c	-0.034007594
204	0xbc84f2f4	-0.01622913
205	0x3dae4879	0.08509917
206	0x3d1c0a43	0.038095724
207	0xbd585f89	-0.052825484
208	0xbca19371	-0.019723626
209	0x3c912ac2	0.017720584
210	0x3d48fb9f	0.04906809
211	0x3cfc2f9f	0.030784426
212	0x3c945c4c	0.018110417
213	0x3c06b1eb	0.00822113
214	0x3b232f32	0.0024899957
215	0x3daee0f9	0.08539004
216	0xbd699520	-0.057026982
217	0xbd9c5cfe	-0.07634924
218	0xbb089cd5	-0.0020845432
219	0x3d6d1496	0.05788096
220	0x3bfa2f49	0.0076350314
221	0xbd5df56a	-0.054189123
222	0xbd40bcf2	-0.047055192
223	0xbcba2a31	-0.022725197
224	0xbd21c763	-0.03949679
225	0x3d665623	0.05623449
226	0x3dabb086	0.083832785
227	0xbd73d3ce	-0.059528165
228	0x3b1d4e86	0.0024003102
229	0xbc6a295b	-0.0142920865
230	0x3d1240ae	0.035706215
231	0x3d11c619	0.03558931
232	0xbcacc80e	-0.021091487
233	0xbd24ac28	-0.040203243
234	0xbdaa34c5	-0.08310846
235	0xbd08c235	-0.033388335
236	0xbd3cca19	-0.046091173
237	0xbd7c4ecc	-0.061598584
238	0x3db3769d	0.08762858
239	0x3cf9b45c	0.03048151
240	0xbd9c3af8	-0.07628435
241	0x3da1e996	0.07905881
242	0xbd540f9a	-0.05177269
243	0xbd45043e	-0.04809975
244	0x3db07def	0.0861777
245	0x3cfc2d72	0.030783389
246	0x3d5f46c9	0.054510865
247	0x3d277c6a	0.040890135
248	0x3d9d6288	0.07684809
249	0xbda86366	-0.08222084
250	0x3d4377dc	0.04772173
251	0xbc961b68	-0.018323615
252	0xbd3bdb41	-0.045863394
253	0x3d3f62ce	0.046725087
254	0x3dae6996	0.08516233
255	0xbd9e9c59	-0.07744665

μ.weight f4 [2, 256]
0	0x3a6af227	0.0008962475
1	0x3ccdb428	0.02511032
2	0xbd81146e	-0.06302725
3	0x3c87e500	0.016588688
4	0x3cab7769	0.020930963
5	0xbc2ea61b	-0.01065972
6	0xbc0a9e9e	-0.008460669
7	0x3c91e4bf	0.01780927
8	0x3d729799	0.059226606
9	0xbc90126d	-0.017586911
10	0xbd2ef780	-0.042716503
11	0xbd461fb9	-0.048370097
12	0x3cdd8951	0.027043017
13	0x3d345a9b	0.04403172
14	0xbd1c38e4	-0.038140193
15	0x3d2618f3	0.040551137
16	0x3ccac937	0.02475415
17	0x3ce03bb9	0.027372228
18	0x3ca0d952	0.019634876
19	0xbd212d9a	-0.03935013
20	0x3cd5c848	0.026096478
21	0x3d70cab8	0.058787078
22	0x3c0b26fa	0.008493179
23	0xbd381ef1	-0.044951383
24	0xbc436053	-0.011924821
25	0xbcd442e5	-0.025910804
26	0x3cd47e9f	0.025939284
27	0x3cffbc18	0.03121762
28	0x3d36cc4f	0.044628438
29	0x3cdef793	0.027217662
30	0xbc9fa738	-0.019488916
31	0x3c2df840	0.010618269
32	0x3d0e69fc	0.034769043
33	0x3cb336db	0.021876743
34	0xbc315355	-0.010823091
35	0xbcc0b014	-0.02352146
36	0xbd357550	-0.04430133
37	0x3c41dae9	0.011831977
38	0xbc9fe9c9	-0.019520657
39	0xbc8c4903	-0.017124658
40	0xbc4cc920	-0.012499124
41	0x3d160ff1	0.036636297
42	0xbd1d7cf1	-0.03844923
43	0xbd25d5f4	-0.040487245
44	0x3cd943ce	0.02652159
45	0xbcd891f0	-0.026436776
46	0x3c0b494b	0.008501361
47	0x3cbe1190	0.023201734
48	0x3d22c53a	0.03973887
49	0xbd147df3	-0.036252927
50	0x3cba28e2	0.022724573
51	0x3c62ff87	0.013854868
52	0xbd04d9ab	-0.032434147
53	0x3d437899	0.047722433
54	0x3c185ecd	0.009299946
55	0xbd4103b6	-0.04712268
56	0xbcde8817	-0.027164502
57	0x3d62b4cc	0.055348203
58	0x3d3f9648	0.04677418
59	0x3d041ba9	0.03225294
60	0x3d6e59b9	0.058191035
61	0xbbb5ba27	-0.0055458727
62	0xbc8f26c8	-0.017474547
63	0xbd3e6d2f	-0.046490844
64	0xbc82435e	-0.015901264
65	0xbcfeddc5	-0.031111607
66	0x3d002c3e	0.031292193
67	0x3c8d8228	0.017273977
68	0x3cb34415	0.02188305
69	0xbc99903f	-0.01874554
70	0xba1ecb09	-0.0006057476
71	0xbcb75f2f	-0.022384254
72	0x3c1254d5	0.008931358
73	0x3d20a199	0.03921661
74	0x3c835d11	0.016035588
75	0x3cb4d781	0.022075417
76	0xbc17c3f0	-0.009263024
77	0x3d27b0e5	0.040940184
78	0xbc41e00d	-0.011833203
79	0x3cfa9ff0	0.030593842
80	0xbd68231e	-0.056674115
81	0x3d1a247d	0.037632454
82	0x3c759202	0.014988424
83	0x3d938a5b	0.072041236
84	0xbd6af3b1	-0.05736131
85	0xbbd9bafd	-0.006644605
86	0xbda0fa35	-0.07860223
87	0x3b51055b	0.0031894061
88	0xbc8a65de	-0.016894277
89	0xbbfb4590	-0.0076682046
90	0xbd7309f4	-0.059335664
91	0xbd5a993f	-0.053368803
92	0x3d07cee4	0.03315629
93	0x3c6b7dd8	0.014373265
94	0x3cd87cc1	0.026426675
95	0xbb0aa11d	-0.002115316
96	0x3d975c91	0.073907025
97	0x3c46158a	0.012090096
98	0x3d6971fe	0.056993477
99	0x3a778372	0.0009441889
100	0xbd967641	-0.07346774
101	0xbd6653e0	-0.056232333
102	0x3d1cd204	0.038286224
103	0xb9a040c7	-0.0003056584
104	0x3bde21d9	0.0067789373
105	0x39eab60a	0.00044767588
106	0x3d738f8c	0.05946307
107	0xbcf24cd3	-0.029577648
108	0xbca8b483	-0.020593887
109	0x3a869d2a	0.0010270227
110	0x3d4aa1f3	0.049470853
111	0xbcc45cd0	-0.023970038
112	0xbd69b282	-0.057055004
113	0xbd0ba2f6	-0.03409096
114	0x3d2da214	0.042390898
115	0x3c49bbb3	0.012312817
116	0xbd2a9efc	-0.041655526
117	0x3cead0fa	0.0286641
118	0x3d54f457	0.051990833
119	0xba0db8f5	-0.0005406284
120	0x3d50baec	0.050959513
121	0xbcf706f7	-0.030154688
122	0x3c975897	0.01847486
123	0xbd3ef30f	-0.046618517
124	0xbc517928	-0.012785234
125	0x3a5ebf80	0.00084971637
126	0x3d732215	0.059358675
127	0x3c4fce88	0.012683518
128	0x3cdc2ba4	0.026876278
129	0x3d66e870	0.056374013
130	0x3d68eed8	0.056868404
131	0xbca39b44	-0.019971497
132	0xbd31ad55	-0.043378193
133	0x3d222251	0.039583508
134	0x3d01d3a8	0.03169599
135	0xbcedc961	-0.029026689
136	0xbca5f685	-0.020259151
137	0x3cd48a39	0.025944816
138	0xbd239b5a	-0.039943077
139	0xbc1cd070	-0.00957118
140	0xbd012907	-0.031533267
141	0x3d60302d	0.054733444
142	0xbc7b1c32	-0.0153265465
143	0x3c1755ad	0.009236735
144	0x3c90f96c	0.017697059
145	0x3ca0f629	0.019648628
146	0xbd23e4c3	-0.040013086
147	0xbae76123	-0.001765285
148	0xbd27f1a2	-0.041001923
149	0x3bc003f5	0.0058598467
150	0xbbebce12	-0.0071961964
151	0xbc1fa29c	-0.009743359
152	0x3d50e046	0.050995134
153	0xbcbf0754	-0.023318924
154	0x3b391b08	0.0028244872
155	0x3d66eb54	0.05637677
156	0x3d677e38	0.056516856
157	0x3cb3e613	0.021960294
158	0x3ca102b5	0.019654611
159	0x3cc38cd5	0.023870865
160	0xbd1e7a1d	-0.038690675
161	0xbd8e0774	-0.06935015
162	0xbc9c7b45	-0.019101748
163	0xbcc225aa	-0.0236996
164	0x3d5d8a3b	0.054086905
165	0xbd4ecaa4	-0.050486222
166	0x3d21cd0e	0.039502196
167	0x3c07a1ce	0.008278323
168	0x3c49c10f	0.012314095
169	0x3d40574b	0.04695825
170	0x3d2c2014	0.04202278
171	0xbd4811e8	-0.0488452
172	0xbc13a8f5	-0.00901245
173	0xbc604bb4	-0.013689924
174	0xbbda93d2	-0.0066704536
175	0x3d141dd9	0.036161277
176	0xbd90c7ba	-0.07069345
177	0xbc1f3683	-0.009717586
178	0xbd16dd2b	-0.036832016
179	0xbc975b18	-0.018476054
180	0x3cf043bf	0.029329179
181	0xbc8a5aa4	-0.016888924
182	0xbd6481ea	-0.05578796
183	0x3d393a78	0.045221776
184	0xbc9533d4	-0.01821319
185	0xbd0bfb25	-0.034175057
186	0x3c97aed4	0.018515982
187	0xbd06dca0	-0.03292525
188	0xbd030057	-0.031982746
189	0xbcfa17a3	-0.030528849
190	0xbc2b5fd3	-0.010459858
191	0x3d064ca5	0.032787938
192	0x3cfafac7	0.030637158
193	0xbda4df9e	-0.08050464
194	0x3da7f666	0.08201294
195	0xbd0f33ba	-0.03496144
196	0xbce2e70c	-0.027698062
197	0x3d1b99b1	0.03798837
198	0x3bb9c5b6	0.005669321
199	0xbbd30533	-0.006439829
200	0xbd168edb	-0.03675733
201	0xbd49a2f5	-0.049227674
202	0xbd461a62	-0.048365004
203	0x3d32628d	0.043551017
204	0x3c9f3847	0.019436015
205	0xbd626c53	-0.055279087
206	0xbd8a8a6f	-0.06764685
207	0xbc26ece6	-0.010188317
208	0xbce0e0ff	-0.027451036
209	0x3d18c690	0.03729874
210	0xbd1e40b0	-0.03863591
211	0x3bad9d4d	0.0052982927
212	0xbd2239d4	-0.03960593
213	0x3caf4875	0.021396855
214	0xbd33fa75	-0.043940026
215	0xbd366b04	-0.04453565
216	0xbc212677	-0.009835831
217	0xbc498bd0	-0.0123014
218	0xbcec7abd	-0.02886712
219	0xbd3ba4ae	-0.045811348
220	0xbb4685bd	-0.0030292117
221	0xbaf80e2a	-0.001892512
222	0xbd15d76c	-0.036582395
223	0x3d49f5d1	0.049306694
224	0x3b147a4b	0.00226559
225	0x3c3f96d5	0.011693676
226	0xbd2a132c	-0.04152219
227	0x3c95b460	0.018274486
228	0x3d380b43	0.044932615
229	0xbd7f0cec	-0.062268183
230	0xbd30b3d3	-0.043140244
231	0xbb146b73	-0.0022647053
232	0x3bcf5a3a	0.0063278945
233	0xbc0f0b0c	-0.008730661
234	0xbd5e3731	-0.054251853
235	0xbbf7dd10	-0.0075641945
236	0xbc89b007	-0.01680757
237	0x3cb1e739	0.0217167
238	0x3d8dcbd4	0.06923643
239	0xbd58a2ac	-0.05288951
240	0xbd2fe6a8	-0.04294458
241	0xbccca7b4	-0.02498231
242	0xbd4786d9	-0.048712585
243	0x3d635666	0.055502318
244	0x3c73cb28	0.014879979
245	0xbd31f96b	-0.043450754
246	0x3d55a2db	0.052157264
247	0xbd5466a1	-0.051855687
248	0x3d86e343	0.065863155
249	0x3cd978a5	0.026546786
250	0x3d1a46f1	0.03766531
251	0x396b79ef	0.0002245677
252	0xbd259ede	-0.04043471
253	0x3d82be01	0.063838966
254	0x3ced5f72	0.028976176
255	0xbd665871	-0.056236688

μ.bias f4 [2]
0	0x3d232b79	0.03983638
1	0x3d5a508e	0.05329948

σ.weight f4 [2, 256]
0	0x3d3f38ce	0.046685033
1	0xbd692f5f	-0.056929942
2	0xbc9a7f26	-0.018859457
3	0xbcf59672	-0.029978964
4	0xbd5410f0	-0.051773965
5	0xbd085cb8	-0.03329155
6	0xbd4a8f1b	-0.049452882
7	0xbcf48c71	-0.029852124
8	0x3d74c0d3	0.059754204
9	0xbd3c5b08	-0.04598525
10	0x3c823e15	0.015898744
11	0xbd611665	-0.054952998
12	0x3c9ec1e9	0.019379573
13	0x3a84cfe3	0.0010132756
14	0xbd4773a2	-0.04869426
15	0x3b844524	0.0040365625
16	0xbd75f610	-0.060049117
17	0x3c9cc338	0.019136056
18	0x3c9510db	0.018196514
19	0xbda5441c	-0.080696315
20	0x3b57c300	0.0032922626
21	0xbce67f54	-0.028136887
22	0xbd08b785	-0.033378143
23	0xbd826205	-0.06366352
24	0x3d62e229	0.055391464
25	0xbd7cb74a	-0.061698236
26	0xbd499001	-0.0492096
27	0x3c1f9bff	0.009741782
28	0xbc02da9d	-0.007986692
29	0xbd002176	-0.03128191
30	0xbd7f08b2	-0.062264152
31	0xbd238d96	-0.03992995
32	0xbcfe828f	-0.031068115
33	0xbc1799fc	-0.009253021
34	0x3c56772f	0.013089939
35	0x3d439a00	0.047754288
36	0xbd8a6ff2	-0.06759633
37	0xbd22e8c8	-0.03977278
38	0xbc0517ee	-0.008123381
39	0x3d1fa423	0.038974892
40	0x3cc215f3	0.023692107
41	0x3c6c2445	0.014412944
42	0xbd6529a6	-0.055947922
43	0xbd8efd26	-0.06981878
44	0x3cd225d4	0.025652803
45	0x3d0b8140	0.03405881
46	0x3cf0cd54	0.029394783
47	0x3d19eb96	0.037578188
48	0xbd265e75	-0.040617425
49	0xbd07d604	-0.033163086
50	0x3d61332f	0.054980453
51	0x3d13a2cc	0.036043927
52	0xbd96b96b	-0.073595844
53	0x3cd9b47a	0.026575316
54	0x3d30ae2c	0.043134853
55	0x3d2a97a2	0.041648515
56	0xbd1548c2	-0.03644634
57	0xbd28856e	-0.041142873
58	0xbcd95e56	-0.02653424
59	0x3d783bc9	0.06060389
60	0xbd72ec71	-0.05930752
61	0xbd83d7e1	-0.0643766
62	0x3a95b980	0.0011423081
63	0xbcb0226e	-0.021500792
64	0xbd25dfe2	-0.040496714
65	0xbce1088c	-0.027469896
66	0xbcafa65a	-0.021441627
67	0x3c9ffb0b	0.019528886
68	0xbd5a2819	-0.053260896
69	0x3c1d01c5	0.009582941
70	0xbd6cf628	-0.05785194
71	0xbd4eb34b	-0.050463956
72	0xbc87d674	-0.016581751
73	0xbd8ab639	-0.067730375
74	0xbcaf5b98	-0.02140598
75	0x3cb89205	0.022530565
76	0xbd7c3b56	-0.061580025
77	0xbd1f80cf	-0.0389412
78	0xbcb09d97	-0.02155952
79	0xbc7f79d8	-0.015593015
80	0x3ba822a9	0.005131085
81	0xbc3500bd	-0.011047539
82	0xbc573eb7	-0.013137511
83	0x3d56d5ca	0.05244998
84	0xbc9e364c	-0.019313
85	0x3c198251	0.009369449
86	0x3d3aee7d	0.045637596
87	0x3bd89c5c	0.0066104364
88	0x3c950f45	0.018195758
89	0x3c8ca6d8	0.017169401
90	0xbd20c73a	-0.039252497
91	0xbccd98ce	-0.025097277
92	0x3d07e079	0.03317306
93	0xbd6161b8	-0.055024832
94	0x3c759d24	0.0149910785
95	0x3d29ba9b	0.041437726
96	0x3d614921	0.05500138
97	0xbd9f4d9c	-0.07778475
98	0xbd14ab81	-0.03629637
99	0xbb562a9d	-0.0032679208
100	0xbd92d3ad	-0.0716928
101	0x3d6d10be	0.057877295
102	0xbc8d1cb4	-0.0172256
103	0xbd1760b6	-0.036957465
104	0xb9ef143e	-0.00045600714
105	0x3c9fbd27	0.019499375
106	0x3d03da23	0.032190453
107	0xbcd2081b	-0.02563863
108	0x3c0c375c	0.008558121
109	0xbd844d03	-0.06460001
110	0xbce923bf	-0.028459428
111	0x3d191770	0.037375867
112	0x3d4759f6	0.048669778
113	0xbd3d2c73	-0.04618497
114	0xbcf9476a	-0.03042956
115	0x3d59543e	0.053058855
116	0xbd0e5b6f	-0.034755167
117	0x3b9eb730	0.004843615
118	0x3d4d0ec8	0.050062925
119	0xbd17d375	-0.037066896
120	0x3c92af0d	0.017905736
121	0xbd813aad	-0.0631002
122	0xbca59bf5	-0.020215968
123	0x3d20b4c4	0.03923489
124	0x3d086efb	0.033308964
125	0x3c4bb0f3	0.012432325
126	0xbceadaa0	-0.028668702
127	0xbc83409c	-0.01602202
128	0x3cc8958c	0.024485372
129	0xbce1c58e	-0.027560022
130	0xbd9c7bc8	-0.07640797
131	0x3bdd85e9	0.006760348
132	0xbd27ea43	-0.040994894
133	0x3d77f801	0.06053925
134	0x3ba721d7	0.0051004696
135	0x3c3d80d5	0.0115663605
136	0x3c3868ff	0.011255502
137	0xbd558e4d	-0.05213766
138	0x3d50b158	0.05095038
139	0xbc2efa53	-0.010679799
140	0xbc255fba	-0.010093624
141	0x3c8989db	0.016789367
142	0xbce29332	-0.027658079
143	0xbcee1fa0	-0.029067814
144	0x3c3970a0	0.011318356
145	0x3d162c4f	0.03666335
146	0x3c842e50	0.016135365
147	0xbd9ec4e2	-0.07752396
148	0xbc713a41	-0.0147233615
149	0xbcc3acf6	-0.023886185
150	0x3d2a5095	0.041580755
151	0xbd1d7f97	-0.038451757
152	0xbd6112b0	-0.054949462
153	0xbc945a95	-0.0181096
154	0xbd2fe2a1	-0.04294074
155	0x3bd7cfa0	0.00658603
156	0xbcb6ded4	-0.02232305
157	0x3d3a168c	0.04543166
158	0x3cbc59c9	0.022992032
159	0xbb68820e	-0.003547791
160	0xbb077c65	-0.002067351
161	0x3d31870d	0.043341685
162	0xbd866633	-0.06562462
163	0xbd6e6bfb	-0.058208447
164	0x3d080798	0.033210367
165	0x3c828e85	0.0159371
166	0x3ce00de8	0.027350381
167	0xbd91c896	-0.07118337
168	0x3d144291	0.036196295
169	0xb8890f54	-6.535524e-05
170	0xbc0a70a5	-0.008449708
171	0x3c1994fc	0.0093739
172	0xbd8d14af	-0.06888711
173	0xbc7fae5b	-0.015605534
174	0x3d2bb5ce	0.04192143
175	0x3c160107	0.009155518
176	0xbbf728c9	-0.0075427038
177	0xbd4b92a8	-0.04970041
178	0xbce08a98	-0.027409837
179	0x3d7b7f1e	0.061400525
180	0xbcfa8df5	-0.030585269
181	0x3d3ad67d	0.04561471
182	0x3d676f57	0.056502666
183	0x3c02bfc0	0.007980287
184	0xbc8e65cb	-0.017382523
185	0x3ca18f58	0.019721672
186	0x3b6426f9	0.0034813269
187	0xbca141c3	-0.019684678
188	0xbca264a0	-0.019823372
189	0x3d350acc	0.04419975
190	0x3d6f3600	0.058401108
191	0xbd8efc6b	-0.06981739
192	0x3b3744f8	0.0027964693
193	0x3d632886	0.055458568
194	0xbd1f5da4	-0.038907662
195	0xbcc10ff8	-0.023567185
196	0x3d173ca5	0.03692307
197	0xbd727c15	-0.059200365
198	0x3d42c2d0	0.04754907
199	0xbbeda69e	-0.0072525283
200	0x3aaff897	0.0013425526
201	0x3cb952b9	0.022622453
202	0xbd0fb0de	-0.035080783
203	0x3b4e5899	0.0031485914
204	0xbd279fa1	-0.04092372
205	0xbd8a59f0	-0.067554355
206	0x3bf6879f	0.0075234915
207	0xbd6c2900	-0.05765629
208	0xbc5feed6	-0.013667783
209	0x3d116e89	0.035505805
210	0xbc81ae79	-0.015830265
211	0x3d228a33	0.03968258
212	0xbc4e4369	-0.012589314
213	0x3d6aa917	0.057290163
214	0xbd136e98	-0.035994142
215	0xb9d552c8	-0.00040688203
216	0x3d5f7b61	0.054561023
217	0xbc713200	-0.014721394
218	0xbd27d8ef	-0.04097837
219	0xbc08b936	-0.008344939
220	0x3c180dee	0.009280665
221	0x3d2d8a4c	0.04236822
222	0xbc1dcec1	-0.0096318135
223	0xbd7de6ab	-0.06198756
224	0xbd0a2930	-0.033730686
225	0x3d146299	0.036226843
226	0x3d2eaade	0.04264342
227	0x3c4c1280	0.012455583
228	0x3d52542d	0.051349808
229	0xbca8d6d5	-0.020610252
230	0x3d044e1d	0.032301057
231	0xbc5117f9	-0.012762063
232	0x3d75f286	0.06004574
233	0xbbf70241	-0.0075381105
234	0x3b2b9519	0.0026181398
235	0x3c9201c3	0.017823106
236	0xbd84b4ce	-0.06479798
237	0x3cdaf4ac	0.026727997
238	0x3d387db1	0.045041744
239	0x3d50d5b0	0.05098504
240	0xbd04e432	-0.032444187
241	0x3d09375a	0.033500053
242	0xbd07d9df	-0.033166762
243	0xbda18d5c	-0.0788829
244	0x3d438d9c	0.04774247
245	0x3d551d65	0.052029986
246	0xbd94b5b7	-0.07261222
247	0x3cd48677	0.025943024
248	0xbc8ab6db	-0.016932895
249	0x3c49ce33	0.012317228
250	0x3cdcc562	0.026949588
251	0xbc754df5	-0.0149722
252	0xbc4c4e82	-0.01246989
253	0x3abdbf0d	0.0014476493
254	0xbb3c1ff8	-0.0028705578
255	0x3d2bf944	0.041985765

σ.bias f4 [2]
0	0xbc9c4688	-0.0190766
1	0xbbd3bbb5	-0.0064615854
