model/p_no13.pth (torch, 152696 bytes, 8 tensors)

net.0.weight f4 [128, 22]
000000 61 12 14 3e 51 0e 1c 3e fa d5 ea bd 8b b7 8b 3d
       0.14460136 0.15239836 -0.11466594 0.068221174
000010 75 8c 31 be 30 dc 61 3d 59 29 ab 3d eb e6 3f be
       -0.17338736 0.055141628 0.08357496 -0.18740432
000020 e7 63 d7 bd ef fe ad bd d1 c6 07 3e 20 23 b8 3c
       -0.10517102 -0.0849589 0.13259436 0.022477686
000030 6d bf 39 be 36 65 97 bc 40 7a 52 3c 7b 4b d9 bd
       -0.1813943 -0.018480878 0.0128465295 -0.106101
000040 f4 52 1b 3e 32 e9 5d 3d aa 00 13 be e4 9f d5 bd
       0.15168363 0.05417747 -0.14355722 -0.10430887
000050 59 37 35 be e1 99 45 be 0e 5f 21 3e 39 2a 15 3e
       -0.17696895 -0.19296981 0.15758917 0.14566888
000060 c3 da fb 3d eb 3d 99 3c 90 cd e7 3d de 89 28 be
       0.12297585 0.018706283 0.11318505 -0.16458842
000070 66 c7 cc 3d 1e 29 06 3e a8 c8 65 3d e8 68 bb bb
       0.0999897 0.13101622 0.056099564 -0.005719293
000080 e7 28 69 be 53 fb 1f be ce 37 84 3d ce a0 df bd
       -0.2276951 -0.15623216 0.064559564 -0.10919343
000090 23 cf 3d 3e d9 a7 96 3c 56 96 05 3d 51 2e 29 be
       0.18536048 0.018390583 0.032614075 -0.16521575
0000a0 23 90 c0 3d df bc b6 bd 21 98 8e bd d9 ec 80 bd
       0.09402492 -0.08922743 -0.0696261 -0.06295175
0000b0 4d 83 33 bc 06 73 47 be 0e dc 4a be 66 03 34 be
       -0.0109565975 -0.19477472 -0.19810507 -0.17579421
0000c0 a5 e1 a1 bd 65 ab 4d be ae f2 49 3e 88 11 45 be
       -0.079043664 -0.20084913 0.19721481 -0.19244969
0000d0 9b 20 7d 3a 42 50 9c bd e7 75 ea bd 68 53 59 be
       0.00096560427 -0.076324955 -0.11448269 -0.21223223
0000e0 b6 c2 d4 bd 24 68 2b 3d 10 25 fb 3d 6a 4c 2d 3e
       -0.10388701 0.041847363 0.122629285 0.16923681
0000f0 b8 5a d1 3c 10 24 53 3d a0 86 9c bd d0 3f 0d 3e
       0.025555953 0.051548064 -0.07642865 0.13793874
000100 01 46 2f be 3b 3c 47 3c 69 09 0d be c3 3d fa bd
       -0.17116548 0.012160356 -0.13773121 -0.12218811
000110 4d ab 8c 3d 5e c9 84 bd 9d f8 aa bd 86 31 26 3e
       0.068686105 -0.0648372 -0.083482005 0.16229829
000120 39 64 a5 3d e5 c6 80 be ab 98 a6 bd 09 2b 5d bd
       0.080757566 -0.25151744 -0.08134588 -0.05399612
000130 3b b3 6f 3d 03 c3 f8 bd ad 06 a2 3d f2 a0 61 be
       0.058520537 -0.121465705 0.079114296 -0.22034052
000140 6d 72 97 bc a3 a1 0e 3d 4a 27 46 be 47 02 ea bc
       -0.01848718 0.034822118 -0.19350925 -0.028565539
000150 2b 34 28 3e b2 a5 d0 bd 27 76 05 be 45 5e 5a be
       0.1642615 -0.10187854 -0.13033353 -0.21325023
000160 53 44 10 be b0 40 1e 3e af cc 9a 3d 2e bd 55 3e
       -0.14088564 0.15454364 0.075585715 0.20872948
000170 23 76 c4 3d 73 e2 44 3e 61 e1 dd 3c f2 d0 ae 3d
       0.09592845 0.19227009 0.027085008 0.08535947
000180 c9 40 3f be 64 c1 5e bd 8b ec 21 bd 88 fd 04 be
       -0.18677057 -0.05438365 -0.039532226 -0.1298734
000190 a1 b8 30 3d 4f 09 54 3e bc 5d 87 3d 02 0d 94 3d
       0.043144826 0.20706676 0.06609675 0.072290435
0001a0 07 d8 af 3d 68 49 32 3e b4 7b 19 3e 21 9f f5 3d
       0.08586126 0.17410815 0.14988595 0.11993242
0001b0 e2 ba 98 bd 49 10 93 3d 40 48 1e bc d6 fe f5 3d
       -0.0745752 0.071808405 -0.00966078 0.12011497
0001c0 61 07 3d be 33 2a 08 3e b2 59 8c bc ac 7c a2 bd
       -0.18459846 0.13297348 -0.017132614 -0.079339355
0001d0 1a ea 62 be e3 e3 d8 3d c7 fa 4f 3d 68 ed 39 3e
       -0.22159615 0.10590341 0.05077627 0.1815697
0001e0 17 08 49 3d 95 36 93 3d 94 25 28 3e 42 bb 98 3d
       0.04907998 0.07188145 0.16420585 0.074575916
0001f0 71 72 6f bd cb c1 17 be 02 19 29 3e 7c 05 71 3e
       -0.05845875 -0.1482002 0.16513446 0.23537248
000200 e0 34 d5 3d e5 a3 3b 3e 3b 0e 0f 3e e0 a0 c4 bc
       0.10410476 0.1832424 0.13970272 -0.024002492
000210 43 2b a1 bd 45 69 f6 bd 92 89 c9 bd 13 ce e3 3d
       -0.0786958 -0.12031797 -0.098406926 0.1112329
000220 cf 98 42 3e 65 ab 92 3d 2a 99 4e bb 5a d2 58 3e
       0.19003604 0.07161597 -0.0031524398 0.21173993
000230 bf 00 5d be 93 d4 e5 bd 86 09 51 3e 71 5b dd bd
       -0.21582316 -0.11222186 0.20413789 -0.10808457
000240 88 f2 fb 3c df eb 4a bd a0 e0 0d 3e 34 30 f3 3d
       0.030755296 -0.04954135 0.13855219 0.118744284
000250 29 53 59 3e 0c 99 3d bd 4d a1 58 bd 5a 8b 10 be
       0.2122313 -0.046288535 -0.052888203 -0.14115658
000260 c9 04 4c be b2 be 53 3e 1c 7b da bc e7 40 d3 bd
       -0.199237 0.20678213 -0.026670031 -0.103151135
000270 b7 26 33 be 1d 89 35 3e fa 63 9e 3d cd 6e d2 bd
       -0.17495237 0.17728086 0.07733913 -0.1027504
000280 d2 cd c8 bd 85 cc 1d be 99 49 2c 3e 87 7e ac bd
       -0.09804882 -0.1541005 0.1682495 -0.08422571
000290 65 98 52 be 2b 68 2f be fd 72 32 3d cd 9c 25 3e
       -0.20565946 -0.1712958 0.043566693 0.16173096
0002a0 93 51 c8 bd 66 53 17 3e 85 5a dd bd 32 31 f6 bc
       -0.09781184 0.14777908 -0.10808281 -0.030052755
0002b0 50 92 08 3d 84 0c 1f 3e 6b 49 90 3d 2b d4 53 be
       0.03334266 0.15532118 0.07045253 -0.20686404
0002c0 5b cf 3f 3c f4 62 f5 3c ba 12 db 3d a6 2e 23 be
       0.011707152 0.029954411 0.10696931 -0.15935764
0002d0 e2 bd 06 be 74 6f 63 3e 30 70 71 be 5e db f9 bd
       -0.13158372 0.22210485 -0.23577952 -0.12200044
0002e0 42 fd 8c bd 06 45 c6 3d d5 29 17 3e 9a f0 e2 bb
       -0.068842426 0.09681134 0.14762051 -0.0069256546
0002f0 54 fc ba bd 28 82 44 3d c3 6a 24 be e0 c0 1a be
       -0.09130159 0.04797569 -0.16056351 -0.15112638
000300 bd 3d a4 3d 55 78 02 3e bb a4 21 be ab 60 05 bd
       0.08019588 0.12741216 -0.15785496 -0.032562893
000310 17 62 3e 3e 55 13 19 be b9 61 1c be e5 45 13 be
       0.18592106 -0.14948781 -0.15271653 -0.14382131
000320 2b 8f 57 be f8 d1 03 be 7d 69 03 be c3 62 3b 3e
       -0.21050708 -0.12873065 -0.1283321 0.18299393
000330 55 88 44 b9 7a f0 2f be 69 e5 65 3d 18 23 f7 3d
       -0.00018742804 -0.17181578 0.056126986 0.120672405
000340 9e 66 ae bd 0c da 47 be c3 8a 53 3e c5 8b 0b 3e
       -0.085156664 -0.19516772 0.20658402 0.13627537
000350 bc 99 01 3e 7c ad 12 be 6d 7e 4c be d4 32 69 3d
       0.12656301 -0.14323992 -0.19970103 0.05693324
000360 44 c3 a0 bc 01 8c 87 bd 03 73 2c 3d 34 86 ec bd
       -0.01962436 -0.066185005 0.04210187 -0.11549035
000370 f0 db 96 bd 06 a3 3b 3e a6 1b ce 3d 9a 2b 1d 3e
       -0.073661685 0.18323907 0.10063867 0.15348664
000380 89 19 e0 bc 99 a4 b9 bd 66 b3 1c bc 35 f5 4e 3e
       -0.027355926 -0.09064598 -0.009564256 0.20210727
000390 12 c1 1d 3e ad 2f e8 bd 25 36 b4 3d 8f 18 16 3e
       0.15405682 -0.113372184 0.0879939 0.14657806
0003a0 24 a4 f7 3d 80 22 24 3e 6d 05 ec bd 0a 5b 1b be
       0.12091854 0.16028786 -0.115244724 -0.15171447
0003b0 10 34 39 bd 62 e1 8c bc 56 3c 05 be 1f bb 6b 3d
       -0.045215666 -0.017197315 -0.13011298 0.0575515
0003c0 f1 7a ae 3d e3 77 ae bd 4d 24 97 3d 31 15 3c 3e
       0.08519543 -0.0851896 0.07379971 0.18367459
0003d0 4d de 57 be a1 ce 8b 3d ce 01 eb bd 4b 13 ad bd
       -0.21080895 0.06826521 -0.114749536 -0.084509455
0003e0 21 d8 62 3e 85 30 2d 3e 23 41 3b 3e cf 3c 9a 3d
       0.22152759 0.1691304 0.18286566 0.075311296
0003f0 bc 11 e3 3d a0 95 45 bd c8 25 6a 3d eb 9d 63 3b
       0.11087367 -0.048238397 0.057164937 0.0034731578

net.0.bias f4 [128]
000000 3b aa ac bd 54 91 a4 3d 71 79 37 be 48 5e 37 bc
       -0.084309064 0.08035532 -0.1791742 -0.011191912
000010 5d b5 4c 3e a9 d3 4f bd 4d fd d8 bd 86 ee a7 bd
       0.1999106 -0.050738964 -0.10595188 -0.081997916
000020 c3 eb 20 3c 20 7f 00 3d 01 cd 41 be 12 52 dd 3b
       0.009821835 0.031371236 -0.18925859 0.0067541683
000030 ba 1e 61 3e 54 0f 57 be 2a 00 19 3e 36 a7 02 be
       0.21984378 -0.21001941 0.14941469 -0.12759098
000040 ba 3f 62 be 87 ad 0d 3d e7 a7 29 3e a3 74 8b 3d
       -0.22094622 0.034589317 0.16567956 0.06809356
000050 df 7b 1a be ee e9 95 bd 66 0f a8 3d d0 de 11 bd
       -0.15086316 -0.07320009 0.08206062 -0.03561288
000060 9d 8b 91 3d 46 a3 ac bd 81 16 4b 3d 22 61 1d bd
       0.07106707 -0.084295794 0.04958201 -0.03842271
000070 30 a9 b1 3d f9 a2 93 bd b9 54 5b 3e 5f d5 9c bd
       0.08674848 -0.07208819 0.21419038 -0.07657885
000080 f4 88 65 3d 4c 32 85 bc 27 3c 45 3d fe c9 e0 bc
       0.05603881 -0.016259335 0.04815307 -0.027440067
000090 2d e0 1a be 5d 76 9a bc 83 75 3a bd cb f4 45 3e
       -0.15124579 -0.018855268 -0.045522224 0.19331662
0000a0 fb 7d 94 3d 5a 78 b4 bd f8 69 ff ba 71 8f d7 bc
       0.07250591 -0.08812018 -0.0019486537 -0.026313515
0000b0 ac aa cb 3d 56 bb b0 bd 65 a5 14 be 1c e9 22 be
       0.099446625 -0.086294815 -0.14516218 -0.15909237
0000c0 e0 39 e3 3d 51 61 7f bd 2a e4 e1 bd f0 84 c8 3d
       0.11095023 -0.062348668 -0.11029847 0.09790981
0000d0 97 10 24 be 5b 1d 0c 3e 01 19 22 bc c7 8f 75 bd
       -0.16021954 0.13683073 -0.009893657 -0.05995157
0000e0 b2 c6 b9 bd 4e 31 4f 3e f9 fc 56 bd 66 c2 0a 3e
       -0.09071101 0.20233652 -0.052487347 0.1355072
0000f0 91 0c 2f 3e 7c 14 07 3e c1 d0 a1 bd 16 33 18 3d
       0.17094637 0.13191408 -0.07901145 0.037158094
000100 ef 44 3b be d4 44 4f 3e 61 39 20 3d fc a1 97 3d
       -0.18288015 0.202411 0.03911722 0.07403943
000110 20 04 fb 3c 6d 64 22 be e0 6d 77 3a 42 de 4d 3e
       0.030641615 -0.15858622 0.0009438675 0.20104316
000120 ef 53 1b 3e 36 14 66 3d 31 bb c1 3c f1 25 1c 3d
       0.15168737 0.05617162 0.02364883 0.03812212
000130 cb e1 d0 bc 71 c5 21 be 8c 09 02 3e f8 68 b4 ba
       -0.025498291 -0.15797974 0.12698954 -0.0013764193
000140 c4 8e 36 be 94 76 12 3e 06 27 6b 3e d2 1e 4f 3d
       -0.17827898 0.14303046 0.22964105 0.050566502
000150 5f c3 b9 3d a4 f6 59 3e 00 bc 16 be 1f 00 b1 bd
       0.09070467 0.21285492 -0.14720154 -0.08642601
000160 97 1a 6f bd 7a b7 78 3c c0 ab 0b be 60 09 c4 3c
       -0.058374967 0.015180463 -0.13639736 0.023930252
000170 a8 6f cb bc 86 49 7c 3d cc f9 20 be c0 01 09 be
       -0.024833515 0.061593555 -0.1572029 -0.13379574
000180 f2 d1 46 be 54 87 c2 3d 5e 2c d0 bc ea 5b 0b 3e
       -0.19416025 0.09498468 -0.02541178 0.13609281
000190 28 6f ee bc 96 73 18 be 87 78 56 be 45 ce c5 bc
       -0.029105738 -0.14887843 -0.20944415 -0.024146209
0001a0 38 5a d4 3b be 25 cf 3d 69 c3 17 be 86 b8 59 3d
       0.0064804815 0.101146206 -0.14820637 0.05315449
0001b0 46 ba 58 be 8f aa 21 3d 9d 35 72 bd 09 a5 ef bd
       -0.21164808 0.039469298 -0.05913316 -0.117014
0001c0 83 2b 22 be 8d f1 14 3d 52 9a 83 bd c3 20 d8 bd
       -0.15836911 0.036363173 -0.06425919 -0.10553124
0001d0 42 b1 69 3e 54 1c 54 3e 69 c6 04 3e e1 ce 41 3e
       0.22821525 0.20713931 0.12966312 0.18926574
0001e0 87 64 37 3d 5d 09 fe bd 29 ac 18 3c c4 93 00 3e
       0.044773605 -0.1240413 0.00931839 0.12556368
0001f0 ff 65 42 be 95 64 2a 3e 4d 22 53 3e 31 a2 50 3e
       -0.18984221 0.16639931 0.20618553 0.20374371

net.2.weight f4 [256, 128]
000000 6f ec 89 3d f0 52 06 3c 7a 09 74 bc bf d7 73 bc
       0.06734549 0.008198485 -0.0148948375 -0.014882981
000010 ab bd c8 3d 90 7a a7 3d 70 21 bd 3d df f4 80 3d
       0.09801801 0.08177674 0.09234893 0.062967055
000020 a1 44 99 3d 52 22 22 bd 01 25 86 bd 78 1b 4b bd
       0.07483793 -0.03958351 -0.06550027 -0.049586743
000030 eb 21 ca bc ad e3 14 bd 06 7a 9b 3a 14 b2 1a bb
       -0.024674376 -0.03634994 0.0011861927 -0.0023604678
000040 09 6b 87 3d f1 7b 19 bd fc 13 e1 bc b9 47 71 3b
       0.06612212 -0.037471715 -0.02747535 0.0036816432
000050 c9 67 e9 3c 4e 95 9f 3c e8 f3 66 3c 24 c0 9a bd
       0.028491871 0.019480374 0.014096238 -0.07556179
000060 03 9f 0c bd d1 88 52 3c 67 fa 47 bc 60 24 d6 bc
       -0.034331333 0.012850002 -0.012205697 -0.026140392
000070 ed fd 21 3d 77 83 c6 bc 2e 8d ab 3d bc 79 a8 3d
       0.039548803 -0.02423261 0.08376537 0.08226344
000080 48 67 4c 3c 65 de 8b 3d 1f 7c 5e bb 9d c3 16 3c
       0.012475796 0.06829528 -0.0033948494 0.009201911
000090 94 a4 35 bd b7 e1 d7 bc f8 e0 b6 bc c7 ce 8b 3d
       -0.044346407 -0.026352746 -0.02232407 0.06826549
0000a0 81 da 30 bc c9 78 98 3c 02 e4 37 3c 77 fd 8e 3d
       -0.010794283 0.018612282 0.011223795 0.06981938
0000b0 36 9f dc bc 83 ed 9e 3d 39 7b 47 bc 16 fd 81 3d
       -0.026931386 0.077601455 -0.012175375 0.063471004
0000c0 3f 9b 75 bd 02 ca ee 3b 0b af 51 bb a8 b0 1d bd
       -0.059962507 0.007287265 -0.0031995203 -0.03849855
0000d0 09 99 ef 3c 55 27 46 3d 3d 63 a8 bd 4f 42 77 bd
       0.029247778 0.048377354 -0.08222053 -0.06036597
0000e0 1f 11 bf 3d 0b 67 b4 3c 31 dd 2c 3c 17 65 a6 bc
       0.093294375 0.022021791 0.010550783 -0.020311875
0000f0 4a bc 76 bd f1 df a4 3d df 78 9e bd f3 bd f3 bc
       -0.06023816 0.08050526 -0.07737898 -0.02975366
000100 20 14 4f 3d f4 47 20 bc cd a4 51 3b 32 77 93 3b
       0.050556302 -0.00978278 0.0031989098 0.004500293
000110 27 db a0 bb ef 56 ed bc 30 41 16 3d 4f b4 c6 bd
       -0.0049089375 -0.028972117 0.03668326 -0.0970236
000120 3b a9 9c 3d d2 f5 d5 3d 4c 5d e1 bc e5 9f 2d bd
       0.07649466 0.10447277 -0.027510308 -0.042388815
000130 2b 67 83 3d 96 62 31 3d 13 1d 9a bd 53 3d dc bb
       0.06416162 0.04330691 -0.07525077 -0.0067211776
000140 3a e0 63 3d 90 24 11 bb e0 10 4c bd d2 f5 76 3d
       0.05563376 -0.0022147037 -0.04982078 0.060293026
000150 bc 00 39 bb dc 72 62 bb 33 48 9b 3c 4d 1b 25 bd
       -0.0028229197 -0.0034553325 0.018955326 -0.04030924
000160 21 c5 5f bc 64 62 a1 3c ee 8b b4 3c 98 39 4f bd
       -0.013657839 0.019700237 0.02203938 -0.050592035
000170 26 25 f8 3c c8 b7 0d bd 97 69 a8 3d 11 61 d7 bc
       0.030291151 -0.034599096 0.08223265 -0.026291402
000180 24 2b c8 bc 75 54 92 3d dd 35 92 bd 7f 7c 90 3d
       -0.024434634 0.07145015 -0.0713918 0.07054996
000190 a5 30 28 bc ac e6 50 3d 16 ea 7a 3d dd 27 87 bd
       -0.010265504 0.051001236 0.061258398 -0.065994
0001a0 0d 64 a2 3d ef 65 a5 3c fd d9 6e 3d 98 0b a4 bc
       0.079292394 0.020190207 0.05831336 -0.02002506
0001b0 d8 9e 90 bc df f8 82 3d dc b1 5c 3d 18 02 cd bd
       -0.017653868 0.06395125 0.053880557 -0.10010165
0001c0 c1 0b 0c 3d a0 2d 95 3c 50 5b ae bb cf 32 0a 3c
       0.034190897 0.018210232 -0.005320944 0.008434965
0001d0 fb 22 94 3d 0c 6b 93 bb ad 8a 97 bd cd 9d 05 3d
       0.072332345 -0.004498845 -0.07399497 0.032621194
0001e0 24 c6 32 3c 29 33 2e 3d 9a a1 c7 3d b1 09 2b 3d
       0.010911498 0.04252926 0.0974762 0.04175729
0001f0 9a ac 88 bd ae 5d dc ba d4 bc e9 bc 86 b6 a8 bd
       -0.06673546 -0.0016812587 -0.028532423 -0.082379386
000200 ad 47 0b bb 17 4d 35 bd 07 51 1b bc 9f 9b 61 3d
       -0.002125244 -0.04426297 -0.009479768 0.055080052
000210 db 43 ad bd d3 05 69 bd 81 ac 4a bd e7 dc fa 3d
       -0.08460208 -0.05689032 -0.04948092 0.12249165
000220 ca 39 79 3d 46 00 c6 3d b6 45 4e bd 16 b8 77 3d
       0.060846128 0.09668021 -0.05035945 0.060478292
000230 e1 f2 a2 3d 56 38 1b 3d 65 e1 6b 3c 69 36 28 3d
       0.07956482 0.037895523 0.014397 0.041067515
000240 9d c1 a2 3b 24 14 df bb d4 aa 0e 3d 7e 9e 8c 3d
       0.004966928 -0.006807821 0.034830883 0.068661675
000250 b7 fb 80 bc c6 cc 21 3c 96 4c 82 bd 81 0a 5b 3d
       -0.015745027 0.009875482 -0.06362264 0.053476814
000260 41 92 93 3d 69 b7 35 bc 13 6c 81 bc f4 68 ea 3a
       0.0720563 -0.011091092 -0.015798604 0.0017884062
000270 dd dd c2 3d 78 3c 61 bb 7d 47 1a bd 26 ed ba 3d
       0.09514973 -0.0034368318 -0.037665833 0.09127264
000280 c1 69 b4 3d bb ac 08 bd 80 37 64 bc ba 56 42 bc
       0.088092335 -0.033367854 -0.013929248 -0.011861498
000290 b1 8c 14 bd 8c 55 89 3d c8 23 3c bd 01 69 90 3d
       -0.036266986 0.0670577 -0.04593256 0.07051278
0002a0 2d 2f 70 bd 2f 9f bf bb ad 8f bb 3c b6 c3 8e bc
       -0.05863874 -0.0058478336 0.022895658 -0.017427307
0002b0 86 c6 9b 3b 6e fe 95 bd 35 d0 b7 3d 97 13 c0 3d
       0.0047538904 -0.07323919 0.08975259 0.093787365
0002c0 1f 2f e4 3d 9d ee 7e 3d 2c d7 76 bd 51 67 50 bd
       0.111418 0.062239278 -0.060263798 -0.05087978
0002d0 59 dd 93 3d 9b 67 72 3d 87 8b 2a 3d 03 f8 6e 3d
       0.07219953 0.059180837 0.04163697 0.05834199
0002e0 1d 45 41 bd 8d c9 41 bd 37 b0 8b bd b1 ee 4b 3c
       -0.047185052 -0.047311354 -0.0682072 0.012447045
0002f0 11 ee e6 3d 34 a3 a7 3d e0 e8 cc bd 33 33 11 3d
       0.11275876 0.081854254 -0.10005355 0.035449218
000300 0c de 86 3c 82 e4 27 3d b5 0e 48 bd fe 18 64 3d
       0.016463302 0.040989406 -0.04884215 0.055687897
000310 0f a1 8d 3c bf ed 36 bd df 77 8f bd 2c ed 92 3c
       0.017288713 -0.044660326 -0.070052855 0.017935358
000320 8b f9 eb ba e1 73 81 3d 2b fc 7a bc fc f1 a0 bb
       -0.0018003447 0.0632093 -0.015318911 -0.0049116593
000330 8a 6a 96 bc 74 e1 91 3c 89 33 8a bd f1 02 8a 3d
       -0.018361349 0.0178077 -0.06748111 0.06738842
000340 cf e1 a0 3d 8d e3 a6 3d 30 f3 44 bc 28 93 70 3d
       0.078555696 0.081488706 -0.012020871 0.05873409
000350 4f d6 82 3d ad 6e 79 bd fb 5c 44 bd 71 0b b7 bc
       0.06388532 -0.060896564 -0.047940236 -0.022344323
000360 ea 12 67 bd 10 86 f9 3a e5 a3 81 bd f6 78 85 3c
       -0.056414522 0.0019037146 -0.063300885 0.01629303
000370 dc bb ae 3c 20 ea d4 3c 66 8b 5b bc 8f 99 87 3d
       0.021329813 0.025990546 -0.013399934 0.06621086
000380 09 56 11 bd 26 8b f3 3d 27 5a 51 3d 9f 07 25 3c
       -0.03548244 0.11891775 0.051111367 0.010072618
000390 fe e7 3f bd be 62 f6 3c 1c 91 66 3d 01 1c 47 3c
       -0.046852104 0.03007638 0.05629073 0.012152673
0003a0 b3 63 6e 3d a4 d3 15 3d ad cc aa 3c 66 20 14 bd
       0.05820055 0.03657879 0.02084955 -0.03616371
0003b0 22 b5 9c 3d 0b 66 f6 bc 47 c8 f1 3d 69 3f 48 bd
       0.07651736 -0.030077955 0.11805778 -0.048888598
0003c0 37 8f b2 3d 2b 9e 84 3c d5 50 e6 bc 54 9f 00 3d
       0.08718722 0.016188702 -0.028114716 0.031401947
0003d0 43 dc e4 bc f3 fe 29 3d 36 36 c6 3d a0 c7 5d 3d
       -0.02793706 0.041502904 0.09678309 0.054145455
0003e0 89 28 7f bd 64 04 55 3d f7 8a 9c 3d 8c a0 35 3d
       -0.062294517 0.05200614 0.07643693 0.044342563
0003f0 50 b1 14 bd 2b 3b b2 3d 36 ee ae bb f0 de 06 3d
       -0.03630191 0.08702692 -0.0053384556 0.032927454

net.2.bias f4 [256]
000000 c3 ec c6 bc ce 84 83 bd 52 11 06 bb 9a b9 b5 3c
       -0.024282819 -0.06421815 -0.00204571 0.022183228
000010 a1 c5 ed 3b 94 ed 37 3d 23 b2 50 bd bd a4 9a bd
       0.007256225 0.044904307 -0.050951134 -0.075509526
000020 a0 8a 8b 3d 4f 1c a7 3d 2c 4b 60 bd eb e1 e1 3b
       0.0681355 0.08159696 -0.05475919 0.0068933866
000030 75 3e 93 bd c4 a9 e8 3c 56 79 18 bd ed 8d 2c bd
       -0.07189647 0.028401263 -0.03722509 -0.04212754
000040 b8 0e fa bb 21 df 60 3d b2 b1 68 3d 2a 4e be bc
       -0.007631149 0.054900292 0.05681009 -0.02323063
000050 09 35 f7 bc 47 f3 32 3d b9 d3 8a 3d a9 c6 21 3d
       -0.030176656 0.04368904 0.06778664 0.039496098
000060 a3 14 24 bb 4a e6 2b bd fd 1f 30 bd 0e b8 79 3c
       -0.0025036715 -0.041967668 -0.042999256 0.015241636
000070 27 16 2a 3d 09 83 95 3d a3 12 97 bd cf 1e bd 3d
       0.041525032 0.073003836 -0.073766015 0.09234392
000080 50 4e 75 3d 64 b1 ec 3d c1 b0 31 bd 2f 8c 9f bd
       0.059889138 0.11557272 -0.043381456 -0.0779041
000090 2d 7b 98 bd ae 4d 9f bd e3 9f 8c 3b a0 2b 4f 3a
       -0.07445369 -0.07778488 0.004291521 0.0007902924
0000a0 8b f5 b0 3d 31 7c 3f bd 21 12 cb 3c de 67 ae 3c
       0.086405836 -0.046749298 0.024788918 0.021289762
0000b0 2e 18 a8 3d d4 10 54 bb 91 32 ae bd ee 44 f2 bc
       0.08207737 -0.0032358663 -0.085057385 -0.029573884
0000c0 91 45 a5 3d b8 0e 93 bd 6e d5 a4 bd 0c 0f 20 bd
       0.08069909 -0.07180542 -0.08048521 -0.03907685
0000d0 18 9a 0d bc 49 00 b4 bc 79 dd 5b bd d0 26 f0 bc
       -0.008642696 -0.021972792 -0.05367801 -0.029315382
0000e0 16 55 c5 3c c8 23 2c bd ee d3 9e 3c 33 54 b1 bd
       0.024088424 -0.04202631 0.019388165 -0.08658638
0000f0 0c 9a 81 bd 12 59 06 bd cf 01 b5 3c 97 4d 20 3d
       -0.0632821 -0.032799788 0.022095589 0.039136495
000100 da 7a c1 3d f3 c2 98 bd cc 8b 18 bd 2d 1f 46 3d
       0.0944726 -0.074590586 -0.037242696 0.048369575
000110 55 37 6e bd 2b 3f ac 3d d3 6c 8b bc ae 15 30 bd
       -0.058158237 0.08410486 -0.017019665 -0.042989425
000120 a8 c8 ab 3d 1c 0b 7d bd 40 64 28 bd 06 cb 11 3c
       0.083878815 -0.061778173 -0.04111123 0.008898502
000130 31 d2 c2 3d 63 0e b4 3d 11 ad 66 3d 7c 40 9c 3d
       0.09512747 0.087918065 0.056317393 0.07629487
000140 d6 69 96 bc 92 f7 a9 bd 95 30 2f bd 7d 0d e6 b9
       -0.018361013 -0.082991734 -0.04277094 -0.00043879068
000150 f3 4e c1 3b 34 c6 b7 3d 85 0f 29 bc ed b1 6b bc
       0.005899304 0.08973351 -0.010318642 -0.0143856825
000160 be a1 64 3d 44 7f 2b bd 10 a9 f9 bc ce fa 34 3c
       0.055818312 -0.041869417 -0.030476123 0.011046125
000170 24 eb cf 3d 6a 46 76 3d ef bb 44 bd 29 87 41 3d
       0.101522714 0.060125746 -0.04803079 0.04724804
000180 2b 50 44 3d bb 6e 4f bd 15 2d 90 3d a3 56 6e bc
       0.047928017 -0.05064271 0.07039849 -0.014547023
000190 5e c2 3a bd 7c 12 cf 3c 28 fe 5a 3b a4 c7 4f bd
       -0.04559552 0.025277369 0.003341565 -0.0507275
0001a0 01 75 8f 3d 09 20 be 3d a9 bd 14 bd 59 ec b4 3d
       0.070047386 0.09283454 -0.036313687 0.08834142
0001b0 7e c3 9b 3c 66 3e 36 3c ec 9d bf bc ce 05 47 bb
       0.019014116 0.011123275 -0.023390733 -0.003036845
0001c0 f0 d6 a7 b8 7b a4 95 bd 5c 07 1b 3d 5f 8e 6c 3b
       -8.003216e-05 -0.07306763 0.037848815 0.0036095602
0001d0 6e 24 47 3d 00 cc 94 39 71 36 bc bc 51 8a 00 3c
       0.048618726 0.00028380752 -0.022975178 0.007845477
0001e0 28 52 d1 bb e7 c9 90 3d 29 45 39 3d 69 42 56 bd
       -0.0063879676 0.0706976 0.045231972 -0.052309427
0001f0 35 22 68 3c 97 27 14 3c 6c 48 87 3d 67 77 dd 3c
       0.014168312 0.009042642 0.0660561 0.027034475
000200 82 96 af 3d 3a 67 1e 3d ac 8c 8d 3d dd 7e d5 3d
       0.08573629 0.038672663 0.06911597 0.10424588
000210 78 68 0a bd ec 35 b4 3c 25 43 2f bd 82 3d 9c 3d
       -0.033791035 0.021998368 -0.042788643 0.07628919
000220 79 34 98 bd ee fc 1e 3d b2 26 57 3d 92 bb 6c 3d
       -0.07431883 0.03881543 0.052527137 0.05779607
000230 41 f2 0a 3d 32 30 11 3b c6 8f 35 3d 1c f5 54 3d
       0.033922438 0.002215397 0.044326566 0.051991567
000240 88 00 0f bd 5c 49 05 3d b3 42 a6 3d f9 bb d3 bc
       -0.034912616 0.032540664 0.081181906 -0.025846468
000250 66 73 b5 bc 87 60 50 3d d3 72 8c 3d ee 58 b6 3d
       -0.022149753 0.050873306 0.068578385 0.08903681
000260 5a b7 3b bd de f6 b3 3b 44 17 cc 3d 42 c2 6f bb
       -0.045829155 0.0054920753 0.09965375 -0.0036584293
000270 38 56 35 bd 37 72 c6 3c 23 83 87 bd b2 3f 43 3d
       -0.044271678 0.024224384 -0.06616809 0.047668166
000280 0c ce 8b 3d 0c 82 4f 3c 68 34 5c 3d 2e cc 1c 3d
       0.0682641 0.012665283 0.053760916 0.03828066
000290 90 aa 8f bb 60 d8 93 3d 40 e1 0f 3d 01 c4 1b 3d
       -0.0043843463 0.07219005 0.035126925 0.03802872
0002a0 da 97 e6 3d 82 8d 98 bd b6 8e 4e bd 90 41 1a bd
       0.11259432 -0.074488655 -0.05042907 -0.03766018
0002b0 62 01 b1 3c 3f 07 f9 bb c0 3c ce ba 9b 35 05 bd
       0.021607105 -0.0075997408 -0.0015734658 -0.032521825
0002c0 f7 15 94 bd 16 a6 b0 ba 82 31 16 bc e8 6b 87 bd
       -0.07230752 -0.0013477232 -0.009167077 -0.06612378
0002d0 b9 87 80 3d 20 43 2a bd 06 8a b3 bb 93 23 52 bd
       0.06275887 -0.04156792 -0.0054791 -0.051303457
0002e0 85 bd aa 3d 2b 58 fb bc b1 f6 a9 3d 2b 1c f1 bc
       0.08336929 -0.03068169 0.08299006 -0.029432377
0002f0 c1 8c 30 bd 54 97 9f bd 75 08 52 3c 68 41 cd 3d
       -0.043102983 -0.077925354 0.012819399 0.10022241
000300 01 ce ee 3c 91 dd 20 bd 6e 8e a9 bd 9f c5 7f bd
       0.029150965 -0.039273802 -0.082791194 -0.062444326
000310 07 b4 c8 3c 73 a8 53 bd d8 f7 ea 3c fb e3 12 3d
       0.024499906 -0.051674318 0.028682634 0.03586195
000320 a5 c6 f4 39 74 5f 32 bd 3f 25 72 3d 09 e8 1c bd
       0.00046687308 -0.043548062 0.059117552 -0.038307223
000330 d3 d1 59 3d f2 b8 08 3c 4f be 2f bd 33 16 40 bd
       0.05317862 0.008344876 -0.0429061 -0.04689617
000340 d7 87 8e bd 62 ad 2f bd bc d3 51 bd 47 f2 93 bd
       -0.06959503 -0.04288996 -0.051227316 -0.07223945
000350 fd 40 f9 3c b2 9e 29 3d 96 b1 07 3d c6 eb 62 3c
       0.030426497 0.04141111 0.033128344 0.013850158
000360 03 95 94 3c bd 33 ca 3c ef bb f9 3c fe 9d 98 3b
       0.01813746 0.024682874 0.030485122 0.004657506
000370 28 b4 ab 3d db c6 8f bc 3a 2c 1c 3d 0d 6f 15 3d
       0.083839715 -0.017550876 0.038128115 0.03648286
000380 06 d9 a6 bc 6a 98 0f 3d 5a a4 89 3d ab 87 4f 3d
       -0.020367157 0.035057463 0.06720801 0.050666492
000390 5e 3a 30 3d 13 6f 98 3d 70 9a 50 3c e4 a0 a7 3d
       0.043024413 0.07443061 0.012732133 0.08184984
0003a0 a5 b8 c4 3d 0d 22 81 3d ec 00 52 3d 3c 9a 9e bd
       0.09605531 0.06305323 0.05127041 -0.077442616
0003b0 a6 86 9a 3d 5c 45 64 bd be cf e9 3d f3 d1 5d bc
       0.075452134 -0.05573021 0.11416577 -0.013538825
0003c0 75 d1 8d 3d a8 1a 46 3c b8 7a f0 bc 87 f2 99 bb
       0.069247164 0.012091316 -0.029355392 -0.004698101
0003d0 82 4d ca 3d 33 fc 15 bd 80 6e 92 3d aa e8 19 bd
       0.09878065 -0.03661747 0.071499825 -0.0375754
0003e0 c1 9e ab 3d ca a3 4d 3d 56 b1 b6 3d 74 b5 71 bd
       0.08379889 0.05020503 0.08920543 -0.059010938
0003f0 f1 63 c4 3b 75 78 03 3d a3 89 63 3d de 34 54 3d
       0.0059933593 0.0320973 0.055551182 0.05180823

μ.weight f4 [3, 256]
000000 e2 16 fe bc 51 02 96 bd be f4 54 bc 91 c2 95 3c
       -0.03101677 -0.073246606 -0.012997804 0.018281253
000010 f9 4a 33 3c 3e 6f 1f 3d 24 4a 84 3c 96 db ca 3c
       0.010943168 0.03892445 0.016148634 0.02476291
000020 ee 64 31 bd fd 4c 62 3d 93 d5 84 3d 1c ea 4f 3d
       -0.043309145 0.055249203 0.064860485 0.050760373
000030 a5 53 77 3d b0 bc d6 3c fa c7 fe 3c 2f 20 60 3d
       0.060382504 0.02621302 0.031101216 0.054718193
000040 f1 28 b2 bd 55 d9 5d 3d b6 73 28 bd e8 a8 2c bc
       -0.08699215 0.054162342 -0.041125976 -0.010538317
000050 9e fa b2 bc d7 e6 5c bc ae dc 25 3d fc 24 73 3d
       -0.02184802 -0.013482771 0.04049366 0.059361443
000060 ec df 3e bd 6c aa 89 3d 15 92 70 bd 24 c1 c3 bc
       -0.046600267 0.067219585 -0.058733065 -0.023895808
000070 64 d4 02 3c c1 3b 66 3d 2d 05 18 bd 61 13 a4 3b
       0.007985208 0.05620933 -0.03711431 0.005007193
000080 dd 1c ac 3c 85 3a 99 3c fc 0b 6c bd d4 22 75 bd
       0.021009857 0.018704662 -0.057628617 -0.059847668
000090 a6 d7 3b 3d 2c 41 14 3c 05 3a c3 bc eb 37 cc 3c
       0.045859955 0.009048741 -0.023831377 0.024929008
0000a0 0f 24 05 bd d7 ad 97 bc da 93 6c bd 1e ea a4 bb
       -0.03250509 -0.01851551 -0.05775819 -0.0050327918
0000b0 df ec 05 bd bd 23 ab 3b dc 96 e4 3c e9 49 00 bd
       -0.0326966 0.005222766 0.027903967 -0.031320486
0000c0 ee 07 3f 3c 82 a2 87 bb 61 6a 42 bd 7e e5 95 bb
       0.011659605 -0.0041392455 -0.047464732 -0.0045744767
0000d0 17 2e 59 bd 5f b1 89 3c dd 18 b1 bc d1 39 9d bc
       -0.05302247 0.01680821 -0.021618301 -0.019192608
0000e0 30 20 fc bc fb 73 95 bb a1 c4 0e bb 3b 49 a9 3d
       -0.030777067 -0.004560945 -0.002178468 0.08265921
0000f0 07 7b 09 bd b4 59 02 bd 17 4e 07 bd 2d b8 45 bd
       -0.033564594 -0.03182383 -0.033033457 -0.048271347
000100 9f b7 e7 3c 3c fa c6 3c 39 6d 4e bc cf 95 6e 3d
       0.0282858 0.024289243 -0.012599283 0.058248337
000110 61 50 5c bd 7b 64 86 3d 52 61 10 3d b3 cc 91 3d
       -0.053787593 0.06562134 0.035249062 0.071191214
000120 c9 64 f6 3b 07 d5 10 bd 08 ce 50 bd 0b 08 8b 3b
       0.0075193387 -0.03535941 -0.050977737 0.004242902
000130 c9 10 af bc c3 c1 5a 3a ea 02 42 3d a6 3f 75 3d
       -0.021370308 0.0008344913 0.04736606 0.059875153
000140 68 4f 91 3d 6a 9a 25 3d 9c 08 33 3c da ea db bc
       0.07095224 0.040430464 0.010927346 -0.026845384
000150 e2 c1 ca 3b bc 38 2b bd a7 32 53 3d 42 73 62 bd
       0.0061876634 -0.041802153 0.051561978 -0.0552857
000160 60 fb df bc 46 9d 20 bd 40 ea 3a bd 2b be 7d 3c
       -0.027341545 -0.039212488 -0.045633554 0.015487234
000170 53 f9 a9 bb 96 a7 19 3d cc 00 35 3c 4c b4 81 bd
       -0.0051871925 0.037513338 0.011047553 -0.06333217
000180 fa 43 7e bd 46 a4 be 3c c4 f0 a8 bc b1 ca 61 bc
       -0.062076546 0.023271691 -0.020622618 -0.013781236
000190 14 5c 17 bc e4 79 17 bd bf 30 4c bd 6a bb b4 bc
       -0.009238262 -0.03698148 -0.049851175 -0.022062022
0001a0 69 76 3c 3c 67 57 91 3c 31 a3 33 bd 65 eb d8 bc
       0.011502841 0.017741872 -0.043856803 -0.026479432
0001b0 d8 46 5d bc a7 12 f5 bc 18 6d 0e 3c da 3a b7 bc
       -0.01350566 -0.02991612 0.008693002 -0.02236693
0001c0 31 c0 03 bd d3 b3 9d bc f1 02 bc 3c e0 e5 9e bb
       -0.03216571 -0.019250786 0.022950621 -0.0048491806
0001d0 00 f8 55 bd 9c cc af 3c 97 98 25 3d 60 4a 8c 3c
       -0.052238464 0.02145987 0.040428724 0.017125309
0001e0 13 8a 65 3d ce 71 00 3b ee 47 8c 3d 79 c2 83 bd
       0.05603988 0.0019599083 0.06849657 -0.06433577
0001f0 70 e8 ed bc 1a 1e 20 bd 2d bd 6e bc 86 5c de 3c
       -0.029041499 -0.039091207 -0.01457147 0.027143728
000200 b5 56 37 3d a9 6a b3 3d b0 04 48 bb 4d 02 68 bd
       0.044760425 0.08760578 -0.0030520372 -0.05664282
000210 6d 79 39 3d 22 21 0f 3d 5f ab 1c bd f0 13 f3 bc
       0.045281816 0.034943707 -0.03824937 -0.029672593
000220 bc 3e 22 3d 5f e3 27 bd 99 8f a0 3d 0d 2d 2a bd
       0.03961061 -0.040988322 0.07839889 -0.04154687
000230 54 49 e8 bc 4d 84 30 bd 11 80 d4 3a 52 0f 28 bd
       -0.028355278 -0.04309492 0.0016212483 -0.041030236
000240 d7 95 12 3d b4 7e 5c bd 91 63 1b bd 7f 4a 01 bc
       0.03578743 -0.05383177 -0.03793675 -0.007891296
000250 0d b3 2e bd 56 a4 3d 3d f7 f9 62 bd 64 ef 77 3c
       -0.042651225 0.0462993 -0.055414166 0.015132759
000260 62 cc 53 bc 9b ba 68 bd 9e bb 6e bd 7f e0 06 3d
       -0.012927147 -0.056818586 -0.058284394 0.03292894
000270 88 de 92 3b 69 f5 6d 3d de e4 3c 3d 65 fd 38 bd
       0.004482094 0.05809537 0.046116702 -0.04516353
000280 bd c5 10 bd 33 b4 1b 3d 01 0e 45 bd 0a eb 3f 3d
       -0.035344828 0.03801365 -0.04810906 0.04685501
000290 10 bd 48 bd 48 b4 20 3d f4 ee fd 3c a9 f5 09 bd
       -0.04900843 0.03923443 0.03099773 -0.033681545
0002a0 14 1d 17 bc 4a bc b8 ba d4 b0 65 bd 30 9e 5e bd
       -0.009223241 -0.00140942 -0.05607684 -0.054350078
0002b0 c0 cd 12 3c ba e5 e8 bc 9e 50 0c bd b1 f3 9b bc
       0.008960187 -0.028429855 -0.03425657 -0.0190371
0002c0 60 8b 72 3d 4b bd 69 3d 43 05 52 3d d5 77 3f bb
       0.05921495 0.05706529 0.05127455 -0.0029215713
0002d0 82 de 37 bd f9 40 43 bc 6e f7 6c bd a2 c5 78 bd
       -0.044889934 -0.011917346 -0.057853155 -0.060735352
0002e0 0c cf 6e 3c 9c eb b8 3b 4e bc e1 bc 5a 84 86 3a
       0.014575731 0.005643321 -0.027555611 0.0010262833
0002f0 53 a1 31 3d 55 fa 8d 3b 5e 13 91 3d 15 f3 0d 3c
       0.04336674 0.0043328204 0.07083772 0.008663912
000300 45 dd 2f 3c 70 1b 9b bc c0 56 2e 3c 6e ea 4a 3d
       0.010733907 -0.018933982 0.0106408 0.049539976
000310 25 22 6f bd 3f 63 3e 3c 4c a3 9b 3c fe 33 31 bc
       -0.058382172 0.011620342 0.018998764 -0.010815619
000320 53 5b 73 bc b0 2a 6f bc 1a 40 d2 bc 3e dd 41 bd
       -0.014853316 -0.01459758 -0.025665332 -0.047330134
000330 80 7e a3 bc c0 ed da 3c 8e 90 55 bd 15 1f 13 3d
       -0.01995778 0.026724696 -0.05213981 0.035918314
000340 da 45 8e 3d f2 15 83 3d cc 44 6d bd c7 e0 db bc
       0.06946917 0.0640067 -0.057926938 -0.02684058
000350 57 54 ca bc d0 24 75 3d 0d dd 13 bd 00 b2 37 3d
       -0.02469842 0.05984956 -0.036099482 0.04484749
000360 76 bd 11 bd 0c c2 57 bd 40 84 a6 38 75 7f 32 3d
       -0.035581075 -0.052675292 7.94013e-05 0.043578584
000370 a3 3d 79 3c 07 d3 ac bc 4f 64 e7 3c 05 69 49 bd
       0.015212449 -0.02109672 0.028246073 -0.04917242
000380 89 04 d2 3c 3d 8a 3b bd 7c cb b8 3c 8f 99 3a bd
       0.025636928 -0.04578613 0.022557966 -0.0455566
000390 90 22 63 bd 07 4f 78 bd a3 72 49 3d 29 e9 17 bd
       -0.055452883 -0.06062224 0.04918159 -0.037087593
0003a0 5c 16 ff bc 45 85 37 bd 66 d2 e2 3c 76 39 47 3d
       -0.031138591 -0.04480483 0.027688216 0.048638783
0003b0 3a 96 b6 3c cd 1f e9 3c 81 3b 95 bc ab 80 3b 3d
       0.02228843 0.028457547 -0.01821685 0.045777004
0003c0 d8 be 23 bd c0 bb 22 bd 5c ce 15 bc 3e e2 86 3d
       -0.039976925 -0.039729834 -0.009143438 0.06586121
0003d0 89 36 72 bd 5a fa 1e bc 1b 84 32 bc ce ea 49 3d
       -0.05913404 -0.009703243 -0.010895754 0.049296193
0003e0 df 15 3f 3d 42 d5 28 bc f3 4b d1 bc 30 a5 d9 bc
       0.046651717 -0.010304751 -0.02554891 -0.026568025
0003f0 e0 dc b5 3c 49 e1 41 3d 02 6f 3c bb 0b 49 d3 bc
       0.022200048 0.04733399 -0.002875269 -0.025791666

μ.bias f4 [3]
000000 06 64 86 3c 99 f9 5a bd 2b b8 5e bd
       0.016405117 -0.05346069 -0.054374855

σ.weight f4 [3, 256]
000000 ab f5 71 bd ca 97 73 bd 0d 02 20 3d b7 af ee bb
       -0.059072178 -0.05947093 0.039064456 -0.0072841304
000010 c6 85 81 bc ce 68 c8 bc 90 98 79 bc fd 22 9b bd
       -0.015810858 -0.024464037 -0.015234128 -0.07575033
000020 b9 9c dc bb 3d c9 b9 3c 8c c1 d5 bc 79 82 82 3c
       -0.00673255 0.022678966 -0.026093267 0.015931355
000030 6f 6d 9c bd f0 e4 2b 3c a9 16 46 3c 0b 2b 97 3b
       -0.0763806 0.010491595 0.012090364 0.0046132854
000040 41 7b 8b 3d a5 bc 9c bd b8 df 78 3d 4f ca 13 3d
       0.06810618 -0.076531686 0.06076023 0.03608161
000050 d9 22 27 bd 9f e0 62 3c c9 8f 1d 3c 1f 43 99 3b
       -0.040804718 0.013847499 0.009616801 0.004677191
000060 cb 14 9d bd ab a2 5e bd f0 42 6c 3d 7a df 6c 3b
       -0.076699816 -0.05435435 0.057681024 0.0036143945
000070 85 db f4 3b fd 1b 75 bd 5e 8f b5 3c 20 39 76 3b
       0.007472458 -0.059841145 0.02216309 0.003757067
000080 c1 28 cc bc b9 a2 c0 bd a8 79 5b 3d d2 d4 8c 3c
       -0.024921777 -0.09406037 0.053582817 0.017191324
000090 36 cd 61 bd 19 e9 0a 3d 24 08 98 bd c7 4d 6c bd
       -0.055127345 0.033913705 -0.07423428 -0.05769136
0000a0 5b e6 99 3c a2 66 aa 3b 03 69 e0 bb eb df 16 3d
       0.0187866 0.005200223 -0.006848456 0.03683464
0000b0 ac b2 a0 bb 2d 16 79 3d 30 cf db bc 59 0c b5 bd
       -0.004904112 0.060812164 -0.026832193 -0.08840246
0000c0 ab 8d 11 3d 2a bc 1a bc ec 72 68 bd d8 34 25 3c
       0.035535496 -0.009444276 -0.056750223 0.0100834
0000d0 20 ae 06 3d d0 fb 67 bd 97 87 80 bd 7d 35 96 bc
       0.032880902 -0.05663663 -0.06275862 -0.018336052
0000e0 d5 ce bd bc 29 b7 8c bd 30 a2 b4 bd dc fc af 3c
       -0.023169914 -0.068708725 -0.08819997 0.021482877
0000f0 98 89 6c bd 53 ea a9 bc c9 76 aa bd 7f 24 ad bd
       -0.057748407 -0.020741617 -0.08323438 -0.08454227
000100 4e 2b 16 3d 7b 20 f3 3b 37 5d b1 bc 29 4b a9 3c
       0.036662392 0.0074196435 -0.021650894 0.020665722
000110 dc ee 86 bd d9 52 ad bc c8 79 fc 3c 50 49 83 bd
       -0.065885276 -0.021157669 0.030819789 -0.064104676
000120 4d 2e 7b bd f7 21 eb 3b 8a 5d e4 bc 7f ac 64 3d
       -0.061323453 0.00717568 -0.027876634 0.055828568
000130 8d d1 85 bc f5 dd c4 39 90 30 95 3b 45 f2 83 bd
       -0.016335273 0.00037549404 0.0045529082 -0.064426936
000140 9c e0 3f bd 89 7c 86 3d eb 6d 01 bd eb a8 65 3c
       -0.046845064 0.06566722 -0.031598967 0.014017324
000150 11 2c bb 3c 6f dd d0 bc c9 8d 60 3d e2 63 0d 3c
       0.022848161 -0.025496213 0.054822717 0.008629771
000160 90 cb 2c bc d0 f4 41 3c 9a 88 f8 bc d9 56 2c bd
       -0.01054658 0.011838153 -0.030338574 -0.042075012
000170 d3 6b a4 bd 0a c5 62 bd 25 aa 3f 3d 90 c8 2d 3c
       -0.08028378 -0.055363692 0.04679312 0.0106069
000180 37 ff ae bd a0 3e 00 3d 9d ef 02 bc 01 c1 85 bd
       -0.08544772 0.031309724 -0.007991699 -0.06530953
000190 d4 0d bf bc 10 ee 78 3c 2e c8 54 bd d3 1b 00 3d
       -0.023322023 0.015193477 -0.05194872 0.031276535
0001a0 5b 7b a0 3c 68 7a 96 bd 35 75 79 bd b8 61 d4 3b
       0.01959007 -0.07347566 -0.060902793 0.0064813755
0001b0 6c 4b 0a bd 53 ce 1b 3d b8 1c 7b 3d 6f d7 74 bc
       -0.033763334 0.038038563 0.061306685 -0.0149439415
0001c0 f4 ea e6 bb 64 8e a8 bd 0c ab be bc 16 16 8e bd
       -0.0070470516 -0.08230284 -0.02327492 -0.06937806
0001d0 d0 67 8f bb 20 8b d3 bb 6f af 47 3d 2c 99 46 bc
       -0.004376389 -0.006455794 0.04875129 -0.01212148
0001e0 a5 5d 29 3d 92 c2 36 3d f5 da e8 3c 19 12 5b bd
       0.041349072 0.04461915 0.02842472 -0.053484056
0001f0 65 bc c8 bd 04 bb 13 3d 74 1b 4e 3c c2 2d 65 3b
       -0.098015584 0.036067024 0.0125797875 0.00349699
000200 b0 49 0f bd 7a 64 3a 3d 4e 0d a3 3c dd e2 ab bd
       -0.034982383 0.04550598 0.019903805 -0.0839288
000210 76 91 22 bd 10 2a 67 bd 2d 99 2b bc ad 5c 52 3c
       -0.039689504 -0.0564366 -0.010473532 0.012839478
000220 88 ff 29 bd 5a aa a4 bb 74 c4 64 bd 47 45 d6 3c
       -0.04150346 -0.0050251903 -0.055851415 0.02615608
000230 2e 6c 58 bd bf 8f 41 bd 05 d3 bc bc 0d 73 ce 3c
       -0.052837543 -0.047256228 -0.02304984 0.025201345
000240 27 dd 3d bd cd 85 fd 3c 3c d3 e2 bc 42 30 0b bd
       -0.046353485 0.03094759 -0.027688615 -0.03398157
000250 02 4e bd bd 52 ee 8b b8 4c 99 57 bd 68 50 3e bd
       -0.092433944 -6.672427e-05 -0.05263643 -0.0464634
000260 fc 00 46 3c 55 e7 eb 3c 1a d3 1b bd 64 5a 9b bc
       0.012085196 0.028796831 -0.03804312 -0.018964
000270 cb 0b cc bc 11 2f 87 bd d7 bf 56 3d 94 2e 1e bd
       -0.024907967 -0.06600774 0.052429046 -0.03861864
000280 db fc 42 bd c3 fe 64 3d 77 c5 87 3c ef 25 e3 bc
       -0.047604423 0.055907022 0.01657365 -0.02772805
000290 40 1f 68 bd 78 54 a9 3c 80 cb 95 bd b4 0d 6f bd
       -0.056670427 0.02067016 -0.07314205 -0.058362678
0002a0 99 b7 66 bd b7 1b 93 bc 04 c3 6b 3d a0 ff f0 bc
       -0.056327436 -0.017957551 0.05755903 -0.029418766
0002b0 1c 1f 69 3d 08 45 fd bc 50 9f 04 bc 2c aa 60 bd
       0.056914434 -0.030916706 -0.008094624 -0.05484979
0002c0 20 5c 78 bb d7 9b 41 3d 01 e5 b6 bd 0f fe 9b bc
       -0.0037896708 0.04726776 -0.08930398 -0.019042043
0002d0 de 34 06 bd de ee e4 bb 9e 05 76 bd 0f 2f 97 bd
       -0.03276526 -0.006986483 -0.06006395 -0.073820226
0002e0 58 a5 45 3d e9 60 31 bd 06 2a 74 bd 56 c1 a4 3c
       0.048253387 -0.04330531 -0.05961039 0.020111721
0002f0 90 7c 25 bd c1 b5 24 3c 9d ba 14 ba 4a b9 a2 bd
       -0.040401995 0.010053099 -0.00056735595 -0.07945497
000300 8d 90 1e 3b 59 ec f5 bb c2 a9 40 bd 63 bd 51 bd
       0.0024195046 -0.0075049815 -0.047036894 -0.051206004
000310 d6 c2 b8 bc e2 a6 ad 3c 6b 78 a1 bc da ba 0d 3d
       -0.022553843 0.02119774 -0.01971074 0.034602024
000320 57 a7 f9 3b 24 6f c4 bc 6a 4d 6c 3b f8 e9 4b bd
       0.0076188254 -0.023978777 0.0036056885 -0.049783677
000330 cc 47 d1 3c a5 d5 a1 bd 40 15 8c 3a f0 2d 9a bc
       0.02554693 -0.079020776 0.0010687485 -0.018820733
000340 47 22 19 bd b5 ac 73 bd e7 b1 41 bb c8 ab 87 bd
       -0.037386205 -0.059490878 -0.00295555 -0.066245615
000350 f0 0d 4c bc 53 3c f1 bc 64 23 07 bd 1d d1 d1 3c
       -0.012454495 -0.02944771 -0.032992736 0.025612408
000360 85 a9 b7 3b c0 af 80 3d ee 04 0e bd cc b4 0a 3c
       0.005604925 0.06283522 -0.03467267 0.008465957
000370 c9 56 b2 bc 2c 82 61 bd 5d 3c 64 bd c7 f0 dc bc
       -0.021769898 -0.055055782 -0.05572163 -0.02697028
000380 1a 7b 01 bd 58 60 33 bd df 3c 2d bd b9 4f 0c bc
       -0.03161154 -0.043793052 -0.04229438 -0.008563929
000390 c8 d1 b0 bd 44 b8 48 3d 4c ad 78 bd db 4d 17 bd
       -0.086337626 0.049003854 -0.060712144 -0.036939483
0003a0 07 20 af bd cb b0 ae bd 3a ae 8e bc 4c 16 69 3b
       -0.085510306 -0.08529814 -0.017417062 0.0035566268
0003b0 2a ad 04 bd 43 50 3e bd 51 e8 a5 bd 5d 1f 71 bd
       -0.032391705 -0.046463262 -0.081009515 -0.0588678
0003c0 08 a7 91 bc 6a 46 4a bd 89 da 8d bd 94 8a ac bd
       -0.017779842 -0.04938356 -0.06926448 -0.08424869
0003d0 30 39 82 bd 4f c9 60 bb 90 d1 bc 3c c0 58 40 3d
       -0.06358564 -0.0034299677 0.023049146 0.04695964
0003e0 f6 19 c2 3b c8 3f 33 bc 4c de 4c bd e4 e1 95 bc
       0.005923505 -0.0109405 -0.050016686 -0.01829619
0003f0 0f 00 7e bd 04 6e 58 bd 31 f4 6b bd d5 bd af bd
       -0.062011775 -0.052839294 -0.057605926 -0.085811295

σ.bias f4 [3]
000000 97 ef 02 3c 9a 74 c9 3b 8e e4 e4 3c
       0.007991693 0.006147933 0.027941015
