model/p_no31.pth (torch, 148600 bytes, 8 tensors)

net.0.weight f4 [128, 18]
00000000: 808a 763e 0c07 c9bd 6e88 53be a5dd 41be
00000010: 5059 bfbd 609e bb3d 2864 1d3e 9c35 cdbd
00000020: 21f4 4bbe 9939 24be 2c66 013d eaa3 2e3e
00000030: 9677 0f3e 96e0 173e 0bd2 1a3e 2dd0 613d
00000040: 66b0 07be cacb 2b3e 876a 06be cee9 61bd
00000050: 5eaa a2bd bfe9 91bd 1c31 50be 77e6 48bd
00000060: 6ba8 3e3e 01a8 033e fc63 d8bc 35f8 333d
00000070: 9a44 b4bd 7758 4e3e 3a38 3a3e 63d1 88bd
00000080: ee22 63be aa73 793d 302a 95bc abf0 8d3d
00000090: 3ddf 773e de39 29be eff8 653a db97 563e
000000a0: 87ff 233e 859f 29bc be63 143e 2f98 07bd
000000b0: ebd2 b53c 9c10 433d 9153 59be fdc1 fcbd
000000c0: 69fa 31be 43f7 04be c8c1 ed3d 86f4 5abe
000000d0: e38e 4e3e 8e85 73bd 14f8 8fbd 4181 09be
000000e0: b362 fb3d 89e4 123d 53bf 6bbe 201a 57be
000000f0: f413 363d f8cd f93d f52c 5abe 5ea6 60be
00000100: ed53 71be 8e97 433d 4e24 d1bd 6584 313e
00000110: b80f 2cbe dfda 58be c7c2 2e3e 030b 293e
00000120: 83a1 55be fa61 10bd 2a4c 64ba 1bb3 993d
00000130: 2fb2 463d 4cb1 483e 3614 dd3c 2217 fbbd
00000140: 895d 5ebe 5f91 10be fe40 6c3e fe75 6fbe
00000150: 1eb0 b13d 18fa d4bd 4fbb a1bc 63dd 4a3e
00000160: d4e7 333d 4575 99bd 3ae2 eb3d 1008 fa3d
00000170: 0b96 1d3e 3ad3 d4bb b158 8abd 2594 0fbe
00000180: 02df 60be 7437 2f3d 2332 58be ccd4 473e
00000190: 25df cabc ef04 66be a929 823d 2196 cd3d
000001a0: d02a 66bb 52a3 433e 45fe 653e 812e 883d
000001b0: 4196 e9bd bbb9 4b3e a5f5 373e fc89 653d
000001c0: c83f 32be 92b7 923d dedb 973d 008b 1bbb
000001d0: 6c3b 95bd 2cbf 6ebe e3d7 0e3e 2afc 89bd
000001e0: cf60 5b3e c8a0 9e3c cef3 e83d f630 a33d
000001f0: 81fa 37be 10c5 bbbd a4df 473d 6089 bfbd
00000200: 89e2 8c3d 2d63 463e 0916 32be 7a5d d23c
00000210: b0a4 e7bd 814c 0abe 2dd3 1ebe 38ef 533d
00000220: ef6d 75be 3099 e63d eaf8 85bc 4559 22be
00000230: 9f7e 5fbe d043 75bd 72c6 993c 517b 27be
00000240: 7567 0f3d 88e3 8b3d 32dc dc3d 89c4 72be
00000250: 1fb8 933d 5d92 6abe 4253 49bd 152b 50be
00000260: 2f7e 8b3b 72ac 4b3d c4c6 4e3e db60 a0bd
00000270: 634f f8bc 40d2 4d3d 433c fb3d ac7d 4ebe
00000280: 66cd 31bc 937d abbd 74a4 31be ff32 9f3d
00000290: bd8a ab3d 17a0 003e a8ef ec3d 0df8 c0bd
000002a0: 676a 5bbe 5f51 44be 5e26 d3bd 6eba 73bc
000002b0: bf02 573c bda9 393d 1602 2f3e 2248 4abe
000002c0: 4420 39bc 43e9 61be 38b6 b9bd 6f6c aabd
000002d0: ac6c 33bc f5ce ebbd 7646 2ebe ceca 3d3e
000002e0: a3ba 2fbe 69d2 613e 68e3 f53c 15be 51bd
000002f0: ba19 35be a437 67be f973 17bc 42db 23be
00000300: 5a44 843c eb40 dbbd a64b 51be cdb0 573e
00000310: 2d39 343e 1286 72be dc3a cabd 73da 54be
00000320: b8fa f63d 45de 613e 9418 9d3d 7e9d 22be
00000330: 6c8e 033d dd94 0c3e 12d0 5b3e 6123 dabd
00000340: 04b1 173e 1bb0 5b3d ad41 89bc 43f2 113e
00000350: 70d5 73bd e377 d73d 198f 813d b0a3 563e
00000360: 3524 d7b9 30ff 3cbe 1518 f7bd 1872 4a3e
00000370: 799f c3bc ec21 2f3d 4290 3a3e 3b3f e7bd
00000380: bdf4 88be 1f78 3ebe 3c61 32be 6bed 9c3c
00000390: aabc 0cbd 1341 1a3d 8da7 4abd 5044 1e3e
000003a0: e071 443e 4c01 b73d 06e1 b53d 633b b7bd
000003b0: 5dd3 c4bd 768f 30be bd18 293e f4cb 21be
000003c0: bc9b 0d3d 2467 f5bb ce18 323e debc 6ebe
000003d0: 7959 c13d f706 30bc 3b45 1e3e fc16 f93d
000003e0: 6703 fdbd 75c7 7dbd 10db 54be fde4 5ebd
000003f0: c1d2 f03d 4919 8f3d 15cd fdbd 5f91 51be
0.24076271 -0.09815797 -0.20657513 -0.18932207 -0.09343207 0.09161067 0.15370238 -0.10019991
-0.19917347 -0.16037597 0.03159158 0.17054716 0.14010462 0.14831766 0.15119188 0.055130173
-0.13250884 0.16776958 -0.13126574 -0.055154614 -0.07942651 -0.07124662 -0.20331234 -0.049047913
0.18618934 0.12857057 -0.026414864 0.04393788 -0.08802147 0.20150934 0.18185511 -0.06680562
-0.22181293 0.06090132 -0.018208593 0.069306694 0.24206252 -0.16525981 0.0008772751 0.20956366
0.16015445 -0.010352974 0.14491174 -0.033104118 0.0221953 0.04762326 -0.21223284 -0.12341688
-0.1738068 -0.12984948 0.116092265 -0.21382341 0.20171694 -0.05945354 -0.07029739 -0.13428213
0.12274685 0.03586248 -0.23022203 -0.2100606 0.044452623 0.121974885 -0.21306212 -0.21938464
-0.23567171 0.047751956 -0.10212003 0.17335661 -0.16802871 -0.21177243 0.17066489 0.16508107
-0.20862393 -0.035249688 -0.0008708859 0.07504865 0.048509773 0.19598883 0.026987176 -0.122602716
-0.21715368 -0.14117955 0.23071668 -0.23384854 0.0867617 -0.10399264 -0.019742636 0.19811015
0.04392226 -0.074930705 0.11517759 0.12208569 0.15389268 -0.0064949067 -0.06755198 -0.14021356
-0.2196007 0.042777494 -0.21112876 0.1951477 -0.024764607 -0.2246282 0.06355602 0.100384004
-0.0035120733 0.1910527 0.22460277 0.06649495 -0.11405612 0.1989507 0.179648 0.056039795
-0.17407143 0.071639195 0.07414983 -0.0023733974 -0.072867244 -0.23315114 0.13949542 -0.067375496
0.21423648 0.019363776 0.11374627 0.07968323 -0.17966653 -0.09168446 0.048797265 -0.09352374
0.06879146 0.1937377 -0.17391218 0.025679339 -0.113107085 -0.13505746 -0.15510245 0.05174181
-0.23967718 0.11259687 -0.016354043 -0.15854366 -0.21825646 -0.059879124 0.018771384 -0.16355635
0.035010774 0.068305075 0.107841864 -0.23707785 0.07212853 -0.22907396 -0.049151666 -0.20328934
0.0042569856 0.049725004 0.2019301 -0.07830974 -0.030311292 0.05024934 0.122673534 -0.20165128
-0.010852193 -0.08373561 -0.1734789 0.077733986 0.083760716 0.1256107 0.11569148 -0.09422312
-0.21427308 -0.19171666 -0.10310052 -0.014875991 0.013123213 0.04532789 0.1709064 -0.19754079
-0.011299197 -0.22061639 -0.090679586 -0.08321463 -0.010951202 -0.11514083 -0.17019066 0.18534395
-0.1716104 0.22052921 0.030015662 -0.051206667 -0.17685595 -0.22579819 -0.009243959 -0.16001609
0.016145874 -0.107057415 -0.20439014 0.21063538 0.17599936 -0.23683956 -0.09874508 -0.20786457
0.120595396 0.22057445 0.076707035 -0.15880391 0.032118246 0.13728662 0.21466091 -0.10651279
0.1481362 0.053634744 -0.01675495 0.14252572 -0.05952972 0.105209135 0.06326122 0.2096088
-0.00041034972 -0.18456721 -0.1206514 0.19770086 -0.023879753 0.04275696 0.18219092 -0.11291357
-0.2674922 -0.1860051 -0.17419904 0.019156178 -0.03435961 0.037659716 -0.049476195 0.15455747
0.19184065 0.08935794 0.088808104 -0.08946874 -0.09610627 -0.17242226 0.16513343 -0.15800458
0.034572348 -0.007489102 0.17392275 -0.23314235 0.09440894 -0.010743848 0.15456097 0.12162587
-0.123541646 -0.061957795 -0.2078669 -0.0544176 0.11758948 0.06987245 -0.12392632 -0.20465611

net.0.bias f4 [128]
00000000: 3148 1d3e 5937 2f3b d5db bfbd e5b8 c83d
00000010: 6f3c 4e3e fe18 ea3c 8c47 213d 3f1c 0e3e
00000020: a5eb bbbd 6998 c93c 05f8 78be a37b f9bc
00000030: 7fa4 0c3d cba8 623e 9778 933c 1670 4a3e
00000040: e97d 193e 9186 463e bf4d ffbd 3b1a e33c
00000050: 76e0 053e 0907 6c3e fe02 1ebe 9271 723c
00000060: df76 1ebe 7219 06be 8175 1abc d2de 95bc
00000070: ceb6 57be b01d 563e edac 36be 0e64 c83d
00000080: e6e7 e93d cdf0 2cbe 5c12 3f3e 1423 54bd
00000090: fcfe 6e3e 2dee 61bd 9cdf d93c 03ab 17be
000000a0: 48e2 253e 1145 993d af99 debc 0354 dd3d
000000b0: 7cb6 b9bb aadf ee3d 1e67 2f3e 10e4 6fbe
000000c0: 5a3f c53d 6a79 173e 22f3 c73c 905a 48be
000000d0: d172 5fbe 0553 5b3d a14f 9b3d 6f7c 0c3e
000000e0: 300c 393e 9f33 463e 5a7b 15be 3d93 03be
000000f0: 0fa4 733d c02a 22be f60b e3bd f337 34be
00000100: ffcb 4cbd a6f2 5d3e efc2 1c3c 793c edbd
00000110: fa3e 813e eb55 8bbc a614 1e3e 931b 0b3e
00000120: 0099 4dbe a8a6 d63d 22d6 823d 1a80 953c
00000130: ea0a 703e 709e 3bbe a874 073d e048 a0bd
00000140: b8c0 b53d d919 03bd 2aa0 50be cc28 273e
00000150: bc36 f93d 9647 b5bd d450 343e b553 603e
00000160: dfb3 da3d f729 4f3e 4959 8e3d c6fd 1f3e
00000170: 6517 29be 27d4 fbbd ddf5 803e cb43 623e
00000180: 7c9a 0cbe 0342 0dbe 6fa5 583e e0b2 323e
00000190: 93dc d3bd e0fb 553e f0b5 1c3d 8b29 fe3c
000001a0: 0703 273e a33d 6b3e f0f0 08be a355 92bd
000001b0: ef64 bd3d 423a 0ebe 95b7 573e 2691 fb3d
000001c0: 5849 a8bd cce1 45bd b314 573e 41d2 28bd
000001d0: 79b3 b8bd 3c7d 02be dda4 22be 20af 3abe
000001e0: 2c67 a93c b3e3 f4bd 5865 d3bd 1b86 0abc
000001f0: e47a ae3d 3c18 443e 52fe 4ebd 239f 1c3c
0.1535957 0.002673587 -0.093681015 0.09800891 0.20140241 0.02857637 0.039374873 0.13877963
-0.09175805 0.024608808 -0.24313362 -0.030454462 0.034336563 0.22134702 0.018001838 0.1976932
0.14989437 0.1938727 -0.12466001 0.027722469 0.13073906 0.23049559 -0.15430829 0.014797585
-0.15475033 -0.13095644 -0.009427429 -0.018294726 -0.21065828 0.20909762 -0.17839403 0.09784709
0.11421184 -0.16888733 0.18659347 -0.051791266 0.23339456 -0.055158783 0.026595883 -0.1481133
0.161996 0.074838765 -0.027172891 0.108070396 -0.005667506 0.11663754 0.1712918 -0.23426843
0.09631224 0.1479241 0.024407927 -0.19565797 -0.21821143 0.05354597 0.075835474 0.13719343
0.18071055 0.1935563 -0.14597836 -0.12849136 0.05948263 -0.1583662 -0.11086266 -0.17599468
-0.049999233 0.21674594 0.00956796 -0.115838 0.2524336 -0.017008742 0.15437564 0.13584737
-0.20077896 0.10481006 0.06388499 0.01824956 0.23441663 -0.18322158 0.033070236 -0.078264
0.08874649 -0.032007072 -0.20373598 0.16324157 0.12168643 -0.088515446 0.17608958 0.21906932
0.10678839 0.20230852 0.069506235 0.1562415 -0.1651283 -0.12296324 0.2518758 0.22096173
-0.13730806 -0.13794713 0.21156858 0.17451048 -0.103448056 0.20896864 0.038259447 0.031025669
0.16309749 0.22972731 -0.1337316 -0.0714524 0.09247767 -0.13889411 0.21066125 0.12283544
-0.08217114 -0.04831104 0.2100399 -0.04121614 -0.09018607 -0.12743086 -0.15883203 -0.18230867
0.020679079 -0.11957493 -0.10322064 -0.008454825 0.08519533 0.1914987 -0.050535508 0.0095594255

net.2.weight f4 [256, 128]
00000000: 5e2c d13d 35ff a1bd db5d cd3c 8110 6bbd
00000010: 801e d1bc d4d3 883d 25d5 813d d5bf 84bd
00000020: 7780 033d 3505 ab3d 4901 48bd 8972 a4bd
00000030: 17c7 323c 1994 cebd f3f0 9d3d 96ad 103c
00000040: 6ea5 c6bd abc1 493d 6e95 12bd eac7 8b3d
00000050: 4d9b 42bd 0e0c 9dbd 9601 1b3d bfd2 b93c
00000060: 8211 8bbd c605 5d3d a361 71bd 9686 26bd
00000070: db88 b13d 4f3a de3b 60e9 e8bb 9e08 89bc
00000080: 5fe2 643c f40b 7c3b a263 6dbd 8914 38bd
00000090: d265 88bd 5141 c73c 14e2 70bd fc59 49bd
000000a0: 9a44 5e3d c708 803d 20ac e6bb 17b4 1c3d
000000b0: ea4c 533d 8e92 0c3d 0dff ccbc 4d23 a3bc
000000c0: ee34 c8bc eb28 c23d e2d7 6f3d 59f6 3ebd
000000d0: b088 cbbc 907e 903d fbb6 a13d d7db b6bd
000000e0: 3062 f4bc c334 18bd 44ec 27bd 895c ebbd
000000f0: f921 31bd fd02 213d a9dd 4dbd 1f4d 77bc
00000100: 6322 ec3d 600f 3ebd 0895 9b3d 5fdb dfba
00000110: d660 953d 7697 b83c 25f7 9eba da34 853d
00000120: 7489 58bd c942 e33b 86ab b4bd ae6f 21bc
00000130: 58b9 07bc 1c2d 05bd 219a bd3d c382 a43d
00000140: de92 3d3d ae98 713c 774c 9b3b a334 52bd
00000150: f87b 423d 4ee7 413d 0a5c b83d 1333 07bd
00000160: 4069 d7bb 5bac 17bd c9a1 293c 0bcf dd3c
00000170: 5d43 0c3c b85b 85bc d7e1 053d 4ea8 04bc
00000180: 80cc 833d 2171 c4bd 280a 9e3d 35ab 8e3d
00000190: 4165 143d eabd 703c bfe7 683c a7b6 893d
000001a0: 7d0b 03bd 018c 843d d1fd aabc f64e 89bd
000001b0: 23bd 84bb de2a d4bc ee10 383d 6db4 14bd
000001c0: bba4 853c 264e 393d 6a5c 8d3d 7d7f 963c
000001d0: 6a5c 6f3b 8a2b 653d 7992 68bd 27c3 9d3d
000001e0: fd95 13bd f4a4 c73d 7304 ce3d 611a 5dbd
000001f0: af7f fbbc c021 51bd 9697 0ebd 8a24 233d
00000200: 85d0 09bd 38f4 0cbc 2386 a93d d919 4fbd
00000210: 81be 1bbd f8ba 11bc b616 333d c8ae 59bc
00000220: eca5 d8bc c06d 49bd 20d2 773b 70d5 f0bb
00000230: 4827 b6bc ff8b 9a3d 1487 5bbd db28 86bd
00000240: 182e c3bc 5861 cebc 0476 0abd 42c5 3d3d
00000250: 3012 7ebd 4651 733d 9731 8dbd c9d3 953d
00000260: e5e8 8c3d 6edf 403d 341b ecbc 5892 fa3c
00000270: 4c50 f83c 108d 8bbb ca4d aabd a6f8 023d
00000280: ed3f 893d a159 b2bd b4a2 acbc 5407 b6bc
00000290: 9077 923b 7a62 3d3d d811 f6bc 55a7 a23d
000002a0: d411 4bbd b846 80bd 2833 4ebc e09d d8bb
000002b0: ac9e c23c bef4 71bd 461d 8bbd 7c2b 143d
000002c0: 6a7d 2a3d 00e9 5d3a 747a e5bc 5e9f 8abd
000002d0: 8084 d6ba c991 91bd 1a27 003d 4077 0d3d
000002e0: 0f5e 82bd 5c0c 03bd 90c6 03bd b49b 4fbd
000002f0: 4ed0 763d aee6 543d 38aa 9bbc 55f8 953d
00000300: fb23 843d b044 c1bb a887 7b3c f1af a1bd
00000310: a7bc ac3d 495b 28bd a045 1b3b 000f 7fbd
00000320: 7061 f1bb 3032 c1bc bee3 7a3d e3d7 a1bd
00000330: c0e6 43bc d069 14bc c094 73bc 68fb 4fbc
00000340: 3395 9a3d 40e5 30bc 2aff 503d f4c5 afbd
00000350: f8cf 083d 1cab c03c 90d0 6cbc 800f 1f3b
00000360: e072 e4bc 02f7 433d c07a 853b 4c88 02bd
00000370: 8c9d 6fbd 489a 9b3c 20d9 ba3b a820 e93c
00000380: c3ed 46bd c404 e13c 8063 30bb 1cae f73c
00000390: 4768 2ebd 928b ffbc ddc5 8a3d 08f5 90bd
000003a0: c031 173b 64a0 20bd 08a2 6bbd 22cf 583d
000003b0: 7ec6 1bbd a96e b2bd 85a4 973d 20d7 97bd
000003c0: 788b 9abd e01e 273c e028 a8bd 2146 a83d
000003d0: 5af4 a9bd 30c7 25bd fef6 783d 39a5 993d
000003e0: 6f54 ab3d 58ec 593c 3d4d 3ebd 9823 0abc
000003f0: 56b0 9abd 6026 adbd 6c7c 143d e69c 013d
0.102135405 -0.07910005 0.025069168 -0.057388786 -0.025527239 0.06681028 0.06339482 -0.064819016
0.032104935 0.083506025 -0.04882935 -0.08029658 0.0109117245 -0.10086841 0.07711973 0.008830449
-0.09699522 0.04925696 -0.03578704 0.0682524 -0.047511388 -0.07668315 0.03784331 0.0226835
-0.06790449 0.053960584 -0.058931004 -0.040655695 0.08668681 0.0067818533 -0.0071078986 -0.016727742
0.013969987 0.0038459273 -0.057956345 -0.04494146 -0.06660046 0.024323137 -0.058809355 -0.04915808
0.054264642 0.06251674 -0.007039562 0.038257685 0.051587023 0.034319453 -0.025023961 -0.019914294
-0.024439301 0.09480461 0.05855549 -0.046621654 -0.024845451 0.0705539 0.07896229 -0.0892865
-0.029831976 -0.037159692 -0.040996805 -0.11492259 -0.04324529 0.03930949 -0.05026022 -0.015094071
0.11529996 -0.04640138 0.07596785 -0.0017078927 0.072938606 0.02253316 -0.0012128098 0.06504221
-0.05286546 0.0069354516 -0.08821778 -0.009853287 -0.0082839355 -0.032513723 0.092579134 0.08032753
0.04628264 0.014745874 0.00473934 -0.05131973 0.047481507 0.04733973 0.0900193 -0.033007693
-0.006573826 -0.037029605 0.010353514 0.027076265 0.0085609825 -0.016279086 0.03268608 -0.008096768
0.0643549 -0.0959189 0.07716781 0.06966249 0.036229376 0.014693717 0.014215409 0.06724291
-0.031993378 0.06472016 -0.020872982 -0.06704514 -0.004050867 -0.025899347 0.04493802 -0.03630488
0.016313901 0.045240544 0.06902392 0.018371338 0.003652359 0.055949725 -0.056780312 0.07703238
-0.03603171 0.09748259 0.10059442 -0.053980235 -0.030700533 -0.051057577 -0.034812532 0.03982977
-0.033646125 -0.008603148 0.08277538 -0.05056176 -0.038023476 -0.0088946745 0.04372283 -0.0132863
-0.026446305 -0.04917693 0.0037814453 -0.0073496625 -0.022235528 0.075462334 -0.053595617 -0.06550761
-0.02382569 -0.025192901 -0.033803955 0.046330698 -0.062029064 0.05940368 -0.06894224 0.073157854
0.068803586 0.04708808 -0.028821565 0.03058736 0.030311726 -0.0042587593 -0.08315618 0.03197541
0.06701646 -0.087085016 -0.021073677 -0.022220291 0.0044698194 0.046236493 -0.030037805 0.07942072
-0.04957755 -0.062634885 -0.012585439 -0.006610617 0.023757301 -0.059071295 -0.06792693 0.036174282
0.04162351 0.00084652007 -0.028012492 -0.06768678 -0.0016366392 -0.071078844 0.03128729 0.034537554
-0.063655965 -0.03199421 -0.032171786 -0.0506856 0.06025725 0.051977806 -0.019002065 0.07322756
0.06452175 -0.0058980808 0.015352167 -0.07894886 0.0843442 -0.04110268 0.0023692623 -0.062270164
-0.007366352 -0.023583502 0.061252348 -0.07902505 -0.011956871 -0.009058431 -0.014867008 -0.012694217
0.07547989 -0.010796845 0.051024593 -0.085826784 0.03340146 0.023519091 -0.014454022 0.0024270713
-0.027886808 0.047842987 0.004073471 -0.031868264 -0.058499858 0.018994465 0.005702153 0.028457955
-0.04856659 0.027468093 -0.0026914775 0.030234389 -0.042579915 -0.031194482 0.06776021 -0.07077986
0.0023070425 -0.03921546 -0.057527572 0.052931912 -0.038031094 -0.08712513 0.074044265 -0.07414079
-0.07546133 0.010200232 -0.08210921 0.08216501 -0.082985595 -0.040473163 0.060782425 0.07502217
0.08365714 0.013300978 -0.04646038 -0.008431338 -0.07553165 -0.08454585 0.03625147 0.03164377

net.2.bias f4 [256]
00000000: e3f5 dc3c 491b a5bd d503 bb3c b553 e63d
00000010: cba7 933d a831 8abd 8498 2d3d e061 c3bc
00000020: 8285 90bd bf98 bb3b f459 bf3c 9716 023c
00000030: 83ed 9fbd a2b3 88bd 1407 a63a d20c 15bc
00000040: f89a 59bd 4a26 5b3c 450e dd3c 4cf3 233a
00000050: 7541 90bd 7a82 16bd 7e74 24bd ad78 0b3c
00000060: eaab f0bc 1009 213a 1af8 97bd ca96 f4bc
00000070: 1298 87bd 22b4 77bd 3998 283c e71a 823c
00000080: b656 c83d 7a22 1cbd b802 653c 7855 953d
00000090: 0e26 dbbc fa55 8f3d 114e b83d be9a d23d
000000a0: 97c1 d63d a980 dc3c be4a 70bd 4aff a1bd
000000b0: dd2a 883d d8e9 cc3d 580a 6cbd b493 c93d
000000c0: 4d0c 80bb 9458 933b bb06 7b3d 78a4 293c
000000d0: 7260 a23d d1d3 36bc 6261 633d ff06 b9bc
000000e0: afa6 c43d 16af 9abd 7a21 0b3d 696e 1cbd
000000f0: f1a6 a4bd 63f8 cf3d 2ce0 2f3c 6d46 e2bc
00000100: 3bbe 5f3d 8ffd a73d b145 123d e26a 2bbd
00000110: c11a 9abd f795 993d 39fc 513d 80d5 163d
00000120: e479 ab3c 45e8 993d 5563 053c 8a90 683c
00000130: 1aa6 6b3d 91d6 263d 3f12 2d3d b871 afbc
00000140: 4d75 acbd 2588 b6ba f857 a43b 258b 97bd
00000150: d526 50bd cb79 8b3d 8d89 6ebd 0e9a 433d
00000160: 7962 46bd 5755 ba3d e680 8bbd 1024 193d
00000170: eb1e 8f3d a1fa 173d 8867 a9bd fa17 65bd
00000180: 842b 9f3d 9de8 2c3d 602c 773b 584e 9fbd
00000190: b2f6 983d f97c 653c 6d58 dbbc 274d a13c
000001a0: d3fb 61bd 4886 bdbc c10f 713d 793c 1ebd
000001b0: 96ea 153d 1855 e8bc d0c8 153d 1e9f 89bd
000001c0: 9061 95bb b336 23bc ec22 a6bd 759a 973d
000001d0: 4e54 a0bd 267c 86bd 7559 a63d 8c95 5d3d
000001e0: 1321 60bd 0882 27bd 11d5 ae3d addc 7c3d
000001f0: cda3 b03d 959d 8c3d faa8 3d3d fcc9 5dbd
00000200: 0db4 57bb 7650 823d a94a 8a3d 6ddb b43d
00000210: e9bb 223d d07b 013d db5c 74bd 41a2 053d
00000220: 3efd 7bbd 015d ab3d c527 863d fc85 523c
00000230: 64bd 54bd 1d96 d8bb 7812 46bd b199 9b3c
00000240: f683 3b3d 680b 4c3d 8122 8bbd eb17 b3bc
00000250: f511 2e3c 693b b0bd 6f58 adbd 9929 28bc
00000260: 856c c43c 198b 58bc 66d2 b53c c7f4 9c3d
00000270: fa98 99bd d1f3 743d 78d4 6cbc 9127 483d
00000280: 7218 923d 972e b33d a364 e5bc 01cc 8c3d
00000290: 3971 393d afe6 0bbd 7aa5 623d e597 e43b
000002a0: 5e9f be3d 83d1 3b3d 0c79 243c 97cd 8f3c
000002b0: 7728 70bd 5016 6b3d e46b 2b3c 1ed3 d9bc
000002c0: 1882 5bbd 2bf6 333d ca52 b23d 9948 ac3d
000002d0: 4d0e d7bb b259 9f3c bab9 83bd 9d26 2b3d
000002e0: df6c 5cbd 2530 ba3d 8d41 fd3c 5a4f b33d
000002f0: 1d99 cb3c 41b2 143c a8d5 8dbd 3388 9e3d
00000300: 2c4e 63bd cbc9 88bd c72e 0f3d e4dc afbd
00000310: 4a35 043d 18ea a1bd 8d76 8cbc 1445 613d
00000320: 29dc 053d eb25 223d 8b8a 4cbd 01c5 c53d
00000330: 562a ea3c 518d 873d 2895 bc3d a285 dbbc
00000340: 1080 233d 9b06 693d 998f 33bc 7d5d d03d
00000350: c8ea aa3c 43d3 853d 933d 8b3d 705e e63b
00000360: 79f7 943d f50c 8d3d 771e 033d 4c5c 353d
00000370: b9d7 bb3c 361f dabc 0aa1 ecbb d5fc 4bbc
00000380: fd6c 9fbd 5ba8 53bd 9c1f aebc 688b 073d
00000390: 3789 77bc 4dfb 8cbd fb68 173d b4fa 613d
000003a0: ef46 8cbd b3f8 89bc 8afa 0d3d 165f a0bd
000003b0: 2e68 6f3d fa5a 563d 61b3 27bd acc7 1fbd
000003c0: a590 64bd 2791 7c3d 8860 c8bb 27db 5dbd
000003d0: 2e73 73bb 5938 023d bac8 463d b713 633c
000003e0: efbc 26bd 7a54 b7bc 62ff 9f3d 7606 713b
000003f0: d26e 703c 5733 85bc 167a c73c 867c 873c
0.026972717 -0.08061845 0.022828976 0.112464346 0.07209738 -0.067477524 0.04238178 -0.023850381
-0.070567146 0.005724996 0.023358323 0.007939956 -0.07808974 -0.06674887 0.0012666904 -0.009097295
-0.053126305 0.013375828 0.026984343 0.00062542106 -0.07043735 -0.036745526 -0.040150158 0.008512658
-0.02937885 0.0006143013 -0.074203685 -0.029857058 -0.06620802 -0.060474522 0.010290199 0.015881969
0.09782164 -0.038118817 0.013977699 0.072916925 -0.026751544 0.069988206 0.08999265 0.10283421
0.10486143 0.026916819 -0.05866503 -0.07910021 0.066488005 0.1000554 -0.057627052 0.09842625
-0.0039077164 0.0044966433 0.061285716 0.010354154 0.07928552 -0.011158899 0.055512793 -0.022586344
0.09602105 -0.07552926 0.033967473 -0.038191233 -0.08039654 0.10154798 0.010734599 -0.027621472
0.054624777 0.08202659 0.035710994 -0.04184998 -0.07524634 0.07499307 0.05126593 0.036824703
0.020932145 0.07515005 0.008141358 0.014194617 0.057531454 0.04073197 0.04225373 -0.02141653
-0.08420811 -0.0013926072 0.0050153695 -0.073995866 -0.050818283 0.068103395 -0.058236647 0.04775434
-0.048433755 0.090983085 -0.06811695 0.037387908 0.06988319 0.037104253 -0.082717 -0.05593107
0.07771972 0.042214025 0.0037715659 -0.07778615 0.074689284 0.014006847 -0.026775563 0.01969011
-0.0551718 -0.02313532 0.058852915 -0.03863189 0.03660067 -0.028360888 0.036568463 -0.06719802
-0.0045587495 -0.009961772 -0.081121296 0.07402507 -0.0782858 -0.06566648 0.08122531 0.054097697
-0.054719042 -0.04089549 0.08536733 0.06173389 0.086249925 0.06865994 0.046303727 -0.054147705
-0.0032913715 0.06363003 0.067525215 0.08830915 0.039729986 0.031612217 -0.059658866 0.03262544
-0.061520807 0.083673485 0.06550554 0.012849327 -0.05193843 -0.006609692 -0.048357457 0.018994184
0.045780145 0.049815565 -0.067936905 -0.02186199 0.0106243985 -0.086050816 -0.08464133 -0.010263824
0.023977527 -0.013216757 0.022195052 0.07663875 -0.07499881 0.059802834 -0.014454953 0.04886586
0.07133569 0.08749121 -0.028002089 0.06874848 0.045273993 -0.034155544 0.055333592 0.006976115
0.09307741 0.045854103 0.010038625 0.017554088 -0.05863234 0.057394326 0.010462735 -0.026589926
-0.053590864 0.043935936 0.08707197 0.084122844 -0.006562984 0.01945195 -0.06431909 0.04178487
-0.053814765 0.09091214 0.030915046 0.087553695 0.024853284 0.009075702 -0.06925517 0.07740822
-0.055494472 -0.06679114 0.03495672 -0.085870534 0.032277383 -0.07905978 -0.017146373 0.05499752
0.032680664 0.039586943 -0.049936812 0.09656716 0.02858464 0.06618751 0.09208137 -0.02679712
0.03991705 0.056891065 -0.010959529 0.101740815 0.020863906 0.065344356 0.06798854 0.007030301
0.07273764 0.06887237 0.032011475 0.044277474 0.022930013 -0.02662621 -0.007221346 -0.012450417
-0.0778446 -0.05167423 -0.021255307 0.033091933 -0.015108398 -0.06883869 0.03696535 0.05517073
-0.06849467 -0.016842222 0.03466276 -0.07830636 0.058448963 0.052332856 -0.040942553 -0.03900878
-0.055802006 0.061661866 -0.006115023 -0.054164078 -0.003714751 0.03179202 0.04853127 0.013859681
-0.040707525 -0.022379149 0.07812382 0.0036777533 0.014674859 -0.016259832 0.024350207 0.01653887

μ.weight f4 [2, 256]
00000000: 7b4d 9abc c0dd b8ba 274a 1b3d a7f6 d03c
00000010: 84e5 07bd be32 1d3b 27e8 933c 5c19 d1bc
00000020: d1a9 17bd 1629 fcbb 0ef8 853c b0bc fabc
00000030: fe69 4abd f472 da3c d720 aebc f330 55bd
00000040: 54f2 dbbc 4847 033d 46be 8f3d 816a babc
00000050: bcc5 dd3c ea80 403d f41e 5ebd c400 6a39
00000060: a26c 543d 5694 68bd f93a c33c 46e2 60bd
00000070: 8a39 83bd a370 81bd 8625 5fbd c025 c2bb
00000080: 7d94 1d3d 4c96 703d 8e46 5c3d dacd 35bd
00000090: b493 20bd 2f05 50bc 6000 71bc 902f c03c
000000a0: 9bb0 933d 0252 11bc e8b2 06bd 999f 663d
000000b0: 631d 5dbc b4ed 4f3d 3c6d 063b 0f22 65bd
000000c0: ba9f 183d 9ef2 42bd 673a 143d 4050 d83a
000000d0: 5899 28bd 97ae 153c b3de 02bd 9051 623d
000000e0: fbf8 703d 8787 afbc 6cc9 5d3d d9ec 05bd
000000f0: b3ab 013c e0af c43c 049d af3c 247f ccbc
00000100: cf7f 373d 21ca 8bbd ac25 5f3c 9f39 05bd
00000110: 5f38 c5bc 62df 993d eba7 133c 2bb2 8c3d
00000120: ca65 00bc 56bf 413d d15c 923d b70b 6d3c
00000130: 391c 4c3d 7600 e13b 65cf 3dbd 7c2b 5bbd
00000140: 4e24 34bd 1bdc aa3c f304 fc39 cc56 b5bb
00000150: c0fd ccbc 1e12 87bb 0dfb 363d cbba 413d
00000160: 5038 423d cc56 54bd b65b 5dbc d344 5b3d
00000170: da09 893c 80ab babc c49f dabc d052 71bc
00000180: 03dd 81bd aee1 c7bb 30cd 0c3c 9ad1 603d
00000190: 7065 473d 48c2 86bd 6564 743d 2380 303d
000001a0: 08a1 5e3d 3870 f0bc 8a41 3a3d 59af 873a
000001b0: b23e 633d c038 633b 3c23 38ba 21a2 153d
000001c0: 8461 87bc 5036 efbc dcd0 5ebd b4e1 3cbd
000001d0: ac00 733d cc49 19bd d326 543b 0ae2 f03c
000001e0: 4b15 60bc 6dfc 2f3d 71d5 863d 1d42 64bd
000001f0: e75e b23c 9635 50ba bbca e93c 9a1c adba
00000200: f095 573d d2d1 81bd 45bf 3d3d ed55 09ba
00000210: dd0e 55bd 8c12 113d a1bc 16bd 43c3 593d
00000220: ca80 51bd 7b18 ea3b 3f1c 113d f176 3fbc
00000230: de78 80bc 43a0 3abd 6935 c8bc 5304 90bc
00000240: a609 4ebc aead 5b3c a19b 583d 27c7 193c
00000250: d2a3 76bc a01a 483c 48dd 233c c091 6abd
00000260: 8f22 01bd 8f27 26bc 6194 7f3d e4a3 07bd
00000270: e1cc 5dbd 1c66 843d a475 bd3c dce6 b7bc
00000280: c536 0f3d 82c5 29bc 0e48 50bc 6af4 1e3d
00000290: e9a9 00bc 0757 ed3b da06 fe3c 58f9 263c
000002a0: 2791 70ba 6a00 a83c 6dd7 9c3d cb41 633d
000002b0: 1e38 6bbc 9d5f 153d 6d65 d63c 0f86 9bbd
000002c0: 6caa 50bd 3b82 ba3b 8164 45bc d7f4 53bd
000002d0: 8360 963d 1fd2 923d 9bb7 7cbd 3b14 0c3c
000002e0: 1cbe 0fbc 8e9a a6bc 2ed4 733c ccc7 ecbc
000002f0: d99e 22bc 9ea0 cabc 9b8f 0d3d 494f 4dbd
00000300: 83bb 14bd e2a2 803d 0e36 773d 00fa 4ab9
00000310: ce5b 9bbb 4ecd 653d 262d 633d a9cb e23b
00000320: eab6 21bd dba7 063c 8370 bbbc 0888 10bd
00000330: 7a72 2b3d 6e4f 6fbd ab3a 013d 5855 7bbc
00000340: 587b c43c d847 1e3d b3f3 8bbc 1db0 5dbd
00000350: 61a4 74bd 5061 04bd 17bc 343a d35f 9cbc
00000360: 71c3 69bd 0ed1 cd3c a292 a93d f6c0 4dbd
00000370: 2a28 d5bc 49ad 983c 0b99 9d3c 3627 1c3d
00000380: 2ce8 46bd 428b 353c cc44 153d 2a92 b93d
00000390: 714c 0f3d 02a7 45bd 5a94 e4bc 04e1 e93b
000003a0: c730 293d 4fa9 a0ba 53b9 83bc 50a7 2a3d
000003b0: b4c4 a73c 4fa2 823c 32fc 123d 13f3 62bd
000003c0: 4ae7 d4bc b944 5fbd acc9 623d e0f8 0abc
000003d0: 9d35 30bd 7656 6dbd 3a7e 073d b9fd f03c
000003e0: 4e2b 9e3b 41a4 7dbc 2c49 5e3d 5413 6d3d
000003f0: d27e c33c f11d 5fbd ca15 303d 8135 f3bc
-0.018835774 -0.0014104173 0.037912514 0.025508238 -0.033177868 0.0023986544 0.018055035 -0.025524788
-0.037027184 -0.0076953275 0.016353633 -0.030607551 -0.04941749 0.026666142 -0.021255894 -0.052048635
-0.02684895 0.0320504 0.07018714 -0.022755863 0.027071826 0.046997942 -0.054228738 0.00022316264
0.051861413 -0.05678209 0.023831831 -0.05490329 -0.06407459 -0.06320312 -0.054479145 -0.0059249103
0.038471688 0.058737084 0.053778224 -0.04438577 -0.03920336 -0.012696548 -0.014709562 0.02346018
0.07211419 -0.00886965 -0.032885462 0.056304548 -0.013495776 0.0507638 0.0020511886 -0.055940684
0.037261702 -0.04759466 0.03618851 0.0016503409 -0.041161865 0.009135864 -0.031950664 0.055253565
0.058831196 -0.02142693 0.05414717 -0.03269658 0.007914471 0.024009645 0.021437176 -0.02496297
0.044799622 -0.068256624 0.0136198215 -0.032525655 -0.024074731 0.0751331 0.009012203 0.0686992
-0.007836768 0.047301613 0.071466096 0.014468125 0.049831603 0.00686651 -0.046340365 -0.053508267
-0.043979935 0.020856908 0.00048068873 -0.0055340286 -0.025023341 -0.004122033 0.044673014 0.04729728
0.047416985 -0.05184059 -0.013510635 0.053532433 0.01672833 -0.022786856 -0.02668751 -0.014729217
-0.06340983 -0.006099901 0.008593842 0.05488739 0.048680723 -0.06580025 0.059666056 0.04309095
0.05435279 -0.029350385 0.04547266 0.001035194 0.055479713 0.0034671277 -0.00070242933 0.03653157
-0.016525991 -0.029200703 -0.054398403 -0.046113685 0.059326813 -0.037423894 0.0032371774 0.029404659
-0.013676952 0.04296534 0.065836795 -0.055727113 0.021773769 -0.0007942555 0.028539052 -0.0013207376
0.052633226 -0.06338848 0.046324987 -0.0005238939 -0.052016128 0.03541808 -0.036800984 0.05316473
-0.051148213 0.0071440316 0.03542733 -0.011686073 -0.015682634 -0.045562994 -0.02443953 -0.017580187
-0.012575543 0.013408108 0.052882794 0.0093858605 -0.015053706 0.012213379 0.010001488 -0.057267904
-0.0315271 -0.010141267 0.062397365 -0.033115283 -0.054150466 0.06464788 0.023127384 -0.02244895
0.03496434 -0.010362031 -0.012712492 0.03880731 -0.00785301 0.0072430405 0.031009126 0.010191284
-0.0009176903 0.02050801 0.07658277 0.055482667 -0.014356641 0.036468137 0.02617141 -0.07593929
-0.050943777 0.005691794 -0.012047888 -0.05174717 0.07342627 0.07168984 -0.061698537 0.008549745
-0.008773353 -0.02033737 0.014882131 -0.028903864 -0.009925568 -0.024734791 0.03456078 -0.05012444
-0.036311638 0.062810674 0.060354285 -0.00019357353 -0.0047411686 0.056103997 0.05546298 0.006921251
-0.03948108 0.008218731 -0.022880798 -0.03528598 0.04185722 -0.05842536 0.03155009 -0.015340172
0.023984596 0.038642734 -0.017083978 -0.054123033 -0.059727076 -0.032319367 0.00068944826 -0.019088661
-0.057071153 0.0251241 0.08279921 -0.05023285 -0.026020128 0.018637316 0.019238016 0.038123332
-0.04856126 0.011080565 0.036442563 0.09061082 0.03498501 -0.048254974 -0.02790277 0.0071374197
0.041306283 -0.0012257489 -0.01607958 0.041663468 0.020479538 0.015946535 0.035885043 -0.055407595
-0.025989193 -0.0545089 0.05536811 -0.008482188 -0.04301988 -0.057943784 0.033079363 0.02941786
0.0048269397 -0.015481056 0.054269 0.05787976 0.023864184 -0.054471914 0.04298953 -0.029688599

μ.bias f4 [2]
00000000: 1d21 3d3c d5ee 68bc
0.011543539 -0.014217098

σ.weight f4 [2, 256]
00000000: d6d5 85bd dc60 7bbd b577 253d b99e 783b
00000010: 297a adbd 922a 963d 7fed 363d 088f 663c
00000020: 8ce2 093d 35e1 173d dd9b 6dbb f0ca 83bd
00000030: 8ad9 9cbd b52c 223d ae37 4f3d 5833 21bd
00000040: ee69 433d 7f5d 813c 46c3 35bd 8728 a1bd
00000050: 1caf fbbc 8dfd 1ebd 1521 67ba c0b1 023d
00000060: e8dd 33bd 3b06 92bd db49 c13b e84e 1bbd
00000070: 69b7 00bb 5e86 8a3c df94 133d a496 9bbd
00000080: 7ccf 0d3d 653e 6dbd 6845 833c e60a 173d
00000090: 2cc8 3bbd bef8 6ebd 90b4 23b9 61ef 6dbb
000000a0: b91f 15ba e9a6 1bbc 1cef d6bc de45 b33c
000000b0: 1fae 99bb c12c 64bc f37c da3b e716 82bd
000000c0: f050 c13c 94e7 173d 3e05 373d b477 f3bc
000000d0: 64f9 a6bb d7c4 9fbc 03d7 0bbd e3c1 0dbd
000000e0: e4ce 8ebd dd77 373d ba7f 053d 7cd3 6239
000000f0: 78e1 37bc be9f 153d 7dc2 89bc 43b6 3b3d
00000100: 6ad1 52bd 5a45 9dbd 3579 a3bd 8546 71bc
00000110: 05a2 803c 3742 19bd cbe2 a5bd dae4 13bd
00000120: 4037 15bd 7e3f c6bc b99a aebd 703d 0dbd
00000130: f28c 0a3d 01e7 53bd 9bac 92bc 902f 3f3c
00000140: 626a 6a3d ff37 793c 0cfd 58bd 7ec1 36ba
00000150: d43e b83a 7869 3a3d c387 95bd 21eb cabc
00000160: 4f5c 8b3c ed24 6fbd eb41 47bc 37d0 11bc
00000170: ba13 fb3c 4bd0 423d 5c7a fcbc aca6 5d3d
00000180: 98b3 fa3c 5d6d a0bc 522e 013d ee38 7c3c
00000190: a121 5d3d 29ee 753d 5523 bf3c 5df9 95bd
000001a0: b3ec de3b 9c78 70bd 75f5 a6bd 0451 5bbd
000001b0: c4cb 6fbd a284 3d3d 7c6d 683c de9a 3fbd
000001c0: f86a 143c 9215 9b3c cc4e b83c c0a3 89bc
000001d0: 1ca7 f6bc 7083 bcbb 4102 173d 3ddf 44bc
000001e0: 10d4 493d 4023 493c 7463 c0bc e686 94bd
000001f0: e85b 2bbd 5f2d adbd 68ee 133d c083 54bc
00000200: 31b7 ff3b 47c1 a8bb ec1d 3a3d 7a7e 0a3d
00000210: b19d 4dbd 39af b63c b318 a33c 4bb1 12bc
00000220: 30b5 43bd 40ab 1abd 17b9 1e3d 5288 f4bc
00000230: f9ad 1cbd ff66 92bd befb 873c 85e1 353c
00000240: e393 0abc 5f90 02bd 0b36 a9bd d869 693d
00000250: d0dd 783d 6ada 393d 009a 68bd f9c0 0bbd
00000260: 5788 16bd c087 3c3c 86d7 653c f6b0 f13b
00000270: e518 a13c c49c e1bc 10ea 793d a120 f7ba
00000280: b874 60bc 6992 b1bd 47ad 2f3d 5376 bf3c
00000290: d2b8 4c3d 0d3b 9cbd efb4 8a3c 165e ec3c
000002a0: 050d 72bd e8f7 a63b fd0d a9bc 334c 8b3b
000002b0: aec3 d83c 7586 6c3d be81 613d 7a0d a43c
000002c0: 2ce5 62bc dace 24bd 0d8a a4bc 4e53 82bd
000002d0: 64b1 0cbc c7f6 563d 43d5 353d 12f1 4b3d
000002e0: 0b08 0c3b ee67 e0bb 33ea 493d 9266 143c
000002f0: 24d8 1bbd ab92 19bd f263 22bc 067f 8bbc
00000300: e66b 533c e5e6 b2bc 662e 643c 409f c7bc
00000310: 6249 2dbd a6fd 79bc 4a5e 45bd c776 81bd
00000320: 91ee 87bd 637a e43c 10a9 31bd 6011 08bd
00000330: b173 2fbd b5b9 76bd ccb7 cf3c 7168 45bd
00000340: 1081 253d a601 4bbd 1720 72bd 0acf 7bbd
00000350: 7130 2abd 8dcb 43bd e3ab 96bd 29db 313a
00000360: e454 42bd e576 9a3c c948 183d 73b7 c8bb
00000370: ff2d 7bbc fbc1 023d a2d8 46bc c991 fbbc
00000380: 3602 3a3d f812 9fbd 44ec 2dbd 2984 d53c
00000390: 1115 02bc 28f7 79bd 0cb7 54bd ef14 66bd
000003a0: 173c 103d 2dc1 783d 0617 93bd b3df b83c
000003b0: 4086 0f3b 24ce febc 0098 893a 6f34 29bc
000003c0: 4327 2fbb 8285 8abd da63 523c 6010 febc
000003d0: c486 5cbd 25f0 c73c 9f54 6bbd 1bb6 68bc
000003e0: 398c ae3c 49b0 a2bc d189 b53c 1461 96bd
000003f0: 99b0 833c f896 6d3c fbfd 463d aff9 97ba
-0.065349266 -0.06137167 0.040397365 0.0037936403 -0.08470566 0.073323384 0.044660088 0.014072187
0.033663318 0.03708001 -0.0036256232 -0.06435192 -0.0765868 0.039593417 0.05059021 -0.039355606
0.047708444 0.015791653 -0.04437568 -0.07869058 -0.030723147 -0.038816024 -0.000881688 0.031907797
-0.0439128 -0.071300946 0.005898697 -0.037917048 -0.001964057 0.016909774 0.036030646 -0.07597092
0.0346217 -0.057920832 0.016024306 0.036875628 -0.045845196 -0.058342688 -0.00015612156 -0.003630601
-0.0005688626 -0.009500244 -0.026237063 0.021883901 -0.0046899463 -0.013926686 0.006667727 -0.063520245
0.023598164 0.037086084 0.044682734 -0.029720165 -0.0050956476 -0.01950304 -0.034140598 -0.034608733
-0.06973055 0.044792045 0.032592513 0.00021631824 -0.0112231895 0.036529295 -0.016816372 0.045828115
-0.051469244 -0.076792434 -0.07982103 -0.014726286 0.015702257 -0.037416663 -0.08099898 -0.03610692
-0.036429644 -0.024200197 -0.08525605 -0.03448242 0.033825822 -0.051733974 -0.01790457 0.011669055
0.05723036 0.015211104 -0.0529757 -0.00069715816 0.001405681 0.04551074 -0.07301285 -0.024770321
0.01701179 -0.058384825 -0.012161712 -0.00889974 0.030649055 0.047561925 -0.030820064 0.05411403
0.030603215 -0.019583398 0.031538315 0.0153944325 0.05398715 0.06004158 0.023332277 -0.07322953
0.006803119 -0.058708772 -0.08152286 -0.05354406 -0.058543935 0.046269067 0.014186259 -0.046778552
0.009058706 0.018931184 0.02249851 -0.016801715 -0.03010898 -0.0057529733 0.036867384 -0.012016115
0.049274504 0.012276471 -0.023484923 -0.07252292 -0.041835696 -0.084559195 0.036116034 -0.012970865
0.0078038205 -0.0051499936 0.045438692 0.033812024 -0.050199214 0.02230035 0.019909238 -0.008953403
-0.047780216 -0.037760973 0.038750734 -0.029850159 -0.03825185 -0.07148551 0.016599532 0.011101131
-0.0084581105 -0.031875964 -0.08262261 0.056985706 0.060758412 0.04537431 -0.05678749 -0.03411958
-0.036751118 0.011506975 0.014028436 0.0073758317 0.019665191 -0.027540572 0.061014235 -0.0018854329
-0.013699703 -0.08670504 0.04288986 0.023371851 0.049980946 -0.076284505 0.016931979 0.028853457
-0.059094448 0.0050954707 -0.020636553 0.004251027 0.026460495 0.057745416 0.055055372 0.020025957
-0.013848584 -0.04023633 -0.020085359 -0.06363545 -0.008587215 0.05248144 0.044392835 0.04979045
0.0021367099 -0.006848327 0.049295615 0.009057658 -0.038047925 -0.03749339 -0.009911524 -0.017028343
0.012904143 -0.021838615 0.013927078 -0.024367929 -0.04230631 -0.015258228 -0.048185624 -0.06321483
-0.066373 0.02789039 -0.04337412 -0.033219695 -0.04283494 -0.060235698 0.025356196 -0.048195306
0.040406287 -0.04956212 -0.059112635 -0.061476745 -0.041550104 -0.047801543 -0.073570035 0.00067846716
-0.04744424 0.018855521 0.03717879 -0.0061253845 -0.015330791 0.031923275 -0.01213661 -0.030709164
0.045412265 -0.0776729 -0.04246165 0.026063995 -0.007939593 -0.061026722 -0.05193238 -0.056172308
0.035213556 0.0607311 -0.07182126 0.022567606 0.0021900088 -0.031104155 0.001049757 -0.010327443
-0.0026726283 -0.06763746 0.012841189 -0.031013668 -0.05383946 0.024406502 -0.057453748 -0.014203574
0.021307098 -0.01985945 0.022160443 -0.07342735 0.01607542 0.014501326 0.04858206 -0.0011594797

σ.bias f4 [2]
00000000: bd9b 91bc d899 80bd
-0.017774457 -0.06279343
