model/v.pth (torch, 275876 bytes, 9 tensors)

net.0.weight f4 [128, 14]
00000000: 7a12 633e c562 2a3e f8a6 453d a4a0 1c3e
00000010: 5a69 33be 3860 67be e156 263e 3ecc 8dbd
00000020: 78e2 9cbd 6105 3abe bd04 00be 0b0c 25bd
00000030: 148b 2bbd c8a5 b33b eff1 b03d 036b dfbd
00000040: a04f 53be e3d9 363e 0e82 3bbe 1a38 c33c
00000050: d33c 23be 806f 123e a28a 12bd a152 803e
00000060: f8ce c63c ac87 353e 5969 5d3d 6460 8f3e
00000070: 3b04 2bbe 7b96 d0bd c420 573d fcff d6bd
00000080: a6eb 523d 8df7 debd f5b7 48be f090 b4bd
00000090: 5d85 95be d412 653e ab73 52be ba3a 9ebd
000000a0: e12d f13c 4a24 413e ad25 783d 1497 76be
000000b0: 36e2 0f3e ddcc c9bd 1432 1ebe 358c 103e
000000c0: 9b43 4cbc 8cd6 9a3d fd1b 403e c539 4a3e
000000d0: 4bc4 723e 302b 513e afee 0c3d 3fcd 49be
000000e0: 8b7f 31be e58f d43c 010b 89be 27cc 653e
000000f0: ae12 4f3d 880f 523e 1654 59be 00fa 13ba
00000100: edfc 13be a410 7cbc 496b b7bc d6e8 3c3e
00000110: 62a0 3d3e 8a5f 313e afe2 18be e146 663e
00000120: 8a92 833e 60c9 d23b 4f0d 8d3b ad98 2abe
00000130: 1c6a 34be 7286 36be 8837 02be f935 7e3e
00000140: a9a1 38be d307 5b3c 9811 50be 6cdb 95bc
00000150: 77fb 0d3e 435a 213e 8c79 57be d4b2 863e
00000160: 539a 16be 1e95 ff3d d722 1d3c 48e3 1b3d
00000170: 3b8f bbbd fa5d 4f3e b958 12be 7e03 233e
00000180: eb8a 763e 62ff f1bd 6f9f 693e 94f3 86be
00000190: 0f7c 213e d326 e73c ae3d b43d 61cc 0d3e
000001a0: c875 7c3e 96f3 f8bd 7e90 92be ae96 163e
000001b0: 6e13 813e c204 72be 360e 66bd c87d 6c3e
000001c0: 0f9e 2fbe 2871 4b3e d369 bcbd 0cb8 f73c
000001d0: 6724 4abe d206 85be cbee 793e 9413 1bbe
000001e0: f445 8dbe 0f0f 683e 8739 213e a82b 593e
000001f0: bee5 49be faaa ed3a 39c2 363d 0ca6 3ebd
00000200: d63b 2ebe 467c 953d 2e6b 203e fae3 e5bd
00000210: 3845 a3bd 8c7e 2b3e 31f5 17bd 4775 72be
00000220: 401b fc3d 3e86 6ebe ffc0 a63d f94c 69bd
00000230: 187a 7d3d b458 35be e405 6cbd 4844 4e3d
00000240: 2f29 15be 76d0 cbbd 2a1f 21be b06a 33bd
00000250: 6874 6bbe 9890 4fbe 9005 1f3d 516f 56be
00000260: f209 18be a0d9 6cbe 32a6 a6bb c053 29be
00000270: 856e 31be fbeb 8bbd 01d8 b23d 8665 713e
00000280: c235 5bbe fc17 963d 2f42 e3ba 0640 29be
00000290: 7bc4 993d a4cd adbd 480e 19be 80e6 1f3e
000002a0: a0ed 2a3e 6130 83be 2b34 203e f513 b83d
000002b0: a2d7 213e e1bc 033d fdb6 3fbe 9e17 733e
000002c0: 4d6d da3d e2db 1d3e 68d8 78be 4a1d cd3c
000002d0: 1935 54be f881 9abd 2c78 1abd b963 f0bd
000002e0: fed0 e23d 2d7d 1abe 0f0a e7bd a03e 0a3e
000002f0: 4d5e 84bd 5abb 073e 8cf8 13bc 9b7e 743e
00000300: a143 f53d bb0c 29be 51f3 f9bc 755a 863e
00000310: 0cf1 15bd 3503 553e ca3b 75be 9c08 8d3b
00000320: f044 603d a435 41be 1b41 8ebd feab 793e
00000330: 5785 a4bc 6e93 80be caec 6dbe 0100 273e
00000340: b47e 873e be93 843d c4f7 c33a 6e9e 06be
00000350: 98aa 62be 04f8 99bd 4ba4 4a3e 0a8e 2c3e
00000360: bc86 933e 8002 21be 03e6 e43d db05 df3d
00000370: f42f 53be 438b 933e a64f 213d 3622 8d3e
00000380: 433c e9ba a377 48be 291a 863d d79b b03c
00000390: ee92 2a3e f065 613e 1f05 213d e056 003e
000003a0: bedf 943c 4cd4 e1bb 7bba 853e 1409 123d
000003b0: ef69 8f3c fff1 31be 1dc0 413e 15e6 3f3e
000003c0: 284e 933d f391 3e3e 7df4 84be b549 b1bd
000003d0: df0c 203e 38b3 6c3d b8b8 77be a7cf 903e
000003e0: c76b a63d db9a 0bbd 67d7 c73c e75e b5bb
000003f0: 6a71 41bc 0d03 80be 4b43 a0bc 41b4 14bd
0.22175017 0.1663924 0.048254937 0.15295655 -0.17520657 -0.22595298 0.16244079 -0.06923722
-0.07660383 -0.18166114 -0.12501808 -0.04029469 -0.041880682 0.005482409 0.08639895 -0.10909083
-0.20635843 0.17856555 -0.1831133 0.023830462 -0.15941171 0.14300346 -0.03577674 0.2506304
0.024268612 0.17727536 0.054055545 0.28003228 -0.16700833 -0.10184952 0.052521482 -0.10498044
0.051494263 -0.1088706 -0.19601424 -0.08816707 -0.2920331 0.22370464 -0.20551936 -0.07726045
0.029440822 0.188615 0.060582805 -0.24081069 0.14051136 -0.09853528 -0.15448791 0.14115985
-0.01246729 0.07560453 0.18760677 0.197486 0.23707692 0.20426631 0.034407314 -0.19707201
-0.1733381 0.02594752 -0.26766208 0.22441159 0.050554924 0.20513737 -0.21223482 -0.0005644858
-0.14451952 -0.015384827 -0.022390025 0.18448195 0.18518212 0.17321602 -0.14930223 0.22487976
0.25697738 0.006432697 0.004304565 -0.16659804 -0.17618603 -0.17824724 -0.12716496 0.24825276
-0.18030418 0.013368565 -0.20319211 -0.018293105 0.13865457 0.15757088 -0.2104246 0.2630831
-0.14707308 0.12479614 0.009590826 0.03805855 -0.091581784 0.20250693 -0.14291658 0.15919301
0.2407643 -0.118162885 0.22814725 -0.2635771 0.15769981 0.028216755 0.08800827 0.13847496
0.24654305 -0.12155835 -0.28625864 0.14705917 0.25210136 -0.23634627 -0.056165896 0.23094857
-0.17150138 0.19867384 -0.09199872 0.030239128 -0.19740449 -0.25981766 0.24407499 -0.15144187
-0.27592432 0.22661994 0.15744601 0.2120806 -0.19716546 0.001813262 0.04461882 -0.046545073
-0.17015013 0.07299094 0.15665886 -0.11225124 -0.07972187 0.16747493 -0.037099067 -0.2367755
0.12309885 -0.23293397 0.0814228 -0.056958172 0.061884016 -0.17709619 -0.057622805 0.050358087
-0.14566492 -0.0995187 -0.15734544 -0.043802917 -0.22993624 -0.20270002 0.038823664 -0.20940901
-0.14847544 -0.23129892 -0.00508573 -0.16535854 -0.17327316 -0.06832119 0.08732606 0.23573884
-0.21407226 0.073287934 -0.001733845 -0.16528329 0.07508179 -0.084864885 -0.14946854 0.15615273
0.16692209 -0.25622848 0.156449 0.089881815 0.15804914 0.03216255 -0.18722148 0.23739478
0.10665379 0.1541591 -0.24301302 0.02503838 -0.2072338 -0.07544321 -0.03771226 -0.117377706
0.11075018 -0.15086813 -0.112812154 0.13500452 -0.06463299 0.13255063 -0.009031426 0.23876421
0.1197579 -0.16508763 -0.03051153 0.26240888 -0.036606833 0.20802005 -0.23948589 0.004304005
0.054753244 -0.18868119 -0.06946012 0.24382016 -0.020083113 -0.2511248 -0.23234859 0.16308595
0.26463854 0.06473492 0.0014951159 -0.13146374 -0.22135389 -0.07518008 0.19789235 0.16851059
0.28813732 -0.1572361 0.11176684 0.10889789 -0.20623761 0.28817186 0.0393826 0.27565163
-0.0017794449 -0.19576888 0.065479584 0.021558685 0.16657612 0.22011542 0.039311524 0.1253314
0.018173095 -0.006891763 0.26118836 0.03565319 0.017506568 -0.1737747 0.18920942 0.18740113
0.071926415 0.18610363 -0.2596778 -0.086566366 0.1562991 0.057788104 -0.24191558 0.28283426
0.08126026 -0.03408323 0.024394704 -0.005534995 -0.011806825 -0.25002328 -0.019563338 -0.036304716

net.0.bias f4 [128]
00000000: 54f7 7a3e 5cc6 a3ba 1b27 4bbe 6ca8 a5bc
00000010: 102a 783d faba a33d 4216 37be d5f4 303e
00000020: 94c7 303e 09bc 37be 8061 6b3c 5a50 72be
00000030: 0356 48bc ec3c 0d3e 673d 85bc 2b93 68be
00000040: cecf 9dbd 794e 803e c855 2d3d c7f2 d23d
00000050: e455 b6bd b715 cb3c 86c5 863e 280e 0e3d
00000060: 4bd4 8f3e 98d6 33be 7b25 0ebe f6cf 3c3d
00000070: 7fe7 71be 1d41 0a3e bf73 f0bd e8fd 86bd
00000080: 7b1b 60be cdfa 613d 9bc8 1ebe f075 823e
00000090: 6200 e5bd 4c33 003e aeec 0abe ca74 b93d
000000a0: d60a 423b 82f8 05bb 20f7 3dbd df79 963d
000000b0: f0f5 433e a880 22be a7ed 5b3e 5ee2 88be
000000c0: ea08 553d 8d7a 87be 590a 12be 8141 83be
000000d0: 3aa3 71be 3e1f 653b ac5b 253e 4511 813e
000000e0: cc9a 863e a6f9 db3c bedd f93c c111 e7bd
000000f0: 9605 1cbe 946c 0a3e fce8 503d 7696 663e
00000100: 8397 163e 7289 77be afa1 f8bc bc25 713d
00000110: 336f 89bd 4d7a 58be b620 643e 3438 28be
00000120: 3944 51be 791f 12be fecd bdbd 089b 2e3e
00000130: 23e8 163d d235 2b3d 9cca 10be 83bf acbd
00000140: b282 3bbe c034 02bd fd72 2abe 6a4c 1c3e
00000150: 5fad d53d d03f 003e 4eed ffbd 3f43 e53d
00000160: 2d1b 88bc 6d2a 413e 3c43 2bbe ea13 0c3e
00000170: 9fcd 62be 45ed c3bd 503e adbd 0a48 39be
00000180: b1b5 663e d3d0 89bd f836 373e 4136 783e
00000190: fc2a 58be c621 21be ec9e 50be 8d34 92bd
000001a0: de9a d9bd 8e14 0a3c aead a93d 4d82 03be
000001b0: 0fb3 84bc 74d7 9fbd 30de 183e afd5 263e
000001c0: 107f 3a3e 95b2 91bd 3e68 5fbe 3d08 093d
000001d0: 901c 91bc 3487 0d3d 1020 0abe ac27 863e
000001e0: 3a10 6bbe 7a92 c3bd b13b da3d b513 03ba
000001f0: 4dbe 46be 2c8a 8b3e 17e2 4bbe cbab 663e
0.2450841 -0.0012495029 -0.19839136 -0.020221911 0.06058699 0.07994647 -0.17879584 0.17280896
0.17263633 -0.17942823 0.0143665075 -0.23663464 -0.012227538 0.13792771 -0.01626463 -0.2271239
-0.07705651 0.2505987 0.042318135 0.10300212 -0.08903101 0.024790628 0.26322573 0.03468147
0.28091654 -0.1756233 -0.13881485 0.046096765 -0.23623465 0.13501401 -0.11740827 -0.065913975
-0.21885483 0.055170823 -0.15506212 0.25480604 -0.11181714 0.12519568 -0.13566849 0.09055479
0.002960851 -0.0020442312 -0.046378255 0.07347464 0.19136786 -0.15869391 0.21477376 -0.26735204
0.052010454 -0.26460686 -0.1426176 -0.25635913 -0.23597422 0.0034961249 0.16148251 0.25208488
0.26289976 0.02685244 0.030501243 -0.11282683 -0.15236506 0.13517982 0.05100344 0.22518334
0.14706235 -0.24173525 -0.030350534 0.058873877 -0.06710663 -0.21140404 0.22278103 -0.1642769
-0.20436181 -0.14269818 -0.092678055 0.17051327 0.036842477 0.041799374 -0.1413979 -0.084349655
-0.18311575 -0.031788588 -0.16645427 0.15263525 0.104334585 0.12524343 -0.12496434 0.11194467
-0.01661452 0.1886384 -0.16724867 0.13679472 -0.2214875 -0.0956674 -0.08459151 -0.18093887
0.22530247 -0.06729283 0.17892063 0.24239446 -0.21110147 -0.1573554 -0.20373124 -0.071389295
-0.10625242 0.008427752 0.0828508 -0.12842675 -0.016198663 -0.07804766 0.14928508 0.16292451
0.18212533 -0.0711414 -0.21817109 0.033455122 -0.017713815 0.034552768 -0.13488793 0.26202142
-0.22955409 -0.095494226 0.106559165 -0.000500019 -0.19408531 0.27253854 -0.19910465 0.22526471

net.2.weight f4 [128, 128]
00000000: a4c9 a6bc 8434 023d 8c44 083d 4b45 a9bd
00000010: b842 a4bd 24b0 a2bd 706e 0a3c 1477 51bd
00000020: 3aa7 3abd 2c30 89bd a35c 9d3d 8955 9f3d
00000030: c00c 8e3c 8c89 0a3d 1060 b33c 58ae 5dbd
00000040: ee8e 5a3d 6df4 87bd 4a6e 73bd a7c2 5bbd
00000050: a2b5 683d 0ef3 5a3d 64ee 0c3d 321f ecbc
00000060: 0055 d3b9 8f8a a73d a529 963d 2010 9fbd
00000070: 3301 27bd c54f a5bd 7297 86bd 98bd 69bd
00000080: dfea 93bd c5f1 803d 22db 01bd 3ca9 e83c
00000090: 482a 18bc e0fb 89bc 78e7 123c b833 363c
000000a0: 00bf 4dbc bf16 8b3d 036e 813d ccac 81bd
000000b0: db4d abbd 9479 26bd 495f 9d3d 963b 6e3d
000000c0: c8d9 953c ce20 1e3d 86f1 463d 9090 04bc
000000d0: ee72 113d 0308 0dbd bfe1 8b3d 6188 81bd
000000e0: 02f3 433d 46c1 4abd 3738 0bbd af15 51bd
000000f0: d22f 5f3d 9088 483c 3e65 273d 27e0 983d
00000100: 99c1 89bd b9cc ab3d e8a0 353c 1866 d6bc
00000110: fdc6 a3bd 78f9 87bc d37e 923d 8b66 a2bd
00000120: d853 91bc b0e0 0bbc 80ad a8bb 54f0 96bd
00000130: 5092 54bc 27c1 823d 3bca 2dbd 0cf4 6cbd
00000140: 1892 95bc d816 98bd 7024 5dbd db10 94bd
00000150: d0fc ec3b 664a 243d 6332 863d 68db 71bd
00000160: df52 b13d 66e9 aabd dbf4 9bbd 5cc4 9ebc
00000170: b8dd 1a3c d8ac 8abc 44ff b4bd 9b35 acbd
00000180: d471 32bd d556 a9bd 4062 d63c 7009 ffbb
00000190: f717 9a3d 8068 933c cc0f 53bd 8e54 fbbc
000001a0: 355a 83bd db49 aabd 93b0 2bbd 6c9a 9a3c
000001b0: dc0d de3c 958b aabd 7fa2 9b3d f81e 253c
000001c0: 7742 85bd 6ec6 1cbd 1124 a23d 466d 143d
000001d0: 60b4 01bb e82a 6bbc 72fe 223d 0929 76bd
000001e0: 60a0 a13b 3a7f 513d e0bc 50bd 96e3 1b3d
000001f0: fa10 2a3d 0047 4a3a 713e 8bbd 9fd0 98bd
00000200: 92d2 8d3c 249c 15bb c654 a93d d13d 87bd
00000210: 3d90 cc3d 04de f03c 2854 843d 659c 6abd
00000220: 0fbb c73d 0bfd 883d d0c4 503c 10dd 963c
00000230: a713 89bd 3f17 7b3d 9f6e 063c ce22 19bd
00000240: 0bed d9bd d7c6 773d eb47 af3d e538 8bbd
00000250: 770f 343d e8c4 c0bd 08e8 b23d d62e e9b9
00000260: aedb c93c 44ba 83bc 16d4 633d 7b10 46bd
00000270: 1d88 eabb f362 263d 616b 453c 5539 a63d
00000280: 1e55 a23d 8609 8cbd 4a89 aabd f382 043c
00000290: 72c8 cbbc ad56 85bc d876 cfb9 c224 05bd
000002a0: 1000 a43d f5bb bfbb 817e 4c3c 696f a03d
000002b0: b910 97bc 04ff b73c d4a4 093d 0464 973d
000002c0: c46e 573d b9f8 a53d d626 8bbd 8e3c a93c
000002d0: c341 603d 9945 393d 3acb 2cbd bdb7 483d
000002e0: 278d 983c 0eb6 4bbd ceae 81bd c108 653c
000002f0: e22d 77bd 933b 95bd 5d02 9dbd 3077 3abc
00000300: 3e71 5bbd 8867 07bd 39df 90bd c8f7 df39
00000310: 5050 30bd 36d1 643c bfca e23d f583 973d
00000320: 1d8f 893d f1e9 99bc b9a1 9ebd 81f0 8e3d
00000330: 8e8f a2bd ed59 4bbd 3652 42bd aa08 fbbc
00000340: 9bae a23d 11fd b93d 7bc3 dd3c 47ef 543d
00000350: 267b dfbd d8f4 9d3d 018e 01bd cb39 283d
00000360: 8064 283d 46f6 b33d 8f14 ed3b b384 b1bc
00000370: 6cef 9f3d 5401 c73d 3073 793b a27b 94bd
00000380: 6129 973d 0a73 bb3d 475b d7bd c1f3 ca3d
00000390: f8ec 873d 6523 843d 423b 9dbd 5dd0 83bc
000003a0: fa1e aabd 776c 6dbc 4b4e 37bd b6d8 6d3d
000003b0: cdaf 99bd 23e1 9ebd bea4 bf3d a0d9 96bd
000003c0: 2f6b c43c b59f c33b 75d2 d43d e035 59bd
000003d0: fa72 eabd 7dd9 fcbc 5eb2 3cbd 8cd4 95bd
000003e0: b152 aebc f023 063d cd90 b73c 0203 913d
000003f0: e860 e8bc f19b 8b3d acf2 b73a ba28 1c3d
-0.020359822 0.031788364 0.033268496 -0.0826517 -0.08020538 -0.079437524 0.008449182 -0.051138952
-0.045569636 -0.06698641 0.07683685 0.077799864 0.017340064 0.03382258 0.021896392 -0.054121345
0.053358965 -0.066384174 -0.05943135 -0.05365243 0.056813844 0.05345445 0.034407035 -0.028823469
-0.00040308386 0.08180725 0.07332162 -0.077667475 -0.040772628 -0.080718555 -0.06571855 -0.057065576
-0.072225325 0.06296114 -0.031703122 0.02840101 -0.009287424 -0.016843736 0.008966319 0.011120729
-0.012557745 0.06791448 0.06319811 -0.063317865 -0.08364459 -0.04064329 0.0768419 0.058162294
0.018292323 0.038605504 0.04857018 -0.008091107 0.035509996 -0.03443147 0.06830167 -0.0632484
0.047839172 -0.049500726 -0.033989158 -0.05104607 0.054488964 0.01223959 0.040868036 0.07464629
-0.06726379 0.08388657 0.011085726 -0.026171729 -0.079969384 -0.016598448 0.07153096 -0.07929715
-0.017740175 -0.008537456 -0.005147636 -0.07370058 -0.012974337 0.06384497 -0.04242919 -0.05784993
-0.01825814 -0.07426232 -0.053989828 -0.072297774 0.007232286 0.040110014 0.06552579 -0.059047133
0.086583845 -0.083452985 -0.07615062 -0.01938074 0.009452276 -0.016928121 -0.088377506 -0.08408662
-0.043565586 -0.08268515 0.026169896 -0.0077831075 0.07524102 0.017994165 -0.051528737 -0.030679967
-0.0641369 -0.08314868 -0.04191644 0.018872462 0.027106218 -0.083274044 0.07599353 0.010078184
-0.06506818 -0.038275175 0.07917035 0.036237024 -0.001979135 -0.014353491 0.03979344 -0.060097728
0.0049324483 0.051146723 -0.050961375 0.03805884 0.041520096 0.00077162683 -0.06799019 -0.07461666
0.017312322 -0.0022828663 0.082681224 -0.066035874 0.09988449 0.02940274 0.06461364 -0.057278056
0.097524755 0.06688889 0.012742236 0.018415958 -0.066932015 0.061301466 0.008205085 -0.037386708
-0.106409155 0.060492363 0.08558639 -0.06797961 0.04396006 -0.09412557 0.08735663 -0.0004447612
0.024640884 -0.01608003 0.055622183 -0.04835556 -0.0071573392 0.04062171 0.012049527 0.08116404
0.07926391 -0.06837754 -0.08326967 0.008087861 -0.024875853 -0.016276682 -0.00039570662 -0.032505758
0.080078244 -0.0058512636 0.012481333 0.0783375 -0.018440591 0.022460468 0.033604458 0.07392123
0.05259587 0.08104081 -0.06794517 0.020658758 0.054750215 0.04523239 -0.042186 0.04900335
0.018621994 -0.049734168 -0.063321695 0.013979138 -0.06034649 -0.072867535 -0.076664664 -0.011380956
-0.053574793 -0.03305772 -0.07073826 0.00042718486 -0.043045342 0.013965895 0.11073827 0.07398216
0.0671675 -0.01878831 -0.0774569 0.06979466 -0.07937537 -0.049646307 -0.047441684 -0.03064378
0.079434596 0.09081472 0.027070751 0.051986005 -0.109121606 0.07712716 -0.031629566 0.04107074
0.04111147 0.08787207 0.007235117 -0.021669721 0.07809338 0.0971705 0.0038063042 -0.072501436
0.07380939 0.09152801 -0.10515457 0.099097736 0.06636995 0.064520635 -0.07677318 -0.016090566
-0.083066896 -0.014491192 -0.0447524 0.058068 -0.075042345 -0.07757785 0.09357594 -0.073657274
0.02397689 0.0059699663 0.10391704 -0.053029895 -0.11447711 -0.030865425 -0.04606854 -0.07315931
-0.021279665 0.032749116 0.022407914 0.07080652 -0.028366521 0.06816853 0.0014034114 0.038124777

net.2.bias f4 [128]
00000000: c2c5 6cbd 264a 9c3d d4c5 433d c88b 503d
00000010: 41d5 093d 7d9a 1abd 6d8b d83d f8a0 ab3d
00000020: 5fa6 4d3d 5cb8 a6bd b417 323d 8860 b73c
00000030: 30df 5c3c 97ce 7d3d 7955 f4bc 7d66 34bc
00000040: 0407 39bd 9c1b 1b3d 87b1 2ebd 8646 553d
00000050: c11e 56bd 3e31 abbd 4a87 733c 13c5 b2bd
00000060: b89d c5bb 062a 0e3d 7163 89b9 2220 7ebd
00000070: e69f 92bc 2d88 60bd ca7c 26bb 2ff3 49bd
00000080: 29ba 733d b2d4 f6bc 84c8 a4bd 662c 263d
00000090: 7645 013d bd98 cf3c 0c5e 823c 0c9d 583c
000000a0: 90b6 013e 68fc 8b3d e05f 81bd 6cc4 823d
000000b0: f698 4d3d 5ff4 88bd 257e 113d a375 8dbd
000000c0: 7853 f73c 7413 8f3c b6d1 67bd 248e d3bc
000000d0: cd3b aa3d 388a 293d a325 86bc da3d 373d
000000e0: 4bf0 84bd 0982 233a e02d 81bd 7e69 e03b
000000f0: 47af 3cbd 9b41 b63d 6815 9dbd fd17 9bbd
00000100: 785d bb3c d670 14bd a54d 093d a40e 4f3d
00000110: e72a 3b3d 5a4b 86bc ec29 c93c b1a5 9a3d
00000120: 21ac 0e3d 5b63 b3bd f365 57bc e134 82bd
00000130: ac5a 0cbd 2e6d 3e3d 30bf d83d b8c4 483d
00000140: a46c cdbc 03bb 08bd 690c 37bd 9761 96bd
00000150: bc86 c23d e65a 2e3d 51ef 94bc 8c99 653c
00000160: 5518 be3c 9253 43bd b448 e43b 23c5 ee3d
00000170: 85ec 923d 534d 8dbd 5790 a53d f162 8e3c
00000180: 1444 9b3d 870e b2bc bd06 94bd 8e87 b9ba
00000190: f1de 99bc ea78 a63d e0d6 963d 6233 81bd
000001a0: 0dcc 703d 4c4a 40bd 905f e4bc 005d d7bb
000001b0: fe2f 38bc 4f8b afbd 1c59 873d 8de5 d53d
000001c0: c12d e8bb 024f 303d b28e 93bd cca9 8b3d
000001d0: f289 8bbd 14ef 833d 0916 903d 4d48 9ebd
000001e0: 9047 92bc b375 303d 2bce c43c b57f 843d
000001f0: b866 7e3d e8e8 683d c3a7 4f3d 316e 153d
-0.057805784 0.0763133 0.047796085 0.050914556 0.03365064 -0.037744988 0.10573468 0.08380312
0.050207492 -0.081406325 0.043479636 0.022384897 0.013480946 0.061964598 -0.029825913 -0.011010763
-0.045172706 0.037868127 -0.042649772 0.05206921 -0.052275423 -0.083590016 0.014863798 -0.08728995
-0.0060307644 0.034708045 -0.00026204766 -0.062042363 -0.017898511 -0.054817367 -0.002540397 -0.049304184
0.059503708 -0.030130718 -0.08046058 0.040569685 0.031560384 0.025341386 0.015913986 0.013221037
0.12667298 0.06835252 -0.06317115 0.06385121 0.050194703 -0.06687235 0.03552069 -0.06907203
0.030191168 0.01746533 -0.05659648 -0.025824614 0.08312187 0.04139158 -0.016375368 0.04473672
-0.06491145 0.00062373333 -0.06307578 0.006848513 -0.046065595 0.08899232 -0.076700985 -0.07572935
0.022871718 -0.03624042 0.033521313 0.05055107 0.04569521 -0.016393352 0.024556123 0.075511344
0.034832124 -0.08759185 -0.013146865 -0.06357742 -0.03426616 0.04649084 0.10583341 0.04901573
-0.025076218 -0.033381473 -0.04468957 -0.073428325 0.09498355 0.042567156 -0.018180521 0.014013659
0.023204962 -0.04768712 0.0069666747 0.116586946 0.07174019 -0.06899514 0.08084171 0.017381163
0.07581344 -0.021735443 -0.07227848 -0.0014154778 -0.018783065 0.08128531 0.07365203 -0.063086286
0.058788348 -0.046945855 -0.027877599 -0.0065723658 -0.011241911 -0.08571493 0.06608793 0.10444174
-0.0070855324 0.043044098 -0.07204951 0.068194956 -0.0681342 0.06442085 0.07035453 -0.07728634
-0.01785639 0.043080997 0.02402409 0.06469671 0.06210968 0.05686274 0.0506971 0.03648204

net.4.weight f4 [128, 128]
00000000: 9e00 263d a57e 383d 88ca c9bd b185 393d
00000010: b1a8 8e3c fb6f 15bd e056 103c 8005 0f3b
00000020: eab6 b83d 3aee 243d f265 5dbd c729 df3b
00000030: 4a0b 2f3d 49fd 96bc 832c 49bd f756 c93c
00000040: 46a0 24bd 8cc5 29bd d123 793c 4bcc 2d3c
00000050: 7ec8 0e3c a5e3 263d bfa9 17bc 3e00 063d
00000060: dcb7 2e3d 2007 92bc 2165 de3d 22ee 553d
00000070: b025 bc3d 1460 323d d3d1 2e3d 9699 8fbd
00000080: 390c 6c3b deb4 453d 1a03 5bbd 0ec8 2c3d
00000090: c9f0 c9bd b659 f9bc 796e 6b3d 5922 13bd
000000a0: 02da 4d3d 753d 613d 918a aebc 959a 913d
000000b0: b15c 2dbd 3f79 a93d e27d 703d 67c3 b13d
000000c0: 0e73 a4bd bfd9 513d 8b01 35bd 2372 453d
000000d0: f25d 6bbc 8562 55bd 8b4b 9f3d cc8b 003d
000000e0: ed17 9b3d 6f02 3d3d 7c8e c4bc 4c62 883b
000000f0: 29e7 633d c2b9 66bd 149c d737 2fee 05bc
00000100: fc11 883d 8d93 a4bd 8db2 5e3d 6ba6 1bbd
00000110: c6e1 54bd b344 3abd e7a2 a23d f85c 5e3d
00000120: 13d6 b03d f5dd a03d defd debc 1cd7 213d
00000130: 80f0 04bd 4c0f 023d a5ee 703b 20c2 943c
00000140: 04c2 0d3d b55d 63bd c0f5 7d3d 9d5b 72bd
00000150: 000a 42bd 11f4 c43d b9ca b43d 0deb 523d
00000160: 1a9e fabb 17e8 b73d 747b e93d b35d 5cbd
00000170: af97 8e3d 417f b83d 6b86 823c 1bd8 e33d
00000180: 79bc 9cbd f3c3 033d b178 4bbd 9789 7a3d
00000190: 47f7 a8bb 3170 b9bd 5316 d63c de89 1e3d
000001a0: 1586 5abc 1d14 8dbd f3f3 933d 7c69 d4bc
000001b0: 27cc 823c 8f23 8dbd 29d2 9c3d cdb1 b6bc
000001c0: cbf0 d73d b8bf 7cbd 9285 edbc 22b3 433d
000001d0: 97af a6bd 54c8 c13c 23b1 bbbd 7030 cb3c
000001e0: 0827 34bd 59c0 b5bd 3a34 6c3d 1d9c e73d
000001f0: 2cbc ab3c 9472 83bd b3f9 bd3d b386 943d
00000200: a094 493b 1cae 2fbd b085 5f3d 4966 b0bd
00000210: 9756 3cbd 06ed 283d d4c4 0fbc 6e64 973d
00000220: 5d7a a93d a953 61bd 7bc6 443c cef6 983d
00000230: 5e63 aabd 5406 b03d b8a5 e9bb bd16 56bd
00000240: 9ce8 25bd 876b 2e3d c061 11bd bd1f 1f3d
00000250: 8738 a33d 78f2 b23c 1f10 bfbc afe3 1ebd
00000260: 8129 b4bd a092 c23b 0041 2a3d 8c41 b9bc
00000270: ec82 2bbd 6833 ccbc 16c8 b23d 97c2 00bd
00000280: 9c9f 623c eaf8 7f3d 2a2c 313d caa8 aabd
00000290: 375c 453d 61dd 81bc 53a1 563c fd7e 31bd
000002a0: 345a f43d 90d8 aa3d f441 7ebd 41cb c3bc
000002b0: c350 763d e4ac 97bd 479f 75bc 7cc7 253d
000002c0: 7e82 fa3c 0cf0 4bbd f501 e93c da11 c9bb
000002d0: 24ef e43c b5a6 9f3d 9c12 54bd e53a 083d
000002e0: 05c3 94bd dd0e 7a3c 4953 0fbd c7ff e7bc
000002f0: 06db 80bd 52bb a73c 8fd5 57bd 0fc9 133d
00000300: a056 453d 27d5 0d3d e2e9 b9bb aeb1 8dbd
00000310: 09ef ec3d 1ae2 393d 3155 38bd 98b6 a73d
00000320: 4212 913d 7052 0f3d 03c5 c03b 97be 1bbd
00000330: aef4 0bbd aa7e 693d 6e62 07bd 0320 c53d
00000340: 527f 70bd 6c68 f4bb 7675 a03d 2e66 1e3d
00000350: 62cb e13d c26d f6bc a6b2 10bd 3e58 213d
00000360: eef7 733c d1f0 19bd 2727 76bd 57cf e03d
00000370: e876 76bc 906d d03d 33c1 843c 71fd 993d
00000380: b7c7 033e 7a75 9abd d02f 843d db6b 863d
00000390: f503 01bc 747e 1b3d 793d d53b 9844 9f3d
000003a0: 41b3 013d e6b4 c5bc a271 583d 3881 943c
000003b0: 8c28 443d c7b1 123d 0aaa ddbb 5748 443d
000003c0: 31f9 8dbd 3740 a3ba 1d2d 833d ce37 353c
000003d0: e23c 34bd 81e9 c1bc 003a 853d c09c 883c
000003e0: 7312 85bd 16cb 693d 8249 1e3d cebb b03d
000003f0: 9004 0abc bf29 0dbd 1618 c4bc 9700 463d
0.040527932 0.045042653 -0.09853083 0.045293514 0.017414423 -0.036483746 0.008809775 0.0021823347
0.09019263 0.040266253 -0.0540523 0.0068104 0.042735375 -0.018431323 -0.049114715 0.0245776
-0.04019191 -0.04144816 0.015206293 0.010607789 0.008714793 0.040744442 -0.009256779 0.032715075
0.04265581 -0.017825663 0.108591326 0.052229054 0.09186876 0.04354866 0.042680573 -0.07011716
0.0036018027 0.04826819 -0.053469755 0.042182975 -0.09860379 -0.030438285 0.0574784 -0.03592143
0.050256737 0.05499025 -0.021306308 0.07109562 -0.042324726 0.08275079 0.0587138 0.08679848
-0.080297574 0.05123305 -0.044190925 0.048204552 -0.01436566 -0.05209591 0.077780806 0.03138332
0.07572923 0.0461449 -0.023993723 0.0041621085 0.055640373 -0.056329496 2.5702677e-05 -0.008174463
0.06644055 -0.080359556 0.054369498 -0.038000505 -0.051973127 -0.045475673 0.079412274 0.05428788
0.086345814 0.07854835 -0.027220663 0.039511785 -0.03245592 0.03175287 0.0036763337 0.018158972
0.034608856 -0.055509288 0.062001944 -0.0591694 -0.047372818 0.096168645 0.08827729 0.051493693
-0.0076482417 0.089798145 0.114005 -0.053800296 0.06962525 0.09008647 0.015933236 0.11125203
-0.07653136 0.032169294 -0.049675647 0.061166372 -0.005156431 -0.09054602 0.026133692 0.0387057
-0.013337632 -0.06888602 0.07224264 -0.025929205 0.015966488 -0.06891548 0.07657272 -0.022301579
0.105439745 -0.061706275 -0.028994355 0.047778256 -0.0813896 0.023655094 -0.091646455 0.02480337
-0.043982536 -0.08874578 0.057666995 0.11309073 0.02096375 -0.064183384 0.09276142 0.07252254
0.0030758753 -0.042890653 0.054570854 -0.08613259 -0.045981016 0.04124167 -0.008774955 0.07392202
0.08275292 -0.055011425 0.012010212 0.07468949 -0.08319734 0.08594957 -0.007130351 -0.05226778
-0.040505037 0.042583015 -0.035493612 0.038848627 0.07969766 0.021844134 -0.023323117 -0.038791355
-0.08796979 0.005937889 0.041565895 -0.022614263 -0.041872904 -0.024926856 0.087295696 -0.031435575
0.013831999 0.062493242 0.04325501 -0.08332975 0.048183646 -0.015852632 0.013099986 -0.043333996
0.119312674 0.08342087 -0.062074617 -0.02390063 0.060135614 -0.07406023 -0.014991588 0.040473446
0.030579802 -0.049789473 0.028443316 -0.0061361613 0.027946062 0.07795469 -0.05177556 0.03325929
-0.072637595 0.015262333 -0.034991536 -0.028320206 -0.062917754 0.020475063 -0.0526939 0.036080416
0.048178315 0.034627106 -0.005673633 -0.06918655 0.1156903 0.045381643 -0.04500312 0.08189124
0.070835605 0.034990728 0.0058828606 -0.038023558 -0.03416889 0.057005562 -0.033052854 0.096252464
-0.058715172 -0.007458737 0.07834904 0.038671665 0.1102512 -0.030081633 -0.035326622 0.039390795
0.014890654 -0.037583176 -0.060095932 0.10977047 -0.015042998 0.101771474 0.016205406 0.07519043
0.12869154 -0.07541938 0.06454432 0.065635405 -0.007874479 0.037962392 0.0065075723 0.07776755
0.03166509 -0.02413411 0.052842744 0.018128023 0.04789023 0.035814073 -0.006764655 0.04792055
-0.06932295 -0.0012455051 0.06405089 0.011060668 -0.044003375 -0.023670914 0.06505203 0.016676307
-0.064976595 0.057078443 0.03864432 0.08629571 -0.008423939 -0.03446364 -0.023937266 0.048340406

net.4.bias f4 [128]
00000000: 118e a73d 0a6f 213d f7d9 f4bc 0234 ca3d
00000010: 4ba5 32bc d34a 6d3d 1fe2 52bd 9824 2bbc
00000020: ebdd 913d 26d3 bb3d ef38 8c3d 089a 1bbd
00000030: a626 8b3d 7f3a a13b e0f4 c23c 5352 b23d
00000040: 167e 87bd 976d 873c f5e8 cd3c 5fb9 57bd
00000050: 909a 1cbd 3b5a 88bd 18b7 27bd 9708 a13d
00000060: 8c94 94bd 22c4 883d d2f9 e6bc 71a6 b4bc
00000070: 9d87 b8bc 4fc6 8a3d 4f78 90bd b039 afbd
00000080: 006e cc3c 4895 b33d cc69 3abd bcc8 da3b
00000090: ba48 aebd fdd9 bc3c b981 a1bd dafe 92bd
000000a0: edce 483b 32c7 b13c 61c5 173d b1df 023d
000000b0: aabb 973d 4faf 50bd 06a6 9dbd 3d41 a03b
000000c0: a20c 183d 28e4 87bd 8d23 823d 507b 723b
000000d0: 2788 743b 6632 ba3c 6874 07bd c9ac 79bd
000000e0: d308 473d 2f1a 743d bbfa 893d 63db 2f3c
000000f0: 452b 3b3d e9e6 733d c30b 9f3c 8785 87bd
00000100: 3648 763d acb3 26bd 6a1d 593c dd9d c7bc
00000110: 0191 4bbd bae8 9fba 27ac 0e3d 27b0 703d
00000120: 63ac 2fbd 91c1 9bbd a62f cc3c fe7d 623d
00000130: a4c6 7cbd b784 c43d 1c84 953b 9533 86bd
00000140: a66d 20bc 05e6 79bd 168e bfbd 8b09 12bd
00000150: d0cb 993d eb37 643d 038b 77bc 8a4e a8bd
00000160: 8478 853a a47c 98bc 29ef b0bc fdbe 85bd
00000170: bad9 123d 94f5 a53d 3a1c 023c 85fd cc3c
00000180: e913 42bd 6de0 9f3c 1c2e ac3d 40e3 01bd
00000190: 4203 d03d e0f3 983b 7484 693c 0c25 acbd
000001a0: 75bf dbbc 32c5 d1ba 5828 d63c ad27 6c3c
000001b0: 8312 a13d 8b55 d43c ac78 b8bd 7210 6b3d
000001c0: aebe 99bc f586 59bd 3510 623d 6f57 2c3c
000001d0: 5f22 8a3c 228f 6b3d a93f 6ebd 8cac fc3c
000001e0: 250b 9d3d 8d8c 41bd 53ed d3bc aab7 3fbb
000001f0: 60d1 13bd 767e 2fbd dc2b adbd 607f 94bc
0.08181394 0.039412536 -0.02988909 0.09873201 -0.010903667 0.057932686 -0.051485177 -0.010445736
0.071224056 0.09171133 0.06846797 -0.037988693 0.06794481 0.0049203034 0.023798406 0.08707108
-0.06615846 0.016531749 0.025135497 -0.052667018 -0.03823334 -0.06657835 -0.040946096 0.078629665
-0.072548956 0.06678034 -0.028195295 -0.022052022 -0.022525603 0.067761056 -0.07054197 -0.08555925
0.024954796 0.087687075 -0.045511052 0.0066767614 -0.08509965 0.023053164 -0.07886071 -0.07177515
0.0030640916 0.021701429 0.03705347 0.03195161 0.07408841 -0.050948437 -0.07697682 0.0048905895
0.037121423 -0.06635314 0.06354437 0.003699977 0.0037312598 0.02272911 -0.033069998 -0.060955796
0.0485924 0.059595283 0.06737276 0.010733458 0.045695562 0.059546385 0.019414788 -0.06617265
0.06012746 -0.040698692 0.013251642 -0.024367267 -0.049698833 -0.0012200095 0.034832146 0.058761742
-0.04288901 -0.07605279 0.024925064 0.055295937 -0.061712876 0.09595626 0.004562868 -0.06552807
-0.009791767 -0.06101038 -0.093532726 -0.035653632 0.07509577 0.05571739 -0.015108827 -0.08218105
0.0010183011 -0.01861412 -0.021598415 -0.06530569 0.03585217 0.08103481 0.0079413 0.025023231
-0.04738227 0.019516194 0.08407232 -0.031710863 0.101568714 0.004667744 0.014252771 -0.08405504
-0.026824692 -0.0016004203 0.026142284 0.014413756 0.07864859 0.025919696 -0.09007391 0.05738873
-0.018767681 -0.05310722 0.055191237 0.010518893 0.016862093 0.05750955 -0.05816618 0.030843996
0.07668141 -0.04725318 -0.025870001 -0.002925376 -0.036088347 -0.042845212 -0.08455631 -0.018127143

net.6.weight f4 [256, 128]
00000000: e4ec 863d 8a91 0dbd d1b4 863d eca5 5a3c
00000010: b792 f03d a170 643d 6eb4 893d 4050 643c
00000020: 6eb5 dc3d 7075 e43d 33db 973d 1538 52bd
00000030: 98f0 4e3d 6d38 673d 2ac2 1e3d 17a0 f43d
00000040: aacc 85bd d079 b43c 4747 e03d f18f c8bd
00000050: 64f8 69bd 1ff5 573c 1a71 d43d f057 8a3c
00000060: 9e39 60bc 182f 913d 0233 7dbb 5f8f 5d3d
00000070: 20f4 693d 0436 0e3d 1eec 7abc 36d5 3b3d
00000080: f5e6 f5ba 3481 733d 0ecd 473d 5806 e93d
00000090: 761d a8bd edec e3bc b89e f8bc 0606 753d
000000a0: a4d2 53bd 4cb8 2abc 8b98 993d 3e0d 9cbd
000000b0: c7cd 493d e06e 4b3d 56cd 3c3d 7b5b 1bbc
000000c0: cf1e d63d 4347 eb3d a45f bebd d435 a93d
000000d0: 6bf0 a1bc 2e69 0dbd 3911 a73d 6603 69bc
000000e0: a36f 5b3d 0013 b53d 5bbb b6bd 27a7 8bbd
000000f0: 66a6 f2bc 5aaa ef3d b1af b13d 3bbd ff3d
00000100: c217 773d e8e8 8c3d 1263 2c3d ebb8 cb3d
00000110: 0689 af3c 4c57 aabc 94c6 95bd 5614 b33d
00000120: 293a b83d 2fdb bc3c b9ad 1bbb aacf cf3d
00000130: fbde 103c bdef 883d 67cc 22bc bcb0 bf3d
00000140: 8865 8cbd 7b88 8a3c 3422 1e3c 5b4c 103d
00000150: e910 dbbd 8935 853d 4de9 b13d e314 913c
00000160: 8b1d 9f3d 020f 153d 040e 3fbd 3f87 63bd
00000170: bc73 a43c 4a8f a33c 769c fd3b fea5 ea3d
00000180: 3391 543d 360d e63d 0cd3 87bd 3d0b d83d
00000190: 89ff 273d c2a3 4a3d 0153 693d 1848 abbd
000001a0: 850b a03b b4b8 493d 606c 313d bbca e1bd
000001b0: 8eee 5dbc 2b95 3a3d 5e7b 7dbd eb9f 45bd
000001c0: 1974 56bd bba5 2fbc e139 633d 59a2 353d
000001d0: f1ba e43d ba59 ca3d 2fbe 87bc 2b65 20bd
000001e0: 7c7d 563d 2ba8 a23d 39de 79bd 9bd7 49bd
000001f0: 4528 843d 2660 2abd d835 39bc c500 bb3d
00000200: e565 9a3d 86c3 8f3c 6bf9 0fbd fcc3 c0bd
00000210: 4aa3 bf3c 2b51 4ebd aa59 593d 376a 9dbd
00000220: a22d 3cba 5bc7 e33d 6e27 883d 4410 ccbb
00000230: 6e4f b23c 0767 c23d b4f2 cb3c 4430 c03c
00000240: fc84 d8bc a948 9bbc 7760 4bbd 9078 c4bc
00000250: cce7 db3c fb95 59bd c54a 033e 3c65 ecbd
00000260: 9a08 583d 2e9a cebc dd7e 3e3d 22a0 893c
00000270: a8f6 40bd 1d21 58bc cfac f03d b8e6 56bd
00000280: 4ee5 b73c 2f4f 9b3c 45d2 713d 9073 1bbd
00000290: ac36 d53c b5b7 13bd 04b5 dbbc 1dbb 68bd
000002a0: 9389 803c 00da b2bc 9ace 9d3d 155f 35bc
000002b0: be70 1d3d 5fcf 4fbd dae8 e5bc c1c8 c43c
000002c0: df28 ce3d 78f2 503d 1d62 c8bd f102 f63d
000002d0: e30d f63d 8275 033d 400b e7bc 98a8 02bd
000002e0: 58a5 4f3d 3871 cc3c 18f6 323d f3fd 9ebc
000002f0: 200b dd3b 2b26 aabc 9ee0 b73d f496 30bd
00000300: 0587 8f3d d0c7 813d 4561 063c 60fb a23d
00000310: b251 db3a be9f b63d 2d29 b1bd c125 44bd
00000320: 870c f43d 1ca5 14bd 81bc 0d3c f305 2c3d
00000330: 04c7 773c 8b28 863c 4f51 a73c c01b 0ebc
00000340: 4ff7 9abc c7ce 2b3c 9bcf 54bd acc0 32bd
00000350: 0a60 38bc 57b0 c73d 406d 80bc f730 3a3d
00000360: f61a 9bbc a078 8d3d 0fb9 4f3d cc61 cabc
00000370: 7170 a1bd 728d aabb 44b3 de3b 1191 9e3c
00000380: 92b4 1c3d 6205 2c3d 2f5f 0d3d 0f47 a43d
00000390: a065 b3bd 46a0 673d 1ecd 033c 6d9e 9c3d
000003a0: 04eb c03d b4ab 9c3d cef6 8d3d e8ae e6bd
000003b0: 7753 9f3d 92dc 1d3d 256a 67bd 1869 eb3d
000003c0: 66f1 9abd e5a8 a1bd 7733 c33d c815 103d
000003d0: 391a 37bd bee4 1c3d 44fb be3b 6807 953d
000003e0: de57 013d 9b5d 5abd cea1 a63c 5f3f 99bd
000003f0: a185 5f3d 928c 0cbd 1d5a b23d 8088 be3d
0.06588152 -0.034562625 0.06577457 0.013345223 0.11746734 0.055771474 0.06723867 0.013935149
0.107767925 0.11155212 0.07414856 -0.051323015 0.050522417 0.056450296 0.038759388 0.11944597
-0.06533177 0.022030741 0.10951095 -0.0979308 -0.05712165 0.013181 0.10373135 0.016887635
-0.013685612 0.070890605 -0.003863514 0.054091807 0.05711758 0.034719482 -0.015315084 0.04585763
-0.0018760847 0.05944939 0.04877954 0.11378163 -0.08208744 -0.027822936 -0.03034912 0.059820198
-0.051714554 -0.010419916 0.074997984 -0.07619713 0.04926851 0.049666286 0.04609426 -0.00948226
0.10455095 0.114882015 -0.09295586 0.0826222 -0.01976796 -0.034524135 0.08157582 -0.014222002
0.053573262 0.088415146 -0.08922454 -0.06818991 -0.02962036 0.11702414 0.086760886 0.12487265
0.06032539 0.06880361 0.04208667 0.0994738 0.021427643 -0.02079358 -0.073132664 0.08744113
0.08995468 0.023053734 -0.002375467 0.10147031 0.008842225 0.066863514 -0.009936429 0.09359881
-0.06855303 0.016910782 0.009651709 0.03522907 -0.10696585 0.06504352 0.08687077 0.017710155
0.07769307 0.036391266 -0.046644226 -0.055548903 0.020074718 0.019965786 0.007739599 0.11457442
0.051896285 0.112329885 -0.06632051 0.105490185 0.04101518 0.049472578 0.056963924 -0.0836336
0.0048841857 0.049248412 0.043316245 -0.11024996 -0.013545645 0.045552414 -0.06188523 -0.048248213
-0.052356813 -0.010720666 0.05547512 0.04434428 0.11168469 0.09880395 -0.016570179 -0.03915898
0.052365765 0.07942232 -0.061002944 -0.049277883 0.06452993 -0.0415956 -0.011304341 0.09131006
0.07538966 0.017549288 -0.035149973 -0.09412381 0.023393292 -0.050370377 0.053064026 -0.076862745
-0.00071784307 0.111220084 0.066481456 -0.006227525 0.02176639 0.09492307 0.024896003 0.023460515
-0.0264306 -0.018955545 -0.049652543 -0.02398327 0.026843928 -0.05312155 0.12821491 -0.115427464
0.052742578 -0.025220003 0.046507705 0.01679999 -0.04711023 -0.013191489 0.117517106 -0.052466124
0.022448208 0.018958656 0.05903842 -0.037952006 0.026027046 -0.03606387 -0.026819713 -0.05681907
0.0156906 -0.021832466 0.07705422 -0.011070033 0.038437597 -0.050734874 -0.028065134 0.024021508
0.10066389 0.051012486 -0.097843386 0.1201228 0.120143674 0.032094486 -0.028203607 -0.031899065
0.050694793 0.02495633 0.043691725 -0.019408202 0.006745711 -0.020770153 0.08978389 -0.04311271
0.07008175 0.06336939 0.008201902 0.07958102 0.0016732721 0.08917187 -0.08650432 -0.047887567
0.11916452 -0.036290273 0.0086509 0.04199786 0.015123133 0.016376754 0.020424513 -0.008673608
-0.018916754 0.010486311 -0.0519558 -0.043640777 -0.011253366 0.09750431 -0.015677094 0.045456853
-0.018933754 0.06907773 0.050713595 -0.024704836 -0.078827746 -0.00520485 0.0067962725 0.019356282
0.038258143 0.04199732 0.034514602 0.08021366 -0.08759618 0.056549333 0.008044509 0.07647405
0.09419826 0.07649937 0.0693184 -0.112638295 0.077795915 0.03854043 -0.05649771 0.114946544
-0.07565574 -0.07893542 0.095313005 0.035177022 -0.044702742 0.038304083 0.005828293 0.07276803
0.031577937 -0.053311925 0.020340826 -0.0748279 0.054570798 -0.034313746 0.08708594 0.09303379

net.6.bias f4 [256]
00000000: d04d 5e3d ba16 5e3c 1a4a a1bd 5f69 243d
00000010: 324d 44bd 16c0 9b3d 5957 4c3d 0192 a6bd
00000020: 7998 00bc c6fd 9e3d c991 d43d d65a 6b3d
00000030: 7f54 073c d516 403d 5e9c 9e3d 2b33 7c3d
00000040: c2ce 24bd 5c4f 7fbd 360b 903d 3398 ddba
00000050: b491 2f3d b614 0ebd 5a0b 82bd 8132 82bc
00000060: 814b 5cbd aaee 97bd 9ed7 d9bc bf74 623d
00000070: 164a 9bbc db92 b03d 93a3 b5bd 2a08 673c
00000080: 0040 bc3c fb88 823d 1955 d5bc 339c 10bd
00000090: e795 bd3d 6f81 fb3c 9057 95bd f7d2 42bd
000000a0: 88b5 8b3d 2d75 a33c 4c35 db3c 4fa3 033d
000000b0: a7b1 afbd 0479 8f3d f298 68bd b4e9 64bd
000000c0: 8638 9abd ced0 843d 5c7b 79bd d45f 8c3d
000000d0: 13cf 763d aa41 b0bd c880 fa3b ceba 8338
000000e0: e598 5abd d133 4c3c 9e97 6b3d 8acb c53c
000000f0: 5332 0e3d 33d9 0e3d 55bb 943d a438 9bbd
00000100: 1f82 383c 2a27 acbd 179f 93bd f7a1 9d3c
00000110: 5493 4e3b 2022 a2bd 3f61 83bd 7258 52bd
00000120: 9b14 88bd c5b2 41bd 3c8d b83c 1ea6 933c
00000130: b50e a63d 5a6f 8dbd 3c7e 44bd 2c66 ae3c
00000140: 00d3 553b a42c b9bc 061a 3b3b a0dc 9d3d
00000150: 66ba ebbc b272 38bc 1eb8 673c 24bf cdbd
00000160: 7a5a a43c 51eb 8cbb e443 8b3d 4d47 793d
00000170: 8a62 49bc 2fe2 c7bc 5e36 a23d 6e39 b43d
00000180: 0d59 083d 0aef 83bd 0e32 82bd f51b 53bd
00000190: 3af1 083d 2b5a 133d 5fbc 373d 4517 b9bd
000001a0: dd73 623d 06cd aa3c bac4 5dbd 89d1 8f3c
000001b0: d1fc ba3d 6ec4 9e3d aa57 af3c ef65 2a3d
000001c0: 9d17 833d 826a 82bd 267d 86bb 2ea9 e6bc
000001d0: 7bb6 2ebd a15c 51bd 5e84 173d 6467 1fbd
000001e0: b523 f0bc 6818 62bc 6e13 9bbd fff2 923d
000001f0: a249 273d 3ee1 a43d 01d1 70bd be94 31bd
00000200: 15be 513b 0ddb c8bd a38f c43d ecd9 b5bd
00000210: bd13 4f3d 287e 9ebc c0b0 9e3c 571e 87bc
00000220: 9cbc 193d 95bb ad3d 48de 71bd 9942 5f3d
00000230: c17e b13b 58ea 6a3d 2020 393c 2696 663c
00000240: 08fd b73d dba2 993d f118 b93d 6759 b13d
00000250: 0144 19bb f9fc 57bc 0f46 02bd 973b 39bd
00000260: 7675 563b 1d10 543d 81e3 9c3d 1038 58bd
00000270: 6ab7 a93d f882 a1bc a1e8 91bd a1c5 8a3d
00000280: 0961 623b 3ff9 83bd 49da 403d d56b 193d
00000290: fc19 7bbd ff61 f7bc a7f6 c9b9 a08a 29bd
000002a0: 43c3 a9bd d10e b23d f016 26bd a7d1 f6bb
000002b0: a6fc 2dbd 681b 78ba 3b26 7cbc 747c 00bd
000002c0: e3de 80bd 7fb6 d63c b853 2dbd 3d6d 9cbd
000002d0: 16be 92bc 5f5a 863d 77a1 5fbd 126c 0d3b
000002e0: d128 b63d 4aa5 6fbd ca36 773d 8d24 3d3d
000002f0: 3e00 94bd 3736 873d 4d31 9abd 5382 52bd
00000300: 39aa 4c3c 8284 1cbd 7876 073d fead a83c
00000310: 80d1 0e3d 0891 03bb 4453 25bd d401 20bd
00000320: a1c7 30bd 1b23 b5bd 602a bfbd 7774 b5bd
00000330: 8cae bdbd 68df 243d 8158 a03d e5de bf3d
00000340: 9868 97bb f132 363d bc9c 483d bd19 333d
00000350: b55e 9b3d 8025 9f3d 0662 51bb 3625 a73d
00000360: d6a4 823d 55e2 923c 9993 a7bb ea34 40bb
00000370: 8ef0 463d 2211 aa3d f422 83bd 6ff0 593d
00000380: f0f1 93bd 1044 1cbc 5b83 433d 0a8f 4cbd
00000390: 94be 143d 1fb3 1dbd d414 13bd 838c 613d
000003a0: 7052 79bd 8104 dfbc 624d f0bc 5d3b 32bb
000003b0: cce6 d73c 11c6 143d 766b b43d 241e 9f3c
000003c0: 9e4f f03b f4b8 6bbd 39bf 333c ee76 0cbd
000003d0: f6f1 453d c316 dc3c 54a0 913d d498 fbbc
000003e0: 24d5 443d 3544 3d3d 11bf e53b f8bb 9fbd
000003f0: 47ea 543d 3052 5fbd 5421 c73c f025 143d
0.054273427 0.013555223 -0.07875462 0.040139552 -0.04792518 0.07604997 0.04988799 -0.08133317
-0.007848852 0.07763247 0.10379369 0.057459675 0.0082598915 0.046896774 0.077446684 0.061572235
-0.040236242 -0.062331542 0.07033388 -0.0016906321 0.042863563 -0.03468772 -0.063498214 -0.015893223
-0.053782944 -0.074185684 -0.026592072 0.05528712 -0.018956225 0.086217605 -0.0886909 0.014101068
0.022979736 0.06373783 -0.026041554 -0.035305213 0.09257107 0.030701367 -0.07292092 -0.047564473
0.06821734 0.019953335 0.026758812 0.032138165 -0.08578806 0.07005504 -0.056786485 -0.05588694
-0.07530312 0.06485139 -0.06090866 0.06854215 0.060256075 -0.086062744 0.0076447465 6.281362e-05
-0.053368468 0.012463526 0.05751764 0.024144907 0.03471596 0.034875106 0.07262293 -0.07579163
0.011261492 -0.084059075 -0.07208078 0.01924227 0.003152092 -0.07916665 -0.064150326 -0.05135388
-0.06644555 -0.04728963 0.022528283 0.018023547 0.08108274 -0.06906004 -0.04797195 0.021288954
0.0032626987 -0.022604294 0.0028549447 0.077080965 -0.028775405 -0.011257814 0.014143018 -0.10046223
0.020062674 -0.004300513 0.068000585 0.060859013 -0.01229156 -0.024399845 0.07920526 0.08800016
0.03328805 -0.064420775 -0.063572034 -0.051540334 0.033433177 0.035974663 0.04485738 -0.090376414
0.055286277 0.020849716 -0.05414269 0.017555969 0.09130252 0.0775231 0.021404106 0.041601118
0.06400988 -0.06367971 -0.0041042743 -0.028156843 -0.042654496 -0.05111373 0.03699147 -0.03891696
-0.029313901 -0.013799764 -0.07572065 0.07175254 0.040841706 0.08050774 -0.05879307 -0.043354742
0.0032004167 -0.098074056 0.09597709 -0.08879456 0.050555933 -0.019347265 0.01937139 -0.01649396
0.037533388 0.08483044 -0.059049875 0.05450687 0.0054167216 0.057352394 0.011299163 0.014073884
0.08983809 0.07501765 0.0903796 0.0865963 -0.002338648 -0.013182872 -0.031805094 -0.045222845
0.003272382 0.05177318 0.076605804 -0.05278784 0.082869366 -0.019715771 -0.071244486 0.06775976
0.00345427 -0.06444024 0.047083173 0.037456352 -0.061304078 -0.030198095 -0.00038521478 -0.04139197
-0.08289196 0.08694232 -0.04054922 -0.0075323167 -0.042477272 -0.0009464533 -0.015389974 -0.031368688
-0.06292512 0.026210068 -0.04231617 -0.07638023 -0.017912906 0.06560206 -0.054597344 0.0021579308
0.08894504 -0.05850724 0.060354985 0.046177436 -0.07226609 0.066021375 -0.07528935 -0.051393818
0.012491756 -0.038212307 0.033071965 0.020590778 0.034867764 -0.002007546 -0.04036261 -0.039064243
-0.04315913 -0.088445865 -0.09334254 -0.088601045 -0.09261808 0.04025212 0.07829381 0.09368686
-0.004620623 0.044482175 0.0489776 0.043725718 0.07586423 0.077708244 -0.0031949296 0.08161394
0.06379096 0.01793019 -0.0051140306 -0.0029328414 0.048569255 0.08304049 -0.06403151 0.05320781
-0.0722388 -0.009537712 0.047732692 -0.0499411 0.036314562 -0.0385009 -0.035908535 0.055065643
-0.060869634 -0.027223827 -0.029333774 -0.0027196028 0.02635517 0.036321703 0.08809559 0.019423552
0.00733371 -0.057549432 0.010970884 -0.034293108 0.048326455 0.026866322 0.07110658 -0.030712523
0.04805483 0.046207625 0.0070113023 -0.07799524 0.051981237 -0.05452174 0.024307884 0.036168993

net.8.weight f4 [1, 256]
00000000: 5f29 a23d c896 1b3d b610 abbd 080e 8bbd
00000010: e0c8 28bd b3b3 a1bd fdb3 1bbd 03b0 75bd
00000020: fac6 cc3d 5b45 1dbd 22a1 933d fe06 d73d
00000030: 5baf 11bd 2f3f 9b3d c897 a2bc 67c9 693d
00000040: bc0d 5d3d bc98 a03c 2e0d 69bd 4945 80bd
00000050: f2bc a33d 9221 3dbd 7b3a a93d fd6a 353d
00000060: 8731 a53d b038 ae3b 5dee 8cbc 6944 aebd
00000070: 49e7 393d b197 6a3d 59c3 b3bb acae 8d3d
00000080: f716 d7bc 7be7 ae3d 4832 613d 20ea 2e3c
00000090: 1217 05bd 5098 5b3d 28ec 54bd 4e50 663d
000000a0: 9c08 8ebd 3a6d c13d 70df 323d d97c b23d
000000b0: 27db 903d 163e 2ebd a8f4 af3c 49f1 a33d
000000c0: 9359 aebc 588d ac3d 5b05 8d3d 0625 af3d
000000d0: 54ab 683d 4aa3 543d 7459 babd 2573 393d
000000e0: 6e3f 0cbd 33e9 b93d f389 bf3d 390b 6a3d
000000f0: b9d3 7c3d 3977 8c3d 7d28 c33d 399b 6dbd
00000100: dd2e 83bd 70ff 82bd 4595 6a3d 8874 66bd
00000110: a801 883d 99bd 1a3d a96a 253d f7bc 8d3d
00000120: 87f8 70bd 718a e0bc 2f5f 033d 3bde 8dbd
00000130: fa8e 8fbd 61ed 04bd 8253 593c 2780 dbbc
00000140: e3ad 7fbd 069e bb3b 6c2f a5bd d3f2 a4bc
00000150: 6b0f c23d aee2 293d 862d f7bb 698a 083d
00000160: 83cc f6bc fc10 a03d 80d2 cabc 6723 b8bc
00000170: 06b1 b7bd a34a ae3d 15a8 1f3d 7edb 703d
00000180: d613 823d 60a1 20bc a352 9e3d 8f4d a43d
00000190: 70e7 283d d6c1 69bd 6250 983d 53c2 b03d
000001a0: 4362 903d 0e0f 0a3d 90a4 a73d d992 c13d
000001b0: b7be b03d 0468 bb3d 37d5 413d 70a7 3fbd
000001c0: 8267 a13d ba70 33bd 452b 763d 80fa 993a
000001d0: e85e 5e3c d216 a13d fd78 6c3d 7a85 a03d
000001e0: 4acb 1fbd 8018 1d3c cfcf cebc f55e 99bd
000001f0: 033c 123d dcf5 0a3d d584 52bb 01b9 663d
00000200: 259f d13d 92cc 743d 6ac5 473d 9b78 2dbd
00000210: 52a0 ffbb 016e bb3d ae5f d63d 26a2 a73d
00000220: 6f64 c43d 340c 5a3d fe19 6c3d fa20 b93d
00000230: b8cc 85bc ea7f 9dbc ba24 d4bc 17b1 5dbd
00000240: 41fc 0ebd 799d 0e3d ccb4 47bd 6c36 85bd
00000250: f6da 2cbd f664 e73d a4f6 c23d 1517 b6bc
00000260: 46e8 c5bc a798 2abd e83f 8bbd e6b5 12bd
00000270: 6bac f43c 25b1 a1bd 684c b13d fdd3 863d
00000280: 635b d9bc 40f7 173d 2123 2abd 995f 5abd
00000290: 3878 553d 9a3a 813d c701 bc3d 943f e9bc
000002a0: 1ef9 81bd b425 9abd bf06 393d df6b d03d
000002b0: e271 55bc 5b5c 0f3d 9137 013d a6d7 373d
000002c0: acbf 943d 2cce 0f3d 33d6 81bd 3a28 98bd
000002d0: bdf1 0cbd 68ea 4dbd e8a9 813d 8771 4b3d
000002e0: 65e3 95bd 486f 883d 4dc4 323d dfab 5a3d
000002f0: fe40 9abd b955 cf3d 5d14 6a3d 5f9d 66bd
00000300: 4c2b 7bbd c040 cb3d c56d 5a3d 4e5c a13d
00000310: b172 673d ece8 56bd e97f 15bc 2b7e 4cbd
00000320: 6062 603c 3805 76bd 9e28 3ebd b2be 5cbc
00000330: 44a9 a23d 307c 89bd 1a17 90bd 2c82 cebd
00000340: eea5 a13d 35af 8f3d 8378 7cbd 6c02 12bd
00000350: 8984 c73d b244 40bb 1e4b 363d 911e 4c3d
00000360: f5fd e1bc c739 c53d 0d5b 94bd 3ffe 95bd
00000370: c978 423d 4608 ca3d 5cea 7f3d 9508 13bd
00000380: ce29 57bd 5702 913d 6c0f fc3c 2009 bd3c
00000390: 4c43 2ebd 4d9e b9bc 98d0 903c d5b5 40bd
000003a0: aab3 7c3d b460 1bbd 51a3 d2bc 106f 8bbd
000003b0: 4b8d 2ebd e4c5 aebc 82a3 943d 8323 febc
000003c0: c8d6 a0bd 6aff 72bd c98a fdbc 80bf 73ba
000003d0: c36e 13bd 19a7 c03d 53d8 89bc d229 ae3d
000003e0: 8ee0 1cbd 425f d5bc 9e64 b23d 0bc0 86bd
000003f0: d729 89bc 3f0d c83d 49e0 34bd b58a 9c3d
0.07918047 0.037985593 -0.08352797 -0.067897856 -0.041207194 -0.07895603 -0.038013447 -0.05998231
0.09998889 -0.03839622 0.07208468 0.104993805 -0.035567623 0.07580411 -0.019847766 0.057076838
0.053968176 0.01960408 -0.056897335 -0.06263215 0.07995023 -0.046174593 0.082631074 0.044291485
0.08066087 0.0053168163 -0.017203504 -0.08509142 0.045386586 0.05727357 -0.0054859337 0.06918082
-0.026256068 0.08540245 0.054979593 0.010675937 -0.032492705 0.053612053 -0.05198303 0.05622893
-0.06935236 0.094446614 0.043670118 0.08715219 0.0707305 -0.04253968 0.021478966 0.08005006
-0.021282947 0.08425397 0.06885787 0.085519835 0.056804016 0.051913537 -0.09099093 0.045275826
-0.03424018 0.09077682 0.093524836 0.05713961 0.061725352 0.068586774 0.09529207 -0.05800936
-0.06405423 -0.06396377 0.05727126 -0.056263477 0.06640941 0.03777847 0.040384922 0.06920808
-0.058830764 -0.027409764 0.032073196 -0.06927153 -0.070096925 -0.032452945 0.013264539 -0.026794506
-0.06242169 0.005725625 -0.08065686 -0.020135319 0.09475597 0.041475944 -0.0075432686 0.033335123
-0.030126816 0.078157395 -0.024758577 -0.022477819 -0.089693114 0.085103296 0.038978655 0.058803074
0.0635144 -0.0098041 0.077306055 0.08022606 0.04123634 -0.057069622 0.07437207 0.086308144
0.07049992 0.033705764 0.08185685 0.09451837 0.08630126 0.09150699 0.04732248 -0.04679054
0.07881071 -0.043808676 0.06009986 0.0011747628 0.013572432 0.07865681 0.05773257 0.07837959
-0.03901223 0.009588361 -0.025245575 -0.07488815 0.035701763 0.033925876 -0.003212263 0.056328777
0.102354325 0.059765406 0.048772253 -0.042351346 -0.007801094 0.09151841 0.10467468 0.08185224
0.09589469 0.053234294 0.057641976 0.09039493 -0.01633297 -0.019226033 -0.025896419 -0.054123964
-0.034908537 0.034818146 -0.048756406 -0.06504521 -0.042201005 0.11298554 0.09519699 -0.022227803
-0.024158608 -0.041649487 -0.067992985 -0.035818003 0.029867372 -0.07895116 0.086571515 0.06583402
-0.026532834 0.03710103 -0.041537408 -0.053313825 0.052116603 0.063100055 0.091800265 -0.0284727
-0.063463435 -0.075267226 0.04517245 0.10176825 -0.01302764 0.035000186 0.031547133 0.044883393
0.07263121 0.03510873 -0.063396834 -0.074295476 -0.034410227 -0.050272375 0.06331235 0.049668815
-0.07318763 0.0666185 0.04364424 0.053386565 -0.075319275 0.10123772 0.057148326 -0.056302425
-0.061320588 0.099244595 0.05332734 0.07878934 0.056505863 -0.052468225 -0.009124734 -0.04992501
0.013695329 -0.06006357 -0.046425454 -0.0134732 0.07942441 -0.0671314 -0.07035656 -0.10083422
0.07892977 0.0701584 -0.061638366 -0.03564684 0.09742076 -0.002933782 0.04450523 0.049833838
-0.027586916 0.09630161 -0.07243929 -0.07323884 0.04747847 0.09864859 0.062479362 -0.035896856
-0.052530102 0.070805244 0.030769072 0.02307564 -0.042544648 -0.022658492 0.01767759 -0.04704841
0.06169478 -0.03793402 -0.025712641 -0.06808293 -0.042615216 -0.021334596 0.07257749 -0.031022793
-0.07853466 -0.059325613 -0.030949967 -0.000929825 -0.035994302 0.09406871 -0.016826784 0.0850407
-0.03830009 -0.026046399 0.087105975 -0.06579598 -0.016743584 0.097681515 -0.044159207 0.07643644
