model/v.pth (torch, 140364 bytes, 5 tensors)

net.0.weight f4 [128, 9]
0	0xbca39384	-0.019967802
1	0x3ac1fcb9	0.0014800049
2	0xbea1c799	-0.31597593
3	0xbd05b6bf	-0.032644983
4	0x3e7f4ea9	0.2493235
5	0xbe673b54	-0.22581226
6	0x3e382ab5	0.17985041
7	0x3e6020d2	0.2188752
8	0xbe8cf667	-0.2753174
9	0xbcb93ed4	-0.022612967
10	0xbe4be324	-0.19910866
11	0x3e477bb0	0.19480777
12	0x3e32a119	0.17444266
13	0xbeb2fa77	-0.34956715
14	0xbbf8e956	-0.007596175
15	0x3e6380ee	0.22217152
16	0x3e196f3f	0.14983843
17	0xbe4ac2a9	-0.1980082
18	0xbdb5cf72	-0.08877458
19	0x3d369c42	0.044582613
20	0x3e9a06c3	0.30083284
21	0x3e25ff0b	0.16210572
22	0xbe849baa	-0.25900012
23	0x3e714687	0.2356206
24	0x3e9b0f26	0.30284995
25	0x3d9c747d	0.07639406
26	0x3e10de9c	0.14147419
27	0xbe68db77	-0.22739969
28	0x3d1b1500	0.037861824
29	0xbea700be	-0.32617754
30	0xbe8df11a	-0.27723008
31	0x3e367abf	0.17820261
32	0xbe296705	-0.16543205
33	0x3d6506fa	0.055914856
34	0xbea770ca	-0.3270324
35	0x3e1d5e6e	0.15368053
36	0xbc6b04c6	-0.0143444
37	0xbeba974a	-0.3644355
38	0x3cb99637	0.022654636
39	0x3df4b27e	0.11948107
40	0x3ea0efaa	0.3143285
41	0x3e3c5915	0.18393357
42	0x3d6f6a06	0.05845072
43	0x3d686e4b	0.05674581
44	0xbe9036e5	-0.2816688
45	0x3d9026fe	0.07038687
46	0xbd710d22	-0.058850415
47	0xbc1e9a42	-0.009680333
48	0x3d727730	0.059195697
49	0xbe7ccc2c	-0.2468726
50	0x3d4d3297	0.050097074
51	0xbd5942ee	-0.053042345
52	0xbc165827	-0.009176291
53	0x3eb820f7	0.3596265
54	0x3e17d6dc	0.14828056
55	0xbe61fa98	-0.2206825
56	0x3e177711	0.14791514
57	0xbc7056d7	-0.014669142
58	0xbcc9ae37	-0.024619205
59	0xbe1055e0	-0.14095259
60	0xbe4d45d8	-0.20046175
61	0x3e0b7707	0.13619624
62	0xbe9d7957	-0.30756637
63	0xbcb16dca	-0.021658797
64	0xbea17f67	-0.31542513
65	0x3cd74f37	0.02628289
66	0xbe5f8961	-0.2182975
67	0x3d12e78f	0.035865363
68	0xbd704558	-0.05865988
69	0xbd85bb2c	-0.06529841
70	0x3e63b726	0.22237834
71	0x3e0ba122	0.13635686
72	0xbe7b95e6	-0.245689
73	0xbdb57a7c	-0.08861253
74	0x3d0cbef8	0.03436181
75	0xbe395f3e	-0.18102738
76	0x3e5fe94a	0.21866336
77	0x3e803485	0.2504007
78	0xbe9a8817	-0.30181953
79	0xbe39c728	-0.18142378
80	0x3dd8c3f0	0.10584247
81	0xbea6f1b8	-0.32606292
82	0x3e81033d	0.25197783
83	0xbe9ac297	-0.30226585
84	0xbe2cd12e	-0.1687667
85	0x3df5f1b0	0.12008989
86	0x3d921e9c	0.071347445
87	0xbea1133e	-0.31459993
88	0xbe90fb2a	-0.28316623
89	0x3da345a4	0.07972267
90	0xbe306923	-0.17227606
91	0xbe9d3f07	-0.3071215
92	0xb9b941e1	-0.00035335033
93	0x3deb9964	0.11503866
94	0xbe16a9b1	-0.1471317
95	0xbe8277ec	-0.25482118
96	0xbe862540	-0.26200294
97	0x3da7c42d	0.081917144
98	0x3e841938	0.2580049
99	0xbe165d1b	-0.14683954
100	0xbe5db638	-0.21651542
101	0xbd8f7a34	-0.0700573
102	0x3e0795ee	0.13240787
103	0x3d315d38	0.04330179
104	0xbdfbbc00	-0.122917175
105	0x3d841494	0.064492375
106	0xbe22641b	-0.158585
107	0xbe2e9c30	-0.17051768
108	0xbdcca387	-0.09992128
109	0x3dbf5d71	0.093439944
110	0x3e2749d3	0.16336755
111	0xbea67187	-0.3250849
112	0xbdc78d75	-0.09743778
113	0xbcf3be39	-0.029753791
114	0x3e50bb77	0.20384012
115	0xbd25c6f5	-0.040472943
116	0x3e8108dd	0.25202075
117	0x3cc70aa7	0.024297072
118	0xb980690d	-0.0002449233
119	0xbe265573	-0.16243534
120	0xbe620838	-0.22073448
121	0x3e8e11c1	0.2774792
122	0xbc00f98b	-0.007871996
123	0x3e897bf5	0.26852384
124	0x3d882344	0.066473514
125	0x3e2d59b5	0.16928752
126	0x3d07cf4a	0.03315667
127	0xbe9e6945	-0.3093969
128	0xbe06fd7c	-0.13182634
129	0x3cf4eac2	0.029897097
130	0x3e631707	0.22176753
131	0x3b078bdb	0.0020682726
132	0xbe230cfb	-0.1592292
133	0xbd93b487	-0.07212167
134	0xbe94781b	-0.28997883
135	0x3eb860bb	0.360113
136	0xbe792bd7	-0.2433313
137	0x3d881502	0.06644632
138	0x3e7c728e	0.24653074
139	0xbe396767	-0.18105851
140	0x3d25bd76	0.040463887
141	0xbe443aae	-0.1916301
142	0xbe47e72d	-0.1952178
143	0x3e422014	0.1895755
144	0x3e0bc930	0.13650966
145	0x3e645d5f	0.22301243
146	0xbea60635	-0.3242661
147	0xbea10a65	-0.31453243
148	0x3d94a36d	0.072577335
149	0x3e6526f8	0.22378147
150	0x3e2cab5b	0.16862242
151	0x3c9542c2	0.01822031
152	0x3e7b317f	0.245306
153	0x3e7cb49a	0.24678269
154	0xbd6dbbfd	-0.058040608
155	0xbe8e61b6	-0.27808923
156	0x3e04d2fc	0.12971109
157	0xbe7b6742	-0.24551108
158	0xbea924b0	-0.33035803
159	0x3e051aff	0.1299858
160	0x3dc5c7a9	0.09657223
161	0x3e8f15fc	0.2794646
162	0x3c80b0e8	0.015709355
163	0xbe75984c	-0.23983878
164	0x3ceb6dde	0.028738912
165	0x3de7db3d	0.11321113
166	0x3e9c6dde	0.30552572
167	0xbe040f69	-0.12896504
168	0x3e9fcbf3	0.31210288
169	0x3ea79dc2	0.32737547
170	0x3e59be05	0.21263893
171	0x3ec0b4b8	0.37637877
172	0x3e6ac3c4	0.22926241
173	0xbde7527c	-0.112950295
174	0x3e9ed0f3	0.3101879
175	0x3df38789	0.11891086
176	0x3ba62fe7	0.0050716284
177	0x3e730329	0.23731674
178	0x3e9fe0d4	0.31226218
179	0x3e5014f1	0.20320489
180	0x3e900bc1	0.28133968
181	0xbe2010ae	-0.15631363
182	0x3eb02f33	0.3441101
183	0xbe23faed	-0.1601369
184	0xbe9d14b4	-0.30679858
185	0xbe7d580f	-0.24740623
186	0xbd84fbc0	-0.0649333
187	0xbe69dd7e	-0.22838399
188	0x3dc66ff9	0.09689326
189	0x3b78eeb7	0.0037984082
190	0xbeabcbf5	-0.33554044
191	0x3e685541	0.22688772
192	0x3d974ecf	0.073880784
193	0x3eae5b1d	0.3405389
194	0x3e738d60	0.23784399
195	0xbe6cb55a	-0.23116055
196	0xbd8120c9	-0.063050814
197	0x3db89fe6	0.09014873
198	0x3e77c802	0.2419739
199	0xbe928b72	-0.28622013
200	0x3db977b2	0.09056033
201	0xbe532f6d	-0.2062356
202	0xbe8a6145	-0.27027336
203	0x3e944e18	0.2896583
204	0xbc28d25b	-0.010304059
205	0x3dec2959	0.11531324
206	0x3e791239	0.24323358
207	0x3e09a7af	0.13442872
208	0xbe317941	-0.17331411
209	0xbe8cb3ab	-0.27480826
210	0x3e394ec4	0.18096453
211	0xbe034509	-0.12819304
212	0x3e9f0a12	0.3106237
213	0x3eb86378	0.3601339
214	0x3e57e242	0.21082404
215	0x3e00da5f	0.12583302
216	0x3de2c311	0.11072362
217	0xbe16d898	-0.14731061
218	0x3e837e2a	0.25682193
219	0x3bbdf698	0.0057972185
220	0xbd8947ff	-0.06703185
221	0x3e36e775	0.17861731
222	0x3ec62567	0.3870041
223	0xbddccda8	-0.10781413
224	0x3ea858a8	0.3288014
225	0x3eb1125e	0.34584326
226	0xbe877b31	-0.26461175
227	0xbd7f106b	-0.062271517
228	0x3ea0bb9d	0.31393138
229	0xbe3137bb	-0.17306416
230	0xbeabd7c1	-0.33563045
231	0x3e3b15d0	0.1827004
232	0x3e34cacc	0.17655486
233	0x3de6f3d4	0.11276975
234	0x3dd21968	0.10258752
235	0xbe50ac07	-0.20378123
236	0x3ea4c7ba	0.3218363
237	0xbd8dffe8	-0.06933576
238	0x3c5a62ad	0.01332919
239	0x3e037bef	0.12840246
240	0xbdeb894c	-0.11500797
241	0x3e5bbde4	0.21459156
242	0xbea4813a	-0.32129842
243	0xbde7333e	-0.112890705
244	0xbe6cce83	-0.23125653
245	0x3e89060d	0.2676243
246	0xbe5e3d82	-0.21703151
247	0xbea706bf	-0.32622334
248	0x3ea0725f	0.31337258
249	0xbe84526a	-0.25844127
250	0x3cc5df4b	0.024154326
251	0xbe276da3	-0.16350417
252	0xbda9a304	-0.08283046
253	0x3e7d536f	0.24738859
254	0x3eb2729b	0.34853062
255	0x3e7444aa	0.23854318

net.0.bias f4 [128]
0	0xbe55d1cd	-0.20880814
1	0x3cf93cbb	0.030424466
2	0x3eb31fbb	0.34985146
3	0x3e998938	0.29987502
4	0xbdd3cc65	-0.103417195
5	0x3e156190	0.14587998
6	0xbe380408	-0.17970288
7	0x3e443fe9	0.19165005
8	0xbe0bb07e	-0.13641545
9	0xbea2efb4	-0.31823504
10	0xbe1cd249	-0.15314592
11	0xbe5c8253	-0.2153409
12	0xbc9f44f7	-0.019442065
13	0xbd8c96f1	-0.06864727
14	0x3eb397e4	0.3507682
15	0x3e1ce30b	0.15320985
16	0xbbeb1738	-0.0071743988
17	0x3e299ddb	0.16564123
18	0xbe4729bd	-0.19449516
19	0xbe857bb6	-0.26070946
20	0xbe62a913	-0.22134809
21	0xbe5165b9	-0.2044896
22	0xbe9fea6a	-0.3123353
23	0x3ea2b186	0.31776065
24	0x3e491607	0.19637309
25	0x3e782d4e	0.24236032
26	0xbd786fb4	-0.060653403
27	0x3e1d30f9	0.15350713
28	0x3e764989	0.24051489
29	0xbe88ad8f	-0.26694915
30	0x3da79bea	0.08184035
31	0xbe8f68b6	-0.28009576
32	0xbe992747	-0.2991278
33	0xbb919b70	-0.0044435784
34	0xbcf416e6	-0.029796075
35	0x3d923879	0.071396776
36	0x3da8ec7a	0.08248229
37	0xbe47aa62	-0.1949859
38	0x3e0acf03	0.13555531
39	0xbe9ec9d8	-0.3101337
40	0x3d1b9282	0.037981518
41	0xbe8fd24f	-0.2809014
42	0x3ead32a6	0.33827704
43	0xbdd9cdfe	-0.10634993
44	0xbe2ce026	-0.16882381
45	0xbe710968	-0.23538744
46	0x3dc2604f	0.09491026
47	0x3e8d935a	0.27651483
48	0x3d0e3259	0.034715984
49	0x3d63b7d2	0.055595227
50	0xbe8443fb	-0.25833115
51	0x3e10fe66	0.14159545
52	0x3b868900	0.004105687
53	0x3eacfe4d	0.33787766
54	0xbe5f911d	-0.218327
55	0x3d12eb05	0.035868663
56	0xbe6ef385	-0.23335083
57	0xbda5987d	-0.080857255
58	0xbe668583	-0.22511868
59	0x3e857d4f	0.26072165
60	0xbe51f116	-0.20502123
61	0x3e1b61ad	0.15173979
62	0xbc998bf0	-0.018743485
63	0xbe4d1f8e	-0.20031568
64	0x3e49dc56	0.19712958
65	0x3ddc7730	0.10764921
66	0xbddc0502	-0.10743143
67	0x3d76c32a	0.060244717
68	0xbe7f1eb8	-0.24914062
69	0x3e4eabc8	0.20182717
70	0xbe153ba7	-0.14573537
71	0x3c83d70c	0.016093753
72	0x3eaefdbd	0.34177962
73	0x3e8aac51	0.27084592
74	0x3c6f6f88	0.0146139935
75	0x3e3498ae	0.17636368
76	0xbd6c18a0	-0.05764067
77	0xbe449be3	-0.19200091
78	0xbe4b8346	-0.19874296
79	0x3e88a261	0.26686385
80	0x3e3a351a	0.18184319
81	0x3e09cdff	0.13457488
82	0xbd2937ab	-0.041312855
83	0x3cdab5b0	0.026697963
84	0x3dba47a0	0.09095693
85	0xbddd9512	-0.108194485
86	0x3e2da964	0.16959149
87	0x3e9b462f	0.30326983
88	0xbe3dedd8	-0.18547761
89	0x3be7cc84	0.0070739407
90	0xbe7f16b3	-0.24911003
91	0x3d1af2ad	0.03782909
92	0xbdbd5ff9	-0.09246821
93	0x3eb8417b	0.35987458
94	0xbe2974a0	-0.16548395
95	0x3e7d1875	0.24716361
96	0x3e07373b	0.13204663
97	0xbe354257	-0.17701088
98	0x3e9c4c7d	0.30527106
99	0x3e9a1857	0.30096695
100	0x3e1a94b7	0.15095793
101	0x3d41c2c5	0.047304887
102	0xbe4b99a8	-0.19882834
103	0x3e39188c	0.1807577
104	0x3c919e8b	0.017775794
105	0x3e730879	0.23733701
106	0x3eaeea09	0.3416293
107	0x3e5159ac	0.20444363
108	0x3e8f285f	0.27960488
109	0xbc76880a	-0.015047083
110	0xbe45e89e	-0.19327018
111	0x3e1f4d6f	0.15556882
112	0xbe90ad53	-0.28257236
113	0xbd9d9c02	-0.07695772
114	0x3d952c4c	0.072838396
115	0x3ead17f7	0.33807346
116	0xbe3a6c22	-0.18205312
117	0x3db8bd69	0.09020502
118	0xbd10082e	-0.03516405
119	0xbde8c320	-0.11365342
120	0x3cce24bf	0.025164006
121	0xbe3b66d6	-0.18300948
122	0xbe030a20	-0.12796831
123	0xbe35b410	-0.1774447
124	0x3e1e8cd0	0.15483403
125	0xbd53b28e	-0.051683955
126	0x3e40ce5c	0.1882872
127	0xbddb1a85	-0.106984176

net.2.weight f4 [256, 128]
0	0x3c521d8c	0.012824427
1	0x3d125e06	0.0357342
2	0x3dd5822f	0.10425221
3	0x3dae9f45	0.08526472
4	0x3b3f4fc1	0.0029191824
5	0xbc6e42c2	-0.0145422835
6	0x3bdb793a	0.006697801
7	0x3ca95ca3	0.020674055
8	0xbd588b83	-0.052867424
9	0x3d40caa6	0.04706826
10	0x3d08ddbb	0.033414584
11	0x3d83c59b	0.064341746
12	0xbd817f5d	-0.06323121
13	0xbd1d6c49	-0.038433347
14	0xbced8c94	-0.028997697
15	0x3cfd49f3	0.03091905
16	0x3bcee631	0.006314062
17	0x3dde5c4c	0.10857448
18	0x3d66b6a2	0.056326516
19	0x3df6e134	0.12054673
20	0x3d903c86	0.07042794
21	0xbdd6f757	-0.10496395
22	0x3d209e56	0.0392135
23	0x3d1e6835	0.0386736
24	0x3d2005fc	0.039068207
25	0x3cc089a3	0.02350313
26	0x3b039c7c	0.0020082286
27	0xbcf1ba4a	-0.029507775
28	0xbc0e1ffe	-0.00867462
29	0xbd016933	-0.031594466
30	0xbd2d8d12	-0.042370863
31	0x3c1f4b94	0.009722609
32	0xbd88754e	-0.06662999
33	0x3d79c712	0.060980864
34	0x3db5a347	0.08869033
35	0xbd951e30	-0.072811484
36	0x3cd6de99	0.02622919
37	0x3c98758b	0.018610736
38	0xbd94bd6d	-0.072626926
39	0x3d94a68f	0.07258331
40	0x3db1bf0f	0.0867902
41	0xbd500e99	-0.05079517
42	0xbdc589cd	-0.09645424
43	0x3b9ca48f	0.004780359
44	0x3da11ed2	0.07867207
45	0xbd34106f	-0.043960985
46	0x3a519122	0.0007994344
47	0xbc638249	-0.013886043
48	0xbdc4313e	-0.09579705
49	0xbd01d766	-0.03169956
50	0xbc9a0d00	-0.018805027
51	0xbd637deb	-0.055540007
52	0x3d1e0b82	0.038585193
53	0x3dfa51be	0.12222622
54	0xbda103a3	-0.07862022
55	0xbdc105c5	-0.094249286
56	0x3da7bf38	0.08190769
57	0x3d922b35	0.07137147
58	0xbd869c72	-0.06572808
59	0x3dec772f	0.1154617
60	0x3d99e5ee	0.07514559
61	0xbdc64ab9	-0.09682221
62	0xbcdf3aee	-0.02724978
63	0x3d04738f	0.032336768
64	0xbc9a2412	-0.018816028
65	0x3d65dc9d	0.056118596
66	0x3d044c97	0.032299604
67	0x3c650869	0.013979056
68	0x3d8bfdf5	0.06835548
69	0xbd6ce579	-0.05783603
70	0xbcb31ca5	-0.021864245
71	0xbba62f61	-0.005071566
72	0xbd7a595f	-0.061120387
73	0xbbb31373	-0.005464965
74	0xbd348804	-0.044075027
75	0x3de48e58	0.111599624
76	0xbc89f468	-0.016840175
77	0xbcae812b	-0.021301826
78	0x3ded3248	0.11581856
79	0x3c1841cf	0.009293034
80	0xbb079334	-0.0020687105
81	0x3da9dc16	0.08293931
82	0xbba41346	-0.0050071804
83	0xbc3d6d1d	-0.011561659
84	0xbd9a4974	-0.07533541
85	0x3dec3116	0.115328
86	0x3ded4809	0.11586005
87	0xbd0dd0d8	-0.034622997
88	0x3d8636c1	0.06553412
89	0xbbc8a8ba	-0.0061236294
90	0x3d58e7e2	0.052955516
91	0xbd8579bf	-0.06517362
92	0xbc4318fa	-0.01190781
93	0x3de5eea0	0.11227155
94	0x3dfd3096	0.12362783
95	0xbd543893	-0.051811766
96	0x3d41362b	0.0471708
97	0x3c191ee0	0.00934574
98	0x3d8cbcf9	0.06871981
99	0x3dd51a08	0.10405356
100	0xbc47c1ed	-0.012192232
101	0x3ddb8bdf	0.10720038
102	0xbd90aa56	-0.07063739
103	0x3d94fc05	0.072746314
104	0x3d8e5004	0.069488555
105	0xbc6da43f	-0.014504491
106	0xbc2dff23	-0.010619911
107	0x3dca38c2	0.09874107
108	0x3db4b0c0	0.08822775
109	0x3dd81aa6	0.10551958
110	0xbd9b8c21	-0.07595087
111	0xbd88f2c6	-0.0668693
112	0xbd4314dd	-0.04762732
113	0x3d1bee30	0.03806895
114	0x3ccf6798	0.025317952
115	0x3da4ec96	0.08052938
116	0xbd11c0f2	-0.035584398
117	0xbdcd6855	-0.100296654
118	0x3e0cc18f	0.13745712
119	0x3c8b8715	0.017032186
120	0xbc35cfe1	-0.0110969255
121	0xbd070d2a	-0.03297154
122	0x3da75a93	0.081715725
123	0xbdd40c42	-0.103539005
124	0x3c87578b	0.016521236
125	0xbd85098a	-0.0649596
126	0xbd829b2c	-0.06377253
127	0x3d5059b6	0.050866805
128	0xbd998e2c	-0.0749782
129	0x3d13fa53	0.0361274
130	0xbc8805ed	-0.016604388
131	0x3cfc6bf8	0.030813202
132	0x3d6f1f70	0.05837959
133	0xbc925ce8	-0.017866567
134	0xbc2edc50	-0.010672644
135	0x3ca9cddd	0.020728046
136	0x3d3253be	0.043536894
137	0x3cce9844	0.02521909
138	0x3c741261	0.01489696
139	0xbcb2c0b4	-0.021820404
140	0x3cae67f4	0.021289803
141	0x3cc2cbf8	0.0237789
142	0xbcd47a16	-0.025937121
143	0x3c79e89a	0.01525321
144	0x3ca66f4c	0.020316742
145	0xbcf93ea9	-0.030425387
146	0x3d365bd3	0.044521164
147	0x3c16f12b	0.009212772
148	0xba177100	-0.0005777031
149	0xbdab6b5c	-0.083700866
150	0x3d954735	0.07288972
151	0xbd0c75bf	-0.03429198
152	0xbd656d8b	-0.05601267
153	0x3c68f953	0.0142196
154	0x3d55176f	0.0520243
155	0xbd194cca	-0.037426747
156	0xbc48bfb5	-0.012252738
157	0xbd5ad480	-0.053425312
158	0xbd8a3c6b	-0.06749805
159	0x3cab1a3e	0.020886537
160	0x3d7d044a	0.06177167
161	0xbd084287	-0.03326657
162	0x3d69c574	0.05707307
163	0x3d130e00	0.035902023
164	0xbd8893dd	-0.06668828
165	0xbd969660	-0.073529005
166	0xbdb2d6b9	-0.08732361
167	0x3d5930f6	0.05302521
168	0xbd193a5e	-0.03740918
169	0xbd4e7036	-0.05039998
170	0xbda34d13	-0.07973685
171	0x3d805925	0.06267003
172	0x3d876acb	0.06612166
173	0xbd818ca5	-0.06325654
174	0xbd62b816	-0.05535134
175	0xbd1dd003	-0.038528454
176	0x3cfde28b	0.030991813
177	0x3d6b53a1	0.0574528
178	0xba239a80	-0.0006240979
179	0x3c860110	0.016357929
180	0x3d2edece	0.04269295
181	0x3d216725	0.039405007
182	0x3d03390e	0.032036833
183	0x3d2ec295	0.042666037
184	0x3d70d13b	0.058793288
185	0xbd31af54	-0.043380097
186	0x3cb864d4	0.022509016
187	0x3d67e35c	0.05661331
188	0x3da4666a	0.080273464
189	0x3d3fb965	0.046807665
190	0x3ca9ac60	0.020712078
191	0x3d8717cb	0.06596335
192	0x3d2052f2	0.039141603
193	0xbda08b43	-0.07839062
194	0xbb9665fa	-0.0045897933
195	0xbadcd951	-0.0016849433
196	0xbd96a60d	-0.073558904
197	0x3d1a39ee	0.037652902
198	0xbda44bce	-0.08022271
199	0x3d9f3e5f	0.07775568
200	0xbd0a6444	-0.033787027
201	0xbd216a1c	-0.039407834
202	0x3cd7fe24	0.0263663
203	0x3d4fbb71	0.050715867
204	0xbc4bb978	-0.012434356
205	0xbd57d0c3	-0.052689325
206	0x3b8c505f	0.004282042
207	0xbcb47369	-0.022027688
208	0xbd46dbbb	-0.048549395
209	0xbd89a30e	-0.06720553
210	0x3da2efca	0.079558924
211	0x3d13f47c	0.03612183
212	0x3da82a2f	0.08211171
213	0x3ca9976c	0.020702086
214	0xbdb25c60	-0.087090254
215	0x3c257030	0.010097548
216	0x3d9cba65	0.076527394
217	0x3d2d1181	0.04225302
218	0xbd9143fa	-0.070930436
219	0x3c5be460	0.013421148
220	0x3d392472	0.045200773
221	0xbd4b9367	-0.04970112
222	0xbc511ebe	-0.012763677
223	0x3c0c1ffe	0.008552549
224	0xbd996bd2	-0.07491268
225	0x3d3dbb31	0.046321098
226	0x3dabd26d	0.08389745
227	0xbd7f59a2	-0.06234134
228	0x3d2499a6	0.040185593
229	0x3d8c4ed5	0.068509735
230	0x3db33903	0.087511085
231	0xbd56bb4e	-0.05242472
232	0x3dacf431	0.08445013
233	0xbc6a7b3b	-0.014311607
234	0x3d37d7bf	0.044883486
235	0xbca42f65	-0.02004213
236	0xbcbf5d9f	-0.023360072
237	0x3d863add	0.06554196
238	0xbd804364	-0.06262854
239	0x3d1549db	0.036447387
240	0xbd78faf5	-0.060786206
241	0xbd63a0e7	-0.05557337
242	0xbd075a4c	-0.0330451
243	0x3d7a3a00	0.06109047
244	0x3d2d74ab	0.04234759
245	0x3daf83eb	0.08570083
246	0xbc447a8a	-0.011992106
247	0xbc35b078	-0.011089437
248	0x3d8e7246	0.0695539
249	0xbd6ec450	-0.058292687
250	0xbdadb28e	-0.08481322
251	0xbd0e30cb	-0.0347145
252	0xbb8da793	-0.004322955
253	0x3d520c9c	0.051281556
254	0x3d1995cd	0.037496377
255	0xbc9ab51c	-0.018885188

net.2.bias f4 [256]
0	0x3cf519b4	0.029919483
1	0xbcdef4f7	-0.027216418
2	0x3d56ee22	0.052473195
3	0x3d1a9911	0.03774363
4	0xbd312376	-0.04324671
5	0x3912582c	0.00013956492
6	0xbc985bd2	-0.01859847
7	0xbd97fcbf	-0.07421254
8	0x3d04626f	0.032320436
9	0x3d120be0	0.035655856
10	0xbbe5497a	-0.0069972845
11	0x3cd215a3	0.025645083
12	0x3cc4fda4	0.024046727
13	0x3d37772d	0.04479139
14	0xbb4243bf	-0.002964243
15	0xbc8f10d8	-0.017464086
16	0xbba927c2	-0.00516221
17	0xbcc26ca8	-0.023733452
18	0x3dd01f66	0.10162239
19	0x3d191dc7	0.037381914
20	0x3dcef66e	0.101055965
21	0x3b7e399a	0.0038791657
22	0xbd626caf	-0.05527943
23	0xbd67fa1d	-0.05663501
24	0xbd8b6b55	-0.06807581
25	0xbda9d2c4	-0.082921535
26	0x3b735efb	0.003713547
27	0xbad1fc0d	-0.0016020552
28	0x3d9963be	0.074897274
29	0xbd3a67fc	-0.045509323
30	0x3dd5e510	0.10444081
31	0x3d062a2a	0.032755055
32	0xbc9ee787	-0.01939751
33	0xbd5a149a	-0.053242303
34	0xbc58f6ca	-0.013242433
35	0x3d375c2b	0.044765633
36	0x3da9d073	0.08291712
37	0x3b429e60	0.002969645
38	0x3ca2c75c	0.019870453
39	0xbdb35c85	-0.08757881
40	0x3c9fbd6a	0.0194995
41	0x3d7738a1	0.06035674
42	0xbcc9aa7e	-0.02461743
43	0xbd91941d	-0.071083285
44	0x3db6112c	0.08889994
45	0x3d83e003	0.06439211
46	0x3dd1b302	0.10239221
47	0x3cb69a53	0.022290384
48	0xbca5297c	-0.020161383
49	0x3cefea19	0.029286431
50	0x3dc63d1b	0.09679624
51	0xbd68a919	-0.05680189
52	0x3de45069	0.111481495
53	0xbcd9bb64	-0.026578613
54	0xbd627905	-0.055291194
55	0x3d26574b	0.040610593
56	0x3da2fd83	0.0795851
57	0xbd704646	-0.058660768
58	0xba82a6e1	-0.0009967947
59	0xbc95c92a	-0.018284399
60	0x3dc85967	0.09782677
61	0xbd00530c	-0.0313292
62	0xbd560d82	-0.052258976
63	0xbd57dbf1	-0.052699987
64	0xbdb319e0	-0.0874517
65	0xbd39a812	-0.0453263
66	0xbd4dd80a	-0.05025486
67	0x3ced51df	0.028969703
68	0x3d82175d	0.063521124
69	0x3decff41	0.11572123
70	0x3d8d176c	0.06889233
71	0x3bc050e0	0.005869016
72	0x3dad3c39	0.08458752
73	0x3da3d60a	0.07999809
74	0xbc9f2254	-0.019425549
75	0xbd44bec2	-0.048033483
76	0x3d4f24dc	0.05057226
77	0x3d4fed14	0.050763205
78	0xbd16b741	-0.03679586
79	0x3db175c9	0.08665044
80	0xbce42e74	-0.027854182
81	0x3c6ca8bb	0.014444525
82	0xbcb781a2	-0.02240068
83	0x3c642ce8	0.013926722
84	0xbd52512e	-0.05134695
85	0x3c93f93e	0.018063184
86	0xbcb6406b	-0.022247514
87	0xbd349d9f	-0.04409563
88	0x3d304453	0.04303391
89	0x3d3f7c54	0.046749428
90	0x3c5fde23	0.013663801
91	0xbd8f7548	-0.070047915
92	0xbd0d3234	-0.034471706
93	0xbd7584c2	-0.05994106
94	0x3df56ac7	0.11983257
95	0x3d51ce5e	0.051222198
96	0x3d9630ca	0.073335245
97	0xbcaa118a	-0.020760316
98	0xbcad429d	-0.021149928
99	0x3db94cdf	0.09047865
100	0xbc1fb3d8	-0.009747468
101	0x3dcb7659	0.099346824
102	0xba1a51d3	-0.00058868265
103	0x3dd255ea	0.10270293
104	0x3ddad03b	0.10684248
105	0xbd398f8c	-0.045302913
106	0xbc676aeb	-0.014124612
107	0xbcf0af23	-0.029380387
108	0x3d5ed406	0.05440142
109	0x3d8f42a8	0.069951355
110	0xbd87aec8	-0.06625134
111	0xbcbcd208	-0.02304937
112	0x3ce51f8a	0.02796914
113	0xbd7aee88	-0.061262637
114	0x3b3e3dbe	0.00290285
115	0xbda022d7	-0.07819145
116	0x3d68f512	0.056874342
117	0xbd503cb9	-0.05083916
118	0x3dac03bf	0.08399152
119	0x3cfd592e	0.030926313
120	0x3c983ee8	0.018584684
121	0x3bc26aef	0.0059331576
122	0x3d03a000	0.03213501
123	0xbd715b3f	-0.05892491
124	0x3d96c84e	0.07362424
125	0xbd26528e	-0.040606074
126	0x3bf94570	0.0076071545
127	0xbc42cab4	-0.0118891485
128	0x3d56008a	0.052246608
129	0x3cff057a	0.031130541
130	0x3cf557c1	0.02994907
131	0x3d7d2d02	0.0618105
132	0x3d817467	0.0632103
133	0x3dbaae59	0.091152854
134	0x3d898fc0	0.06716871
135	0x3ba45370	0.0050148293
136	0xbd485de5	-0.04891767
137	0x3d781637	0.06056806
138	0xbc42aaa0	-0.0118815005
139	0xbcb86040	-0.022506833
140	0x3bd50d22	0.0065018097
141	0xbd2b0bad	-0.04175918
142	0xbda6a16e	-0.08136259
143	0xbda245f7	-0.07923501
144	0xbd4b38c6	-0.04961469
145	0x3d254616	0.040350042
146	0xbd7e9e10	-0.06216246
147	0xbd7f5d1f	-0.062344667
148	0xbd3f6bd5	-0.046733696
149	0xbcf51d9f	-0.029921351
150	0x3dd5fcb7	0.10448592
151	0xbd2562e4	-0.040377513
152	0x3d0d2e27	0.034467842
153	0x3d5c3bb4	0.053767875
154	0x3dc22e52	0.09481491
155	0x3d0edb73	0.03487725
156	0x3de87b25	0.11351613
157	0xbce1acec	-0.027548276
158	0xbcc1e185	-0.023667106
159	0x3dbb8625	0.091564454
160	0x3db74eca	0.08950575
161	0x3d7f125e	0.062273376
162	0x3cb47244	0.022027142
163	0x3d978382	0.0739813
164	0xbc40aae0	-0.01175949
165	0xbd2b9405	-0.04188921
166	0xbca815d0	-0.020518214
167	0xbc9b80a5	-0.01898224
168	0x3d5eaace	0.05436211
169	0xbd8fdfc7	-0.07025104
170	0x3dc0d01b	0.09414693
171	0x3c999555	0.018747965
172	0xbd3d950a	-0.046284713
173	0xbcf40ad3	-0.029790318
174	0x3dac3a0b	0.08409508
175	0x3d4e35ec	0.050344393
176	0x3baa1159	0.0051900563
177	0x3dd394e0	0.1033113
178	0x3d94c926	0.072649285
179	0xbd198a98	-0.03748569
180	0xbc5f3f75	-0.013625969
181	0xbdb11534	-0.08646622
182	0x3d9c8796	0.076430485
183	0xbccc0e55	-0.024909178
184	0x3d682ce0	0.05668342
185	0xbac176c0	-0.0014760122
186	0x3d25e122	0.040497907
187	0x3d9356fa	0.07194324
188	0x3d70270f	0.058631
189	0x3d8b294d	0.06794987
190	0xbd25630e	-0.04037767
191	0x3dbc86c2	0.092053905
192	0x3d5583ed	0.052127767
193	0x3d8717ce	0.06596337
194	0x3c9cb153	0.019127524
195	0x3cf37644	0.02971948
196	0xbcabcdf5	-0.020972231
197	0xbc4909c8	-0.012270398
198	0x3cc70eb1	0.024298998
199	0x3da7d888	0.08195597
200	0xbd2aed78	-0.041730374
201	0x3d6ddb99	0.058070753
202	0xbd8bf97d	-0.068346955
203	0x3d48e96c	0.049050733
204	0xbd838cbc	-0.06423327
205	0x3cba746c	0.022760592
206	0x3d5137ff	0.051078793
207	0x3d07ebea	0.03318397
208	0xbd2ef980	-0.04271841
209	0xbc8333eb	-0.016015967
210	0x3d2d0712	0.04224307
211	0x3cf84441	0.030305983
212	0xbc8a1914	-0.016857661
213	0xbd44815d	-0.047974933
214	0x3d796df6	0.060895883
215	0x3d81d8cd	0.063401796
216	0x3d931f81	0.07183743
217	0xbc7fa64c	-0.015603613
218	0xbd5a3f9f	-0.05328333
219	0xbd1cd949	-0.038293157
220	0xbd292e28	-0.041303784
221	0xbd1afa4a	-0.03783635
222	0x3d296f3a	0.04136584
223	0x3d15c08d	0.036560584
224	0x3d0256a7	0.03182092
225	0xbd564b8b	-0.052318137
226	0x3d814f6f	0.06313979
227	0xbd38f1fe	-0.045152657
228	0xbd2832a4	-0.04106392
229	0xbca21b4f	-0.019788412
230	0xbd243e4e	-0.04009848
231	0x3db66edd	0.08907864
232	0xbdb29e5c	-0.08721611
233	0xbcf96012	-0.030441318
234	0xbd1a7031	-0.03770465
235	0x3d940802	0.0722809
236	0x3ce5cead	0.028052652
237	0xbd2fa719	-0.042883966
238	0xbd525b3e	-0.051356547
239	0xbc748f80	-0.014926791
240	0xbbc403f6	-0.0059819175
241	0x3c94bdb4	0.018156864
242	0x3cd4ebe3	0.025991386
243	0x3cfaceec	0.030616246
244	0x3d3b1b14	0.04568012
245	0x3ccd2a82	0.025044683
246	0x3dc68693	0.09693637
247	0x3db4e0e4	0.08831957
248	0x3d464f42	0.04841543
249	0x3c95e997	0.01829986
250	0x3dbe708f	0.092988126
251	0x3d6a3026	0.057174824
252	0xbd79c660	-0.0609802
253	0x3d906351	0.07050193
254	0xbd831c4f	-0.06401884
255	0xbd238c9c	-0.039929017

net.4.weight f4 [1, 256]
0	0x3d922611	0.07136167
1	0x3d653353	0.05595715
2	0x3bc3a200	0.0059702396
3	0x3d495926	0.049157284
4	0xbd29f391	-0.04149205
5	0xbd7ee224	-0.062227383
6	0x3d5d228f	0.053988036
7	0x3d0a8662	0.033819564
8	0x3d57840c	0.052616164
9	0x3daf08ee	0.08546625
10	0x3d345570	0.044026792
11	0x3d976d57	0.07393902
12	0x3d246b0e	0.040141158
13	0xbd276aa3	-0.04087318
14	0x3d6cd344	0.057818666
15	0x3d72a674	0.059240773
16	0xbd3d2b96	-0.046184145
17	0x3bc99080	0.006151259
18	0x3d1a509a	0.037674524
19	0x3d8044f8	0.06263155
20	0x3dcc3b10	0.09972203
21	0xbddb4c3f	-0.10707902
22	0xbd06c8dd	-0.032906402
23	0xbd8f8630	-0.07008016
24	0xbc1f5331	-0.009724424
25	0x3d21009e	0.03930723
26	0x3d240b66	0.040049933
27	0x3dc40d40	0.0957284
28	0xbdccd477	-0.10001462
29	0x3d6e60e1	0.05819786
30	0x3dbe6c86	0.09298043
31	0xbd422110	-0.047394812
32	0xbdb1fc95	-0.08690754
33	0xbdbca264	-0.09210661
34	0x3d83061a	0.06397648
35	0xbd5f6da9	-0.05454794
36	0xbd947f43	-0.07250836
37	0x3cead674	0.028666712
38	0x3d89aae0	0.06722045
39	0xbceb86fc	-0.028750889
40	0x3d7cf867	0.061760332
41	0x3d98d7b3	0.07463016
42	0xbdbab5bb	-0.091166936
43	0xbd0fa131	-0.035065833
44	0xbdb8989c	-0.09013483
45	0x3dc36640	0.09540987
46	0x3d343930	0.04399985
47	0x3db931eb	0.09042724
48	0x3daecf3f	0.08535623
49	0xbcd17eaa	-0.025573093
50	0xbd93ef19	-0.07223339
51	0x3d149d25	0.036282677
52	0x3d5e1844	0.05422236
53	0x3cb3e60c	0.02196028
54	0xbd7ce04c	-0.061737344
55	0x3d510883	0.051033508
56	0x3d2c544c	0.04207258
57	0xbd6fdd0f	-0.058560427
58	0x3d9f2692	0.077710286
59	0x3d59b3ef	0.053150114
60	0xbd76f9f6	-0.060296975
61	0xbca62296	-0.020280164
62	0x3d65e3e0	0.05612552
63	0xbcd8aea4	-0.026450463
64	0xbc9e5eec	-0.019332372
65	0xbd3a2f49	-0.04545525
66	0x3d10ab2a	0.035319485
67	0x3d90e2cc	0.07074508
68	0x3d5febbe	0.05466818
69	0x3d6d3f74	0.05792184
70	0xbd9656ac	-0.0734075
71	0xbdd19991	-0.102343686
72	0xbda5d8e7	-0.080980115
73	0x3d43da91	0.047815863
74	0x3d228116	0.039673887
75	0x3d6408d0	0.055672467
76	0xbd2f5fd2	-0.04281599
77	0xbdb32883	-0.08747961
78	0x3da55808	0.08073431
79	0xbcf6d2b0	-0.03012976
80	0x3d95b372	0.07309617
81	0xbd163605	-0.03667261
82	0x3dcd6807	0.10029607
83	0x3cbade44	0.022811063
84	0xbd5e7d15	-0.054318506
85	0xbd8b9c7d	-0.06816957
86	0x3d437c38	0.047725886
87	0x3cacee8d	0.021109844
88	0xbdc5eceb	-0.09664329
89	0xbd0cbced	-0.03435986
90	0xbdb1031f	-0.086431734
91	0x3d25ba5f	0.04046094
92	0xbda524e8	-0.0806368
93	0xbd14452a	-0.036198772
94	0x3d364f4d	0.04450922
95	0xbcca8908	-0.024723545
96	0x3d9e4a28	0.07728988
97	0x3c43ed40	0.01195842
98	0xbdcb3a32	-0.09923209
99	0xbd6ead93	-0.058271002
100	0xbcb29cc4	-0.021803267
101	0x3d5a6ee7	0.05332842
102	0x3d53d8d7	0.051720466
103	0x3d864731	0.065565474
104	0x3d8c8135	0.06860582
105	0x3d51164e	0.051046662
106	0xbd81feb0	-0.06347406
107	0xbd5ca18e	-0.053865008
108	0xbd573822	-0.052543767
109	0x3daa59de	0.08317922
110	0x3bf280c0	0.007400602
111	0xbd926683	-0.07148459
112	0x3ce27434	0.0276433
113	0xbcbee44c	-0.02330222
114	0xbc03c80b	-0.008043299
115	0xbd376ff2	-0.044784494
116	0xbd86bfd0	-0.06579554
117	0x3d55018e	0.052003436
118	0x3d757b61	0.059932116
119	0x3c326d31	0.010890291
120	0x3d514124	0.051087514
121	0xbd0d73e0	-0.034534335
122	0x3cd948f0	0.026524037
123	0x3da43792	0.08018412
124	0xbdabf2d7	-0.083959274
125	0xbd0dfefa	-0.034666993
126	0x3dbc8078	0.09204191
127	0x3dc03080	0.09384251
128	0xbd1ce023	-0.03829969
129	0xbca32538	-0.019915208
130	0x3c3f63da	0.011681521
131	0x3d127144	0.03575255
132	0x3c81fbee	0.0158672
133	0xbd5fd838	-0.05464956
134	0xbdd2e3d1	-0.10297359
135	0x3bfb8550	0.007675804
136	0xbd9b3255	-0.075779594
137	0xbd1b0d99	-0.037854765
138	0xbd24cbe4	-0.040233508
139	0x3db39f47	0.08770614
140	0xbd0f7bd7	-0.035030212
141	0x3d5ed455	0.054401714
142	0x3d78e7a0	0.06076777
143	0xbcfe4abe	-0.0310415
144	0x3d4e749c	0.050404176
145	0x3d47a736	0.04874345
146	0x3d6d1cbe	0.05788874
147	0xbdec6c22	-0.11544062
148	0xbdbfcce1	-0.093652494
149	0x3dc2080d	0.09474192
150	0x3d25a29b	0.040438276
151	0xbdc3f379	-0.09567923
152	0x3d4a12a0	0.04933417
153	0x3d986b31	0.0744232
154	0x3ddc0a8d	0.107442
155	0x3db65dfa	0.08904643
156	0x3dc69d73	0.09698
157	0xba554d80	-0.00081368536
158	0x3d66c44a	0.05633954
159	0x3d0da102	0.034577377
160	0xbd805188	-0.06265551
161	0xbd2f8874	-0.04285474
162	0x3c61aee0	0.013774604
163	0xbdb7e567	-0.08979302
164	0x3c842d38	0.016134843
165	0xbd0bed54	-0.03416188
166	0xbd452a54	-0.04813607
167	0xbcfece69	-0.031104283
168	0x3d0522a3	0.032503735
169	0x3d2d9569	0.042378817
170	0xbdd92596	-0.10602872
171	0xbd98fc90	-0.074700475
172	0x3da67e82	0.08129598
173	0x3dd0e01f	0.10198998
174	0xbd5bfb2b	-0.05370633
175	0x3da94e15	0.08266846
176	0x3dc37916	0.0954458
177	0xbd1b3973	-0.037896585
178	0xbd84f0ba	-0.064912274
179	0xbd517b60	-0.05114305
180	0x3d2b4bcb	0.04182033
181	0x3d638e05	0.055555362
182	0x3d2477ce	0.040153317
183	0xbc80e94c	-0.015736245
184	0x3d6689ef	0.056283887
185	0x3d75bf7a	0.05999706
186	0x3d490ca5	0.049084324
187	0xbdf1303c	-0.11776778
188	0x3da20013	0.079101704
189	0xbd261d14	-0.040555075
190	0x3ca52ce8	0.020163015
191	0xbd41957b	-0.047261696
192	0x3dab32da	0.083593085
193	0xbd113a1a	-0.0354558
194	0xbd9e054b	-0.07715853
195	0x3d7aebde	0.061260097
196	0x3d49ed32	0.049298473
197	0xbc326140	-0.010887444
198	0xbce14fb6	-0.02750383
199	0x3dc29437	0.09500926
200	0x3d71ccee	0.059033327
201	0x3d59f977	0.053216424
202	0xbcf9ad77	-0.030478222
203	0x3d58d043	0.05293299
204	0x3d5238fc	0.051323876
205	0xbd6a4876	-0.05719801
206	0xbdd4fa4f	-0.10399305
207	0x3d45bb71	0.04827446
208	0xbd4ed060	-0.05049169
209	0xbdb5fec4	-0.08886483
210	0x3d5f489e	0.054512613
211	0x3d05b356	0.03264173
212	0xbbd62a50	-0.0065358058
213	0xbdb0b212	-0.08627714
214	0xbc97a0a2	-0.018509213
215	0xbc5b7aa8	-0.013395943
216	0xbcab4e0f	-0.020911245
217	0x3cba3a7d	0.022732968
218	0x3d6513fc	0.05592726
219	0x3da49fdf	0.080383055
220	0x3cac25bc	0.021014087
221	0x3d57c6ed	0.052679945
222	0xbdc37649	-0.095440455
223	0x3d8ecdb3	0.06972828
224	0xbd8ef389	-0.069800444
225	0x3d2764f2	0.040867753
226	0x3c8dfa9c	0.017331414
227	0xbd89d186	-0.067294165
228	0x3d80af9d	0.062834956
229	0xbce31237	-0.027718646
230	0xbc3a16a0	-0.011357933
231	0xbd858d9e	-0.06521152
232	0xbd1bc3dc	-0.038028583
233	0x3c4786a0	0.012178093
234	0x3d35b932	0.04436607
235	0xbd613dd4	-0.054990605
236	0x3dd2f9bf	0.103015415
237	0x3c832ac4	0.016011603
238	0x3d09b3fa	0.033618905
239	0x38acc800	8.238852e-05
240	0x3da769bd	0.08174465
241	0xbd0210de	-0.031754367
242	0x3d34c62c	0.044134304
243	0x3dba05ed	0.090831615
244	0x3d3c4eb0	0.04597348
245	0x3d5d2292	0.053988047
246	0x3d3cdac3	0.046107065
247	0x3d779210	0.06044203
248	0xbd446a63	-0.04795302
249	0xbde57d6a	-0.112055615
250	0x3d106038	0.03524801
251	0x3d5a3f0a	0.053282775
252	0x3d8eb754	0.06968561
253	0x3d03c973	0.03217454
254	0xbc4777e8	-0.012174584
255	0xbdb70135	-0.08935777
