model/v.pth (torch, 142412 bytes, 5 tensors)

net.0.weight f4 [128, 13]
-0.2939316 -0.20818931 0.21913466 0.17377855 -0.08774468 0.014032959 0.15317734 0.10678668
-0.25991735 -0.12211149 -0.17019942 0.25438446 0.19911897 -0.3587862 0.021927629 0.009476105
0.08788702 0.057630356 0.18929134 0.14801684 0.17747831 0.10736434 -0.12088149 0.10396691
-0.0552474 -0.116552845 0.32689306 -0.15194328 -0.0557059 0.23302913 0.16922563 0.10338917
0.062867925 -0.21468054 0.1864722 0.0939756 0.17296448 0.2050906 0.21393202 -0.14412667
-0.21851501 0.32701507 -0.20058842 0.176988 -0.018753467 0.2627574 0.108596526 0.011735617
-0.18956086 0.122616835 -0.110559344 -0.17491458 -0.00905698 -0.21319674 -0.09309078 0.02389398
0.21621898 -0.07857504 -0.26975584 0.12852119 -0.12027834 0.18642241 -0.18147536 -0.19428338
0.19488843 0.100722544 -0.19662564 0.19372623 0.08121943 -0.289373 -0.044138744 0.19453746
0.16736276 0.106475 -0.20398107 0.28740978 0.11593715 0.068466276 0.08244758 0.022765612
0.2392329 -0.17667912 -0.033230428 -0.023438357 -0.19297206 0.004897154 -0.07643442 0.01620935
-0.022885365 -0.0088708205 -0.33989698 -0.16451328 -0.08556751 0.064613394 0.19659215 0.005827471
0.09271037 0.26909924 0.21201186 0.1295375 -0.07801039 -0.07100227 -0.1940509 0.04263572
-0.20110099 -0.11474838 0.22030592 0.036415543 -0.08791338 0.20373154 0.024875054 -0.25688782
-0.017951934 -0.04408932 0.0377493 0.003286847 -0.14024359 -0.3106377 -0.01769206 -0.07865247
0.056876462 -0.20110697 -0.06649915 0.22524062 0.23926769 -0.18763322 -0.040335473 0.21975963
0.07779485 -0.06249014 0.30103794 0.1118803 0.19136472 0.11453091 0.18894053 0.26136807
0.07238807 0.11996386 0.07014616 -0.07018203 0.2511387 0.1709744 -0.15227038 -0.01252138
0.04343631 -0.047419272 0.23742919 -0.21332762 -0.1044023 0.0090247365 -0.081295 -0.18915276
-0.012993858 -0.08133149 0.11503785 0.12263051 -0.06595964 -0.02174026 -0.1037809 -0.09470289
-0.04065709 -0.12746614 -0.20379204 -0.03747552 0.1882787 -0.06937073 -0.02966447 -0.12479147
0.31172997 -0.2588781 -0.2911037 -0.116861165 0.19168712 0.07230459 -0.07813257 0.0054982747
-0.023207564 -0.08089971 -0.12327546 -0.06554478 0.2702272 -0.0012685644 0.38664907 -0.29611897
0.02932294 0.16975488 0.13630015 -0.048055127 0.15727174 -0.1989325 -0.043515082 -0.10729858
0.10108854 0.07777739 0.1634158 -0.36987686 -0.21337017 0.10304558 0.038786087 0.19117793
-0.21196526 0.28464422 0.2120018 0.025499253 -0.13285616 -0.005538932 0.23629081 0.07982911
-0.21807128 -0.10480632 -0.0045654248 0.15980577 0.07617257 -0.15868936 -0.19701323 -0.2650078
0.24280357 -0.18028782 -0.081403315 0.0722497 -0.21735205 -0.030366078 -0.17623712 0.28909224
-0.04479876 0.15009785 -0.08325928 -0.23938927 -0.0074417843 0.17160626 -0.13512224 0.09211612
0.07502235 -0.23014644 0.34961155 -0.27244854 -0.18710594 0.24669324 0.02459296 -0.098578334
0.08688823 -0.04009494 -0.0649465 0.08426087 -0.09522329 0.17365907 0.28797907 -0.0019588985
-0.006811345 0.16574672 -0.1310709 0.17592028 0.19789287 -0.23756653 0.03993228 0.27840516
00000000: 347e 96be 942f 55be d664 603e 01f3 313e
00000010: 7cb3 b3bd 7fea 653c 85da 1c3e fab2 da3d
00000020: e313 85be 9715 fabd c248 2ebe ae3e 823e
00000030: d8e5 4b3e d3b2 b7be 92a1 b33c aa41 1b3c
00000040: 1cfe b33d cf0d 6c3d 97d5 413e ba91 173e
00000050: e0bc 353e d6e1 db3d b790 f7bd 9aec d43d
00000060: 194b 62bd 42b3 eebd 875e a73e 0597 1bbe
00000070: df2b 64bd 309f 6e3e 7c49 2d3e b3bd d33d
00000080: e6c0 803d 37d5 5bbe 92f2 3e3e 4876 c03d
00000090: 9a1d 313e 4503 523e ff10 5b3e f195 13be
000000a0: 66c2 5fbe 856e a73e 0d67 4dbe 583c 353e
000000b0: dfa0 99bc 2388 863e db67 de3d bf46 403c
000000c0: 3e1c 42be 891e fb3d f06c e2bd cf1c 33be
000000d0: ba63 14bc 3f50 5abe 61a6 bebd 4fbd c33c
000000e0: 8268 5d3e f3eb a0bd 701d 8abe 0f9b 033e
000000f0: 7e54 f6bd 84e5 3e3e add4 39be 39f2 46be
00000100: d590 473e 9f47 ce3d 3b58 49be 2b60 463e
00000110: 5f56 a63d b328 94be d4ca 34bd d434 473e
00000120: 2561 2b3e 910f da3d 6ae0 50be 6027 933e
00000130: 7570 ed3d 0c38 8c3d 47da a83d f37e ba3c
00000140: 78f9 743e 5feb 34be a11c 08bd cc01 c0bc
00000150: 789a 45be 4e78 a03b a689 9cbd 79c9 843c
00000160: 177a bbbc eb56 11bc fa06 aebe 2b76 28be
00000170: 053e afbd 0754 843d 744f 493e 5ff4 be3b
00000180: efde bd3d 60c7 893e a319 593e 7aa5 043e
00000190: e9c3 9fbd a369 91bd 47b5 46be cba2 2e3d
000001a0: 6bed 4dbe 3301 ebbd e097 613e 7728 153d
000001b0: ee0b b4bd 009f 503e c5c6 cb3c cd86 83be
000001c0: ef0f 93bc 0197 34bd 039f 1a3d 2468 573b
000001d0: 049c 0fbe e80b 9fbe f0ee 90bc 8c14 a1bd
000001e0: 4bf7 683d fcee 4dbe b530 88bd 7aa5 663e
000001f0: 9702 753e ec22 40be cf36 25bd ab08 613e
00000200: e852 9f3d a9f5 7fbd a521 9a3e 8021 e53d
00000210: 1df5 433e 2f8f ea3d a079 413e 09d2 853e
00000220: 3240 943d 9daf f53d caa8 8f3d 99bb 8fbd
00000230: 4095 803e ea13 2f3e c4ec 1bbe 7926 4dbc
00000240: 46ea 313d b63a 42bd a320 733e 8e72 5abe
00000250: e0d0 d5bd 7ddc 133c fe7d a6bd 43b1 41be
00000260: 31e4 54bc 2091 a6bd f798 eb3d b425 fb3d
00000270: d915 87bd a118 b2bc 158b d4bd 97f3 c1bd
00000280: 0c88 26bd 7c86 02be dcae 50be ee7f 19bd
00000290: 22cc 403e 3e12 8ebd e702 f3bc ac92 ffbd
000002a0: 129b 9f3e ac8b 84be 8b0b 95be e854 efbd
000002b0: a149 443e 6e14 943d f803 a0bd df2a b43b
000002c0: ca1d bebc bfae a5bd d877 fcbd 573c 86bd
000002d0: 385b 8a3e f545 a6ba def6 c53e e89c 97be
000002e0: aa36 f03c 39d4 2d3e 4492 0b3e 74d5 44bd
000002f0: d80b 213e f6b4 4bbe df3c 32bd 5cbf dbbd
00000300: 8207 cf3d c149 9f3d 7956 273e 8060 bdbe
00000310: b67d 5abe 9009 d33d 29de 1e3d 26c4 433e
00000320: 6c0d 59be e3bc 913e 0017 593e cfe3 d03c
00000330: 720b 08be ee7f b5bb 38f6 713e 727d a33d
00000340: 144e 5fbe b2a4 d6bd 8f99 95bb 20a4 233e
00000350: 5d00 9c3d 777f 22be d6bd 49be 1aaf 87be
00000360: 80a1 783e 5f9d 38be c8b6 a6bd a7f7 933d
00000370: 8991 5ebe 48c2 f8bc 8177 34be e603 943e
00000380: e87e 37bd 40b3 193e d783 aabd 7622 75be
00000390: 36da f3bb 8db9 2f3e 7c5d 0abe 60a7 bc3d
000003a0: 51a5 993d 82ab 6bbe 4900 b33e 607e 8bbe
000003b0: b398 3fbe 279d 7c3e 2d77 c93c 70e3 c9bd
000003c0: 75f2 b13d 983a 24bd ac02 85bd f790 ac3d
000003d0: 6e04 c3bd afd3 313e fe71 933e dd60 00bb
000003e0: b431 dfbb 82b9 293e 7337 06be 7224 343e
000003f0: 6ea4 4a3e a444 73be 0890 233d 1f8b 8e3e

net.0.bias f4 [128]
0.13782407 -0.10035818 -0.13919646 -0.03910292 0.28061604 0.27341118 0.18056352 0.048731614
-0.0031075072 0.32168162 0.0692721 0.1827056 0.30693895 0.08047527 0.029955426 -0.11263068
0.11880206 0.22146423 0.10705268 -0.1981404 -0.19266826 -0.16241229 0.25071847 -0.043063793
-0.23196277 -0.14610352 0.24243528 0.29843003 -0.22337922 -0.11246306 0.25301608 0.18577093
-0.2174244 -0.10060155 -0.19626814 -0.14053594 -0.20263201 0.2573025 -0.1635216 -0.038539864
-0.035583436 -0.19870582 0.07634172 -0.07898016 0.14977 0.09692575 0.10316959 0.1540414
-0.19991566 0.15036467 0.15333086 -0.043444976 0.23198275 0.25826806 0.18053032 0.015551224
0.15017043 0.022369847 0.3114108 -0.20344514 -0.01921521 -0.0016573587 -0.022843791 0.26356548
-0.2470224 0.25935596 0.0010218512 0.28197452 -0.16954467 0.18273693 0.06895752 -0.00023714619
0.016727094 0.24833257 -0.0103138145 0.11183163 -0.15057863 0.16056298 0.17471026 0.26819324
0.04920243 -0.12371605 0.03445756 0.17972781 0.21542515 0.08496525 0.035855327 0.3071217
0.020142945 0.24991411 -0.1342232 -0.24234492 -0.039050616 -0.09294439 -0.2584781 -0.04954789
-0.2498978 -0.004051768 0.26877663 -0.051056817 0.079805076 0.17348446 -0.083704874 0.2894981
0.2573288 0.3022676 -0.14035895 0.007654938 -0.18922037 0.031063104 -0.106912605 0.2247935
-0.26595134 -0.20929788 0.046110995 0.18072705 0.012709881 -0.029428089 -0.1996172 0.070112154
0.11820673 -0.06659398 0.18202159 0.038456384 0.035096247 0.3130285 -0.16344206 0.32501966
00000000: c121 0d3e 9788 cdbd 8489 0ebe 622a 20bd
00000010: e8ac 8f3e 8dfc 8b3e a5e5 383e cd9a 473d
00000020: 52a7 4bbb 74b3 a43e 88de 8d3d 2d17 3b3e
00000030: 1a27 9d3e 38d0 a43d 1565 f53c eaaa e6bd
00000040: 7f4e f33d 85c7 623e 6f3e db3d 51e5 4abe
00000050: d44a 45be 684f 26be 2c5e 803e a963 30bd
00000060: a687 6dbe 299c 15be f440 783e d2cb 983e
00000070: 86bd 64be 0853 e6bd 538b 813e bc3a 3e3e
00000080: 80a4 5ebe 2f08 cebd 84fa 48be a7e8 0fbe
00000090: c47e 4fbe 27bd 833e 3572 27be fadb 1dbd
000000a0: f0bf 11bd 8a79 4bbe 0c59 9c3d 5ac0 a1bd
000000b0: 4f5d 193e 0281 c63d 944a d33d 07bd 1d3e
000000c0: b1b6 4cbe 32f9 193e c402 1d3e 5cf3 31bd
000000d0: e38c 6d3e b63b 843e f1dc 383e 90ca 7e3c
000000e0: 47c6 193e f840 b73c 3d71 9f3e ec53 50be
000000f0: 3769 9dbc bb3b d9ba e722 bbbc 0ef2 863e
00000100: 71f3 7cbe 4eca 843e a3ef 853a f75e 903e
00000110: 1e9d 2dbe 641f 3b3e 9a39 8d3d 72aa 78b9
00000120: 4207 893c e54a 7e3e 46fb 28bc fb07 e53d
00000130: 4931 1abe 9f6a 243e 3fe7 323e a050 893e
00000140: 7d88 493d d75e fdbd 5f23 0d3d 910a 383e
00000150: 6998 5c3e 4302 ae3d 09dd 123d 0e3f 9d3e
00000160: d102 a53c 7ce9 7f3e ce71 09be 4429 78be
00000170: 8af3 1fbd a159 bebd 3e57 84be baf2 4abd
00000180: 35e5 7fbe b2c4 84bb 179d 893e f420 51bd
00000190: d870 a33d e9a5 313e 766d abbd 1839 943e
000001a0: 9ac0 833e d2c2 9a3e 42ba 0fbe 46d6 fa3b
000001b0: fcc2 41be 0d78 fe3c fff4 dabd 4430 663e
000001c0: c62a 88be 2f52 56be e2de 3c3d 8310 393e
000001d0: 1b3d 503c 2d13 f1bc 7468 4cbe f696 8f3d
000001e0: 5f16 f23d 6d62 88bd de63 3a3e 7184 1d3d
000001f0: 15c1 0f3d 4645 a03e 5b5d 27be fa68 a63e

net.2.weight f4 [256, 128]
0.04154716 -0.030084576 0.114515506 -0.074595496 -0.04306793 -0.027250862 0.08785563 -0.095867224
0.046704963 -0.031038756 0.08092332 0.07249135 -0.06321858 -0.089987546 0.07229853 -0.0932718
0.07300367 -0.004807799 0.112962715 -0.08436987 -0.009847537 -0.14279413 -0.03758804 -0.05845393
0.08426286 -0.02175308 -0.055639826 0.015851764 -0.052701525 0.008113238 0.08780543 0.054490402
0.095332794 -0.030078035 -0.094558775 0.05055752 0.015791632 0.13523082 0.08694312 0.01937726
0.03843321 -0.0037270577 0.010326136 0.029290639 0.018292269 0.026799187 0.034613103 -0.025971524
0.008627097 -0.012303869 0.10217259 0.07472853 0.09969806 0.0031120842 -0.008582349 -0.13273834
-0.046737015 -0.030721987 0.112401806 -0.078394234 -0.0014812165 0.04467384 0.03819138 -0.053685375
-0.005304791 0.09324595 0.08179262 -0.058248393 0.017967388 0.0735808 0.05321107 0.013019842
0.018151158 -0.013275796 -0.051623892 0.0050079934 -0.005904861 0.017955411 -0.031448297 0.004870791
-0.050736554 0.0052366992 -0.05144986 0.06263357 0.024742188 -0.010162498 0.0027437143 -0.04510138
-0.0065239235 -0.04694524 0.07255781 -0.07571618 0.06721678 -0.032828175 -0.09311406 0.15213251
0.016450841 -0.09797741 0.015055997 -0.1472348 0.0033515496 -0.05205675 0.10845455 0.08374595
-0.03117103 -0.03842743 -0.06351867 0.08162488 0.025312293 0.01579131 0.0436986 -0.004410071
-0.015833331 0.04138561 -0.019423598 -0.01843697 -0.027227007 0.054754548 0.032584034 0.018638255
0.014880445 0.035980325 -0.08316145 0.02432828 -0.07417617 -0.04788821 0.03061286 0.085149504
0.022729484 0.0031107164 0.007907538 0.14357585 -0.00047325253 0.07259867 -0.08545228 -0.046647508
-0.06634605 -0.026604122 -0.08731989 0.065378375 -0.12932532 0.08656132 -0.060437296 -0.019920085
-0.107336186 -0.08496785 -0.042884823 0.039315544 0.079159655 0.13883995 -0.098345496 0.03766822
0.009020872 -0.018483525 -0.13497075 -0.024595283 -0.08677353 0.02687185 0.031571742 -0.101657264
0.06477457 -0.07260027 0.17325313 -0.023692928 -0.025020866 0.060191438 0.0005744284 0.02575849
0.03737684 -0.11920825 0.027494386 -0.057674777 -0.05113357 -0.06004079 0.046631765 0.0047792373
0.09374668 0.0083169965 0.11018493 -0.008124736 0.056684926 0.000501288 0.06306422 0.007443098
-0.034226008 0.06879477 -0.010443036 -0.05130609 0.072411865 -0.014150933 0.023840206 0.057726003
-0.02721531 0.0461766 -0.046179812 0.016148271 0.012381397 -0.063008755 0.008014311 0.009907577
0.052386094 -0.03047986 0.08452659 0.043578055 -0.06155957 -0.078624554 -0.04093518 0.015388257
-0.043637644 0.13404714 -0.10834154 -0.025403472 -0.09036923 0.013195661 -0.003333436 0.013615949
-0.0016403177 0.05594638 -0.044802148 0.07768913 -0.005851092 0.114658296 0.11464314 -0.037491247
0.08192566 0.057774276 -0.07119203 0.053245455 0.047250167 0.0008774429 -0.037425242 0.040619746
-0.03390716 -0.07200435 0.0034900552 0.05358784 0.04625042 -0.022276511 -0.06930094 -0.07180222
0.092582434 -0.009800878 0.092434324 0.040043555 -0.045486096 0.027922394 -0.015697682 0.07597482
0.04603148 0.024769811 0.08797744 0.036418512 0.07597604 -0.0289944 0.063017964 -0.23065284
00000000: 5b2d 2a3d ee73 f6bc 1b87 ea3d 86c5 98bd
00000010: ff67 30bd 333d dfbc a7ed b33d 0956 c4bd
00000020: b44d 3f3d fd44 febc 20bb a53d 5876 943d
00000030: be78 81bd 644b b8bd 4011 943d 4905 bfbd
00000040: f382 953d be8a 9dbb ff58 e73d 1cca acbd
00000050: 9057 21bc a038 12be ebf5 19bd 636d 6fbd
00000060: 0292 ac3d 8433 b2bc 96e6 63bd 8fdb 813c
00000070: 8edd 57bd 63ed 043c 55d3 b33d 5431 5f3d
00000080: d73d c33d 3666 f6bc 08a8 c1bd 6715 4f3d
00000090: 745d 813c f379 0a3e 3c0f b23d 0fbd 9e3c
000000a0: 246c 1d3d a741 74bb f42e 293c ecf2 ef3c
000000b0: abd9 953c f889 db3c 78c6 0d3d 3cc2 d4bc
000000c0: ab58 0d3c 2b96 49bc dd3f d13d 460b 993d
000000d0: 7f2e cc3d 1cf4 4b3b fb9c 0cbc 8fec 07be
000000e0: 506f 3fbd adac fbbc eb32 e63d 288d a0bd
000000f0: 6125 c2ba ebfb 363d 916e 1c3d 32e5 5bbd
00000100: d0d3 adbb bcf7 be3d e482 a73d de95 6ebd
00000110: 5830 933c 88b1 963d daf3 593d 2d51 553c
00000120: bdb1 943c b982 59bc 9373 53bd 181a a43b
00000130: 907d c1bb 3a17 933c eecf 00bd 289b 9f3b
00000140: 22d1 4fbd 9e98 ab3b 17bd 52bd 0746 803d
00000150: 21b0 ca3c 9b80 26bc e3cf 333b 3abc 38bd
00000160: a3c6 d5bb a749 40bd 3099 943d 1611 9bbd
00000170: f3a8 893d d676 06bd 96b2 bebd a0c8 1b3e
00000180: eac3 863c 61a8 c8bd 6ead 763c b8c4 16be
00000190: aca5 5b3b 7539 55bd 6b1d de3d ff82 ab3d
000001a0: 635a ffbc 1566 1dbd 1416 82bd f22a a73d
000001b0: ba5b cf3c c75c 813c 4efd 323d 5b82 90bb
000001c0: e7b4 81bc f583 293d 3d1e 9fbc 2109 97bc
000001d0: 2c0b dfbc 4e46 603d d676 053d 41af 983c
000001e0: 1ccd 733c 1b60 133d 8d50 aabd 1a4c c73c
000001f0: ade9 97bd 6d26 44bd d2c7 fa3c dd62 ae3d
00000200: 2f33 ba3c 29dd 4b3b 9e8e 013c 8c05 133e
00000210: e11e f8b9 9dae 943d 9b01 afbd 7511 3fbd
00000220: 70e0 87bd e3f0 d9bc c5d4 b2bd 19e5 853d
00000230: db6d 04be 1047 b13d 198d 77bd 722f a3bc
00000240: 13d3 dbbd a003 aebd ffa7 2fbd 5609 213d
00000250: 751e a23d 0f2c 0e3e 5d69 c9bd fe49 1a3d
00000260: 48cc 133c c36a 97bc c635 0abe 0c7c c9bc
00000270: 52b6 b1bd 5b22 dc3c 5f51 013d af31 d0bd
00000280: 88a8 843d 73af 94bd 4569 313e ac17 c2bc
00000290: 8ff8 ccbc 4c8b 763d 3d95 163a 7803 d33c
000002a0: 7518 193d 7423 f4bd e83b e13c 633c 6cbd
000002b0: 6f71 51bd 55ed 75bd f300 3f3d 269b 9c3b
000002c0: 42fe bf3d 0344 083c a3a8 e13d 9d1d 05bc
000002d0: 742e 683d de68 033a d027 813d 3be5 f33b
000002e0: 9230 0cbd 46e4 8c3d 4519 2bbc 5626 52bd
000002f0: ac4c 943d 51d9 67bc 894c c33c 1a72 6c3d
00000300: a4f2 debc ad23 3d3d 0b27 3dbd 6149 843c
00000310: 58db 4a3c bc0a 81bd 754e 033c 6453 223c
00000320: cd92 563d e6b0 f9bc 471c ad3d e77e 323d
00000330: e325 7cbd e905 a1bd a6ab 27bd 071f 7c3c
00000340: 63bd 32bd a743 093e 2be2 ddbd f11a d0bc
00000350: 8113 b9bd 9d32 583c c775 5abb 6e15 5f3c
00000360: eeff d6ba 0828 653d 7582 37bd 7b1b 9f3d
00000370: 84ba bfbb f8d1 ea3d 06ca ea3d 6c90 19bd
00000380: a4c8 a73d b8a4 6c3d 21cd 91bd e817 5a3d
00000390: 6489 413d 3204 663a 364b 19bd e460 263d
000003a0: 3ce2 0abd 0477 93bd 69b9 643b ec7e 5b3d
000003b0: 1571 3d3d 3b7d b6bc a7ed 8dbd 0b0d 93bd
000003c0: dc9b bd3d dd93 20bc 354e bd3d b604 243d
000003d0: a14f 3abd 81bd e43c 6d98 80bc b098 9b3d
000003e0: 818b 3c3d 0fea ca3c 842d b43d 942b 153d
000003f0: 5399 9b3d aa85 edbc 900f 813d 4230 6cbe

net.2.bias f4 [256]
0.10882655 -0.040674835 -0.09097992 0.063511655 0.049615376 0.0059532598 0.049130693 0.043437112
0.05719254 0.021252355 0.0077783116 0.085542135 -0.014840061 0.06223404 -0.023645166 -0.03196554
-0.07337596 0.008598822 -0.003725601 -0.050683737 -0.059377223 0.017418986 0.066594005 0.0030588808
0.0075898943 -0.022989543 -0.034055963 -0.051793337 -0.042938694 -0.007483325 0.035553746 -0.032960843
0.03040119 -0.008909419 0.037266787 0.02224243 0.11854576 0.047331873 0.1054015 0.07357473
0.0046671396 -0.030906713 -0.011249428 0.059650682 -0.08594408 0.023244806 -0.0018136218 0.00704142
0.10283788 -0.02213243 0.087750256 0.124418505 -0.05268402 -0.014808349 0.0709573 -0.060003653
-0.0132169835 -0.03282075 -0.0012174787 0.09748788 0.04345405 0.04253112 0.0779537 -0.046212915
-0.00020398211 -0.0627738 0.037845142 0.058262922 -0.038785856 -0.021985233 0.04430864 -0.020944811
0.04464914 -0.035692308 0.05531224 -0.0060359184 0.12092072 -0.004265321 0.06200679 0.0799759
0.062537156 -0.06994484 0.087553 -0.014717856 0.0027854457 -0.100904845 -0.009074126 0.055098813
-0.082748376 0.04923495 -0.011117836 0.10017851 0.07511348 0.057284784 0.038458724 -0.04816107
-0.08706232 -0.034506243 0.012330103 0.08359356 -0.016358966 0.08033113 0.07084765 -0.050081804
0.03354933 -0.02728504 0.09142742 -0.05341639 0.079149686 0.120277904 0.022583602 0.04985867
-0.048238575 -0.035470556 0.004171651 0.11122036 0.058803048 -0.014627005 0.066368975 0.039970286
0.11818414 0.07874108 -0.08844483 0.034140162 0.089790635 0.06873708 -0.056423925 0.008327451
0.0034331828 0.090983786 0.105244964 -0.035691887 0.017664537 -0.039492574 0.071465 -0.04650752
0.05806012 0.007546023 0.039553802 0.027296867 0.02731256 -0.022399954 -0.0051143565 0.03627481
0.067197174 0.031440973 0.012380034 0.06964418 -0.08120346 0.12253566 0.013940131 0.04541565
-0.048628174 -0.0063800327 -0.059276566 -0.048659295 -0.07974239 0.08345478 0.013564899 0.029278018
0.018931717 0.041554935 -0.012164181 -0.0026880763 -0.082762346 -0.031192554 0.047505654 -0.065276764
-0.07540126 0.033468 -0.056221955 0.06938046 -0.069207564 0.042677313 -0.036251277 0.111419596
-0.057211276 -0.02478238 -0.032309253 -0.07259951 0.07146721 -0.05536762 -0.02689796 0.09698192
-0.039911162 0.003005944 0.070367485 0.11582845 -0.0034024068 0.048239842 0.028524378 0.02779526
0.0030320585 -0.0024201607 0.033394556 0.070995376 0.11798844 0.057045106 -0.037428033 0.03224089
0.01068271 0.01569623 0.074958034 0.12267224 0.06835187 -0.040023576 -0.045717552 0.010225649
0.103645116 0.04667128 -0.04148902 0.10804159 -0.025825376 -0.008552655 0.015606301 0.12271538
0.112884514 0.03363985 -0.02049194 -0.007790235 0.034483988 -0.09379046 -0.030380797 -0.019333906
-0.007926173 -0.011553928 -0.07984018 0.045857098 -0.078935556 -0.010993013 0.03166878 0.037517417
0.077777624 -0.011305078 -0.06598198 0.113696046 0.025600474 -0.078251176 0.050310683 0.055888213
0.06574502 0.016903302 0.076049455 0.03990088 0.08311729 0.110560134 0.07787493 -0.07567355
-0.046604652 0.058929194 0.035558704 -0.026859807 0.06860482 -0.010881718 -0.044089325 -0.0606663
00000000: 74e0 de3d a89a 26bd ae53 babd 6612 823d
00000010: 7e39 4b3d 9013 c33b 443d 493d 1deb 313d
00000020: ba42 6a3d 6b19 ae3c 35e1 fe3b b730 af3d
00000030: ba23 73bc 1fe9 7e3d 82b3 c1bc 4cee 02bd
00000040: 2346 96bd 13e2 0c3c 3629 74bb c099 4fbd
00000050: 8835 73bd 43b2 8e3c 7062 883d 8177 483b
00000060: a6b4 f83b 9154 bcbc 447e 0bbd 4025 54bd
00000070: 7ce0 2fbd ae36 f5bb cea0 113d f301 07bd
00000080: eb0b f93c d0f8 11bc 0fa5 183d c235 b63c
00000090: 1fc8 f23d 11df 413d bedc d73d 59ae 963d
000000a0: ceee 983b 1330 fdbc 854f 38bc 4654 743d
000000b0: 7303 b0bd e46b be3c 0db7 edba b6bb e63b
000000c0: ab9c d23d 124f b5bc 68b6 b33d 21cf fe3d
000000d0: 33cb 57bd b89e 72bc 1052 913d 64c6 75bd
000000e0: 0c8c 58bc 0d6f 06bd ce93 9fba baa7 c73d
000000f0: e0fc 313d 1d35 2e3d 31a6 9f3d c149 3dbd
00000100: 08e4 55b9 8d8f 80bd 8203 1b3d 1aa5 6e3d
00000110: ebdd 1ebd 601a b4bc fa7c 353d 7494 abbc
00000120: 04e2 363d 1932 12bd 168f 623d f4c8 c5bb
00000130: 48a5 f73d 1bc4 8bbb d5fa 7d3d 68ca a33d
00000140: 7b13 803d 3e3f 8fbd fd4e b33d 2a23 71bc
00000150: 068c 363b 33a7 cebd a5ab 14bc 4baf 613d
00000160: fb77 a9bd 96aa 493d 9627 36bc 642a cd3d
00000170: 19d5 993d 73a3 6a3d e586 1d3d 8b44 45bd
00000180: bb4d b2bd 6b56 0dbd 3304 4a3c 1a33 ab3d
00000190: 3d03 86bc a684 a43d 9318 913d 9422 4dbd
000001a0: 066b 093d e084 dfbc 4d3e bb3d 25cb 5abd
000001b0: 3b19 a23d 4354 f63d 3f01 b93c 9b38 4c3d
000001c0: d095 45bd 9349 11bd 58b2 883b 80c7 e33d
000001d0: 77db 703d 1ba6 6fbc 75ec 873d e2b7 233d
000001e0: 870a f23d 0143 a13d 9022 b5bd 8ed6 0b3d
000001f0: 27e4 b73d 07c6 8c3d c61c 67bd dc6f 083c
00000200: 40ff 603b b555 ba3d ac8a d73d a831 12bd
00000210: 38b5 903c f7c2 21bd 3e5c 923d ab7e 3ebd
00000220: 73d0 6d3d a144 f73b 2b03 223d ae9d df3c
00000230: 97be df3c 1c80 b7bc 5596 a7bb e594 143d
00000240: ac9e 893d 40c8 003d a0d5 4a3c 9ca1 8e3d
00000250: 004e a6bd faf3 fa3d 2665 643c c305 3a3d
00000260: 562e 47bd 980f d1bb fccb 72bd f84e 47bd
00000270: fa4f a3bd 57ea aa3d 4f3f 5e3c 74d8 ef3c
00000280: b016 9b3c 8235 2a3d 464c 47bc 702a 30bb
00000290: 4e7f a9bd 8787 ffbc 4a95 423d d3af 85bd
000002a0: fa6b 9abd be15 093d fe48 66bd 5817 8e3d
000002b0: b2bc 8dbd 68ce 2e3d 387c 14bd f52f e43d
000002c0: 5f56 6abd 6b04 cbbc b556 04bd 0daf 94bd
000002d0: 675d 923d 28c9 62bd 1c59 dcbc 759e c63d
000002e0: e379 23bd 5fff 443b d41c 903d 7737 ed3d
000002f0: eafa 5ebb 2497 453d f5ab e93c e3b2 e33c
00000300: 80b5 463b 8f9b 1ebb bbc8 083d 0666 913d
00000310: eca3 f13d 21a8 693d 234e 19bd 060f 043d
00000320: 8906 2f3c 6195 803c 9983 993d 953b fb3d
00000330: 11fc 8b3d c3ef 23bd 5442 3bbd 7b89 273c
00000340: e443 d43d 622a 3f3d 64f0 29bd e944 dd3d
00000350: bd8f d3bc 6f20 0cbc 92b1 7f3c 3352 fb3d
00000360: ff2f e73d f0c9 093d b7de a7bc 3a45 ffbb
00000370: 153f 0d3d 3615 c0bd 26e1 f8bc 2462 9ebc
00000380: c7dc 01bc b04c 3dbc 4083 a3bd a7d4 3b3d
00000390: f7a8 a1bd 0a1c 34bc 1fb7 013d ddab 193d
000003a0: e049 9f3d ef38 39bc 8f21 87bd 79d9 e83d
000003b0: 16b8 d13c 2742 a0bd 9312 4e3d 0aeb 643d
000003c0: 53a5 863d cb78 8a3c d1bf 9b3d 1b6f 233d
000003d0: 6639 aa3d 5a6d e23d e47c 9f3d bcfa 9abd
000003e0: 85e4 3ebd bd5f 713d 01a6 113d 1909 dcbc
000003f0: af80 8c3d 3c49 32bc 0297 34bd 3a7d 78bd

net.4.weight f4 [1, 256]
0.11751959 -0.08699879 0.033600047 -0.06949997 -0.053513546 -0.11752704 0.12342616 -0.10335624
-0.0537991 0.08962445 0.08447365 0.00741414 0.09568887 -0.09006972 -0.065420076 0.037016183
-0.04677433 -0.11583365 0.098337814 0.021875422 -0.11622752 -0.086237535 -0.071615264 0.072265506
-0.09768079 -0.1264847 -0.1423971 0.044103444 0.10693696 0.021955868 0.058763776 0.056332365
0.111912996 -0.012862049 0.046177868 0.083040304 0.09258586 -0.21943244 0.08909656 -0.0724724
0.10776432 -0.045519646 -0.0114734275 -0.025846109 -0.07147844 0.040432855 -0.12625942 0.11204202
0.103852816 -0.06775242 0.058475915 0.05800941 0.046456415 -0.04402639 0.08535495 -0.019163618
-0.09711116 0.050871484 -0.12021861 0.102120675 -0.080904335 -0.09714983 0.06247804 0.062492847
-0.051874705 -0.14188975 0.15197006 -0.04509066 0.05435879 -0.11021229 -0.030680373 0.052616075
0.057852827 0.031534534 -0.012975605 -0.15123166 0.08901742 -0.07779279 0.071443245 0.08032088
-0.14454772 -0.14495757 0.1296471 -0.12079834 0.12811887 -0.08806619 0.07471065 0.044137087
-0.09391003 0.047993477 0.10091484 0.098614976 0.050515424 -0.08872633 -0.15279701 0.13183394
-0.054553665 0.019995658 0.08895293 0.08826326 -0.19803306 0.06844852 0.06826095 0.06692744
0.056535702 -0.094450675 0.10484613 -0.13456248 0.08814464 0.097026676 -0.07199555 0.1396631
-0.082708426 -0.092261225 0.14097817 0.06877248 -0.1315398 0.060903344 -0.10382545 0.10819887
0.057593923 0.0674998 -0.09675236 -0.17625527 -0.10538857 -0.08514916 0.039156273 -0.04217182
0.053077694 0.073053196 0.11555197 -0.08702789 0.07821059 0.061163846 0.1065731 0.092036374
0.07876282 -0.1209394 -0.017698418 0.10488172 0.113396965 0.053545147 -0.13754062 0.09285487
-0.09396857 0.08813517 -0.18537752 0.11529915 -0.017217893 0.106049545 0.06716281 -0.083891936
0.11474986 -0.12055278 0.032706257 0.09264966 -0.07649639 0.017528377 -0.11902535 -0.10133827
0.09520694 0.11353733 -0.11367725 0.09764968 0.008497988 0.045786865 -0.019364752 -0.015036963
-0.01287543 0.045231406 0.1134395 -0.21704607 -0.0030600626 -0.052321848 0.096342534 0.08969018
-0.05827709 -0.10137309 -0.04959737 -0.1456239 0.13304693 -0.10264865 0.01039733 0.11199844
-0.06691838 0.10753621 -0.07423438 0.04801639 -0.0029784448 0.07226902 -0.13890767 0.117137805
-0.10632129 0.034061983 0.0040285084 0.098298445 0.07128069 -0.22900161 0.11811435 0.11309315
0.040894527 -0.075843446 0.102346905 0.10095841 0.07022673 0.08415913 0.124227904 -0.09490388
0.106596686 0.077426635 0.037475336 0.112598754 0.10056476 0.11297574 0.10111312 0.09785666
0.06566028 0.10464538 0.091601565 -0.105807 0.1272545 -0.11706543 -0.008655176 0.06695809
-0.10173483 -0.11008414 -0.07839983 0.07413896 -0.09353595 0.14293781 0.082464874 0.08415438
-0.111039765 -0.045825526 0.14817406 0.05852586 0.13530527 -0.05677548 0.12142776 -0.15691927
0.080718085 0.13325025 -0.10395496 0.12061869 0.06007622 0.08358065 0.12488148 -0.061493408
0.075687565 -0.12613261 0.116502225 -0.096966445 -0.0822015 0.09459375 -0.11906632 -0.11318722
00000000: 1cae f03d 6c2c b2bd 34a0 093d 0056 8ebd
00000010: 0531 5bbd 04b2 f0bd dbc6 fc3d 70ac d3bd
00000020: 725c 5cbd 068d b73d 8500 ad3d 50f2 f23b
00000030: 87f8 c33d 7976 b8bd f6fa 85bd 489e 173d
00000040: 7196 3fbd 313a edbd 5665 c93d 1634 b33c
00000050: b208 eebd 4e9d b0bd 06ab 92bd f0ff 933d
00000060: de0c c8bd 3585 01be 8cd0 11be d0a5 343d
00000070: c401 db3d cbdc b33c 49b2 703d c4bc 663d
00000080: a432 e53d 58bb 52bc 0125 3d3d 0911 aa3d
00000090: a89d bd3d e6b2 60be 4278 b63d 696c 94bd
000000a0: 8ab3 dc3d cf72 3abd 0bfb 3bbc 38bb d3bc
000000b0: 4a63 92bd ec9c 253d 264a 01be 4976 e53d
000000c0: c9b0 d43d c8c1 8abd 7184 6f3d 469b 6d3d
000000d0: 1549 3e3d 0455 34bd 93ce ae3d 05fd 9cbc
000000e0: 37e2 c6bd 9e5e 503d 2d35 f6bd a524 d13d
000000f0: 2cb1 a5bd 7df6 c6bd f9e8 7f3d 80f8 7f3d
00000100: 927a 54bd 8c4b 11be 0a9e 1b3e fcb0 38bd
00000110: 53a7 5e3d fbb6 e1bd 6855 fbbc f483 573d
00000120: 16f7 6c3d 5b2a 013d a297 54bc 79dc 1abe
00000130: c44e b63d d451 9fbd d650 923d 467f a43d
00000140: 5104 14be c26f 14be 36c2 043e 1f65 f7bd
00000150: 9831 033e 0c5c b4bd e601 993d 17c9 343d
00000160: e753 c0bd cf94 443d 71ac ce3d a6f6 c93d
00000170: 43e9 4e3d 26b6 b5bd d276 1cbe 7aff 063e
00000180: aa73 5fbd efcd a33c f42c b63d 5ec3 b43d
00000190: 2ec9 4abe bd2e 8c3d 66cc 8b3d 4111 893d
000001a0: fb91 673d 5b6f c1bd 91b9 d63d bfca 09be
000001b0: 2d85 b43d ecb5 c63d 6772 93bd d803 0f3e
000001c0: 0963 a9bd 74f3 bcbd 955c 103e 96d8 8c3d
000001d0: 5fb2 06be c975 793d 70a2 d4bd 5f97 dd3d
000001e0: 9be7 6b3d 563d 8a3d 1a26 c6bd 437c 34be
000001f0: f6d5 d7bd af62 aebd 5462 203d 5cbc 2cbd
00000200: ff67 593d ea9c 953d 83a6 ec3d ae3b b2bd
00000210: e02c a03d f186 7a3d ff42 da3d 917d bc3d
00000220: 674e a13d 13af f7bd 46fc 90bc 3acc d63d
00000230: ab3c e83d 2852 5b3d 73d7 0cbe b22a be3d
00000240: 9872 c0bd 3680 b43d 9bd3 3dbe f621 ec3d
00000250: 8a0c 8dbc 8130 d93d a88c 893d 89cf abbd
00000260: f901 eb3d 60e4 f6bd fff6 053d 1bbf bd3d
00000270: 24aa 9cbd ac97 8f3c 90c3 f3bd 708a cfbd
00000280: dbfb c23d 4286 e83d 9ecf e8bd 8efc c73d
00000290: 253b 0b3c 028b 3b3d d4a2 9ebc 985d 76bc
000002a0: 78f3 52bc 9144 393d f852 e83d 5341 5ebe
000002b0: 558b 48bb 6f4f 56bd 3c4f c53d 7caf b73d
000002c0: f5b3 6ebd b29c cfbd 9d26 4bbd 6f1e 15be
000002d0: 743d 083e 7539 d2bd 9059 2a3c 705f e53d
000002e0: 810c 89bd f23b dc3d 3208 98bd d6ac 443d
000002f0: 0332 43bb c801 943d d03d 0ebe f2e5 ef3d
00000300: fabe d9bd 9484 0b3d 9401 843b b250 c93d
00000310: 9cfb 913d 667f 6abe f0e5 f13d 629d e73d
00000320: 0581 273d cf53 9bbd 419b d13d 48c3 ce3d
00000330: 08d3 8f3d 9f5b ac3d 336b fe3d f75c c2bd
00000340: 5d4f da3d db91 9e3d bd7f 193d 2d9a e63d
00000350: e6f4 cd3d d35f e73d 6514 cf3d 1369 c83d
00000360: e678 863d 5150 d63d 9a99 bb3d 57b1 d8bd
00000370: 014f 023e 00c0 efbd 70ce 0dbc 5321 893d
00000380: 5a5a d0bd cb73 e1bd 1790 a0bd 2bd6 973d
00000390: c78f bfbd 4a5e 123e 58e3 a83d 2259 ac3d
000003a0: d168 e3bd 8cb3 3bbd f1ba 173e d0b8 6f3d
000003b0: 778d 0a3e 688d 68bd 1eaf f83d 72af 20be
000003c0: 864f a53d c172 083e 57e6 d4bd ef06 f73d
000003d0: 7c12 763d 552c ab3d ddc1 ff3d 83e0 7bbd
000003e0: 1502 9b3d e828 01be b898 ee3d 5896 c6bd
000003f0: 4359 a8bd 5eba c13d 0bd9 f3bd b4ce e7bd
