model/v_level0.pth (torch, 276166 bytes, 9 tensors)

net.0.weight f4 [128, 13]
0	0xbe5cce0e	-0.21562979
1	0xbd85b72c	-0.06529078
2	0x3cf256c0	0.029582381
3	0xbd98d46e	-0.07462393
4	0xbc90cb60	-0.017675102
5	0xbe216bac	-0.1576373
6	0xbc8dc110	-0.017303973
7	0xbdf2d81c	-0.11857626
8	0xbd76e738	-0.0602791
9	0x3c0d9960	0.0086425245
10	0xbe16b0fb	-0.1471595
11	0xbc0e4560	-0.0086835325
12	0xbe5ff7c6	-0.21871862
13	0x3cc67460	0.024225414
14	0xbdfdb04c	-0.123871416
15	0xbe8d2cdc	-0.27573287
16	0x3d849818	0.06474322
17	0xbe63ec08	-0.22258008
18	0xbd0b3518	-0.03398618
19	0xbe7b843b	-0.2456216
20	0xbe801fec	-0.25024354
21	0xbe7127f9	-0.23550405
22	0x3e4d46e2	0.20046571
23	0x3d701348	0.058612138
24	0xbc1d3c40	-0.009596884
25	0xbe7223c6	-0.23646459
26	0xbe5de845	-0.21670635
27	0x3e2b0374	0.16700536
28	0x3b6ff400	0.0036613941
29	0xbe4775a2	-0.19478467
30	0x3e5bce18	0.21465337
31	0xbdfe7118	-0.12423915
32	0xbe88b575	-0.2670094
33	0x3d271f10	0.040801108
34	0x3dc8c618	0.098034084
35	0xbe7a1f12	-0.24425915
36	0xbd90d23c	-0.07071349
37	0x3d98be1c	0.074581355
38	0x3db0eaa0	0.08638501
39	0xbe7ab62b	-0.24483554
40	0x3e83b15d	0.25721255
41	0xbe5fc12b	-0.21851031
42	0x3e7aa4c2	0.24476913
43	0x3e1fa646	0.15590772
44	0x3e7207be	0.23635766
45	0xbd17233c	-0.036898836
46	0xbe073d61	-0.13207008
47	0x3e42ec1a	0.19035378
48	0xbdbf9b52	-0.09355797
49	0x3e110688	0.14162648
50	0xbe1f19d5	-0.15537198
51	0xbe15bbb3	-0.14622383
52	0x3e8b99c7	0.2726576
53	0xbe339a2c	-0.1753928
54	0xbe741b14	-0.23838454
55	0x3e29b498	0.16572797
56	0x3e37201c	0.17883343
57	0x3e36cc1a	0.17851296
58	0x3d142180	0.03616476
59	0x3e801c39	0.25021532
60	0xbdea248e	-0.114327535
61	0xbe33e704	-0.17568594
62	0x3e2d3dae	0.1691806
63	0x3cab4dc0	0.020911098
64	0x3e843a5d	0.25825778
65	0xbe65e3c9	-0.22450174
66	0x3e27bc8a	0.16380516
67	0xbd2f9f7c	-0.042876706
68	0xbe1fd3be	-0.15608117
69	0x3e31e7bc	0.17373556
70	0xbe3ce48e	-0.18446562
71	0x3e58dd1c	0.21178097
72	0xbe5b6aa6	-0.21427402
73	0xbe56b4aa	-0.20967355
74	0xbd637f64	-0.05554141
75	0xbe7bab23	-0.24577002
76	0xbe332130	-0.17493129
77	0x3da66a60	0.08125758
78	0xbe8525bb	-0.2600535
79	0xbdfb53c8	-0.122718394
80	0xbcfa0c88	-0.030523553
81	0xbd915bc4	-0.07097581
82	0x3e338de6	0.17534599
83	0x3c57d240	0.013172686
84	0x3cef3ef0	0.029204816
85	0x3e0c2c92	0.13688877
86	0xbd81aee0	-0.06332183
87	0x3e7011de	0.23444316
88	0x3e36a2b4	0.17835504
89	0x3de880ec	0.11352715
90	0x3df06818	0.11738604
91	0x3e0b8a64	0.1362701
92	0x3c330ac0	0.010927856
93	0xbe18fc28	-0.1493994
94	0x3a076600	0.00051650405
95	0xbe532692	-0.20620182
96	0xbe86f025	-0.2635509
97	0x3dead7a4	0.114669114
98	0x3df7cdf8	0.12099832
99	0x3e071a12	0.13193539
100	0xbddede62	-0.1088226
101	0x3e7cbcda	0.24681416
102	0x3d753388	0.059863597
103	0xbe6df4f6	-0.23237976
104	0x3db00118	0.085939586
105	0x3e8b7f69	0.27245644
106	0x3d2ce340	0.04220891
107	0x3c52f0c0	0.012874782
108	0xbd782a4c	-0.060587212
109	0xbe69707d	-0.22796817
110	0xbe6f6694	-0.23378974
111	0xbcbe1e90	-0.023207933
112	0x3d3009a8	0.04297796
113	0xbdaaf504	-0.08347514
114	0x3e42ad10	0.1901133
115	0xbddc9c28	-0.10771972
116	0xbd56c59c	-0.05243455
117	0x3e83e6b3	0.25761947
118	0xbb165400	-0.0022938251
119	0xbe524896	-0.20535502
120	0x3db8fbf0	0.09032428
121	0x3d493010	0.0491181
122	0xbe0f5284	-0.13996321
123	0x3e0e7b0a	0.13914123
124	0x3cdfb190	0.027306348
125	0x3e08ad0c	0.13347262
126	0xbe8a48fa	-0.27008802
127	0x3e0ce110	0.1375773
128	0x3dcd3eec	0.10021767
129	0xbd323780	-0.04350996
130	0x3da516ac	0.08060965
131	0xbdbd7d6a	-0.092524365
132	0xbe813db8	-0.252424
133	0xbcfb0238	-0.030640706
134	0x3e27b0d2	0.16376045
135	0x3e673106	0.22577295
136	0xbd9b33d2	-0.07578243
137	0x3dc2297c	0.09480569
138	0x3da3e678	0.08002943
139	0x3e4348a0	0.19070673
140	0xbe3b8746	-0.18313321
141	0x3e76f3a2	0.24116376
142	0xbe84fc29	-0.25973633
143	0xbdf631a4	-0.12021187
144	0x3e09a0dc	0.13440269
145	0x3dff8154	0.12475839
146	0x3df3f85c	0.11912605
147	0x3d4c6730	0.049903095
148	0x3d88f628	0.066875756
149	0xbceabd98	-0.028654858
150	0xbd9783ca	-0.07398184
151	0x3e0e031a	0.1386837
152	0x3ddab568	0.10679132
153	0x3d8b3c3c	0.06798598
154	0x3e214f28	0.15752852
155	0x3e423864	0.18966824
156	0xbe6b1059	-0.22955455
157	0x3e028cc0	0.12749004
158	0xbe29a4c0	-0.16566753
159	0x3c3eb160	0.011638969
160	0x3c6f3400	0.0145998
161	0x3cfcd9c0	0.03086555
162	0xbd600c7c	-0.054699406
163	0x3e80e2d5	0.2517306
164	0xbc838d60	-0.016058624
165	0xbe00cc57	-0.1257795
166	0xbe0e3e51	-0.1389096
167	0xbe884ca1	-0.26620963
168	0x3df3be44	0.11901525
169	0x3e370c26	0.17875728
170	0x3e26723a	0.16254511
171	0x3d8c2094	0.06842151
172	0xbe4684d6	-0.1938661
173	0x3e13437a	0.14381209
174	0x3d106dc8	0.035260946
175	0x3e4d5522	0.20052007
176	0xbe4270f8	-0.18988407
177	0xbe71c01c	-0.2360844
178	0xbd885502	-0.06656839
179	0x3c977cb0	0.018492073
180	0xbdcccf52	-0.10000481
181	0xbdc4781c	-0.095932215
182	0xbda8f548	-0.08249909
183	0xbd98209a	-0.07428093
184	0x3c4b0340	0.012390912
185	0xbe0b840e	-0.13624594
186	0xbe1b42ec	-0.15162247
187	0x3e14073c	0.14455885
188	0xbd51b290	-0.05119568
189	0x3e60829a	0.2192482
190	0xbe60c970	-0.21951842
191	0xbb0bbd00	-0.002132237
192	0x3e410a00	0.18851471
193	0x3d909d98	0.070613086
194	0x3e62c8ca	0.22146907
195	0x3e54c5ee	0.20778629
196	0x3e47216a	0.1944634
197	0xbe065706	-0.13119134
198	0x3e326f22	0.17425206
199	0xbe4b3188	-0.19843113
200	0xbe2b71ef	-0.16742681
201	0x3e1e45e8	0.15456355
202	0x3e8ab983	0.2709466
203	0x3ccd4ca0	0.025060952
204	0x3d93da94	0.07219425
205	0xbdae470e	-0.08509646
206	0x3a582000	0.00082445145
207	0x3de029e0	0.10945487
208	0x3e75f352	0.240186
209	0xbe3c0d40	-0.1836443
210	0x3e74e23e	0.2391443
211	0x3e09c67e	0.13454625
212	0xbe1355cf	-0.14388202
213	0x3de55a70	0.1119889
214	0xbd92d8de	-0.071702704
215	0xbde56224	-0.112003595
216	0x3c5d5ca0	0.013510853
217	0x3dea4ebc	0.11440799
218	0x3e0861e8	0.13318598
219	0xbdd315b2	-0.103068724
220	0x3e177ade	0.14792964
221	0xbe12a88b	-0.14322107
222	0x3d6dc948	0.058053285
223	0x3cd76380	0.026292562
224	0xbe19f241	-0.15033819
225	0x3e6e06e2	0.23244813
226	0x3e501674	0.20321065
227	0xbe134f61	-0.1438575
228	0xbe3afcb4	-0.18260461
229	0x3e6a12aa	0.22858682
230	0xbd7d7db8	-0.061887473
231	0x3baa56c0	0.0051983297
232	0xbc6535c0	-0.013989866
233	0xbe62f365	-0.2216316
234	0x3e1a18e6	0.1504856
235	0xbe454dfa	-0.19268027
236	0xbdcc312e	-0.09970318
237	0xbe1ff7d6	-0.15621886
238	0xbe1cc1ae	-0.15308258
239	0xbe7fa33e	-0.24964616
240	0xbddf3f40	-0.10900736
241	0xbe04e32a	-0.12977281
242	0xbe66b963	-0.22531657
243	0xbe5dbed9	-0.21654834
244	0xbdcd3e80	-0.100216866
245	0xbe776953	-0.24161272
246	0xbe7c9983	-0.24667935
247	0xbe2ac162	-0.16675332
248	0x3c7b50c0	0.0153390765
249	0xbe04b091	-0.1295798
250	0xbd8331fc	-0.06406018
251	0xbcb5f030	-0.022209257
252	0x3e86bbe7	0.26315233
253	0x3d5afc18	0.05346307
254	0x3d523f90	0.05133015
255	0xbd1d14e4	-0.03835

net.0.bias f4 [128]
0	0xbc308dc0	-0.010775983
1	0xbce66980	-0.028126478
2	0xbe274e84	-0.16338545
3	0x3bdc2fc0	0.0067195594
4	0xbe278d08	-0.16362393
5	0x3e4d082c	0.20022649
6	0x3e81b875	0.25336042
7	0x3cae4030	0.021270841
8	0x3dc79590	0.09745324
9	0xbdb0c5a4	-0.08631447
10	0xbe6b1a0c	-0.22959155
11	0xbd4345b0	-0.04767388
12	0xbe36a65c	-0.17836899
13	0xbcbd1b70	-0.023084372
14	0x3d8466c8	0.064649165
15	0xbdfb0370	-0.12256515
16	0xbe5a15db	-0.212974
17	0x3c9cf6e0	0.019160688
18	0xbcc1e1f0	-0.023667306
19	0x3e0fa4a8	0.14027655
20	0x3e54dce4	0.20787388
21	0xbe0eb21a	-0.13935128
22	0x3ddfbf98	0.109252155
23	0xbe184129	-0.14868607
24	0xbdf9b18e	-0.12192069
25	0xbe3e9e44	-0.18615061
26	0xba2efe00	-0.0006675422
27	0xbe4fa200	-0.20276642
28	0xbdc0b6ac	-0.09409842
29	0xbe732521	-0.23744632
30	0xbe4a4229	-0.197518
31	0x3b87e480	0.0041471124
32	0x3df8a138	0.12140125
33	0xbdf4bfc4	-0.11950639
34	0xbb7b8100	-0.003837645
35	0x3b841a80	0.0040314794
36	0xbe68152f	-0.22664331
37	0x3e14b5c4	0.14522463
38	0x3dcda8b4	0.10041943
39	0x3e4270bc	0.18988317
40	0xbe6fbab6	-0.23411068
41	0xbe546a63	-0.20743708
42	0x3ddd3f08	0.10803038
43	0x3d845144	0.06460813
44	0xbe0c31c7	-0.13690864
45	0xbda77f92	-0.08178629
46	0x3e5f5412	0.21809414
47	0xbe17a3a9	-0.14808525
48	0x3e35046a	0.17677465
49	0xbe0641ca	-0.13111034
50	0x3e18c58e	0.14919111
51	0xbdcb8858	-0.09938115
52	0xbe7df20f	-0.2479937
53	0xbe720609	-0.23635115
54	0xbdf7be64	-0.12096861
55	0x3e550a68	0.20804751
56	0xbe23868a	-0.15969291
57	0xbe1ba03b	-0.15197842
58	0xbdcfc99e	-0.10145877
59	0xbe27154c	-0.16316718
60	0xbb80b240	-0.003927499
61	0xbe81fdde	-0.25388998
62	0xbe252041	-0.16125585
63	0xbe84b822	-0.25921732
64	0xbe3bfa05	-0.18357094
65	0xbd9e00dc	-0.07715008
66	0x3d7e7590	0.062123835
67	0x3cd7b220	0.026330054
68	0x3e3bedf8	0.18352497
69	0xbe6914b4	-0.22761804
70	0x3dd1c6f8	0.102430284
71	0x3e7ba086	0.24572954
72	0xbd2a6f20	-0.041609883
73	0xbe20c4e8	-0.15700114
74	0xbdbfe402	-0.09369661
75	0xbe6be46d	-0.23036356
76	0xbe3284ba	-0.17433444
77	0x3e1db1a8	0.15399802
78	0x3e84fc63	0.25973806
79	0xbdac8a2c	-0.08424792
80	0xbe05c47c	-0.13063234
81	0x3dd41098	0.103547275
82	0x3e87ac9f	0.26498887
83	0x3de33700	0.11094475
84	0x3de91f54	0.113829285
85	0x3e853c7b	0.26022705
86	0x3e492938	0.1964463
87	0x3cdfe000	0.027328491
88	0x3df45aa4	0.11931351
89	0x3d5515f0	0.052022874
90	0xbe2b7d28	-0.16746962
91	0xbe5f6593	-0.21816091
92	0xbe8d01b8	-0.27540374
93	0xbdadfc78	-0.0849542
94	0x3d0e8570	0.034795225
95	0xbe088ed4	-0.13335735
96	0x3ddd113c	0.10794303
97	0x3dabe21c	0.08392736
98	0x3e2bf28a	0.1679174
99	0xbdef6868	-0.11689836
100	0xbe85759e	-0.26066297
101	0xbd2fdcd0	-0.042935193
102	0x3e29b5f8	0.16573322
103	0x3d07c000	0.03314209
104	0xbd2657c0	-0.04061103
105	0x3b802a00	0.003911257
106	0x3dc50bd8	0.096214
107	0x3e40d65a	0.18831769
108	0x3e64b556	0.22334799
109	0x3e845831	0.25848535
110	0x3dab5c34	0.08367196
111	0xbd7579c0	-0.059930563
112	0x3d471920	0.048607945
113	0xbd9c87b8	-0.07643074
114	0xbbdfad40	-0.006826073
115	0xbded442c	-0.115852684
116	0x3d487408	0.04893878
117	0x3ddeee34	0.108852774
118	0x3e578adc	0.21049064
119	0xbe8a7e39	-0.27049425
120	0xbe8b7d1f	-0.27243897
121	0x3c4eb840	0.012617171
122	0xbe7fccea	-0.24980512
123	0xbc2e85a0	-0.010651976
124	0x3d97f1e8	0.07419187
125	0x3e15cbd0	0.1462853
126	0x3d20eb10	0.039286673
127	0x3e6d3362	0.23164132

net.2.weight f4 [128, 128]
0	0x3c129c20	0.008948356
1	0xbc707f60	-0.014678806
2	0xbd0345ab	-0.032048862
3	0xbc016b18	-0.007899068
4	0xbcfbf83a	-0.030758012
5	0x3c9c59c8	0.01908578
6	0x3afc4480	0.0019246489
7	0xbbef3e80	-0.0073011518
8	0xbcdb51fa	-0.026772488
9	0x3caca9e4	0.021077104
10	0xbd9e7aa6	-0.07738237
11	0xbdaed7f5	-0.08537284
12	0xbc965aa0	-0.01835376
13	0x3d7ebf82	0.062194355
14	0xbc9e801c	-0.019348197
15	0xbd59df88	-0.05319169
16	0x3d55233a	0.052035548
17	0x3dad5093	0.08462634
18	0xbd4e0b7e	-0.05030393
19	0xbcf80a36	-0.030278306
20	0xbda3337a	-0.07968803
21	0x3daffe79	0.08593459
22	0xbd96e5b1	-0.07368029
23	0xbd6b73ba	-0.057483412
24	0xbcfe5966	-0.031048488
25	0xbd9480fe	-0.07251166
26	0xbd8ba765	-0.06819037
27	0x3d13c6aa	0.036078133
28	0x3d998cfb	0.07497593
29	0xbd90a216	-0.070621654
30	0x3d657862	0.05602301
31	0x3c0deec8	0.008662887
32	0xbda7fb66	-0.08202247
33	0x3d1eaa7e	0.038736813
34	0xbb1e5ee0	-0.0024165437
35	0x3d80f56b	0.0629681
36	0xbd6b5686	-0.057455562
37	0xbd94b422	-0.0726092
38	0x3d7ed25a	0.062212326
39	0x3c8efb84	0.017453916
40	0xbd2e88d7	-0.04261097
41	0xbd967ce1	-0.073480375
42	0xbc956418	-0.018236205
43	0x3d60d9a2	0.05489505
44	0x3d309a66	0.043115996
45	0xbaa7e4c0	-0.0012809262
46	0x3cca8464	0.024721332
47	0xbd72ac1d	-0.05924617
48	0x3d58851e	0.052861325
49	0x3c32b418	0.0109071955
50	0x3cfc6d84	0.03081394
51	0xbd0fa787	-0.035071876
52	0x3b47f400	0.0030510426
53	0x3ced72c0	0.028985381
54	0x3c41ca08	0.011827953
55	0xbd80aeb2	-0.062833205
56	0x3d303636	0.04302045
57	0xbd264749	-0.040595327
58	0x3db4828f	0.088139646
59	0xbd062340	-0.03274846
60	0xbc8dadc8	-0.01729478
61	0x3d082896	0.03324183
62	0x3ca179c0	0.019711375
63	0x3d84f6b5	0.06492368
64	0x3d9ace5b	0.075588904
65	0x3d88ef03	0.06686213
66	0x3d13d468	0.03609124
67	0xbcfd4578	-0.030916914
68	0x3d841c8d	0.06450758
69	0x3d2bc472	0.04193539
70	0x3daba837	0.08381694
71	0xbdb389d7	-0.08766525
72	0x3cc91e80	0.024550676
73	0x3ae8af00	0.0017752349
74	0xbd3b2408	-0.04568866
75	0x3d22004e	0.03955107
76	0x3d8b0391	0.067877896
77	0xbd32ee0c	-0.04368405
78	0x3daf7495	0.08567158
79	0x3c9dc870	0.019260615
80	0xbd80dde8	-0.06292325
81	0xbd3e0f39	-0.046401236
82	0x3d67f85a	0.05663333
83	0xbd7bc619	-0.061468218
84	0x3d81d16b	0.063387714
85	0x3d84de11	0.06487668
86	0x3d2c965e	0.04213559
87	0xba92fe00	-0.0011214614
88	0xbd8f202c	-0.06988558
89	0xbc781338	-0.015141301
90	0xbc040408	-0.008057602
91	0x3d62efbe	0.055404417
92	0x3c4fba98	0.012678765
93	0x3c0fd8f0	0.008779749
94	0xbd842007	-0.06451421
95	0xbc027718	-0.0079629645
96	0x3cf7b650	0.0302383
97	0xbce55494	-0.027994432
98	0xbd82cdb0	-0.06386888
99	0x3c9adbb8	0.018903598
100	0x3d83b569	0.064310856
101	0xbd297637	-0.041372504
102	0x3c5613f8	0.013066284
103	0xbcd653f8	-0.026163086
104	0xbb6732c0	-0.0035278052
105	0x3d8a4bff	0.06752776
106	0x3b8f5590	0.0043742135
107	0xbcd5f976	-0.026119929
108	0xbcf61d6c	-0.030043326
109	0x3d8753ad	0.06607757
110	0xbda3f835	-0.08006326
111	0x3c8d507c	0.017250292
112	0xbd9328bb	-0.07185503
113	0xbd928faa	-0.07156308
114	0xbae4d6c0	-0.001745902
115	0x3d69291a	0.056923963
116	0x3d1140fa	0.035462357
117	0x3ca761a8	0.020432308
118	0x3d77c576	0.060491048
119	0xbdb203de	-0.08692144
120	0xbc8e614c	-0.01738038
121	0x3d5e4eb6	0.054274283
122	0xbd10144d	-0.03517561
123	0xbc0462c8	-0.008080192
124	0xbd398ace	-0.04529839
125	0x3cfe7d8c	0.031065725
126	0x38a7fc00	8.010119e-05
127	0x3cff2fc4	0.031150706
128	0x3cd1198c	0.025524877
129	0x3d65dbca	0.05611781
130	0x3c3989d0	0.011324361
131	0x3d52e8c2	0.051491506
132	0xbdaf9ba4	-0.08574608
133	0x3d287a3e	0.041132204
134	0xbcd592b6	-0.026070934
135	0xbda42cbc	-0.08016345
136	0x3c27ea20	0.010248691
137	0x3d7862a6	0.060640953
138	0xbd84f648	-0.06492287
139	0x3cf92e10	0.030417472
140	0xbd424fc7	-0.047439363
141	0xbd049fb6	-0.032378875
142	0x3d14e3cc	0.036350057
143	0xbb1e18e0	-0.0024123713
144	0x3d152f4c	0.03642206
145	0x3b8bbe60	0.004264638
146	0x3d81e74d	0.06342945
147	0x3d09ccf2	0.033642717
148	0x3cd59320	0.026071131
149	0xbcd01b04	-0.025403507
150	0x3da5a491	0.08088029
151	0xbd8db5b3	-0.06919422
152	0x3cda5870	0.026653498
153	0xbd6183bb	-0.05505727
154	0xbc7ce6a8	-0.015435852
155	0x3d988ca9	0.07448704
156	0xbd60e576	-0.05490633
157	0xbd9184a1	-0.07105375
158	0x3c8e0d64	0.01734037
159	0xbd8e2d47	-0.0694223
160	0xbd378d66	-0.044812582
161	0x3bd01a10	0.006350763
162	0xbcfb84be	-0.030702945
163	0x3d93549d	0.07193873
164	0x3cc5be8c	0.024138711
165	0xbd5f3d3b	-0.054501753
166	0xbc32aa88	-0.010904916
167	0xbda47935	-0.08030931
168	0xbd284103	-0.041077625
169	0xbd9733f5	-0.07382957
170	0xbc9b92a8	-0.01899083
171	0xbc334bf0	-0.010943398
172	0xbcce72b0	-0.025201172
173	0x3a8dec80	0.0010827929
174	0xbdadce83	-0.084866546
175	0x3d73fafa	0.05956552
176	0xbd56ca75	-0.05243917
177	0xbc1b5358	-0.00948032
178	0xbc9e92a4	-0.019357033
179	0xbaefa280	-0.0018282682
180	0x3b335260	0.0027362332
181	0xbbead3a0	-0.007166341
182	0x3c3bd9c0	0.01146549
183	0x3cde536c	0.027139388
184	0x3d4f688a	0.050636806
185	0xbd5c2e6e	-0.053755216
186	0x3d283442	0.041065462
187	0xbd85a881	-0.0652628
188	0x3d461d0a	0.048367538
189	0x3d0e3cb2	0.034725852
190	0xbdb1151d	-0.08646605
191	0xbb52c100	-0.0032158494
192	0x3d48d1f6	0.04902836
193	0x3d9625f9	0.073314615
194	0xbc96bdf4	-0.018401124
195	0x3daca4e5	0.08429889
196	0xbd869da2	-0.06573035
197	0xbdb05263	-0.08609464
198	0xbd1212ca	-0.03566245
199	0xbd7b631a	-0.061373807
200	0x3c7ade30	0.015311763
201	0x3c7a0898	0.015260838
202	0x3967b600	0.00022097677
203	0xbce6defe	-0.028182503
204	0xbd829187	-0.063754134
205	0x3d19b50a	0.037526168
206	0xbb17d720	-0.0023168996
207	0xbdab75a0	-0.083720446
208	0xbc8ea034	-0.017410375
209	0x3d8bd84b	0.06828364
210	0xbd97d0e0	-0.074128866
211	0xbd33d0e2	-0.043900378
212	0x3ce53b08	0.02798225
213	0xbd5a42d6	-0.053286396
214	0x3d4fba5a	0.050714828
215	0x3d81e8e3	0.06343248
216	0xbd7e2f2c	-0.062056705
217	0xbc0881f8	-0.008331768
218	0x3da6c94f	0.08143865
219	0xbda2d950	-0.07951605
220	0xbda704d0	-0.08155215
221	0x3d83c5cf	0.06434213
222	0xbd578c5c	-0.05262409
223	0x3d7238c6	0.059136175
224	0x3cdd07c8	0.02698125
225	0x3d81dc2b	0.06340822
226	0xbdaf2eb6	-0.08553831
227	0x3d5f38d6	0.054497562
228	0xbbda3400	-0.006659031
229	0xbd3ed0b7	-0.046585765
230	0xbb408ee0	-0.0029382035
231	0xbd5f7b3c	-0.054560885
232	0x3da44f41	0.08022929
233	0xbd717bc6	-0.05895593
234	0xbd7d1388	-0.061786205
235	0x3d722c36	0.059124194
236	0x3c248880	0.01004231
237	0x3cd977a0	0.0265463
238	0x3ca2635c	0.019822769
239	0x3cd07a0c	0.025448821
240	0x3d90da8b	0.07072934
241	0x3da4a7cb	0.080398165
242	0x3cdedcf8	0.027204975
243	0xbda7433d	-0.081671216
244	0x3cbf3044	0.023338445
245	0x3d4f5dda	0.050626613
246	0xbd1356ca	-0.03597144
247	0xbc9e5a94	-0.0193303
248	0xbd61eeb4	-0.055159286
249	0x3da3a05f	0.07989573
250	0x3d69584a	0.056968965
251	0x3bbdee30	0.0057962164
252	0x3ccb4c14	0.02481655
253	0x3d8985c9	0.067149706
254	0x3d9a44ad	0.0753263
255	0xbc872eac	-0.016501747

net.2.bias f4 [128]
0	0xbd49728c	-0.049181506
1	0x3d66ba2a	0.056329884
2	0x3d828d9f	0.06374668
3	0x3c9d739c	0.019220166
4	0x3d998471	0.07495964
5	0xbcc10594	-0.02356223
6	0xbda1825b	-0.078861915
7	0x3d6da272	0.058016248
8	0x3d1486d8	0.03626141
9	0xbc872b60	-0.016500175
10	0xbb9052a0	-0.004404381
11	0xbd687c67	-0.056759264
12	0x3a1b3200	0.00059202313
13	0xbd199c62	-0.037502654
14	0x3d565a3e	0.052332155
15	0x3d47893a	0.048714854
16	0xbd8ca9ec	-0.068683475
17	0x3dac4423	0.084114335
18	0xbc4079b8	-0.01174777
19	0x3d83dbfb	0.06438442
20	0xbb991520	-0.0046717077
21	0x3db042e7	0.086065106
22	0x3cd61488	0.026132837
23	0x3d8a243b	0.06745192
24	0x3d16e5fe	0.03684043
25	0xbd314291	-0.043276373
26	0xbdb460a3	-0.088074945
27	0x3be6ad40	0.007039696
28	0xbcb0d450	-0.021585613
29	0xbdb489d2	-0.0881535
30	0x3c132998	0.008982085
31	0xbd0f7a24	-0.03502859
32	0xbd69982f	-0.0570299
33	0x3cdab830	0.026699156
34	0xbd98f1a2	-0.07467963
35	0x3dafc2b5	0.08582059
36	0xbda83a43	-0.082142375
37	0xbc3a41a0	-0.011368185
38	0xbd0bff27	-0.03417888
39	0xbc387480	-0.0112582445
40	0x3db1d927	0.08683997
41	0xb9ca1b00	-0.0003854856
42	0xbc5e8be8	-0.013583161
43	0x3d965c5d	0.07341836
44	0x3c5d3790	0.013502017
45	0xbdb2c437	-0.08728831
46	0xbcf3b3b2	-0.029748771
47	0xbd19e597	-0.03757247
48	0x3db03aaf	0.08604943
49	0xbd8f344b	-0.06992396
50	0x3d7a2a52	0.061075516
51	0x3db2b3f9	0.08725733
52	0xbd09b8b5	-0.033623416
53	0x3d6b62fe	0.057467453
54	0xbdac062b	-0.08399614
55	0x3cc2be94	0.023772515
56	0x3d1e5a2e	0.03866022
57	0x3cd7ab4c	0.026326798
58	0x3dac915d	0.08426163
59	0x3d4b9bde	0.049709193
60	0x3d86ee65	0.06588439
61	0x3d94d49f	0.07267117
62	0xbd22425b	-0.039614063
63	0xbd84133c	-0.06448981
64	0xbd4d4ef5	-0.050124127
65	0x3d386f7e	0.045028202
66	0x3d8a5c49	0.06755883
67	0x3d60c446	0.05487468
68	0x3d35dd8a	0.04440073
69	0x3bf07590	0.0073382333
70	0xbcd306a0	-0.025759995
71	0xbc453b68	-0.012038089
72	0x3ba05c50	0.004893817
73	0xbd9bd484	-0.076088935
74	0x3d3ed572	0.046590276
75	0x3d51e1c6	0.051240705
76	0x3db13c09	0.08654029
77	0x3bb6d9c0	0.005580157
78	0x3d0e8b82	0.034801014
79	0xbcb27bb0	-0.021787494
80	0x3c5459b8	0.012960844
81	0xbdaa1e5c	-0.08306572
82	0xbdb4c5eb	-0.08826812
83	0xbd0e6a04	-0.034769073
84	0x3d3c8f26	0.046034954
85	0x3d8206d1	0.063489564
86	0x3d5c783e	0.05382561
87	0xbc866438	-0.01640521
88	0x3c8b7f24	0.017028399
89	0x3d4dd9d2	0.050256558
90	0x3d010d52	0.031506844
91	0x3c204b78	0.009783618
92	0x3db0c3f3	0.08631124
93	0xbd82ec1b	-0.0639269
94	0xbd3efb40	-0.04662633
95	0xbce470a6	-0.027885746
96	0x3d540e3a	0.05177138
97	0xbd0fddfd	-0.035123814
98	0x3ccbcb1c	0.024877124
99	0xbc99dee4	-0.01878304
100	0x3c0b2be0	0.008494347
101	0xbce928b2	-0.028461788
102	0x3cfcd750	0.030864388
103	0xbc936b30	-0.017995447
104	0xbd75e784	-0.060035244
105	0xbd80a60d	-0.06281672
106	0xbc729ea0	-0.014808327
107	0xbd842e6c	-0.06454167
108	0xbc85e3bc	-0.016343944
109	0xbd7ece50	-0.062208474
110	0xbd5c1ee5	-0.0537404
111	0xbd801f0a	-0.0625592
112	0x3ba7b090	0.0051174834
113	0xbd4b702e	-0.04966753
114	0xbd8b05c8	-0.06788212
115	0x3c727148	0.014797516
116	0x3d8574f7	0.0651645
117	0x3d9b7b17	0.07591837
118	0xb916a200	-0.00014365464
119	0x3d394dba	0.04524014
120	0x3da989fd	0.08278272
121	0xbd90729d	-0.07053111
122	0x3b4f9be0	0.0031678602
123	0xbd54a74a	-0.05191735
124	0x3d1acb0e	0.037791304
125	0x3d92574b	0.07145556
126	0x3d8508f1	0.06495846
127	0x3c20fb08	0.0098254755

net.4.weight f4 [128, 128]
0	0x3da2bb01	0.079458244
1	0xbdb21fb4	-0.08697453
2	0x3d8b2be7	0.06795483
3	0x3ce8f5a8	0.02843745
4	0x3c7eba80	0.015547395
5	0x3d70c922	0.058785565
6	0xbca38c68	-0.019964412
7	0x3da1e51b	0.079050265
8	0x3db3c765	0.08778266
9	0x3cf71164	0.03015966
10	0x3cc05544	0.023478158
11	0xbd627001	-0.055282596
12	0x3da2c9af	0.07948624
13	0x3c7aa040	0.015296996
14	0xbd520800	-0.05127716
15	0xbdaefc7c	-0.08544251
16	0xbd051689	-0.032492194
17	0x3dafa7dd	0.08576939
18	0xbd567be7	-0.052364256
19	0xbd192bc1	-0.037395243
20	0xbc204228	-0.009781398
21	0xbd70baee	-0.05877202
22	0x3db46615	0.08808533
23	0xbd7a310e	-0.06108194
24	0xbd9ae5f5	-0.07563392
25	0x3d57604a	0.052582063
26	0xbcad5204	-0.021157272
27	0xbcbbd370	-0.02292797
28	0xbb173820	-0.0023074225
29	0xbd323d5e	-0.043515556
30	0xbd49aa76	-0.04923483
31	0x3d9db9c9	0.07701451
32	0x3d5dfb96	0.05419501
33	0xbc0d7e08	-0.008636005
34	0x3d8e7f9d	0.06957934
35	0x3d960d39	0.07326741
36	0xbd3efb2f	-0.046626266
37	0x3ce6a944	0.028156884
38	0xbd86ad35	-0.06576005
39	0xbcfc9068	-0.030830577
40	0x3d95c803	0.0731354
41	0x3d77cd9a	0.06049881
42	0x3d6cc7ae	0.057807617
43	0xbd923d34	-0.0714058
44	0xbca2e878	-0.01988624
45	0xbd1d7908	-0.038445503
46	0x3d197292	0.03746278
47	0xbd8caa04	-0.068683654
48	0x3d4906a2	0.04907859
49	0x3c9dfef4	0.01928661
50	0x3d6a1b9a	0.05715523
51	0x3c9d38bc	0.019192092
52	0x3d837475	0.06418697
53	0x3c5090b8	0.012729816
54	0x3d0e9c54	0.034817055
55	0xbb8d6400	-0.0043148994
56	0xbd4db712	-0.050223418
57	0x3b19a860	0.0023446307
58	0x3babff40	0.005248934
59	0xbd67bede	-0.05657851
60	0x3cea4fcc	0.028602503
61	0xbcd1454c	-0.025545739
62	0xbdafb2b4	-0.08579007
63	0x3d0c2cf6	0.034222566
64	0x3daf1231	0.085483916
65	0x3c96ce3c	0.018408887
66	0xbc0b0e60	-0.008487314
67	0xbceaff84	-0.028686292
68	0xbd874e22	-0.066066995
69	0xbd3cc051	-0.046081845
70	0xbce6432a	-0.028108198
71	0xbd5244de	-0.051335208
72	0xbc913e2c	-0.017729841
73	0x3d1bf3ee	0.038074426
74	0x3d2d9742	0.04238058
75	0x3d0fc9a8	0.035104424
76	0xbd2f346c	-0.042774603
77	0x3daf0c4f	0.085472696
78	0xbcefd8e8	-0.029278234
79	0xbdab6208	-0.08368307
80	0xbb93abd0	-0.0045065656
81	0xbc5aa878	-0.01334583
82	0xbd185b04	-0.037196174
83	0x3cfc78f8	0.030819401
84	0xbc6dbe20	-0.014510661
85	0x3bfa2a60	0.007634446
86	0xbd5cb32b	-0.053881805
87	0xbb4e6380	-0.0031492412
88	0xbc258cf8	-0.01010441
89	0x3d92e95f	0.07173418
90	0x3ced1228	0.028939322
91	0x3d227bce	0.03966885
92	0xbd6bf0dc	-0.05760275
93	0xbd01ddd4	-0.031705692
94	0xbd9b1276	-0.075718805
95	0x3c1fab40	0.009745419
96	0x3dafaa6b	0.085774265
97	0x3d767f9e	0.0601803
98	0x3d1c2f26	0.0381309
99	0xbd99503e	-0.07486008
100	0x3d039f26	0.032134198
101	0xbcffc206	-0.031220447
102	0xbd68e1e0	-0.056856036
103	0xbd97800e	-0.07397471
104	0xbda4d4ee	-0.080484256
105	0xbd39b437	-0.045337882
106	0xbd231461	-0.039814357
107	0xbd7d769a	-0.061880685
108	0x3b8dc7d0	0.004326798
109	0xbb4778a0	-0.0030436888
110	0xbd815631	-0.06315268
111	0x3d92bef5	0.071653284
112	0x3d992429	0.074776
113	0x3d80d39b	0.062903605
114	0x3daa6999	0.083209224
115	0x3b957cb0	0.004561983
116	0xbcaf4ab8	-0.021397933
117	0x3d832de5	0.06405238
118	0x3d89fce3	0.067376874
119	0xbd5e0b82	-0.054210193
120	0xbd17c442	-0.0370524
121	0x3d7bf9aa	0.061517395
122	0x3d5ee44a	0.054416932
123	0x3c21d240	0.009876788
124	0xbd38e0de	-0.045136325
125	0xbd214498	-0.039372057
126	0x3d737e22	0.05944646
127	0x39a9c700	0.00032382458
128	0xbd68a674	-0.056799367
129	0x3be61980	0.007022083
130	0xbda6b594	-0.08140102
131	0xbda05bfa	-0.07830043
132	0x3c1f1900	0.00971055
133	0x3d746712	0.059668608
134	0x3d1523b6	0.03641101
135	0x3d47cb8a	0.048778094
136	0x3d67700a	0.056503333
137	0x3d0d5330	0.034503162
138	0x3d0a3630	0.033743083
139	0x3d9dab59	0.076986976
140	0xbd72632c	-0.05917661
141	0xbdb19f08	-0.08672911
142	0x3c8e72bc	0.017388694
143	0xbd5e97c7	-0.054343965
144	0xbd9fdc15	-0.07805649
145	0xbd0176e4	-0.031607524
146	0xbd9eb086	-0.07748513
147	0xbb4b7e60	-0.0031050667
148	0x3d8e1a4d	0.0693861
149	0xbd9bd5f1	-0.076091655
150	0xbd62b605	-0.05534937
151	0xbb462880	-0.0030236542
152	0xbbdf7290	-0.006819077
153	0xbca3d644	-0.01999963
154	0xb8f07400	-0.000114656985
155	0xbd9844a0	-0.07434964
156	0xbd8ca894	-0.06868091
157	0xbd33aea8	-0.043867737
158	0x3d16e236	0.036836825
159	0xbd99dd55	-0.07512919
160	0xbdb24ceb	-0.08706077
161	0xbdb46bcb	-0.088096224
162	0xbd0b8bf9	-0.034069035
163	0xbc91bd58	-0.017790481
164	0xbd7a6532	-0.061131664
165	0x3b9fe990	0.0048801377
166	0xbd65c5d6	-0.056096874
167	0xbda4f1d8	-0.080539405
168	0x3b848560	0.00404422
169	0x3c296f18	0.010341428
170	0x3cec0e3c	0.028815381
171	0x3c4da0f8	0.012550585
172	0xbd8d34ca	-0.06894834
173	0xbcd799dc	-0.026318483
174	0xbdad6b58	-0.0846774
175	0x3da626a1	0.08112837
176	0x3ce39b68	0.027784064
177	0x3d2d19be	0.042260878
178	0x3da0735b	0.07834502
179	0x3c171fd8	0.009223901
180	0xbbc0b1d0	-0.005880572
181	0x3da0ac97	0.07845419
182	0x3c449418	0.011998199
183	0x3d466f02	0.04844571
184	0x3d38fee6	0.045164965
185	0x3d4cf6a6	0.05003991
186	0x3d1f5c32	0.038906284
187	0x3da27ab9	0.07933564
188	0xbc6bee00	-0.014400005
189	0xbdb090e9	-0.086213894
190	0xbca60118	-0.020264193
191	0x3da66129	0.081240006
192	0xbd43eed7	-0.047835197
193	0x3d39e2ee	0.045382433
194	0x3d98a2d1	0.0745293
195	0x3d60093a	0.0546963
196	0x3da78e63	0.08181455
197	0x3d77db3e	0.06051182
198	0x3d860a03	0.06544878
199	0x3b374260	0.0027963147
200	0xbd577f77	-0.052611794
201	0x3d3bce8a	0.045851268
202	0xbd5eecd5	-0.05442508
203	0x3d96e9ff	0.0736885
204	0xbdaeadb1	-0.08529223
205	0xbceb8fda	-0.028755117
206	0x3da9d6cb	0.08292922
207	0xbc295448	-0.010335036
208	0x3d0f652a	0.035008587
209	0x3d159366	0.036517523
210	0xbd5e986e	-0.054344587
211	0xbd126613	-0.035741877
212	0xbc0c9e28	-0.008582629
213	0x3b1546c0	0.0022777766
214	0xbd6fe5f5	-0.058568913
215	0x3d18c332	0.037295528
216	0xbd988eb8	-0.074490964
217	0xbd85eba4	-0.065390855
218	0xbd906b60	-0.0705173
219	0x3d83becb	0.06432875
220	0x3c2e6830	0.010644957
221	0x3d5fbf7e	0.05462598
222	0xbd73eb6a	-0.05955068
223	0xbd719b72	-0.058986135
224	0x3d43f9d6	0.047845684
225	0x3d6820aa	0.056671776
226	0xbd975f79	-0.07391257
227	0x3d356eaa	0.04429499
228	0x3c8d68dc	0.017261915
229	0xbd9f32f2	-0.07773389
230	0x3d9f064b	0.07764872
231	0xbd8de542	-0.06928493
232	0x3d7c8cae	0.0616576
233	0xbb12cc40	-0.0022399575
234	0xbd41d0eb	-0.04731838
235	0x3c61e1d0	0.013786748
236	0x3d5527aa	0.05203978
237	0xbc548040	-0.01297003
238	0xbd5f2a8f	-0.054483946
239	0x3c86b7ac	0.016445003
240	0xbd79492c	-0.060860798
241	0x3cff061c	0.031130843
242	0xbcf426b2	-0.029803608
243	0x3d90dff3	0.07073965
244	0xbc19c538	-0.0093853995
245	0x3d203042	0.039108522
246	0xbdb247ed	-0.08705125
247	0xbda7fbb6	-0.08202307
248	0x3d3a953e	0.045552485
249	0x3d09f530	0.033681095
250	0xbcdb8002	-0.026794437
251	0xbbe3df40	-0.0069541037
252	0x3cf34c78	0.02969955
253	0x3ba57190	0.005048938
254	0x3d46d8fa	0.04854677
255	0x3d2864ba	0.041111685

net.4.bias f4 [128]
0	0xbd5abd36	-0.0534031
1	0xbc332218	-0.010933422
2	0xbd2035f0	-0.03911394
3	0x3da30891	0.07960618
4	0xbcdc5012	-0.02689365
5	0xbd8ad928	-0.067797005
6	0xbda65cc7	-0.081231646
7	0x3da5bcb7	0.08092635
8	0x3d1a6416	0.037693106
9	0xbac15fc0	-0.0014753267
10	0xbdafd0c0	-0.08584738
11	0x3da420eb	0.08014091
12	0x3c909a08	0.017651573
13	0xbda1c176	-0.07898228
14	0x3da93217	0.08261507
15	0x3d18fc86	0.0373502
16	0xbd99b34e	-0.07504903
17	0x3cc2ccc4	0.02377928
18	0x3d6707de	0.056403987
19	0xbd8f6e7c	-0.07003495
20	0xbce21f4c	-0.027602814
21	0xbcc660f0	-0.024216145
22	0xbd64fcdd	-0.05590521
23	0xbd6dc724	-0.058051243
24	0xbce99356	-0.028512638
25	0xbd4dce3d	-0.050245512
26	0x3d1da06e	0.038483076
27	0xbd957871	-0.07298363
28	0x3bbafda0	0.005706504
29	0x3d670c62	0.056408294
30	0xbd9de0ae	-0.0770887
31	0x3d8afe55	0.06786791
32	0x3c6aa308	0.014321096
33	0xbba5dcb0	-0.0050617084
34	0xbcdf680e	-0.027271297
35	0xbbacc8d0	-0.005272962
36	0x3db3523b	0.087559186
37	0xbd11b3ea	-0.03557197
38	0x3d697caa	0.057003655
39	0x3d7e746e	0.062122755
40	0x3d14a1ae	0.036287002
41	0xbc5f5dd0	-0.0136332065
42	0x3d2775ae	0.040883712
43	0xbce692a4	-0.028146096
44	0xbd5e452b	-0.054265182
45	0xbd998b36	-0.074972555
46	0x3d4325b2	0.04764337
47	0x3d7b09a6	0.0612885
48	0x3d9cca2d	0.076557495
49	0x3d2f9f06	0.042876266
50	0xbd7233a7	-0.05913129
51	0x3d797956	0.06090673
52	0x3ca17bb8	0.019712314
53	0x3c4350a8	0.011921085
54	0x3c297a38	0.010344081
55	0xbcdb1d30	-0.026747316
56	0x3daedc17	0.085380726
57	0x3d9a4f51	0.0753466
58	0xbd0b8db0	-0.03407067
59	0x3b7ab480	0.003825456
60	0xbd2d7a10	-0.042352736
61	0xbb524860	-0.0032086596
62	0xbd185066	-0.03718605
63	0x3d01b660	0.031668067
64	0xbd9cee60	-0.07662654
65	0xbc6a7248	-0.014309473
66	0x3d259b1a	0.04043112
67	0xbd1b4147	-0.03790405
68	0x3d899b0f	0.06719028
69	0x3cfe94f8	0.031076893
70	0xbd702ee4	-0.05863847
71	0x3d8a86e7	0.06764012
72	0x3d0d94d6	0.03456577
73	0xbdb0c299	-0.086308666
74	0x3d84a625	0.06477002
75	0xbd8e381c	-0.06944296
76	0x3bb144b0	0.0054097995
77	0xbd75e2be	-0.06003069
78	0xbd83d72b	-0.064375244
79	0x3c9b1dc0	0.018935084
80	0xbcdca99c	-0.026936345
81	0x3d59e96e	0.05320113
82	0xbd9efec7	-0.07763439
83	0xbd929fe0	-0.071594
84	0xbc4d9ec8	-0.012550063
85	0xbc9e0ee0	-0.019294202
86	0xbd2a227f	-0.041536804
87	0x3d84957f	0.064738266
88	0xbda8b935	-0.082384504
89	0x3ca0edf8	0.019644722
90	0x3cd43b24	0.025907107
91	0xbda8c257	-0.082401924
92	0x3d6ba5da	0.057531215
93	0xbd92e48d	-0.07172499
94	0x3d848301	0.064702995
95	0x3cbd2bac	0.023092113
96	0x3c445fd8	0.011985742
97	0xbd01082f	-0.031501945
98	0x3c06f098	0.008236073
99	0xbd2e4695	-0.04254778
100	0xbb3fbd40	-0.002925709
101	0xbc756e08	-0.014979847
102	0xbcbf68e8	-0.023365453
103	0x3d9e1b67	0.0772007
104	0xbcacefb8	-0.0211104
105	0x3d111966	0.035424612
106	0x3da873bd	0.082252
107	0xbd4aaf98	-0.049483865
108	0x3c42bef8	0.011886351
109	0xbb96b380	-0.004599035
110	0x3d6227fe	0.05521392
111	0xbd8334ea	-0.06406577
112	0xbd6f971a	-0.05849371
113	0x3d0c206a	0.0342106
114	0xbd833cd2	-0.06408085
115	0xbd3c1d02	-0.0459261
116	0xbd8c30dc	-0.06845257
117	0xbd275cdc	-0.040860042
118	0x3c4fa770	0.012674198
119	0x3d84afcd	0.06478844
120	0x3da9c955	0.08290354
121	0x3c1e0e58	0.0096469745
122	0x3da87ea1	0.082272775
123	0x3c1c5dc0	0.009543836
124	0x3d84f7b7	0.0649256
125	0x3cb96ff8	0.022636399
126	0xbd143c47	-0.036190297
127	0xbbaa3270	-0.005194001

net.6.weight f4 [256, 128]
0	0x3d0d1b60	0.034449935
1	0x3c1987f8	0.009370796
2	0xbccbadd0	-0.024863154
3	0x3d8e623d	0.06952331
4	0xbd06a043	-0.03286768
5	0x3d5e37c6	0.05425241
6	0xbd9a3049	-0.07528741
7	0xbda45b5f	-0.0802524
8	0xbc7710f0	-0.015079722
9	0x3d8104df	0.06299757
10	0x3d7c65ee	0.061620645
11	0x3d881ea7	0.066464715
12	0x3cc331f0	0.023827523
13	0x3c0c6d80	0.008571029
14	0xbd7582d8	-0.059939235
15	0x3cb5850c	0.022158168
16	0x3c3ec320	0.011643201
17	0xbd531229	-0.05153099
18	0x3d858abf	0.06520604
19	0x3cefd7f4	0.02927778
20	0x3ce23514	0.0276132
21	0xbdac3b35	-0.0840973
22	0xbd7c629f	-0.06161749
23	0xbd293751	-0.04131252
24	0x3d562366	0.052279852
25	0xbd7f55a0	-0.062337518
26	0xbd058021	-0.032592896
27	0x3d368276	0.04455801
28	0x3d816d37	0.06319659
29	0x3c89c1d8	0.016816065
30	0x3ca057d0	0.019573122
31	0x3cd8c3f8	0.026460633
32	0xbd5315f3	-0.051534604
33	0x3cb2b830	0.021816343
34	0x3d36ccb6	0.04462882
35	0xbcbffd90	-0.023436338
36	0x3d97ab31	0.07405699
37	0x3d92f947	0.07176452
38	0xbcf6d80e	-0.03013232
39	0x3ca10e74	0.019660212
40	0x3db1e8e7	0.08687001
41	0x3ca88d34	0.020575143
42	0x3d26c7ca	0.040717877
43	0x3cf0e920	0.029408038
44	0xbd9632e8	-0.07333928
45	0xbcc9e4d0	-0.02464524
46	0x3d63cc26	0.055614613
47	0x3d98cf6f	0.0746144
48	0xbd0eb443	-0.03483988
49	0x3ce7cdb0	0.028296322
50	0xbd82828a	-0.063725546
51	0x3d1fc782	0.039008625
52	0xbcb1c324	-0.021699496
53	0x3d143f12	0.03619296
54	0x3ce784f0	0.028261632
55	0xbdb05ee3	-0.08611848
56	0x3d97bf7b	0.07409569
57	0x3aea87c0	0.001789324
58	0x3d7f150a	0.062275924
59	0xbd25ee72	-0.040510602
60	0xbc3000e0	-0.010742396
61	0x3d9bd2e9	0.07608587
62	0xbd9c1b48	-0.07622391
63	0xbd40cf8b	-0.04707293
64	0xbd8e59b0	-0.069507
65	0xbd7a57c2	-0.06111885
66	0x3d1e1d16	0.038601957
67	0x3b8cf810	0.0043020323
68	0xbda85196	-0.08218686
69	0xbd80b2a5	-0.06284074
70	0xbcf0d9fc	-0.029400818
71	0xbd1686d5	-0.03674968
72	0xbd32e592	-0.043675967
73	0xbd7fd60e	-0.062459998
74	0x3d78674e	0.060645394
75	0x3cbb79b4	0.022885181
76	0x3cab8bd0	0.020940691
77	0xbd1b9fec	-0.03799431
78	0x3c9ee5b0	0.019396633
79	0x3d6709d2	0.05640585
80	0xbd91787b	-0.07103058
81	0x3daba5db	0.08381244
82	0xbd641944	-0.055688158
83	0xbd3430c0	-0.043991804
84	0x3d1dd7ee	0.038536005
85	0x3da7fe37	0.082027845
86	0xbc7e12e8	-0.015507437
87	0xbc3a5120	-0.011371881
88	0x3cd5bb54	0.026090302
89	0xbc1f0ad8	-0.009707175
90	0xb9aa1800	-0.00032442808
91	0x3d184b06	0.037180923
92	0xbc73c198	-0.014877699
93	0x3d53a106	0.051667236
94	0xbc73f880	-0.01489079
95	0x3c8beb38	0.017079934
96	0x3da6c1ef	0.08142459
97	0xbbe51b00	-0.006991744
98	0xbca4ea80	-0.02013135
99	0x3d178b86	0.036998294
100	0xbd1e9919	-0.038720224
101	0x3b545340	0.0032398254
102	0xbd7c6a00	-0.061624527
103	0xbd174b36	-0.03693696
104	0x3c83c57c	0.016085379
105	0xbd81bf0a	-0.06335266
106	0xbda79d7e	-0.08184336
107	0x3af38840	0.0018580034
108	0xbcdd2434	-0.026994802
109	0x3d2c5e3a	0.04208205
110	0x3d3bfd16	0.04589566
111	0xbc011ed0	-0.007880881
112	0xbd57be7f	-0.052671906
113	0x3daee0bf	0.08538961
114	0x3c3a2790	0.0113619715
115	0x3caeb76c	0.021327697
116	0x3d588572	0.05286164
117	0xbd1f27c5	-0.038856287
118	0x3bb6f060	0.005582854
119	0x3d67c38e	0.05658298
120	0xbda65408	-0.081214964
121	0xbdb5009e	-0.08838008
122	0xbc624540	-0.013810456
123	0xbba1f5d0	-0.004942633
124	0x3d38e71a	0.04514227
125	0xbcd8e026	-0.02647407
126	0x3c552ed0	0.013011649
127	0xbce56fa6	-0.02800734
128	0xbc137bc8	-0.00900168
129	0xbd81f89b	-0.06346246
130	0xbc437c78	-0.011931531
131	0x3d7b83ea	0.0614051
132	0x3d3b7cde	0.04577338
133	0xbd8e576a	-0.06950267
134	0x3d85fa37	0.06541865
135	0xbcb4d800	-0.022075653
136	0xbd6089d0	-0.05481893
137	0xbd008742	-0.031378992
138	0xbb8badc0	-0.004262656
139	0xbad5e7c0	-0.0016319677
140	0xbd8c2978	-0.06843847
141	0xbca5a75c	-0.020221405
142	0x3d057e1c	0.03259097
143	0xbd77626a	-0.06039659
144	0x3ccbc564	0.024874397
145	0x3cebdf3c	0.02879297
146	0xbd751549	-0.059834752
147	0xbd9d1811	-0.07670606
148	0xbc9b713c	-0.018974893
149	0x3d8f7243	0.070042156
150	0xbd735c16	-0.059413992
151	0x3d576ce6	0.052594088
152	0x3cee82e0	0.02911514
153	0x3d8d6cfb	0.06905552
154	0xbd16be05	-0.03680231
155	0xbc1d7798	-0.009611033
156	0xbda041bd	-0.078250386
157	0x3daad9eb	0.08342346
158	0xbdb30220	-0.0874064
159	0x3d92be89	0.07165248
160	0x3cfeaa1c	0.031086974
161	0x3ccd52f4	0.02506397
162	0x3d41fb3a	0.04735873
163	0x3d8d8671	0.06910408
164	0x3d35626a	0.044283308
165	0x3c84f3e8	0.016229585
166	0x3ccdd860	0.02512759
167	0x3da88b17	0.08229654
168	0xbd43f5d8	-0.047841877
169	0x3ce5f1f4	0.028069474
170	0x3d2fbe1e	0.04290592
171	0x3c8db350	0.017297417
172	0x3d60b8aa	0.05486361
173	0xbb92a500	-0.004475236
174	0xbd70dc70	-0.058803976
175	0xb9ca9d00	-0.00038645416
176	0xbd814482	-0.06311895
177	0x3d014aa4	0.031565323
178	0xbd530eae	-0.05152767
179	0x3d821607	0.06351858
180	0xbd9f12c8	-0.07767254
181	0x3da4670d	0.08027468
182	0xbd5df585	-0.054189224
183	0xbbe1e210	-0.006893404
184	0xbd933e41	-0.07189608
185	0x3db14def	0.08657443
186	0x3ce70a34	0.028203107
187	0xbc0b4bf0	-0.008501992
188	0xbd48a538	-0.04898569
189	0x3c6e4130	0.014541909
190	0x3c3a5a78	0.0113741085
191	0xbd9d7cf6	-0.0768985
192	0xbd9b6cec	-0.075891346
193	0xbd1dc210	-0.03851515
194	0x3c7c43f0	0.015397057
195	0xbc80dc58	-0.015730068
196	0xbd4125ef	-0.047155317
197	0x3d2c5976	0.042077504
198	0xbc85f790	-0.016353399
199	0x3c5ad8d0	0.013357356
200	0x3d468966	0.048470877
201	0xbd2932a5	-0.041308064
202	0xbdaa2edf	-0.08309721
203	0x3d941617	0.07230776
204	0x3cd9e814	0.026599921
205	0xbd250906	-0.04029181
206	0x3d1db8aa	0.038506187
207	0xbd265e9c	-0.04061757
208	0xbd992f6f	-0.0747975
209	0x3d73ab3e	0.05948948
210	0x3d838acf	0.0642296
211	0x3cefcdb0	0.029272884
212	0xbd21adad	-0.03947227
213	0xbd6257ee	-0.055259638
214	0xbdaaaf1b	-0.0833418
215	0x3d543da2	0.05181659
216	0xbd666383	-0.056247246
217	0x3d21dada	0.039515354
218	0x3d4cf24a	0.050035752
219	0x3d75324a	0.059862413
220	0xbd85d6f2	-0.06535138
221	0xbd8f849b	-0.07007714
222	0xbc004a98	-0.007830285
223	0xbd965dc3	-0.073421024
224	0x3c868abc	0.016423576
225	0xbdabc5e9	-0.08387358
226	0x3d77376e	0.060355596
227	0x3d625272	0.055254407
228	0x3d0662bc	0.032809004
229	0xbdaac078	-0.08337492
230	0x3da7e931	0.081987746
231	0x39b0fd00	0.00033757836
232	0xbbdb60e0	-0.006694898
233	0xbd117d0c	-0.035519645
234	0x3d3ba84e	0.045814805
235	0x3d97a3f9	0.07404322
236	0xbdab6de0	-0.08370566
237	0x3cc2a114	0.023758449
238	0xbd8141a7	-0.0631135
239	0xbb187e00	-0.0023268461
240	0x3c814b18	0.015782878
241	0xbd7d7cae	-0.061886482
242	0x3db36845	0.08760122
243	0x3cae5648	0.021281376
244	0x3addac80	0.0016912371
245	0x3d91b2ad	0.07114158
246	0xbb4b8760	-0.0031056032
247	0xbda99417	-0.08280199
248	0xbd275edc	-0.04086195
249	0xbd4e12d9	-0.050310943
250	0x3d5b7f46	0.053588174
251	0x3c8755d4	0.016520418
252	0x3d9ce2f1	0.07660473
253	0xbd2ee105	-0.042695064
254	0xbca11a78	-0.019665942
255	0xbd390575	-0.04517122

net.6.bias f4 [256]
0	0xbda0637b	-0.078314744
1	0xbda20991	-0.07911981
2	0xbdb31c81	-0.08745671
3	0x3d5fcf72	0.054641195
4	0x3d58aad2	0.052897282
5	0xbc2e02f0	-0.010620818
6	0xbd222610	-0.03958708
7	0xbd7164ab	-0.058933895
8	0x3a76c680	0.0009413734
9	0x3d81c191	0.06335748
10	0xbd049d17	-0.032376375
11	0xbd5822b5	-0.052767474
12	0xbd96e203	-0.07367327
13	0xbc303fb0	-0.010757372
14	0x3c03a120	0.008034021
15	0x3d4d83da	0.05017457
16	0xbcaa7044	-0.020805486
17	0xbccb9b60	-0.024854362
18	0xbd469f1f	-0.048491593
19	0xbcb203b4	-0.021730281
20	0x3d479ca6	0.048733376
21	0x3c848e64	0.016181178
22	0xbd4dde01	-0.050260548
23	0x3d6fedfe	0.058576576
24	0x3d909ff3	0.07061758
25	0xbd2fd588	-0.04292825
26	0xbd951562	-0.07279469
27	0x3cbf627c	0.02336239
28	0x3d3b5dbe	0.045743696
29	0x3d1934aa	0.03740374
30	0x3d55ca52	0.0521949
31	0xbd89bdeb	-0.06725677
32	0xbd76dfde	-0.06027209
33	0x3d4945ba	0.049138762
34	0xbc94f070	-0.018181056
35	0x3d3e2ffa	0.046432473
36	0x3d99c661	0.07508541
37	0x3d3ea8ce	0.046547703
38	0xbd826fc6	-0.06368975
39	0xbd93256b	-0.07184871
40	0x3d0b6724	0.03403391
41	0x3dad2be5	0.08455638
42	0x3c4ecc10	0.0126218945
43	0xbd4e29b8	-0.050332755
44	0xbc2980d8	-0.01034566
45	0x3dad0b2d	0.08449397
46	0x3dad72ab	0.08469137
47	0x3d9a74ef	0.075418346
48	0x3d977ea5	0.073972024
49	0xbd421fc6	-0.047393583
50	0xbd9fe96f	-0.07808196
51	0x3d1a7b72	0.037715383
52	0xbd358470	-0.044315755
53	0xbce2ab3c	-0.027669542
54	0x3d3bc5a2	0.045842774
55	0xbcb3a014	-0.021926917
56	0xbc7a6ba8	-0.015284456
57	0x3d0a2d72	0.033734746
58	0xbd253fd3	-0.04034407
59	0x3d9ee1bf	0.077579014
60	0x3d140cb4	0.036144927
61	0x3bfb18a0	0.0076628476
62	0xbd82bd0e	-0.063837156
63	0xbd532f5f	-0.05155885
64	0xbaaaba00	-0.0013025403
65	0x3d971807	0.0737763
66	0x3d988699	0.074475475
67	0xbca2c558	-0.019869491
68	0x3d06c108	0.032898933
69	0xbd824571	-0.06360901
70	0x3d3b8376	0.045779668
71	0xbc3688d8	-0.0111410245
72	0x3cd56bc0	0.026052356
73	0x3da6a8c3	0.081376575
74	0xbd9e2a5d	-0.07722924
75	0xbcdd923a	-0.027047265
76	0xbd941af0	-0.072317004
77	0xbc58c818	-0.0132313
78	0x3d309802	0.043113716
79	0xbce663d2	-0.02812377
80	0x3d663eba	0.056212164
81	0xbce758ec	-0.028240643
82	0xbd898a24	-0.06715801
83	0xbca9c790	-0.020725042
84	0x3ba51040	0.0050373375
85	0x3aecf800	0.0018079281
86	0x3c9b7d4c	0.018980645
87	0x3d374d3e	0.0447514
88	0xbd89f07c	-0.06735322
89	0xbdaf7909	-0.085680075
90	0x3d025642	0.031820543
91	0xbc30b398	-0.010785006
92	0x3c4b5ad8	0.012411796
93	0x3d8012cd	0.06253586
94	0xbd899bf6	-0.067192
95	0x3c9016d4	0.01758901
96	0xbcd0ec28	-0.025503233
97	0x3c94cd40	0.018164277
98	0x3ce5f89c	0.028072648
99	0xbda45a8b	-0.08025082
100	0x3d01f070	0.03172344
101	0x3d3654ba	0.044514395
102	0x3d0894f0	0.033345163
103	0x3cf2788c	0.029598497
104	0x3bba1770	0.0056790635
105	0x3cf4d8e8	0.029888585
106	0xbd22161c	-0.039571866
107	0x3ad4ae80	0.0016226321
108	0xba9e2240	-0.0012064651
109	0x3d8960d9	0.06707925
110	0x3c6b8398	0.014374636
111	0x3cbb33d4	0.022851862
112	0xbd444ed4	-0.04792674
113	0xbcc32020	-0.02381903
114	0xbcd1eed0	-0.02562657
115	0xbd35c7fd	-0.044380177
116	0x3d37132e	0.044696026
117	0x3ba0bbe0	0.004905209
118	0xbc0f7230	-0.008755252
119	0x3d1041a2	0.035218842
120	0x3d62b882	0.05535174
121	0xbd99d1f2	-0.07510747
122	0xbd3ed49a	-0.04658947
123	0x3d2951e6	0.04133787
124	0x3c8f447c	0.01748871
125	0xbcff3b46	-0.031156193
126	0x3dac3245	0.08408026
127	0xbcf85924	-0.030315943
128	0xbd487bcf	-0.048946198
129	0xbd9c23f2	-0.076240435
130	0xbd1a4a2d	-0.037668396
131	0x3d3423ea	0.043979563
132	0x3c997888	0.018734232
133	0xbd51146a	-0.05104486
134	0x3db36ea7	0.0876134
135	0xbc3ea2e8	-0.01163552
136	0xbd6bf5e0	-0.05760753
137	0xbcb15874	-0.021648623
138	0x3c1f94c0	0.009740055
139	0xbc581078	-0.01318752
140	0xbd7575e2	-0.059926875
141	0x3db42ca3	0.08797576
142	0xbd5311da	-0.051530696
143	0xbd9e9bdb	-0.07744571
144	0x3d9cdc97	0.07659262
145	0x38d92400	0.00010354072
146	0xbd50fdbb	-0.051023226
147	0x3bd7c430	0.0065846667
148	0xbcbbc234	-0.022919752
149	0xbc4d0ce0	-0.012515277
150	0xbb8d7eb0	-0.004318081
151	0x3d05057e	0.03247594
152	0xbd35f656	-0.044424377
153	0xbd62ea2e	-0.055399112
154	0x3cb8cadc	0.022557668
155	0xbcbcc46c	-0.02304288
156	0xbc7c7508	-0.015408762
157	0x3c98e244	0.01866258
158	0x3d7c5362	0.061602958
159	0x3d8fd1b3	0.07022419
160	0xbb2d5220	-0.0026446655
161	0xbd23bcf2	-0.039975114
162	0xbca6d174	-0.020363547
163	0x3d62c732	0.05536575
164	0xbd154a5c	-0.036447868
165	0x3cc6fc04	0.024290092
166	0xbdadd349	-0.08487565
167	0x3cb93cf8	0.02261208
168	0xbdacc660	-0.084362745
169	0x3bad2a20	0.0052845627
170	0xbd0de008	-0.03463748
171	0xbd7dc764	-0.06195773
172	0x3da53d8b	0.08068379
173	0x3d8dcad9	0.06923456
174	0x3daac50d	0.08338366
175	0x3c2654b8	0.010152034
176	0x3d8decf3	0.0692996
177	0xbce7c9ba	-0.028294433
178	0xbd239093	-0.0399328
179	0xbc1d59a0	-0.009603888
180	0xbd754542	-0.059880503
181	0x3db27f3b	0.087156735
182	0xbda6ff07	-0.08154111
183	0x3c53be60	0.012923807
184	0xbc425168	-0.011860229
185	0x3da828eb	0.082109295
186	0xbd134a04	-0.03595926
187	0xbd288c05	-0.041149158
188	0xbd89b4e3	-0.067239545
189	0x3c2278e8	0.009916522
190	0xbce2d02a	-0.027687151
191	0x3db06f7b	0.08615013
192	0xbdb0ecdb	-0.086389266
193	0x3d5d0026	0.05395522
194	0x3dacdc1b	0.08440419
195	0x3c118d18	0.008883737
196	0x3daada87	0.08342462
197	0xbb1a3320	-0.0023529008
198	0xbd23f357	-0.04002699
199	0x3d30ae26	0.04313483
200	0x3c8b65cc	0.017016314
201	0xbda0f258	-0.078587234
202	0xbdb1bae2	-0.08678223
203	0x3cac88ec	0.021061383
204	0xbd87c57f	-0.06629466
205	0xbd66432f	-0.056216415
206	0x3c370710	0.011171117
207	0x3d3c6092	0.045990534
208	0xbd1301b1	-0.035890285
209	0x3c9b5c3c	0.01896488
210	0xbd52c992	-0.051461764
211	0x3d921f3d	0.071348645
212	0x3d0f3760	0.03496492
213	0x3cda8f90	0.026679784
214	0x3cf442b8	0.02981697
215	0x3c9e9624	0.019358702
216	0x3c8459e0	0.016156137
217	0x3d59026a	0.052980818
218	0x3d74b1de	0.05973994
219	0xbc175560	-0.009236664
220	0x3db2dcdb	0.08733531
221	0x3da003f5	0.07813255
222	0x3d9d4663	0.07679441
223	0x3d9c95df	0.07645773
224	0xbd658f4d	-0.056044865
225	0x3ce71900	0.028210163
226	0xbcea22ec	-0.028581105
227	0x3d17675e	0.036963813
228	0xbd9fb433	-0.07798042
229	0xbcca7fec	-0.024719201
230	0x3d86f871	0.06590355
231	0x3b3da680	0.0028938353
232	0x3d813caf	0.063104026
233	0xbda91e9a	-0.0825779
234	0x3abd4080	0.0014438778
235	0xbce8e1ce	-0.028427985
236	0x3d002eac	0.03129451
237	0x3d0e0024	0.034668103
238	0x3d3bf25e	0.045885436
239	0x3c605b50	0.013693646
240	0x3d4875fa	0.048940636
241	0x3d5fd732	0.054648586
242	0x3da34c29	0.07973511
243	0x3ced2960	0.028950393
244	0xbd597996	-0.05309447
245	0xbd9c06c4	-0.07618478
246	0xbd35baa4	-0.044367447
247	0x3d0deaca	0.03464774
248	0xbd81ecbd	-0.06343982
249	0xbd4b4cbd	-0.04963373
250	0x3cb8cc18	0.022558257
251	0xbc3c45e8	-0.011491276
252	0xbc49d020	-0.012317687
253	0xbcba8a08	-0.022770897
254	0xbd48bf35	-0.049010474
255	0x3db3f831	0.08787573
