model/v_no20.pth (torch, 141900 bytes, 5 tensors)

net.0.weight f4 [128, 12]
0	0xbe826410	-0.25466967
1	0x3cc87033	0.024467563
2	0x3e3358f5	0.17514403
3	0x3e94cd48	0.29062867
4	0xbe284a0e	-0.164345
5	0xbe6674a7	-0.22505437
6	0xbd91a634	-0.07111779
7	0xbbea3b03	-0.007148148
8	0xbe05c45e	-0.1306319
9	0xbe87169c	-0.26384437
10	0x3e435b77	0.1907786
11	0x3e6b7d29	0.22996964
12	0xbde0df0b	-0.10980042
13	0x3d8bff51	0.06835807
14	0xbe2ab7ff	-0.16671751
15	0xbe9f3cdc	-0.3110112
16	0xbd5cdd66	-0.05392208
17	0xbd2a525f	-0.04158246
18	0xbbd4010a	-0.0064698504
19	0xbe0096e5	-0.12557562
20	0xbd83bf39	-0.06432957
21	0xbdc72d1a	-0.09725399
22	0x3df2bb56	0.11852138
23	0x3dcef7ed	0.10105882
24	0x3d2fb44d	0.042896558
25	0xbe817722	-0.25286204
26	0x3e83c7c9	0.2573836
27	0xbdd9752a	-0.106180504
28	0xbdb48c13	-0.088157795
29	0xbe490665	-0.19631346
30	0xbe97f0ba	-0.29675847
31	0xbd46ae6a	-0.048506178
32	0x3ceb6346	0.02873386
33	0xbdcecefa	-0.100980714
34	0xbea2e3d4	-0.31814444
35	0x3ccd12f1	0.025033446
36	0xbe21b5bd	-0.15791984
37	0xbdec468b	-0.115368925
38	0x3e8246b7	0.25444576
39	0x3d116106	0.03549292
40	0xbe0874d6	-0.1332582
41	0x3e78943f	0.24275301
42	0xbea460fd	-0.32105246
43	0x3e0c7fcf	0.1372063
44	0x3e00b83f	0.12570284
45	0x3dd84222	0.10559489
46	0xbe9d740c	-0.307526
47	0x3e9acdd1	0.3023515
48	0xbd6b829a	-0.0574976
49	0x3e006142	0.12537101
50	0x3e74a173	0.23889713
51	0x3e2ded24	0.16984993
52	0xbe8b1014	-0.27160704
53	0xbe10bbb8	-0.14134109
54	0x3ca33434	0.019922353
55	0x3ec0fbee	0.37692207
56	0x3dd0e5cc	0.1020008
57	0x3ebf0178	0.37305808
58	0xbe470d60	-0.19438696
59	0x3e38f3ee	0.18061802
60	0xbe5f070e	-0.21780035
61	0xbe8f3cb7	-0.2797601
62	0x3e520e19	0.2051319
63	0xbead8e36	-0.3389756
64	0xbd5830c9	-0.0527809
65	0xbdcbb4d6	-0.09946601
66	0xbef72796	-0.4827239
67	0x3f14972f	0.5804319
68	0x3e86f1b2	0.26356274
69	0x3e202a85	0.1564122
70	0x3d27bdb2	0.040952392
71	0x3e9ef97a	0.3104971
72	0xbe049854	-0.12948734
73	0x3dcddd59	0.10051984
74	0x3c7882a4	0.015167866
75	0x3d865423	0.065590166
76	0xbe9269c8	-0.2859633
77	0x3de68757	0.11256283
78	0xbe1a6a51	-0.15079619
79	0x3e49af78	0.19695842
80	0xbd074d77	-0.03303286
81	0x3dd13819	0.10215778
82	0xbc47a629	-0.012185612
83	0xbdaad069	-0.08340532
84	0xbdc91ffa	-0.09820552
85	0xbea74f94	-0.326779
86	0x3e89ac87	0.2688944
87	0xbe311b2c	-0.17295521
88	0x3db7fbf6	0.089836046
89	0x3df22b24	0.11824635
90	0xbe12a2f5	-0.14319976
91	0x3e1f658c	0.15566081
92	0x3d951ae3	0.07280519
93	0x3d9f2546	0.07770781
94	0x3c7d3931	0.01545553
95	0x3c9a7e39	0.018859016
96	0x3df0dd69	0.11760981
97	0xbe3b0e72	-0.18267229
98	0xbe25c4a2	-0.1618829
99	0xbdf461a0	-0.11932683
100	0x3da0b6fa	0.078474
101	0x3e6f186e	0.23349163
102	0xbe516fd7	-0.2045282
103	0xbe47b192	-0.19501331
104	0xbd5d8c69	-0.054088984
105	0x3e6dfa35	0.23239978
106	0xbd3157b0	-0.043296516
107	0x3daea38a	0.08527286
108	0x3dfa6881	0.12226964
109	0xbe6c82ad	-0.23096724
110	0x3eb2e1fb	0.34938034
111	0xbe06ee9e	-0.13176963
112	0xbe60cf4b	-0.21954076
113	0xbbd5615a	-0.0065118494
114	0xbb8ba07d	-0.004261075
115	0xbce1c517	-0.0275598
116	0xbc920bc6	-0.01782788
117	0x3e972b63	0.2952529
118	0xbd6623ca	-0.056186475
119	0xbe385028	-0.17999327
120	0xbd930168	-0.071780026
121	0xba2a1fd9	-0.0006489731
122	0x3c71e24f	0.014763429
123	0xbc4b19a2	-0.012396248
124	0xbd846713	-0.06464972
125	0xbbfdc9a0	-0.007744983
126	0x3cd138fb	0.025539866
127	0x3e5775a4	0.2104097
128	0xbd737cad	-0.059445072
129	0x3ec04cf7	0.3755872
130	0xbe6912c5	-0.22761066
131	0x3c4563cf	0.012047722
132	0x3dd39046	0.10330252
133	0xbc15f04f	-0.009151532
134	0xbddd2c74	-0.107994944
135	0xbe06f033	-0.13177566
136	0x3e40efe2	0.18841508
137	0x3dddd400	0.108314514
138	0xbe4d4218	-0.20044744
139	0x3eb315a7	0.34977457
140	0xbdfd0250	-0.12353957
141	0xbdec81f8	-0.11548227
142	0x3db45a77	0.08806317
143	0x3e56d25b	0.20978682
144	0xbcd99fb7	-0.026565416
145	0x3d9ba96b	0.07600673
146	0x3ea9575f	0.3307447
147	0x3df76db4	0.12081471
148	0xbe096f94	-0.1342147
149	0x3dac4671	0.08411873
150	0xbdd69cd1	-0.10479129
151	0xbdac561a	-0.0841486
152	0xbe9b00ba	-0.30273992
153	0xbd0324c4	-0.032017484
154	0xbe828400	-0.25491333
155	0xbc40fb29	-0.011778631
156	0x3e55b0b3	0.20868187
157	0xbe231e66	-0.15929565
158	0xbe1005ed	-0.1406476
159	0x3c9b779e	0.018977936
160	0xbe988c28	-0.2979443
161	0x3eace62d	0.3376936
162	0xbe51e4d6	-0.2049745
163	0xbd86f316	-0.06589334
164	0x3d9c0bff	0.076194756
165	0xbd26d7c0	-0.0407331
166	0x3e1bc743	0.15212731
167	0x3e3c6a13	0.18399839
168	0xbdfa3937	-0.12217944
169	0x3c27fa75	0.010252585
170	0x3d23cf2b	0.039992493
171	0xbe44abcf	-0.19206165
172	0x3ddb958c	0.10721883
173	0x3e8d4875	0.27594343
174	0xbce82002	-0.028335575
175	0x3e0a27b8	0.13491714
176	0xbe247d7c	-0.16063493
177	0xbdcc7686	-0.09983544
178	0x3de801a6	0.113284394
179	0x3e9be8a9	0.30450943
180	0xbe95959a	-0.292157
181	0xbea18b74	-0.31551707
182	0x3e871a18	0.26387095
183	0x3e5b7971	0.21433045
184	0x3da8cff5	0.0824279
185	0x3c4b77d7	0.012418709
186	0x3e8783a8	0.26467633
187	0xbea1a42a	-0.3157056
188	0x3e3f0c63	0.18657069
189	0xbe227ee8	-0.15868723
190	0x3c009160	0.00784716
191	0x3d418480	0.047245502
192	0x3e36894e	0.17825815
193	0xbe05d71c	-0.13070339
194	0x3ce3212b	0.027725777
195	0xbeafbbb7	-0.34322903
196	0x3e168eac	0.14702863
197	0x3da71eab	0.08160146
198	0x3d803145	0.062593974
199	0xbe7c9da2	-0.24669507
200	0xbeb5f68a	-0.35539657
201	0x3d8b75de	0.06809591
202	0xbe220f52	-0.15826157
203	0xbe48ef25	-0.19622476
204	0xbde8838d	-0.11353216
205	0x3e560116	0.20898852
206	0xbe015c30	-0.12632823
207	0xbe507e72	-0.20360735
208	0x3ddbc5ee	0.107311115
209	0x3e595bc8	0.21226418
210	0xbd6cd176	-0.057816945
211	0xbe3cf575	-0.1845301
212	0x3d1ab413	0.03776939
213	0x3e53e02a	0.2069098
214	0x3e3487a4	0.17629868
215	0x3d11da5f	0.035608646
216	0xbd467348	-0.048449785
217	0xbe8a3f5f	-0.27001473
218	0x3e8217d5	0.25408807
219	0xbe2578dd	-0.16159387
220	0x3d930bf6	0.07180016
221	0x3e2ea2a6	0.17054233
222	0x3e026bfe	0.12736508
223	0xbe179539	-0.14803018
224	0xbd61fc33	-0.055172157
225	0xbb243bec	-0.002506013
226	0xbebdf3df	-0.3710012
227	0xbdb75692	-0.08952059
228	0xbdc44cd3	-0.095849656
229	0xbe095693	-0.13411932
230	0x3ea5ea12	0.32405144
231	0xbd155c12	-0.03646476
232	0x3e18e9fe	0.14933011
233	0x3bd7c3f1	0.0065846373
234	0xbe2b5b58	-0.16734064
235	0x3d893c0d	0.06700907
236	0xbe66a4d8	-0.2252382
237	0x3de72a64	0.11287382
238	0xbe91dfa6	-0.28490943
239	0xbe2196df	-0.15780209
240	0x3e3be52a	0.18349138
241	0xbe771b78	-0.24131572
242	0x3d4245e2	0.047429927
243	0x3c610393	0.013733762
244	0x3e2ca0e6	0.16858253
245	0x3dbcbf82	0.09216215
246	0x3e600e7f	0.2188053
247	0x3e2bde95	0.16784127
248	0xbe4c88d4	-0.19974071
249	0x3e4032e6	0.18769416
250	0xbc60d19b	-0.013721849
251	0x3e8c4387	0.2739527
252	0xbc842d77	-0.01613496
253	0x3def5a6d	0.11687169
254	0xbd94c877	-0.07264798
255	0x3e2cb8a6	0.16867313

net.0.bias f4 [128]
0	0xbde74db5	-0.11294118
1	0x3e997ef2	0.29979664
2	0x3ea73a2c	0.3266157
3	0x3e0a4742	0.13503745
4	0x3e7a3a82	0.24436381
5	0xbe045194	-0.12921745
6	0x3e4cdd36	0.2000626
7	0x3e228550	0.15871167
8	0x3e9a49fb	0.30134568
9	0x3e7c8d0c	0.2466318
10	0x3e9ca3c1	0.30593684
11	0x3edf0899	0.43561247
12	0x3edffa0f	0.43745467
13	0x3d84f87d	0.06492708
14	0x3e3cdbd9	0.1844324
15	0xbd29449f	-0.041325208
16	0x3b80800b	0.003921514
17	0xbe593d96	-0.212149
18	0x3d942f86	0.07235627
19	0x3eb7f613	0.35929927
20	0x3eb897cf	0.3605332
21	0x3dba6e58	0.09103078
22	0x3ea9e1ab	0.33179983
23	0x3ea5f86b	0.3241609
24	0x3eaab99a	0.33344728
25	0xbe31e00b	-0.17370622
26	0x3d060dc2	0.032727964
27	0xbe2f2834	-0.1710518
28	0x3eb51954	0.35370886
29	0x3e42cacf	0.19022678
30	0xbe5458a2	-0.20736936
31	0x3da4c5b2	0.0804552
32	0x3ec453d0	0.38345194
33	0x3e95e6ec	0.29277742
34	0xbe7ce9bb	-0.24698536
35	0xbe36b438	-0.17842185
36	0xbd6c1d38	-0.057645053
37	0x3dfae2cf	0.122502916
38	0x3e9901b8	0.29884124
39	0x3eb0261f	0.34404084
40	0x3e14acb4	0.14519006
41	0xbbba4eff	-0.0056856866
42	0x3eb337e8	0.3500359
43	0xbbd800fc	-0.006591914
44	0x3eb476cb	0.35246882
45	0xbe850579	-0.25980738
46	0x3e4fad16	0.20280871
47	0x3eb2e1bc	0.34937847
48	0x3ec3f923	0.38276014
49	0x3e9d5b27	0.30733606
50	0xbe125d22	-0.1429334
51	0x3db3fd04	0.08788493
52	0x3e12087d	0.1426105
53	0xbe13e78c	-0.14443797
54	0x3d895a15	0.06706635
55	0xbe724ded	-0.23662539
56	0xbd88c57e	-0.06678294
57	0x3ebdc97b	0.3706778
58	0xbe63d593	-0.22249441
59	0xbdc5cdb4	-0.096583754
60	0x3ec079a2	0.37592798
61	0xbdeea894	-0.116532475
62	0x3ed63d64	0.41843712
63	0xbe0c203d	-0.13684173
64	0x3ea63b82	0.32467276
65	0x3df84508	0.12122542
66	0xbdadb05d	-0.08480904
67	0x3dfebd96	0.124385044
68	0xbd083092	-0.033249445
69	0x3ed132e4	0.4085914
70	0x3e2858ef	0.16440175
71	0x3eb280ec	0.34863985
72	0x3e78bd0a	0.24290863
73	0x3d14afd4	0.036300495
74	0xbe84eb76	-0.25960892
75	0x3ec18093	0.37793407
76	0x3d35c463	0.044376742
77	0xbe3c526b	-0.18390815
78	0x3e35d489	0.17756857
79	0x3de38850	0.11109984
80	0x3e60152f	0.21883081
81	0x3e425660	0.18978262
82	0x3ed72287	0.4201853
83	0x3d8fd3e6	0.07022838
84	0x3e12e5f5	0.14345534
85	0x3d503398	0.050830454
86	0xbe47f26e	-0.19526073
87	0x3e1b20c5	0.1514922
88	0x3e576246	0.21033582
89	0x3c669f76	0.014076104
90	0x3eb91898	0.36151576
91	0x3eb1c921	0.34723762
92	0xbdb6c96c	-0.08925137
93	0xbe1c635f	-0.15272282
94	0x3d39196b	0.045190256
95	0x3ea6dd68	0.32590795
96	0x3ec24cb0	0.37949133
97	0x3da677c6	0.08128314
98	0xbe36c25f	-0.17847584
99	0xbe6f3adf	-0.23362301
100	0x3e8ccca4	0.27499878
101	0x3ee27523	0.44229993
102	0xbdabd32a	-0.08389886
103	0xbde8f16d	-0.11374173
104	0x3d1e0048	0.038574487
105	0x3ebef342	0.37294966
106	0x3eb82714	0.35967314
107	0x3d19cb23	0.037547242
108	0x3ee4b41e	0.44668669
109	0x3e2725e2	0.16323045
110	0x3e923fd4	0.28564322
111	0x3da2f7a1	0.07957388
112	0x3ed8981e	0.42303556
113	0x3de78f7a	0.11306663
114	0xbe853cc2	-0.26022917
115	0x3e837e15	0.2568213
116	0x3a02134a	0.0004961981
117	0xbe51afd1	-0.20477225
118	0x3ecd433f	0.40090367
119	0x3e6c91aa	0.23102441
120	0x3ea511bb	0.3224009
121	0x3eda800e	0.42675823
122	0xbd5a19af	-0.05324715
123	0x3c16d1a8	0.009205259
124	0xbdb1c2d3	-0.08679738
125	0x3e81b6c7	0.2533476
126	0xbe538035	-0.20654376
127	0xbe488fbf	-0.19586085

net.2.weight f4 [256, 128]
0	0xbd3f8d09	-0.04676536
1	0x3d2b6951	0.041848484
2	0x3df9486b	0.12172016
3	0x3dded7eb	0.10881027
4	0x3d163b9c	0.03667794
5	0x3e19fd98	0.15038145
6	0x3d6f6891	0.05844933
7	0x3d82abda	0.06380434
8	0x3e318685	0.17336471
9	0x3dc856af	0.097821586
10	0x3e23cf79	0.15997113
11	0x3e5d2a73	0.21598224
12	0x3e13e876	0.14444146
13	0xbe11a3c9	-0.14222635
14	0x3e3d30f4	0.18475705
15	0xbdea035b	-0.11426421
16	0x3deaac9e	0.11458705
17	0xbc964c3e	-0.018346902
18	0xbc3e21d9	-0.01160475
19	0x3d6a2cc3	0.057171594
20	0x3e313e06	0.17308816
21	0x3e7fbd9e	0.24974677
22	0x3dd3a96b	0.10335048
23	0x3de95ab0	0.113942504
24	0x3e44921f	0.19196366
25	0x3dfff4fb	0.12497898
26	0x3ce9f37d	0.028558487
27	0xbdac1e31	-0.08404196
28	0x3e2d85e9	0.16945614
29	0x3d15b947	0.036553647
30	0x3e2aacb8	0.1666745
31	0x3db27f12	0.08715643
32	0x3df6c57e	0.120493874
33	0x3e0a70bf	0.13519572
34	0xbe0c2a2d	-0.13687964
35	0xbe6925b8	-0.22768295
36	0x3e4cfc12	0.20018032
37	0x3d493066	0.049118422
38	0x3e43741e	0.19087264
39	0x3e20f7f4	0.15719587
40	0x3dcefa13	0.101062916
41	0xbdbe5f44	-0.09295514
42	0x3d69ccac	0.057079956
43	0xbdef064e	-0.116711244
44	0x3dae8d7b	0.08523079
45	0xbe2352fe	-0.15949628
46	0x3e230e3e	0.15923402
47	0x3e23e3a0	0.16004801
48	0x3e597f1b	0.21239893
49	0x3e5b6169	0.21423878
50	0x3e644ffd	0.22296138
51	0x3e5c7f58	0.21532953
52	0x3d100f2d	0.035170723
53	0x3d4fe8cc	0.05075912
54	0xbd3e83a6	-0.04651227
55	0xbe60cad9	-0.2195238
56	0x3e6c7b97	0.23094021
57	0x3dd3dde0	0.10345054
58	0xbc8a254e	-0.016863491
59	0x3e1d146a	0.15339819
60	0x3e661d35	0.22472079
61	0x3e592887	0.21206866
62	0x3d0a1d32	0.03371925
63	0xbe42a808	-0.19009411
64	0x3debea27	0.115192704
65	0x3e1fffbc	0.15624899
66	0x3ad1ce0f	0.0016006845
67	0x3e083a51	0.13303496
68	0x3e186dc7	0.14885627
69	0x3e05b46b	0.13057105
70	0x3e0cfa1c	0.13767284
71	0x3e5aeedf	0.21380185
72	0x3dc3fc9c	0.09569666
73	0x3df38228	0.1189006
74	0xbe05ac23	-0.13053946
75	0x3e44582a	0.19174257
76	0x3ce64e1f	0.028113423
77	0x3d31c015	0.043396074
78	0x3e47f9f4	0.19528943
79	0x3d898184	0.06714156
80	0x3e51116f	0.20416807
81	0x3d3f498d	0.046701003
82	0x3e28d7e4	0.16488606
83	0x3e08dcc6	0.13365468
84	0x3c150256	0.009094795
85	0x3d997728	0.074934304
86	0x3d7e4385	0.06207611
87	0x3dbaab64	0.091147214
88	0x3e319c06	0.17344674
89	0x3c673dd0	0.014113858
90	0x3dff62d3	0.12470021
91	0x3e32b26b	0.17450874
92	0xbe97aa97	-0.29622337
93	0xbc619716	-0.013768932
94	0x3ddd0127	0.107912354
95	0x3e404223	0.18775229
96	0x3de0b225	0.109714784
97	0x3e0649b8	0.13114059
98	0x3d25168e	0.040304713
99	0xbe0433eb	-0.1291043
100	0x3db4de33	0.08831444
101	0x3e0c3490	0.13691926
102	0x3d8322d8	0.0640313
103	0x3cb54720	0.022128642
104	0x3e285cb9	0.16441621
105	0x3e0b83ba	0.13624468
106	0x3de306ed	0.11085305
107	0x3d96f55a	0.07371016
108	0x3e84e92e	0.25959152
109	0xbc8b3a5a	-0.016995598
110	0x3e093c3f	0.13401888
111	0x3e561f04	0.20910269
112	0x3e44db38	0.1922425
113	0x3da34d66	0.07973747
114	0xbe206de7	-0.15666924
115	0x3ddd3df4	0.10802832
116	0x3d54ea55	0.05198129
117	0xbd8583d2	-0.06519283
118	0x3d035c6c	0.032070562
119	0x3e5d9509	0.21638884
120	0x3e030894	0.12796241
121	0x3df974b3	0.12180462
122	0x3df683c4	0.12036851
123	0x3e06f164	0.1317802
124	0xbd679045	-0.05653407
125	0x3e57ff76	0.21093544
126	0x3e1b1050	0.15142941
127	0x3c88375c	0.01662796
128	0xbde47d6a	-0.11156733
129	0x3c9496a9	0.018138247
130	0x3e2ad092	0.16681126
131	0x3df67b53	0.12035241
132	0x3d694d88	0.056958705
133	0x3e460d92	0.19341114
134	0xbcc94aa1	-0.024571719
135	0x3e3f3071	0.18670823
136	0x3d96cd42	0.073633686
137	0x3e0a1a35	0.1348656
138	0x3d22ef76	0.03977915
139	0x3e4533c1	0.19258024
140	0x3d87f5eb	0.06638702
141	0xbd79462b	-0.060857933
142	0x3c80b15b	0.01570957
143	0xbde5b8e1	-0.112169035
144	0x3db42394	0.087958485
145	0xbd2089a0	-0.03919375
146	0x3d58e92e	0.052956752
147	0x3c9c780b	0.01910021
148	0x3d906539	0.07050557
149	0x3e6b9ed7	0.23009811
150	0x3e1a9b92	0.15098408
151	0x3d6f16a2	0.058371194
152	0x3d0a67d7	0.033790436
153	0x3c0c3213	0.0085568605
154	0x3da00b33	0.07814636
155	0x3d7bc454	0.06146653
156	0x3e279302	0.16364673
157	0x3d525dec	0.051359102
158	0x3ca3e3fe	0.020006176
159	0x3def7d7c	0.11693856
160	0x3e3fa75b	0.18716185
161	0x3e42235d	0.18958803
162	0xbd9aafe9	-0.075530834
163	0xbe86cf00	-0.26329803
164	0x3d8bfb07	0.06834989
165	0x3e00bfb1	0.12573124
166	0x3e257d5c	0.16161102
167	0x3e05de5a	0.13073102
168	0x3e1dc64e	0.15407678
169	0xbe310765	-0.17287977
170	0x3d979f8a	0.074034765
171	0xbd6d6688	-0.05795911
172	0x3e28f80c	0.16500872
173	0xbde08bc1	-0.10964156
174	0xbc873ed2	-0.016509447
175	0xbc0d3b54	-0.008620102
176	0x3dfe8f59	0.12429685
177	0x3e069c73	0.13145618
178	0x3ddfbdce	0.10924874
179	0x3e84ab25	0.25911823
180	0x3daf877f	0.08570766
181	0xbcbabee0	-0.022796094
182	0xbc395891	-0.01131262
183	0xbe864128	-0.26221585
184	0x3df53192	0.119723454
185	0xbb205718	-0.0024465974
186	0xbdb4ed63	-0.088343404
187	0x3da8ee35	0.082485594
188	0x3dae7595	0.08518521
189	0x3e76459b	0.2404999
190	0x3e062b06	0.1310235
191	0xbde92c20	-0.11385369
192	0x3de49a00	0.11162186
193	0x3dd0146a	0.10160144
194	0xbd3637f3	-0.04448695
195	0x3cbb63b2	0.022874687
196	0x3e68cda4	0.22734696
197	0x3e7819b6	0.24228558
198	0x3daae4f0	0.083444476
199	0x3d8c234c	0.0684267
200	0x3cdf9b2b	0.02729567
201	0x3d1b347d	0.037891854
202	0xbdf19357	-0.11795681
203	0x3dbb63ea	0.091499165
204	0x3ccd3889	0.025051372
205	0x3d8beb60	0.068320036
206	0x3dc0e81c	0.09419271
207	0x3e0b03d0	0.13575673
208	0x3e0b54a1	0.13606502
209	0x3df1d3d4	0.11807981
210	0x3e41dcbf	0.18931864
211	0x3d2ca50a	0.04214958
212	0x3bd9b40a	0.006643777
213	0xbc97bab9	-0.018521653
214	0x3d6c1c4a	0.057644166
215	0x3dbf94e9	0.09354574
216	0x3df85923	0.121263765
217	0xbcb926a5	-0.022601435
218	0x3e246887	0.16055499
219	0x3e654db2	0.2239292
220	0xbe8f9b95	-0.28048387
221	0x3d9c7527	0.076395325
222	0xbc754a41	-0.014971317
223	0x3dc4bbb5	0.09606115
224	0x3de21e00	0.11040878
225	0x3d71300a	0.058883704
226	0xbcf4ff34	-0.029906847
227	0xbe6d85ed	-0.2319562
228	0x3dcfc0a8	0.10144168
229	0x3dda8558	0.106699646
230	0xbd4ef3d2	-0.050525494
231	0x3d06be4e	0.032896332
232	0x3deb88f7	0.11500733
233	0x3dca984d	0.0989233
234	0x3e4fcb4d	0.20292397
235	0x3e3df648	0.1855098
236	0x3d8edf46	0.0697618
237	0x3d454feb	0.04817192
238	0x3dba8b3a	0.091085866
239	0x3e86cab9	0.2632654
240	0x3b87b1ae	0.004141054
241	0xbcfd9cbf	-0.030958531
242	0xbe169900	-0.14706802
243	0x3e1f7255	0.15570958
244	0x3e0518d9	0.1299776
245	0xbd962576	-0.07331364
246	0xbbde8230	-0.006790422
247	0x3e1b35b2	0.15157202
248	0x3e1df548	0.15425599
249	0x3e06b2ac	0.13154095
250	0x3e03be7a	0.1286563
251	0x3e0d7851	0.13815428
252	0x3d0ae899	0.03391323
253	0x3dce802e	0.10083042
254	0x3cc7129c	0.024300866
255	0x3cd97e81	0.02654958

net.2.bias f4 [256]
0	0x3e2ac139	0.16675271
1	0x3d81bc8e	0.06334792
2	0x3e594580	0.21217918
3	0x3e26d375	0.16291602
4	0x3e5ee456	0.21766791
5	0xbd87fb68	-0.06639749
6	0x3e4bde08	0.19908917
7	0xbcdd003b	-0.026977649
8	0xbcd0e3d8	-0.02549927
9	0xbcba9701	-0.022777082
10	0x3e596e97	0.21233593
11	0xbd908250	-0.07056105
12	0xbc8a6e51	-0.016898306
13	0x3e30ab15	0.17252763
14	0x3e0270d6	0.12738356
15	0x3db73823	0.08946254
16	0x3e421e09	0.1895677
17	0x3e4d38ac	0.2004115
18	0x3e3811f4	0.17975599
19	0xbda24ae3	-0.0792444
20	0xbbbbe1c4	-0.0057337005
21	0x3e6f1eac	0.23351544
22	0x3e521471	0.2051561
23	0x3bc0f082	0.0058880458
24	0x3e549b57	0.20762382
25	0x3d265ade	0.040614
26	0x3e6db711	0.23214366
27	0x3e5ae62e	0.21376869
28	0x3e08831c	0.13331264
29	0xbd3f742d	-0.046741653
30	0x3d7a4e52	0.06110985
31	0x3e53428d	0.20630856
32	0x3d8c6015	0.06854264
33	0x3e0e9d56	0.13927206
34	0x3df1b17c	0.118014306
35	0x3dd21d9e	0.10259555
36	0xbccef1eb	-0.02526184
37	0x3e458a7e	0.19291112
38	0x3e15af26	0.14617595
39	0x3c4dc1cd	0.012558413
40	0x3ce15593	0.027506625
41	0x3e400100	0.18750381
42	0x3d87fd0a	0.0664006
43	0x3dc305f3	0.09522619
44	0x3e317ad6	0.17332014
45	0x3d6128b0	0.054970443
46	0x3d390774	0.045173123
47	0xbd2d7fb8	-0.04235813
48	0x3e197f98	0.1499008
49	0x3a2ab128	0.00065113837
50	0xbbf4a7e7	-0.0074663046
51	0x3e56bfa3	0.20971541
52	0x3e075828	0.13217223
53	0x3d155ab0	0.03646344
54	0xbd95eeac	-0.07320914
55	0xbd9356e0	-0.071943045
56	0x3c350a09	0.011049756
57	0xbcbf5d53	-0.02335993
58	0xbd8446da	-0.06458826
59	0xbd4b0db5	-0.04957362
60	0x3dd68cb1	0.104760535
61	0x3e27c1ea	0.16382566
62	0x3e5a7144	0.2133227
63	0x3e366f74	0.17815953
64	0x3e6302ca	0.22169033
65	0x3e4943f3	0.19654827
66	0xbccb07ec	-0.02478405
67	0x3e089872	0.13339403
68	0xbd91d4ca	-0.071206644
69	0x3da3dfdf	0.080016844
70	0x3af44737	0.0018636946
71	0x3e37d143	0.17950921
72	0x3d554896	0.052071176
73	0xbdb123c0	-0.08649397
74	0x3e5df12d	0.21674033
75	0x3e15e23c	0.14637083
76	0x3da63e0f	0.081173055
77	0x3d3477f2	0.0440597
78	0x3d80ac6d	0.062828876
79	0x3e5a35bb	0.21309559
80	0x3d80f303	0.06296351
81	0x3c523418	0.012829803
82	0x3d978332	0.073980704
83	0x3e1feb79	0.1561717
84	0x3e0c6423	0.13710074
85	0x3d5c1055	0.053726513
86	0x3dd66058	0.10467595
87	0x3d403a72	0.046930738
88	0x3d91d502	0.07120706
89	0x3e515c60	0.20445395
90	0x3e1b4ab8	0.15165222
91	0x3e272ad0	0.16324925
92	0x3c638953	0.013887721
93	0xbd861690	-0.06547272
94	0x3e5ad3bb	0.21369831
95	0x3e4591c6	0.1929389
96	0xbd79e018	-0.061004728
97	0x3e3cfad7	0.18455063
98	0xbcd2983c	-0.025707357
99	0x3b233f91	0.0024909715
100	0x3dace6a6	0.0844243
101	0x3e0aab26	0.1354185
102	0x3b1b6629	0.0023712015
103	0x3dadd1d4	0.08487287
104	0x3e39aec6	0.18133077
105	0x3de5ee6d	0.11227117
106	0x3e02fedd	0.12792535
107	0x3d991460	0.07474589
108	0x3e3eb1be	0.18622491
109	0x3e70941a	0.23493996
110	0x3e329227	0.17438565
111	0x3bcce680	0.0062530637
112	0x3e6b101b	0.22955362
113	0xbd8d7be9	-0.069083996
114	0x3ccfaa92	0.025349889
115	0x3d643357	0.055713024
116	0x3df9192f	0.121630065
117	0x3db1aa9f	0.086751215
118	0x3e051702	0.12997058
119	0xbb7fda8c	-0.0039040176
120	0xbd865c41	-0.06560565
121	0x3e4c2c09	0.19938673
122	0x3e293b08	0.16526425
123	0x3c5b128a	0.013371119
124	0x3d844587	0.06458574
125	0xbc62e19f	-0.013847738
126	0x3e21191f	0.15732239
127	0xbd4653cd	-0.048419762
128	0x3ca59076	0.020210486
129	0x3c7f30a5	0.015575563
130	0x3d962c0d	0.07332621
131	0x3e256adc	0.16154045
132	0xbbfab721	-0.007651225
133	0x3d11c167	0.035584833
134	0x3dae0ae5	0.08498172
135	0x3e655d22	0.22398809
136	0x3e652912	0.22378948
137	0x3d556796	0.05210074
138	0x3d9743d8	0.07385987
139	0x3e729cf9	0.23692693
140	0x3db6ea6c	0.08931431
141	0x3d2bc5b2	0.041936584
142	0x3e3b80f2	0.18310907
143	0x3cc309d4	0.023808397
144	0x3e63fac3	0.22263627
145	0x3e2e178e	0.17001173
146	0x3de4e193	0.11175837
147	0x3b72c340	0.0037042648
148	0x3c7e22c6	0.01551122
149	0x3e5f475f	0.2180457
150	0xbd16f6d2	-0.03685648
151	0xbda3723f	-0.07980775
152	0x3e4ae134	0.1981247
153	0xbd7999e2	-0.06093777
154	0x3e69188a	0.22763267
155	0xbda78de6	-0.08181362
156	0xbd9803c0	-0.0742259
157	0x3e37b646	0.17940626
158	0x3e1d34a6	0.15352115
159	0xbda14a11	-0.07875455
160	0x3d97fb7a	0.07421012
161	0xbd1c0a1d	-0.038095582
162	0x3cccdbc5	0.025007138
163	0xbd9420ea	-0.0723284
164	0x3ac903a2	0.0015336166
165	0xbce95e98	-0.028487489
166	0x3e2865ef	0.16445135
167	0xbd7ab33d	-0.06120609
168	0x3e15cd58	0.14629114
169	0x3e3db8a5	0.18527468
170	0x3dbc19fe	0.09184645
171	0x3d2db565	0.04240932
172	0x3d930259	0.07178182
173	0x3d9940bc	0.0748305
174	0xbdafb1c1	-0.08578826
175	0x3d9981ae	0.074954376
176	0x3e22e01c	0.15905803
177	0x3b1f1219	0.0024272262
178	0x3da32085	0.07965187
179	0x3e2a03ad	0.16602965
180	0x3dd7190c	0.10502824
181	0xbc44aa03	-0.012003425
182	0xbd0f071a	-0.034918882
183	0x3e6a514a	0.22882572
184	0x3e5d3d33	0.21605377
185	0x3dbb9a7f	0.09160327
186	0x3da026bf	0.0781989
187	0x3df89fa1	0.12139822
188	0xbda50edc	-0.08059475
189	0x3d6fafe5	0.058517355
190	0x3d561ff5	0.05227657
191	0xbc039adf	-0.00803253
192	0xbd994abd	-0.07484958
193	0xbd4b0dc1	-0.049573664
194	0x3da8e43f	0.082466595
195	0x3daa266e	0.08308111
196	0x3e4101c4	0.1884833
197	0x3d264399	0.04059181
198	0x3df50980	0.119647026
199	0xbbd0fb40	-0.0063776076
200	0x3e039c11	0.12852503
201	0xbd86aa31	-0.0657543
202	0x3d88f21f	0.06686806
203	0x3d1cff76	0.038329564
204	0x3e601180	0.21881676
205	0x3e19f347	0.15034209
206	0xbd07841b	-0.03308497
207	0x3dcdad1d	0.10042784
208	0x3dc9af5a	0.09847899
209	0xbd95983f	-0.07304429
210	0xbd942ed9	-0.07235498
211	0x3bd23f60	0.0064162463
212	0xbc077750	-0.008268192
213	0x3e383200	0.17987823
214	0x3e3405eb	0.17580383
215	0x3e620352	0.22071579
216	0x3e2a4790	0.16628861
217	0x3daca157	0.08429211
218	0xbdaefe97	-0.08544653
219	0x3e4ff75e	0.20309207
220	0x3d4dccea	0.05024425
221	0xbd437b0d	-0.047724772
222	0xbcabb15f	-0.0209586
223	0x3de6da56	0.11272113
224	0x3b2573de	0.0025246064
225	0x3d9ddbba	0.07707925
226	0xbd9c355b	-0.07627364
227	0x3e5d82dc	0.2163195
228	0xbd2be883	-0.041969787
229	0x3ddd9c72	0.10820855
230	0x3d3c8459	0.046024654
231	0x3daa5623	0.083172105
232	0x3cc29070	0.023750514
233	0xbd9381d3	-0.072024964
234	0x3dfea203	0.12433245
235	0x3dcd8126	0.10034399
236	0x3e1e6d51	0.15471388
237	0xbd9f48a3	-0.07777526
238	0x3e420198	0.1894592
239	0x3e1cd633	0.15316086
240	0x3d82d65a	0.063885406
241	0x3e39567a	0.18099394
242	0xbdc55348	-0.09635025
243	0x3cee6b76	0.029103976
244	0xbcc94ba3	-0.0245722
245	0x3db71f1a	0.08941479
246	0x3e48dce3	0.19615512
247	0x3e565021	0.20929004
248	0x3e11a816	0.14224276
249	0x3e524e08	0.20537579
250	0x3e426bb9	0.18986405
251	0x3ca01564	0.01954145
252	0x3d27fe84	0.04101421
253	0x3e480299	0.19532241
254	0x3e00e962	0.12589028
255	0x3d9c7368	0.076391995

net.4.weight f4 [1, 256]
0	0x3e28b3be	0.16474816
1	0x3e468ae1	0.19388916
2	0x3e19a196	0.15003046
3	0x3e152893	0.14566259
4	0x3e155413	0.14582853
5	0xbe7ccea9	-0.2468821
6	0x3e45ffb4	0.19335824
7	0xbe01d5d5	-0.12679227
8	0x3d089620	0.033346295
9	0xbe83c00f	-0.25732467
10	0x3e1bb503	0.15205769
11	0xbb301820	-0.0026869848
12	0xbd1c18d3	-0.03810961
13	0x3e41d355	0.18928273
14	0x3e551816	0.2080997
15	0x3e318c01	0.17338564
16	0x3e0c548c	0.13704127
17	0x3e34a23c	0.17640013
18	0x3e20381f	0.15646408
19	0xbd3dd421	-0.04634488
20	0xbe7c72c9	-0.24653162
21	0x3e17385f	0.14767598
22	0x3e14f666	0.14547119
23	0xbd03db79	-0.032191727
24	0x3e5c3eed	0.2150838
25	0xbd11974a	-0.03554467
26	0x3e1a327c	0.15058321
27	0x3e4181e8	0.18897212
28	0x3e4941c2	0.19653991
29	0xbe0fe670	-0.14052749
30	0x3e3fee23	0.18743186
31	0x3e30aa25	0.17252405
32	0x3e123375	0.14277442
33	0x3e4f3fe6	0.20239219
34	0x3e3aeeeb	0.18255202
35	0x3e39d583	0.18147855
36	0xbe3fe369	-0.18739094
37	0x3e29062a	0.16506258
38	0x3e583044	0.21112162
39	0xbe70b74d	-0.23507424
40	0xbe5a61ec	-0.21326417
41	0x3e2dd9e5	0.16977651
42	0xbd1d7fb9	-0.038451884
43	0x3dcf5c16	0.10124986
44	0x3e3885c6	0.1801978
45	0xbdf3acbc	-0.11898181
46	0xbd1c2104	-0.038117424
47	0xbe47d3cf	-0.19514392
48	0x3e045637	0.12923513
49	0xbe6d29ec	-0.23160523
50	0xbdde0399	-0.1084053
51	0x3e28489a	0.16433945
52	0x3e351472	0.1768358
53	0x3d63b97e	0.05559682
54	0xbe4dbcbe	-0.2009153
55	0xbce06871	-0.027393552
56	0x3e49d497	0.19710003
57	0xbe74516c	-0.23859185
58	0xbe75c714	-0.24001724
59	0xbe85cc37	-0.26132366
60	0x3e4fda1c	0.20298046
61	0x3e1eb0f8	0.15497196
62	0x3e1fc809	0.15603651
63	0x3e3eb18f	0.1862242
64	0x3e28a351	0.1646855
65	0x3e5049e3	0.20340686
66	0xbe88985b	-0.26678738
67	0x3e2fbc2c	0.17161626
68	0x3d3489c6	0.044076703
69	0x3e467765	0.19381483
70	0xbcd9086c	-0.026493274
71	0x3e3b243b	0.1827554
72	0xbce51b3e	-0.027967092
73	0xbe6a5af1	-0.22886254
74	0x3e15c963	0.14627604
75	0x3e237333	0.15961914
76	0x3e1ac8ff	0.15115736
77	0x3ca1e3b4	0.019761898
78	0x3e2f3b59	0.17112483
79	0x3e506c5b	0.20353834
80	0xbc35984b	-0.011083673
81	0xbe4b6640	-0.19863224
82	0xbd2acebe	-0.04170107
83	0x3e3b68ea	0.1830174
84	0x3e2a711e	0.16644713
85	0xbe8ed8a8	-0.2789967
86	0x3e29fab6	0.16599545
87	0xbcdb4af2	-0.026769135
88	0xbe2d5666	-0.1692749
89	0x3e5337d6	0.20626768
90	0x3e159c5d	0.14610429
91	0x3e1fc2ad	0.15601607
92	0xbc900bd9	-0.017583774
93	0xbc824a83	-0.01590467
94	0x3e4a274b	0.19741552
95	0x3e37d11f	0.17950867
96	0xbd01b96a	-0.031670965
97	0x3e552085	0.20813186
98	0xbab09f40	-0.0013475195
99	0xbe5c951a	-0.21541253
100	0xbd625713	-0.05525882
101	0x3e34b7c7	0.1764823
102	0xbe8a3e84	-0.2700082
103	0x3e209edc	0.156856
104	0x3e2784fc	0.16359323
105	0x3e440e80	0.19146156
106	0x3e0e1cef	0.13878225
107	0x3e48f28c	0.19623774
108	0x3e41a717	0.18911396
109	0x3e33229a	0.17493668
110	0x3e32d91c	0.17465633
111	0xbd13a068	-0.036041647
112	0x3e26e2a3	0.16297393
113	0xbc148c98	-0.009066723
114	0xbc5e1819	-0.01355555
115	0xbe84a2cd	-0.25905457
116	0x3e3b863f	0.1831293
117	0x3e2a9111	0.16656901
118	0x3e13a3e3	0.14417987
119	0xbcd23817	-0.025661511
120	0x3e0406e5	0.12893255
121	0x3e0f5b33	0.13999633
122	0x3e46b5e0	0.19405317
123	0xbab5c5c2	-0.001386814
124	0xbe4b74cf	-0.19868778
125	0xbe8bc993	-0.27302226
126	0x3e3b4c38	0.18290794
127	0x3ca3df34	0.020003892
128	0xbe8a114e	-0.26966327
129	0xbe41da50	-0.18930936
130	0x3d17ecfa	0.037091233
131	0x3e31fd81	0.1738186
132	0xbe681de8	-0.22667658
133	0x3e41d04f	0.1892712
134	0x3e49bbcc	0.19700545
135	0x3e55b665	0.20870359
136	0x3e1380ce	0.14404604
137	0x3d12eacc	0.03586845
138	0xbcf88c5e	-0.03034037
139	0x3e2565f6	0.16152176
140	0xbe63d567	-0.22249375
141	0x3d39bfae	0.045348816
142	0x3e2d4b18	0.16923177
143	0x3c653838	0.013990454
144	0x3e58405f	0.21118306
145	0x3e45397f	0.19260214
146	0x3e2bde13	0.16783933
147	0xbd38a732	-0.045081325
148	0xbd707b65	-0.05871143
149	0x3e54d7f1	0.207855
150	0xbd6eb588	-0.05827859
151	0xbe867878	-0.26263785
152	0x3e23a19c	0.15979618
153	0xbc8bf992	-0.017086778
154	0x3e1a066a	0.1504151
155	0xbcae7884	-0.0212977
156	0xbe7700f3	-0.24121456
157	0x3e5f82f7	0.21827303
158	0x3e5d02ae	0.21583053
159	0xbe9bb49d	-0.30411234
160	0xbe6c2386	-0.23060426
161	0xbd7aeca9	-0.061260853
162	0xbe6328cf	-0.22183536
163	0x3d0368be	0.03208231
164	0xbd79a10e	-0.06094461
165	0xbdfbdda9	-0.12298138
166	0x3e0935eb	0.13399474
167	0xbcbca460	-0.023027599
168	0x3e46b8be	0.19406411
169	0x3e4e5efd	0.20153423
170	0x3e2043ef	0.15650915
171	0xbe8a8c20	-0.27060032
172	0xbd345aef	-0.044032034
173	0xbd084c7b	-0.033276062
174	0x3d6f7ebc	0.058470473
175	0x3e22f970	0.15915465
176	0x3e25162b	0.16121738
177	0xbd5c2f7f	-0.053756233
178	0x3d268268	0.04065171
179	0x3e2312a1	0.15925075
180	0x3e4376a9	0.19088234
181	0xbd15c4a0	-0.03656447
182	0xbc200b67	-0.0097683435
183	0x3e47b71f	0.19503449
184	0x3e344326	0.1760374
185	0x3e3ef233	0.18647079
186	0xbe7486be	-0.23879525
187	0x3e144e3f	0.14482974
188	0xbcc5f028	-0.024162367
189	0xbe4c803c	-0.19970793
190	0xbe8bdf24	-0.2731868
191	0xbd2491e4	-0.040178195
192	0xbe5a5f1f	-0.21325348
193	0xbe14f83a	-0.14547816
194	0x3e193ff2	0.149658
195	0xbe775f41	-0.2415743
196	0x3e200717	0.15627705
197	0xbc08333c	-0.0083129965
198	0x3e076012	0.13220242
199	0x3d408bba	0.047008254
200	0x3e3b7970	0.18308043
201	0xbcee654e	-0.02910104
202	0xbcdafd5e	-0.026732143
203	0xbe2807f8	-0.1640929
204	0x3e601025	0.21881159
205	0x3e2bb39a	0.16767731
206	0x3cd65dbc	0.026167743
207	0x3e2b8ac9	0.16752161
208	0x3e19a932	0.15005949
209	0x3cb80654	0.022463955
210	0xbc058028	-0.008148231
211	0xbd8771ad	-0.06613479
212	0xbd124ed8	-0.035719723
213	0x3e1798e9	0.14804424
214	0x3e3b02c5	0.18262775
215	0x3e427335	0.1898926
216	0x3e3ad99c	0.18247074
217	0x3e1e52d9	0.15461291
218	0xbcaefd40	-0.021360993
219	0x3e24567b	0.16048615
220	0xbca56f5b	-0.0201947
221	0xbceb465c	-0.028720073
222	0xbd4d4ef8	-0.05012414
223	0x3e1af2b4	0.15131646
224	0xbe5240a5	-0.20532472
225	0x3e528474	0.2055834
226	0x3d586600	0.05283165
227	0x3e558a4c	0.20853537
228	0x3d5b1666	0.053488158
229	0x3e33e97b	0.17569534
230	0x3e198a84	0.14994246
231	0x3e2163c0	0.15760708
232	0xbd797c87	-0.060909774
233	0xbe808c76	-0.25107163
234	0x3e1b7996	0.151831
235	0x3e513379	0.20429792
236	0x3e1f571f	0.15560578
237	0x3d5f981c	0.054588422
238	0x3e3b65c5	0.18300541
239	0x3e5d9cce	0.21641847
240	0xbe8433e9	-0.25820854
241	0x3e40165f	0.18758534
242	0xbd5a8606	-0.05335047
243	0xbe47dc2c	-0.19517583
244	0xbbee23db	-0.007267458
245	0x3e2bed24	0.1678968
246	0x3e130f5b	0.14361326
247	0x3e15571f	0.14584015
248	0x3e071247	0.13190566
249	0x3e30c79e	0.17263648
250	0x3e11f62e	0.14254066
251	0xbd4cf5e2	-0.05003918
252	0xbc8407db	-0.016117027
253	0x3e227e72	0.15868548
254	0x3e381d30	0.17979884
255	0xbcfadc09	-0.030622499
