model/v_no11.pth (torch, 144972 bytes, 5 tensors)

net.0.weight f4 [128, 18]
0.12449258 -0.276414 -0.109984174 0.038399804 -0.12003878 0.09403239 0.20780209 -0.03467275
-0.20156871 -0.11239899 0.14749505 -0.17418693 0.16910473 -0.029039009 -0.06358555 0.17792748
-0.07823554 -0.05348266 0.13273993 0.021313438 -0.10408794 -0.17661357 -0.16138989 0.22486389
0.26394576 -0.2087972 -0.075572185 0.16712895 -0.20895015 -0.101856425 0.038829323 0.190125
0.22147623 -0.085127994 -0.09365875 -0.10903371 0.2922579 -0.002227749 -0.16974892 -0.002477755
0.14096695 0.17149444 -0.15948795 -0.09442562 -0.12112783 -0.045420118 0.26748565 -0.1521637
-0.19898947 0.10152748 -0.020047529 -0.07165235 -0.098502025 -0.18445405 0.28713503 0.01671999
-0.23348886 0.122231424 -0.1787905 0.11292882 -0.19855776 -0.008774593 0.11986097 -0.12873167
0.05911585 -0.04602676 0.26478195 -0.08251069 0.18022427 0.17740043 -0.03727983 0.15290278
0.19054668 -0.27335447 -0.26385278 -0.0910232 0.2893518 -0.121625476 -0.1063193 0.17416944
0.0042732633 0.20960033 0.14817874 -0.10012403 0.05312536 0.115424976 -0.2176376 0.11905657
-0.11410086 -0.1739205 0.001362792 -0.2674721 0.13392909 -0.12269478 -0.0679356 0.29763183
-0.0008490331 -0.20200172 0.031174373 -0.11028696 0.26560488 -0.27480927 0.22867371 -0.03573487
0.13723715 0.079449736 -0.111397155 -0.0010696974 0.1022627 -0.16384934 -0.14558361 0.19456287
0.1110805 0.133972 -0.021664036 -0.12951355 -0.26651517 -0.039170124 0.20395021 0.08125037
0.065698944 0.11465902 0.20386656 0.025087338 0.123361886 0.15350963 0.2961123 -0.29381347
0.17716683 -0.031117948 -0.120251626 0.14300185 0.011678541 -0.17546661 -0.14004163 0.12796101
0.056744765 -0.21833447 -0.029504213 0.022270767 0.17376074 0.006513386 0.15880848 -0.09344456
-0.12287151 0.13156128 0.21968353 -0.053843662 0.06582111 0.23352493 0.16144088 0.111465886
-0.21685286 -0.035363276 0.2419551 0.15854517 -0.05930367 0.038356014 -0.20263202 -0.13030347
-0.22946185 -0.20972838 -0.005916422 -0.034685332 -0.049621712 0.12812538 0.07672172 0.15861666
-0.17270134 -0.19130045 0.04021416 -0.03791415 -0.109969854 -0.17551906 0.09742964 0.12421438
0.041861694 -0.19282933 -0.09159891 -0.009571317 0.2084001 -0.049819566 0.027486557 -0.1266957
0.113283224 0.30905458 -0.010652804 0.16180585 0.11222982 0.051277082 -0.17641294 -0.20338605
0.09195176 0.10816486 0.1536772 0.10551978 0.12233146 0.23920879 0.29745582 0.029177845
-0.2263511 0.12835665 -0.09725801 -0.084854245 0.07063353 -0.03579782 0.026760742 -0.22902793
0.107856214 -0.040600184 0.18806645 -0.21315515 0.14392523 -0.21291448 0.00078996335 0.10127241
0.27245915 -0.009709006 0.08728805 -0.064092115 0.18359801 -0.14110725 0.24603048 0.17674932
-0.24524458 0.1769769 -0.1582037 0.17130375 -0.14180847 0.18594846 -0.19692859 -0.18338074
0.17735338 0.21350347 0.021095643 0.065238744 -0.16847977 -0.16985846 0.07045907 -0.07585728
0.1631763 0.1628549 -0.14287521 -0.107410915 0.024551056 0.064533725 -0.12693712 0.06968647
-0.028920075 -0.18341844 -0.04499577 -0.22746646 0.30213442 0.06388035 0.12527128 0.028882777
00000000: f7f5 fe3d 2386 8dbe 623f e1bd 1d49 1d3d
00000010: e4d6 f5bd 0e94 c03d 12ca 543e 0305 0ebd
00000020: 0768 4ebe 7131 e6bd f108 173e 0f5e 32be
00000030: ca29 2d3e 37e3 edbc 2439 82bd 9f32 363e
00000040: f439 a0bd a210 5bbd faec 073e 8599 ae3c
00000050: 0f2c d5bd 30da 34be 6443 25be b842 663e
00000060: e623 873e efce 55be 97c5 9abd da23 2b3e
00000070: 07f7 55be 1a9a d0bd 7f0b 1f3d 21b0 423e
00000080: aaca 623e 9657 aebd 29d0 bfbd 114d dfbd
00000090: d4a2 953e 6dff 11bb a9d2 2dbe d561 22bb
000000a0: a459 103e 3d9c 2f3e cf50 23be 3862 c1bd
000000b0: de11 f8bd 720a 3abd e1f3 883e cdd0 1bbe
000000c0: e5c3 4bbe a4ed cf3d b73a a4bc 78be 92bd
000000d0: 6ebb c9bd 86e1 3cbe 5d03 933e 5cf8 883c
000000e0: b417 6fbe 7854 fa3d db14 37be 3a47 e73d
000000f0: ba52 4bbe 4fc3 0fbc ab79 f53d 3cd2 03be
00000100: 7623 723d 8e86 3cbd 8091 873e 5dfb a8bd
00000110: b68c 383e 75a8 353e bcb2 18bd 8c92 1c3e
00000120: ab1e 433e 1ef5 8bbe b617 87be 5f6a babd
00000130: eb25 943e c716 f9bd efbd d9bd 7959 323e
00000140: bb06 8c3b 78a1 563e 2bbc 173e d40d cdbd
00000150: fa99 593d ee63 ec3d 64dc 5ebe eed3 f33d
00000160: b6ad e9bd 3718 32be b69f b23a 1af2 88be
00000170: b524 093e 6747 fbbd d221 8bbd 3363 983e
00000180: a691 5eba 8ad9 4ebe 6661 ff3c 21de e1bd
00000190: 5dfd 873e cdb3 8cbe 7129 6a3e ba5e 12bd
000001a0: e587 0c3e 8bb6 a23d 3124 e4bd 1735 8cba
000001b0: 1b6f d13d 1fc8 27be df13 15be 7d3b 473e
000001c0: 2c7e e33d f52f 093e c778 b1bc 339f 04be
000001d0: ad74 88be da70 20bd 53d8 503e 9866 a63d
000001e0: 2b8d 863d 59d2 ea3d 65c2 503e f683 cd3c
000001f0: 28a5 fc3d a131 1d3e 089c 973e b86e 96be
00000200: 396b 353e 11eb febc 7c46 f6bd 146f 123e
00000210: 5a57 3f3c 85ad 33be 1367 0fbe 3608 033e
00000220: 336d 683d 1293 5fbe d2b2 f1bc 2f71 b63c
00000230: 56ee 313e 3e6e d53b b19e 223e dd5f bfbd
00000240: 0fa4 fbbd 00b8 063e b8f4 603e 2c8b 5cbd
00000250: 38cd 863d 2921 6f3e c250 253e 3a48 e43d
00000260: ad0e 5ebe 15d9 10bd 14c3 773e aa59 223e
00000270: 68e8 72bd 321b 1d3d c57e 4fbe 466e 05be
00000280: 0cf8 6abe 09c3 56be 8bde c1bb 3512 0ebd
00000290: 2340 4bbd 4d33 033e 4720 9d3d 686c 223e
000002a0: 9fd8 30be 44e4 43be 9ab7 243d de4b 1bbd
000002b0: e037 e1bd 45bb 33be 3189 c73d 1c64 fe3d
000002c0: 2b77 2b3d 0d75 45be 3698 bbbd 03d1 1cbc
000002d0: d666 553e 9a0f 4cbd 7d2b e13c 85bc 01be
000002e0: 0901 e83d 673c 9e3e 1989 2ebc 6fb0 253e
000002f0: bfd8 e53d eb07 523d 98a5 34be 6f44 50be
00000300: 3451 bc3d 8a85 dd3d 8e5d 1d3e c11a d83d
00000310: eb88 fa3d 26f3 743e 214c 983e 6006 ef3c
00000320: 95c8 67be ed6f 033e 352f c7bd 10c8 adbd
00000330: 50a8 903d bca0 12bd 5839 db3c 4c86 6abe
00000340: b8e3 dc3d 614c 26bd 7e94 403e 5845 5abe
00000350: 2361 133e 4106 5abe 8b15 4f3a e967 cf3d
00000360: c47f 8b3e 8612 1fbc 14c4 b23d ba42 83bd
00000370: 1e01 3c3e 6b7e 10be 6aef 7b3e c6fd 343e
00000380: 6521 7bbe 6f39 353e 2700 22be 406a 2f3e
00000390: 3d36 11be 4669 3e3e a6a7 49be 29c8 3bbe
000003a0: 209c 353e a7a0 5a3e c5d0 ac3c e49b 853d
000003b0: f685 2cbe 60ef 2dbe d84c 903d 105b 9bbd
000003c0: b017 273e 6fc3 263e e14d 12be 41fa dbbd
000003d0: 4c1f c93c 422a 843d cefb 01be c8b7 8e3d
000003e0: cbe9 ecbc 0bd2 3bbe 7c4d 38bd f8ec 68be
000003f0: 5db1 9a3e b3d3 823d 1d47 003e 939b ec3c

net.0.bias f4 [128]
0.2976385 -0.10897158 0.13066567 0.03145372 0.17133588 -0.0017292935 0.041614775 -0.018294293
-0.18069428 0.24126415 0.10225756 0.22689211 0.3191172 0.07901875 0.12546122 -0.072221294
0.27816182 0.0120055 0.0630436 0.24434578 -0.23138136 0.15549378 -0.14150901 0.19926728
-0.04452139 0.11865127 0.21527256 0.23780094 0.2921497 -0.21542558 -0.120312355 0.16325055
0.17643495 -0.10474325 -0.08397215 0.04323589 0.06841609 0.25650355 0.29504135 0.13020465
0.124595106 0.05016283 0.2863131 0.324064 0.24302077 0.16772434 0.0030973156 0.27579215
0.119854786 -0.0873619 0.13780172 -0.107751146 0.2488286 0.18515852 0.04289209 -0.12271678
0.30479777 0.06781677 0.25652438 0.070875175 0.30400103 -0.05146295 0.2131198 0.0685495
-0.122134894 -0.19876887 0.20621642 0.2506541 -0.10064294 0.25562528 0.045353502 0.2944304
0.17955765 0.2907832 0.2033841 0.09965874 0.0069532963 0.0919186 0.18093461 0.06630101
0.0350893 -0.19937605 0.29406542 0.0039314725 0.05004769 0.27853486 0.051631305 0.12982404
-0.18889877 -0.07542166 0.31567338 -0.14095348 -0.10444121 -0.06530283 -0.10655911 -0.015238151
-0.012632827 -0.13551977 0.033174578 0.074545905 0.051329862 0.20196557 0.27517036 0.0014882104
-0.22573818 -0.14263311 0.0019280084 0.2887233 -0.11232888 0.06455827 0.2608433 0.035961706
0.12194154 -0.0129103735 -0.03898421 -0.14182606 0.25523794 0.26234668 0.28189683 0.01659046
-0.016509214 -0.13829508 -0.055484653 -0.19775704 0.06476921 -0.019325223 -0.22710818 0.12325098
00000000: 1364 983e 7e2c dfbd 39cd 053e 9ed5 003d
00000010: ac72 2f3e 76a9 e2ba 4174 2a3d eadd 95bc
00000020: ec07 39be f30d 773e 696c d13d 6856 683e
00000030: 5463 a33e 95d4 a13d e878 003e c2e8 93bd
00000040: 3a6b 8e3e b7b2 443c 011d 813d c835 7a3e
00000050: 3cef 6cbe c339 1f3e bde7 10be b90c 4c3e
00000060: 105c 36bd 70ff f23d 6970 5c3e 1782 733e
00000070: a594 953e 8698 5cbe 5366 f6bd 272b 273e
00000080: 5dab 343e a183 d6bd 97f9 abbd 1e18 313d
00000090: bc1d 8c3d 6f54 833e a90f 973e 5e54 053e
000000a0: b82b ff3d 8a77 4d3d a197 923e b7eb a53e
000000b0: 70da 783e eebf 2b3e 55fc 4a3b a134 8d3e
000000c0: 6d76 f53d ccea b2bd e51b 0d3e a2ac dcbd
000000d0: edcc 7e3e 329a 3d3e 9eaf 2f3d ef52 fbbd
000000e0: 740e 9c3e 85e3 8a3d 2a57 833e 0127 913d
000000f0: 06a6 9b3e d0ca 52bd 143c 5a3e ae63 8c3d
00000100: dc21 fabd 118a 4bbe 662a 533e bc55 803e
00000110: e31d cebd 51e1 823e 98c4 393d 95bf 963e
00000120: f6dd 373e 89e1 943e ec43 503e e219 cc3d
00000130: 7ad8 e33b d23f bc3d ec46 393e d3c8 873d
00000140: ccb9 0f3d 3c29 4cbe be8f 963e 95d3 803b
00000150: cefe 4c3d 1f9c 8e3e 597b 533d 98f0 043e
00000160: ae6e 41be ac76 9abd f19f a13e 1c56 10be
00000170: 46e5 d5bd 7dbd 85bd aa3b dabd 70a9 79bc
00000180: ebf9 4ebc b2c5 0abe 11e2 073d 86ab 983d
00000190: 433f 523d 10d0 4e3e 21e3 8c3e 0e10 c33a
000001a0: e927 67be 6a0e 12be 3ab5 fc3a 8ad3 933e
000001b0: af0c e6bd 2037 843d 418d 853e 954c 133d
000001c0: 7cbc f93d 0886 53bc e8ad 1fbd da3a 11be
000001d0: 8cae 823e 4e52 863e c854 903e b7e8 873c
000001e0: 553e 87bc 3a9d 0dbe e043 63bd d280 4abe
000001f0: b8a5 843d ee4f 9ebc 0c8f 68be 036b fc3d

net.2.weight f4 [256, 128]
0.051270172 -0.030581025 0.13935003 0.1234197 0.09694963 0.16886336 0.065842025 0.0924477
0.11897304 0.104689315 0.0979787 0.025878446 0.14982444 0.07728677 0.08749693 0.029049091
0.013628576 0.04863995 -0.031538296 0.059019323 0.05498821 0.027378615 0.1697281 0.10702593
0.10515506 -0.049601708 -0.019063823 0.1495251 0.051368162 0.058919687 -0.04741537 -0.046988267
0.04427263 0.039975755 0.063772485 0.006679956 -0.0402304 -0.0006821673 0.05715193 0.1339305
-0.029798647 -0.01961452 0.059828356 0.02621761 -0.018348562 0.090453744 -0.027539229 0.09924893
-0.047582146 -0.028229507 0.14087543 0.023633905 0.017557064 0.12450405 0.0076555177 0.021439798
-0.016107034 0.17224701 -0.011028276 0.04223853 0.13098484 0.010034163 0.09949851 0.08590163
-0.07714999 -0.07635644 -0.013282618 0.045298386 0.029721687 0.07996298 -0.0070964224 0.08788876
0.12685736 0.06469954 0.022768391 0.10258193 0.15441632 0.09155668 0.086515784 0.054130126
-0.010893539 -0.077446654 -0.026096819 0.005386298 0.039549917 -0.007895967 0.025241254 0.12948641
-0.017741803 0.07404965 0.064574905 0.070841916 0.003375277 -0.04646634 -0.11469524 0.07664625
0.053664915 -0.0264562 -0.053890884 0.08608833 0.018446269 0.12221878 0.1342001 -0.04965314
-0.01172702 0.055003446 -0.08476459 0.13518238 -0.07825461 0.08670419 0.06701461 -0.01772197
0.10794396 0.03610424 -0.06974175 0.062387418 0.14832884 0.03398015 0.06372816 0.13147976
0.15969577 -0.00081708556 0.084561236 0.0354864 -0.08282586 0.04095176 -0.013976127 0.031929042
-0.1055331 -0.02922276 0.053548098 -0.022327228 0.08825367 -0.057865717 -0.11792872 -0.09537216
-0.025609521 0.052276324 0.04545278 -0.032267004 -0.035952985 0.026855292 -0.048545275 -0.047129903
0.038161106 0.08656287 -0.13735588 0.025330432 -0.05889048 -0.04019664 -0.03282936 0.08654753
-0.13458812 0.07889456 0.08845789 -0.096462026 -0.0070138695 0.06853773 -0.0012340444 0.08653141
0.054045573 0.080833845 0.07484905 -0.02222434 0.08197364 -0.013104706 -0.06374352 -0.0517229
0.088078775 -0.05915029 0.011337209 0.02458956 -0.0095037455 -0.066197954 0.019396823 0.041035417
-0.08611717 -0.0066763046 -0.036318567 -0.037509505 -0.03297963 0.055532143 0.011635118 -0.04530859
0.0670184 0.03021619 0.0011309873 0.010431353 -0.041816693 -0.045344666 0.09206807 0.07136213
0.1327637 0.058919597 -0.09716546 0.038612604 0.00659058 0.02781953 0.0033462492 -0.011202731
0.05031858 -0.04175842 0.0044718855 -0.10388584 -0.09662114 0.005925141 -0.062395662 -0.069220796
0.050988726 0.09159907 -0.066646874 0.10936751 -0.067492746 -0.0040433537 0.03573299 0.055540066
-0.007227625 -0.038642287 0.020756615 -0.04305136 0.08686539 0.06322463 0.012808618 0.033975877
0.06421643 0.05936249 -0.01577207 -0.012628556 0.0006166298 0.041656133 0.058835354 -0.022469375
0.07125874 -0.09258985 0.10050387 0.0005948892 -0.04764106 0.095733814 -0.020088872 -0.0672785
-0.06639548 -0.13583472 0.05522839 -0.032861196 0.019854588 -0.07522639 0.033877343 0.03075479
-0.13700917 -0.01852333 0.09687576 0.13492133 -0.03503825 -0.010666019 -0.057992652 0.057207275
00000000: ac00 523d 0f85 fabc c6b1 0e3e 78c3 fc3d
00000010: 878d c63d 84ea 2c3e 2fd8 863d 3855 bd3d
00000020: 23a8 f33d 5a67 d63d 0fa9 c83d 09ff d33c
00000030: 946b 193e 8748 9e3d 9731 b33d 5cf8 ed3c
00000040: 644a 5f3c af3a 473d 4d2e 01bd 3fbe 713d
00000050: 513b 613d 1e49 e03c 34cd 2d3e 6930 db3d
00000060: 895b d73d 292b 4bbd bc2b 9cbc 1c1d 193e
00000070: 6c67 523d c555 713d 9e36 42bd c576 40bd
00000080: 3857 353d 9ebd 233d 269b 823d 88e3 da3b
00000090: a2c8 24bd 79d3 32ba 2418 6a3d 1425 093e
000000a0: 4b1c f4bc a1ae a0bc 940e 753d 50c6 d63c
000000b0: b94f 96bc d03f b93d f399 e1bc 0643 cb3d
000000c0: 7fe5 42bd 9141 e7bc a641 103e e49b c13c
000000d0: d5d3 8f3c fbfb fe3d 23db fa3b 84a2 af3c
000000e0: e6f2 83bc 8561 303e f1af 34bc 4f02 2d3d
000000f0: e420 063e 5466 243c e0c5 cb3d 32ed af3d
00000100: d000 9ebd c460 9cbd 569f 59bc cd8a 393d
00000110: e57a f33c a1c3 a33d 1b89 e8bb 06ff b33d
00000120: e5e6 013e 3181 843d c784 ba3c 7a16 d23d
00000130: 501f 1e3e 1282 bb3d 302f b13d 8db7 5d3d
00000140: d07a 32bc 5a9c 9ebd ffc8 d5bc 8b7f b03b
00000150: 18ff 213d 165e 01bc bfc6 ce3c 1698 043e
00000160: 4257 91bc 58a7 973d d93f 843d 9115 913d
00000170: c033 5d3b 7d53 3ebd 57e5 eabd b6f8 9c3d
00000180: becf 5b3d acba d8bc b0bc 5cbd 144f b03d
00000190: a11c 973c d74d fa3d c06b 093e 1761 4bbd
000001a0: b022 40bc 4b4b 613d 0f99 adbd 406d 0a3e
000001b0: f443 a0bd f791 b13d f53e 893d aa2d 91bc
000001c0: b911 dd3d 0ae2 133d c3d4 8ebd f389 7f3d
000001d0: 84e3 173e c52e 0b3d e983 823d a1a2 063e
000001e0: 4a87 233e af31 56ba 712e ad3d 305a 113d
000001f0: 9ba0 a9bd 08bd 273d 20fc 64bc 07c8 023d
00000200: bd21 d8bd 9264 efbc 4055 5b3d 97e7 b6bc
00000210: 57be b43d 9a04 6dbd 9d84 f1bd 7b52 c3bd
00000220: 0fcb d1bc b31f 563d b22c 3a3d 682a 04bd
00000230: 7043 13bd a1ff db3c 69d7 46bd 490b 41bd
00000240: d24e 1c3d e047 b13d 05a7 0cbe c481 cf3c
00000250: 2537 71bd 3ba5 24bd 1478 06bd d53f b13d
00000260: 78d1 09be 7993 a13d 6929 b53d e28d c5bd
00000270: 9ad4 e5bb 825d 8c3d a9bf a1ba 6137 b13d
00000280: e45e 5d3d 378c a53d 754a 993d d20f b6bc
00000290: cce1 a73d 1fb5 56bc f68b 82bd 64db 53bd
000002a0: a562 b43d 9347 72bd b3bf 393c 0c70 c93c
000002b0: 99b5 1bbc cb92 87bd 16e6 9e3c c114 283d
000002c0: 335e b0bd e7c4 dabb c7c2 14bd 91a3 19bd
000002d0: a615 07bd ac75 633d 39a1 3e3c 8095 39bd
000002e0: f140 893d f187 f73c a33d 943a 44e8 2a3c
000002f0: fb47 2bbd 54bb 39bd 2f8e bc3d 4f26 923d
00000300: 35f3 073e ad55 713d affe c6bd 4028 1e3d
00000310: cbf5 d73b c8e5 e33c bf4c 5b3b a98b 37bc
00000320: db1a 4e3d e10a 2bbd e588 923b 19c2 d4bd
00000330: 4ee1 c5bd af27 c23b 9892 7fbd a2c3 8dbd
00000340: 8ed9 503d 4b98 bb3d 287e 88bd 13fc df3d
00000350: a339 8abd 1c7e 84bb c15c 123d fb7d 633d
00000360: b7d5 ecbb 6047 1ebd c709 aa3c 9f56 30bd
00000370: 7be6 b13d ea7b 813d 3ddb 513c 4a2a 0b3d
00000380: e783 833d 1526 733d 6e34 81bc 01e8 4ebc
00000390: 53a5 213a 9f9f 2a3d 57fd 703d b211 b8bc
000003a0: 1af0 913d bf9f bdbd f9d4 cd3d 57f2 1b3a
000003b0: 4623 43bd 1710 c43d 6b91 a4bc 4fc9 89bd
000003c0: 5afa 87bd 4218 0bbe 2a37 623d 7699 06bd
000003d0: 17a6 a23c 4b10 9abd f8c2 0a3d 78f1 fb3c
000003e0: 224c 0cbe 3dbe 97bc cc66 c63d d128 0a3e
000003f0: 4584 0fbd 87c0 2ebc b489 6dbd 2d52 6a3d

net.2.bias f4 [256]
0.11958264 0.00037381108 0.09536436 -0.0037615239 -0.011305347 -0.07561235 0.08514739 0.049138974
0.080953784 0.08136423 -0.071867526 0.033549484 0.015726035 0.033603262 0.050384495 0.0705512
0.15469725 0.0029212013 0.017019432 0.02370501 0.09492624 0.13900138 0.015631253 0.119398035
0.06449906 0.11117134 -0.037133846 -0.021311501 -0.087550946 0.058045216 -0.06407983 0.11402162
-0.041601866 0.0030645002 0.03912173 0.02818992 0.11156495 0.07267557 -0.028785229 -0.048117284
-0.08621969 0.06134568 0.035677712 3.1679196e-05 0.11772055 -0.0011583639 0.036917783 0.04462284
0.058175687 0.04084841 0.027768573 0.044557124 0.032858852 -0.0513478 0.12451409 0.14563833
-0.009735861 0.062133193 -0.08250729 -0.06031059 0.10290489 0.07730872 0.10622298 -0.028949106
0.042920806 0.07409949 0.115125135 0.13905221 0.08141004 -0.06131474 -0.059736107 -0.02623771
-0.08215128 0.011293089 -0.031320367 0.014018531 -0.028567465 0.026475988 0.075226866 0.014759205
-0.017767087 0.045594987 0.025860872 -0.061574448 0.06632767 -0.033901993 -0.022094589 0.030114658
-0.03148379 -0.031391684 -0.055081 0.055650767 0.038881633 -0.031208564 -0.058084447 0.021882277
-0.0033291618 0.022143967 0.027550608 -0.057320617 0.1394332 -0.038136955 -0.047420293 0.08014706
-0.0053816177 -0.024215847 -0.060376592 -0.0025566176 -0.031362917 -0.036326814 0.0023207678 -0.016662817
0.05465978 -0.026072979 0.06841173 0.00956551 0.03682809 0.0361171 0.077506445 -0.035696343
-0.0081366375 0.08516115 0.015540462 0.14926566 0.087081626 0.059011824 0.021038916 0.06618568
-0.05542888 0.07539204 -0.03159935 -0.04407965 -0.062537864 0.081931055 -0.045673907 0.06919521
0.1452716 0.0022275283 -0.075154744 -0.03352681 -0.013083501 0.034398437 -0.020304956 -0.061885808
0.035442356 -0.05572964 -0.0020066958 -0.054979064 -0.06988977 0.025520831 -0.012429055 0.11431773
0.020590873 -0.033931375 -0.06446631 0.047910362 0.024391744 0.004477757 0.04795297 -0.020034404
-0.019197807 -0.027851941 0.0029047548 0.04980237 0.08081114 0.13649502 0.021225141 -0.0023558629
-0.033413507 0.07911896 0.004177924 -0.034247123 -0.07381361 0.11332462 -0.028735891 0.03942399
-0.055276245 -0.08122023 -0.06809203 0.014375733 -0.0224631 -0.05564196 0.11506361 -0.047270514
-0.061780892 -0.07078654 0.008061223 0.08957211 0.07402941 0.068190426 0.050197132 -0.03020705
0.122235626 0.01583709 -0.05878456 -0.08001553 -0.017828306 -0.016018555 0.076436 0.06692519
0.15212846 0.0657358 0.119086884 0.0992408 -0.016992528 0.04579872 0.0042690416 -0.083252355
-0.06766878 -0.023312418 0.11939619 0.009421643 -0.0060059074 0.11338 -0.0025026503 -0.087122194
-0.052097846 -0.076479584 0.10643793 0.046464846 -0.04252178 -0.051959604 0.057456776 -0.050099652
-0.07582318 0.05931126 -0.07228199 0.026979867 -0.08420819 0.02054078 0.031409085 0.04314685
0.06560673 0.13485572 -0.006426772 0.11241611 -0.040444348 0.11836491 0.0536769 0.030189756
0.02740352 0.042403385 -0.03272943 0.02746492 0.070002206 0.036615733 0.042503253 0.035222672
-0.01583796 0.045776494 0.07444805 0.10929151 0.021412833 0.15875515 0.11200083 -0.057317182
00000000: bee7 f43d 13fc c339 644e c33d e683 76bb
00000010: 103a 39bc a6da 9abd c161 ae3d f345 493d
00000020: 19cb a53d 4aa2 a63d 482f 93bd 2f6b 093d
00000030: e3d3 803c 93a3 093d f95f 4e3d 267d 903d
00000040: f568 1e3e a071 3f3b 566c 8b3c 0231 c23c
00000050: b068 c23d 6156 0e3e 1d0d 803c f586 f43d
00000060: 1518 843d cdad e33d a919 18bd 7595 aebc
00000070: e94d b3bd d2c0 6d3d 493c 83bd 2b84 e93d
00000080: b866 2abd c8d5 483b 1b3e 203d 8cee e63c
00000090: 2a7c e43d eed6 943d 00cf ebbc a116 45bd
000000a0: f393 b0bd 9c45 7b3d cb22 123d 47df 0438
000000b0: 7917 f13d 3ed4 97ba 1a37 173d 70c6 363d
000000c0: a149 6e3d aa50 273d eb7a e33c 8881 363d
000000d0: 0197 063d 1252 52bd 3e01 ff3d 3722 153e
000000e0: 2983 1fbc 607f 7e3d 95f9 a8bd 3d08 77bd
000000f0: cdbf d23d 0954 9e3d 6f8b d93d ad26 edbc
00000100: bacd 2f3d 79c1 973d bac6 eb3d b463 0e3e
00000110: 4fba a63d 2a25 7bbd d9ad 74bd 77f0 d6bc
00000120: ee3e a8bd a606 393c c949 00bd fbad 653c
00000130: 5106 eabc 2ce4 d83c 8b10 9a3d 98d0 713c
00000140: 488c 91bc cfc1 3a3d 2eda d33c 7d35 7cbd
00000150: cdd6 873d d1dc 0abd b6ff b4bc 04b3 f63c
00000160: 26f5 00bd 9194 00bd 9d9c 61bd 0ff2 633d
00000170: 5942 1f3d 1aa9 ffbc f5e9 6dbd 7642 b33c
00000180: 112e 5abb 4467 b53c d0b1 e13c 06c9 6abd
00000190: 94c7 0e3e 7f35 1cbd c83b 42bd 2424 a43d
000001a0: 4858 b0bb 5060 c6bc 724d 77bd ed8c 27bb
000001b0: 6776 00bd 6dcb 14bd 0618 183b 7680 88bc
000001c0: efe2 5f3d 0097 d5bc 731b 8c3d a8b8 1c3c
000001d0: 0dd9 163d 86ef 133d b3bb 9e3d 5436 12bd
000001e0: 884f 05bc f868 ae3d 6c9d 7e3c 19d9 183e
000001f0: da57 b23d 62b6 713d ce59 ac3c 5c8c 873d
00000200: 6509 63bd 2467 9a3d 526e 01bd dd8c 34bd
00000210: da13 80bd 78cb a73d 9014 3bbd 38b6 8d3d
00000220: 14c2 143e b9fb 113b bbea 99bd 6953 09bd
00000230: 2e5c 56bc 60e5 0c3d 9456 a6bc f97b 7dbd
00000240: 012c 113d c344 64bd c582 03bb ba31 61bd
00000250: 5e22 8fbd 1011 d13c 3ca3 4bbc 6a1f ea3d
00000260: 31ae a83c a0fb 0abd ea06 84bd a83d 443d
00000270: 32d1 c73c 26ba 923b 556a 443d 311f a4bc
00000280: b844 9dbc c129 e4bc b35d 3e3b 92fd 4b3d
00000290: 5080 a53d 5ac5 0b3e 59e0 ad3c d264 1abb
000002a0: 9adc 08bd 1f09 a23d f7e6 883b b646 0cbd
000002b0: 972b 97bd bd16 e83d 8867 ebbc 0d7b 213d
000002c0: 5869 62bd cb56 a6bd d673 8bbd 3288 6b3c
000002d0: 8904 b8bc d3e8 63bd 78a6 eb3d ba9e 41bd
000002e0: f60d 7dbd 89f8 90bd 3813 043c 9571 b73d
000002f0: bb9c 973d 6ca7 8b3d 829b 4d3d c674 f7bc
00000300: ac56 fa3d c9bc 813c 14c8 70bd 2fdf a3bd
00000310: ab0c 92bc 5839 83bc 7a8a 9c3d 1310 893d
00000320: 90c7 1b3e 7ea0 863d d3e3 f33d c33e cb3d
00000330: ea33 8bbc 7097 3b3d 51e3 8b3b 3680 aabd
00000340: ee95 8abd aff9 bebc fd85 f43d 3c5d 1a3c
00000350: 34cd c4bb c633 e83d 8103 24bb 1f6d b2bd
00000360: 8d64 55bd 54a1 9cbd 21fc d93d ec51 3e3d
00000370: 512b 2ebd 98d3 54bd cc57 6b3d 4b35 4dbd
00000380: 2f49 9bbd 5df0 723d 9408 94bd e204 dd3c
00000390: 5875 acbd 2345 a83c d0a6 003d c0ba 303d
000003a0: d25c 863d 9e17 0a3e ac97 d2bb 6b3a e63d
000003b0: f9a8 25bd 4d69 f23d 4fdc 5b3d 8250 f73c
000003c0: 597d e03c 2caf 2d3d 4b0f 06bd 1dfe e03c
000003d0: 515d 8f3d 61fa 153d e417 2e3d a645 103d
000003e0: 9cbe 81bc 2280 3b3d 3878 983d 3ad4 df3d
000003f0: f769 af3c b690 223e b160 e53d 6cc5 6abd

net.4.weight f4 [1, 256]
0.12582654 -0.09365154 0.13400808 0.10694966 0.050532557 -0.058413006 0.12276501 -0.05041229
0.089020334 -0.005926536 0.054598406 -0.1026979 0.07235186 -0.101556845 -0.089097515 0.11228001
0.13567795 -0.017082855 0.05811884 0.12068222 0.091864705 0.10971109 -0.053009544 0.12462518
-0.10454937 0.12113628 -0.018607901 -0.04750235 -0.09720047 -0.016292982 -0.0727781 0.123258285
-0.11879125 0.12460873 -0.046004456 0.100912735 0.12597956 -0.014173727 -0.08084761 -0.06898836
0.029681288 -0.05260801 -0.10448015 -0.053531308 0.10257106 -0.09372498 0.108452655 -0.08641488
-0.00493921 0.022564478 0.08881035 -0.011502529 -0.10052693 -0.032906197 0.13312678 0.08325782
-0.1120874 0.11979748 0.019678509 -0.06803899 0.10580028 0.13817464 0.11456496 -0.09252881
-0.0496445 -0.0037818698 0.095630534 0.10928621 0.10162922 0.00069957227 -0.12269325 -0.12233151
-0.015034251 -0.11274167 -0.045266278 -0.08953593 0.09627225 -0.042611778 0.020433288 -0.096123196
-0.0066447705 -0.08874876 -0.085994855 -0.027354881 -0.02184874 -0.086447 -0.08274506 0.07442134
-0.042448238 -0.055097476 0.032416813 0.08950681 0.12545627 -0.12965164 -0.0035358518 -0.086348854
-0.08496644 -0.12691508 0.12971638 -0.100439146 0.12009481 -0.033805378 0.026751116 0.12637384
-0.10917853 0.12480434 0.05081304 -0.07705769 0.114529535 -0.08527745 -0.042827375 -0.094666936
-0.05916741 0.035764195 -0.08605617 0.025639258 -0.079319894 0.08264882 -0.008495305 -0.020532701
-0.084478915 0.0737149 0.08979161 0.093328565 0.089485556 -0.07499561 -0.096293196 -0.047741693
-0.079032645 0.094980344 -0.10066812 0.072022595 -0.11023694 -0.1137423 -0.04145618 0.122989155
0.093841195 0.13677905 0.042264655 0.12182669 -0.07526101 0.030730225 0.10252625 -0.019185588
0.083982706 -0.07787218 0.08354761 -0.0065033496 0.017833913 0.14196454 0.072392374 0.11802686
-0.056045596 -0.0503857 -0.00039607286 0.08946448 -0.07778808 0.08258034 0.08226857 -0.007100326
-0.06002783 -0.10346809 -0.09211691 0.017449126 0.1197842 0.12488735 -0.035624195 -0.012472791
-0.030065626 0.0969935 0.13957343 -0.108557194 0.06955983 0.13878252 0.007215701 -0.0814599
-0.04425332 -0.12750721 0.030783318 -0.03537697 0.1302048 -0.071750805 0.089121364 -0.040877
-0.016049184 -0.057642825 0.08379942 0.1043204 0.086428255 -0.04243165 -0.058830358 -0.078287795
0.10513524 0.12826976 -0.060082808 -0.11495709 -0.09915353 -0.06044902 -0.07285676 0.027111933
0.07087619 -0.029951481 0.106341064 0.1071006 -0.010369751 -0.047592446 -0.061799854 -0.0028464422
-0.020485215 -0.06891628 0.09329318 0.11056078 0.1063327 0.088925704 0.106510036 -0.08818942
0.05903198 -0.048110016 0.111035034 -0.078640476 -0.014580413 -0.113477655 -0.08185024 0.023012139
-0.024818026 -0.09675592 0.0056826323 -0.0051339627 -0.037090153 -0.12048434 -0.03704796 -0.07973129
0.08961314 0.097585425 -0.023616616 0.12720944 0.13120453 0.12661776 0.10265332 0.08865411
0.11534031 0.14034769 -0.014804572 0.08644573 0.051005267 0.020327479 -0.08204492 0.019600794
0.05634775 0.1426342 0.098109215 0.07339566 -0.04048049 0.071298786 0.06951591 -0.13166983
00000000: acd8 003e 61cc bfbd 6a39 093e 6c08 db3d
00000010: 3afb 4e3d 7a42 6fbd 396c fb3d 1e7d 4ebd
00000020: 4b50 b63d 6333 c2bb 94a2 5f3d 4753 d2bd
00000030: 362d 943d 09fd cfbd c278 b6bd 10f3 e53d
00000040: 29ef 0a3e 58f1 8bbc 050e 6e3d 3d28 f73d
00000050: 9023 bc3d 35b0 e03d 8920 59bd 7d3b ff3d
00000060: fb1d d6bd 4c16 f83d 996f 98bc d391 42bd
00000070: 0a11 c7bd dc78 85bc af0c 95bd d76e fc3d
00000080: d448 f3bd dd32 ff3d 2b6f 3cbd 56ab ce3d
00000090: c900 013e eb38 68bc 6f93 a5bd c549 8dbd
000000a0: 2c26 f33c 7f7b 57bd b0f9 d5bd a543 5bbd
000000b0: c710 d23d e2f2 bfbd 6d1c de3d 49fa b0bd
000000c0: 19d9 a1bb 24d9 b83c 33e2 b53d 1a75 3cbc
000000d0: 10e1 cdbd a6c8 06bd 6352 083e 1383 aa3d
000000e0: 148e e5bd 6258 f53d d334 a13c 0758 8bbd
000000f0: d1ad d83d a77d 0d3e 09a1 ea3d bf7f bdbd
00000100: 0858 4bbd 3fd9 77bb f1d9 c33d 73d1 df3d
00000110: fb22 d03d 8063 373a 9946 fbbd f188 fabd
00000120: 3852 76bc 1be5 e6bd 2269 39bd 9d5e b7bd
00000130: 632a c53d b089 2ebd b663 a73c 3ddc c4bd
00000140: 60bc d9bb e9c1 b5bd 121e b0bd 5817 e0bc
00000150: 21fc b2bc 200b b1bd 3e76 a9bd 376a 983d
00000160: 34de 2dbd e4ad 61bd 7ec7 043d 594f b73d
00000170: 9c77 003e 66c3 04be c0b9 67bb abd7 b0bd
00000180: e302 aebd 07f6 01be 5fd4 043e 0ab3 cdbd
00000190: 45f4 f53d 8277 0abd 2825 db3c 2568 013e
000001a0: fe98 dfbd 6b99 ff3d 5621 503d 6cd0 9dbd
000001b0: 768e ea3d f2a5 aebd c26b 2fbd bde0 c1bd
000001c0: 8759 72bd 7a7d 123d 383e b0bd 6c09 d23c
000001d0: 7872 a2bd c943 a93d e42f 0bbc 3234 a8bc
000001e0: 4803 adbd d6f7 963d aae4 b73d 0c23 bf3d
000001f0: 3444 b73d 4c97 99bd 5e35 c5bd cb8c 43bd
00000200: dedb a1bd 0e85 c23d 162b cebd 9580 933d
00000210: e8c3 e1bd b9f1 e8bd f5cd 29bd bde1 fb3d
00000220: d02f c03d cf0f 0c3e b41d 2d3d 4680 f93d
00000230: 7222 9abd f4bd fb3c 48f9 d13d 182b 9dbc
00000240: 20ff ab3d 737b 9fbd 021b ab3d 0d1a d5bb
00000250: 6d18 923c 275f 113e 7442 943d 11b8 f13d
00000260: 1190 65bd 3c61 4ebd 00a8 cfb9 2739 b73d
00000270: 5b4f 9fbd e21f a93d 6d7c a83d daa9 e8bb
00000280: bedf 75bd 14e7 d3bd caa7 bcbd 78f1 8e3c
00000290: 6b51 f53d f0c4 ff3d adea 11bd ad5a 4cbc
000002a0: 304c f6bc 87a4 c63d 56ec 0e3e 3c53 debd
000002b0: 6275 8e3d 011d 0e3e b071 ec3b 73d4 a6bd
000002c0: f842 35bd 4091 02be 4c2d fc3c 71e7 10bd
000002d0: 6854 053e 16f2 92bd 4385 b63d a46e 27bd
000002e0: 9479 83bc e21a 6cbd 089f ab3d efa5 d53d
000002f0: 4c01 b13d cfcc 2dbd 1af8 70bd 5a55 a0bd
00000300: 2551 d73d 2659 033e 6419 76bd 9f6e ebbd
00000310: 0211 cbbd 6499 77bd ed35 95bd d819 de3c
00000320: 8927 913d cf5c f5bc 58c9 d93d 8f57 db3d
00000330: e3e5 29bc 4cf0 42bd d821 7dbd 608b 3abb
00000340: 9cd0 a7bc fb23 8dbd 7f10 bf3d b16d e23d
00000350: f5c4 d93d ae1e b63d ef21 da3d a89c b4bd
00000360: 84cb 713d 020f 45bd 5666 e33d 420e a1bd
00000370: afe2 6ebc f966 e8bd 19a1 a7bd f483 bc3c
00000380: 2c4f cbbc f827 c6bd 6035 ba3b cd3a a8bb
00000390: d8eb 17bd 7ec0 f6bd 9abf 17bd 294a a3bd
000003a0: 1887 b73d deda c73d a277 c1bc 3143 023e
000003b0: 7b5a 063e 16a8 013e e73b d23d 4990 b53d
000003c0: 8a37 ec3d 4eb7 0f3e e08e 72bc 750a b13d
000003d0: e6ea 503d d085 a63c 2b07 a8bd d891 a03c
000003e0: e6cc 663d b30e 123e 7ced c83d 7750 963d
000003f0: dfce 25bd 1905 923d 5c5e 8e3d 75d4 06be
