model/HAC_defensive_straight_EHMI/p.pth (torch, 279442 bytes, 12 tensors)

net.0.weight f4 [128, 14]
0	0xbcafaf7b	-0.02144598
1	0xbe443c53	-0.19163637
2	0x3dc53d1e	0.09630798
3	0xbe548d53	-0.20757036
4	0xbccae0c0	-0.024765372
5	0xbe40a902	-0.18814471
6	0xbe2cd095	-0.16876443
7	0x3e59479f	0.21218728
8	0xbd153896	-0.036430918
9	0xbcd61053	-0.02613083
10	0xbdc405d0	-0.09571421
11	0x3e6e552a	0.23274675
12	0x3e3eb8d5	0.18625195
13	0xbde24e0b	-0.11050042
14	0xbd5d963a	-0.054098345
15	0x3e697e5d	0.2280211
16	0xbe1573c3	-0.14594941
17	0xbd816c71	-0.06319512
18	0x3d8c7088	0.06857401
19	0x3e0d8bc7	0.13822852
20	0xbe16242c	-0.14662236
21	0x3e7cc2c4	0.24683672
22	0xbe56d796	-0.20980677
23	0xbe6a6570	-0.22890258
24	0x3e6e7432	0.23286512
25	0x3e05588a	0.13022056
26	0x3b615aad	0.0034386322
27	0xbe1eaa3c	-0.15494627
28	0xbe5fe7dc	-0.21865791
29	0x3ddf85d0	0.109141946
30	0xbdac910f	-0.08426105
31	0x3e071d61	0.13194801
32	0xbdd4a4e5	-0.10383014
33	0xbe634c62	-0.22197106
34	0xbe47fca6	-0.19529971
35	0x3cf4a94f	0.029865889
36	0xbdf671e4	-0.12033442
37	0xb8d2e2b3	-0.00010055806
38	0x3def12c5	0.11673502
39	0xbe1e8da6	-0.15483722
40	0x3d6570fe	0.05601596
41	0xbc933ad1	-0.017972382
42	0xbdc12d99	-0.09432525
43	0x3dd123a9	0.1021188
44	0x3d65671d	0.05600654
45	0x3d30f348	0.04320076
46	0x3e02703d	0.12738128
47	0xbc537d0f	-0.012908234
48	0x3e4ad6ed	0.1980855
49	0xbe605a9e	-0.21909568
50	0x3e604a4f	0.21903346
51	0xbe1a48e9	-0.15066876
52	0x3e485687	0.19564258
53	0x3e822e7f	0.254261
54	0xbc02130c	-0.007939111
55	0x3d098338	0.033572406
56	0x3e65d2cc	0.22443694
57	0xbe0d928c	-0.13825434
58	0xbe0cf2ba	-0.13764468
59	0x3e2e7de0	0.17040205
60	0x3df8d703	0.12150385
61	0x3e8efd0e	0.2792744
62	0xbde18b11	-0.11012853
63	0x3e009394	0.12556297
64	0x3e40d66b	0.18831794
65	0x3e888eef	0.2667155
66	0xbd971db9	-0.07378716
67	0xbde77386	-0.11301331
68	0x3e8a7851	0.2704492
69	0xbe414316	-0.18873248
70	0x3dd6808b	0.104737364
71	0xbdcd721d	-0.10031531
72	0x3d64e713	0.055884432
73	0xbc8f6b5a	-0.017507244
74	0x3e6b9647	0.23006545
75	0xb9038853	-0.00012543918
76	0xbc80068a	-0.015628118
77	0xbe3ef483	-0.18647961
78	0xbe38db48	-0.18052399
79	0x3de9a8fd	0.11409185
80	0xbdb66083	-0.08905127
81	0x3e5a6c3f	0.21330355
82	0x3e6bfc4a	0.2304546
83	0x3e801f96	0.25024098
84	0x3e0df3d0	0.13862538
85	0xbe3fa89a	-0.1871666
86	0x3e15ea75	0.1464022
87	0x3e13fae7	0.1445118
88	0xbe780256	-0.24219641
89	0xbe9d3894	-0.30707228
90	0xbe6516ea	-0.22372022
91	0x3d02861b	0.031866174
92	0xbd6baa7b	-0.05753563
93	0xbcf46731	-0.029834362
94	0x3e070c9d	0.13188405
95	0x3e1633d0	0.14668202
96	0x3e42ac53	0.19011049
97	0xbdbeefb4	-0.093230635
98	0x3e7b8130	0.24561
99	0x3e6a705f	0.22894429
100	0x3b344fb0	0.0027513318
101	0x3e47a756	0.19497427
102	0xbe21ac52	-0.15788391
103	0x3e434963	0.19070964
104	0xbbc4f0b6	-0.0060101403
105	0x3e522920	0.205235
106	0x3d85b9c5	0.06529573
107	0xbe7202bd	-0.23633857
108	0xbd380663	-0.044927966
109	0x3de5e9e2	0.1122625
110	0xbe439fba	-0.191039
111	0x3e82f118	0.25574565
112	0x3bf2571c	0.007395638
113	0x3d92bfa3	0.07165458
114	0xbe17c5f2	-0.14821604
115	0x3babf9eb	0.0052482984
116	0xbe05d5ba	-0.13069811
117	0x3dec7462	0.11545636
118	0xbdaf55e8	-0.08561307
119	0xbd29ff88	-0.04150346
120	0x3e80fb81	0.25191882
121	0xbd06bb32	-0.032893367
122	0xbdb47860	-0.08812022
123	0x3d1f88d5	0.038948853
124	0x3e72948d	0.2368948
125	0xbc4c85fe	-0.012483118
126	0xbd3ed88e	-0.04659324
127	0xbe175609	-0.14778914
128	0x3e91896b	0.28425154
129	0xbd7675c4	-0.060170904
130	0x3e32be23	0.17455344
131	0xbdb5deed	-0.0888041
132	0x3e8a1b71	0.2697406
133	0x3e81a763	0.25323018
134	0xbd9b10ea	-0.075715855
135	0x3e42c97b	0.19022171
136	0x3d95b137	0.07309192
137	0x3cdd60ca	0.027023692
138	0xbdfea589	-0.12433917
139	0xbe2d1bb2	-0.16905096
140	0x3e2c618e	0.16834089
141	0x3e4bbc90	0.1989615
142	0x3e5c1dd2	0.2149575
143	0x3b9f5450	0.0048623458
144	0xbe1108dd	-0.14163537
145	0xbdb93106	-0.090425536
146	0xbe1a22d7	-0.15052353
147	0xbddb6a65	-0.107136525
148	0xbe51249a	-0.20424119
149	0xbd5d4837	-0.054023948
150	0x3de09cfd	0.10967443
151	0x3dade87a	0.08491607
152	0x3e4d0ae1	0.20023681
153	0x3e20322d	0.1564414
154	0xbe83fafc	-0.25777423
155	0xbc8fbc44	-0.017545827
156	0xbdc81909	-0.097704
157	0xbd9beabf	-0.07613134
158	0x3e630bc6	0.2217246
159	0x3e64dbdb	0.22349493
160	0xbe357da9	-0.17723717
161	0xbd55a88b	-0.05216269
162	0x3e5521e3	0.20813708
163	0x3e32696f	0.17423032
164	0x3e3f294a	0.18668094
165	0x39de70ea	0.00042427267
166	0xbe04cda3	-0.12969069
167	0x3e504836	0.20340046
168	0x3e4386a0	0.19094324
169	0x3e20c764	0.15701061
170	0x3d0f5328	0.034991413
171	0x3d3713f8	0.044696778
172	0x3e433626	0.19063625
173	0x3e39571c	0.18099636
174	0xbde89f26	-0.1135848
175	0xbd032608	-0.03201869
176	0x3e883ea5	0.26610294
177	0xbd9dd0c8	-0.077058375
178	0x3dfa65e4	0.12226465
179	0x3dc3eec4	0.09567025
180	0xbe4246d0	-0.18972325
181	0xbe818a71	-0.25300935
182	0x3dc82fe1	0.09774757
183	0xbd7bcd88	-0.061475307
184	0xbce718f1	-0.028210135
185	0xbd4d51ee	-0.050126962
186	0xbe5ef000	-0.2177124
187	0x3d772e85	0.0603471
188	0x3e87e021	0.26538184
189	0x3c37d703	0.011220696
190	0xbca133b9	-0.019677984
191	0x3e44a1c4	0.19202334
192	0xbd5498e3	-0.051903617
193	0x3c9e4085	0.019317875
194	0xbe639dba	-0.22228137
195	0x3e16ef13	0.14739637
196	0xbdf878c5	-0.1213241
197	0x3d92ce5c	0.07168266
198	0x3d6b9bd9	0.057521675
199	0x3d6bfae4	0.057612315
200	0xbe1097da	-0.14120427
201	0x3e2e543f	0.17024325
202	0xbdf624cf	-0.120187394
203	0x3e81b400	0.25332642
204	0x3e1f8d4e	0.15581247
205	0x3c3c2d17	0.01148536
206	0x3e8169e0	0.2527609
207	0xbe79f5c7	-0.24410163
208	0x3e000daa	0.12505212
209	0xbdec53ea	-0.11539443
210	0x3e5cc64b	0.21560018
211	0x3ddd902e	0.10818516
212	0x3e552fd6	0.20819029
213	0x3e4ed332	0.20197752
214	0xbe172271	-0.14759232
215	0xbe91ba7c	-0.2846259
216	0x3d11b362	0.035571463
217	0x3db4cfe9	0.08828718
218	0xbc34d521	-0.011037142
219	0xbdf99b8e	-0.12187873
220	0xbe80981f	-0.2511606
221	0xbe7b7b1a	-0.24558678
222	0x3e5b3bfa	0.21409598
223	0x3d0aaeb1	0.033858005
224	0xbdf0b592	-0.11753382
225	0x3e7cab5c	0.24674743
226	0xbe353a4a	-0.17698017
227	0x3d8a54cb	0.06754454
228	0xbda13fda	-0.07873507
229	0xbe89c2e5	-0.26906505
230	0xbe23d49f	-0.15999077
231	0x3e5c10aa	0.21490732
232	0x3d09fd09	0.03368858
233	0x3da35831	0.079758056
234	0x3e29b40d	0.1657259
235	0x3cf212e4	0.029550023
236	0x3d4611cd	0.04835682
237	0x3e73f3c0	0.23823452
238	0xbe8c5323	-0.27407178
239	0x3e699e4e	0.22814295
240	0xbe813f02	-0.25243384
241	0x3daeb7fd	0.08531187
242	0x3d6150cd	0.0550087
243	0xbdc28106	-0.094972655
244	0xbde33f5d	-0.1109607
245	0x3e423351	0.18964888
246	0x3e0cadb0	0.13738132
247	0x3e7c86ab	0.24660747
248	0xbd8bfb17	-0.06835001
249	0x3e354703	0.1770287
250	0xbe6c5d96	-0.23082575
251	0x3d6294ef	0.055317815
252	0xbd969fc7	-0.07354694
253	0xbe89ae4d	-0.26890793
254	0x3e2a6194	0.16638786
255	0xbe84ebd7	-0.25961182

net.0.bias f4 [128]
0	0xbe5a738b	-0.21333139
1	0xbe72aa1a	-0.23697701
2	0x3e56d909	0.2098123
3	0x3e8f6266	0.2800476
4	0x3e42d610	0.19026971
5	0x3e91723f	0.28407475
6	0xbe2b9a9c	-0.16758198
7	0xbda8dd7b	-0.08245369
8	0xbe3bc43d	-0.18336578
9	0xbd9a6ca5	-0.075402535
10	0xbe64c895	-0.22342141
11	0x3e6a7467	0.22895966
12	0xbb8f43c0	-0.00437209
13	0xbd549082	-0.051895626
14	0x3de5a55f	0.11213183
15	0xbdb72489	-0.089425154
16	0xbc470e24	-0.0121493675
17	0x3d45fee0	0.04833877
18	0x3dc923e1	0.098212965
19	0x3d8e185a	0.069382384
20	0x3cd084ec	0.025454007
21	0xbdf4dce8	-0.11956197
22	0xbe661a9b	-0.22471087
23	0x3e0d3246	0.13788709
24	0xbd9bd2eb	-0.07608589
25	0xbe0262fa	-0.12733069
26	0xbe07397b	-0.13205521
27	0x3e785bd8	0.24253786
28	0x3deb6d07	0.11495405
29	0xbe7913f2	-0.24324015
30	0xbe61e709	-0.22060789
31	0xbdd1929d	-0.102330424
32	0xbd12e27b	-0.03586052
33	0x3df957c9	0.12174947
34	0x3e62a3f7	0.2213286
35	0x3e7c27aa	0.24624506
36	0xbd673454	-0.05644639
37	0x3e26e4ac	0.16298169
38	0xbda38257	-0.07983845
39	0x3dc68d91	0.096949704
40	0x3dfb13f1	0.12259663
41	0xbbae97c0	-0.0053281486
42	0x3e8ae3c0	0.27126884
43	0xbb3e9100	-0.0029078126
44	0xbe41cd29	-0.18925919
45	0x3e856315	0.26052156
46	0xbdb4b7c1	-0.08824111
47	0xbe5b0310	-0.21387887
48	0xbe182bfb	-0.14860527
49	0xbd016987	-0.03159478
50	0x3e3b27d5	0.18276913
51	0xbe543af2	-0.20725611
52	0xbda689d8	-0.0813176
53	0xbe78ac04	-0.24284369
54	0xbde1204c	-0.10992488
55	0x3d42ef2b	0.04759137
56	0x3e357ade	0.17722651
57	0x3de54de4	0.11196497
58	0x3da76af7	0.08174699
59	0x3b13e8a5	0.0022569087
60	0x3e79c128	0.2439009
61	0x3e70be2e	0.23510048
62	0xbe8742ba	-0.26418096
63	0x3e3f02b0	0.18653369
64	0x3e625271	0.22101761
65	0xbd858156	-0.065188095
66	0xbdf0ac5d	-0.11751626
67	0xbe465059	-0.19366588
68	0x3dc628cc	0.0967575
69	0x3e1a5f12	0.15075329
70	0xbe82f31b	-0.255761
71	0x3e14d00c	0.14532489
72	0xbd2db983	-0.042413246
73	0x3d47cbc4	0.04877831
74	0x3e772dec	0.24138612
75	0xbe082971	-0.13297059
76	0x3dabdc47	0.08391624
77	0x3d2be7e4	0.041969195
78	0x3e72397a	0.23654738
79	0xbe82f7f9	-0.25579813
80	0xbe5e8d32	-0.21733549
81	0xbe7bc032	-0.24585035
82	0x3e41c630	0.18923259
83	0xbe1d703d	-0.15374847
84	0xbe046800	-0.12930298
85	0xbdb9e8fb	-0.090776406
86	0x3df40257	0.11914509
87	0x3e45de0f	0.1932299
88	0x3c0254a0	0.0079547465
89	0xbe1b5a4f	-0.15171169
90	0x3e37ec75	0.17961295
91	0x3bc8eb16	0.00613154
92	0x3d8e697c	0.06953713
93	0xbdf000ff	-0.1171894
94	0xbe452483	-0.1925221
95	0x3e08c72c	0.13357228
96	0xbe12bba2	-0.14329389
97	0xbe660110	-0.22461343
98	0xbded14c2	-0.11576225
99	0x3d68fa72	0.05687947
100	0xbe19dec3	-0.15026383
101	0x3e2cadf5	0.16863234
102	0xbdd285e5	-0.102794446
103	0x3e3bb6f2	0.18331507
104	0x3e114e0e	0.14189932
105	0x3e5c6189	0.21521582
106	0x3e576d8a	0.2103788
107	0xbdc1c3f3	-0.094612025
108	0x3e53131e	0.20612761
109	0xbe737ffb	-0.2377929
110	0xbd7107ef	-0.058845457
111	0x3e1901c4	0.1494208
112	0x3e40bb86	0.18821535
113	0xbe0ca9f3	-0.13736705
114	0x3e3ad5c6	0.1824561
115	0x3e914ef6	0.28380555
116	0x3e020358	0.12696588
117	0xbe1aad80	-0.15105247
118	0xbcee192c	-0.029064737
119	0xbca4e13b	-0.02012693
120	0xbd8d291e	-0.06892608
121	0x3d32bb7d	0.043635834
122	0xbe2ceb06	-0.1688653
123	0x3e19f67b	0.15035431
124	0xbe105fc3	-0.1409903
125	0x3e371d7b	0.1788234
126	0x3e2aefb4	0.16693002
127	0xbdfa5a1b	-0.122242175

net.2.weight f4 [128, 128]
0	0xbc8fab0a	-0.017537612
1	0x3da1cea7	0.07900744
2	0x3d7059ec	0.058679506
3	0x3db8bd21	0.090204485
4	0x3c82d2ef	0.015969722
5	0x3d7da224	0.061922207
6	0xbdc38426	-0.0954669
7	0xbd9f35ce	-0.07773934
8	0x3d497297	0.049181547
9	0x3b92576e	0.004465989
10	0x3d9cfa1c	0.07664892
11	0x3dce01c9	0.10058934
12	0x3cc5b850	0.024135739
13	0xbd94ba1e	-0.072620615
14	0xbd22f7ec	-0.039787218
15	0xbd8b67da	-0.068069175
16	0x3d8a94f2	0.0676669
17	0x3d8be94d	0.06831608
18	0xbcc0fe69	-0.023558812
19	0x3d569d03	0.05239583
20	0xbd56983f	-0.052391287
21	0xbd94ec6c	-0.072716564
22	0xbd60528a	-0.054766215
23	0x3cc74e50	0.024329334
24	0xbd7ee1b5	-0.06222697
25	0x3d1f82ab	0.038942974
26	0x3d96fc30	0.0737232
27	0xbb2fe02c	-0.0026836498
28	0xbd17f585	-0.03709938
29	0x3d5c9cc2	0.053860433
30	0xbc3f34d7	-0.011670313
31	0xbd73e869	-0.059547815
32	0xbd08a910	-0.033364356
33	0x3d126739	0.035742972
34	0xbc8da346	-0.017289769
35	0x3bd6d7d7	0.006556492
36	0x3db63be2	0.088981405
37	0x3c152358	0.009102665
38	0xbc9de6c8	-0.019275084
39	0xbd598119	-0.053101633
40	0xbd45eb9c	-0.048320398
41	0x3ca527fc	0.020160668
42	0xbd390bd9	-0.045177314
43	0x3d7e6f4a	0.062117852
44	0x3d499a3a	0.049219348
45	0xbd55aacc	-0.052164838
46	0xbd23eafd	-0.040019024
47	0xbc6e1c8c	-0.014533173
48	0xbcbdcac4	-0.023167975
49	0x3cc42e79	0.023947941
50	0xbd5cf24b	-0.053942006
51	0xbd9da6f3	-0.07697859
52	0x3d95b8aa	0.073106125
53	0xbd4f23fb	-0.050571423
54	0xbd13fd7a	-0.036130406
55	0x3d70f6c5	0.058829088
56	0x3dadc50b	0.084848486
57	0x3c87979e	0.016551789
58	0x3d513ae7	0.051081564
59	0x3dbe91cd	0.09305153
60	0xbd651440	-0.055927515
61	0x3db11a11	0.0864755
62	0x3d7b1332	0.061297603
63	0x3cdf5567	0.027262403
64	0x3d0a8148	0.0338147
65	0x3d87b45c	0.06626198
66	0xbcc50eb5	-0.024054864
67	0xbd277fd2	-0.040893383
68	0x3d2c4b7e	0.042064182
69	0xbc2c0719	-0.010499739
70	0x3c017e0b	0.007903586
71	0xbce26e53	-0.027640497
72	0xbb62cc6f	-0.0034606715
73	0x3db7f809	0.08982856
74	0xbbf88bca	-0.0075850235
75	0xbd912183	-0.0708647
76	0xbd9c8563	-0.07642629
77	0xbce4a55e	-0.027910884
78	0x3d5cbcb7	0.05389091
79	0x398bdc00	0.0002667606
80	0x3c529a68	0.012854196
81	0x3cb2694d	0.021778727
82	0x3c4fbcab	0.012679259
83	0x3d80be3b	0.062862836
84	0x3d94b8b7	0.07261794
85	0xbdb6e1a4	-0.08929756
86	0xbbaf4416	-0.0053486926
87	0xba7c5aef	-0.0009626587
88	0xbdad8a89	-0.08473689
89	0x3c18ada0	0.009318739
90	0x3c83c7a6	0.01608641
91	0x3d8eb278	0.06967634
92	0x3d87bfa0	0.066283464
93	0xbc7b6116	-0.015342971
94	0x3bf4af72	0.007467204
95	0xbd35aba9	-0.04435316
96	0x3d0762f5	0.033053357
97	0xbd811691	-0.06303132
98	0x3d2506d1	0.040289704
99	0x3d963266	0.073338315
100	0xbd9446cb	-0.07240065
101	0xbd5990b6	-0.053116523
102	0x3da9f2b1	0.08298243
103	0x3d9120c3	0.07086327
104	0xbd96c21e	-0.07361244
105	0xbd3fe5f1	-0.04685015
106	0xbd8442c0	-0.06458044
107	0x3dbcfc31	0.09227789
108	0x3ddbb34c	0.107275575
109	0xbc9d3cc6	-0.019194018
110	0x3cb5fc19	0.022214936
111	0x3c89dc57	0.016828699
112	0x3dc2b4f2	0.09507169
113	0xbc1abfb9	-0.009445124
114	0xbc34817b	-0.011017199
115	0xbd8f82e8	-0.0700739
116	0x3cb5ca68	0.022191241
117	0xbce14494	-0.02749852
118	0xbd3e1934	-0.046410754
119	0x3c6d8b74	0.01449858
120	0x3d54e7e7	0.05197897
121	0x3d16360f	0.036672648
122	0x3d6779c5	0.056512613
123	0x3d873b8e	0.06603156
124	0xbced0068	-0.028930858
125	0xbd11bb0f	-0.035578784
126	0xbd3ffff9	-0.046874974
127	0xbc05d825	-0.008169209
128	0xbda51c66	-0.08062057
129	0xbdb68c66	-0.089134976
130	0x3d12d570	0.03584808
131	0x3d986ded	0.07442842
132	0x3da4d32a	0.08048089
133	0x3d82553e	0.06363915
134	0x3da0ce5e	0.078518614
135	0xbd0a1b09	-0.03371719
136	0xbc8334d5	-0.016016403
137	0xbd1e80d2	-0.03869707
138	0xbd4e7432	-0.05040378
139	0xbd7adf44	-0.06124808
140	0x3d8714af	0.06595742
141	0x3dbe4df5	0.09292213
142	0x3da15a9b	0.0787861
143	0x3bdd66cc	0.006756639
144	0xbd304ba0	-0.04304087
145	0xbd13c554	-0.03607686
146	0xbd22839c	-0.039676294
147	0x3ce5d373	0.028054928
148	0xbbbe1853	-0.0058012395
149	0x3d4d1ec6	0.050078176
150	0xbb6c6060	-0.0036068186
151	0x3cb9323e	0.022606965
152	0x3d139a7b	0.036035996
153	0x3d7f4cdc	0.06232916
154	0xbabc0d7b	-0.0014347279
155	0x3d8da865	0.06916884
156	0xbd5a9c51	-0.05337173
157	0xbc049780	-0.008092761
158	0x3da74c3d	0.08168838
159	0xbb4791ac	-0.0030451817
160	0x3c844afb	0.016149035
161	0x3dafb1b5	0.08578817
162	0x3c91ad48	0.017782822
163	0x3969e67a	0.00022306471
164	0xbdb587f5	-0.08863822
165	0xbcaef0ac	-0.021354996
166	0x3d91c785	0.071181335
167	0xbd91633c	-0.070990056
168	0x3db381e4	0.08765009
169	0x3d13e6f6	0.036108933
170	0xbd9201dc	-0.07129261
171	0xbbc9b260	-0.006155297
172	0x3d69c2fd	0.05707072
173	0x3d29d675	0.041464288
174	0xbd3bdd1b	-0.04586516
175	0x3c8ee633	0.017443752
176	0x3cfd4ba4	0.030919857
177	0xbca653a6	-0.020303559
178	0x3ca66f42	0.020316724
179	0xbbc7a1d1	-0.006092288
180	0x3da2d644	0.07951024
181	0x3d829c5d	0.0637748
182	0x3d7b4ece	0.06135445
183	0xbd51bac0	-0.05120349
184	0x3cc33dbd	0.02383315
185	0x3dc6e704	0.097120315
186	0x3d25a467	0.04043999
187	0x3d0d585e	0.0345081
188	0x3ddc17e7	0.107467465
189	0xbd567b47	-0.05236366
190	0x3d6beda5	0.057599682
191	0xbda85f47	-0.08221298
192	0xbd46725a	-0.048448898
193	0x3db94551	0.09046424
194	0x3c062fee	0.008190138
195	0x3d97bc3a	0.07408948
196	0xbcba2513	-0.022722756
197	0xbda354ad	-0.07975135
198	0x3cdee3a2	0.027208153
199	0x3d6644b1	0.056217853
200	0xbd8ccf03	-0.06875422
201	0x3c21d562	0.009877535
202	0xbd85c9dc	-0.06532642
203	0x3bea8263	0.0071566566
204	0xbd66f3d8	-0.05638489
205	0x3d2c18ca	0.04201583
206	0xbccf4f6e	-0.02530643
207	0x3c3e0ef8	0.0116002485
208	0x3bd1d670	0.006403737
209	0x3bf1834b	0.0073703877
210	0xbd74afcf	-0.059737977
211	0x3db102da	0.08643122
212	0x3d52f247	0.051500585
213	0x3d5a7ac3	0.05333973
214	0x3d887fa0	0.066649675
215	0xbd3022e1	-0.043002013
216	0x3d858621	0.06519724
217	0x3d421372	0.047381826
218	0xbd6bb242	-0.057543047
219	0x3d31523b	0.04329131
220	0xbd060d78	-0.03272769
221	0xbd422ac9	-0.047404084
222	0x3d0be3e3	0.034152877
223	0x3dbd8e41	0.092556484
224	0x3d4d202f	0.05007952
225	0xbd565798	-0.05232963
226	0xbd37a7a4	-0.04483761
227	0x3ccc9ac5	0.024976144
228	0xbdca3c9f	-0.09874844
229	0x3de1e8cb	0.1103073
230	0x3cfa8f65	0.030585954
231	0x3bc9baf7	0.006156321
232	0x3d0d11d9	0.03444085
233	0xbd82683c	-0.063675374
234	0x3bc0d94d	0.0058852793
235	0x3d753f1c	0.05987464
236	0xbd8c39de	-0.06846975
237	0x3db3c110	0.08777058
238	0xbc0c7c10	-0.008574501
239	0xbd570149	-0.05249146
240	0x3cbafec5	0.022826562
241	0x3dc4bd3e	0.096064076
242	0xbd5aa424	-0.053379193
243	0x3d4414d1	0.047871415
244	0xbd9f4eed	-0.07778726
245	0x3d9274c5	0.07151178
246	0x3d1085e4	0.035283938
247	0xbd5a0fdf	-0.053237792
248	0x3d82a8b9	0.063798375
249	0xbd24e6c3	-0.040259134
250	0x3c56a35c	0.013100471
251	0x3dabfab7	0.083974294
252	0xbd4d699c	-0.050149545
253	0x3cabf03f	0.020988582
254	0xbd6b4374	-0.057437375
255	0xbc9e1eef	-0.01930186

net.2.bias f4 [128]
0	0x3cf2a8aa	0.02962144
1	0xbcc6cc1b	-0.024267247
2	0x3cfba0e1	0.030716361
3	0xbb60d50b	-0.003430667
4	0x3b38befd	0.002819001
5	0x3ca6ad1e	0.02034622
6	0x3d87a937	0.06624072
7	0x3cd9eb75	0.026601532
8	0xbd84d801	-0.06486512
9	0xbd1062d9	-0.03525052
10	0x3c3f4df3	0.011676299
11	0x3d9bb28c	0.076024145
12	0xbd59b7b8	-0.053153723
13	0x3c356131	0.0110705355
14	0x3b7d1f3c	0.0038623353
15	0x3c9b2db7	0.018942697
16	0x3d4aafdf	0.04948413
17	0xbdb295e1	-0.087199934
18	0x3d28a325	0.04117121
19	0xbd858038	-0.065185964
20	0x3a5475a1	0.0008104686
21	0xbcfa477f	-0.03055167
22	0xbcb6dfcc	-0.022323512
23	0xbd3a6495	-0.04550608
24	0xbc6d7245	-0.014492576
25	0x3d4367c2	0.047706373
26	0xbb7ba7da	-0.0038399608
27	0x3d324ac2	0.043528326
28	0x3d027b88	0.03185609
29	0x3d11bac1	0.035578493
30	0xbd92ba5b	-0.07164451
31	0xbbfe3f90	-0.007759042
32	0xbd289afe	-0.041163437
33	0xbd80eb55	-0.06294886
34	0xbbb1b5ab	-0.005423268
35	0x3cb49434	0.022043325
36	0xbc34c9a8	-0.011034407
37	0xbd8a8987	-0.067645125
38	0x3da79730	0.081831336
39	0x3c8aa404	0.016923912
40	0x3c194c39	0.009356552
41	0xbd4d8ec9	-0.050185
42	0x3d0c5093	0.03425653
43	0x3d1af079	0.03782699
44	0x3d11bd92	0.03558118
45	0x3d8a00fa	0.067384675
46	0x3d2f3d6d	0.04278319
47	0xbd2a71f4	-0.04161258
48	0xbd40dab6	-0.04708358
49	0xbdab18b1	-0.08354319
50	0xbd4fb644	-0.05071093
51	0x3da29f06	0.079404876
52	0xbd936cbb	-0.07198473
53	0x3d012af2	0.031535096
54	0x3d737855	0.05944093
55	0x3bf1d6f0	0.007380359
56	0xbd088b69	-0.033336077
57	0x3d7ad330	0.06123656
58	0xbb22bda0	-0.0024832264
59	0xbb9eb450	-0.0048432723
60	0xbba986c0	-0.005173534
61	0x3d1ade55	0.03780969
62	0xbda9285a	-0.082596496
63	0x3d3b51bd	0.04573225
64	0xbd9595f1	-0.0730399
65	0xbd171582	-0.036885746
66	0xbd800fc5	-0.06253008
67	0xbd3207dc	-0.043464527
68	0x3db16072	0.086609736
69	0xbb4f7068	-0.0031652693
70	0x3d4c6031	0.049896423
71	0x3d65efda	0.056136943
72	0xbd1e34d7	-0.03862461
73	0x3d323adb	0.04351316
74	0xbd4774ce	-0.048695378
75	0xbd34c9d8	-0.044137806
76	0xbbc632e0	-0.0060485452
77	0xbd2aca1a	-0.041696645
78	0xbd4e2691	-0.05032975
79	0x3b34b248	0.0027572084
80	0xbb955940	-0.0045577586
81	0x3ce32464	0.027727313
82	0x3cb2ce6a	0.021826942
83	0xbd097f4c	-0.033568665
84	0x3d9f5ccb	0.07781371
85	0x3cac02b3	0.02099738
86	0x3d048813	0.032356333
87	0x3d97a3eb	0.07404312
88	0xbd9743d0	-0.07385981
89	0xbcc47a2c	-0.023984037
90	0x3d6f81d9	0.05847344
91	0xbcf554ac	-0.029947601
92	0x3cade287	0.02122618
93	0xbbbf805a	-0.005844158
94	0xbda52000	-0.08062744
95	0xbc07888b	-0.0082723005
96	0xbc682285	-0.014168386
97	0x3ba7a730	0.005116366
98	0xbacaad3e	-0.0015463007
99	0xbd72ad9f	-0.05924761
100	0xbd2a31ae	-0.041551284
101	0x3d3cdb08	0.046107322
102	0xbd181eb9	-0.037138674
103	0xbbc3e0c7	-0.0059777233
104	0xbcf893ca	-0.030343909
105	0xbd24a3a7	-0.040195134
106	0x3cebfaa0	0.02880603
107	0xbd8711dc	-0.06595203
108	0xbd731962	-0.05935038
109	0x3d9afeb0	0.07568109
110	0x3cfca9eb	0.030842742
111	0xbd4cfdb4	-0.050046638
112	0xbd42b25b	-0.047533374
113	0x3d37087f	0.044685837
114	0xbd43cafa	-0.047800995
115	0xbc21c56d	-0.00987373
116	0xbd1d1313	-0.03834827
117	0x3d69af91	0.0570522
118	0xbd017d32	-0.031613536
119	0xbd5408c1	-0.05176616
120	0x3cf26381	0.029588463
121	0xbda54656	-0.08070056
122	0x3cee85c5	0.02911652
123	0x3cdeace6	0.027182054
124	0x3d28c3d5	0.041202385
125	0xbd8fcbb4	-0.07021275
126	0x3db0b470	0.08628166
127	0x3d55c159	0.052186344

net.4.weight f4 [128, 128]
0	0x3d8d5074	0.06900111
1	0xbdb38419	-0.0876543
2	0x3c259afc	0.010107752
3	0x3c069240	0.00821358
4	0x3d5e31cf	0.05424672
5	0x3d875f87	0.06610017
6	0x3c9a1fff	0.018814085
7	0xbcd2fe44	-0.025756009
8	0x3c83aa16	0.016072314
9	0x3cad2c30	0.021139234
10	0xbdb5395f	-0.08848833
11	0x3d3d5c88	0.046230823
12	0x3d68c5ae	0.056829147
13	0xbd1ea1ba	-0.038728453
14	0xbd77ae30	-0.060468853
15	0x3ca4161b	0.020030072
16	0xbd027fce	-0.031860165
17	0xbdaaeb5e	-0.08345674
18	0xbca75416	-0.020425837
19	0xbd284c68	-0.04108849
20	0xbcc28b75	-0.023748139
21	0xbdab6495	-0.08368794
22	0xbd82e02c	-0.06390414
23	0x3d94e2a5	0.072697915
24	0x3c93c7b4	0.018039562
25	0xbd554b00	-0.05207348
26	0xbda18ef5	-0.07888595
27	0x3d7adf66	0.061248206
28	0x3db32ad5	0.08748404
29	0xbd9e8323	-0.07739856
30	0x3d4decf0	0.05027479
31	0x3c8ddf04	0.017318256
32	0x3dabb26d	0.083836414
33	0x3d9817d0	0.07426417
34	0xbccbc762	-0.024875347
35	0x3d6a18aa	0.057152428
36	0xbd930e48	-0.07180458
37	0x3d3cf9f1	0.0461368
38	0xbd013263	-0.031542193
39	0x3d9d74c3	0.07688286
40	0x3cf1857a	0.029482592
41	0xbd2bcfb6	-0.041946135
42	0xbda60131	-0.08105696
43	0xbb24188f	-0.0025039052
44	0x3d43b171	0.047776643
45	0x3da47720	0.08030534
46	0xbd7efd03	-0.06225301
47	0xbd527147	-0.05137756
48	0x3b8230e5	0.003973114
49	0xbd414eec	-0.047194406
50	0x3d507f41	0.05090261
51	0x3d96f35d	0.073706366
52	0x3d0f0d62	0.034924872
53	0xbd81c008	-0.06335455
54	0x3d9f2d5d	0.07772324
55	0xbd4e291a	-0.050332166
56	0x3cf9f0bf	0.030510304
57	0x3cc55d03	0.024092203
58	0xbd956124	-0.07293919
59	0xbd0ae976	-0.033914052
60	0xbcddaff8	-0.027061448
61	0x3bd02bf1	0.0063528945
62	0x3d962d7d	0.07332895
63	0x3d77d9cb	0.060510438
64	0xbd9e5be0	-0.077323675
65	0xbd86b285	-0.06577019
66	0xbd3a71d4	-0.04551871
67	0xbced5b2f	-0.028974144
68	0xbcca5ff2	-0.024703953
69	0xbd61f199	-0.055162046
70	0xbce7fd79	-0.028319107
71	0xbdaa5440	-0.08316851
72	0xbd885899	-0.06657524
73	0x3d650830	0.05591601
74	0xbcd79e70	-0.026320666
75	0xbd4453db	-0.047931533
76	0x3ba9dc09	0.005183701
77	0x3b83b4a0	0.004019335
78	0xbd2727f9	-0.040809605
79	0xbd6f4feb	-0.058425825
80	0xbdaedb49	-0.08537919
81	0xbb2c1aac	-0.0026261015
82	0x3d603c51	0.054745022
83	0x3d1972a6	0.037462853
84	0xbd3cf092	-0.046127863
85	0xbd96fd6f	-0.07372557
86	0x3caea9fb	0.021321287
87	0xbd838d00	-0.06423378
88	0x3d54d81f	0.05196392
89	0xbdb4a26c	-0.08820042
90	0x3b30ed8e	0.0026997062
91	0x3dac34a9	0.08408482
92	0xbd8a39bc	-0.06749293
93	0xbd77c936	-0.060494624
94	0x3d1b3d0e	0.037900023
95	0xbd5c8782	-0.053840168
96	0xbd7976c7	-0.06090429
97	0x3d0992a6	0.03358712
98	0xba00a06d	-0.0004906718
99	0xbd773d90	-0.060361445
100	0xbd9c2eb6	-0.07626097
101	0xbd7ec823	-0.062202584
102	0x3c40357c	0.011731502
103	0xbd040059	-0.032226894
104	0x3d427eda	0.047484256
105	0x3d533556	0.051564537
106	0x3d937b91	0.07201303
107	0x3cd64db7	0.026160104
108	0xbd8f7f0d	-0.07006655
109	0x3a8a7c25	0.0010565562
110	0xbd9bed2b	-0.076135956
111	0x3d75992e	0.059960537
112	0x3d2297ba	0.03969548
113	0xbbc8aa55	-0.006123821
114	0x3d8dbca3	0.06920745
115	0x3cd0aec8	0.025473967
116	0xbc4a59f7	-0.012350551
117	0x3d07d87f	0.03316545
118	0x3d81915c	0.06326553
119	0xbd8d0e31	-0.068874724
120	0x3d920c58	0.07131261
121	0x3c630e40	0.013858378
122	0xbd7560b0	-0.05990666
123	0x3c91991f	0.01777321
124	0x3b806b30	0.0039190277
125	0x3d720562	0.059087165
126	0x3ce50cb6	0.027960163
127	0x3b85edc9	0.004087184
128	0xbd08d235	-0.033403594
129	0x3d327113	0.043564867
130	0x3d454ed6	0.048170887
131	0xbd140b9e	-0.03614389
132	0x3d2506f3	0.04028983
133	0x3d87efdb	0.06637546
134	0xbd516b85	-0.05112793
135	0xbd090a05	-0.03345682
136	0xbd6f83f3	-0.058475446
137	0x3d86c97d	0.065813996
138	0xbd393285	-0.045214195
139	0x3d2bf1d5	0.041978676
140	0x3cf4ef96	0.0298994
141	0xbd75cad4	-0.060007885
142	0xbc0fef75	-0.008785118
143	0x3d3ce8a9	0.04612032
144	0xb9185f09	-0.00014531253
145	0xbc8da5b8	-0.017290935
146	0xbd0c5200	-0.03425789
147	0xbd78481d	-0.060615648
148	0xbd94d87e	-0.07267855
149	0xbd8af442	-0.0678487
150	0x3db12a43	0.08650639
151	0xbc1d8eb4	-0.009616543
152	0x3da94081	0.08264256
153	0x3cf889b7	0.030339105
154	0x3cdec3e8	0.027193025
155	0x3d51cc1e	0.051220052
156	0x3c950d9d	0.018194968
157	0xbdd767fc	-0.1051788
158	0xbd82e6a3	-0.06391647
159	0xbda72f96	-0.08163373
160	0x3c820954	0.015873589
161	0xbd9e1c20	-0.07720208
162	0xbd718870	-0.058968008
163	0x3a2ec000	0.00066661835
164	0x3db26aeb	0.08711799
165	0x3cc7fb00	0.024411678
166	0xbb4f699d	-0.0031648644
167	0xbd067d24	-0.032834187
168	0x3d588856	0.052864395
169	0xbd8c7e3a	-0.06860013
170	0xbd6cfbaa	-0.057857193
171	0x3baf6b81	0.0053533916
172	0x3b9ebb9f	0.0048441435
173	0x3d72bd06	0.059262298
174	0xbcdbbe62	-0.02682418
175	0x3d834fed	0.06411729
176	0xbd82aba5	-0.06380395
177	0x3c3647d8	0.011125527
178	0xbc943c94	-0.018095292
179	0x3d0adf26	0.033904217
180	0x3cd18984	0.025578268
181	0xbd079089	-0.033096824
182	0x3d563d2b	0.052304428
183	0x3d972e85	0.0738192
184	0xbd54e0c9	-0.051972184
185	0xbb97efd8	-0.004636746
186	0x3d38ec16	0.045147024
187	0xbc47f5a8	-0.012204565
188	0x3d9c12b9	0.076207586
189	0xbb4cc440	-0.0031244904
190	0x3d84bd97	0.06481474
191	0xbd18f882	-0.03734637
192	0x3d091838	0.033470362
193	0x3dcf25db	0.10114642
194	0xbdbf2be8	-0.09334546
195	0x3d197052	0.037460633
196	0x3db65952	0.08903755
197	0x3cd02426	0.025407862
198	0xbd2d3515	-0.04228695
199	0x3d7bad8b	0.0614448
200	0x3deae270	0.11468971
201	0xbd840b1f	-0.06447434
202	0x3d33a2c5	0.0438564
203	0x3dae3a70	0.0850724
204	0xbda3dd89	-0.08001239
205	0x3d0a0798	0.03369865
206	0xbd84c14c	-0.06482181
207	0x3d25fb3b	0.040522795
208	0xbc95bad8	-0.01827757
209	0x3dcd4fa2	0.100249544
210	0x3caf2642	0.021380547
211	0x3d2d2582	0.0422721
212	0xbd20590b	-0.039147418
213	0xbd872782	-0.065993324
214	0xbd530f87	-0.05152848
215	0x3da98abb	0.08278414
216	0x3ab72222	0.0013971964
217	0xbc8ddd47	-0.017317427
218	0xbc9a23c6	-0.018815886
219	0x3d995915	0.07487694
220	0xbaba0155	-0.0014191071
221	0x3dbaad45	0.0911508
222	0xbbcba610	-0.0062148646
223	0xbc03d248	-0.00804574
224	0x3d87d1f1	0.0663184
225	0x3ce481bc	0.027893893
226	0xbca5c198	-0.020233914
227	0x3cce25c3	0.02516449
228	0xbd3df76d	-0.04637854
229	0x3d1716cf	0.036886986
230	0x3d2af3c3	0.041736376
231	0x3d9f059b	0.07764741
232	0x3d0fa602	0.035070427
233	0xbb5ff020	-0.0034170225
234	0x3d9ad92c	0.075609535
235	0x3ccead66	0.025229167
236	0x3c953275	0.018212536
237	0x3d57e12e	0.052704982
238	0xbc945d40	-0.018110871
239	0xbcd9cd2e	-0.026587095
240	0xbdad5c45	-0.08464865
241	0x3d7e0a1f	0.06202137
242	0x3d95bd46	0.07311492
243	0xbd6600e1	-0.056153182
244	0xbc6d4eb4	-0.014484096
245	0x3d779496	0.060444437
246	0xbda5339d	-0.08066485
247	0xbd955ba9	-0.072928734
248	0x3d1cdd19	0.038296793
249	0x3d5c6525	0.053807396
250	0xbd7167ee	-0.058937006
251	0x3d732d9c	0.05936967
252	0x3d88194d	0.06645451
253	0xbbc78bf0	-0.00608968
254	0x3c77e94a	0.015131304
255	0xbdaa6bd1	-0.083213456

net.4.bias f4 [128]
0	0xbda2a44b	-0.07941493
1	0x3d8d55c9	0.06901128
2	0x3d6126d9	0.05496869
3	0x3d960c7e	0.073266014
4	0x3dafc25b	0.08581992
5	0xbc2693fc	-0.010167118
6	0x3ca42e6c	0.020041667
7	0xbd35e51b	-0.044407945
8	0x3d852bcc	0.06502494
9	0x3d2784b0	0.040898025
10	0xbdaef158	-0.085421264
11	0x3d8c8871	0.06861962
12	0x3d3c2945	0.045937795
13	0xbd81c6b3	-0.06336727
14	0xbb1a1ff4	-0.002351758
15	0xbc2c4638	-0.010514788
16	0x3d5a351f	0.053273316
17	0xbcf8fc42	-0.030393723
18	0x3ca56acc	0.020192526
19	0xbda0429b	-0.07825204
20	0x3d9bf2e9	0.07614691
21	0xbcb78ed4	-0.022406973
22	0xbca63055	-0.020286718
23	0xbd0ad796	-0.033897005
24	0xbd417719	-0.04723272
25	0x3d911fdb	0.07086154
26	0xbd36ed76	-0.044660054
27	0x3d6bb9ef	0.057550367
28	0x3d93cea7	0.0721715
29	0xbcf75d68	-0.030195907
30	0x3da0a346	0.07843642
31	0xbd4a12c9	-0.04933432
32	0x3d1ef1f9	0.03880498
33	0xbd83d845	-0.064377345
34	0xbcb49957	-0.022045774
35	0xbd0a7fe2	-0.033813365
36	0x3d6ec8a5	0.05829682
37	0x3d8a3acd	0.067494966
38	0xbd79208c	-0.060822055
39	0xbc5f385e	-0.013624279
40	0xbcd49530	-0.025950044
41	0xbd1aa617	-0.037756052
42	0xbd2d34a2	-0.042286523
43	0xbb9247d5	-0.0044641295
44	0x3d8592d8	0.06522149
45	0xbcd4c7b1	-0.025974127
46	0xbc501f2b	-0.0127027435
47	0x3cc2371b	0.023707917
48	0xbcce37f5	-0.025173167
49	0x3d471a0c	0.048608825
50	0x3b809bd6	0.003924827
51	0x3db7ea62	0.08980252
52	0x3cd13c61	0.025541486
53	0xbd235f4d	-0.039885808
54	0xbda3687f	-0.079789154
55	0xbd86df9c	-0.06585619
56	0x3dc98ed6	0.09841697
57	0x3d8f650f	0.07001697
58	0x3db97176	0.09054844
59	0xbc9bd150	-0.019020706
60	0xbd8d068f	-0.068860166
61	0xbda91f1c	-0.08257887
62	0xbd37d76a	-0.04488317
63	0x3dc00809	0.093765326
64	0xbd8a56d8	-0.067548454
65	0x3b1936e2	0.002337866
66	0xbc7d89c1	-0.015474738
67	0x3bd27019	0.0064220545
68	0x3cb0810e	0.021545913
69	0xbd7f8c40	-0.062389612
70	0x3dc25d06	0.09490399
71	0xbd3d0ccc	-0.046154782
72	0x3c3df470	0.011593923
73	0xbdac3508	-0.084085524
74	0x3d10a75f	0.035315868
75	0xbb2569c0	-0.0025240034
76	0xbccf3a5b	-0.02529638
77	0xbc2a32f0	-0.010388121
78	0x3dc1da7f	0.09465503
79	0xbc434240	-0.011917651
80	0x3cf47b2d	0.029843891
81	0x3cab548e	0.020914342
82	0xbd395258	-0.045244545
83	0xbcc2b2c8	-0.02376689
84	0x3d3a2994	0.04544981
85	0x3cf1bd3a	0.029509176
86	0x3d993081	0.074799545
87	0x3d195330	0.03743285
88	0xbd51a1b4	-0.051179603
89	0x3d6d990c	0.058007285
90	0xbce592cc	-0.0280241
91	0x3d0c0d27	0.03419223
92	0x3dab543d	0.083656766
93	0x3c80c1bb	0.015717378
94	0xbbc141fa	-0.0058977576
95	0xbd80e847	-0.062943034
96	0xbcc08b87	-0.023504032
97	0x3cc0ae00	0.02352047
98	0xbd82471e	-0.06361221
99	0x3d996dc5	0.0749164
100	0x3ccfd67a	0.025370825
101	0xbd65cbd9	-0.056102607
102	0x3db37a40	0.08763552
103	0x3d958693	0.073010586
104	0xbbc18e36	-0.0059068454
105	0x3d6f8f42	0.05848623
106	0xbcf06e37	-0.02934943
107	0x3c56c5ef	0.0131087145
108	0x3d70ac42	0.058758028
109	0xbdb24c6f	-0.08705985
110	0x3d7fe235	0.062471587
111	0xbdaa5edb	-0.083188735
112	0x3bb3e342	0.0054897377
113	0x3d0d24be	0.03445887
114	0x3c7a7551	0.0152867595
115	0x3dc185e8	0.09449369
116	0xbc2537a0	-0.010084063
117	0xbcb5c035	-0.022186378
118	0xbbe82a71	-0.0070851375
119	0xbd9a1fec	-0.0752562
120	0xbda2e479	-0.07953734
121	0x3da5e9c8	0.08101231
122	0xbd82938d	-0.06375799
123	0xbc4fedc3	-0.012690964
124	0x3d22b0e9	0.039719496
125	0xbcef3cae	-0.029203739
126	0x3bbb1c62	0.0057101706
127	0xbdab8bc6	-0.08376269

net.6.weight f4 [256, 128]
0	0xbd7c13c4	-0.061542287
1	0x3c6496e0	0.013951987
2	0xbd3022ff	-0.043002125
3	0xbbee7810	-0.007277496
4	0xbcedb766	-0.029018115
5	0xbcb665d0	-0.022265345
6	0x3d8eadb9	0.06966729
7	0x3d915d19	0.07097835
8	0xbc8363b4	-0.016038753
9	0xbd37b688	-0.04485181
10	0xbd55e5b2	-0.052221008
11	0x3d9523f5	0.07282249
12	0x3d062bd2	0.032756634
13	0x3ba065b0	0.0048949346
14	0xbd0c8e90	-0.034315646
15	0x3d355bb2	0.0442769
16	0xbd8e97ab	-0.06962522
17	0x3da80245	0.08203558
18	0x3c52e488	0.012871869
19	0x3c03a858	0.008035742
20	0xbd7cfe5c	-0.061766014
21	0xbd3f8dfa	-0.04676626
22	0x3bcf26e0	0.006321773
23	0xbca5db70	-0.020246238
24	0x3d68a0c6	0.05679395
25	0xbbc3a7c0	-0.005970925
26	0xbc3c1df0	-0.011481747
27	0x3a9cf000	0.0011973381
28	0xbcbc8a10	-0.023015052
29	0xbd35ab73	-0.04435296
30	0x3d91b9e3	0.07115533
31	0x3cd9c49c	0.026583008
32	0x3cd7d300	0.02634573
33	0xbd4b674c	-0.04965906
34	0x3d6229aa	0.055215515
35	0xbd9bcc9f	-0.07607388
36	0xbd3e2f73	-0.04643197
37	0xbda072d2	-0.078344
38	0xbdaf686e	-0.0856484
39	0x3d0df180	0.03465414
40	0xbd31cf04	-0.043410316
41	0x3d1ebe8a	0.03875593
42	0x3d90b46f	0.07065665
43	0x3d5c5ce2	0.053799517
44	0xbbbac850	-0.0057001486
45	0xbc13dab0	-0.009024307
46	0xbd0449dd	-0.032297004
47	0xbcc8e22c	-0.02452191
48	0xbce7223a	-0.028214563
49	0x3ce59600	0.028025627
50	0xbd100bba	-0.035167433
51	0x3cc59dbc	0.024123065
52	0x3c025830	0.007955596
53	0xbd8819a4	-0.066455156
54	0xbd1a99a1	-0.03774417
55	0xbda49f0b	-0.080381475
56	0x3cdd86c4	0.0270418
57	0x3c0d3150	0.008617714
58	0xbcb6eee8	-0.022330716
59	0xbd64aacc	-0.055826947
60	0xbc281d08	-0.010260828
61	0x3dae17b3	0.08500614
62	0x3d8e7c9b	0.0695736
63	0xbd324281	-0.043520454
64	0xbd367d05	-0.04455282
65	0xbd971606	-0.073772475
66	0xbd3c3c8b	-0.045956176
67	0xbd24af13	-0.040206026
68	0x3d28416a	0.04107801
69	0x3d77876a	0.060431875
70	0x3d5a0a9e	0.05323278
71	0xbbca8200	-0.006180048
72	0xbd219a66	-0.039453886
73	0xbd7df6fa	-0.062003113
74	0xbd85f2ba	-0.06540437
75	0xbc0a4f38	-0.008441739
76	0xbd936a8f	-0.07198059
77	0xbb002000	-0.0019550323
78	0xbd996ac0	-0.07491064
79	0x3c3b6e78	0.011439912
80	0x3d99912f	0.07498395
81	0xbcac4fa0	-0.021034062
82	0xbd126d03	-0.035748493
83	0xba1c3300	-0.00059585273
84	0xbce1a212	-0.027543101
85	0xbd6d0f90	-0.05787617
86	0xbda84063	-0.08215406
87	0x3d70b5d6	0.058767162
88	0xbd02c63c	-0.031927332
89	0x3c665398	0.014058016
90	0xbcf2883e	-0.029605981
91	0x3dac79cb	0.08421668
92	0xbc69f550	-0.014279678
93	0xbd154e78	-0.036451787
94	0xbce5395a	-0.027981449
95	0x3d98f2cf	0.07468187
96	0x3d6cae62	0.057783492
97	0x3c23e308	0.010002859
98	0xba8f8500	-0.0010949671
99	0xbcfa9826	-0.030590128
100	0xbc2ad0b0	-0.010425732
101	0xbda0a3e3	-0.07843759
102	0xbc94c6d4	-0.018161215
103	0x3d2e2516	0.042515837
104	0xbdb0faba	-0.08641572
105	0x3c4b4220	0.012405902
106	0x3b973b00	0.0046151876
107	0x3d7fc1aa	0.06244055
108	0xbc347768	-0.011014797
109	0x3d930d47	0.07180267
110	0xbc464580	-0.012101531
111	0x3d7c9c0a	0.061672248
112	0x3db35b1d	0.08757613
113	0xbc9d511c	-0.019203715
114	0xbcad38f8	-0.021145329
115	0xbc0dd070	-0.008655652
116	0x3d7259aa	0.05916754
117	0xbd8c9bb4	-0.068656355
118	0x3cfc8648	0.030825749
119	0x3c8c97f0	0.017162293
120	0x3d990ff3	0.07473745
121	0xbbccaf40	-0.0062464774
122	0xbcb67ba8	-0.02227576
123	0xbafb2880	-0.001916185
124	0xbc264f58	-0.010150753
125	0xbb6b1f40	-0.003587678
126	0xbd37a204	-0.044832245
127	0xbd9f7279	-0.07785506
128	0x3d14e219	0.036348436
129	0xbd4692f0	-0.048479974
130	0x3daf3b00	0.08556175
131	0xbd2f6a2a	-0.042825855
132	0x3da6be9f	0.08141827
133	0x3d4bf66b	0.04979555
134	0xbcca8600	-0.0247221
135	0x3d2c0355	0.041995365
136	0xbd120ef2	-0.035658784
137	0x3d054b57	0.032542553
138	0xbc08c9d2	-0.008348899
139	0xbd8d0341	-0.06885386
140	0x3db5152f	0.08841931
141	0xbd9f8330	-0.07788694
142	0xbcb1acba	-0.021688808
143	0xbcd6f531	-0.026239963
144	0xbd48f977	-0.049066033
145	0xbd6d3d44	-0.057919756
146	0xbd409d2b	-0.047024887
147	0xbb649cc6	-0.0034883483
148	0x3d841e7d	0.06451128
149	0xbcfe3f74	-0.031036116
150	0xbd4f5c52	-0.050625153
151	0xbce62aef	-0.028096644
152	0xbcee681c	-0.029102378
153	0x3d510d6b	0.051038187
154	0xbda95e88	-0.082699835
155	0x3dc1a560	0.09455371
156	0x3d4470f4	0.047959283
157	0x3b9856b2	0.0046490068
158	0xbd875a7d	-0.06609056
159	0xbd56493f	-0.052315947
160	0xbd864f29	-0.06558067
161	0x3c9c221f	0.019059239
162	0x3dc7724b	0.097385965
163	0x3d14b177	0.036302056
164	0xbc01e18f	-0.0079273125
165	0x3dba6c53	0.091026925
166	0x3d5e1fbe	0.05422949
167	0x3dac1a3c	0.08403441
168	0x3d9c490f	0.07631122
169	0x3db2b865	0.08726577
170	0xbd27c3f7	-0.04095837
171	0x3d958030	0.072998405
172	0xbb9170dd	-0.004438503
173	0xbd75b55f	-0.059987422
174	0x3d074406	0.033023857
175	0x3d9be6bf	0.07612371
176	0x3d303337	0.043017592
177	0xbc9474e9	-0.018122153
178	0xbd133ab8	-0.03594467
179	0x3d621ffc	0.055206284
180	0xbdb84834	-0.08998147
181	0x3c7a2914	0.015268583
182	0xbc9a7f03	-0.018859392
183	0xbc8c0713	-0.017093217
184	0x3d7e21b8	0.062043875
185	0xbbf46750	-0.007458605
186	0x3d12f8f6	0.03588196
187	0x3d572e1e	0.052534215
188	0x3d919735	0.071089186
189	0xbc480150	-0.012207344
190	0x3d1dd2c0	0.038531065
191	0x3d2283aa	0.039676346
192	0xbd6e152a	-0.058125652
193	0xbb41d377	-0.0029575506
194	0x3cec7467	0.028864099
195	0xbd52205d	-0.051300395
196	0x3daa36ef	0.08311259
197	0x3d498092	0.04919488
198	0x3d61dd16	0.055142485
199	0x3d9baae9	0.07600958
200	0xbbe0a916	-0.006856094
201	0xbcb08be6	-0.021551084
202	0x3d987434	0.07444039
203	0x3b971470	0.0046105906
204	0x3bd61570	0.0065333173
205	0x3b889220	0.00416781
206	0x3d69c6ce	0.05707436
207	0xbc96009c	-0.018310837
208	0xbc8cd62f	-0.017191974
209	0xbb735f88	-0.0037135798
210	0xbd881cb7	-0.06646102
211	0x3d6ae582	0.057347782
212	0xbd7e144a	-0.062031068
213	0x3bdabbfc	0.0066752415
214	0xbca46710	-0.020068675
215	0x3cedee02	0.029044155
216	0xbd9b73fe	-0.07590483
217	0x3da5db0c	0.080984205
218	0x3be3912b	0.0069447956
219	0x3dbe9432	0.0930561
220	0xbd112dda	-0.035444118
221	0xbcde099d	-0.027104193
222	0x3da4bc80	0.08043766
223	0x3db66045	0.08905081
224	0x3dae8d76	0.08523075
225	0xbda633ca	-0.08115347
226	0x3cac073c	0.020999543
227	0xbd84ca5e	-0.06483911
228	0xbd8330ee	-0.06405817
229	0xbd8701a0	-0.06592107
230	0x3c98140b	0.018564245
231	0x3ca97a20	0.020688117
232	0x3cfd3f17	0.030913873
233	0xbc197c5c	-0.0093680285
234	0x3cf71ce1	0.030165138
235	0xbd97a300	-0.07404137
236	0x3d2f699d	0.04282533
237	0x3cc15dc8	0.023604289
238	0xbd8337ad	-0.06407104
239	0xbd025b41	-0.031825308
240	0xbc2bba1c	-0.010481384
241	0x3d09f2d6	0.033678852
242	0x3d628edf	0.055312034
243	0x3d97db13	0.07414832
244	0xbc985604	-0.018595703
245	0x3d89e24b	0.06732615
246	0x3db673da	0.08908816
247	0x3da53a0d	0.08067713
248	0xbd695f54	-0.056975678
249	0xbc9a43f4	-0.01883123
250	0x3d50f4e9	0.051014815
251	0x3bbc0933	0.0057384013
252	0xbda68910	-0.08131611
253	0xbd770970	-0.060311735
254	0xbbcdb2b2	-0.0062774057
255	0x3d322886	0.043495677

net.6.bias f4 [256]
0	0xbcb6ee98	-0.022330567
1	0x3db46ce4	0.08809832
2	0x3ccfa919	0.025349187
3	0xbd92a653	-0.0716063
4	0x3d60f572	0.054921575
5	0x3b69b714	0.0035662102
6	0x3be28210	0.0069124773
7	0x3b3c7e63	0.0028761856
8	0xbca17339	-0.019708263
9	0x3d8bf979	0.068346925
10	0xbd6048bf	-0.054756876
11	0x3c4d656a	0.012536386
12	0x3d49b25b	0.04924236
13	0x3c433cc2	0.011916341
14	0x3d076417	0.033054437
15	0x3d871ccd	0.0659729
16	0xbd6c2396	-0.057651125
17	0x3c4ca675	0.012490858
18	0x3d9ec49f	0.07752346
19	0x3d35f0fb	0.04441927
20	0x3d8e44b7	0.069467
21	0x3d9bce0e	0.07607661
22	0xbc8a8acc	-0.016911887
23	0x3d0ec5c3	0.03485657
24	0x3c918b7a	0.017766703
25	0xbc95f3cd	-0.01830473
26	0xbcdae9ac	-0.026722752
27	0xbd36cf6c	-0.044631407
28	0xbd800752	-0.06251396
29	0x3c5280d0	0.012848094
30	0xbd820960	-0.063494444
31	0x3cc22f54	0.023704208
32	0xbd89a842	-0.06721546
33	0xbd4fd27d	-0.050737847
34	0xbd4621be	-0.048372023
35	0x3d9d823a	0.07690854
36	0x3d23b56b	0.039967936
37	0x3d51983d	0.051170576
38	0xbca02411	-0.019548448
39	0x3d9e099b	0.07716676
40	0x3c67add3	0.014140564
41	0x3d1ff4df	0.039051887
42	0x3b35fab3	0.0027767837
43	0xbda203e7	-0.079109006
44	0x3b7888e0	0.003792338
45	0x3d3caa0f	0.046060618
46	0x3a9323cd	0.001122588
47	0xbd42d2e7	-0.047564413
48	0x3da1287d	0.07869051
49	0x3d92ce87	0.07168298
50	0xbdaaeee9	-0.0834635
51	0x3ba182d9	0.0049289283
52	0x3b598348	0.0033189822
53	0x3d3d1902	0.046166427
54	0x3d98916d	0.07449613
55	0xbd7c2152	-0.061555214
56	0xbd407663	-0.046987902
57	0xbd444e93	-0.047926497
58	0xbc9a8459	-0.018861936
59	0x3d1e80fa	0.03869722
60	0x3d45d482	0.048298366
61	0xbd85620e	-0.06512843
62	0x3d3b729a	0.04576359
63	0x3c5efdac	0.013610285
64	0xbd67c6d5	-0.056586105
65	0x3ce962c5	0.02848948
66	0x3d81626b	0.063176
67	0x3d977497	0.073952846
68	0xbd7db0be	-0.061936133
69	0x3d7a279b	0.061072927
70	0x3dc86a84	0.09785941
71	0xbd8f9150	-0.07010138
72	0x3af0a897	0.001836079
73	0xbd9219d5	-0.07133833
74	0xbd96209f	-0.07330441
75	0xbcea3e40	-0.028594136
76	0xbd7937e8	-0.060844332
77	0x3dafe9a9	0.08589489
78	0x3c3b384a	0.011426995
79	0xbd8ce0ca	-0.068788126
80	0xbca7f6b8	-0.020503387
81	0x3d7de7ac	0.061988518
82	0xbbb8cfbb	-0.005639998
83	0xbd187db1	-0.037229244
84	0xbc8cc878	-0.017185435
85	0xbd9312a1	-0.071812876
86	0xbd000e03	-0.031263363
87	0x3cd7c190	0.026337415
88	0xbd67a9f6	-0.05655857
89	0x3d769f5f	0.060210582
90	0x3d39990f	0.045311984
91	0xbd4afc0d	-0.04955678
92	0x3c861045	0.01636518
93	0x3cf2c8da	0.02963679
94	0x3d8b5ac7	0.06804424
95	0xbca62963	-0.020283407
96	0xbd8fa272	-0.07013406
97	0x3cbbbc43	0.022916919
98	0xbd278f7e	-0.04090833
99	0x3d9c9044	0.07644704
100	0x3c31866a	0.0108352695
101	0xbd10f959	-0.035394046
102	0x3c941e44	0.018080838
103	0x3c29ab30	0.010355756
104	0xbd4c1153	-0.04982121
105	0x3bdc857e	0.0067297807
106	0xbd1fd7b5	-0.039024074
107	0x3d20f1ae	0.039292984
108	0x3d0f0b1e	0.03492271
109	0x3d8312f9	0.06400103
110	0x3d8e2cfc	0.06942174
111	0x3c25cbf4	0.010119427
112	0x3cd1f676	0.025630217
113	0xbda4041c	-0.08008596
114	0x3ac75240	0.0015207008
115	0xbd7c465b	-0.061590534
116	0xbd997e1b	-0.07494756
117	0x3bf96da7	0.0076119485
118	0x3c704a20	0.01466611
119	0xbcfb7ac8	-0.030698195
120	0x3d8340b4	0.064088255
121	0xbd988c44	-0.074486285
122	0xbd8167a0	-0.06318593
123	0x3c823355	0.015893618
124	0xbd37115e	-0.044694297
125	0x3d79f29b	0.061022382
126	0xbd40d599	-0.047078703
127	0x3cf44744	0.029819138
128	0x3dd9aa98	0.10628241
129	0xbd08b313	-0.033373903
130	0x3d4def75	0.050277192
131	0xbd0b3d59	-0.033994053
132	0x3c3445fd	0.011003015
133	0xbda8660c	-0.08222589
134	0x3cfa502c	0.030555807
135	0xbd28b883	-0.04119159
136	0xbbfdd295	-0.0077460506
137	0xbc8218b5	-0.015880922
138	0xbda5ce76	-0.0809602
139	0xbd065139	-0.032792304
140	0xbc116595	-0.008874317
141	0xbdb31e2c	-0.08745989
142	0xbd46d67f	-0.048544403
143	0xbd623364	-0.05522479
144	0x3d904d4a	0.07045992
145	0x3cb3b1cd	0.021935368
146	0xbd925d8a	-0.071467474
147	0xbd8342f1	-0.064092524
148	0x3d9c5098	0.076325595
149	0xbd95b954	-0.07310739
150	0xbcef004a	-0.029174943
151	0xbd4fafcb	-0.05070476
152	0x3d9f55ec	0.0778006
153	0x3dcc7056	0.09982364
154	0x3cf66d5a	0.03008144
155	0x3c21cb42	0.009875121
156	0xbc58258f	-0.013192548
157	0x3d95c9af	0.07313859
158	0x3d345e5a	0.044035293
159	0xbbd4d0c9	-0.0064946157
160	0xbcbcf4fe	-0.02306604
161	0x3d4b0193	0.04956205
162	0x3adc0f63	0.0016789254
163	0x3d7b0737	0.061286177
164	0x3bd9aa50	0.0066426173
165	0x3d37658e	0.044774584
166	0x3d5176db	0.05113874
167	0xbc9f0814	-0.019413032
168	0xbd8f76bf	-0.07005071
169	0xba8bf680	-0.0010678321
170	0xbd90f626	-0.07078199
171	0x3d34e466	0.04416313
172	0x3d304fcb	0.043044847
173	0x3c459e08	0.012061603
174	0x3d839d83	0.06426527
175	0x3dad56d8	0.0846383
176	0xbcbb5fc9	-0.022872822
177	0xbd22820c	-0.039674804
178	0xbca93af4	-0.020657994
179	0xbdb26a99	-0.08711738
180	0xbd430a7e	-0.047617428
181	0xbd519641	-0.051168684
182	0x3da14572	0.07874574
183	0xbce8331f	-0.028344689
184	0x3cd62441	0.026140334
185	0x3cb046be	0.021518108
186	0x3d1d6e08	0.038435012
187	0xbda2ccdd	-0.07949231
188	0xbd7632a5	-0.060106892
189	0x3d640133	0.055665206
190	0xbda51a89	-0.08061702
191	0xbdac5583	-0.084147476
192	0x3c65ff52	0.014037924
193	0xbda98cf4	-0.08278838
194	0xbc92fc78	-0.017942652
195	0x3d920fcf	0.071319215
196	0xbd082141	-0.03323484
197	0xbd002a57	-0.03129038
198	0x3d5f98c1	0.054589037
199	0x3d8ef4a1	0.06980253
200	0x3db38aad	0.08766685
201	0x3d98c997	0.07460325
202	0x3ba73a64	0.0051033963
203	0xbcd78e10	-0.026312858
204	0xbb142d80	-0.0022610128
205	0xbd4a82a3	-0.04944099
206	0x3d8e6ab0	0.06953943
207	0x3d7e858b	0.062139075
208	0x3d9e959f	0.07743382
209	0xbcfdd02f	-0.030983059
210	0x3b6b20d3	0.003587772
211	0x3d8fb705	0.0701733
212	0xbd9bb3e7	-0.07602673
213	0xbbbd665a	-0.0057800235
214	0xbd73b446	-0.059498094
215	0xbd34a4a4	-0.044102326
216	0xbd9fb9b4	-0.07799092
217	0xbd6b0990	-0.057382166
218	0xbb1681d0	-0.0022965558
219	0xbd408f94	-0.047011927
220	0xbd54f550	-0.05199176
221	0x3da0b0be	0.07846211
222	0xbbf50b0e	-0.0074781245
223	0x3d000c92	0.031261988
224	0xbd9a3fd8	-0.075317085
225	0x3d2350f1	0.039872114
226	0x3a3f050b	0.0007286823
227	0x3cef9f7a	0.029250849
228	0xbd392daa	-0.045209564
229	0x3c7af730	0.015317723
230	0x3ba02448	0.0048871376
231	0x3d33b850	0.043876946
232	0xbcadfe38	-0.021239385
233	0x3cc83cdc	0.024443083
234	0xbc98516e	-0.018593516
235	0xbd4bde9d	-0.049772847
236	0x3db9e5d4	0.09077039
237	0xbd049c04	-0.03237535
238	0xbd430913	-0.047616076
239	0xbbc63db5	-0.0060498365
240	0x3db48219	0.08813877
241	0xbc8ac0be	-0.01693761
242	0x3d53c5a1	0.051702145
243	0x3c2640e0	0.010147303
244	0x3d97271d	0.07380507
245	0xbda61501	-0.08109475
246	0x3b929ed2	0.0044744993
247	0x3c981d25	0.018568585
248	0xbd64fe4c	-0.05590658
249	0x3db70215	0.08935944
250	0x3dbf1462	0.093300596
251	0xbd6755e6	-0.056478404
252	0xbc8ebc81	-0.01742387
253	0xbd9b190c	-0.07573137
254	0x3d89e576	0.06733219
255	0x3da0da01	0.07854081
