model/no47_left_EHMI/p.pth (torch, 147576 bytes, 8 tensors)

net.0.weight f4 [128, 12]
0	0xbe855412	-0.26040703
1	0x3cf88eac	0.030341469
2	0x3d1889ba	0.03724072
3	0x3df67b12	0.120351925
4	0xbde71e6d	-0.112851
5	0x3e42ca71	0.19022538
6	0x3d96f8c0	0.07371664
7	0x3e4dddc2	0.20104125
8	0xbccd90cc	-0.025093459
9	0x3e201f62	0.15636972
10	0x3e6e0173	0.2324274
11	0xbdc38887	-0.09547525
12	0xbcab2096	-0.020889562
13	0xbd53f2af	-0.051745113
14	0x3de922ee	0.113836154
15	0xbdc333cd	-0.095313646
16	0xbdff7f0e	-0.12475406
17	0xbe694f55	-0.22784169
18	0xbe1d10f3	-0.15338497
19	0xbe750e8c	-0.2393133
20	0xbd59e64a	-0.053198136
21	0xbe1bbef9	-0.15209569
22	0xbdcccec2	-0.100003734
23	0xbe4f701d	-0.20257612
24	0xbe1c61a8	-0.15271628
25	0x3e3b00d1	0.1826203
26	0x3e2c9830	0.1685493
27	0xbdad78ba	-0.084702924
28	0xbdb6cabf	-0.089253895
29	0x3de5f1aa	0.112277344
30	0x3cb6cf86	0.022315752
31	0xbd811370	-0.063025355
32	0x3e17b5d5	0.14815457
33	0xbe74edd4	-0.23918849
34	0xbe6267ca	-0.22109905
35	0x3e4cd584	0.20003325
36	0xbe4dcf99	-0.20098723
37	0x3e17c7fb	0.1482238
38	0xbe10bc35	-0.14134295
39	0xbe738d1f	-0.23784302
40	0xbea6a8a6	-0.32550544
41	0xbeb1b7d6	-0.34710568
42	0x3dc1776a	0.094466045
43	0xbd0fb9d8	-0.035089344
44	0xbca08bed	-0.019597972
45	0x3d2fc2b6	0.0429103
46	0x3e5d4513	0.21608381
47	0x3e211102	0.15729144
48	0xbe9591f7	-0.29212925
49	0xbe5efcb7	-0.2177609
50	0x3e8094e7	0.25113603
51	0x3d22eea4	0.039778367
52	0x3dd18af6	0.10231583
53	0xbd9e8cf2	-0.07741727
54	0x3d8230c2	0.06356956
55	0xbe5dc1de	-0.21655986
56	0x3e5a773f	0.21334551
57	0xbe6d5af3	-0.23179226
58	0x3ce9254f	0.028460173
59	0x3e06118a	0.13092628
60	0x3e39054a	0.18068424
61	0x3e903d7b	0.28171906
62	0xbe7385f9	-0.23781575
63	0x3d962b85	0.073325194
64	0xbe3658ee	-0.17807361
65	0x3e8c663f	0.27421758
66	0x3d18ce29	0.037305985
67	0xbe84382f	-0.25824115
68	0x3e94d48a	0.29068404
69	0x3d8b13c2	0.06790878
70	0xbe279a92	-0.16367558
71	0xbdd2a329	-0.102850266
72	0xbe6587d6	-0.22415099
73	0x3e961cf3	0.29318962
74	0x3e6b423e	0.22974488
75	0xbd6840da	-0.056702472
76	0xbc85a4e4	-0.016313978
77	0x3e252865	0.1612869
78	0x3e1e27a7	0.15444814
79	0x3d111b76	0.03542658
80	0xbe8f64a3	-0.28006467
81	0xbe5ba83b	-0.21450894
82	0x3e5a2fe1	0.21307327
83	0x3d9ee778	0.07758993
84	0xbe47b7fb	-0.19503777
85	0x3d6ce376	0.05783411
86	0x3dc564c6	0.09638362
87	0xbe1cdf68	-0.15319598
88	0xbe792b3b	-0.24332897
89	0x3e77fe45	0.2421809
90	0xbd380442	-0.044925936
91	0xbe808af4	-0.25106013
92	0x3d4f34e5	0.050587554
93	0xbe77d6ce	-0.24203035
94	0xbe91c85a	-0.2847317
95	0xbe5eafe0	-0.21746778
96	0xbe98dd35	-0.29856268
97	0x3de43d85	0.111445464
98	0x3e832937	0.25617382
99	0xbdcb27df	-0.09919714
100	0xbdb5dec9	-0.088803835
101	0xbe19adda	-0.15007725
102	0xbd3b058e	-0.045659594
103	0xbe4d3e54	-0.20043308
104	0x3d8374bf	0.06418752
105	0x3deea544	0.11652616
106	0xbe3e1e63	-0.18566279
107	0x3e4eedf6	0.20207962
108	0xbe8911ca	-0.26771384
109	0x3cbd09ec	0.02307602
110	0x3db33676	0.08750622
111	0xbe630172	-0.2216852
112	0xbe1e3a9a	-0.15452042
113	0x3e5a63f0	0.21327186
114	0xbe8fbb1a	-0.28072435
115	0x3d488f8c	0.048965022
116	0xbd4a146e	-0.04933589
117	0xbe8d74a4	-0.27628052
118	0x3e33be70	0.17553115
119	0x3e0c427b	0.13697235
120	0x3d889102	0.06668283
121	0x3da687e2	0.08131386
122	0xbe58742a	-0.21138063
123	0x3d294220	0.041322827
124	0x3e340560	0.17580175
125	0xbe484e08	-0.19561017
126	0xbd70b125	-0.05876269
127	0x3e51211f	0.20422791
128	0x3e8764fb	0.2644423
129	0x3d8269c0	0.063678265
130	0x3cb06fdb	0.021537712
131	0xbe7d223a	-0.24720088
132	0x3e05a0f9	0.13049687
133	0xbe83fa74	-0.25777018
134	0xbd321370	-0.04347557
135	0x3e8c7d52	0.27439362
136	0x3e8ecd66	0.27891082
137	0x3db12a91	0.08650697
138	0x3e4747d8	0.19461
139	0x3e060cb7	0.13090788
140	0xbd8d1921	-0.068895586
141	0x3cb64570	0.022249907
142	0x3d1912dd	0.037371505
143	0x3e1d9a63	0.15390925
144	0x3c2fa6e2	0.01072094
145	0xbe36ec3d	-0.17863555
146	0x3d9ec216	0.07751863
147	0xbdb9fed3	-0.09081807
148	0xbe53977a	-0.20663252
149	0x3ddc7829	0.10765106
150	0x3e78018c	0.2421934
151	0xbe9968da	-0.29962808
152	0x3df5e10d	0.12005816
153	0x3e72efec	0.23724335
154	0x3e75a30a	0.23987976
155	0x3e94a7b9	0.29034212
156	0x3e19889a	0.14993516
157	0xbe970254	-0.29493964
158	0xbde68fc6	-0.11257891
159	0xbd7f2940	-0.0622952
160	0x395d2cc3	0.00021092877
161	0xbd2b9869	-0.041893397
162	0x3ddce20f	0.10785305
163	0x3e80a593	0.25126323
164	0xbe09e21e	-0.13465163
165	0x3d1e1f8f	0.038604315
166	0x3e1feffd	0.15618892
167	0xbe15d6bc	-0.14632696
168	0xbe85e7ce	-0.26153415
169	0xbe590240	-0.21192265
170	0xbe3e403b	-0.1857919
171	0xbcbd244a	-0.023088593
172	0xbe6100e5	-0.21972997
173	0xbdef61dc	-0.11688587
174	0xbd3ea5ec	-0.046544954
175	0x3ddfc34a	0.1092592
176	0xbe073ace	-0.13206026
177	0x3e2f6ac8	0.17130578
178	0x3e923221	0.2855387
179	0xbe490862	-0.19632104
180	0xbe5d9df2	-0.21642283
181	0x3e04c439	0.12965478
182	0x3e549e7b	0.2076358
183	0xbd1aca76	-0.037790738
184	0x3e73deeb	0.23815505
185	0x3dd33a3e	0.10313843
186	0x3d473018	0.04862985
187	0x3e26241f	0.16224717
188	0xbe115b6f	-0.14195035
189	0xbe09ccbb	-0.13457005
190	0x3e11f893	0.1425498
191	0x3e459226	0.19294032
192	0x3e77449a	0.24147263
193	0x3e486ea4	0.19573456
194	0x3e60e5a0	0.21962595
195	0x3df8a430	0.12140691
196	0x3d9b86a5	0.07594041
197	0x3d3cf0b5	0.046127994
198	0x3b05838e	0.0020372602
199	0x3e4a5e2c	0.19762486
200	0x3dd2480a	0.102676466
201	0x3dad52b2	0.084630385
202	0x3be10894	0.0068674777
203	0x3e6aa766	0.2291542
204	0xbe9e7c72	-0.3095432
205	0x3e8c92bd	0.27455702
206	0x3c410f0e	0.0117833745
207	0x3d969fd4	0.073547035
208	0x3e385ee5	0.1800495
209	0xbe87f6bc	-0.2655543
210	0x3e1139a6	0.14182147
211	0xbdd55b9d	-0.104178645
212	0x3db98305	0.09058193
213	0xbe3c0104	-0.18359762
214	0x3e037987	0.12839328
215	0x3db99071	0.09060753
216	0xbe20ba47	-0.15696059
217	0x3db06416	0.0861284
218	0x3e2f6106	0.17126855
219	0xbda29fb6	-0.07940619
220	0x3dfc9ded	0.123348095
221	0xbeafc071	-0.3432651
222	0xbe5d8522	-0.21632817
223	0x3d59f4ab	0.05321185
224	0x3e8f9d41	0.28049663
225	0x3e56ed28	0.20988905
226	0x3e5862c1	0.21131422
227	0xbe8d256d	-0.27567616
228	0x3e42e7de	0.19033763
229	0xbe7ed141	-0.24884512
230	0xbd977dd3	-0.07397046
231	0x3daf0481	0.08545781
232	0x3e7cae40	0.24675846
233	0xbe24e6dd	-0.16103692
234	0x3e53bf15	0.20678361
235	0x3d47ec2c	0.048809215
236	0xbe096ad3	-0.13419656
237	0x3e38ca76	0.18045983
238	0x3da57977	0.08079808
239	0xbe97e9d2	-0.29670578
240	0xbd9db11d	-0.07699797
241	0xbe32ab90	-0.17448258
242	0x3daa9be5	0.08330516
243	0xbe5b2100	-0.21399307
244	0xbce938e3	-0.028469509
245	0x3e3cbeee	0.18432209
246	0x3e20e78a	0.15713325
247	0xbe051593	-0.12996511
248	0x3e62ef71	0.22161652
249	0xbe244fc9	-0.1604606
250	0x3e67b3b0	0.22627139
251	0xbe01aee6	-0.12664375
252	0x3e34ddae	0.17662689
253	0x3de0df8b	0.109801374
254	0x3d121780	0.035666943
255	0xbda28f24	-0.07937458

net.0.bias f4 [128]
0	0xbda6b71e	-0.081403956
1	0x3e7b188e	0.24521086
2	0x3c19ba9d	0.009382871
3	0xbdeaaf5d	-0.11459229
4	0xbe2323b1	-0.15931584
5	0xbb785493	-0.0037892207
6	0xbd9359f1	-0.07194889
7	0xbb2e085d	-0.0026555278
8	0xbdebc40c	-0.11512002
9	0xbe485dc3	-0.19567017
10	0x3d20fce8	0.03930369
11	0x3c8d08d1	0.017216118
12	0xbe1d6a15	-0.15372498
13	0xbe7a03ba	-0.24415484
14	0x3e9491bb	0.29017434
15	0x3e937fd1	0.28808454
16	0x3d8de1ab	0.069278084
17	0x3dc112a7	0.09427386
18	0xbe03225a	-0.12806073
19	0x3e9581a0	0.2920046
20	0xbe2b810d	-0.16748448
21	0xbdcf130c	-0.10111055
22	0x3e0b3874	0.13595754
23	0xbe82eb18	-0.25569987
24	0xbe048753	-0.12942247
25	0xbde08440	-0.10962725
26	0xbe40e2b7	-0.18836485
27	0xbe5bc190	-0.21460557
28	0x3e08d53a	0.1336259
29	0x3d84b3c4	0.064796
30	0x3e2aa1ba	0.16663256
31	0x3cf8f1cd	0.030388737
32	0xbe80c1c1	-0.25147822
33	0xbe23d95f	-0.16000889
34	0xbd34cd35	-0.044141013
35	0x3da9ae9f	0.082852595
36	0x3d9a744a	0.07541712
37	0xbe54419a	-0.2072815
38	0xbc76f54c	-0.015073132
39	0xbe4e1cca	-0.2012817
40	0x3e8ce18a	0.27515823
41	0x3de18233	0.11011162
42	0xbe4eec99	-0.20207442
43	0xbd30ad81	-0.043134216
44	0xbe0852e7	-0.13312875
45	0xbd9e6caa	-0.0773557
46	0x3dcf4dfb	0.101222955
47	0x3e9b1cc6	0.3029539
48	0xbc62e759	-0.013849103
49	0x3dbf118b	0.09329518
50	0xbd3523f9	-0.04422376
51	0xbe389dd1	-0.18028952
52	0x3d3e8adc	0.046519145
53	0xbe85b48c	-0.2611431
54	0x3e7bded9	0.24596728
55	0x3db4e79c	0.088332385
56	0x3ca575f6	0.02019785
57	0xbb7d39ed	-0.0038639263
58	0xbe4fef60	-0.20306158
59	0xbce3f145	-0.027825007
60	0xbd2f37d5	-0.042777855
61	0x3e53e405	0.20692451
62	0xbe0a30bd	-0.13495155
63	0xbe80090c	-0.25006902
64	0x3e7980d4	0.2436555
65	0x3d9ff633	0.07810631
66	0xbb7dde3d	-0.00387372
67	0x3de7ef8e	0.11324988
68	0x3e636a8c	0.22208613
69	0xbe4e4f6b	-0.20147483
70	0xbe6b7c1e	-0.22996566
71	0x3d853bf6	0.06505577
72	0x3e84bd2a	0.2592557
73	0xbda1731a	-0.07883282
74	0xbda8d83e	-0.0824437
75	0xbe32cad7	-0.1746019
76	0x3dc15237	0.09439509
77	0xbe7a8ff5	-0.24468978
78	0xbd7e9f4a	-0.06216363
79	0xbe692ae1	-0.22770263
80	0x3d7959ff	0.060876843
81	0xbe1c6502	-0.15272906
82	0x3dc2ab00	0.09505272
83	0xbdcd25c8	-0.10016972
84	0x3e8a00c2	0.26953703
85	0xbccfd7c2	-0.025371436
86	0xbe09e5f4	-0.13466626
87	0xbdae5ee6	-0.08514194
88	0xbe238c9b	-0.15971605
89	0xbe0470c6	-0.12933645
90	0xbe7717b0	-0.2413013
91	0xbd34e01b	-0.044159036
92	0x3e1370f2	0.14398554
93	0x3d83aa8d	0.06429014
94	0x3d9eed4d	0.07760105
95	0x3e81b95c	0.2533673
96	0xbce6e1e1	-0.02818388
97	0x3e88469d	0.26616374
98	0xbca6c4f7	-0.020357592
99	0x3d39bbee	0.04534524
100	0x3e1441e2	0.14478257
101	0xbe4934b4	-0.19649011
102	0xbdac8321	-0.08423448
103	0x3e820a83	0.25398645
104	0x3e1bd34b	0.1521732
105	0x3e3190c5	0.17340381
106	0xbe867ff0	-0.26269484
107	0xbe4d6d75	-0.20061286
108	0xbdd42960	-0.10359454
109	0xbe0da82b	-0.13833682
110	0xbe892475	-0.26785627
111	0x3e6adb02	0.22935107
112	0xbdc04606	-0.09388356
113	0xbe43acf9	-0.19108953
114	0x3def5904	0.116869
115	0xbe1a1e6c	-0.15050668
116	0x3dad35a3	0.08457496
117	0xbd773a90	-0.060358584
118	0xbe6277c1	-0.22115995
119	0xbe655f9e	-0.22399756
120	0x3e8b16c0	0.27165794
121	0xbda90166	-0.0825222
122	0x3d992aed	0.074788906
123	0x3e0abf32	0.13549498
124	0x3e9136f0	0.28362226
125	0xbe1fe416	-0.15614352
126	0xbd0e089e	-0.034676187
127	0xbdded1ff	-0.10879897

net.2.weight f4 [256, 128]
0	0x3d47dc35	0.04879399
1	0x3c04cdba	0.00810569
2	0xbd67d2b9	-0.056597445
3	0xbc1222b2	-0.008919405
4	0xbce9c539	-0.028536426
5	0x3ccafc5b	0.024778536
6	0xbd054f53	-0.032546353
7	0x3ce734a6	0.028223347
8	0x3d9606b2	0.07325496
9	0x3d23245e	0.039829604
10	0xbd75552b	-0.059895676
11	0x3cd3fd2d	0.02587756
12	0x3b41f904	0.0029597888
13	0x3c6006c2	0.013673486
14	0x3db99518	0.090616405
15	0x3da24da9	0.07924969
16	0xbd060cca	-0.03272704
17	0xbcbb2281	-0.022843601
18	0xbd0ed60b	-0.034872096
19	0x3dccb437	0.09995311
20	0x3d90af4c	0.07064685
21	0x3d2bb21c	0.041917905
22	0x3d523416	0.051319204
23	0xbcc343c7	-0.02383603
24	0x3d18e89a	0.0373312
25	0x3cf80b9f	0.030278979
26	0x3d309b56	0.04311689
27	0xbda9e7ba	-0.082961515
28	0x3d7ac476	0.061222516
29	0xbd4bfdc2	-0.04980255
30	0x3dd60dcf	0.104518525
31	0x3dbee1ae	0.09320389
32	0x3d63304c	0.05546598
33	0xbd6947f8	-0.0569534
34	0xbc3e95cc	-0.011632394
35	0xbcfee819	-0.031116532
36	0xbd99633d	-0.07489631
37	0xbcd06c5b	-0.025442293
38	0x3d1a4726	0.03766551
39	0x3d250c70	0.040295064
40	0xbd065c29	-0.032802735
41	0x3dae5890	0.08512986
42	0xbd899788	-0.067183554
43	0xbd8ee1bc	-0.06976649
44	0xbda31920	-0.079637766
45	0xbd96ce3e	-0.07363556
46	0x3b11ef77	0.0022267976
47	0x3d0c75dd	0.03429209
48	0x3a6ec809	0.0009108787
49	0x3b06d420	0.0020573214
50	0x3d1fc3e3	0.03900517
51	0x3dcaadb7	0.09896415
52	0x3d33bf64	0.043883696
53	0xbd9bcc6f	-0.07607352
54	0xbd2cbfd7	-0.04217514
55	0xbdd2808a	-0.10278423
56	0xbd35a1b0	-0.04434365
57	0xbc858868	-0.016300395
58	0xbd9676e2	-0.07346894
59	0xbc836a59	-0.016041921
60	0x3dae1788	0.08500582
61	0xbc111be2	-0.008856745
62	0x3c5c9fe1	0.0134658525
63	0xbc39cba4	-0.011340056
64	0x3d83ab86	0.064292
65	0x3dcce823	0.10005214
66	0x3da759aa	0.08171399
67	0x3c922c7d	0.01784348
68	0xbda16cda	-0.0788209
69	0x3c2c507f	0.010517239
70	0xbcf87957	-0.030331297
71	0x3d504491	0.05084664
72	0xbd16eecb	-0.036848824
73	0xbd1b9e31	-0.03799266
74	0xbd067962	-0.032830603
75	0xbce20357	-0.027589483
76	0xbd923583	-0.07139113
77	0x3d92563f	0.071453564
78	0xbbaac038	-0.0052109025
79	0xbd0485b6	-0.03235408
80	0xbc20ba4a	-0.00981004
81	0xbd640ea6	-0.055678032
82	0x3dba1ea4	0.090878755
83	0xbc6322df	-0.013863294
84	0x3c8d3371	0.017236443
85	0xbd35141f	-0.044208642
86	0xbdb32e35	-0.08749048
87	0xbd8802d7	-0.06641167
88	0xbd0e06d9	-0.0346745
89	0x3cdfb2de	0.02730697
90	0xbd988d92	-0.074488774
91	0x3c0839b1	0.008314536
92	0x3c651906	0.013983017
93	0xbd714181	-0.05890036
94	0x3cbeda96	0.02329759
95	0x3d7d9643	0.06191088
96	0xbd845e7a	-0.064633325
97	0x3d45d00f	0.048294123
98	0x3cf33627	0.029688908
99	0xbda9ac9d	-0.082848765
100	0xbda682f3	-0.08130445
101	0x3c0e48d7	0.008684359
102	0xba8bdf79	-0.0010671458
103	0x3d8eb8da	0.069688514
104	0xbba70a55	-0.005097667
105	0x3cffd2ce	0.03122845
106	0x3a11c680	0.000556089
107	0xbd1e37e0	-0.038627505
108	0xbd16753e	-0.036732905
109	0x3ca1d496	0.01975469
110	0x3d3be891	0.04587609
111	0x3d241fd9	0.040069435
112	0xbd36a9b5	-0.04459544
113	0xbcfd5c30	-0.030927747
114	0x3c4e7578	0.012601249
115	0x3c85b6eb	0.016322574
116	0xbcbdca63	-0.023167795
117	0xbd2cdd71	-0.04220337
118	0xbc9ee967	-0.019398404
119	0x3d3132a1	0.043261174
120	0x3d80b581	0.06284619
121	0xbc0ac5c8	-0.008470006
122	0x3d9ffc2e	0.07811771
123	0xbcb2b5c4	-0.021815188
124	0x3dcd5bca	0.10027273
125	0xbd74852c	-0.059697315
126	0x3d3e2015	0.046417315
127	0x3dbf3f85	0.09338287
128	0x3c9eb2c5	0.019372353
129	0xbc4fe169	-0.012688019
130	0x3ce1bf6f	0.027557103
131	0xbd9b1182	-0.07571699
132	0x3b5e9fe0	0.0033969805
133	0x3d5b35c3	0.053518068
134	0x3d16e352	0.036837883
135	0x3d5b7210	0.053575575
136	0xbb9f3300	-0.0048583746
137	0xbcc1838d	-0.023622299
138	0x3d0b4c82	0.03400851
139	0xbd4bca20	-0.04975331
140	0xbd6b4bd7	-0.057445373
141	0xbc6531da	-0.013988936
142	0xbcca851c	-0.024721675
143	0x3c0adbbc	0.00847524
144	0xbd4c0143	-0.04980589
145	0xbd9f439b	-0.077765666
146	0xbd08adc0	-0.033368826
147	0xbd2f9fd5	-0.042877037
148	0x3d836ad2	0.06416859
149	0x3d47a47e	0.048740856
150	0x3d38cda6	0.045117997
151	0xbc60ac35	-0.013712932
152	0x3b1566c0	0.002279684
153	0xbd413a07	-0.04717448
154	0x3dab82ca	0.083745554
155	0xbd113259	-0.035448406
156	0x3da5f071	0.08102501
157	0x3cdaeb1c	0.026723437
158	0xbcb3f3b4	-0.021966793
159	0xbca9e7fe	-0.020740505
160	0xbd2a4d92	-0.041577883
161	0x3cfa7de0	0.0305776
162	0xbdadd896	-0.08488576
163	0x3d7ad0c7	0.06123426
164	0xbd3a7280	-0.045519352
165	0x3dae6280	0.08514881
166	0x3db3071f	0.087415926
167	0x3d23b219	0.03996477
168	0x3cb6effe	0.022331234
169	0xbcefe4cd	-0.029283905
170	0xbd18dc07	-0.03731921
171	0xbdb2e158	-0.08734387
172	0xbb42e114	-0.0029736208
173	0x3a989df2	0.0011643751
174	0x3cd78c88	0.026312128
175	0x3c0f2d94	0.008738894
176	0xbccba4dc	-0.024858885
177	0xbdb38c25	-0.08766965
178	0xbd52c274	-0.051454976
179	0xbdad7421	-0.084694155
180	0xbcfe1a47	-0.03101839
181	0x3c18c320	0.009323865
182	0xbcff4bbd	-0.031164045
183	0xbcfd3aba	-0.030911792
184	0xbdaf3ccf	-0.0855652
185	0xbd9297b0	-0.07157838
186	0xbc3b3108	-0.011425264
187	0x3d585b9a	0.052821733
188	0xbd801615	-0.06254212
189	0xbd8a41d7	-0.06750839
190	0xbd489b19	-0.048976038
191	0xbd84e77e	-0.06489466
192	0x3c859153	0.016304648
193	0xbd9add35	-0.07561723
194	0xbd3df710	-0.046378195
195	0xbd98f284	-0.07468131
196	0x3daced66	0.08443718
197	0x3a210400	0.00061422586
198	0xbce3815c	-0.027771644
199	0xbda21217	-0.079136066
200	0xbb72463b	-0.003696813
201	0xbd909952	-0.070604935
202	0x3a7ff700	0.0009764284
203	0x3d16d818	0.036827177
204	0xbcf5d79a	-0.030010033
205	0x3d39b542	0.045338877
206	0x3ce34e60	0.027747333
207	0xbcbd4de4	-0.02310843
208	0xbd541489	-0.051777396
209	0x3d874a05	0.06605915
210	0x3d9411d5	0.07229964
211	0xbd061ba0	-0.03274119
212	0xbdb2e82c	-0.087356895
213	0xbd30cbf6	-0.043163262
214	0x3cb98cc4	0.02265013
215	0x3da58571	0.080820926
216	0x3d80cb29	0.0628875
217	0x3cffcfa8	0.031226948
218	0x3d2c9d3a	0.04214213
219	0x3c6e34f0	0.0145389885
220	0xbd51e8e9	-0.05124751
221	0xbcfb03f0	-0.030641526
222	0x3c7ba67c	0.015359517
223	0x3cbcd052	0.023048554
224	0x3c4381c4	0.011932794
225	0x3da78c28	0.081810296
226	0xbd932768	-0.071852505
227	0x3d99808a	0.0749522
228	0xbd62682e	-0.055275135
229	0x3d8f7115	0.070039906
230	0x3d5c0a0a	0.05372051
231	0x3b25c20c	0.0025292663
232	0xbd629895	-0.055321295
233	0xbdaec5dc	-0.085338324
234	0x3b0f9ae0	0.002191238
235	0x3d9575a7	0.07297831
236	0xbd47a026	-0.048736714
237	0x3d72e073	0.059296083
238	0x3d40f93e	0.047112696
239	0xbd5b30e1	-0.05351341
240	0xbd23c0b9	-0.039978717
241	0xbd681dfb	-0.056669217
242	0x3d8b677e	0.06806849
243	0x3c9cac8d	0.019125247
244	0x3b80782e	0.0039205765
245	0xbd2ceaf9	-0.042216275
246	0xbcc4baf4	-0.024014927
247	0x3ce66bd4	0.028127588
248	0xbba30c58	-0.0049758367
249	0x3cc6a35d	0.02424782
250	0x3d22a765	0.03971042
251	0xbc19eaea	-0.009394387
252	0xbd505e52	-0.0508712
253	0x3c7229ee	0.014780505
254	0xbd423c84	-0.047420993
255	0xbd6750a5	-0.056473393

net.2.bias f4 [256]
0	0xb979b2c5	-0.00023813087
1	0x3d49c4e4	0.049260035
2	0xbd2fdb13	-0.042933535
3	0x3db4555f	0.08805346
4	0x3d4839f8	0.04888341
5	0x3d459626	0.048238896
6	0x3d0f12a1	0.034929875
7	0xbcf865d2	-0.03032199
8	0xbc8261d0	-0.015915781
9	0x3db6915f	0.08914446
10	0xbd8756dc	-0.06608364
11	0x3d6e5348	0.058184892
12	0xbbf1434e	-0.0073627597
13	0x3d827d09	0.06371505
14	0x3d157c45	0.036495466
15	0x3d46c0a0	0.048523545
16	0x3d0970c4	0.033554807
17	0x3ccb5d7b	0.024824848
18	0x3d2aad0d	0.04166894
19	0x3caf8f72	0.021430705
20	0xbd91fca6	-0.07128267
21	0xbc6d0a1e	-0.014467744
22	0x3d3e4db3	0.04646082
23	0x3d7013bb	0.058612566
24	0x3cd18ad2	0.02557889
25	0xbd13aadd	-0.03605162
26	0xbd7e5f89	-0.06210283
27	0x3d9e75d5	0.077373184
28	0xbdaada29	-0.08342392
29	0x3dad21f5	0.084537424
30	0x3d00c5b7	0.031438556
31	0x3c8c2a6b	0.01711007
32	0x3c7a4b32	0.015276717
33	0xbd852dcd	-0.065028764
34	0x3d03d089	0.032181296
35	0x3c4658f7	0.012106172
36	0x3be6f66e	0.0070484197
37	0x3d1633f0	0.036670625
38	0xbd463875	-0.048393685
39	0xbd628f44	-0.05531241
40	0x3d6298ac	0.05532138
41	0x3a7fc9e7	0.0009757564
42	0x3d89e3b5	0.06732885
43	0x3cd246fd	0.025668615
44	0x3d50c4af	0.050968822
45	0x3dcc8115	0.09985558
46	0x3cca23c5	0.02467526
47	0x3bf8c447	0.0075917575
48	0xbd92062f	-0.07130086
49	0xbda41163	-0.08011129
50	0xbc038e44	-0.008029524
51	0x3d7406ff	0.059576984
52	0x3c77b2af	0.015118285
53	0x3d802529	0.06257088
54	0xbd4f86df	-0.050665732
55	0xbd77083b	-0.060310584
56	0x3cfb929e	0.030709561
57	0x3d29fe5a	0.041502334
58	0xbc66cfc2	-0.014087619
59	0x3d7ae9cb	0.06125812
60	0xbd60dd35	-0.05489846
61	0xbcc71952	-0.024304066
62	0xbd843c57	-0.064568214
63	0xbd7cf649	-0.061758313
64	0x3da16cee	0.07882105
65	0x3cbe922f	0.023263065
66	0x3d05a653	0.032629322
67	0xbca49777	-0.020091755
68	0xbd3dfe62	-0.046385176
69	0x3d58a5a3	0.05289234
70	0xbcb10a49	-0.02161135
71	0x3d00c529	0.031438027
72	0xbdb4dd7b	-0.088313065
73	0x3d917321	0.07102037
74	0x3ce2ccea	0.027685601
75	0xbc382276	-0.011238685
76	0x3da7e8f2	0.08198728
77	0xbcf206b1	-0.029544206
78	0x3ce63445	0.028101096
79	0xbd16ff11	-0.036864344
80	0x3ba19c00	0.0049319267
81	0x3cf70f38	0.030158624
82	0xbd591ac1	-0.05300403
83	0x3d248b27	0.04017177
84	0x3bd7b8ec	0.0065833237
85	0xbd486e22	-0.048933156
86	0xbd4e25e1	-0.050329093
87	0xbd7c0061	-0.0615238
88	0x3dacf842	0.08445789
89	0xbdaacb57	-0.08339565
90	0xbccd53d2	-0.025064383
91	0x3c608507	0.013703591
92	0x3db50c92	0.08840288
93	0xbd90acaa	-0.07064183
94	0x3d62e6c3	0.055395853
95	0xba87f997	-0.0010374066
96	0x3dadf5f3	0.08494177
97	0xbd8f2dd8	-0.06991166
98	0xbd2baab2	-0.041910835
99	0x3dc14a4e	0.094380006
100	0x3cb462ab	0.022019705
101	0xbdb193fb	-0.08670803
102	0x3d1c7d45	0.038205404
103	0x3d4aa9c8	0.049478322
104	0xbcff6ed4	-0.031180777
105	0x3d11f78e	0.035636477
106	0x3d643140	0.05571103
107	0xbd421730	-0.047385395
108	0x3d86d053	0.065827034
109	0x3d7c799d	0.061639417
110	0xbda25681	-0.079266556
111	0xbccb3a1d	-0.024807984
112	0x3db78c94	0.0896236
113	0x3d9caafd	0.07649801
114	0xbc91a6bd	-0.017779702
115	0x3ceeb70a	0.029140014
116	0xbd92dc2d	-0.071709014
117	0xbd181280	-0.037127018
118	0xbc75ab2c	-0.014994424
119	0x3c2a5e8c	0.010398518
120	0xbcc069a8	-0.02348788
121	0x3cbc6b2a	0.023000319
122	0xbd9b5547	-0.07584625
123	0x3dbac5f5	0.091197886
124	0x3ccb0033	0.024780368
125	0x3d6d233e	0.057894938
126	0x3bd8cca7	0.0066161933
127	0x3d7d7617	0.061880197
128	0xbd327d29	-0.043576393
129	0x3d4eb3d4	0.050464466
130	0x3da118a5	0.07866029
131	0x3d9566e7	0.07295018
132	0xbc4437e8	-0.01197622
133	0x3dc57778	0.096419275
134	0xbd8cad63	-0.068690084
135	0x3d2c1522	0.04201234
136	0xbd237845	-0.03990962
137	0x3d12d3f0	0.03584665
138	0x3d8cf000	0.06881714
139	0xbb88beb9	-0.0041731265
140	0xbd3e82cf	-0.046511468
141	0xbc9e1d31	-0.019301029
142	0xbd8a2f15	-0.067472614
143	0xbd3aa8ab	-0.04557101
144	0x3c9aa5a2	0.018877808
145	0x3d9da058	0.07696599
146	0x3d3bc736	0.04584428
147	0x3d9668bb	0.073441945
148	0xbd5d321d	-0.05400287
149	0xbcbdbd38	-0.023161516
150	0x3d840b13	0.06447425
151	0xbbbd85f1	-0.0057837893
152	0x3d5fa1c4	0.05459763
153	0xbc876371	-0.01652691
154	0x3ca1e3e8	0.019761994
155	0x3d5b8800	0.053596497
156	0xbdb3ffd5	-0.087890305
157	0x3c68ded2	0.014213281
158	0x3bd12b63	0.006383346
159	0x3cd29235	0.025704483
160	0xbd9b0333	-0.075689696
161	0x3c3817fa	0.011236185
162	0x3d444434	0.047916606
163	0xbd1047e2	-0.035224803
164	0xbd569268	-0.052385718
165	0xbd7085d1	-0.058721367
166	0x3da230f7	0.079194956
167	0x3d972ac0	0.07381201
168	0xbc92bc7a	-0.017912138
169	0x3d86fadb	0.06590816
170	0x3d57763f	0.052603003
171	0xbd890170	-0.06689727
172	0x3d5a90c7	0.053360727
173	0xbd0e4200	-0.03473091
174	0x3d88081e	0.06642173
175	0x3d2e1552	0.0425008
176	0xbd49896c	-0.04920332
177	0x3d56cc33	0.052440833
178	0x3d687c51	0.056759182
179	0x3d9c6acd	0.07637558
180	0x3d9066cc	0.07050857
181	0xbd4a5154	-0.049393967
182	0xbd3bf4c2	-0.045887716
183	0x3d57e808	0.052711517
184	0x3d550e41	0.052015547
185	0xbd8e2059	-0.069397636
186	0x3d111d2e	0.03542822
187	0xbd8a63ec	-0.0675734
188	0x3c95bf38	0.018279657
189	0x3dbe9064	0.09304884
190	0xbc21cebb	-0.009875949
191	0x3cb8948d	0.022531772
192	0x3d2236a6	0.039602898
193	0x3c971c6d	0.018446172
194	0xbd8c1c30	-0.06841314
195	0xbc8d5e97	-0.017257018
196	0xbdb47d04	-0.08812907
197	0xbbf023fa	-0.0073285075
198	0x3d9cd8f4	0.07658568
199	0xbd2166ab	-0.039404552
200	0xbd83918f	-0.064242475
201	0x3d7234c3	0.05913235
202	0xbccf289f	-0.025287924
203	0xbd42528d	-0.047442008
204	0x3d587fe6	0.05285635
205	0x3d0f828e	0.035036616
206	0x3c4b564f	0.012410714
207	0x3d9b61a3	0.07586982
208	0x3daf45cc	0.085582346
209	0x3daff3aa	0.08591397
210	0xbcf82949	-0.030293124
211	0x3d1f1b50	0.038844407
212	0x3cbca8cd	0.02302971
213	0x3b8de00e	0.004329688
214	0x3d4b0475	0.049564797
215	0x3d8901f3	0.06689825
216	0x3d9973a7	0.07492762
217	0x3c9aacba	0.01888119
218	0xbd0f9c0e	-0.035060935
219	0xbdbb0f1e	-0.09133743
220	0x3d13e4af	0.03610676
221	0x3cd6d95a	0.026226688
222	0xbb3597e5	-0.0027708944
223	0xbc09f588	-0.008420356
224	0x3b5a4402	0.0033304696
225	0x3ccbceb9	0.024878846
226	0x3daf36e2	0.0855539
227	0x3c549fbc	0.012977537
228	0xbd7e0314	-0.062014654
229	0x3c91a243	0.017777568
230	0xbc070d17	-0.008242867
231	0x3d01113b	0.031510573
232	0xbd683415	-0.056690294
233	0x3c7e6d9a	0.015529061
234	0xbcea374b	-0.028590819
235	0x3d457aba	0.048212744
236	0x3c4d5e6e	0.012534721
237	0xbccb9ad2	-0.024854098
238	0xbd07c47f	-0.033146378
239	0xbd0effc6	-0.034911893
240	0xbda228f6	-0.07917969
241	0x3c63f84d	0.01391418
242	0x3bcbb1c4	0.0062162597
243	0xbd589290	-0.052874148
244	0x3cbe40c5	0.023224244
245	0xbd03a224	-0.03213705
246	0x3dc2fabd	0.09520481
247	0x3d5fdfb3	0.054656696
248	0x3d37e82a	0.044899143
249	0x3d916b50	0.07100546
250	0x3caa84a3	0.0208152
251	0xbdaf1cf4	-0.08550444
252	0xbd5b72b2	-0.05357618
253	0xbd5ebdff	-0.054380413
254	0x3c229a09	0.00992442
255	0xbd1dd852	-0.038536377

μ.weight f4 [3, 256]
0	0xbd69f21c	-0.05711566
1	0x3b1459f7	0.002263663
2	0xbc7996a0	-0.015233666
3	0x3c8f0cb4	0.017462112
4	0x3d654825	0.055977006
5	0x3cf9750b	0.030451318
6	0xbd48c303	-0.049014103
7	0xbd33691f	-0.043801423
8	0x3d139ec6	0.03604009
9	0x3d50ba4f	0.050958928
10	0xbd795b78	-0.060878247
11	0x3d739e95	0.059477407
12	0x3da8918c	0.08230886
13	0xbc184d9f	-0.00929585
14	0x3da07127	0.07834082
15	0x3cc084f5	0.023500899
16	0xbd0b23ee	-0.033969812
17	0xbd505eb4	-0.050871566
18	0x3b9cb898	0.0047827475
19	0xbce6db26	-0.02818067
20	0x3d9d5588	0.076823294
21	0x3d566a12	0.05234725
22	0x3d5537b2	0.05205507
23	0x3d002889	0.031288657
24	0xbd23f45f	-0.040027972
25	0x3d393134	0.04521294
26	0xbd44ece9	-0.048077498
27	0x3cf00121	0.029297413
28	0x3a694014	0.0008897793
29	0x3cffe970	0.031239241
30	0xbd3d4d7c	-0.046216473
31	0x3d285221	0.04109395
32	0x3d649e04	0.055814758
33	0xbb955274	-0.0045569483
34	0xbc8f4ac8	-0.017491713
35	0x3caee6ca	0.021350283
36	0x3d0c9568	0.034322172
37	0xbd0e614d	-0.034760762
38	0x3c9d98d8	0.01923792
39	0xba60076f	-0.00085460296
40	0xbd82af5f	-0.06381106
41	0xbbdf334d	-0.0068115355
42	0x3c875ebc	0.016524665
43	0xbd612642	-0.054968126
44	0xbd26e999	-0.04075012
45	0x3da025fc	0.07819745
46	0x3d262d88	0.040570766
47	0xbd63950e	-0.05556207
48	0xbcec4c4f	-0.02884498
49	0xbd27ce54	-0.040968254
50	0xbd7706d2	-0.06030924
51	0xbc9e33e7	-0.019311858
52	0x3d026b37	0.03184053
53	0xbd43cf57	-0.047805157
54	0xbd8d8157	-0.06909435
55	0x3c699628	0.014256991
56	0x3d9ac719	0.07557506
57	0x3d4320cd	0.047638703
58	0x3d1e0deb	0.038587492
59	0x3d4fa9dc	0.0506991
60	0xbd07477c	-0.033027157
61	0x3d545ea4	0.05184807
62	0x3d7f2e7b	0.062300187
63	0xbd62e27a	-0.055391766
64	0xbd6391c6	-0.055558942
65	0xbd344c58	-0.04401812
66	0x3d9706f1	0.07374371
67	0xbd79470b	-0.060858767
68	0xbd90ed56	-0.07076518
69	0xbd4e7f89	-0.050414596
70	0x3d7b66ef	0.061377462
71	0xbd7c6ae3	-0.061625373
72	0xbcf27cce	-0.029600527
73	0x3d7578a3	0.0599295
74	0xbd2970c0	-0.041367292
75	0xbc3d7eda	-0.011565888
76	0x3daa6d30	0.08321607
77	0x3c8753ce	0.016519453
78	0x3d475e61	0.04867399
79	0x3d2228ab	0.039589565
80	0xbd95bb19	-0.07311077
81	0x3d7a6839	0.06113455
82	0x3cb786b5	0.0224031
83	0x3d290141	0.04126096
84	0xbd60b232	-0.05485744
85	0xbcd89959	-0.02644031
86	0x3d4d3afe	0.050105087
87	0x3d24943c	0.04018043
88	0x3d036017	0.03207406
89	0xbd6d75e0	-0.057973742
90	0xbce1a2c8	-0.02754344
91	0x3d6c8060	0.057739615
92	0xbd9cdf35	-0.07659761
93	0xbd58348c	-0.052784488
94	0x3d605af1	0.05477423
95	0x3d80620b	0.062687
96	0xbda25d2f	-0.079279296
97	0xbc48c9f9	-0.012255185
98	0xbd79e2b8	-0.06100723
99	0xbc9c9091	-0.019111903
100	0x3ce04e63	0.027381128
101	0x3c8b42e9	0.016999679
102	0xbc6b41c0	-0.014358938
103	0xbd4dd720	-0.050253987
104	0x3cc9c99c	0.024632268
105	0x3d9be596	0.076121494
106	0xbd2ed2d1	-0.04268152
107	0x3d590531	0.052983467
108	0x3d8193c0	0.06327009
109	0x3d063b6e	0.03277152
110	0xbc9e478b	-0.019321224
111	0xbd1d6b0f	-0.038432177
112	0xbd5f0b13	-0.05445392
113	0xbd034493	-0.03204782
114	0x3ba79b62	0.0051149586
115	0x3989c23a	0.00026275386
116	0x3cfa84b1	0.03058085
117	0x3b11d942	0.002225474
118	0x3d122dad	0.03568809
119	0x3d8d8165	0.06909446
120	0xbd05ccda	-0.032666065
121	0xbc66b708	-0.014081724
122	0x3d85627c	0.06512925
123	0xbd516564	-0.051122084
124	0xbce56cab	-0.028005918
125	0x3d7840c8	0.060608655
126	0x3b9a1715	0.0047024586
127	0xbd42dc1c	-0.047573194
128	0xbb37a5b3	-0.0028022348
129	0x3ce020e5	0.027359435
130	0x3bade02f	0.005306266
131	0x3cc7cc9f	0.024389563
132	0xbd30b0b0	-0.043137252
133	0xbcdc8f32	-0.02692375
134	0x3cb4fd16	0.022093337
135	0x3c56a201	0.013100148
136	0xbcfc0cf3	-0.030767893
137	0xbd49eadc	-0.049296245
138	0xbc8c2838	-0.017109022
139	0x3d063abb	0.032770853
140	0x3cb7c19b	0.022431185
141	0x3ceacc12	0.028661761
142	0xbcc128ef	-0.023579089
143	0x3d6c48e8	0.057686716
144	0x3bf54f2b	0.007486244
145	0xba23712f	-0.0006234822
146	0x3d14e0e3	0.03634728
147	0xbd04aaf4	-0.032389596
148	0x3d62a314	0.055331305
149	0xbcaab420	-0.020837843
150	0x3c5237a8	0.012830652
151	0x3d243c3d	0.04009651
152	0xbd352cea	-0.044232287
153	0xbc66fbb8	-0.0140981
154	0x3cfbf9a1	0.03075868
155	0xbd9173e4	-0.071021825
156	0x3c7c062e	0.015382333
157	0x3d02219b	0.03177033
158	0xbbec6ad6	-0.0072148843
159	0x3c413cf3	0.011794317
160	0xbd4cb5a5	-0.049977917
161	0xbca776e5	-0.020442436
162	0x3c009dc2	0.007850112
163	0xbd70f804	-0.058830276
164	0x3d749fec	0.059722826
165	0x3d2bbce8	0.041928202
166	0x3d2fb193	0.042893957
167	0x3d5eba1c	0.054376706
168	0x3d9c060b	0.0761834
169	0xbcfff1cb	-0.031243226
170	0x3cc75dee	0.024336781
171	0xbd37f596	-0.044911943
172	0xbd0279bb	-0.031854372
173	0x3d0bf17e	0.03416585
174	0xbd30ed00	-0.04319477
175	0xbc24c211	-0.010056035
176	0xbd85406d	-0.06506429
177	0xbd55f056	-0.052231155
178	0x3d0138e9	0.031548414
179	0xbc420db1	-0.011844085
180	0xbd9027ef	-0.07038867
181	0x39e29400	0.00043216348
182	0x3d2e563a	0.0425627
183	0x3d2b8aed	0.041880537
184	0xbce4c325	-0.027925083
185	0x3c2d8b94	0.01059236
186	0xbcde85fe	-0.027163502
187	0xbcd00113	-0.025391137
188	0xbd420621	-0.047369126
189	0x3c876863	0.016529268
190	0xbb47064c	-0.0030368743
191	0xbc34518f	-0.011005773
192	0xbcd4bf0b	-0.025970003
193	0xbd191a6d	-0.037378717
194	0xbd1e6fe3	-0.038680922
195	0x3d8ffd03	0.0703068
196	0x3d0d3034	0.0344698
197	0x3cf67321	0.030084195
198	0xbbed3ac9	-0.0072396738
199	0x3da3e28e	0.08002196
200	0x3b998205	0.004684689
201	0x3d12b596	0.035817705
202	0x3d6464be	0.055760138
203	0x3cb98bae	0.022649612
204	0x3cdff10e	0.027336624
205	0x3c4cfae9	0.0125109935
206	0xbd0954f5	-0.033528287
207	0x3d110a14	0.035410002
208	0xbd56d8d3	-0.052452873
209	0x3d7f1269	0.062273417
210	0xbc3e64a9	-0.011620679
211	0x3d1c55c9	0.03816775
212	0x3d9e9b66	0.07744484
213	0x3d5f5afb	0.054530125
214	0xbd508c97	-0.050915327
215	0x3d826ba6	0.063681886
216	0xbd1ffc6e	-0.039059095
217	0xbd0bfc3f	-0.034176107
218	0xbb2eed1b	-0.002669162
219	0xbd290f6e	-0.04127448
220	0x3c9137d6	0.01772682
221	0xbd335faa	-0.043792404
222	0x3c34bec7	0.011031813
223	0xbc9c3d4e	-0.019072201
224	0xbd037e6b	-0.032102983
225	0x3cbc2d0e	0.022970702
226	0xbd70c551	-0.058781926
227	0xbc4e53a3	-0.012593183
228	0x3d9b4087	0.07580667
229	0x3d8bdd7e	0.06829356
230	0x3c22233d	0.009896097
231	0xbd817ea5	-0.06322984
232	0xbd3e512f	-0.04646414
233	0xbc8a2a02	-0.016865734
234	0x3c95858d	0.018252159
235	0x3ca1bd95	0.01974372
236	0xbd04d039	-0.03242514
237	0x3d4f654d	0.050633717
238	0x3d94563e	0.07243012
239	0xbb89b156	-0.0042020483
240	0xbd643b94	-0.05572088
241	0x3b9375d5	0.0045001307
242	0xbd0af7c7	-0.033927705
243	0xbc7bdc3e	-0.015372334
244	0xbc6cc9d8	-0.01445242
245	0x3d6038ac	0.054741547
246	0x3c430c84	0.011904839
247	0x3d2d1856	0.042259537
248	0xbbdd8450	-0.0067601576
249	0x3d7cf095	0.061752874
250	0xbccd4f25	-0.025062153
251	0xbd62a5a1	-0.055333737
252	0xbc9e9024	-0.019355841
253	0xbd5dcb42	-0.05414892
254	0xbd52bd17	-0.05144986
255	0xbd9c590e	-0.07634173

μ.bias f4 [3]
0	0x3d30281d	0.043007005
1	0xbd269f52	-0.040679283
2	0x3ce5d93b	0.028057685

σ.weight f4 [3, 256]
0	0xbd37a293	-0.044832777
1	0x3d4f29b7	0.05057689
2	0x3d0c0db6	0.034192763
3	0xbd6d634b	-0.05795602
4	0x3d4ddd1d	0.0502597
5	0x3b42ccf4	0.0029724212
6	0x3d7c2aca	0.061564244
7	0xbd263382	-0.040576465
8	0x3d1bc235	0.038027007
9	0x3cca11f7	0.02466677
10	0xbc066068	-0.008201696
11	0xbcc0acbd	-0.023519868
12	0xbd03b458	-0.03215441
13	0xbd4f1e67	-0.050566103
14	0x3c91bdcf	0.017790703
15	0xbd5e862e	-0.054327182
16	0x3d1919e5	0.03737821
17	0xbd5e3a38	-0.05425474
18	0xbd082b16	-0.033244215
19	0xbaaccca6	-0.0013183549
20	0xbd35341f	-0.04423916
21	0x3c08bcb9	0.008345776
22	0xbcddfa7b	-0.027096977
23	0x3c82ab2d	0.015950764
24	0x3c9cdbec	0.019147836
25	0xbcf1c212	-0.029511485
26	0x3d805bc2	0.062675014
27	0x3d10d000	0.035354614
28	0xbc5688bf	-0.013094126
29	0xbcfeef69	-0.031120019
30	0xbbbca38c	-0.005756801
31	0x3be5dc84	0.007014813
32	0xbd57d207	-0.052690532
33	0xbc91848b	-0.017763397
34	0xbd3d30f7	-0.046189275
35	0x3c9bb218	0.01900582
36	0x3d6de822	0.058082707
37	0xbc768409	-0.015046128
38	0xbd4f0240	-0.050539255
39	0x3c8b514f	0.017006544
40	0x3c6b6174	0.014366496
41	0xbc4a77ba	-0.012357647
42	0x3cc0fa21	0.02355677
43	0xbcf9410e	-0.030426528
44	0x3c7de284	0.0154959
45	0xbcc3cd21	-0.023901524
46	0xbd32a824	-0.043617383
47	0x3cce692a	0.02519663
48	0xbc85d0fa	-0.016335
49	0xbd048093	-0.03234918
50	0xbc415543	-0.011800113
51	0x3c0298ff	0.007971047
52	0x3d2246d4	0.03961833
53	0x3d170519	0.036870096
54	0x3c9cbc1d	0.019132668
55	0x3d3b3d79	0.04571292
56	0xbca500b6	-0.02014194
57	0x3d4bb174	0.04972978
58	0xbcd2a762	-0.02571458
59	0xbd577a37	-0.052606788
60	0xbc2a4e30	-0.010394618
61	0xbd490289	-0.049074683
62	0x3d155d18	0.036465734
63	0x3cfd3b0c	0.030911945
64	0xbd518484	-0.051151767
65	0x3b5688cd	0.0032735348
66	0x3d4be850	0.049782097
67	0xbd36a3c6	-0.04458978
68	0x3d75f550	0.0600484
69	0xbd20b5b1	-0.039235774
70	0xbd4dcd38	-0.05024454
71	0x3d6cc252	0.057802506
72	0xbd35341a	-0.04423914
73	0xbcb5901a	-0.02216344
74	0xbbe7b457	-0.0070710587
75	0xbd721706	-0.059103988
76	0x3d4c53ba	0.049884535
77	0xbd0c6c0d	-0.034282733
78	0xbd06b231	-0.03288478
79	0xbc8ed7ac	-0.017436825
80	0x3ab51938	0.001381672
81	0xbc1688aa	-0.009187857
82	0x3d0f7d6f	0.035031732
83	0xbd3065ae	-0.04306572
84	0x3d02bdeb	0.0319194
85	0xbcb7eab3	-0.02245078
86	0x3cc47ac7	0.023984326
87	0xbd3a77f5	-0.045524556
88	0xbc01e9ce	-0.007929279
89	0x3d9c76aa	0.07639821
90	0x3c9a12cf	0.018807797
91	0xbd54143c	-0.05177711
92	0xbc07819b	-0.008270646
93	0x3d8e9c1d	0.0696337
94	0xbd773d49	-0.06036118
95	0xbd3fb1cd	-0.046800423
96	0x3c857d0c	0.016294979
97	0xbcdba5e9	-0.02681251
98	0xbd385356	-0.04500135
99	0xbd0fbf66	-0.03509464
100	0xbd163646	-0.036672853
101	0x3d775e81	0.06039286
102	0xbd0893b5	-0.03334399
103	0xbcf6dde7	-0.030135108
104	0xbc616c26	-0.013758695
105	0x3d414707	0.047186878
106	0x3d721463	0.059101474
107	0xbd4beabf	-0.04978442
108	0xbd863ace	-0.06554185
109	0x3d3a99a1	0.04555667
110	0xbb7b689e	-0.0038361917
111	0x3d2b9c59	0.04189715
112	0x3d609aea	0.054835238
113	0x3b95e4d5	0.004574398
114	0x3d2810c6	0.04103162
115	0xbd4d0e40	-0.050062418
116	0xbc005a3e	-0.007834015
117	0xbb2eee12	-0.0026692194
118	0xbd0b9b8e	-0.034083895
119	0x3d2ef1d0	0.04271108
120	0xbd66b3c4	-0.05632378
121	0xbd40f88a	-0.047112025
122	0xbc967386	-0.018365633
123	0x3c914ead	0.01773771
124	0xbd580260	-0.05273664
125	0x3c19d8b3	0.009390044
126	0xbc258ef5	-0.010104884
127	0xbc1180e5	-0.0088808285
128	0x3d900cac	0.07033667
129	0xbc184c30	-0.009295508
130	0xbd7ca17f	-0.061677452
131	0xbc99917c	-0.01874613
132	0x3bf739e7	0.0075447443
133	0xbd8991f0	-0.067172885
134	0x3c73368c	0.014844548
135	0x3d684f45	0.056716222
136	0x3d4772de	0.04869353
137	0x3c544b2c	0.0129573755
138	0xbd2d36e3	-0.042288672
139	0xbbdca73e	-0.006733804
140	0x3b36d0f4	0.0027895542
141	0x3c88bad0	0.016690642
142	0x3cab18e9	0.020885902
143	0xbd23fdbd	-0.040036906
144	0x3d180e93	0.037123274
145	0x3d4b5661	0.049642924
146	0xbc984cc9	-0.018591302
147	0x3d011a7c	0.031519398
148	0xbcf2984b	-0.029613635
149	0xbd68961a	-0.056783773
150	0x3b47ef17	0.00305075
151	0x3d4aa85c	0.049476966
152	0xbcd6c2f5	-0.02621601
153	0xbc468033	-0.012115526
154	0x3d6d37f1	0.057914678
155	0x3ba7d85d	0.005122228
156	0x3c169cda	0.00919267
157	0xbc079259	-0.008274638
158	0x3c82f215	0.015984574
159	0x3d56a5f8	0.052404374
160	0x3d445c59	0.047939632
161	0x3d6c67bd	0.05771612
162	0xbc723368	-0.014782764
163	0x3d52c73e	0.051459543
164	0x3cc8701c	0.02446752
165	0x3c6af0b7	0.014339617
166	0xbd4645c1	-0.048406366
167	0xbcfe4c92	-0.031042371
168	0xbd820ccf	-0.06350099
169	0x3d5289cb	0.05140094
170	0x3d4268a6	0.04746308
171	0xbb43ef24	-0.0029897178
172	0xbd33aa53	-0.043863606
173	0x3d4c74f9	0.04991624
174	0x3ca1e80b	0.019763967
175	0x3d5a5bea	0.053310312
176	0x3d430b73	0.04761834
177	0x3cee488f	0.029087333
178	0xbbce266a	-0.0062912004
179	0xbc14e5b3	-0.009087968
180	0xbc57f184	-0.01318014
181	0xba97f340	-0.001159288
182	0xbd052887	-0.032509353
183	0xbd0c5d61	-0.03426874
184	0x3d4d8126	0.050171994
185	0xbcf8dbfd	-0.030378336
186	0xbd1a95ce	-0.03774052
187	0x3cb5193d	0.022106761
188	0xbc03b7e3	-0.0080394475
189	0x3ccdaa4b	0.025105616
190	0xbd1d0819	-0.0383378
191	0x3cd02818	0.025409743
192	0xbd451345	-0.04811408
193	0x3d773fd8	0.06036362
194	0xbd8521f3	-0.06500616
195	0x3d3b15e4	0.045675173
196	0x3bf6c1b2	0.0075304145
197	0xbcd56eb4	-0.026053764
198	0xbc0a16f5	-0.008428325
199	0xbd3eb231	-0.046556655
200	0xbd57c0e2	-0.05267418
201	0x3d0b9388	0.034076244
202	0x3c28cc81	0.010302664
203	0xbd576baa	-0.05259291
204	0x3d1348b4	0.035958007
205	0xbd456ba3	-0.048198353
206	0xbcfeb53a	-0.031092275
207	0x3d4d7de2	0.05016888
208	0x3ccb6dc3	0.024832612
209	0x3d6a7eb2	0.057249732
210	0xbc14daef	-0.009085401
211	0x3cdd3aa6	0.027005505
212	0x3cab5baf	0.020917742
213	0x3d2fbdd3	0.04290564
214	0xbc63ee39	-0.013911777
215	0xbc3b5d50	-0.011435822
216	0xbcb48648	-0.022036687
217	0x3c0ebc6b	0.0087119145
218	0xbd305061	-0.043045405
219	0xbad01fcf	-0.001587862
220	0xbcc49785	-0.023998031
221	0xbd14103a	-0.036148287
222	0x3d4108c4	0.0471275
223	0x3d382367	0.044955637
224	0xbd1ef557	-0.038808193
225	0xbb090466	-0.0020907163
226	0x3d7d8f29	0.061904106
227	0xbc22bb43	-0.009932342
228	0xbd93597c	-0.07194802
229	0xbd1e681f	-0.038673516
230	0xbc1d888b	-0.009615074
231	0xbcbdc1f9	-0.023163782
232	0xbd75890a	-0.059945144
233	0xbcf08c37	-0.029363735
234	0x3cbd4ed3	0.023108875
235	0xbcfae220	-0.030625403
236	0xbd385a84	-0.045008197
237	0x3d0f372a	0.034964718
238	0xbd8fcd6c	-0.07021603
239	0xbd384e3e	-0.044996493
240	0x3d312fb8	0.0432584
241	0xbbf04d13	-0.0073334067
242	0xbd67fd3e	-0.056637995
243	0x39702995	0.00022903674
244	0xbbdcbaba	-0.0067361267
245	0xbd62184d	-0.055198956
246	0x3ab39bef	0.0013703088
247	0x3bf3ba49	0.0074379784
248	0xbd17eb62	-0.037089713
249	0xbcf7bdac	-0.03024181
250	0x3d645688	0.055746585
251	0xbcc6a8fb	-0.024250498
252	0xbc4146f8	-0.011796705
253	0xbcbeb790	-0.023280889
254	0xbd51d390	-0.051227152
255	0x3bb2cfe0	0.0054569095

σ.bias f4 [3]
0	0x3cb3ff6c	0.02197238
1	0xbd359633	-0.044332694
2	0x3cacef51	0.021110209
