runs_bakeup/p_no37.pth (torch, 148600 bytes, 8 tensors)

net.0.weight f4 [128, 18]
00000000: d8e5 403e 2a74 c1bd 89b4 163e 60d2 3ebe
00000010: c445 8bbd d969 10be 9df9 0abe d220 d83d
00000020: 43cf 70be 5f17 98bd f434 b1bd a0ac 88bc
00000030: afd4 3abd 8789 2c3e c990 e53d 9100 4a3e
00000040: de67 edbd 13fb 3ebd 3102 adbd 2fac 583e
00000050: 8837 6c3e eb83 133e 4531 05bd 10c7 59bd
00000060: db1d a93d 702c 48be c00f 8fbc d1d3 9bbd
00000070: 17ec 4abe 5756 2f3e 62b9 2fbe 58c2 2f3e
00000080: f3fa 923d 0bf8 52be 2596 1c3e cba3 2c3c
00000090: 7b35 733d 7d93 81be 5f43 83bd 8442 533e
000000a0: 5fed dbbc cbe2 963d 121f 733d a694 76be
000000b0: 6cfc 48be af22 5cbe d060 803e 493a 19be
000000c0: 0c9c 113d 87c2 87bb 172b 0dbe b270 71bd
000000d0: 5a10 2fbe 9804 61be 26eb 253d 87a2 643e
000000e0: b5a0 7d3d 4533 89bd 0e62 043e e709 ff3d
000000f0: 858a 6c3e 173c ccbd 40f8 283e 746f 54bd
00000100: 162c 33bd 7a28 343e 1bdd 49be 1fdf 48bd
00000110: fd7b fbba 63d5 5dbe 5b90 1bbc ea5c 3d3e
00000120: 0907 363e ea9e 733d 69f2 02bd 7202 173e
00000130: 2606 2dbe 674c 9fbd d57e 1abe 8118 89bd
00000140: 036f fe3d e1b1 ef3d a5d7 29be c8ed 673e
00000150: b3f0 043e 5f2d 6fbd 8e83 aabd 730b 0dbc
00000160: c23c 4f3e 9b2e 1e3d 9bfc 343e 6f24 333e
00000170: 9bd5 07be b58f 873d 8717 2f3d 36e3 a23d
00000180: 0a63 b93b c488 86bd b4c0 773e ab05 20be
00000190: b60a 5a3e 95f8 0abe f57a 323e c34a 7f3c
000001a0: 53ac 1dbd 601e 03bd ad59 353e 9e72 373d
000001b0: 9b06 6e3e 89a2 09be c86b 743d dcfd cdbd
000001c0: 03dd 16be 3a37 23be 4792 45be 31bd c4bc
000001d0: 602f a13c 406c af3d b98a 973d f950 b1bd
000001e0: 39b3 3cbe a8e8 7cbd 9845 64be a7d3 0fbe
000001f0: e9e0 293c c6d9 29be 6075 923d 69ca 393e
00000200: a9a1 24bd 3ccd c8bd d433 133d 877a 69be
00000210: c6e6 66be 8649 15be 067c b0bc ad61 fcbd
00000220: 5a8d 70be 6620 283e 49df 643e a9cc 30be
00000230: 6903 103e b7ad 023e 60fd 613e 64cc e9bd
00000240: 305f 063e e6d9 50be f357 0f3e 5e29 b43b
00000250: d8c8 99bd 267b 743d 20e2 823e 4fe6 5c3e
00000260: 0213 f53c 192a 9b3d 8f2c 173e 53d1 0f3d
00000270: a73a 11bc 2d26 47be ab6a b03c 9a72 eb3d
00000280: e943 393c 4bc9 dbbc b039 223e 6f7f 36be
00000290: 293e fcbb 25f9 d43d 2d5a 203e f0df 863c
000002a0: 0d97 ff3d 1131 cd3b 972c f1b9 34ce 4a3d
000002b0: d77c 073e 8f0c 60be 887e 7cbe 37fa 9c3d
000002c0: 8c63 50be 4643 1ebe c287 ac3d de0f 533e
000002d0: a4d0 64be b092 7e3d f7d3 09bd 5180 6f3e
000002e0: da34 01be a2aa e2bb 07e5 383d 9577 7abe
000002f0: 65c8 4ebe 7940 95bd 003d 6c3e 9b23 51be
00000300: de33 30be f220 0c3e e36c dcbd f0cf 593e
00000310: 57d9 573e 3db7 52bd 3a57 983c fc04 d8bd
00000320: 86bf 9d3d 440e 293e c600 15be 84aa 5bbd
00000330: f140 2bbe 64dc 213d a6a0 363c d763 5e3d
00000340: eb11 453e 3b71 493d 50cf f13d ffa6 e4bc
00000350: 0255 243e 35d4 143d 552a bcbc 3c80 543e
00000360: 4812 963c bcaf bf3b 5df7 423e e2a7 4e3e
00000370: 5c9a 353e a6ed 60bb a6fd 46be 7beb 55be
00000380: a223 dc3d 8d9a 093e 2a81 dd3d 1008 0bbe
00000390: 71f2 d5bd 50ff 6dbd dcc0 303e 48ff 023d
000003a0: 045c 1b3e d885 5bbe 024d 51be d1cb 68bd
000003b0: 2d86 9d3d 914b 183e 0844 3abe 1d33 7d3e
000003c0: 59b4 fcba 6a2a b8bd 071a 51be 9515 343e
000003d0: 0da7 40bd 2363 6fbe 8d32 c3bd 7cff 4ebe
000003e0: fd15 16be f937 b43d c6f1 31be 72af 61be
000003f0: 4c33 023e 7723 053d 8135 88be 29d0 603e
0.18837678 -0.09445985 0.14717306 -0.18634939 -0.06800416 -0.14102878 -0.13571782 0.10553135
-0.23516564 -0.07426333 -0.08652678 -0.016683877 -0.045612987 0.16849338 0.11209256 0.19726779
-0.11592077 -0.04662616 -0.084476836 0.21159433 0.23068058 0.14405791 -0.03251769 -0.053168356
0.082576476 -0.19548202 -0.017463565 -0.0760876 -0.19816624 0.1712278 -0.17160562 0.1716398
0.07176771 -0.20602433 0.1529165 0.010537098 0.059377175 -0.25307837 -0.064093344 0.20630842
-0.026846586 0.07367476 0.059355803 -0.24080142 -0.19627541 -0.21497606 0.25073862 -0.1496364
0.03554921 -0.0041430625 -0.13785969 -0.058945365 -0.17096081 -0.21974409 0.04050746 0.22327624
0.06192084 -0.06699232 0.1292803 0.124530606 0.23099716 -0.09972399 0.1650095 -0.051864102
-0.043743216 0.17593566 -0.19713251 -0.04904091 -0.0019186732 -0.21663432 -0.009494866 0.18492475
0.17776121 0.059477724 -0.03196946 0.14747027 -0.16896877 -0.077782445 -0.15087445 -0.06694127
0.124235176 0.117038496 -0.16586168 0.226493 0.12982444 -0.05839288 -0.08325873 -0.008608687
0.20238021 0.038618665 0.17674486 0.17494367 -0.13265078 0.06619207 0.042747047 0.07953493
0.0056575583 -0.06569055 0.24194604 -0.15627162 0.21293148 -0.13571389 0.17429717 0.015581789
-0.03849442 -0.03201139 0.1770999 0.04478704 0.23244707 -0.13440908 0.0596731 -0.100581855
-0.14732747 -0.15939036 -0.19294082 -0.024015995 0.01967591 0.08565569 0.07399506 -0.086580224
-0.18427743 -0.061745316 -0.22292173 -0.14045583 0.010368564 -0.1658698 0.07151294 0.1814362
-0.040193234 -0.0980477 0.0359381 -0.22800647 -0.2254897 -0.14578828 -0.021543514 -0.12323318
-0.23491421 0.16418609 0.22350802 -0.17265572 0.14063801 0.1276158 0.22069311 -0.114159375
0.13122249 -0.20395622 0.13998394 0.0054980954 -0.07509011 0.059687756 0.25563145 0.21572231
0.02991629 0.07576389 0.14763092 0.035111737 -0.008864081 -0.19448157 0.021535238 0.11496468
0.011307695 -0.026829382 0.15842319 -0.1782205 -0.0076978398 0.10399083 0.156594 0.016464204
0.124799825 0.0062619527 -0.00046000324 0.049513057 0.13231216 -0.2187979 -0.24657643 0.07664912
-0.20350474 -0.1545535 0.08424331 0.20611522 -0.22345215 0.06215161 -0.03364941 0.23388793
-0.12617818 -0.0069173137 0.045140292 -0.2445968 -0.20193632 -0.07287688 0.23070145 -0.20423739
-0.17207286 0.13684443 -0.10762956 0.21270728 0.21079002 -0.05144428 0.01859628 -0.10547826
0.07702546 0.16509348 -0.14551076 -0.053629413 -0.16723992 0.03951682 0.0111467 0.054294433
0.19245116 0.04918025 0.1180712 -0.027911661 0.16048053 0.03633519 -0.022969404 0.20752043
0.018319264 0.0058498066 0.19039674 0.2018123 0.17734665 -0.0034321337 -0.19432697 -0.2089061
0.10748984 0.13437863 0.10815652 -0.13577294 -0.10446633 -0.058104813 0.1726107 0.031981736
0.1517182 -0.21437776 -0.20439532 -0.056835 0.076916076 0.14872576 -0.18190014 0.2472653
-0.0019279822 -0.08992465 -0.20420085 0.17586358 -0.047034312 -0.23377661 -0.09531126 -0.20214647
-0.14656825 0.087997384 -0.17377385 -0.22039583 0.1271488 0.032504525 -0.2660332 0.21954407

net.0.bias f4 [128]
00000000: f753 6c3e dbbd 57bd ee7d ab3d e846 8abd
00000010: 9bb9 4bbd 244b 943c 82b0 823e 0d2a 2ebe
00000020: a0e5 1bbe 2dda b4bd 38eb 53be 7929 46be
00000030: 0c6c 5ebe b70a 273e 330d e73d f10e 433e
00000040: d1b8 5e3c 4dc7 75be dcd6 ad3d 758b 723e
00000050: 914b 5fbe 4eb2 36be b412 f9bd cd14 5ebe
00000060: ef65 3f3e ed40 0cbe cb1d 80bd 286d 64bd
00000070: 3fe8 993d 57e0 34be 6b3c ea3d 1f7f 153e
00000080: f4d1 d43c d15c 4cbe 17e1 a93d 7273 31be
00000090: 4ba7 363e 42cf 8cbd 4efe bb3b a973 293e
000000a0: 0e45 42be c7f0 9a3c 5f87 6a3e 4731 0f3e
000000b0: e15e f23d 35aa 67bd 98fa f63d bd4a c93d
000000c0: 2723 4a3e 99f1 683e f83f 293e 7f6b 19be
000000d0: 8f02 21be 3565 4fbb ad5d 173e 8598 2c3e
000000e0: cefc 433e d27a ff3d abd3 c83d a054 61be
000000f0: d316 493e beb3 813e d1fe 203d 42f5 30be
00000100: a0d9 e03d a440 4b3e 0ace bd3d 4529 07be
00000110: 5823 053d 352f 4cbd 4c60 e7bc 581c da3d
00000120: b0d8 d2bd ad24 0f3e e19e 4ebe 4416 493e
00000130: 9327 4a3d 6f05 63be be10 5dbd fe04 213c
00000140: 3469 adbb a634 783e 5281 3b3e 574c 4e3d
00000150: 5917 abbc 9511 42bd ed00 ca3d edad fabd
00000160: ab61 103e 4a31 d93c b106 813e 0b0f 123e
00000170: 7e0c 12bd f1a5 3d3e 20e5 07bd 9e79 653e
00000180: 83d6 b9bd 967b a6bd 9af2 3dbe 2878 453e
00000190: 7bbd c23d ef58 7abd 588d f8bd e5ed 653d
000001a0: 9429 05bb 295b 503e ff53 b73b bbbc 1abe
000001b0: 9357 17be 6651 263d 7454 4b3d 9384 95bc
000001c0: b71e aa3c 2376 9dbd b053 f3bd 7d2a 00be
000001d0: c682 81bd 8bb3 b23d 2222 01be 7286 dbbd
000001e0: f944 6cbe 6e90 a63d 7b0b 58be 093a 0b3e
000001f0: 0b51 3a3d 1e4f d0bd 5f88 9ebd 2f3c 283e
0.23078905 -0.052671295 0.083736286 -0.067518055 -0.049737554 0.018102236 0.2552529 -0.17008229
-0.15224314 -0.08830676 -0.20695198 -0.19351758 -0.21720904 0.16312681 0.112818144 0.19048668
0.013593868 -0.24001808 0.08488247 0.23686011 -0.2180617 -0.17841455 -0.121617705 -0.21687622
0.18691228 -0.13696642 -0.062556826 -0.055768162 0.075150006 -0.17663704 0.11437305 0.14599274
0.02597902 -0.19957282 0.082948856 -0.17329195 0.17837255 -0.06875469 0.0057371026 0.16548027
-0.18971655 0.01891364 0.22903202 0.13983642 0.11834503 -0.056558806 0.12059516 0.09828708
0.19739972 0.22748412 0.16528308 -0.14982413 -0.15723632 -0.0031646017 0.14781828 0.16855057
0.19139406 0.12474598 0.098059975 -0.22004938 0.19637613 0.25332445 0.03930551 -0.17281058
0.10979009 0.19848877 0.092678145 -0.13199337 0.03250441 -0.049849708 -0.02824416 0.106499374
-0.10295236 0.13978834 -0.20177795 0.196374 0.049354147 -0.22170042 -0.053971045 0.00982785
-0.005292082 0.24238834 0.1831105 0.050365772 -0.020885156 -0.04738005 0.09863458 -0.12240205
0.14099757 0.02651276 0.25200418 0.14263551 -0.035656445 0.18520333 -0.033177495 0.22409675
-0.09074118 -0.08129041 -0.18549576 0.19284117 0.09508797 -0.06111997 -0.12136334 0.056135077
-0.0020318972 0.20347275 0.00559473 -0.15111057 -0.147795 0.04060497 0.049641088 -0.018251693
0.0207666 -0.076885484 -0.118811965 -0.12516208 -0.06323771 0.08725651 -0.12610677 -0.10719003
-0.23073186 0.081330165 -0.2109813 0.13596357 0.045487445 -0.101713404 -0.077408545 0.16429208

net.2.weight f4 [256, 128]
00000000: e578 5fbd 9897 94bd 9c29 3f3d 89c3 bf3d
00000010: ff9f 86bd 1965 54bd 06f2 c8bc dd57 ac3c
00000020: e8be 36bd b9ba 663d 5038 163d 88ce 643d
00000030: 7b59 aa3d d95c 99bd 6829 a33d 445f 393d
00000040: 2064 83bc 1f30 19bd 5a53 96bd 2fd7 89bc
00000050: fce8 cfbc 42ec acbd 1583 1f3d e2b3 2a3d
00000060: 81ee 923b 369f 5d3d 0cc6 2cbd 0689 4abc
00000070: 8e25 ce3d c1fe e2bb 7e18 10bc 40cb 823d
00000080: 6988 9b3c 1a80 41bc 3eae 323d 1e29 763d
00000090: 7a89 963d 78d7 a03c 1ea8 293d 1b07 ffba
000000a0: ca49 ccbc e13f 8ebc bdb9 443c 699e 8f3d
000000b0: 7099 9bbb 64c6 9b3d 9e1e 543d 0ba7 953c
000000c0: d224 163d 9f3c d43d 64ff fd3b ea36 393d
000000d0: 25c4 2abb 3cb8 a73d b33f 3dbd 372d 9c3d
000000e0: d5b1 0d3c 792a 36bc a529 943d 7fa8 a73c
000000f0: 6c55 a33d e5ae a83d f432 903d 482c 7c3d
00000100: cdca 8c3d e50e f93c af5c 0a3d 2318 3dbc
00000110: 4e41 ba3d 31c8 503b f2f7 0e3d 36b1 b53d
00000120: a265 4ebd 4039 a5bd f1f0 ccbc 119d 44bd
00000130: 8045 333d a8dd aa3d a7d1 0ebd cc94 b9bd
00000140: 3d42 8cbd 4879 2c3d cdf7 8cbd bbf0 7f3d
00000150: 2623 1e3d 204e 6c3d 327b a53d ee3c ac3c
00000160: 1d40 f33c 970e f8bc ae9b 1d3d e568 b13d
00000170: cdea b33d ab73 ba3d fff1 bf3d 1d20 893c
00000180: f0ca 3cbd a95c a8bd 557d b23d 2992 07bc
00000190: 6212 723d 65c4 e93c 63aa f53c 95f9 6c3c
000001a0: b951 ee3c 5a2c f5bc 6d47 af3c 5391 babd
000001b0: 6758 3fbd c367 9dbc f39b 14bd 52e1 6bbd
000001c0: 6825 2d3d 5553 90bd 406d 803d 8289 8f3c
000001d0: 25cc 7a3d c00a 0b3c 7fb0 7bbd ac05 90bd
000001e0: 2ff4 a83d bad8 22bd ca5c 89bd a18f 763d
000001f0: efb4 db3c 100a a9bb a354 a03d 18b3 8cbd
00000200: 6efd 7d3d 9dd7 423d 5d22 123d 1c5b 393d
00000210: a707 93bb 37b0 fabc 2cb4 45ba 157a 74bd
00000220: 96d1 de3c 0d5c a3bc fcb0 12bd c8db 6bbd
00000230: 776d c23c f7d5 c03c 2afe 783c a0e5 aabd
00000240: 2d13 2fbd e12b b2bc 7e1d 20bd e5f2 6d3d
00000250: 846c 683d 3464 94bd 8561 a1bd 2ca6 e3bc
00000260: 54a3 97bd ca6d aebd 2e6a ee3c 2035 cfbc
00000270: 41f2 dabc 6d59 9d3a 08a8 11bc ab58 523d
00000280: 2e5a 193d 39c7 873d f2ca c7bb 4949 83bc
00000290: 9952 a9bb b828 6c3d e2ca 93bd 57d2 d83c
000002a0: 123a 4c3c 9194 813d f408 89bb c613 1b3d
000002b0: 9a35 be3c c287 013d 363d c7bd d0ce ccbd
000002c0: 9287 8ebc d510 79bd 6c07 253d 9813 063d
000002d0: bd34 003d 9fef 14bd f829 aabc d6ee a5bd
000002e0: f6ce 9e3d f4d7 fdbc 8132 943d becf 8abd
000002f0: 31c0 9ebb 372b 413d 3f68 18bd a3ac 90bd
00000300: 3925 5f3d 85be 983c 1bcc ba3d 9f3e 023c
00000310: 766c 8d3c 4db8 7c3d 1042 a7bd 3e0c b2bc
00000320: ba14 48bd eb9c 283d a038 9fbd 0222 a1bd
00000330: 0e89 333d 03ad 51bd 8f79 313d a311 2d3d
00000340: 45eb 8f3d 8eb8 623c 6ccb 90bd 08c1 0d3d
00000350: 56a1 cbbd e14c 0c3d 993d 98bc e62c 8d3d
00000360: 2e67 393c ccaa a03d dbae d5bc 4165 7a3d
00000370: b841 783d 609f b5bc c5a3 1d3d fb13 86bd
00000380: d216 80bc 727d fa3c dc41 953d d742 2dbb
00000390: 893b 94bd 0452 86bd b0db 30bd eb62 5fbc
000003a0: 8b0b 373b 4a61 753d 794a 2b3d d366 453d
000003b0: ccd7 663d 7355 b6bc 6d90 963d c669 623d
000003c0: f6e5 a2bd 4d67 0f3d 0d15 2d3d 44cc 9dbd
000003d0: e861 a5bd 6803 743c 6a64 e43b 6efc 9bbd
000003e0: 408a bb3b b0c3 cebb b93a c2bd 7b69 10bd
000003f0: 53f9 9d3d e8ab b13c 185e 4ebc 2f06 99bd
-0.054558653 -0.07255477 0.04667054 0.09363467 -0.065734856 -0.051854227 -0.024529468 0.02103799
-0.044615656 0.056330416 0.036674798 0.055861026 0.08317848 -0.074884124 0.07966882 0.045256868
-0.016038954 -0.037399407 -0.07340117 -0.01682624 -0.02537965 -0.084435 0.03894337 0.041675456
0.0044839983 0.054106914 -0.04218106 -0.0123617705 0.10065757 -0.0069273417 -0.008794902 0.06386423
0.018985944 -0.011810327 0.0436232 0.060097806 0.0735044 0.019633994 0.041420095 -0.0019457074
-0.02493753 -0.017364444 0.012007174 0.07012636 -0.004748516 0.076061994 0.05178701 0.018268129
0.03665621 0.10363125 0.007751392 0.045218386 -0.0026056853 0.08189437 -0.046203326 0.076258115
0.0086483555 -0.011118525 0.072345056 0.020466087 0.07975277 0.082364835 0.070409685 0.061565667
0.06874619 0.03040261 0.033779796 -0.011541399 0.09094487 0.0031857605 0.034904428 0.08871691
-0.050389893 -0.0806756 -0.025017234 -0.048001353 0.043767452 0.08343059 -0.03486791 -0.09061584
-0.068485714 0.04210785 -0.06883202 0.062485438 0.03860774 0.057691693 0.08080138 0.021025147
0.029693658 -0.030280394 0.038478546 0.08662585 0.08785019 0.09104093 0.09372329 0.016738946
-0.046091974 -0.082207985 0.087153114 -0.008274593 0.059099562 0.028536031 0.029988473 0.014463802
0.029091703 -0.029928375 0.021396363 -0.0910975 -0.046715166 -0.019214517 -0.036281537 -0.05758793
0.042272 -0.07047144 0.06270838 0.017521624 0.061229844 0.00848645 -0.061447617 -0.07032332
0.08249699 -0.039757468 -0.06707151 0.06019557 0.026819674 -0.0051586702 0.07828643 -0.06870097
0.062009268 0.047568906 0.035677303 0.045252904 -0.004486996 -0.030601604 -0.00075418013 -0.05968674
0.027199548 -0.019941354 -0.035813317 -0.057582647 0.023733838 0.023539526 0.015197316 -0.08344579
-0.042742897 -0.021749439 -0.039090626 0.05809297 0.056744114 -0.07245675 -0.078799285 -0.027789198
-0.07404199 -0.08517034 0.029103365 -0.025293887 -0.026726844 0.00120048 -0.008890159 0.05135409
0.037439518 0.066297956 -0.006097191 -0.016026156 -0.005167317 0.05765602 -0.07216431 0.026467485
0.012465017 0.06327165 -0.0041819755 0.037860654 0.023218919 0.03162361 -0.09728472 -0.10000384
-0.01739863 -0.060807068 0.04029028 0.03273353 0.031300295 -0.036361333 -0.020771965 -0.08102195
0.077543184 -0.030986764 0.07236195 -0.06777905 -0.0048446883 0.047160354 -0.03720879 -0.07064178
0.054478858 0.018645534 0.09120961 0.0079495 0.017263632 0.0616992 -0.08166897 -0.021734353
-0.04884789 0.041165274 -0.07774472 -0.078678146 0.043831877 -0.051190387 0.043328818 0.042253148
0.07027296 0.013837947 -0.0707005 0.034607917 -0.09942882 0.034253005 -0.01858406 0.06893329
0.011316104 0.07845077 -0.026084354 0.06113172 0.06060955 -0.022170722 0.03848626 -0.0654678
-0.015635882 0.030577395 0.07287952 -0.0026437545 -0.07237918 -0.06558612 -0.04317826 -0.013634424
0.0027930464 0.059907235 0.04181907 0.048193764 0.056358144 -0.022257542 0.07351766 0.055276655
-0.07954018 0.035010625 0.042256404 -0.07704976 -0.08075315 0.01489339 0.006969978 -0.076165065
0.005723268 -0.006309949 -0.09483857 -0.035256844 0.077135704 0.021688417 -0.012595676 -0.074718826

net.2.bias f4 [256]
00000000: 1b86 b73c 33fd 993d d5e4 433d 55f5 043d
00000010: afa5 cabc 8712 3c3d 582d 263c 9b16 c13c
00000020: c361 993d a27d eebc 386c 013d 1920 fb3c
00000030: 00b7 1a3c 379c b43d 08f4 95bd dad2 b53d
00000040: 8ced 3fbd cb8d aa3d 891c a7bd afb3 9f3d
00000050: c019 b3bc ff6c cb3b 8aa0 1e3d 770a 1ebd
00000060: 5116 23bb 0c7b 79bb 0d8c 023c 91b0 223d
00000070: 18cf 3d3d 39dc ff3a b5d7 f83c 60e4 753b
00000080: 25c7 343c 9d66 083c b0ae 57bd e2f0 d43d
00000090: df0b 6abd 2a49 87bb 8ff6 b13d 51f5 9a3d
000000a0: a696 643d 360b 7b3d 1387 13bd 97c4 a9bd
000000b0: 8b5b d63d 3a7f 213d c8dd 0e3d 42a4 233d
000000c0: 34a6 413d 777c 373d d951 583d c97c aa3d
000000d0: bc94 70bd cf06 8a3d 51c9 37bd 16ad 723d
000000e0: ec96 163c 46ef 9bbc 80a2 57bd 18dc bb3d
000000f0: 197e a53d cdaa f5bc ff04 2ebd f35f 7bbd
00000100: 728d 1e3c 467f 9f3d 876c 843b 4c7e 9ebd
00000110: 0f38 823d 7d4d 25bd ce23 10bd e254 db3c
00000120: 713e 61bd 2074 86bd 7751 6fbd 99de 5cbd
00000130: 0a94 35bc 64d9 86bc 3e24 e0bc f8a4 0f3c
00000140: 8aa0 9ebd 302d c03c bd60 95bc dbd2 39bd
00000150: cb86 023d d285 863d 44f1 893d 6a29 2c3d
00000160: 3369 3a3c 019b 903d a743 08bd 7f44 5bbb
00000170: c75a 65bd c0d9 75bd 182d 933d ef43 133c
00000180: 118e 353d 36c5 cfbc 6e77 4d3d 2b2f 5b3d
00000190: de5f 433c 50d8 9d3b cb07 8a3d 6ffb 6fbd
000001a0: 9b6a 9b3d efaa 003d 65fe aabd f15d 943d
000001b0: c691 c53d 68cb 54bb a732 2d3d 358d 54bd
000001c0: 91ad 773d 023e f03b 117f 91bd 4b7b b43d
000001d0: 68d9 6dbd 9e2e 8fbd ab42 16bc 0cc8 ea3c
000001e0: 8c5a 813d 07e1 dcbb f805 56bd 6c50 60bc
000001f0: b055 b1bc 943b 94bc be8d 813d 106b b0bd
00000200: 6472 3cbd f176 bfbd dfa2 f53c 3271 d33d
00000210: 200e f9bb 22aa e13c c09b 72bc 70cd 5d3d
00000220: 8f52 c73c 4957 0d3d a33e 503d 59d5 b8bc
00000230: bd7a 5fbd a7b7 7d3d 90d8 c2bc 1f4f 923c
00000240: b58c 74bd 18ac 40bd 2dd3 323d 8a69 373d
00000250: 6a34 93bc ce5c a73d 72d6 b2bd 48fa 123d
00000260: 4d0b f93c fb0f 8fbd 190e 7a3d 7197 32bd
00000270: 50ca 9c3c d8a6 dfbc a357 973b 2fa2 4c3b
00000280: 9fe5 20bd 2b0d cb3d ef48 613d 2e62 0d3d
00000290: 8cee e4bb ac0d f93c 1699 ad3d c4c2 d5bc
000002a0: e5f2 943d 7cb0 53bd 2cef 343c bdbb a4bc
000002b0: 4176 64bb bfe9 453d 1378 99bb 15e8 9b3d
000002c0: 910a 20bd 7a53 8fbc 6ac5 e5bc c11f 52bd
000002d0: a779 703c fe78 fd3c 6568 1cbd db10 9f3d
000002e0: 45fc a73d c07f 3fbd 266e 99bd 4403 b73d
000002f0: 0969 163d 415f b03d a45f 5f3d 7fb6 3bbd
00000300: fc35 c03d a081 be3b 747f 60bd 8077 803d
00000310: 5abe 16bd 1840 993d 6486 a0ba 465d 03bc
00000320: 2286 943c 1edf 953d 6c58 70bd b11d a53d
00000330: 6054 05bd c813 d13c e8b4 90bd cf1e a53c
00000340: 61bc 543d 4224 03bd 28cf e1bc 7bca 90bd
00000350: b156 93bd f70b 813d aa83 61bd f092 89bb
00000360: 16fe e8bc 1631 903d 291e 6f3d cd27 8cbd
00000370: 672f 033d b834 26bd ed2c 493d acd8 5c3d
00000380: b0ab 0bbc abf6 80bc 85e3 dd3c 605a 5fbd
00000390: e913 adbc 5d32 a33d 991f a03d 2d5e b0bd
000003a0: 55b7 30bd 7fd3 b0bd 46e2 f13b 73a7 f33c
000003b0: 0ec0 93bd d428 76bd dd14 8c3d 8d2d 803d
000003c0: a862 39bc 489b 293d 2b61 103d 886f a5bd
000003d0: 034d 26bd 06fe 01bd abc0 76bd 934c 99bd
000003e0: 350f 5fbd 9731 353d c1f5 b93c 015f 3e3c
000003f0: cbc7 503c f793 843d 7d54 b13d 28ce 493d
0.022402814 0.07518997 0.047825653 0.03246053 -0.024737207 0.045916107 0.010142647 0.02357035
0.0748935 -0.02911264 0.031597346 0.030654954 0.009443045 0.08818858 -0.07321936 0.08878107
-0.0468574 0.08327826 -0.081597395 0.07797944 -0.021862864 0.0062080617 0.03872732 -0.0385842
-0.0024885128 -0.0038067726 0.007967961 0.039719168 0.046340078 0.0019520588 0.030376295 0.0037520155
0.011033808 0.008325246 -0.05265683 0.10397507 -0.057140227 -0.004128595 0.086896054 0.07566322
0.055807732 0.06128999 -0.03601749 -0.0828945 0.10466679 0.039427973 0.034879476 0.03995157
0.047277644 0.044796433 0.05281243 0.08324582 -0.058735594 0.0673958 -0.044869725 0.0592471
0.009191256 -0.019034993 -0.052645206 0.09172839 0.08080692 -0.02998867 -0.042485233 -0.0613708
0.009677278 0.07787947 0.004041258 -0.07738933 0.063583486 -0.0403571 -0.035190396 0.026773874
-0.05499119 -0.06565118 -0.0584273 -0.053923223 -0.011082659 -0.016461082 -0.027361032 0.008767359
-0.07745464 0.023459047 -0.018234605 -0.045367103 0.03186683 0.06568493 0.06735471 0.042031683
0.0113776205 0.07060815 -0.033267643 -0.0033457575 -0.055994775 -0.060022116 0.07186335 0.008988365
0.04432494 -0.025362592 0.050162725 0.05351178 0.011924712 0.004817046 0.06739768 -0.058589395
0.07588693 0.031413015 -0.08349303 0.072444804 0.09646945 -0.0032469872 0.042284634 -0.051892478
0.06046826 0.0073316107 -0.07104314 0.08812579 -0.058068663 -0.069913134 -0.009171168 0.028659843
0.063160986 -0.0067406925 -0.052251786 -0.013691049 -0.021647304 -0.018094815 0.06325863 -0.086141706
-0.04600753 -0.09348858 0.02998489 0.10324325 -0.007600561 0.027546946 -0.0148076415 0.054151
0.02433136 0.03450707 0.050840985 -0.02256267 -0.05456041 0.061942723 -0.023784906 0.017859994
-0.0597045 -0.04703912 0.043658424 0.044778384 -0.017969329 0.08171998 -0.087323084 0.035883218
0.030400896 -0.0698547 0.0610486 -0.043601457 0.019139439 -0.027301237 0.0046186014 0.0031224599
-0.039281484 0.09914621 0.055001196 0.03451746 -0.006986445 0.030402027 0.084764645 -0.026093848
0.07272891 -0.05168198 0.011043351 -0.020109052 -0.0034860524 0.04831862 -0.0046835034 0.076126255
-0.039072577 -0.01749586 -0.028048236 -0.051299814 0.014677442 0.030941483 -0.038185496 0.07766887
0.082024135 -0.04675269 -0.07491712 0.0893617 0.036721263 0.08611918 0.05453457 -0.04582834
0.09385297 0.0058137923 -0.05480905 0.06272793 -0.036802627 0.07482928 -0.0012247083 -0.008017844
0.018130366 0.07317947 -0.058678076 0.08062304 -0.03255117 0.025522128 -0.07065755 0.020156292
0.051937465 -0.032017 -0.0275646 -0.0706987 -0.071942694 0.0630111 -0.055057205 -0.0041984245
-0.02844147 0.070406124 0.058378372 -0.06843529 0.03202763 -0.04057762 0.04911511 0.053917572
-0.00852482 -0.01574262 0.027086029 -0.054529548 -0.021127658 0.079685904 0.07818527 -0.086117126
-0.04314359 -0.0863409 0.00738171 0.029742932 -0.07214366 -0.06009753 0.06839917 0.06258688
-0.011315025 0.041407853 0.035248917 -0.080779135 -0.040600788 -0.031736396 -0.060242336 -0.074853085
-0.054457862 0.044236746 0.022700192 0.01161933 0.012742947 0.064735346 0.08658693 0.04926887

μ.weight f4 [2, 256]
00000000: 186e 173d dee0 6c3b 3c77 f0bc 1f15 2abd
00000010: e53e 28bd 1bd9 2d3d 68ff 3cbd bf4d a2bc
00000020: 3e3f b239 60b8 583d 7675 2d3d 7e32 15bb
00000030: 6e4a 0b3d c197 0bbd 9c1c 5f3d 2f5a 8cbc
00000040: 1550 45bd dc2a 29bd eac8 4dbd 6c26 66bd
00000050: 4e4c 5fbd 060e 4c3d 4afa 613d 6657 2d3d
00000060: 0e7b 4fbd 9188 5abd 9037 b1bb 12b5 ba3c
00000070: b60c 593d 6b38 f23c 804c 67bd 70f5 6d3c
00000080: 04f8 dc39 6219 66bd 6e86 6a3d 1158 0cbc
00000090: 291c 733d 4020 30bd 72fe e03c df4c 023d
000000a0: 9b44 7eba d3b0 753d 49fb 4a3d 9865 983c
000000b0: 0945 423d 1899 0fbd 5248 1c3c ad32 633c
000000c0: 8fb5 563c e5ec 0e3d 2f39 50bc b117 5abd
000000d0: 06b5 203d 422c 69bd 10f6 413c 1ad8 16bc
000000e0: bc06 433d 5a33 2d3d c067 073c 6d34 1d3d
000000f0: 173c 693d 8c61 66bc 5d2f 153c de42 de3c
00000100: b3ca 5e3d d7a9 72bd acf7 8abc b1d6 573d
00000110: f828 f33c 7e02 53bd 820b 64bc a442 dbbc
00000120: 776d 703d 1601 713d ad3c b83b dca8 a43c
00000130: 213b 293d 8495 c2bc ac18 633d 5c55 593d
00000140: 64cd 903b 4129 10bc e201 683d d211 e2bb
00000150: b53b f63c d851 f13c cc5a 1d3d 2ed4 193d
00000160: 8aa2 303d 005b 603c 689b 02bd 2c77 ebbc
00000170: a807 413c 8a3d 5ebd 4fd0 c33c e7e3 51bd
00000180: cc13 323d 4589 dc3a b132 12bd 7803 4abc
00000190: bc6c 4abc ee73 003d 1ee3 57bd ffb2 00bd
000001a0: 27bb d138 0dfb 74bd 869c f63c 948c 18bd
000001b0: bde8 9cb9 1a7c 57bd 520c 283d ba7f b0bb
000001c0: 5186 4cbc a9ba ad3a 898a 76bd 6191 413d
000001d0: dc4f ce3c 89fd 2bbd 1772 2d3d 944a 76bd
000001e0: adcb 143d 7cdc 063d f9ba 333d 3dd2 383d
000001f0: 48b8 59bc 0309 22bd cb7f f23c 369f 1bbd
00000200: ca9e 593d 7581 06bd afa4 543d 858f 893c
00000210: 7a3d dcbc 7fab e73c 6036 12bc 28ea 08bd
00000220: 83dc c2bc 7b3f 8c3c c843 2ebd c295 53bd
00000230: ec03 46bd ea1d bc3c 27d2 0d3d 7095 93bc
00000240: 56aa 343c 00ff 0d3b da4b 693d 354e 6dbd
00000250: 7586 51bd 07e3 473c 853b 023d 7541 f53c
00000260: 23b5 093d e228 333d c397 193d de99 523d
00000270: e8d0 debc 8938 293d 05de 0a3c aea3 583d
00000280: c095 fd3c 3d9a 04bd 65f8 55bd 0a8e 24bd
00000290: 1cba 39bd 226d 293d abd4 f1bb 3cdb 643c
000002a0: dc8d 79bd 7075 373c 5884 94bc d543 01bd
000002b0: 3eaf 033d 81c8 41bd e023 15bc 18ac 68bd
000002c0: a025 5a3d 5fc6 f93b 6672 13bd e65a 71bd
000002d0: b4ee 353d 78c8 48bd c4b1 c03c 10aa f839
000002e0: 051e 083d 6d92 393d 0809 15bc 74fe 63bc
000002f0: 3b22 3dbd 7852 193d 7745 e1bc 7343 8a3c
00000300: 5cfa e43c 2679 7e3d b585 83bd 9949 ab3c
00000310: 87b3 69bd 42cd bc3c a637 4bbd 1d5e 733d
00000320: 4adf 8d3c ad1d f3bc 4fbc ac3b 39f2 80bd
00000330: 0064 3d3a 1c6b 6bbd 9662 363d 7f27 73bd
00000340: 8c58 3b3d 98f1 97bc a080 a03c cbf9 00bd
00000350: 48ae 3dbc 3c55 023c fd7d 7ebd 9af6 36bd
00000360: 69de b13c 0ce6 e13c 0deb f8bc 0098 cb3b
00000370: 000a 3ebd a6a1 9cbc 4434 db3c 3fb5 7dbd
00000380: 00f7 7f3a 1d50 013d fe77 a33c b1e2 07bc
00000390: 38c0 533c 14ef c13c c3c3 913c 68dd 643d
000003a0: 4130 56bc 5c07 c83c 5420 85bc 85f0 2abd
000003b0: 0015 703c e89c 41bd 4e22 48bd d4f5 143d
000003c0: 907b 003c 02aa 66bd df3a 303b 0b17 673d
000003d0: 5b96 c8bb e1e4 283d 79d6 663b 8707 383d
000003e0: 067f 023c c8c5 1dbd 8f8f f03c c5b1 373c
000003f0: a056 81bd f933 47bd 714a 70bd 0199 ad3c
0.036970228 0.0036144773 -0.02935373 -0.04152405 -0.041075606 0.042443376 -0.046142012 -0.019812463
0.00033997925 0.05291021 0.042348348 -0.0022765691 0.03400653 -0.03408027 0.054470643 -0.017132847
-0.048172075 -0.04130064 -0.050240435 -0.056188986 -0.05451613 0.04981806 0.055170335 0.042319678
-0.050654463 -0.053352896 -0.005408235 0.02279142 0.052990638 0.029567918 -0.05646944 0.014523849
0.00042146456 -0.05617655 0.05725711 -0.008565919 0.059353027 -0.042999506 0.027465079 0.03181159
-0.0009699554 0.059983086 0.04955605 0.018603131 0.04742912 -0.03505811 0.009538727 0.0138670625
0.01310481 0.03489389 -0.012708946 -0.05324525 0.039235137 -0.056926973 0.011838451 -0.009206796
0.047613844 0.0422853 0.008264482 0.038380075 0.05694207 -0.014061343 0.009105531 0.027131494
0.054392528 -0.059244003 -0.016963802 0.05269498 0.029682621 -0.05151605 -0.013918759 -0.026765175
0.058698144 0.058838926 0.0056224675 0.02010005 0.041316155 -0.023752935 0.05544345 0.05305992
0.0044190157 -0.008798898 0.05664242 -0.006899097 0.030057767 0.029457971 0.03841667 0.037555866
0.04312376 0.013693571 -0.03188649 -0.028743349 0.011781611 -0.054257907 0.02390304 -0.051242735
0.04347591 0.0016825577 -0.035692874 -0.012329929 -0.012355026 0.03136056 -0.05270683 -0.031420704
0.000100007564 -0.059809733 0.030103933 -0.03724344 -0.00029928042 -0.052608587 0.041027375 -0.00538632
-0.012483195 0.0013254482 -0.06019071 0.047257785 0.025184564 -0.041989837 0.042345133 -0.060129717
0.036327053 0.032925114 0.043879483 0.045122374 -0.013288565 -0.039559375 0.029601952 -0.037993632
0.05312995 -0.032838304 0.051914867 0.016792068 -0.026884783 0.028280018 -0.008924097 -0.033426434
-0.023786789 0.017120114 -0.04254511 -0.051656492 -0.048343584 0.022963483 0.034624245 -0.018015593
0.011026939 0.0021666884 0.056957103 -0.057935912 -0.05115362 0.012200124 0.031795043 0.029938439
0.03362001 0.04374016 0.037498247 0.05141627 -0.027199224 0.04131368 0.008475785 0.052890472
0.030955195 -0.032373656 -0.05223884 -0.04017452 -0.045343503 0.041363843 -0.0073800883 0.013968285
-0.060926303 0.011197433 -0.018129513 -0.03155883 0.032149546 -0.047310356 -0.009102792 -0.056804746
0.05325854 0.0076225246 -0.03599777 -0.058924578 0.0444171 -0.049019307 0.023522265 0.00047428953
0.033231754 0.045305658 -0.0090963915 -0.013915647 -0.046175223 0.037432164 -0.027498944 0.016877865
0.027951412 0.062127255 -0.06421987 0.020909118 -0.057055976 0.023047093 -0.049613617 0.059415925
0.017318387 -0.029677236 0.0052714716 -0.062962 0.0007224679 -0.057475194 0.044527613 -0.05936384
0.04573874 -0.018547818 0.019592583 -0.03148822 -0.011577196 0.007954892 -0.06213187 -0.04466877
0.021712499 0.027575515 -0.030385518 0.006213188 -0.046396255 -0.019120049 0.02675832 -0.061940428
0.0009764284 0.031570543 0.019954678 -0.008293794 0.0129242465 0.023673572 0.017793542 0.055875212
-0.013073028 0.024417572 -0.016250767 -0.041733284 0.014653444 -0.047268778 -0.04886084 0.036367252
0.00784196 -0.056314476 0.0026890559 0.05641846 -0.0061214394 0.0412339 0.003522305 0.044929054
0.007964855 -0.038518697 0.02936533 0.011211817 -0.063153505 -0.04863355 -0.058664743 0.021191122

μ.bias f4 [2]
00000000: 2642 cdbc ba6a f73c
-0.025055956 0.030202258

σ.weight f4 [2, 256]
00000000: 33ff f5bb b7f0 72bd b94e f1bc 9186 54bc
00000010: 151a 753d 460e aa3c a455 fcbc 163e 533c
00000020: f2a1 753c 6613 22bd f2d2 e23c a343 ef3b
00000030: 900f 123c c7e5 29bd 7810 27bc 1159 0fbd
00000040: d17b e9bc 4b39 44bd f4b5 e93c f03e 843c
00000050: f89b 47bd 5647 5ebd b6cc 543d bf4b 5cbd
00000060: bae1 1ebc 4e1a 3a3c a535 7bbd e957 54bd
00000070: bf17 263d 0ba1 873b a796 4cbd b862 b3bc
00000080: 5858 81bd b7c3 2ebc 98d1 923c ff87 ecbc
00000090: 3432 47bd a788 e33c 3cc8 3dbd 912b b8bb
000000a0: 5012 723d be00 ccba c723 a4bc bea8 fb3c
000000b0: f355 83bd ca9d 1bbd f3ba 4ebd 05b2 48ba
000000c0: 728d fe3c 3767 373c 0aee af3b 29cd 11bd
000000d0: b161 d5bb 75b8 773c 0437 aa3c e3c4 653d
000000e0: 8b71 a2bc 851c 933b 0044 103a 4a8f a2bc
000000f0: 5a84 84bc 919b 6d3d e5ea 513d 2fd6 59bd
00000100: 7340 733d 455e b53b 162a 693b c1ce 6c3d
00000110: e145 6ebd 1c97 2ebd b07e 4dbd ed37 543d
00000120: edb3 573c f9ba 103c 8c96 eabc 4b22 26bd
00000130: 83bb e13c 4f7d 793c 8e51 1a3d 60bf 6d3c
00000140: 6080 2c3d 91ba 543c 3469 463d c675 6b3d
00000150: a777 efbc cd38 34bb 42fb 3a3d c08b 793d
00000160: 6566 39bd 09eb 763d 0d9b e13c 660d 7abd
00000170: 045b 6dbd 4663 743d 0171 1cbd 9ac6 fb3b
00000180: e853 3b3c 496b 163d 5e26 403d de4d a83c
00000190: 113d 4b3d f243 5dbd b019 99bc cb09 e13c
000001a0: 8397 533d e26b f3bc 103b 9c3c cf35 99bb
000001b0: 6d46 053d 564f 673d adf8 503c 948f 71bd
000001c0: a712 6f3d ba50 00bd 6741 f1bc c8e8 e1bb
000001d0: 8031 f0bc f5aa 37bd 5ca5 64bd ba09 57bd
000001e0: ebba 693d 1c2c 4dbd 6521 e33b afc4 193d
000001f0: b8a9 7d3c f8a1 693d 7e29 babb 8e17 b63b
00000200: a415 98bb 489c c7bc 209a 793c 6648 82bd
00000210: 3076 4abc bfb3 473d 50b3 e33c f6cb 53bd
00000220: bf5f afbc c53e 74bd ef20 c23c 59da 23bd
00000230: 57ba dc3b 774e 733d a39f 883c e94d 90bb
00000240: a657 223d aef0 8e3c 91fe 5c3d 0126 f03c
00000250: b0a3 403d 4eb6 02bd 2626 5b3d 27fe 16bd
00000260: 7cfc 3e3d 961e 0b3a afe5 34bc b834 3b3c
00000270: c0d2 103d 7677 513c 4c01 a7ba ce06 2b3d
00000280: 53c1 503d eb55 713d 9ac2 043d 7ea2 74bd
00000290: c1aa 18bc 68ff 2abd a129 2dbd 7845 5d3d
000002a0: df36 3ebc d212 263d 4656 13bc cd07 20bd
000002b0: a2b3 7d3d 3d57 333c 955e 263d 48d6 83bd
000002c0: fa9e e1bb 5f8c ea3b 0e22 953c 8027 dcbb
000002d0: 25bc 9e3c e9aa 303d d84d b13c 7464 7cbd
000002e0: 170e 3fbc 01ba c33c 2878 c3bc 7ae4 3d3d
000002f0: f361 caba ead6 273d a885 57bc 622d b8bc
00000300: 3fc4 993c 385c 423c f968 053d 4393 63bd
00000310: d13e a23c f41a 393d 5d07 3dbd 7012 87bc
00000320: 0ff5 03bd d232 b43c 4811 b8bc 3a0b 64bd
00000330: ac5e ff3c 808a fabb 08da d0bc fead 193d
00000340: d11b f9bc 99ec 903c 3e29 36bd a014 b9bc
00000350: f1dd fa3c ee07 df3c af2f 5bbb 00f6 cdb9
00000360: 5d5d 213d fe8b 49bd a231 ddbb 5ceb a03c
00000370: 47fd cc3c 214f 983c a462 fd3c 5eb3 423d
00000380: 24e7 94bc 87d9 7dbc 5a67 ee3c 01db 883c
00000390: 4fa1 0b3d 6d6b 33bd 2a42 57bb d808 b4bc
000003a0: 2587 c83c a021 7cbd 4f16 5cbd 28f3 ea3c
000003b0: e45d 17bd 0b43 4dbc a5e5 023d 4bda 58bc
000003c0: c663 6dbd aed1 223d 2356 1d3d d466 e43c
000003d0: 0968 1ebd a998 5abc 123e 95bc df48 6d3d
000003e0: a002 ab3c de8a a03b 5e62 dc3c b7bf 9fbc
000003f0: 75ac 4bbc 276c 62bd 6132 fd3c fcf5 2f3d
-0.0075072288 -0.059311595 -0.029456483 -0.012971536 0.059839327 0.02075876 -0.030802555 0.01289322
0.014992224 -0.03956928 0.027688477 0.007301764 0.008914843 -0.0414789 -0.010196798 -0.03499705
-0.028501423 -0.0479062 0.028529145 0.016143292 -0.048732728 -0.05426725 0.05195304 -0.053783175
-0.009697372 0.011358811 -0.061330456 -0.05184165 0.04054999 0.004139071 -0.04994836 -0.021897659
-0.06315678 -0.010666779 0.017922208 -0.028873442 -0.04863186 0.027775122 -0.046333537 -0.005620428
0.059099495 -0.0015564186 -0.020036591 0.030720111 -0.06412878 -0.037992276 -0.050471257 -0.00076559215
0.031073306 0.011194042 0.0053689526 -0.035596047 -0.00651189 0.015119662 0.020778187 0.05609597
-0.019829532 0.004489484 0.0005503297 -0.019843716 -0.016176391 0.058009688 0.051249404 -0.053182777
0.059387635 0.0055349194 0.0035578064 0.057814363 -0.05817211 -0.042624578 -0.050169647 0.051811147
0.013165456 0.00883364 -0.02863624 -0.040560048 0.027555233 0.01522763 0.037675433 0.014510959
0.042114615 0.012983934 0.048440173 0.057485364 -0.02923186 -0.0027499676 0.045649774 0.06092429
-0.045263667 0.06028274 0.027539754 -0.061047934 -0.057948127 0.059664987 -0.038193706 0.0076835873
0.011433579 0.03672341 0.04691159 0.020544942 0.049618784 -0.054019876 -0.018689007 0.02747049
0.051658165 -0.029714528 0.019071132 -0.004675604 0.032537866 0.056472145 0.012754601 -0.058974817
0.058367398 -0.031326987 -0.029450132 -0.0068942048 -0.029320478 -0.04484077 -0.05582176 -0.05249951
0.057063024 -0.050090894 0.006931471 0.037541088 0.015482359 0.05703923 -0.005681216 0.005557007
-0.0046412516 -0.024366513 0.0152345 -0.06361465 -0.01235728 0.048755404 0.027795464 -0.051708184
-0.02140796 -0.059630174 0.023697345 -0.040003154 0.0067360806 0.059401 0.016677683 -0.004403819
0.03963437 0.01744875 0.05395371 0.029314997 0.047031105 -0.03191214 0.053503178 -0.036863472
0.046627507 0.0005306987 -0.011041089 0.011426143 0.035357237 0.012784829 -0.0012741475 0.041754536
0.05096562 0.05891983 0.03241215 -0.059725277 -0.009318055 -0.04174748 -0.04227603 0.05402133
-0.011609762 0.040545292 -0.008992737 -0.03906994 0.06193889 0.010946092 0.040617544 -0.06437355
-0.0068854066 0.007157847 0.018204715 -0.006718576 0.019376824 0.043131743 0.021643564 -0.061619237
-0.011661074 0.023892405 -0.023861006 0.04636047 -0.0015440568 0.040976442 -0.013154425 -0.022482578
0.018770335 0.011862807 0.032570813 -0.05556036 0.019805344 0.04519172 -0.0461496 -0.016488284
-0.032216128 0.02199689 -0.022469178 -0.05567477 0.031173073 -0.007645905 -0.02549459 0.037519448
-0.030408772 0.017690944 -0.044472925 -0.022592843 0.030623408 0.02722546 -0.003344517 -0.0003928393
0.03939568 -0.049205773 -0.0067503015 0.019643478 0.025023116 0.01859242 0.030930825 0.04753434
-0.018176623 -0.015493757 0.029102016 0.016705992 0.034089383 -0.04380362 -0.0032845833 -0.021976873
0.024478504 -0.061555505 -0.053732213 0.028680399 -0.036954775 -0.012528191 0.031957287 -0.013235639
-0.05795648 0.039750747 0.038412225 0.027881064 -0.038673434 -0.013342061 -0.018218074 0.057930823
0.020875275 0.0048993668 0.026902374 -0.019500596 -0.012431254 -0.055278923 0.030907812 0.0429592

σ.bias f4 [2]
00000000: 6ece a2bc 1723 ad3c
-0.019873824 0.021134896
