runs_bakeup/v_no37.pth (torch, 144972 bytes, 5 tensors)

net.0.weight f4 [128, 18]
0	0x3dc91d90	0.09820092
1	0x3e214ca4	0.15751892
2	0xbcd3a214	-0.02583412
3	0xbe55f060	-0.20892477
4	0x3e0a8691	0.13527896
5	0xbe2ca1a8	-0.16858542
6	0x3e5d0103	0.21582417
7	0x3cb1b460	0.021692455
8	0x3e70177e	0.23446462
9	0xbe1209eb	-0.14261596
10	0x3d3d35f2	0.046194024
11	0xbc7ab735	-0.015302469
12	0xbd96afe0	-0.07357764
13	0xbe58359d	-0.21114202
14	0xbe4536f1	-0.1925924
15	0xbd83f2d2	-0.06442799
16	0x3d075573	0.033040475
17	0x3d918064	0.07104567
18	0x3e54a3ba	0.20765582
19	0xbdfa2d31	-0.12215651
20	0x3e4be4d1	0.19911505
21	0xbe515ee4	-0.20446354
22	0xbe323d38	-0.17406166
23	0x3d6aec08	0.057354003
24	0x3d300173	0.042970132
25	0xbe01920f	-0.12653373
26	0x3c972ea9	0.018454866
27	0xbe5d2b4d	-0.21598549
28	0xbe673709	-0.22579588
29	0xbe45f04b	-0.19329946
30	0x3e489e6d	0.19591685
31	0xbe62a3fb	-0.22132866
32	0x3cd0718f	0.025444774
33	0xbd2884c6	-0.041142248
34	0xbd1cc5e4	-0.03827466
35	0x3e2b5faa	0.16735712
36	0x3e02814b	0.12744634
37	0xbd30e90e	-0.04319101
38	0x3ded899f	0.11598515
39	0x3d9db547	0.077005915
40	0x3dbc5699	0.09196205
41	0xbd90acf3	-0.070642374
42	0x3e48ac1a	0.19596902
43	0x3ce8950e	0.028391387
44	0x3e1b09b2	0.15140417
45	0x3e719241	0.23590948
46	0xbdb9bb6d	-0.09068952
47	0x3e010cec	0.12602586
48	0x3df55274	0.11978617
49	0xbe565801	-0.20932008
50	0x3dbbda66	0.091725156
51	0xbe4fa800	-0.2027893
52	0x3d2ed60a	0.042684592
53	0x3e31bea8	0.17357886
54	0x3d1ee4db	0.038792472
55	0xbe36e781	-0.17861749
56	0xbe4eae24	-0.20183617
57	0x3df39f5e	0.11895631
58	0xbd1e0017	-0.038574304
59	0xbdbbacd8	-0.09163827
60	0x3e4e46e8	0.20144236
61	0xbd4ab4ab	-0.049488705
62	0xbd944883	-0.07240393
63	0xbe6e40eb	-0.23266952
64	0xbe4e13e5	-0.20124777
65	0x3e07c808	0.132599
66	0x3e552122	0.2081342
67	0x3cf8348f	0.0302985
68	0x3e089a69	0.13340153
69	0x3e67811b	0.22607844
70	0x3d649a48	0.055811197
71	0xbe39a274	-0.18128377
72	0x3d713cc2	0.058895834
73	0xbd211211	-0.03932387
74	0xbdcff7f5	-0.10154716
75	0xbd2f4000	-0.042785645
76	0xbd93b069	-0.07211382
77	0x3e336ca7	0.17521916
78	0x3e657e1f	0.22411393
79	0x3d4d9ed5	0.050200302
80	0xbe013586	-0.12618074
81	0x3e61c03e	0.22045991
82	0xbdeb05c8	-0.11475712
83	0x3e0d6723	0.13808875
84	0xbe5fa54b	-0.21840398
85	0xbcab0f9a	-0.020881463
86	0xbe34ca38	-0.17655265
87	0x3cd30e69	0.025763707
88	0xbe765b22	-0.24058202
89	0x3df41c42	0.11919452
90	0x3e0ee05c	0.13952774
91	0xbdb2916b	-0.087191425
92	0x3dde007a	0.10839935
93	0xbc7babf9	-0.015360826
94	0x3e5a2b41	0.21305563
95	0xbcaef81b	-0.02135854
96	0xbac85401	-0.0015283824
97	0x3e4b1f96	0.19836268
98	0x3dd6b44e	0.10483609
99	0x3e24a21d	0.16077466
100	0xbe0a720c	-0.13520068
101	0xbe551d72	-0.20812014
102	0x3e0d0a6c	0.13773507
103	0x3e4f9b4a	0.20274082
104	0xbcdeefe4	-0.027213998
105	0xbe055544	-0.13020808
106	0xbdb0b0ee	-0.08627497
107	0xbe4af6ec	-0.19820756
108	0xbdbec11a	-0.09314175
109	0xbe2c4cf8	-0.16826236
110	0xbe5f01e5	-0.21778066
111	0xbd26fbb4	-0.040767387
112	0x3e330aa9	0.17484535
113	0xbe174496	-0.14772257
114	0xbe1c597c	-0.1526851
115	0x3e2a6e7d	0.1664371
116	0xbce81eb8	-0.02833496
117	0xbe146fa0	-0.14495707
118	0xbd6f7508	-0.05846122
119	0x3dd0d652	0.10197128
120	0x3e4a246d	0.19740458
121	0xbd81ed92	-0.06344141
122	0x3e6a51cd	0.22882767
123	0x3e169259	0.14704265
124	0x3e4c324d	0.19941063
125	0xbdd01140	-0.1015954
126	0x3e46a6a7	0.1939951
127	0x3e0cfeca	0.1376907
128	0x3e26f1e1	0.16303207
129	0xbe28575a	-0.16439572
130	0xbe14ea32	-0.14542463
131	0x3d35f231	0.044420425
132	0x3e3b73b3	0.18305854
133	0xbe33bf19	-0.17553367
134	0x3d4a5675	0.049398858
135	0xbd21bdcf	-0.039487656
136	0xbe166279	-0.14686002
137	0xbe4ffa9d	-0.20310445
138	0xbe4352cf	-0.19074558
139	0x3e318d6f	0.17339109
140	0xbe673590	-0.22579026
141	0xbe71d9f1	-0.23618294
142	0xbe09959f	-0.13435982
143	0xbe3a6e01	-0.18206026
144	0xbaf1fe43	-0.0018462617
145	0x3e6ea627	0.2330557
146	0xbdbb95af	-0.09159409
147	0xbe03958e	-0.1285002
148	0x3d9dd113	0.07705893
149	0xbdaa0708	-0.08302122
150	0x3dd7d5cb	0.10538825
151	0x3b9baa9a	0.004750562
152	0x3cd3e6e9	0.025866942
153	0x3e47dda0	0.19518137
154	0xbc375a93	-0.011191028
155	0xbd3b736e	-0.04576438
156	0xbe5bd8d2	-0.21469429
157	0x3e0d010a	0.13769928
158	0xbdb11eda	-0.086484626
159	0x3bc91e0a	0.006137614
160	0x3e40c0ca	0.18823543
161	0xbda0eee6	-0.07858066
162	0x3df77d9e	0.120845065
163	0x3dab75e5	0.08372096
164	0xbdca9393	-0.09891429
165	0x3d9507df	0.07276892
166	0x3d874623	0.066051744
167	0x3e188eee	0.14898273
168	0xbd86e318	-0.065862834
169	0xbc259d8e	-0.010108365
170	0xbe379f5a	-0.17931882
171	0xbd4893f2	-0.048969217
172	0xbdbb7fa7	-0.09155207
173	0x3e2d9def	0.16954778
174	0x3d7c9102	0.061661728
175	0xbc887c8b	-0.01666095
176	0xbdaae6d7	-0.083448105
177	0xbd8f0e91	-0.069852
178	0xbd859557	-0.06522625
179	0x3e1990f7	0.14996706
180	0xbe73cdc9	-0.2380897
181	0xbe07a011	-0.13244654
182	0xbe570580	-0.20998192
183	0xbe298dbf	-0.16557978
184	0xbe4d08d7	-0.20022903
185	0x3dbe4cf9	0.09292025
186	0x3e31903c	0.17340177
187	0xbcc9e73c	-0.024646394
188	0xbdb2936b	-0.08719524
189	0xbe1b0d9a	-0.15141907
190	0x3e31840a	0.17335525
191	0xbe769be6	-0.24082908
192	0xbd58a142	-0.052888162
193	0x3cac5d0e	0.021040466
194	0xbca97acd	-0.020688439
195	0x3c8a5b88	0.016889349
196	0xbe19914c	-0.14996833
197	0x3e1c7282	0.15278056
198	0xbd9e9226	-0.07742719
199	0xbc313c19	-0.010817551
200	0x3e40fd7a	0.18846694
201	0xbc2dbc14	-0.010603923
202	0xbe3bd8fd	-0.18344493
203	0xbe151c78	-0.14561641
204	0x3e63221c	0.2218098
205	0xbd780c57	-0.060558643
206	0xbe5ba409	-0.21449293
207	0xbe27b86c	-0.16378945
208	0x3dd1153e	0.1020913
209	0x3d4a1a1a	0.0493413
210	0x3e537b56	0.20652518
211	0x3e29a133	0.16565399
212	0x3c409fe2	0.011756869
213	0xbe06aaee	-0.13151142
214	0xbd420e81	-0.047377113
215	0x3e321eb1	0.1739452
216	0xbdf92bb1	-0.121665366
217	0x3d693c2c	0.05694215
218	0x3cd91218	0.026497886
219	0x3d8bf63a	0.06834073
220	0x3d7cfbcc	0.06176357
221	0xbe272d5a	-0.16325894
222	0x3cf802f8	0.030274853
223	0xbdf8d2c6	-0.12149577
224	0xbd9a0df8	-0.075221956
225	0x3d08efa4	0.033431664
226	0x3d811a4a	0.06303842
227	0xbd869db4	-0.06573048
228	0x3e255bdd	0.16148324
229	0x3cc14358	0.023591682
230	0x3e0be76d	0.136625
231	0x3d789e8c	0.060698077
232	0xbd1e4cac	-0.03864734
233	0xbe650f9a	-0.22369233
234	0xbe07b2fe	-0.13251874
235	0x3c5a4127	0.013321198
236	0xbd98204c	-0.07428035
237	0xbe3715b4	-0.17879373
238	0x3e5078f2	0.20358637
239	0xbe1f4a84	-0.15555769
240	0x3ba51b63	0.005038665
241	0xbd6a67ca	-0.057227887
242	0x3c72b2ed	0.014813167
243	0xbdf57779	-0.11985678
244	0x3e02ebc1	0.12785245
245	0xbe2a7c44	-0.16648966
246	0x3d0b115b	0.0339521
247	0x3dab0e16	0.08352296
248	0xbe5aa1a5	-0.21350725
249	0x3e0ff13b	0.14056866
250	0x3cdeccd4	0.027197279
251	0x3d93d599	0.07218475
252	0xbe162992	-0.14664295
253	0xbe7e7645	-0.24849804
254	0xbdd97659	-0.10618276
255	0xbe0b469a	-0.13601151

net.0.bias f4 [128]
0	0xbd04d2fd	-0.032427777
1	0x3e4a8cc7	0.19780265
2	0x3e3dfc24	0.18553215
3	0x3d672cbb	0.056439143
4	0x3e463123	0.19354682
5	0xbe128f0a	-0.14312378
6	0xbce296c0	-0.027659774
7	0x3d647ffa	0.05578611
8	0xbdbf1103	-0.093294166
9	0x3cc490b1	0.023994775
10	0x3e51ae4f	0.2047665
11	0xbd0f2dbd	-0.03495573
12	0xbd3fffc4	-0.046874776
13	0x3c0ce3ee	0.008599265
14	0x3e54ee6f	0.2079408
15	0xbe35f1cc	-0.1776802
16	0x3ce5da82	0.028058294
17	0x3e0d7a80	0.13816261
18	0x3d21bdab	0.039487522
19	0x3e45c915	0.19314988
20	0x3da4717e	0.080294594
21	0x3d823b90	0.06359017
22	0x3df59a56	0.11992328
23	0xbcdcabf3	-0.02693746
24	0x3e4db0db	0.20086996
25	0x3c4e3122	0.012584956
26	0x3e070291	0.13184573
27	0x3d5fc743	0.05463339
28	0xbe0c742e	-0.13716194
29	0xbd3303cd	-0.043704797
30	0x3e577ceb	0.21043746
31	0xbe5c73e0	-0.21528578
32	0xbe29db9a	-0.16587678
33	0x3e80cd37	0.25156567
34	0xbdc6bbef	-0.09703814
35	0x3ccda68f	0.025103835
36	0x3e5b24b6	0.21400723
37	0xbd54aa36	-0.05192014
38	0xbe46f809	-0.19430555
39	0xbdc0fcab	-0.094231926
40	0xbe4a9b48	-0.19785798
41	0xbdb196d2	-0.08671345
42	0x3d0ac553	0.03387959
43	0x3def63e2	0.11688973
44	0xbe2015ac	-0.15633267
45	0xbda73466	-0.08164291
46	0x3e749dcf	0.23888324
47	0x3c041f45	0.008064096
48	0x3d9771cb	0.07394751
49	0xbe563a3a	-0.20920649
50	0x3d7d5d86	0.06185677
51	0xbda1557c	-0.07877633
52	0x3ca1565e	0.019694503
53	0xbe531339	-0.20612802
54	0xbd2d1059	-0.04225192
55	0x3c8e4ab4	0.017369606
56	0x3d4ea016	0.05044564
57	0xbe0080cb	-0.1254913
58	0xbe0c3be8	-0.13694727
59	0x3e18fcf9	0.14940251
60	0x3e21b9bf	0.15793513
61	0xbdc70cd7	-0.09719246
62	0xbdc964ea	-0.09833701
63	0x3e0aa41e	0.13539168
64	0xbdf3d376	-0.11905567
65	0x3d38d894	0.04512842
66	0xbe15f01f	-0.1464238
67	0xbe4c20e1	-0.19934417
68	0x3d59461e	0.053045385
69	0xbc756f01	-0.014980079
70	0x3d380370	0.044925153
71	0x3e1cc1c3	0.15308289
72	0xbdddd3e1	-0.10831428
73	0xbdbaa710	-0.09113896
74	0x3e667917	0.2250713
75	0x3e209a39	0.15683831
76	0x3dabfe2f	0.08398091
77	0xbd507378	-0.05089137
78	0xbe451156	-0.19244894
79	0x3e0541cc	0.13013381
80	0x3cdaf01c	0.026725821
81	0xbe331ad7	-0.17490707
82	0x3de7543c	0.11295363
83	0x3d9f5872	0.077805415
84	0xbe019abd	-0.12656684
85	0xbd672dd4	-0.05644019
86	0xbabc1360	-0.0014349036
87	0xbe67f544	-0.22652155
88	0xbdae903a	-0.08523603
89	0xbe409c62	-0.18809655
90	0x3e7719a7	0.2413088
91	0x3e3d1e28	0.18468535
92	0x3d31278c	0.043250605
93	0x3bccfdc0	0.0062558353
94	0xbdac8e35	-0.08425561
95	0xbca59d38	-0.02021657
96	0x3e76b905	0.24094017
97	0x3e50d356	0.20393118
98	0x3e201e09	0.15636458
99	0x3ddb443f	0.10706376
100	0xbcbe5487	-0.023233665
101	0xbe2849cd	-0.16434403
102	0xbdcd15e3	-0.1001394
103	0xbe3c2371	-0.18372895
104	0xbd450b77	-0.048106637
105	0xbd6d21f0	-0.057893693
106	0xbe31b39e	-0.17353675
107	0x3e2a73ab	0.16645686
108	0x3d871672	0.06596078
109	0x3d0ff50f	0.035145815
110	0x3df3f520	0.11911988
111	0x3e2f319c	0.17108768
112	0xbc51fef5	-0.012817134
113	0xbd6a8316	-0.05725392
114	0x3e081cb4	0.132922
115	0xbe1f4cf7	-0.15556704
116	0x3c92bf1d	0.017913396
117	0x3e6dea57	0.23233925
118	0x3e417d5a	0.18895474
119	0xbe16c51d	-0.1472363
120	0x3dae083b	0.084976636
121	0x3d60c50f	0.05487543
122	0xbe358498	-0.17726362
123	0xbe54173c	-0.20711988
124	0x3e4ef779	0.20211591
125	0xbd53037a	-0.051516987
126	0xbd02962d	-0.0318815
127	0x3e10991a	0.14120904

net.2.weight f4 [256, 128]
0	0x3d35928e	0.04432922
1	0x3b7ff5e0	0.0039056465
2	0x3c7b4100	0.015335321
3	0xbda235ca	-0.07920416
4	0xbd3b805d	-0.045776714
5	0xbd5e181a	-0.054222204
6	0x3d8f95eb	0.070110165
7	0x3d0575fa	0.032583214
8	0xbd4b7c80	-0.04967928
9	0xbc849fa4	-0.016189404
10	0xbcfd4770	-0.030917853
11	0x3d2262ce	0.03964501
12	0x365c0000	3.2782555e-06
13	0xbc3e10d0	-0.011600688
14	0xbd89455c	-0.067026824
15	0x3da023cb	0.07819327
16	0xbcbad92c	-0.022808634
17	0xbcbc81ec	-0.02301117
18	0x3c877134	0.016533472
19	0xbcd9b0fc	-0.02657365
20	0xbd969840	-0.07353258
21	0x3d17b03e	0.037033312
22	0x3d05f2d6	0.03270229
23	0xbcea0a2c	-0.028569303
24	0x3d8c2ecd	0.06844864
25	0xbd684aff	-0.056712147
26	0xbd86eb7a	-0.06587882
27	0xbd8e1fe4	-0.069396764
28	0x3cf6a794	0.030109204
29	0x3d4bcd12	0.049756117
30	0x3c0d2b58	0.008616291
31	0x3cf726a0	0.030169785
32	0xbd618d66	-0.05506649
33	0xbc2ff558	-0.010739647
34	0xbd6ba7da	-0.057533123
35	0x3a16d200	0.00057533383
36	0x3c46db00	0.012137175
37	0xbcebbe76	-0.028777342
38	0x3d3eefc2	0.04661537
39	0xbd70894c	-0.058724687
40	0x3da5a63f	0.080883496
41	0x3daca13b	0.0842919
42	0x3d8b9b95	0.06816784
43	0x3ca4f01c	0.020134024
44	0x3daabdcd	0.08336983
45	0x3d378d8e	0.04481273
46	0x3d73f092	0.059555598
47	0x3c97de90	0.018538743
48	0x3dada4ab	0.084786735
49	0xbd4657ae	-0.04842346
50	0x3d687cb2	0.056759544
51	0x3cff80cc	0.031189345
52	0x3d784a0a	0.060617484
53	0x3c81d35c	0.015847854
54	0xbd6b4d6e	-0.05744689
55	0xbc928924	-0.01788766
56	0x3d9461b5	0.07245199
57	0x3c05a0a0	0.008155972
58	0xbd9ffffc	-0.07812497
59	0x3d56994a	0.05239228
60	0xbca9c184	-0.020722158
61	0xbce35dc2	-0.027754668
62	0xbcb4aa2c	-0.0220538
63	0xbd6c4986	-0.057687305
64	0x3b301e00	0.002687335
65	0xbd0308de	-0.03199088
66	0xbc49e698	-0.012323044
67	0xbc3429a8	-0.01099626
68	0xbc08c3f0	-0.008347496
69	0xbd221402	-0.039569862
70	0xbd80eb2a	-0.06294854
71	0x3cd3cd04	0.025854595
72	0x3cb8cb04	0.022557743
73	0x3d8932eb	0.06699165
74	0x3d96fd17	0.07372492
75	0x3d4a4c36	0.049389087
76	0xbc78a278	-0.015175454
77	0x3d82d3b9	0.06388039
78	0xbd01c476	-0.0316815
79	0x3d1df11a	0.03856001
80	0xbdb384a0	-0.087655306
81	0xbdad030b	-0.08447846
82	0xbd692277	-0.056917634
83	0xbd9956d0	-0.07487261
84	0xbd42ab1e	-0.04752647
85	0x3d5bb00e	0.053634696
86	0x3c1de460	0.009636968
87	0x3d900851	0.07032836
88	0xbd827e01	-0.063716896
89	0xbd7afb5e	-0.06127488
90	0x3d43983e	0.04775261
91	0xbd248126	-0.040162228
92	0xbd95fdc0	-0.073237896
93	0x3d466fd6	0.0484465
94	0x3c787a88	0.0151659325
95	0x3d9a9e6d	0.075497486
96	0x3db08e51	0.08620895
97	0xbd8faed8	-0.07015771
98	0xbd88cbbe	-0.06679486
99	0xbd7ca88c	-0.061684176
100	0xbd0e6da7	-0.03477254
101	0x3d28e842	0.041237123
102	0xbc13a890	-0.009012356
103	0xbda31876	-0.0796365
104	0x3d989e89	0.07452113
105	0x3d985331	0.074377425
106	0xbd0dc296	-0.0346094
107	0x3d833b87	0.06407838
108	0x3c842b20	0.016133845
109	0x3c8ebd78	0.01742433
110	0xbda94aae	-0.08266197
111	0x3d3020d6	0.043000065
112	0x3cdca968	0.026936248
113	0xbaae8080	-0.0013313442
114	0x3d16476e	0.036689214
115	0xbd9cd112	-0.076570645
116	0x3d48b212	0.048997946
117	0xbc56ab38	-0.013102345
118	0xbd8f8554	-0.07007852
119	0x3c549938	0.012975983
120	0xbd0daa7d	-0.03458642
121	0x3da1737f	0.07883357
122	0x3d877991	0.06614984
123	0xbd6de2c4	-0.05807759
124	0x3a3d1b80	0.00072138757
125	0x3d0cda94	0.03438814
126	0xbd3f4166	-0.04669323
127	0xbd8f6ca6	-0.07003145
128	0xbc5ea400	-0.013588905
129	0x3c185198	0.009296797
130	0xbc7996a8	-0.015233673
131	0xbdae6cb4	-0.08516827
132	0xbd41cc64	-0.047314063
133	0xbd9bad02	-0.07601358
134	0x3d094b4c	0.033519074
135	0xbda23303	-0.07919886
136	0xbc971740	-0.018443704
137	0x3c8c7ee0	0.017150342
138	0x3c204c68	0.009783842
139	0xbccd2ab4	-0.025044776
140	0x3d80546d	0.06266103
141	0x3cf1c738	0.02951394
142	0x3d45477e	0.048163883
143	0x3c6f4800	0.0146045685
144	0xbd065b03	-0.03280164
145	0x3d117142	0.0355084
146	0xbd300836	-0.04297658
147	0x3da865d1	0.08222545
148	0xbd8ec5a4	-0.06971291
149	0x3d91a5f5	0.07111732
150	0xbc9b8034	-0.01898203
151	0xbd184a3b	-0.037180167
152	0xbc572e98	-0.013133667
153	0xbca249b4	-0.019810535
154	0x3d724ac2	0.059153326
155	0x3d79b576	0.06096407
156	0x3d68b47e	0.056812756
157	0xbc3441e0	-0.011002034
158	0x3d2662a6	0.040621422
159	0x3da460f5	0.080263056
160	0x3d82b2f1	0.063817866
161	0x3d65722e	0.056017093
162	0xbda78f14	-0.08181587
163	0x3cc6c860	0.024265468
164	0x3d46f2a2	0.048571236
165	0xbd78f295	-0.06077822
166	0xbdae49f1	-0.08510197
167	0xbbbb6bb0	-0.0057196245
168	0xbd38a8b2	-0.045082755
169	0x3d461c22	0.048366673
170	0x3cb66ce4	0.02226872
171	0x3bd396e0	0.0064571947
172	0x3d545016	0.05183419
173	0x3dab996b	0.083788715
174	0xbadfb200	-0.0017066598
175	0xbdae6778	-0.08515829
176	0xbca40724	-0.020022936
177	0x3d05dd9c	0.032682046
178	0x3d72207e	0.05911302
179	0x3d700c56	0.058605514
180	0xbd3bd2bb	-0.045855265
181	0xbda26be4	-0.07930735
182	0x3c2c4e70	0.010516748
183	0xbd80dd81	-0.062922485
184	0xbdaf400c	-0.08557138
185	0xbda34c9b	-0.07973596
186	0xbb9aed40	-0.0047279894
187	0x3d7a46b2	0.061102577
188	0xbc225990	-0.009909049
189	0xbb4a6d00	-0.0030887723
190	0xbd1de217	-0.038545694
191	0x3d15fcca	0.03661803
192	0x3cc40c4c	0.023931645
193	0x3c51b080	0.012798429
194	0xbcb8b7b4	-0.022548534
195	0xbd04371a	-0.03227911
196	0xbc8e8a44	-0.017399915
197	0xbc771268	-0.015080072
198	0x3d7c714a	0.06163148
199	0x3d8fa423	0.070137285
200	0xbd74740e	-0.05968099
201	0x3d82edff	0.063930504
202	0xbdb417e3	-0.087936185
203	0x3c062b50	0.008189037
204	0xbdaf3e7a	-0.08556838
205	0xbd8ee083	-0.06976416
206	0x3d6a25fa	0.057165124
207	0xbd8f0c26	-0.06984739
208	0x3d804027	0.06262236
209	0x3d6331ea	0.055467524
210	0xbc624490	-0.013810292
211	0x3ce3adc4	0.027792819
212	0xbd32a7a2	-0.0436169
213	0x3d1eea72	0.038797803
214	0x3da4d491	0.08048356
215	0x3d95e1f1	0.073184855
216	0x3d348356	0.044070564
217	0xbba4deb0	-0.005031429
218	0xbd9ae9a1	-0.075640924
219	0xbda55317	-0.08072489
220	0xbcda8b9e	-0.026677903
221	0x3b71ebc0	0.00369142
222	0xbd24f621	-0.04027379
223	0x3d27b8be	0.04094767
224	0x3d26ac2a	0.040691532
225	0xbd854928	-0.06508094
226	0xbd6827f6	-0.056678735
227	0xbd508fcc	-0.050918385
228	0xbd89c0fe	-0.067262635
229	0x3cc723b4	0.024309017
230	0xbda8f164	-0.082491666
231	0x3d5bf122	0.05369676
232	0xbc593bc0	-0.013258874
233	0x3d777012	0.060409613
234	0xbda8420b	-0.08215722
235	0xbd927241	-0.071506985
236	0xbc703640	-0.014661372
237	0xbd356c5d	-0.044292796
238	0xbda24e92	-0.07925142
239	0xbd8ac9ca	-0.067767695
240	0x3d55390e	0.052056365
241	0xbd8e8ade	-0.069600806
242	0x3d82ec4f	0.063927285
243	0x3c7de238	0.015495829
244	0x3a96e8c0	0.0011513457
245	0x3d3014ce	0.04298859
246	0xbd8bcc58	-0.06826085
247	0xbd89142f	-0.06693303
248	0xbd68cc3b	-0.056835394
249	0xbd1e7232	-0.038683124
250	0x3ae37540	0.0017353669
251	0xbc2ea670	-0.010659799
252	0x3daeb649	0.08530862
253	0xbd280767	-0.041022684
254	0xbcb037a0	-0.021510899
255	0xbc57f700	-0.013181448

net.2.bias f4 [256]
0	0xbad5d000	-0.0016312599
1	0xbd1985b1	-0.037481014
2	0x3c106d93	0.008815187
3	0xbd19445a	-0.0374187
4	0x3d03d6f1	0.032187406
5	0x3c3b61c0	0.01143688
6	0x3ca82774	0.020526625
7	0x3db57e99	0.08862037
8	0xbca8922a	-0.020577509
9	0xbcb14a2f	-0.021641819
10	0xbd0df677	-0.034658875
11	0x3d947f4c	0.072508425
12	0x3d69a142	0.057038553
13	0x3c4d434f	0.012528255
14	0x3d9c560d	0.076336004
15	0xbbc95f62	-0.0061454037
16	0xbd5552b6	-0.052080832
17	0x3d9a8e32	0.07546653
18	0xbcd5e255	-0.0261089
19	0xbba9162d	-0.0051601143
20	0x3d5063fb	0.0508766
21	0xbc7604c1	-0.015015782
22	0xbcfd422b	-0.03091534
23	0x3d6b3f32	0.057433315
24	0xbc6a98d0	-0.01431866
25	0x3d52614c	0.05136232
26	0xbc312302	-0.010811569
27	0xbdb0e704	-0.08637813
28	0x3d080dbe	0.03321623
29	0xbbdbb117	-0.0067044604
30	0x3db5fb9c	0.08885881
31	0x3dca8356	0.098883316
32	0x3d90d456	0.0707175
33	0x3dd2348f	0.10263931
34	0xbd5934f4	-0.053029016
35	0x3a651835	0.0008739264
36	0x3da5e9fc	0.081012696
37	0x3d5c95cb	0.05385379
38	0x3d29e0af	0.04147404
39	0xbc9d454a	-0.019198079
40	0xbd56c96e	-0.052438192
41	0xbdae8db2	-0.0852312
42	0x3d1c0629	0.038091812
43	0x3d8daff5	0.06918327
44	0x3d322105	0.04348852
45	0xbd5f31cf	-0.05449086
46	0xbd081967	-0.03322735
47	0x3cc73880	0.024318933
48	0x3da6bb11	0.08141149
49	0xbdb3a2df	-0.087712996
50	0x3cf5213c	0.029923074
51	0x3b6a9a24	0.0035797441
52	0x3bedbb7a	0.007255015
53	0xbc1489f0	-0.00906609
54	0xbda89af3	-0.08232679
55	0x3d97588e	0.07389937
56	0x3c69983e	0.014257489
57	0xbd21265a	-0.039343216
58	0xbd8814ec	-0.066446155
59	0xbd47ef98	-0.04881248
60	0xbda2c3e8	-0.079475224
61	0xbd2d3efe	-0.042296402
62	0xbc9a5c18	-0.018842742
63	0x3d8ee50f	0.06977283
64	0x3d1ce2a8	0.038302094
65	0xbd2e7aaa	-0.04259745
66	0x3d1bcbc3	0.03803612
67	0x3d1e5f3f	0.038665053
68	0xbc6ec61a	-0.014573598
69	0xbd536e59	-0.051618908
70	0xbd56c457	-0.052433338
71	0x3d9ad11b	0.07559415
72	0x3cb70f84	0.022346266
73	0x3cc84a3a	0.024449456
74	0xbd8c8a92	-0.06862368
75	0x3d68a818	0.05680093
76	0x3cac9f2c	0.021071993
77	0xbba5528f	-0.005045242
78	0xbd975560	-0.07389331
79	0x3d9af223	0.07565715
80	0x3da1145c	0.07865211
81	0x3cc011b1	0.023445936
82	0xbd601ca6	-0.05471482
83	0x3c8c93b7	0.01716028
84	0x3ca844b8	0.02054058
85	0xbd304280	-0.04303217
86	0x3d69657b	0.056981545
87	0xbd6239ef	-0.05523103
88	0xbd7dcbcf	-0.061961945
89	0xbd2071b7	-0.039170947
90	0x3d26c8ca	0.04071883
91	0xbd34638a	-0.04404024
92	0x3da7dda8	0.081965744
93	0xbd52ea7d	-0.051493157
94	0xbc63cbaf	-0.013903542
95	0xbbc37eb1	-0.0059660305
96	0xbcda2783	-0.026630169
97	0xbda0e8da	-0.07856913
98	0xbd1a3691	-0.037649695
99	0x3d87766d	0.06614385
100	0x3ab007c5	0.001343005
101	0x3dbaa296	0.09113042
102	0x3d72696b	0.059182566
103	0x3db34bee	0.08754717
104	0xbd48c410	-0.049015105
105	0x3d127206	0.035753272
106	0x3cc01d42	0.023451451
107	0x3d0bf846	0.03417232
108	0xbcfd2a69	-0.030904012
109	0xbc82d22f	-0.015969364
110	0x3d4ae4d4	0.049534634
111	0xbc216a40	-0.009851992
112	0x3d1d532d	0.0384094
113	0x3cbf390f	0.023342637
114	0xbc9c8a3e	-0.019108888
115	0x3d4db121	0.05021775
116	0x3d9700ee	0.07373224
117	0xbda46d4c	-0.08028659
118	0x3d6671b7	0.05626079
119	0xbd671750	-0.056418717
120	0x3d6a533a	0.057208277
121	0x3d6c682a	0.057716526
122	0x3d1468a6	0.036232613
123	0x3c8d9c9f	0.017286597
124	0x3d2d7a71	0.042353097
125	0x3d311d75	0.043240983
126	0x3d3dc014	0.046325758
127	0xbd5870a4	-0.052841797
128	0x3da84334	0.08215943
129	0xbd6c24f1	-0.057652418
130	0x3cf19864	0.02949161
131	0x3da462f8	0.08026689
132	0x3d809560	0.06278491
133	0x3d3bcf2b	0.045851868
134	0x3d84b479	0.06479735
135	0x3d165c01	0.036708836
136	0x3caa350e	0.020777252
137	0xbb7a8187	-0.0038224177
138	0xbd99b506	-0.075052306
139	0xbc0c9f70	-0.008582935
140	0x3d137a6c	0.036005422
141	0xbb870bc1	-0.004121274
142	0x3da55a11	0.080738194
143	0x3d9627b3	0.07331791
144	0x3dc0b352	0.09409203
145	0x3d21dde4	0.039518252
146	0xbd0c3a37	-0.034235206
147	0xbd44e125	-0.048066277
148	0xbdb2a5dd	-0.08723042
149	0xbd0b75c0	-0.034047842
150	0x3cb62154	0.022232689
151	0x3cdee2a5	0.027207682
152	0xbcab5adc	-0.020917349
153	0xbcc6b91f	-0.024258194
154	0xbd5f2670	-0.054480016
155	0xbc6f7f68	-0.014617778
156	0x3d8bb6cf	0.06821977
157	0xbd89df4c	-0.067320436
158	0xbc3bd456	-0.011464199
159	0x3dd1d32f	0.10245358
160	0xbc95d909	-0.018291967
161	0x3d0dfadd	0.03466307
162	0x3d59650c	0.05307488
163	0xbc86d5d3	-0.016459381
164	0xbd7ce7ca	-0.06174449
165	0x3d7b1f7c	0.061309323
166	0xbcfbb0ce	-0.030723955
167	0xbd87d1da	-0.06631823
168	0xbd7a5f2c	-0.06112592
169	0x3da599cb	0.08085974
170	0xbd315e82	-0.04330302
171	0xbd016b36	-0.031596385
172	0x3c0252ae	0.007954283
173	0xbd699aba	-0.057032324
174	0x3dafb438	0.08579296
175	0x3c9c8b6b	0.019109448
176	0xbd42598f	-0.04744869
177	0xbb91efdf	-0.0044536437
178	0xbd60102b	-0.05470292
179	0xbd8320c1	-0.06402732
180	0x3c30c67e	0.010789512
181	0x3dd25808	0.10270697
182	0x3d74e533	0.059788894
183	0x3c06ac8c	0.008219849
184	0x3d074614	0.033025816
185	0xbd0051ec	-0.031328127
186	0xbb60c5e0	-0.003429763
187	0x3dc1b4c8	0.094583094
188	0x3d07b029	0.033126984
189	0xbcde52de	-0.027139124
190	0xbcd164f7	-0.02556084
191	0x3d19a136	0.03750726
192	0x3dbf70d9	0.09347696
193	0xbd48079d	-0.048835386
194	0xbc031d6e	-0.008002622
195	0xbd57b254	-0.0526603
196	0x3c65c96b	0.014025073
197	0x3d9088be	0.070573315
198	0x3d3ffb49	0.046870504
199	0xbc78e4dd	-0.015191284
200	0xbc15541b	-0.009114291
201	0xbd9aeeac	-0.07565054
202	0xbd0b3fa7	-0.03399625
203	0xbd8bc7e0	-0.068252325
204	0xbd38d97e	-0.04512929
205	0xbb9ceba3	-0.0047888323
206	0xbd1bfeee	-0.038084917
207	0x3d816bb2	0.063193694
208	0x3c4dc65e	0.012559501
209	0x3cd8ee37	0.026480777
210	0x3d6c4c0e	0.05768972
211	0x3d8380e6	0.0642107
212	0xbd74f98b	-0.059808295
213	0xbc540dfd	-0.012942788
214	0x3cb131d2	0.021630201
215	0x3d0efa7f	0.03490686
216	0x3d91da96	0.0712177
217	0x3d99da25	0.07512311
218	0x3d181b2e	0.037135296
219	0x3ce18a29	0.0275317
220	0x3b41a007	0.0029544847
221	0x3c1c9e38	0.009559207
222	0x3b8aee20	0.0042398125
223	0x3d30a3c5	0.043124933
224	0x3d964bf0	0.07338703
225	0xbc351ff6	-0.011054983
226	0x3d92e035	0.0717167
227	0x3d80a4d7	0.06281441
228	0xbcc8f373	-0.024530148
229	0xbd1b7c36	-0.037960254
230	0xbd38571b	-0.045004945
231	0x3bc13d30	0.0058971867
232	0xbd488bce	-0.048961453
233	0xbccaf033	-0.024772739
234	0xbd5c3503	-0.053761493
235	0x3d459d4e	0.04824572
236	0xbda43b11	-0.080190785
237	0x3d8eef0e	0.0697919
238	0xbd125423	-0.03572477
239	0xbd16edbe	-0.036847822
240	0x3c74d64e	0.014943672
241	0xbd2790b8	-0.0409095
242	0xbbf20721	-0.0073861037
243	0x3cf838a3	0.030300444
244	0x3d217549	0.039418492
245	0x3db61edb	0.08892604
246	0xbd2b5183	-0.041825783
247	0xbdc40450	-0.09571135
248	0x3d4af2fc	0.049548134
249	0x3d2fcd81	0.042920593
250	0xbd14b983	-0.03630973
251	0x3d535780	0.05159712
252	0x3dcdd72d	0.10050807
253	0x3dc3f8de	0.09568952
254	0xbda3fdd3	-0.080073975
255	0x3db77428	0.08957702

net.4.weight f4 [1, 256]
0	0x3c33d808	0.010976799
1	0x3d0103bc	0.031497702
2	0x3c9b5110	0.018959552
3	0x3d878fb8	0.06619209
4	0x3d3f77c4	0.046745077
5	0x3d819dc9	0.06328923
6	0x3d88990f	0.066698186
7	0xbd2315bd	-0.039815653
8	0xbcf20263	-0.029542154
9	0xbd9b0ca0	-0.075707674
10	0xbd28fb7f	-0.04125547
11	0x3da6d07d	0.08145235
12	0xbd54719e	-0.051866166
13	0xbd776f5d	-0.06040894
14	0xbdb7443a	-0.0894856
15	0xbd4a37fa	-0.04936979
16	0x3d731011	0.059341494
17	0x3d0f304f	0.03495818
18	0xbd8f12f3	-0.06986036
19	0xbd65e5e0	-0.05612743
20	0x3d8cd6e5	0.068769254
21	0xbcd04a92	-0.025426183
22	0xbd175ff2	-0.036956735
23	0xbcc3613c	-0.023850076
24	0x3ce064b5	0.02739177
25	0x3d37a31a	0.04483328
26	0xbd710483	-0.058842193
27	0xbcb4b36c	-0.022058211
28	0x3d09de88	0.033659488
29	0xbce1fbcd	-0.027585888
30	0xbca883cd	-0.02057066
31	0x3d99ebb2	0.075156584
32	0x3da0056c	0.07813534
33	0x3d82308c	0.06356916
34	0xbd729e16	-0.059232794
35	0xbd4a0409	-0.049320254
36	0x3da287c1	0.07936049
37	0xbd27b805	-0.04094698
38	0x3d75118e	0.059831195
39	0x3d1cd881	0.03829241
40	0x3d7b41c0	0.061342
41	0x3d0d7219	0.03453264
42	0xbda28855	-0.079361595
43	0x3d5fa275	0.05459829
44	0x3d4bb606	0.049734138
45	0xbd400c67	-0.046886828
46	0xbd343b39	-0.04400179
47	0xbd4a026a	-0.04931871
48	0xbd1ffdc3	-0.039060365
49	0x3cbae5e8	0.022814706
50	0x3d3f892c	0.046761677
51	0xbd08b343	-0.033374082
52	0xbd2a5fd1	-0.041595284
53	0x3d84c233	0.06482353
54	0xbcd12ce8	-0.025534108
55	0xbd994697	-0.07484167
56	0x3d6b053c	0.05737804
57	0xbd9dc39d	-0.07703326
58	0xbd270aec	-0.0407819
59	0x3d20ae36	0.03922864
60	0xbd7c2459	-0.0615581
61	0x3d48a21f	0.048982736
62	0xbd451b54	-0.048121765
63	0xbda82168	-0.08209497
64	0xbd6987b1	-0.05701417
65	0x3d178942	0.036996134
66	0x3cfe454c	0.031038903
67	0xbd35cff0	-0.044387758
68	0xbd22816b	-0.039674204
69	0xbd1fdf4c	-0.039031312
70	0x3cfdc0c5	0.030975709
71	0xbc39b678	-0.011335008
72	0x3d89fd4a	0.06737764
73	0xbdb8947a	-0.09012695
74	0xbd1b20b7	-0.037872996
75	0x3d48eb92	0.049052782
76	0xbd624dce	-0.05524998
77	0xbc6c0d5e	-0.014407484
78	0xbd66cfb4	-0.056350425
79	0xbd8fca15	-0.07020966
80	0x3ca19c5a	0.019727875
81	0x3d275ead	0.040861774
82	0xbd3ddfdf	-0.04635608
83	0xbcb29239	-0.02179824
84	0x3d5b4bf6	0.05353924
85	0xbda48481	-0.080330856
86	0xbd4ae1f2	-0.049531884
87	0x3d361a93	0.044458937
88	0xbd6d0a3e	-0.057871096
89	0x3d64da14	0.055872038
90	0x3ccfe3bc	0.025377147
91	0xbd1f4095	-0.03887995
92	0xbbaad3bc	-0.005213229
93	0xbd3ee57c	-0.046605572
94	0x3d103f1e	0.035216443
95	0xbc9ba359	-0.018998789
96	0x3dac7a4c	0.08421764
97	0xbd531639	-0.051534865
98	0x3d864b5f	0.06557345
99	0x3d8608ae	0.06544624
100	0xbd556300	-0.052096367
101	0x3d71d130	0.059037387
102	0xbc79b19c	-0.015240099
103	0x3cde49fb	0.027134886
104	0xbd48ca6f	-0.04902118
105	0xbd2731a2	-0.040818818
106	0x3d45661b	0.04819308
107	0x3d2fbaaa	0.042902626
108	0x3cf43a8f	0.02981308
109	0xbd90ba1c	-0.070667475
110	0x3d94c825	0.07264737
111	0x3d24211e	0.040070646
112	0x3d015d2f	0.031583007
113	0xbd211bb5	-0.039333064
114	0xbbc1d2a2	-0.005915002
115	0xbd743915	-0.05962475
116	0x3ce670e7	0.028130008
117	0xbd79ef85	-0.06101944
118	0xbd360298	-0.044436067
119	0x3d3adf80	0.045623302
120	0xbd105df6	-0.035245858
121	0xbc91c995	-0.017796317
122	0xbd359dfc	-0.04434012
123	0x3d3a4384	0.045474544
124	0x3cd48b70	0.025945395
125	0xbc60013b	-0.013672168
126	0xbd606423	-0.054782998
127	0xbd2330b1	-0.039841358
128	0xbd14e2f0	-0.036349237
129	0xbd5f50e0	-0.054520488
130	0xbcba87de	-0.022769865
131	0xbd8ffbe5	-0.07030467
132	0xbc489058	-0.0122414455
133	0xbd93891b	-0.07203885
134	0xbd45f047	-0.04832485
135	0xbd6ef90a	-0.05834297
136	0x3d3275d6	0.04356941
137	0xbd539730	-0.051657856
138	0x3d6631e2	0.056199916
139	0x3d5042e6	0.05084505
140	0x3d2f7e62	0.042845137
141	0x3d56bc50	0.052425683
142	0x3cc228f1	0.023701163
143	0x3d429ace	0.047510915
144	0x3d5c7098	0.053818315
145	0xbd8515ba	-0.06498285
146	0x3d562be5	0.052287955
147	0xbda68cd7	-0.08132332
148	0x3d3d977c	0.046287045
149	0xbd17f242	-0.03709627
150	0x3ce0cb88	0.027440801
151	0xbd88adc7	-0.066737704
152	0x3d9136a7	0.07090502
153	0x3c29aff0	0.010356888
154	0xbc81dc85	-0.015852222
155	0xbd5acc49	-0.053417478
156	0x3d56b79c	0.052421197
157	0x3d8a87fd	0.06764219
158	0x3da96b64	0.08272436
159	0x3db01a1c	0.0859873
160	0x3d19d662	0.037557967
161	0xbd3ae5ba	-0.04562924
162	0x3ca59af1	0.020215483
163	0xbd6fe83e	-0.058571093
164	0xbca2b264	-0.019860454
165	0x3bb39d06	0.005481365
166	0x3c1cd718	0.009572767
167	0x3cb2b8a7	0.021816565
168	0xbc1dbc58	-0.009627424
169	0xbd88388c	-0.066514105
170	0x3d734441	0.059391264
171	0xbce438b1	-0.027859064
172	0xbd929487	-0.071572356
173	0x3ba15020	0.0049228817
174	0x3d336680	0.043798923
175	0xbd7fd3d6	-0.062457882
176	0xbcfe9767	-0.031078054
177	0xbd618781	-0.055060867
178	0x3db43739	0.087995954
179	0xbc83709e	-0.016044911
180	0x3cd9df02	0.026595596
181	0x3d4fe109	0.05075172
182	0x3d7df921	0.062005166
183	0x3d9d12e0	0.07669616
184	0xbcbae63a	-0.022814859
185	0xbca4bbc6	-0.020109069
186	0xbca7bdb4	-0.0204762
187	0x3ccc7f62	0.024963085
188	0xbd541788	-0.051780254
189	0x3d6dac7c	0.058025822
190	0x3ce5d9ff	0.02805805
191	0x3cbf31fc	0.023339264
192	0x3d47decc	0.04879646
193	0x3acb6f00	0.0015520751
194	0x3d37e0df	0.04489219
195	0x3c570c17	0.013125441
196	0x3c808014	0.015686072
197	0x3d9ede75	0.07757274
198	0xbd90c5b5	-0.070689596
199	0x3cd98076	0.026550513
200	0xbd44f2b9	-0.04808304
201	0x3d84b3ce	0.064796075
202	0x3d713dc4	0.058896795
203	0x3b4b72a0	0.0031043664
204	0x3cc36a7e	0.02385449
205	0xbbe1716f	-0.0068799774
206	0xbc38f49d	-0.011288789
207	0xbcab2a2b	-0.02089413
208	0x3cc199ec	0.023632966
209	0x3d0f6063	0.03500403
210	0x3d189e56	0.037260376
211	0x3d5b414c	0.05352907
212	0x3c75c968	0.015001632
213	0xbdb84db4	-0.08999196
214	0x39ac176c	0.00032823847
215	0xbd6cab86	-0.057780765
216	0x3d1ff7da	0.03905473
217	0xbdaa32c0	-0.08310461
218	0xbc5da428	-0.013527907
219	0xbd97aad5	-0.074056305
220	0xbb2767c3	-0.0025544025
221	0xbcdfc105	-0.027313719
222	0x3d6aafde	0.057296626
223	0x3d44482a	0.047920384
224	0xbd488367	-0.04895344
225	0x3d26b3a9	0.04069868
226	0xbcd94a35	-0.026524642
227	0x3d59c04b	0.0531619
228	0xbd7bbf34	-0.061461642
229	0xbd7fcda4	-0.062451974
230	0x3cd5d627	0.026103092
231	0x3d60718a	0.05479578
232	0xbd47d7aa	-0.048789658
233	0xbd841f0c	-0.06451234
234	0x3d166d87	0.036725547
235	0x3d995802	0.07487489
236	0xbc2173f0	-0.009854302
237	0x3d632b19	0.055461023
238	0x3d688b07	0.05677321
239	0x3d3bc7c7	0.04584482
240	0x3cf2036a	0.029542644
241	0xbcba0fce	-0.022712614
242	0xbd6f7707	-0.058463123
243	0x3d708241	0.05871797
244	0xbd389397	-0.045062628
245	0x3d8633ab	0.06552824
246	0xbd145532	-0.03621406
247	0xbcbb31d7	-0.022850914
248	0xbda37360	-0.079809904
249	0xbc83e0cd	-0.016098404
250	0x3d6c1544	0.057637468
251	0x3d2fc2c6	0.04291036
252	0x3d309f48	0.043120652
253	0x3d8061a1	0.06268621
254	0xbd646122	-0.055756696
255	0x3d935e65	0.07195739
