runs_bakeup/v_no32.pth (torch, 144972 bytes, 5 tensors)

net.0.weight f4 [128, 18]
0.108458355 -0.00539272 0.17340694 0.20035703 -0.12221965 0.1350665 0.11153838 -0.18452501
0.01382094 -0.2043368 -0.32673913 0.04393093 -0.26381984 -0.17457306 -0.17289628 -0.1143445
0.20465156 0.06535507 -0.027374486 0.115615554 -0.13999696 0.06285576 -0.14025517 -0.09492466
0.07323953 -0.24909195 0.16317149 0.07228059 0.26030123 0.074556954 0.107258685 0.0073507926
-0.010469741 0.14825957 -0.0565243 0.16271868 -0.082526006 -0.0911761 -0.07436938 0.21224566
-0.058972523 0.058218252 -0.24319679 0.1655496 -0.09641371 -0.013692538 0.18793839 -0.2149633
-0.025238562 -0.04147122 0.11591716 -0.09958872 0.16172674 -0.030115282 -0.022698043 -0.16892065
-0.061169825 -0.052588068 -0.25028378 0.03785629 0.19709897 -0.1286654 0.16400838 0.10549011
0.20894061 -0.04520622 -0.20127197 0.09578857 0.11224296 -0.051949866 -0.22751756 0.1711902
0.052728117 -0.025438238 0.16385657 0.1281723 -0.01054111 0.19511902 -0.014964845 -0.19859006
-0.1576038 0.14001067 -0.068855286 -0.020209102 -0.008023655 0.033767615 0.048004773 0.14085065
-0.011948499 -0.01708779 0.065726385 0.043462098 -0.21767841 0.16306509 0.18528783 -0.15477052
-0.22049658 -0.001324291 -0.037451323 -0.20238796 0.22588004 0.16102661 -0.04682766 0.13450997
-0.10816699 -0.24143392 0.014508457 0.2882925 -0.16081418 -0.27769002 0.0702038 0.19813947
-0.17632866 -0.17989428 -0.079458974 -0.24028239 0.022339176 0.098873265 -0.22621375 -0.13998221
-0.118229724 -0.14251082 -0.038377017 -0.06564735 0.097672924 -0.20186932 0.11639268 0.031443596
0.17544763 0.15117547 -0.031036912 -0.13760832 0.10374894 0.1697573 0.1681243 -0.15991816
-0.2996749 -0.22867188 0.16129838 -0.1996628 -0.18716475 -0.2237977 -0.07755371 0.20615545
0.15381612 0.15899655 0.032528017 0.15239842 0.22878976 -0.18644041 -0.12176301 0.17242889
-0.14246377 -0.21537076 0.13827848 -0.17142725 -0.0024404817 0.18637472 -0.018627863 0.037349824
0.023049062 -0.19750369 -0.06205471 -0.16224925 -0.15065864 -0.02242815 0.07687014 -0.1548572
0.21813263 0.17659847 0.17591526 0.14273599 -0.3195206 -0.1472591 -0.23715895 0.18927196
0.09769252 0.1736741 -0.1935383 -0.19964422 -0.019526869 0.0056961286 -0.26999146 0.22339301
-0.21881935 0.07762896 0.15572096 0.2396567 0.102981605 -0.07088735 -0.16890644 -0.024652533
0.21097232 -0.070775 -0.23124953 -0.16184442 0.0907808 0.22055158 0.061898846 -0.030280584
0.06204967 0.028286248 -0.13579348 0.0612355 0.15607423 0.05766828 0.21574992 -0.16442963
-0.15441804 -0.14098565 0.21232519 0.09989982 0.10657375 -0.08181527 -0.10233535 -0.11066866
-0.06858292 -0.05795856 -0.0833899 -0.13453089 -0.09129939 0.11782599 0.013685445 0.12905091
-0.0056425976 -0.24764997 -0.22371836 -0.101763085 0.04658775 -0.17584328 0.059807442 -0.16048303
-0.110429205 -0.15718658 -0.02885369 -0.21209118 -0.058571413 -0.19894858 -0.17632522 -0.19482633
0.10264143 -0.2177102 -0.11919891 0.012361015 0.33447364 -0.18385945 -0.041126568 -0.23505583
-0.18616647 0.052142978 0.0672556 -0.1877739 0.08191224 -0.06416254 0.21922725 -0.19384031
00000000: 6a1f de3d 6ab5 b0bb 9791 313e 652a 4d3e
00000010: 4c4e fabd df4e 0a3e 3c6e e43d 20f4 3cbe
00000020: 3971 623c ab3d 51be 5a4a a7be ebf0 333d
00000030: 6513 87be 48c3 32be b90b 31be 732d eabd
00000040: 2e90 513e e1d8 853d 7540 e0bc d9c7 ec3d
00000050: 5d5b 0fbe 85ba 803d 0d9f 0fbe dc67 c2bd
00000060: 9bfe 953d f611 7fbe 6d16 273e d907 943d
00000070: 3446 853e 51b1 983d 71aa db3d ebde f03b
00000080: 4789 2bbc 5bd1 173e 0686 67bd ba9f 263e
00000090: 6503 a9bd 89ba babd f94e 98bd ed56 593e
000000a0: 2c8d 71bd 4376 6e3d 9408 79be d685 293e
000000b0: 8d74 c5bd ab56 60bc ec72 403e 571f 5cbe
000000c0: 1ac1 cebc badd 29bd fa65 ed3d 2cf5 cbbd
000000d0: b29b 253e 53b4 f6bc 3ff1 b9bc 89f9 2cbe
000000e0: 368d 7abd 9666 57bd 3225 80be 320f 1b3d
000000f0: 50d4 493e ddc0 03be d0f1 273e 330b d83d
00000100: 87f4 553e 282a 39bd 3d1a 4ebe cc2c c43d
00000110: a3df e53d 62c9 54bd 5dfa 68be 7c4c 2f3e
00000120: 70f9 573d da63 d0bc 04ca 273e 993f 033e
00000130: 9fb4 2cbc 48cd 473e 1c2f 75bc 315b 4bbe
00000140: e462 21be f55e 0f3e 0004 8dbd 8f8d a5bc
00000150: a675 03bc e94f 0a3d a7a0 443d 273b 103e
00000160: a3c3 43bc b1fb 8bbc 8e9b 863d 5005 323d
00000170: 17e7 5ebe 89fa 263e 18bc 3d3e 2a7c 1ebe
00000180: dbc9 61be d593 adba 8f66 19bd ca3e 4fbe
00000190: 194d 673e 29e4 243e 5cce 3fbd fbbc 093e
000001a0: a886 ddbd 743a 77be e1b4 6d3c 139b 933e
000001b0: 79ac 24be 632d 8ebe 03c7 8f3d 13e5 4a3e
000001c0: 808f 34be 3536 38be 63bb a2bd 960c 76be
000001d0: a600 b73c 117e ca3d 94a4 67be 7f57 0fbe
000001e0: 6d22 f2bd 5bee 11be 3831 1dbd 1e72 86bd
000001f0: be08 c83d d5b6 4ebe 495f ee3d 00cb 003d
00000200: 8ba8 333e becd 1a3e 1f41 febc 32e9 0cbe
00000210: 537a d43d dcd4 2d3e c728 2c3e 96c1 23be
00000220: fd6e 99be f628 6abe 672b 253e 6874 4cbe
00000230: 1ea8 3fbe 392b 65be 7bd4 9ebd 6a1a 533e
00000240: f981 1d3e fecf 223e 193c 053d 550e 1c3e
00000250: dd47 6a3e 3cea 3ebe e35e f9bd 3391 303e
00000260: 06e2 11be 278a 5cbe e098 0d3e a08a 2fbe
00000270: 7df0 1fbb 04d9 3e3e 7699 98bc 21fc 183d
00000280: 63d1 bc3c 683e 4abe 142d 7ebd ab24 26be
00000290: 4246 1abe 3dbb b7bc 186e 9d3d e392 1ebe
000002a0: 295e 5f3e 3bd6 343e 2123 343e 6229 123e
000002b0: 3498 a3be 17cb 16be ccd9 72be 82d0 413e
000002c0: 0413 c83d a0d7 313e e72e 46be 896f 4cbe
000002d0: d0f6 9fbc 97a6 ba3b 523c 8abe 23c1 643e
000002e0: 2e12 60be effb 9e3d 5175 1f3e 9168 753e
000002f0: 05e8 d23d 632d 91bd cff5 2cbe 1cf4 c9bc
00000300: 2109 583e 7cf2 90bd adcc 6cbe 8bba 25be
00000310: 49eb b93d 46d8 613e a589 7d3d fd0e f8bc
00000320: cb27 7e3d 90b8 e73c 720d 0bbe 13d2 7a3d
00000330: ecd1 1f3e 9335 6c3d 8ced 5c3e 3e60 28be
00000340: c31f 1ebe 8b5e 10be c66b 593e 4798 cc3d
00000350: 5743 da3d c48e a7bd 3295 d1bd 40a6 e2bd
00000360: 3475 8cbd f465 6dbd 53c8 aabd 77c2 09be
00000370: 2dfb babd c14e f13d eb38 603c ec25 043e
00000380: 8ae5 b8bb f497 7dbe 6d16 65be 2a69 d0bd
00000390: ccd2 3e3d 4310 34be a6f8 743d aa55 24be
000003a0: b528 e2bd 85f5 20be 935e ecbc 6e2e 59be
000003b0: 94e8 6fbd 2db9 4bbe 998e 34be 8e80 47be
000003c0: ac35 d23d 6cef 5ebe 8f1e f4bd db85 4a3c
000003d0: 2140 ab3e a745 3cbe 5574 28bd 7ab2 70be
000003e0: 6ca2 3ebe e093 553d 4ebd 893d cd47 40be
000003f0: 9bc1 a73d a667 83bd 1c7d 603e 137e 46be

net.0.bias f4 [128]
-0.048330344 -0.03278085 0.09312734 0.1910981 -0.09756437 0.15537027 0.00998118 -0.0033636766
-0.13857065 -0.016921647 -0.16944319 -0.011526559 0.29029337 0.2669681 0.25712103 0.15467834
0.23623362 -0.07899773 0.09869391 -0.031021906 0.09187522 0.17843847 -0.23137324 -0.21243508
0.0621638 -0.08200429 0.12903415 0.07671638 -0.010998573 -0.032067716 -0.026339877 0.06148378
0.09644599 0.032407124 0.14308827 0.14627555 -0.20943928 0.23801348 -0.14126389 0.23989083
0.20051086 -0.07069719 0.25694743 -0.18666853 -0.035476837 0.239262 -0.028713586 -0.119940996
-0.028864564 -0.07509046 0.063383095 0.1241602 -0.097186394 0.181561 -0.02503484 0.27034765
-0.12284738 -0.015330062 0.0618317 0.12307726 0.10418868 0.12509097 0.107635394 0.16454859
0.117040284 -0.19015929 -0.10101385 0.22076263 -0.07704743 -0.0570296 -0.009709853 0.13288237
0.17047381 0.011121859 0.013761802 -0.16352746 -0.18339148 -0.23520374 0.11417575 0.026236584
0.1411944 0.037644703 0.00410004 0.05191707 -0.0931181 -0.06984939 -0.018653 0.101454966
-0.009189112 -0.14893223 -0.01783681 0.24602278 0.12725404 0.16185711 0.2481134 0.09213546
-0.017837122 0.0059388545 0.2605341 0.19400251 -0.13243583 0.26286784 -0.15750507 0.2558384
0.084712334 0.18888924 -0.15575895 0.15695865 -0.21071284 0.27580112 -0.06999569 -0.22157933
-0.22939508 -0.14145686 0.10446744 0.15363477 0.18561189 0.053319108 -0.020169573 0.19408494
-0.013300241 0.0019947127 0.16369198 -0.15209043 0.07194303 0.23185746 -0.16324332 0.16113009
00000000: 0af6 45bd 3645 06bd 8cb9 be3d 38af 433e
00000010: d4cf c7bd 6219 1f3e 1a88 233c 2171 5cbb
00000020: 77e5 0dbe 449f 8abc 8482 2dbe e4d9 3cbc
00000030: 55a1 943e 0bb0 883e 5ea5 833e 0064 1e3e
00000040: 3ae7 713e 90c9 a1bd 0820 ca3d a721 febc
00000050: 1329 bc3d 93b8 363e 1bed 6cbe 9588 59be
00000060: 789f 7e3d ddf1 a7bd 8721 043e 7a1d 9d3d
00000070: 5c33 34bc 7059 03bd bac6 d7bc 6bd6 7b3d
00000080: 7a85 c53d 55bd 043d bb85 123e 42c9 153e
00000090: 4077 56be ceb9 733e 7ba7 10be f1a5 753e
000000a0: b852 4d3e b0c9 90bd 9d8e 833e 0926 3fbe
000000b0: 2950 11bd 1901 753e c138 ebbc a0a3 f5bd
000000c0: 6175 ecbc 07c9 99bd ffce 813d b447 fe3d
000000d0: a909 c7bd 20eb 393e dd15 cdbc 026b 8a3e
000000e0: 6897 fbbd f12a 7bbc 3d43 7d3d ee0f fc3d
000000f0: e060 d53d d917 003e f26f dc3d 6d7f 283e
00000100: d1b2 ef3d 1eb9 42be 59e0 cebd 990f 623e
00000110: 0bcb 9dbd df97 69bd 1316 1fbc 5112 083e
00000120: b090 2e3e 7538 363c 2e79 613c be73 27be
00000130: faca 3bbe 40d9 70be fad4 e93d 1bee d63c
00000140: 4495 103e 5531 1a3d a159 863b fea6 543d
00000150: b4b4 bebd 320d 8fbd 2dce 98bc 9fc7 cf3d
00000160: ee8d 16bc b181 18be 801e 92bc 65ed 7b3e
00000170: e24e 023e dfbd 253e 7011 7e3e 84b1 bc3d
00000180: 281f 92bc b99a c23b ba64 853e 98a8 463e
00000190: 429d 07be 9d96 863e 0249 21be 40fd 823e
000001a0: a97d ad3d 2e6c 413e 467f 1fbe c5b9 203e
000001b0: 1bc5 57be ce35 8d3e e659 8fbd b1e5 62be
000001c0: 8be6 6abe 11da 10be 06f3 d53d 6f52 1d3e
000001d0: 0b11 3e3e 2365 5a3d a93a a5bc 34be 463e
000001e0: 41e9 59bc bab9 023b df9e 273e 98bd 1bbe
000001f0: de56 933d 0b6c 6d3e 4229 27be 49ff 243e

net.2.weight f4 [256, 128]
-0.0010214447 0.14926252 0.047341082 -0.08144487 -0.06357946 -0.041214723 0.020259887 -0.0120938225
-0.030604003 0.11310058 0.15939476 -0.05820592 -0.055303924 -0.059829146 0.047421042 0.08070699
-0.16377397 0.20461237 -0.04742812 0.07112549 0.03111897 0.002447656 0.0099416645 -0.017966442
-0.14821291 0.026461791 -0.064946495 0.08246566 -0.057980735 0.035708144 0.0828556 -0.05205928
0.16843621 -0.09660318 -0.17455356 0.026202532 0.07900118 -0.046787143 -0.030009497 -0.005090468
-0.05936009 0.10789487 0.08981417 -0.045762986 0.010297635 0.041479748 0.035324417 -0.051751226
0.0066728587 0.06689186 -0.10158419 0.1812886 -0.06310026 -0.08402325 -0.033584338 -0.037168995
0.012494122 0.07541413 0.06668081 -0.0024373522 0.05701577 -0.07740106 -0.1004109 -0.03832861
-0.017783599 -0.078001656 0.06253792 0.1292072 0.012043052 -0.0015769963 -0.12840353 -0.01649604
0.08504971 0.09745969 0.018877016 -0.09813288 0.03324071 0.06736692 -0.10857014 0.028989526
0.087197594 0.091307595 0.03514388 0.0063980306 -0.032743696 0.04490312 0.031421687 -0.0032590053
0.111766994 0.019427741 0.06817045 -0.09497344 0.09202343 -0.08562371 -0.010440166 0.011321339
0.0413861 -0.053557605 -0.04840122 0.036252044 -0.01671653 -0.06914951 0.068439834 0.044612665
0.12713975 0.04448996 0.19838642 0.18474065 -0.046755712 0.021025598 -0.009425168 -0.032389384
-0.07424993 -0.046127312 0.038581442 0.008340401 0.010586259 -0.02425477 -0.088083155 0.057497222
-0.06263379 0.050119556 0.07182136 -0.03330797 -0.017729787 -0.0018610934 -0.03544839 -0.018248156
0.014217136 -0.036307093 0.092599474 -0.016876042 0.03764771 0.021795405 0.050532103 -0.14662714
0.059940778 -0.09391246 -0.11250999 0.06316812 0.23929413 0.035776377 -0.02326092 0.05492899
0.29965174 -0.18123311 0.10176177 -0.026321923 0.010780039 0.0376941 0.059851475 0.024557238
0.11386997 0.02414622 -0.059812825 -0.061617482 0.0037094338 0.08803414 -0.07121246 0.011805272
-0.09672234 0.006061972 0.19653602 -0.032560725 -0.047657404 -0.010545017 0.0343972 0.043651402
-0.06978489 -0.12067107 0.009234854 0.066979095 -0.04152826 -0.05061456 0.010500081 -0.019295236
-0.06578811 0.016716903 0.11773332 -0.18762736 0.020468071 0.046270818 0.029164266 0.05758883
0.07395233 -0.059786916 0.021064602 0.035829086 -0.033093404 -0.07999245 0.08162609 0.111971
0.047009666 -0.057328604 0.03502082 -0.118078716 -0.19013132 -0.11482102 0.059600912 0.050406355
0.055172183 0.053323247 -0.036477685 -0.031664204 0.027992638 -0.051619004 0.1327012 0.066161506
0.050768815 -0.18029493 0.004156135 -0.113353595 -0.083621085 -0.05265314 -0.21187492 0.12425734
-0.11811703 -0.009637155 -0.18958375 0.07587864 0.102093704 -0.030676529 0.003394998 -0.060000967
0.11090273 -0.10485755 -0.0709145 -0.08736384 0.0664812 0.023915896 -0.19099315 -0.015516905
0.027725948 -0.011331009 -0.16327624 -0.2772828 -0.026258573 -0.028439505 0.042201284 0.014848408
0.061994366 0.09255976 -0.09533385 0.023018274 0.02068513 0.063093975 0.051078893 0.08869967
0.111186005 0.06541838 -0.066673286 -0.076924205 0.06365105 0.027865717 0.04484098 -0.05295531
00000000: ffe1 85ba 46d8 183e b9e8 413d 91cc a6bd
00000010: f335 82bd c5d0 28bd 10f8 a53c 2b25 46bc
00000020: 3fb5 fabc 47a1 e73d 6138 233e 5569 6ebd
00000030: 5e86 62bd 680f 75bd 913c 423d b549 a53d
00000040: 5db4 27be e885 513e fd43 42bd 3eaa 913d
00000050: 36ed fe3c da68 203b 5de2 223c 5c2e 93bc
00000060: 20c5 17be 66c6 d83c ab02 85bd c2e3 a83d
00000070: 357d 6dbd b442 123d 32b0 a93d 1d3c 55bd
00000080: 8b7a 2c3e e3d7 c5bd 2bbe 32be b1a6 d63c
00000090: 5fcb a13d e0a3 3fbd 7ad6 f5bc f1cd a6bb
000000a0: 9123 73bd fcf7 dc3d 7ef0 b73d f871 3bbd
000000b0: 69b7 283c abe6 293d 56b0 103d 18f9 53bd
000000c0: ffa7 da3b 99fe 883d 5f0b d0bd b8a3 393e
000000d0: b63a 81bd 6214 acbd bb8f 09bd 843e 18bd
000000e0: 25b4 4c3c b972 9a3d f38f 883d fcbb 1fbb
000000f0: 5e89 693d 7284 9ebd 3ba4 cdbd 76fe 1cbd
00000100: e9ae 91bc 55bf 9fbd e213 803d e44e 043e
00000110: 3950 453c 37b3 ceba 377c 03be b422 87bc
00000120: 8b2e ae3d f298 c73d f9a3 9a3c e4f9 c8bd
00000130: 6927 083d abf7 893d 065a debd 717b ed3c
00000140: a794 b23d 7aff ba3d 07f3 0f3d 92a6 d13b
00000150: 411e 06bd 55ec 373d 07b4 003d 0995 55bb
00000160: 18e6 e43d ed26 9f3c f39c 8b3d 6f81 c2bd
00000170: c876 bc3d 7c5b afbd 3b0d 2bbc 237d 393c
00000180: 7984 293d 385f 5bbd 5c40 46bd 067d 143d
00000190: 1bf1 88bc 429e 8dbd 2f2a 8c3d c5bb 363d
000001a0: ec30 023e 1b3b 363d cf25 4b3e a72c 3d3e
000001b0: eb82 3fbd e03d ac3c 056c 1abc bbaa 04bd
000001c0: 5910 98bd feef 3cbd 9307 1e3d 2da6 083c
000001d0: fd71 2d3c f0b1 c6bc f164 b4bd 3582 6b3d
000001e0: 2546 80bd 2a4a 4d3d 1417 933d f06d 08bd
000001f0: 0f3e 91bc efef f3ba 5532 11bd 287d 95bc
00000200: feee 683c bfb6 14bd cba4 bd3d a03f 8abc
00000210: 7c34 1a3d 478c b23c c0fa 4e3d 6d25 16be
00000220: 7684 753d 2d55 c0bd a36b e6bd 4a5e 813d
00000230: 8509 753e 408a 123d af8d bebc 38fd 603d
00000240: f46b 993e 2c95 39be 7a68 d03d 13a1 d7bc
00000250: c39e 303c 2165 1a3d d226 753d 432c c93c
00000260: a934 e93d 4bce c53c 4bfe 74bd 9d62 7cbd
00000270: f919 733b 3e4b b43d d7d7 91bd e66a 413c
00000280: 5d16 c6bd 82a3 c63b bd40 493e 655e 05bd
00000290: 6934 43bd 02c5 2cbc 14e4 0c3d d0cb 323d
000002a0: 61eb 8ebd 6522 f7bd c94d 173c 562c 893d
000002b0: 8919 2abd 3651 4fbd 8808 2c3c 0b11 9ebc
000002c0: ebbb 86bd e3f1 883c 2b1e f13d 6321 40be
000002d0: a8ac a73c 7886 3d3d e6e9 ee3c 44e2 6b3d
000002e0: 5274 973d 20e3 74bd ac8f ac3c 85c1 123d
000002f0: f38c 07bd 15d3 a3bd 942b a73d 0d51 e53d
00000300: 358d 403d 66d1 6abd fe71 0f3d 41d3 f1bd
00000310: c9b1 42be 4827 ebbd 1620 743d e576 4e3d
00000320: 3afc 613d 7a69 5a3d a069 15bd 53b2 01bd
00000330: d150 e53c 736e 53bd d3e2 073e af7f 873d
00000340: f6f2 4f3d 3c9f 38be 3030 883b ee25 e8bd
00000350: 8841 abbd d2aa 57bd bdf5 58be a27a fe3d
00000360: 57e7 f1bd 28e5 1dbc 3e22 42be 4366 9b3d
00000370: 8116 d13d 584d fbbc 9d7e 5e3b 93c3 75bd
00000380: f820 e33d 8ebf d6bd 9f3b 91bd d0eb b2bd
00000390: 4c27 883d 45eb c33c b593 43be 9e3a 7ebc
000003a0: 8721 e33c b2a5 39bc e331 27be 03f8 8dbe
000003b0: 381c d7bc f7f9 e8bc 41db 2c3d bd46 733c
000003c0: ceed 7d3d f98f bd3d 653e c3bd d290 bc3c
000003d0: dd73 a93c 6a37 813d 1a38 513d 2ca8 b53d
000003e0: 7db5 e33d 12fa 853d 018c 88bd 708a 9dbd
000003f0: 7b5b 823d a546 e43c 2dab 373d abe7 58bd

net.2.bias f4 [256]
0.062943295 0.03755787 -0.075015485 -0.0016734648 0.018430978 0.022593532 -0.10595547 0.12160661
-0.083291434 0.021772625 -0.07813945 -0.013544687 0.0055244146 0.017231394 0.031355213 0.055622786
0.11458335 0.030994654 0.012980995 0.051840596 0.06891462 -0.016448995 -0.05835483 0.03906729
0.0040088594 0.06706437 -0.025982926 0.12350192 -0.062837645 0.020447096 -0.028662665 0.0022081644
0.044261135 0.05143136 -0.08108335 0.052361153 -0.011839643 -0.025381083 0.06805875 0.011321334
-0.012055629 -0.040600535 -0.08172436 0.04287467 0.051578276 -0.06908208 -0.091162235 0.053915083
-0.08182598 -0.031595007 0.07624105 0.059946254 0.057750065 -0.0067908447 0.020333525 0.12934043
0.022606913 0.004625851 0.08933895 0.0018011786 0.015733436 -0.015888887 0.080563456 -0.06011386
0.072507605 0.061390378 0.031860113 -0.056334298 0.10675179 -0.005230846 0.020839263 -0.027271966
-0.031711515 0.052026168 -0.030792175 0.0010620999 -0.002607684 -0.07198839 -0.06624855 0.12490921
0.026660543 0.02886734 0.04382307 -0.078765385 -0.04078149 0.012973356 0.048752315 0.07196364
0.07279323 0.112165086 -0.06288332 0.060123958 -0.049002055 0.0131920315 0.031230528 0.013510011
-0.013904655 0.031052649 -0.03406128 0.038832538 -0.07252345 0.016965533 0.082039975 0.031785887
-0.01372584 0.1186759 0.033494458 0.088189185 -0.06790589 0.05269615 -0.006513132 0.093139075
0.06298194 -0.06171689 0.07821822 0.07802887 0.0066990037 0.004000332 -0.019095765 0.10582405
-0.07753089 0.060505148 0.026571231 0.015979622 -0.019508988 0.021948978 0.0033341986 0.0047979434
-0.061191 0.024714919 0.07466871 0.052061055 -0.061556052 0.00522659 0.05767079 -0.072097994
-0.054364208 0.038938448 0.1227046 0.12010148 -0.00051844865 -0.03571529 0.07194108 -0.07674787
-0.037015527 0.09345191 0.041703563 0.08951932 -0.049893204 -0.040423222 -0.010662789 -0.04780149
-0.06537397 0.072251625 0.027271817 0.05301449 0.02077491 -0.0237586 -0.03391222 0.018890088
0.0044965697 0.11917657 -0.031418424 -0.056532312 0.025364846 0.098124795 0.008806593 0.020458031
-0.009461397 0.06264603 -0.05759141 -0.018900437 -0.053354118 -0.040024612 0.025478086 -0.027996317
0.0508575 -0.024708627 0.07723093 -0.0923532 0.031989936 -0.082508914 -0.05460331 0.06455003
0.1145759 -0.053621896 0.03515838 0.025747582 -0.026185578 -0.027517391 0.0961029 -0.030164769
0.014949549 -0.08335351 0.119074084 0.000696785 -0.03067999 0.05551159 -0.08484338 0.085849956
-0.068745226 0.07659914 0.040540963 -0.06292883 -0.033548694 -0.022687323 0.033985153 -0.07281029
0.08642644 -0.006046929 0.079986505 -0.030112304 -0.019634036 0.05761404 0.002907649 0.04169665
0.015567466 0.049289197 -0.071447134 -0.028496906 -0.050443478 0.034993887 0.0153777 -0.043079827
0.006194806 0.0076339305 -0.0041400255 -0.0067068567 0.04210887 0.031180035 -0.051740583 0.0946439
0.02514524 -0.00035493076 -0.042400233 0.099232785 0.0035671652 0.0076813535 -0.031897236 -0.03705084
-0.03321991 -0.04477827 -0.014232736 -0.043335542 0.0015371625 0.010825419 0.074798495 0.0758514
0.060839087 0.07620875 0.108057365 0.09331648 0.06042085 0.020236645 0.07642469 0.094752155
00000000: 6ae8 803d 48d6 193d b8a1 99bd 2958 dbba
00000010: 90fc 963c 1216 b93c 2eff d8bd e30c f93d
00000020: b394 aabd 815c b23c 9307 a0bd 89ea 5dbc
00000030: 2606 b53b da28 8d3c 536e 003d b8d4 633d
00000040: adaa ea3d 80e8 fd3c 3dae 543c ce56 543d
00000050: 1c23 8d3d 0bc0 86bc 7905 6fbd 0605 203d
00000060: c05c 833b 0b59 893d 25da d4bc 93ee fc3d
00000070: 06b1 80bd ab80 a73c f7cd eabc dab6 103b
00000080: 2a4b 353d b1a9 523d 070f a6bd a678 563d
00000090: 10fb 41bc fdeb cfbc 6362 8b3d 1e7d 393c
000000a0: f984 45bc bf4c 26bd 1a5f a7bd 5a9d 2f3d
000000b0: be43 533d e87a 8dbd 44b3 babd 10d6 5c3d
000000c0: 6194 a7bd c469 01bd 4524 9c3d 348a 753d
000000d0: 558b 6c3d bc85 debb 7e92 a63c d171 043e
000000e0: 2232 b93c 7394 973b 57f7 b63d 8615 ec3a
000000f0: 68e3 803c 6929 82bc 74fe a43d f339 76bd
00000100: de7e 943d 7a74 7b3d c07f 023d cbbe 66bd
00000110: afa0 da3d 8467 abbb 1ab7 aa3c 7569 dfbc
00000120: efe3 01bd 6419 553d df3f fcbc 2936 8b3a
00000130: ade5 2abb a66e 93bd 52ad 87bd 66d0 ff3d
00000140: 3667 da3c 337b ec3c d27f 333d bf4f a1bd
00000150: 7e0a 27bd 338e 543c 82b0 473d ac61 933d
00000160: 9e14 953d cfb6 e53d f8c8 80bd 8a44 763d
00000170: 61b6 48bd 6423 583c 2ad7 ff3c 1859 5d3c
00000180: 5ad0 63bc 2062 fe3c d783 0bbd de0e 1f3d
00000190: 2d87 94bd 4dfb 8a3c 9304 a83d eb31 023d
000001a0: 58e2 60bc 5a0c f33d 7c31 093d 889c b43d
000001b0: 3e12 8bbd ebd7 573d 1c6c d5bb b3bf be3d
000001c0: adfc 803d daca 7cbd e030 a03d 9acd 9f3d
000001d0: 5183 db3b 3815 833b b96e 9cbc 48ba d83d
000001e0: 84c8 9ebd 3fd4 773d e9ab d93c b2e7 823c
000001f0: 50d1 9fbc 58ce b33c 9282 5a3b 1138 9d3b
00000200: 6aa3 7abd f176 ca3c e9eb 983d f93d 553d
00000210: 3322 7cbd d143 ab3b 3538 6c3d 1da8 93bd
00000220: 01ad 5ebd ec7d 1f3d 8d4c fb3d c4f7 f53d
00000230: 80e8 07ba 324a 12bd d855 933d fd2d 9dbd
00000240: 989d 17bd b763 bf3d 5bd1 2a3d e855 b73d
00000250: d15c 4cbd d292 25bd fbb2 2ebc 7fcb 43bd
00000260: cae2 85bd a9f8 933d 2569 df3c b925 593d
00000270: 2530 aa3c 65a1 c2bc 8ae7 0abd 63bf 9a3c
00000280: f657 933b d812 f43d 9bb0 00bd 6d8e 67bd
00000290: f0c9 cf3c a7f5 c83d 8749 103c 9a97 a73c
000002a0: fa03 1bbc 904c 803d f8e4 6bbd 17d5 9abc
000002b0: d989 5abd d9f0 23bd 6bb7 d03c 8858 e5bc
000002c0: f44f 503d bf69 cabc 402b 9e3d ad23 bdbd
000002d0: e107 033d 6ffa a8bd b8a7 5fbd ce32 843d
000002e0: c5a6 ea3d a2a2 5bbd 3c02 103d 98ec d23c
000002f0: 2383 d6bc 276c e1bc 99d1 c43d 1b1c f7bc
00000300: f4ee 743c 3fb5 aabd 1ddd f33d 73a8 363a
00000310: 9a54 fbbc 1f60 633d 5ec2 adbd 1ad2 af3d
00000320: 4cca 8cbd 03e0 9c3d 480e 263d d5e0 80bd
00000330: 5b6a 09bd c4da b9bc 0434 0b3d 901d 95bd
00000340: 5800 b13d 5125 c6bb f7cf a33d 14ae f6bc
00000350: 8fd7 a0bc b3fc 6b3d 418e 3e3b 1bca 2a3d
00000360: af0e 7f3c 78e3 493d e052 92bd 5872 e9bc
00000370: d29d 4ebd c055 0f3d c0f2 7b3c 7974 30bd
00000380: cdfd ca3b 0d26 fa3b 0da9 87bb 31c5 dbbb
00000390: 5a7a 2c3d 466d ff3c efed 53bd a9d4 c13d
000003a0: 64fd cd3c 0016 bab9 deab 2dbd 8f3a cb3d
000003b0: 1ac7 693b ddb3 fb3b ada6 02bd 9fc2 17bd
000003c0: 9a11 08bd 6b69 37bd 6c30 69bc 9c80 31bd
000003d0: 9d7a c93a 195d 313c f42f 993d fb57 9b3d
000003e0: 6832 793d 5513 9c3d 2e4d dd3d b61c bf3d
000003f0: da7b 773d 52c7 a53c 8c84 9c3d 6b0d c23d

net.4.weight f4 [1, 256]
-0.1109972 0.099794544 -0.12580177 0.11824997 -0.067041256 0.11614864 -0.010489072 0.08407142
-0.06114406 0.14337474 -0.035608202 -0.13926798 -0.26118225 -0.29926088 0.069819756 -0.06421284
0.106121436 0.11009881 -0.28889662 0.06772354 0.11501244 -0.12475448 0.08953832 0.115172
-0.043461062 -0.07444876 -0.27315193 0.0853947 0.018787488 0.11771356 -0.093677126 0.123934925
-0.13532808 0.046326738 -0.03912572 -0.29186246 -0.0059024617 -0.26079234 0.08495667 0.063495
-0.089957446 0.14433633 0.21333782 0.09608156 -0.09479738 -0.09273618 -0.05116551 -0.088677116
0.038207598 -0.20734869 -0.27505815 -0.09741236 -0.048684288 0.09433568 0.081043676 0.06998741
-0.13695431 0.016875448 0.06626937 -0.3268003 -0.23557612 0.09791799 0.103758655 -0.037386164
-0.2494896 -0.09481688 0.18082142 0.059557907 0.056926306 0.07666748 0.07819416 -0.17956494
0.054359674 0.12119115 0.09875622 -0.067404255 0.102661505 -0.119938485 -0.013019107 0.078645
-0.30651644 0.10438982 0.09668693 0.17112944 -0.09596571 -0.02620173 -0.026782215 -0.12532349
0.08168477 0.08654257 -0.18291344 -0.10844103 0.047865048 0.11592897 -0.1496235 0.015311673
-0.023313386 0.063135445 0.2500617 0.11961049 -0.004516855 -0.16511205 0.10852253 0.06426252
-0.049871035 0.09125746 0.10663931 0.09795508 -0.086302415 -0.24647032 -0.2339026 0.08353156
0.050588127 0.0042931065 -0.2882211 -0.1657958 0.10334643 0.10394685 0.13890976 0.07152371
-0.12947595 0.07854164 0.057478845 0.14448033 0.019568183 -0.05949612 -0.16778262 0.13153104
0.10323669 0.068576485 0.06560692 -0.21985795 -0.09805649 0.12252852 0.08392849 -0.22594821
-0.054995276 0.069602884 0.09826809 0.10501274 -0.012170851 -0.17672624 -0.12066247 0.021172054
0.10600493 0.08109657 0.0650022 0.110791676 0.32652578 0.11325004 0.045361385 -0.13253804
0.036882978 0.07609406 -0.24498197 -0.28899664 0.08047912 0.110972986 -0.12091303 0.12069922
0.10703524 0.11991413 0.09349778 -0.16392992 -0.04519765 0.09251404 -0.11550032 -0.14171429
-0.26605046 0.081205115 0.17426649 0.07922965 0.03418435 0.05634306 -0.21724601 -0.1118652
0.11848661 -0.3315471 0.11762366 -0.008663016 0.08242125 -0.11356723 0.14922161 -0.23005877
0.07384679 -0.124980256 0.073893934 -0.21389621 -0.25965577 0.09942823 0.12989187 -0.24368551
0.14715186 0.001986742 0.10845423 0.082467094 -0.06636239 -0.0903543 0.033876628 -0.11987625
-0.27283213 0.093112126 0.059426945 -0.27619857 0.11422617 0.10315927 -0.14006396 -0.12733419
0.095019065 0.060313713 0.111463174 -0.11866914 -0.11275507 -0.049317967 -0.15461119 0.081530005
-0.19297211 -0.08330466 -0.105838776 0.09541112 0.0980261 0.11953418 -0.10863645 0.116750285
-0.008858784 0.12881036 0.11043871 -0.12643036 -0.26433894 -0.11564361 -0.24228904 0.067372166
-0.10310554 0.030668989 -0.016863905 0.089121684 0.057333823 0.13896228 -0.040563956 -0.09346948
-0.10527675 0.08043682 0.13209097 0.073645964 0.09196205 0.121140435 -0.111913964 0.13672554
0.059283048 0.106900126 0.09699538 -0.15602742 0.0313715 -0.23862997 0.08358478 0.09712065
00000000: 8052 e3bd 1561 cc3d 2ed2 00be 0a2d f23d
00000010: ed4c 89bd 57df ed3d 5bda 2bbc a32d ac3d
00000020: 3272 7abd d4d0 123e e8d9 11bd 449c 0ebe
00000030: aeb9 85be b938 99be a9fd 8e3d 0582 83bd
00000040: 3256 d93d 7c7b e13d 42ea 93be a4b2 8a3d
00000050: a48b eb3d 477f ffbd de5f b73d 4cdf eb3d
00000060: 3a04 32bd 9778 98bd 92da 8bbe 6be3 ae3d
00000070: 38e8 993c cf13 f13d cbd9 bfbd 98d1 fd3d
00000080: 7293 0abe 1bc1 3d3d 4a42 20bd ff6e 95be
00000090: 7069 c1bb 9386 85be c3fd ad3d ab09 823d
000000a0: 9c3b b8bd e7cc 133e 3b75 5a3e 69c6 c43d
000000b0: 2125 c2bd 77ec bdbd ed92 51bd 599c b5bd
000000c0: 927f 1c3d 3753 54be 6cd4 8cbe 2280 c7bd
000000d0: 2d69 47bd 1133 c13d 3afa a53d 8f55 8f3d
000000e0: c03d 0cbe 613e 8a3c 3cb8 873d 5e52 a7be
000000f0: de3a 71be 3a89 c83d 6b7f d43d 3c22 19bd
00000100: 347a 7fbe 5a2f c2bd 4029 393e fef2 733d
00000110: 8f2b 693d d703 9d3d 4224 a03d dfdf 37be
00000120: 40a8 5e3d 1133 f83d b340 ca3d 3e0b 8abd
00000130: 3240 d23d 4fa2 f5bd 184e 55bc a110 a13d
00000140: b9ef 9cbe 54ca d53d cc03 c63d 8e3c 2f3e
00000150: ac89 c4bd 03a5 d6bc 6066 dbbc cd54 00be
00000160: 584a a73d 3b3d b13d a94d 3bbe 5516 debd
00000170: 240e 443d 2b6c ed3d e736 19be d0dd 7a3c
00000180: b7fb bebc 284d 813d 1608 803e 58f6 f43d
00000190: 2002 94bb 2213 29be 0f41 de3d 119c 833d
000001a0: 9245 4cbd 31e5 ba3d b665 da3d ac9c c83d
000001b0: 52bf b0bd b762 7cbe 2a84 6fbe 9812 ab3d
000001c0: 7f35 4f3d 30ad 8c3b b791 93be 60c6 29be
000001d0: 4ba7 d33d 16e2 d43d 5c3e 0e3e 067b 923d
000001e0: 5895 04be 70da a03d f06e 6b3d a7f2 133e
000001f0: 744d a03c 34b2 73bd 35cf 2bbe 13b0 063e
00000200: c26d d33d d471 8c3d ec5c 863d 7122 61be
00000210: d7d1 c8bd 3cf0 fa3d b3e2 ab3d f85e 67be
00000220: ba42 61bd f58b 8e3d c840 c93d eb10 d73d
00000230: 4068 47bc b9f7 34be e31d f7bd 0471 ad3c
00000240: 1d19 d93d f515 a63d e01f 853d bfe6 e23d
00000250: 632e a73e a3ef e73d dccc 393d 0db8 07be
00000260: 9b12 173d 34d7 9b3d 8edc 7abe 5ef7 93be
00000270: 3dd2 a43d ce45 e33d 40a1 f7bd 2731 f73d
00000280: 4b35 db3d 8a95 f53d c47b bf3d 3fdd 27be
00000290: 2c21 39bd 0078 bd3d 6f8b ecbd 8d1d 11be
000002a0: c437 88be de4e a63d ea72 323e 2843 a23d
000002b0: e404 0c3d fbc7 663d bd75 5ebe 9519 e5bd
000002c0: 1ca9 f23d 8bc0 a9be ace4 f03d 53ef 0dbc
000002d0: 79cc a83d f095 e8bd 8dcd 183e 8794 6bbe
000002e0: fc3c 973d a6f5 ffbd b455 973d 9c07 5bbe
000002f0: 9af1 84be 07a1 cb3d 6002 053e b288 79be
00000300: faae 163e 0034 023b 401d de3d 82e4 a83d
00000310: 01e9 87bd ad0b b9bd 38c2 0a3d ae81 f5bd
00000320: a7b0 8bbe 92b1 be3d ab69 733d e669 8dbe
00000330: 69ef e93d 2b45 d33d ed6c 0fbe e563 02be
00000340: 5b99 c23d 830b 773d ce46 e43d ce08 f3bd
00000350: 21ec e6bd a301 4abd 6552 1ebe 34f9 a63d
00000360: 7b9a 45be a29b aabd 00c2 d8bd e866 c33d
00000370: e8c1 c83d 56ce f43d c97c debd c61a ef3d
00000380: 6f24 11bc dde6 033e b12d e23d f676 01be
00000390: 6f57 87be 8fd6 ecbd 9e1a 78be 6bfa 893d
000003a0: ff28 d3bd 883d fb3c 2c26 8abc 6e85 b63d
000003b0: dfd6 6a3d 214c 0e3e 6426 26bd ed6c bfbd
000003c0: 569b d7bd 0fbc a43d db42 073e b2d3 963d
000003d0: 9956 bc3d 7a18 f83d 2633 e5bd c801 0c3e
000003e0: c8d2 723d 74ee da3d 84a5 c63d a7c5 1fbe
000003f0: 677f 003d 6a5b 74be 7f2e ab3d 31e7 c63d
