runs_bakeup/v_no39.pth (torch, 140364 bytes, 5 tensors)

net.0.weight f4 [128, 9]
000000 de c4 b2 3d bb 9d 1f be 74 9d a3 3e 56 33 65 bd
       0.08728956 -0.15587513 0.31956065 -0.05595716
000010 1f f6 8f 3e 46 16 ae bd 98 bf a2 be a9 19 f3 3d
       0.28117463 -0.08500342 -0.317868 0.11870129
000020 64 66 5e be 34 16 5c be 5d 1b 0a 3e 01 15 1c ba
       -0.21718746 -0.21492845 0.13487001 -0.00059540576
000030 0d f5 06 3d e5 a9 b1 bd 95 78 ea 3d 06 6a 96 3e
       0.032948542 -0.08674983 0.114487804 0.29377764
000040 d7 9d 41 be a5 00 7b bd 1f 88 17 3e 35 83 60 be
       -0.18907867 -0.06127991 0.1479802 -0.21925052
000050 4c 29 79 be 2b 72 86 3e 3e f4 9d be 86 eb 9e 3e
       -0.2433216 0.26258978 -0.30850405 0.31039065
000060 41 85 09 be 63 dc 1c be bb 4b 01 3e 1f d8 aa 3c
       -0.13429739 -0.15318446 0.12626545 0.020855008
000070 69 87 6a be f4 22 c2 bd 0a ab 80 3c 90 c8 37 be
       -0.22903217 -0.09479323 0.015706558 -0.17947602
000080 59 50 a8 be af e0 86 be 81 c1 60 3d 61 4c 76 bd
       -0.328738 -0.26343295 0.05487204 -0.060131434
000090 d9 19 5e be 4c 58 33 be 8b 54 75 be cd d5 55 3e
       -0.21689548 -0.17514151 -0.23958032 0.2088234
0000a0 15 90 1e 3d cb ba 53 be ea bb ab 3e df 10 69 3e
       0.038711626 -0.20676725 0.33541805 0.22760342
0000b0 de 35 96 3e 08 d7 03 be 20 4d 4f 3e 14 60 fe bd
       0.29337972 -0.12874997 0.20244265 -0.12420669
0000c0 44 24 33 be 2e 48 7a 3e 57 2a 13 be b0 ee 35 be
       -0.17494303 0.24441597 -0.1437162 -0.17766833
0000d0 fd 18 30 be c5 50 a8 3e c5 9f 94 be ba dd 03 3e
       -0.17197032 0.32874122 -0.29028144 0.1287755
0000e0 dd 06 82 3e 6c a4 51 be a7 28 ee bd 6d 9f 1e be
       0.2539586 -0.20472878 -0.116288476 -0.15490504
0000f0 b1 de 5e 3a 17 4b a1 be 7d cb 98 be e6 24 68 be
       0.00085018115 -0.31502602 -0.2984275 -0.22670326
000100 00 aa b8 be cd af e0 bd ae fc 80 bd 73 3f 8a 3e
       -0.360672 -0.10971031 -0.06298195 0.27001533
000110 ec 98 b6 3c f5 90 db 3d ae 27 57 3e 84 fb d1 3d
       0.022289716 0.10721008 0.2101123 0.10253051
000120 4f ec 28 3e 2e c2 63 be d1 aa cd bd 94 4f 85 bd
       0.16496395 -0.22242042 -0.10042346 -0.06509319
000130 a3 26 49 be 17 dd 86 3e c0 c5 13 be d5 f3 f0 3d
       -0.19643645 0.26340553 -0.14430904 0.11765257
000140 9c 4f ab be 89 18 9a bd 42 64 af bd df 10 a9 3e
       -0.33459175 -0.07524211 -0.085640445 0.33020684
000150 6b f0 3c 3e d8 ff b5 bd 7b 0f 46 3e 5d 7e aa 3b
       0.18451087 -0.08886689 0.19341843 0.005203052
000160 44 9f 05 be cd 5b cc 3b 3b a7 da 3d 03 06 5f be
       -0.13049036 0.0062365294 0.10676428 -0.21779637
000170 8c a9 75 be 3a 08 7b be af ec 00 bc 83 3f 92 3e
       -0.23990458 -0.24514857 -0.00786893 0.2856408
000180 3d dc 4d 3e 8c eb 0d be e1 9b 68 3e e6 3a 8d be
       0.20103545 -0.13859385 0.22715713 -0.27583998
000190 c9 7f 31 be 89 91 82 bd ab 3b 72 be 96 69 6d 3e
       -0.17333902 -0.06375415 -0.23655574 0.23184809
0001a0 5a 1a 56 be 30 21 3e be d4 97 83 3d 8a d3 9b 3d
       -0.2090849 -0.18567348 0.06425443 0.07608707
0001b0 39 c9 21 bb ce 0a 16 be 3c ac 6d bd fa 49 81 bc
       -0.0024686588 -0.14652559 -0.058025584 -0.015782345
0001c0 80 ca 8f 3d 69 6e a8 be 32 d5 9f be 92 38 81 3e
       0.07021046 -0.32896736 -0.31217343 0.25238472
0001d0 99 85 6b be 68 08 15 be 84 12 44 bd 01 08 6e 3e
       -0.23000182 -0.14553988 -0.04786922 0.23245241
0001e0 18 58 08 be 1e 85 94 be 4d a4 14 3e e2 7a 7d be
       -0.13314855 -0.2900781 0.14515801 -0.24753907
0001f0 9e 2e 9b 3e d7 e9 b7 bd 2e 58 90 be 78 fa 8e be
       0.30309004 -0.08980148 -0.28192276 -0.27925467
000200 1b 92 4b be 68 f4 a2 be 19 62 16 bd e7 0f 05 bd
       -0.19879954 -0.31827092 -0.036714647 -0.03248587
000210 26 21 91 3e 74 08 7e 3e 0d 55 a1 3e cc 71 96 3b
       0.28345603 0.24807912 0.315102 0.0045912024
000220 6b 5b 60 be ed 33 97 3e 99 ee 34 3d 7e 8a b4 3c
       -0.21909873 0.29531804 0.044172857 0.022038694
000230 e5 f0 cf 3d 06 57 9b be e5 84 22 3e 21 68 3b be
       0.10153369 -0.3033983 0.15871008 -0.18301441
000240 0a 42 80 3e 2e d1 ad be 1d 11 55 3e ee ef 38 3d
       0.25050384 -0.33948654 0.2080731 0.04515069
000250 2d b2 14 be 85 1a 88 3e 59 5e 36 be bd 34 05 3e
       -0.14521094 0.26582733 -0.17809428 0.130084
000260 92 d7 83 be c4 e8 99 3e b9 a7 c7 3d 4c 53 44 be
       -0.25750405 0.300604 0.097487874 -0.191724
000270 f4 95 00 bd 68 40 c9 bc f5 e5 4a 3e b5 1a 38 3e
       -0.031393006 -0.024566844 0.19814284 0.17978938
000280 cd 9b 8c be 9e 70 8c be a0 a5 4b be 51 ea ac 3d
       -0.27462617 -0.2742967 -0.198874 0.0844313
000290 70 2a 09 be 2b c2 cc bd 5c f2 99 be 55 6b 36 be
       -0.13395095 -0.09997972 -0.30067718 -0.17814381
0002a0 01 41 de bd 7b 3e dc 3d ae 25 bd 3e 2c ec 29 3e
       -0.10852242 0.10754105 0.3694281 0.16593999
0002b0 48 9c e9 3d 3d 3b 02 3d e0 36 80 3d 1e 54 12 3b
       0.114067614 0.031794775 0.062604666 0.002232797
0002c0 43 6a 9d be 69 3d 4a 3e 1b 7c 29 be 83 08 a4 3e
       -0.30745134 0.19749989 -0.16551249 0.32037744
0002d0 76 e8 1e 3e 37 dc ac be 7f 19 66 be e3 34 82 be
       0.15518364 -0.3376176 -0.22470663 -0.25430974
0002e0 0e 18 99 be 50 62 87 3e f8 4e f6 3b fa 05 e3 bd
       -0.29901165 0.26442194 0.007516738 -0.11085124
0002f0 07 45 ae 3e 2f 9d c3 bb 5d 50 3f bd ba dc 84 be
       0.3403704 -0.0059696655 -0.0467075 -0.2594965
000300 b6 47 2d be 23 d9 92 be 3c d0 20 3e d2 9e c6 3e
       -0.16921887 -0.28681287 0.15704435 0.38793045
000310 23 d8 56 be 45 01 26 be 8f 74 83 3e 7f 42 42 3a
       -0.20980887 -0.16211422 0.25674865 0.00074104214
000320 b4 7e e4 3c ee 3a 51 3e 6b a3 81 3e fc af d9 bd
       0.027892448 0.20432636 0.2531999 -0.106292695
000330 30 6e a6 3e 02 13 00 bd 0f 29 ea 3d 16 b5 1a be
       0.3250594 -0.031268127 0.114336126 -0.15108141
000340 56 8a 65 be 9c 28 95 3e ed d4 72 3e 58 58 85 3e
       -0.22416052 0.29132545 0.23714037 0.26043963
000350 8d 68 7d 3e 13 63 1f 3e da 48 a1 3e 73 63 66 3d
       0.24746914 0.15565138 0.31500894 0.056247186
000360 13 98 86 3c af ca 24 be b8 d1 83 3e ca de fd 3d
       0.016429937 -0.16092943 0.2574594 0.12396009
000370 42 fe 5e 3d 3a 0c 91 3e 7f c3 b9 3e c9 bc 8d 3e
       0.054441698 0.2832964 0.36281964 0.27683094
000380 84 72 8c 3e 59 d2 8e be 4a e4 aa be aa ae 73 be
       0.27431118 -0.27894858 -0.33377296 -0.23797098
000390 d3 46 83 3e a7 ab f7 bd a2 86 a3 bd 9a 00 a1 3e
       0.25639972 -0.12093287 -0.079846635 0.3144577
0003a0 a4 1b 80 3e a6 d2 7c 3e 97 45 c5 be c1 1b 87 3e
       0.25021088 0.24689731 -0.38529655 0.26388362
0003b0 6c a0 af 3e 7e 62 86 3e 01 68 a4 be 85 68 5d bb
       0.3430208 0.2624702 -0.321106 -0.0033784222
0003c0 6e 92 42 bd f1 8e a6 3e 86 97 7f 3d 76 53 01 3e
       -0.047502927 0.3253093 0.062400363 0.12629494
0003d0 71 c3 4f 3e 27 99 54 be d0 3d 76 be b2 cf 79 3e
       0.20289399 -0.20761548 -0.24047017 0.24395636
0003e0 75 80 9e 3e c6 f1 8a 3b a5 a4 20 be bf 38 ac 3e
       0.3095738 0.0042402474 -0.15687807 0.33637044
0003f0 57 8c 68 bc 67 9b 95 be 52 ba a0 3c 0d 2e 9a 3c
       -0.014193616 -0.29220125 0.019620094 0.018820787

net.0.bias f4 [128]
000000 dc 56 84 be 1f 49 9c bd ea 96 37 3e a2 f4 7d 3e
       -0.25847518 -0.07631134 0.17928663 0.24800351
000010 03 f3 c8 3d 26 46 ec bd b6 71 58 be e6 73 ec 3d
       0.09811976 -0.11536817 -0.21137127 0.115455434
000020 5c fb 7e be 29 59 67 be 36 9a cb 3c 98 fe d2 3d
       -0.24900573 -0.22592606 0.024853807 0.10302466
000030 ba 28 f8 3d a9 47 2f be 97 21 41 3d 90 95 d0 bc
       0.12117143 -0.1711718 0.047151174 -0.025461942
000040 87 48 0c 3e dc 02 8b 3d 5f 5e 96 bc 97 c3 a1 3d
       0.13699542 0.06787655 -0.018355547 0.07898634
000050 c5 9a 42 3e ae ec 28 3c 9c 7a fe 3d c4 b6 cd bc
       0.19004352 0.010310335 0.1242573 -0.025111564
000060 d5 bf b4 3e ff 2f 97 3e 70 58 41 3e 24 63 6f be
       0.35302606 0.29528806 0.18881392 -0.23377663
000070 83 da 55 be c1 ca 7a be 26 83 82 3e cc ba 2c 3d
       -0.20884137 -0.24491407 0.25490683 0.04217033
000080 12 9a b3 bd ed 15 2e 3e 91 e7 3b 3e 17 6b 27 be
       -0.08769621 0.17000552 0.18350054 -0.16349445
000090 55 0a 34 3e 39 9a 0d be 27 3d b6 bd 18 6d 1d be
       0.17582066 -0.13828363 -0.08898383 -0.15373647
0000a0 ee 6a 1e be dd ca 81 3e 51 d4 8f be 84 3e a5 3d
       -0.15470478 0.25350085 -0.28091672 0.080685645
0000b0 ba 6e b2 bb 2f 43 3b 3e ea c9 8c 3e 1f 17 a1 3e
       -0.0054453285 0.18287347 0.27497798 0.31462952
0000c0 3e 58 49 3e 4e 99 95 be bf 1e 63 3e 6a 5e 54 be
       0.19662568 -0.29218525 0.22179697 -0.20739141
0000d0 dc 2c 51 3e 87 29 b1 3e c5 f7 db bc 19 f6 3f bd
       0.20427269 0.34601995 -0.026851544 -0.046865556
0000e0 e8 f4 7f 3d ec 11 b3 3e 64 f7 4a 3e 91 58 6c be
       0.06248942 0.3497461 0.19820935 -0.2308066
0000f0 56 55 37 bd 93 db 45 bd a2 18 97 3e c6 a4 c6 bd
       -0.044759117 -0.048305105 0.2951098 -0.09699397
000100 2b e2 32 3e 62 ad b4 3e 13 86 59 be 42 3e 43 be
       0.17469089 0.3528853 -0.21242552 -0.19066718
000110 ce b6 a2 bd c9 5c 14 3e 8e 82 13 be 55 0c 78 be
       -0.079450235 0.1448852 -0.14405271 -0.24223454
000120 8a c1 0c 3e 9f 7d 98 be 04 8c 8a be d1 df a9 3e
       0.13745704 -0.2978334 -0.27059948 0.3317857
000130 4e 60 b3 bc 08 52 a0 3d 24 29 87 3d b0 14 e9 bd
       -0.021896508 0.07828146 0.06599644 -0.11380899
000140 fc 9c 7d 3e ac 33 4f 3e 44 60 78 be ca ff 6a 3e
       0.24766916 0.20234555 -0.24255472 0.22949138
000150 52 a5 a9 be d3 4c d0 bd 65 34 a7 3e 1d d4 dc 3d
       -0.33133942 -0.10170903 0.3265716 0.10782645
000160 72 ce a3 3e 28 6a f9 3c 0a d2 c1 bd 71 ae 01 be
       0.31993443 0.030446127 -0.0946389 -0.126642
000170 a6 2a 45 3e 27 97 c7 3d ef 5d 90 be c5 8e b0 bd
       0.1925455 0.09745627 -0.28196666 -0.08620981
000180 3a 29 bc 3e 01 7c 5b 3e ac 96 7b 3e 27 f7 60 3e
       0.36750203 0.21434022 0.24569196 0.21969281
000190 7f a6 7c be aa 90 63 3d 93 89 41 be 02 d4 98 3e
       -0.24672888 0.055557884 -0.18900137 0.2984925
0001a0 ca 8a 22 3e 02 05 01 3e 07 e8 79 3e bd b9 32 3e
       0.15873256 0.12599567 0.24404918 0.17453666
0001b0 65 38 88 be bc 2a 8d 3e 17 0a 23 3e d7 e8 53 3b
       -0.26605526 0.27571666 0.15921818 0.0032334828
0001c0 af 0b 07 39 b7 1c 07 be d2 15 85 be 01 ee 14 3e
       0.00012878956 -0.13194548 -0.2599321 0.14543916
0001d0 53 da 31 3d 46 b5 e3 bd a5 0e 7b be b2 f5 d2 bd
       0.0434211 -0.111185595 -0.24517305 -0.10300769
0001e0 6f 8b 8d be 36 2e 0a 3e d5 a1 2e bd 12 a5 7e be
       -0.27645442 0.1349419 -0.042634804 -0.24867657
0001f0 9c e0 4e 3d 9c 86 3f 3e 56 1d 7f 3e f0 ad c4 3e
       0.050507173 0.18703693 0.24913535 0.38413954

net.2.weight f4 [256, 128]
000000 bd 80 17 3d 93 a7 bb 3d f9 1f 89 bd f6 e6 ef bc
       0.03698801 0.091628216 -0.066955514 -0.029284935
000010 4a 5a 33 bd d5 6f 05 3b 2b 08 8c 3d 47 13 08 bb
       -0.04378728 0.0020360847 0.068374954 -0.0020763443
000020 9d ce 7a bd de d0 e5 3c 76 82 95 3d a8 02 94 bd
       -0.061232198 0.028053697 0.07300274 -0.07227069
000030 ca f2 b9 3c ea bb a5 3c fc b7 7f 3d e0 3c 85 bd
       0.022698779 0.020231206 0.06243132 -0.065057516
000040 88 0a 0e bd 7d 72 91 3d 02 02 e7 bc 3c af 88 3d
       -0.034678012 0.07101915 -0.0281992 0.06674048
000050 ac c9 c5 bc 12 9a 38 3d f4 0f de bb 9d d2 0f bd
       -0.024144016 0.045068808 -0.006776804 -0.035112966
000060 f6 c9 ca 3d 87 78 d1 3d 7d fb 83 bd 8e ad a9 bd
       0.09901802 0.10228067 -0.06444452 -0.08285056
000070 27 84 1a bd a7 33 17 3d 55 0e cd bd 89 d3 40 bc
       -0.037723687 0.036914494 -0.10012499 -0.011769184
000080 4c 1a 47 3d 7c 2b 2a bd 68 82 b1 3d 66 0b a1 3d
       0.048609063 -0.041545376 0.08667451 0.07863502
000090 9f 9f 05 3d 9c 31 85 3c 2d a2 63 bd 90 3a f4 bb
       0.03262293 0.016259007 -0.055574585 -0.0074532703
0000a0 af d8 ab bc f0 77 99 3d 09 7f fa 3d e6 ba 29 3d
       -0.020977346 0.074935794 0.12231261 0.041438006
0000b0 38 b0 f3 3c 89 8b 9a 3d 27 d5 68 3d a0 3d ac 3d
       0.029747114 0.075461455 0.056843903 0.084101915
0000c0 6e 6d 23 3c e8 c1 91 bc 1e 78 8d 3d 6c 42 0e 3e
       0.009974821 -0.017792657 0.06907676 0.13892525
0000d0 35 92 ff bc 27 00 e4 3d b7 49 50 3d cf 0c 1c 3d
       -0.031197647 0.111328416 0.05085155 0.038098153
0000e0 a8 c8 a9 bd cb 00 05 bd 3a 81 0b bd 57 f0 ac 3d
       -0.08290225 -0.03247146 -0.034058787 0.08444279
0000f0 9b d4 71 3c 9c c4 cc 3d 80 1b ce 3c 59 eb a5 3d
       0.014760162 0.09998438 0.025159597 0.0810153
000100 3f b2 c8 3d c8 bd 6d bd 7c ac 80 bc ca 09 3b 3d
       0.09799623 -0.058042318 -0.015707247 0.045663632
000110 f3 40 14 3d b3 70 75 3c 9a 82 e4 3c 91 78 c4 bd
       0.036194753 0.014980483 0.027894307 -0.09593309
000120 ec 09 b5 bd 8e 19 65 3d 73 5b a3 3d 40 f2 15 bc
       -0.08839783 0.055932574 0.07976427 -0.009151995
000130 5b 1d 8d 3d b4 98 f7 bd 45 20 80 ba ef 70 c1 bc
       0.06890365 -0.12089673 -0.0009775242 -0.023613421
000140 64 06 08 3d 32 e7 dd 3d 10 12 d2 bd bf f9 02 3d
       0.03320922 0.10835113 -0.102573514 0.031976458
000150 96 4e 96 bd 0f f8 e6 3d e7 7e 6e 3d e2 c6 d4 3c
       -0.07339208 0.11277782 0.058226492 0.025973741
000160 c5 49 30 3a 81 06 9c 3d 20 c7 aa bb 04 14 14 3c
       0.00067248597 0.07618428 -0.005211726 0.009037975
000170 3e 6a d2 bb 10 6c 03 bd ec c9 73 bd 22 79 68 3d
       -0.0064213565 -0.03208548 -0.05951874 0.056756146
000180 51 0b cb 3d da 46 d5 bd 87 40 24 3d 52 75 b7 3d
       0.09914268 -0.104139045 0.0401006 0.08957924
000190 c9 27 27 3d d2 ac 54 bb 70 2e 6c bd c3 7d 56 3c
       0.040809426 -0.0032451642 -0.057661474 0.013091507
0001a0 be 41 ab bd 1b 03 05 be 26 6d e9 3d 39 3f ef 3c
       -0.08362149 -0.12989466 0.113977715 0.029204952
0001b0 1e b8 10 3d 1b 4e a4 3d c7 d5 39 bd db e0 5e bd
       0.035331838 0.0802271 -0.04536989 -0.054413658
0001c0 a5 a5 31 bd 84 4c 9b bd 7e a0 51 3d 4b 65 bd 3c
       -0.04337086 -0.075829536 0.051178448 0.02311959
0001d0 12 d6 d3 bd fd e1 a8 3c 10 86 33 bd ed a0 88 3d
       -0.10343565 0.020615572 -0.043829024 0.06671319
0001e0 8c 3e a2 bd 51 39 02 3d 8b a5 7b bc 4f 47 af bd
       -0.07922086 0.031792942 -0.015359293 -0.08558523
0001f0 a6 d2 15 3b 56 4f bc bc 3b af be 3d 65 96 7c 3d
       0.0022861152 -0.02298705 0.09310766 0.061666865
000200 39 f9 9d 3b af 6c 62 3c 60 cf cb bd 6f 78 17 3d
       0.0048209694 0.0138198575 -0.09951663 0.03698009
000210 49 bd 5e bd bd aa d5 bc f1 9c 02 3d f3 e2 3d bc
       -0.054379735 -0.02608239 0.031887952 -0.011589753
000220 a8 90 94 3d 0e ad d3 3c 8f f3 d1 3d 5f 0f b8 3a
       0.072541535 0.025839355 0.10251533 0.0014042667
000230 6a 57 9d bc 92 e6 74 bd 4b c8 62 3c 49 d3 77 3d
       -0.019206721 -0.0597902 0.013841699 0.06050423
000240 07 c1 04 3c 8d 52 ba bd e7 46 10 3c a5 9c 93 3d
       0.008102662 -0.090977766 0.008805967 0.07207612
000250 ee 98 bb 3d 23 f9 22 3e 97 b9 98 3d df 67 9d 3d
       0.091600284 0.1591535 0.074572735 0.076858275
000260 68 72 63 3d 6a 27 1d bb 6e c5 1c 3d da 59 2a bd
       0.05552903 -0.0023979791 0.03827422 -0.041589595
000270 6a ce 9c 3a 3e f5 ac bd ac 3f 18 bd 9f 17 61 bc
       0.0011963372 -0.08445214 -0.037170097 -0.013738542
000280 77 bf 14 bd ee 16 3c bd ef 66 cf 3d aa b6 2e bd
       -0.036315408 -0.045920305 0.10127055 -0.04265467
000290 85 b6 d3 bc af 8a cc bc fb 70 04 be a0 18 9e 3c
       -0.025843868 -0.024968473 -0.12933724 0.019298851
0002a0 33 12 9d 3c 18 e7 43 3c 6b 4c b3 3d 52 0d 00 bd
       0.019173717 0.0119569525 0.0875481 -0.031262703
0002b0 43 53 88 3c 9e 1b c2 3c b1 f3 81 bc a8 37 84 bd
       0.016641265 0.02369481 -0.015863271 -0.06455928
0002c0 35 7e 92 3d 3e a3 15 bc f1 74 c2 3c 6c 96 85 3c
       0.07152978 -0.009133158 0.023737403 0.016307078
0002d0 af 39 b9 3d ba 49 ad ba d4 21 61 bd db 2e 35 bd
       0.090442054 -0.0013220825 -0.0549639 -0.044234138
0002e0 69 34 c3 bd 86 21 03 3d c7 f9 21 3d 9d 6f fd 3d
       -0.09531481 0.032014392 0.039544847 0.12374804
0002f0 1b 4b 7c bc c5 5e eb bc 1e 9c c9 3d 53 a3 36 bd
       -0.015398766 -0.028731713 0.0984423 -0.044589352
000300 f2 67 8c 3d ae cd 07 3d 34 02 95 bc bc 1b 8b 3d
       0.068557635 0.033155136 -0.018189527 0.06792399
000310 25 77 c4 3c 14 32 d4 3d b7 c6 c1 bd 32 1f d3 bd
       0.023982594 0.10361114 -0.0946173 -0.103086844
000320 b0 2a 85 3d 7d 74 66 bc f6 70 ac bd 41 32 ce bd
       0.065022826 -0.014065859 -0.08419983 -0.10068179
000330 40 97 df 3c cf 10 75 bd 9b a4 10 bc 22 f3 98 3b
       0.027293801 -0.059830483 -0.0088283075 0.0046676556
000340 11 92 dd 3d 8e 86 48 bd 39 28 c1 3c e1 c4 b8 3d
       0.108188756 -0.048956446 0.02357875 0.09021927
000350 8a c7 6e 3d ef ce c4 3c 10 e8 08 3d 5e 5f 94 3d
       0.058295764 0.024024455 0.033424437 0.07244752
000360 e7 46 48 bd cd af 8f 3d db bd 78 bc 0b 7f b8 3d
       -0.048895743 0.07015953 -0.015181984 0.090086065
000370 7f ba 9d bb 83 9f 2e 3d 71 81 16 bc 30 3b 22 3e
       -0.004813492 0.04263259 -0.009186135 0.1584289
000380 88 3b d4 3c 77 72 14 bd 70 cd 9e 3c ac a3 8d bc
       0.025907293 -0.036241975 0.01938507 -0.017289959
000390 f8 c0 45 3b fa 92 4b bd df c3 ab 3d 83 9f f1 bc
       0.0030174833 -0.049700715 0.08386969 -0.029495006
0003a0 6b 8a 89 3b d4 8d ba bd e1 ff a4 3d 27 10 b8 3d
       0.004197409 -0.09109083 0.080566175 0.08987456
0003b0 57 83 8a bc fe 67 4f bb 6b f2 a0 3d 72 5c 1f 3d
       -0.01690833 -0.0031647678 0.078587376 0.038906522
0003c0 71 ae f0 bb bc 52 10 bc 88 f9 e1 bc 47 38 19 bd
       -0.007345014 -0.008808788 -0.027584806 -0.037407186
0003d0 52 66 9b bc 03 20 c5 3d 7b bd 7d bd 99 42 9b 3d
       -0.018969689 0.096252464 -0.06194828 0.07581062
0003e0 0f 8e 46 3d 02 61 b0 3c de a9 15 3e 52 70 3e 3d
       0.04847532 0.021530632 0.1461558 0.046493836
0003f0 66 14 a6 3d 7c 78 fe bc 5a a4 a1 3d db d4 b0 3d
       0.081093594 -0.03106331 0.07892676 0.08634349

net.2.bias f4 [256]
000000 fa ad fc 3c a7 b9 9f 3d 38 e1 8c 3c fc 58 1c 3d
       0.030844677 0.07799082 0.017197236 0.0381708
000010 21 71 9c bd d4 d8 b1 bc f5 b5 e1 39 70 01 3e bc
       -0.07638765 -0.021709837 0.00043050913 -0.011597022
000020 2a c0 f6 bc b2 50 af bd d9 f8 5c bd ea 87 53 3d
       -0.030120928 -0.08560313 -0.053948257 0.05164329
000030 77 df 22 3c 03 7d 98 bd 3f 1f 97 3d af 35 6e bd
       0.0099409735 -0.07445719 0.073790066 -0.058156665
000040 94 e9 88 3d a5 7b c6 3d 3a b6 7f 3d 99 1a 54 bd
       0.066851765 0.09691552 0.062429644 -0.051783178
000050 18 65 9f 3d b8 a6 a4 bc 69 7d 96 bd 5e ab 80 3d
       0.07782954 -0.020099029 -0.07348139 0.06282686
000060 2c 86 77 3a 3d 2e 75 3c 8a 04 e0 3c a0 89 b1 3d
       0.00094422954 0.014964637 0.027345914 0.08668828
000070 87 77 85 bb dd 92 95 3d 75 37 83 bc 50 93 11 bc
       -0.0040730867 0.073034026 -0.016017655 -0.00888522
000080 a7 a6 a7 bd 46 dc 8e bd 67 d3 a5 bd 38 e4 99 bc
       -0.08186083 -0.069756076 -0.080969624 -0.018785581
000090 09 fd 7e 3d 91 83 98 3d 7a 8a 3d bd d2 ac f7 3d
       0.062253032 0.07446969 -0.04627464 0.1209351
0000a0 38 05 00 3d 27 de 72 3d ab ad 09 bd b3 b0 d5 3b
       0.031254977 0.059293892 -0.03361289 0.0065213083
0000b0 d1 77 af 3d 87 b1 09 3d 7d d7 58 3d db de 41 bd
       0.08567775 0.03361657 0.05293988 -0.047331672
0000c0 ac 3b 72 bd ea de 21 bd 7c e4 24 bd 3a 4a 34 bd
       -0.05913894 -0.039519228 -0.040256962 -0.0440161
0000d0 53 7b a6 3c 7b ad cf bb 8a dd 15 bd e3 9c c3 3d
       0.020322477 -0.006337819 -0.03658823 0.09551408
0000e0 94 35 9e 3d 5c 31 31 bc b8 ed 8d 3d 94 66 aa bc
       0.07725063 -0.010814991 0.06930107 -0.020800866
0000f0 5a f9 3e bd 4b 9a 1c bd ab 82 7e bd 18 76 95 bc
       -0.04662452 -0.038233083 -0.062136333 -0.018244788
000100 4d 39 1d bc 97 cb 50 bc 58 07 9f 3d e3 a1 06 3d
       -0.009596181 -0.012743852 0.077650726 0.03286923
000110 f5 f6 75 bd cf 49 6d 3d 00 d7 bf bc 21 1c 49 3d
       -0.06004997 0.057931717 -0.02341795 0.04909909
000120 33 40 a0 bd 8f 8f 0d 3d 42 8f a9 3d 8f c5 c6 3d
       -0.07824745 0.034560736 0.082792774 0.0970565
000130 40 29 12 3d 63 77 a5 3d 2a a0 06 3b ea 0f 0c 3d
       0.03568387 0.08079412 0.0020542243 0.034194864
000140 48 a7 02 bd 60 a4 67 bd c9 b8 8e 3d 31 2a 83 bd
       -0.031897813 -0.056553245 0.06968839 -0.06404532
000150 cd 93 46 3d 88 79 b0 3d ae 34 e6 3d b2 3d 39 3b
       0.048480798 0.0861693 0.112405166 0.0028265533
000160 ac c2 b5 3d 0c 79 6e 3d fa 45 b6 bd 5c 0f dd bc
       0.08875021 0.058220908 -0.08900066 -0.026984863
000170 1a 7e 9c bd 28 ad 2a bb ea 41 b7 3c ee 82 42 3d
       -0.076412395 -0.002604315 0.022370297 0.047488146
000180 b9 2d 9f bd 27 01 4b bd 9d bb 64 bd e2 6b a4 bd
       -0.07772393 -0.049561646 -0.055842984 -0.080283895
000190 98 7d 50 bd f9 3e 16 3d 72 0e 26 bd 06 2b 75 bd
       -0.050901026 0.03668115 -0.04054112 -0.059855483
0001a0 87 51 94 bd 79 d0 65 3d b3 0b 9a 3d e9 c3 b2 bd
       -0.072421126 0.05610702 0.07521763 -0.08728773
0001b0 08 99 2f bd 41 9d f5 3c 74 7d ab 3d cc 14 26 bd
       -0.04287055 0.029982211 0.08373538 -0.040547177
0001c0 e9 db a4 3d e7 9e 13 3c 52 20 98 3d 52 d1 8c bc
       0.08049757 0.009010053 0.074280396 -0.017189655
0001d0 1d bc 58 3c dc 59 e6 3d 95 77 4e 3d 19 56 44 bd
       0.013228443 0.11247608 0.05040701 -0.04793367
0001e0 8d e8 74 bd f1 14 9d bb 25 85 2d 3d 09 4d 9f bd
       -0.05979209 -0.004793756 0.042363305 -0.07778365
0001f0 a8 77 db 3d 89 4b b6 3d d0 08 1e bd 76 96 ce 3d
       0.10716182 0.08901126 -0.038582623 0.10087292
000200 4f 31 95 bc 5f 00 fa 3c c1 2a 90 3d a9 41 9b 3d
       -0.018211989 0.030517755 0.07039405 0.07580883
000210 b6 42 89 bd 75 86 a3 3d f8 ee 97 3d 67 38 07 3d
       -0.06702177 0.0798463 0.074186265 0.033012774
000220 9a 2d 66 bd 12 ab 82 3b 50 90 c5 bc 07 c9 50 3d
       -0.056195833 0.0039876783 -0.024116665 0.050972965
000230 5a 98 79 3d 0a af 7b 3d 6f aa 33 3d c1 fa 23 bc
       0.06093631 0.061446227 0.04386371 -0.010008515
000240 5a 11 20 bd 9c 8a 27 3d 20 19 02 bc 8a 0f b0 bd
       -0.039079048 0.040903673 -0.007940561 -0.08596714
000250 a8 5c 2c bb d4 57 85 bd 66 67 29 3d 84 70 ba 3c
       -0.0026300345 -0.065108925 0.041358374 0.02275873
000260 81 87 c3 3c b1 4c 68 bd 45 a4 99 3d 1e d8 8e 3d
       0.023868324 -0.056713764 0.07502035 0.06974815
000270 fe 99 42 bb c2 a3 80 bb c7 a2 6f bd a5 45 1a bd
       -0.0029693837 -0.0039257715 -0.058504846 -0.037664074
000280 84 86 8a 3d 02 1c c6 3c 0f 9e bc 3d d7 f1 e7 bc
       0.06763938 0.024183277 0.09209835 -0.02831356
000290 1d bc 02 3d f0 f5 87 3d 98 db 2d bc dd 25 37 3d
       0.03191768 0.06638706 -0.010611437 0.044713844
0002a0 c3 a7 53 bc 50 14 0e bd c0 09 7e bc 37 b9 0f 3c
       -0.0129184155 -0.03468734 -0.015505254 0.008772186
0002b0 f7 aa c7 3c cf bb 78 b8 a8 04 cf 3d 24 18 50 3d
       0.024373515 -5.9302718e-05 0.1010831 0.050804272
0002c0 a9 d8 f5 bc 07 f1 1c 3d 44 db 2d bd 90 56 5c 3d
       -0.030010538 0.0383158 -0.042445436 0.05379349
0002d0 6c 41 9c 3d 98 d1 d2 3d f1 ca 97 bd 83 45 8a bd
       0.07629666 0.10293883 -0.07411755 -0.067515396
0002e0 07 36 59 bb 4c 1d c9 3c 74 70 96 3d 9d af d8 3d
       -0.0033143775 0.024550103 0.073456675 0.105803706
0002f0 dd 9f 89 3d 6a 9a be bc 85 0d 60 bd 78 20 22 bc
       0.067199446 -0.02326699 -0.054700393 -0.0098954365
000300 a0 8d 49 3d 6b 89 ba 3d 6d af 1d 3d 0e 5d 37 bd
       0.04920733 0.09108242 0.038497377 -0.04476648
000310 d9 ed 51 3d e5 8a d7 bc 52 5e cd 3c 03 ea 2e bd
       0.05125222 -0.026311347 0.02506939 -0.04270364
000320 7c a8 96 39 b3 4f 91 3b 6f 9f 65 3d 6a 81 dd bc
       0.0002873576 0.0044345497 0.05606025 -0.027039248
000330 92 96 87 bd e4 aa d4 3c fe 1d 52 3d 2a 06 3c 3d
       -0.06620516 0.025960393 0.051298134 0.045904316
000340 53 7e ed 3d 88 95 57 3d 8c 1d 2b 3d 5b 09 7c 3d
       0.1159636 0.05263284 0.041776225 0.06153236
000350 d2 69 53 3d 49 94 ad bd 18 1e ea 3d ad 19 45 3d
       0.05161459 -0.08475549 0.11431521 0.04812019
000360 18 af c9 bc 37 17 d7 3c ee 01 a2 3d 99 b3 97 3d
       -0.024619624 0.026256187 0.07910524 0.074073024
000370 dc f0 c1 bc 24 c9 5a bd 43 cc 9e 3d 92 0c 3a bd
       -0.023674421 -0.05341448 0.077538036 -0.045422144
000380 ae 7b 8a 3d a2 84 6f 3d 1f cb 51 3d 4a 41 a4 3d
       0.06761871 0.058476098 0.051219102 0.080202654
000390 5e c3 77 bd 60 1b c5 3c 79 ad 5d bd eb f0 6e bc
       -0.06048905 0.024060905 -0.054120515 -0.0145838065
0003a0 50 bc a7 3d 8c 54 91 3d 91 ff 87 3d 45 4a 12 bd
       0.08190215 0.07096204 0.06640542 -0.03571536
0003b0 f3 2f 9d 3c 4e aa c4 bc 5d f4 93 3d cf 02 a9 3d
       0.019187903 -0.024006989 0.07224343 0.08252489
0003c0 f2 15 4a 3d 8f e5 96 3d 04 00 56 bb c5 d1 e3 3b
       0.049337335 0.073680036 -0.0032653818 0.0069524967
0003d0 82 a7 9d bd fc 56 d4 3c 7e 90 61 3d 2a 5d 59 bd
       -0.07697965 0.025920384 0.05506944 -0.053067364
0003e0 b1 43 61 3d 12 40 8e bc 0e 2b 3a bc f8 e0 97 bd
       0.054996196 -0.017364535 -0.011362804 -0.07415956
0003f0 12 6f 7f 3d a2 5e b7 bc 03 82 e9 bc bc a7 b0 bd
       0.062361784 -0.022383992 -0.028504377 -0.08625743

net.4.weight f4 [1, 256]
000000 79 9f ad 3d 9c 64 af 3d d7 e5 04 bd 13 b5 86 3d
       0.084776826 0.085641116 -0.032445755 0.06577506
000010 28 6b 31 3c cf 55 cd 3d 3e f1 7b bd 3e 8a 51 3d
       0.010828771 0.10026132 -0.061509363 0.05115723
000020 e4 f2 14 3d a1 3d 94 3c ad e7 31 3d 11 ca 62 bd
       0.03636445 0.018095793 0.043433834 -0.055368487
000030 c8 f0 61 bd 36 b1 85 bd 0e 99 5c 3d a7 c1 b6 bd
       -0.055161268 -0.06527941 0.0538569 -0.08923655
000040 26 e4 af bd b1 be 81 3d 39 51 8b 3d 8b cc 83 3d
       -0.08588438 0.063351996 0.06802601 0.06435498
000050 89 fc a5 bd 24 a6 87 3c 29 30 6f bd f3 b4 09 3c
       -0.08104808 0.016558714 -0.05839554 0.008404958
000060 13 62 a3 3c 7e 56 b2 bd d6 d8 b3 bd 09 f3 a4 bd
       0.019944226 -0.08707903 -0.087815925 -0.08054168
000070 f6 7b ae bd 1f db 75 bd e2 d1 91 3d 62 51 9d bd
       -0.085197374 -0.060023423 0.0712011 -0.07681538
000080 77 02 b9 bc 7c db 65 3d d2 b6 54 3d b8 9a 39 bd
       -0.022584183 0.05611752 0.051932164 -0.045313567
000090 36 a5 b3 3d 18 71 af bd a4 05 6d 3d 61 4a 3a 3d
       0.08771746 -0.08566493 0.057866707 0.04548109
0000a0 e4 19 06 3d 3a 52 bd bd 9f 41 67 3d 24 85 b0 3d
       0.032739535 -0.09244199 0.056459066 0.086191446
0000b0 01 98 e1 bc 99 bc 9a 3d e7 e5 ba bd 89 95 d6 3d
       -0.027538301 0.075555034 -0.09125882 0.1047774
0000c0 4e ad 8f bd f8 ba 67 3d 0b 33 c6 3a 0e 97 3d bd
       -0.07015477 0.05657479 0.0015121413 -0.046286635
0000d0 d2 85 96 bd 30 70 a0 3d ca 9a cc 3d 21 47 b6 3d
       -0.07349743 0.07833898 0.09990461 0.089002855
0000e0 33 9c 4d 3d a4 24 58 bd 43 9c 95 3d aa d6 d4 3d
       0.05019779 -0.05276932 0.07305195 0.103925064
0000f0 1a 23 50 bd ac d0 90 bd 80 aa ef bd e7 0f 17 3d
       -0.050814725 -0.07071051 -0.11702442 0.0368804
000100 07 2a 9f bd d4 50 91 3d 12 a1 97 3d 3b 73 48 bd
       -0.07771688 0.07095495 0.074037686 -0.048938017
000110 80 8d a6 bc ca 90 d5 3d 75 a5 5b 3d e6 08 8d bd
       -0.020331144 0.10428007 0.05362459 -0.06886463
000120 3e 21 35 3d 0a 87 c1 bd a9 73 9e bd 8c f1 d2 3d
       0.044221155 -0.09449585 -0.07736904 0.10299978
000130 ee 8d d7 bd cf a6 a4 3d 9e b8 a9 bd cf 26 e3 bd
       -0.10525118 0.08039629 -0.08287166 -0.110913865
000140 a4 a4 b2 bd fe 53 cd bd 66 bb 80 bd b1 32 8c bd
       -0.08722809 -0.10025786 -0.062857434 -0.06845606
000150 fc d7 ae 3d c1 77 d2 3d de b1 ac 3d d6 25 a3 bb
       0.085372895 0.102767475 0.08432363 -0.0049788756
000160 68 8d e9 bd 67 aa ce bd 2e 80 ac 3c a6 6b ca bd
       -0.11403924 -0.100910954 0.021057215 -0.098838136
000170 66 78 af bd 81 e2 b8 3d 1a eb 8a 3d a8 2a 81 3d
       -0.08567886 0.09027577 0.06783123 0.06306964
000180 54 a8 1c 3d c2 24 5b bd a0 0d b5 bd 80 2e bc 3a
       0.038246468 -0.05350185 -0.088404894 0.001435712
000190 be 8c 14 bd 7d 8b 81 bd 71 f9 bd 3d 50 15 cc bd
       -0.036267035 -0.063254334 0.09276093 -0.099650025
0001a0 0b 58 28 3d 32 32 86 3d 7c f6 86 bd 43 4b 07 bd
       0.04109959 0.06552543 -0.06589982 -0.03303076
0001b0 60 ca 37 bc 9a ba 9b bd eb f5 9e bd 42 e8 ae bd
       -0.011217684 -0.07603951 -0.07761749 -0.085403934
0001c0 12 1b cd 3d 93 d6 7d bd 54 61 82 bd 28 79 eb bc
       0.10014929 -0.061972212 -0.0636622 -0.028744295
0001d0 68 53 cf 3d a7 3f aa 3d 77 5f 66 3d 1b d7 88 bd
       0.1012333 0.08312922 0.056243386 -0.06681653
0001e0 46 19 72 bd e4 18 69 3d 38 e5 78 3d f8 35 50 bd
       -0.059106134 0.056908503 0.060765475 -0.05083272
0001f0 3e e5 af 3d d5 05 9b 3d a2 ea d9 bd af 66 2c 3d
       0.08588646 0.07569472 -0.10640456 0.042090114
000200 12 ff 6e bd bf 5d 83 3d ea c2 95 bd c6 0e 9b 3d
       -0.058348723 0.06414365 -0.073125675 0.07571177
000210 ad 0f 1f bd ec 46 8c 3d 85 f6 df bd 8c 03 b7 3d
       -0.03883331 0.06849465 -0.10935692 0.089362234
000220 ec b9 ae 3d 7e 32 85 bd 08 a6 22 3d 34 b0 b0 3d
       0.085315555 -0.06503771 0.03970912 0.08627358
000230 b7 8b 6e 3d 39 b8 83 3d 93 f5 c3 3d 9e fc 77 3d
       0.05823871 0.06431622 0.09568324 0.06054365
000240 46 6b b9 bd ec 87 5b 3d 3a f0 cb 3d e8 15 6c 3d
       -0.09053664 0.053596422 0.09957929 0.05763808
000250 31 f3 6a bd f6 eb 93 bd 71 84 3f 3d c1 d8 e2 bd
       -0.05736083 -0.0722274 0.046757165 -0.11076499
000260 a8 3c 39 bd a2 a5 00 bd 84 92 89 3d 3f 62 b1 3d
       -0.045223862 -0.03140796 0.06717399 0.08661317
000270 0a f5 dc 3d 50 0b da 3c 60 26 d4 3d ee 7b 79 bd
       0.10788925 0.026616722 0.10358882 -0.060909204
000280 27 5f 5c bd e8 37 16 3d 9b 70 dd 3d ec 34 83 bd
       -0.05380168 0.03667441 0.108124934 -0.064065784
000290 df 2f 50 bd d4 89 82 3d 10 64 42 3d 55 b4 a9 bd
       -0.050826903 0.06373945 0.04745871 -0.08286349
0002a0 55 f5 92 3d d8 e6 8e bd 60 dd dd bc 50 72 b7 3d
       0.071756996 -0.06977624 -0.027083099 0.0895735
0002b0 8d 38 ef bc 24 c5 14 bd 3b 7f c9 3d f7 fe 17 3c
       -0.02920177 -0.03632082 0.098387204 0.009277097
0002c0 77 44 32 bd b7 d6 96 bd 6a d1 65 3d 51 24 48 bd
       -0.043522324 -0.07365172 0.056107916 -0.04886276
0002d0 74 85 d9 bd de 32 99 3d ba 8d 9f bd 8c 67 31 bd
       -0.10621157 0.07480405 -0.07790704 -0.04331164
0002e0 75 7b 03 3d 86 0e d1 3d 0d 06 b5 3d 77 eb ba 3d
       0.03210016 0.10207848 0.08839045 0.091269426
0002f0 9b fd 9d bd 6b 70 dc 3d a3 72 9d bd 0e 74 60 3d
       -0.07714387 0.107636295 -0.07687881 0.05479818
000300 aa d7 82 3d e6 a5 b2 3d 8c 06 a8 bd 8d 44 a4 bd
       0.06388791 0.08723049 -0.08204374 -0.080208875
000310 47 ff 1e bd 5e 36 3a bd 80 1c 93 3d 38 68 1b 3d
       -0.03881767 -0.045462005 0.0718317 0.037941188
000320 a6 71 33 3d d5 21 ae 3d 33 ed b6 3d 61 14 5e 3c
       0.043809555 0.08502547 0.08931961 0.013554663
000330 54 e8 49 bd 6c 0c a5 3c eb 7c b9 bc 09 5e d4 3d
       -0.04929383 0.020147525 -0.022642573 0.10369498
000340 cd 53 89 3d 39 8f 88 3d f9 52 2e 3d 96 8f 81 bd
       0.06705437 0.066679426 0.042559598 -0.06326215
000350 bd da a2 3d 0e 33 0e bc 94 f2 d3 3d ba 41 87 3d
       0.07951877 -0.008679165 0.103490025 0.06604333
000360 17 5c c4 3d 27 f7 82 3d 18 4a 79 3d c5 e5 43 bd
       0.09587877 0.06394797 0.060861677 -0.047826547
000370 36 26 84 3d 21 52 a8 3d a7 29 3c bd b4 5a b7 bc
       0.06452601 0.0821879 -0.04593816 -0.022382118
000380 88 e7 3f bd 33 83 b1 bd 85 6f ae 3d 18 6b b4 3d
       -0.046851665 -0.086676024 0.085173644 0.08809489
000390 78 f6 51 bc c5 d2 8b bd a0 86 9d 3b 30 a1 a1 bd
       -0.01281511 -0.068273105 0.0048073083 -0.07892072
0003a0 14 3d 88 3d ec 61 ba 3d e2 f8 d7 bc 95 37 88 bd
       0.06652275 0.09100708 -0.026363794 -0.066512264
0003b0 26 79 a2 3d 12 84 3f bd 0c c6 73 3d e6 1a b9 bd
       0.079332635 -0.04675681 0.059515044 -0.090383336
0003c0 c6 52 16 3d 55 b8 9d bd 9e c5 55 3d 43 f0 9f bd
       0.036700033 -0.07701174 0.052190416 -0.07809498
0003d0 e5 a1 ff bc c2 c2 50 bd 3a 00 39 bd 55 06 37 bd
       -0.031205127 -0.050966986 -0.04516623 -0.044683773
0003e0 98 71 8d 3d d8 dd 62 bd 7c 7b da 3d 78 f1 eb bc
       0.06906432 -0.055387348 0.10668084 -0.028801665
0003f0 23 92 29 3d 97 5c 02 bd 3b e8 af bd 96 73 35 3d
       0.041399132 -0.03182658 -0.08589216 0.044299684
