runs_bakeup/v_no31.pth (torch, 144972 bytes, 5 tensors)

net.0.weight f4 [128, 18]
0	0x3e9a8441	0.30179027
1	0x3e208a84	0.1567784
2	0x3e826e0e	0.2547459
3	0x3e006a83	0.12540631
4	0xbe44951c	-0.19197506
5	0xbe29b468	-0.16572726
6	0x3e0c65fa	0.13710776
7	0xbe6a5274	-0.22883016
8	0x3e26e459	0.16298045
9	0x3e16fcb4	0.14744836
10	0x3e556b04	0.20841604
11	0x3dd30507	0.10303693
12	0x3e07b71b	0.13253443
13	0x3bfe3ce8	0.0077587254
14	0xbdd0b51b	-0.10190793
15	0x3ccc5d6d	0.024946893
16	0x3e3701b9	0.17871751
17	0xbccfaedb	-0.025351932
18	0x3e5a2e14	0.2130664
19	0x3e2ba9c7	0.16763984
20	0xbe3cbd77	-0.1843165
21	0x3e2a23d4	0.1661523
22	0x3e2af185	0.16693695
23	0xbe31626a	-0.17322698
24	0x3dcfdfee	0.10150133
25	0xbe77de3f	-0.24205874
26	0x3e185226	0.14875087
27	0xbdb8c70f	-0.090223424
28	0x3d53a782	0.05167342
29	0x3e045cdb	0.12926047
30	0xbe60e496	-0.21962199
31	0xbdd55c0c	-0.10417947
32	0x3dd1cafb	0.102437936
33	0x3e5ad98e	0.21372053
34	0x3da3cf33	0.079985045
35	0x3d4d9db6	0.050199233
36	0x3e3e7d30	0.18602443
37	0xbe04ca1d	-0.12967725
38	0x3d84f9a9	0.064929314
39	0xbd52f733	-0.05150528
40	0xbe0ee021	-0.13952686
41	0x3e2be858	0.16787851
42	0x3e2b1c11	0.16709925
43	0xbe8f3c9a	-0.27975923
44	0x3e51a553	0.20473222
45	0xbce3563d	-0.027751083
46	0xbe299159	-0.16559352
47	0xbe74302c	-0.23846501
48	0x3e2a6c17	0.16642796
49	0xbe05a4a1	-0.13051082
50	0xbe46ffaf	-0.19433473
51	0x3db6b0c6	0.089204356
52	0xbb0afe20	-0.00212086
53	0xbd0759ca	-0.033044614
54	0xbe479020	-0.19488573
55	0x3d9055c3	0.07047608
56	0x3e3504b6	0.17677578
57	0xbdf43161	-0.11923481
58	0xbe1e889e	-0.15481803
59	0x3dadb34d	0.084814645
60	0x3ca8a2f9	0.020585524
61	0xbe3d5d04	-0.18492514
62	0x3ce20cfb	0.02759408
63	0x3df2ae02	0.118495956
64	0xbd2d4aaf	-0.042307552
65	0xbe63f7ef	-0.22262548
66	0xbe585ea5	-0.21129854
67	0x3db0fe86	0.086422965
68	0xbe24f614	-0.16109496
69	0x3e43a675	0.19106467
70	0xbe6aee8b	-0.2294256
71	0x3e03539e	0.12824866
72	0xbc882830	-0.016620725
73	0x3dd94e36	0.10610621
74	0x3e151677	0.14559351
75	0x3e24e62c	0.16103429
76	0x3e25d09f	0.16192864
77	0xbd875e88	-0.06609827
78	0x3e4c239d	0.1993546
79	0xbe07b429	-0.1325232
80	0xbe06f82c	-0.13180608
81	0xbd81a651	-0.063305505
82	0x3e255896	0.16147074
83	0xbd960c3e	-0.07326554
84	0x3e408b55	0.18803151
85	0x3d7b410a	0.061341323
86	0xbe37e5ac	-0.17958707
87	0xbe87ad3d	-0.26499358
88	0x3d5e99e6	0.054345988
89	0x3de2e66b	0.11079105
90	0xbd22cc0f	-0.039745387
91	0xbe7d45fd	-0.2473373
92	0xbc9356ac	-0.017985664
93	0x3e4cbd7a	0.19994155
94	0x3e81fb38	0.25386977
95	0xbc8ecf44	-0.017432816
96	0xbdac9855	-0.084274925
97	0x3db1dcf0	0.086847186
98	0x3e5e08c2	0.21683028
99	0xbdae3fd3	-0.08508267
100	0x3e708cd8	0.23491228
101	0xbe198e05	-0.14995582
102	0xbdab12ae	-0.08353172
103	0x3e4bf4ca	0.19917598
104	0x3dbfef2c	0.0937179
105	0x3d965c1c	0.07341787
106	0x3de3d7a2	0.11125113
107	0x3e33f38a	0.17573372
108	0x3df13d0b	0.11779221
109	0xbd566f0f	-0.052352007
110	0x3e4433e8	0.19160426
111	0xbe5b84f8	-0.21437442
112	0x3d140d7f	0.036145683
113	0x3ab45fc7	0.0013761454
114	0x3d8e78a8	0.06956607
115	0xbe298503	-0.16554646
116	0x3e46bbc4	0.19407564
117	0x3d0296dd	0.031882156
118	0xbd1566a8	-0.036474854
119	0xbe867d46	-0.2626745
120	0x3d8d60a0	0.069031954
121	0x3ddf0121	0.10888887
122	0x3d3367f5	0.043800313
123	0xbd6b50a9	-0.05744997
124	0x3e059cc8	0.13048089
125	0x3e24d1b6	0.16095623
126	0xbdd5962c	-0.10429034
127	0xbc970d52	-0.018438969
128	0xbe706814	-0.23477203
129	0xbe1a9633	-0.15096359
130	0x3da867e8	0.082229435
131	0x3e2c99e4	0.1685558
132	0x3da42ab8	0.080159605
133	0x3cac4683	0.021029716
134	0xbd6ed680	-0.058310032
135	0x3d646ecb	0.055769723
136	0x3d1ea6e2	0.03873337
137	0xbdad453a	-0.084604695
138	0xbe72644e	-0.23671076
139	0xbd50174a	-0.05080346
140	0x3df6230f	0.12018406
141	0xbe0a15f8	-0.13484943
142	0x3e1769c3	0.14786439
143	0x3dfa9b50	0.12236655
144	0xbdab1e5c	-0.083554
145	0xbe709671	-0.23494889
146	0xbd86ded9	-0.065854736
147	0x3e30497c	0.17215532
148	0x3e999138	0.29993606
149	0x3e4029a6	0.18765888
150	0x3df8b847	0.12144523
151	0xbe41b90a	-0.18918243
152	0xbd51be14	-0.051206663
153	0x3bdb08b9	0.0066843894
154	0x3ec51912	0.3849569
155	0x3e38ae44	0.18035227
156	0xbe4eae61	-0.20183708
157	0x3d9ad163	0.075594686
158	0x3db90cf4	0.09035674
159	0x3e357f40	0.17724323
160	0x3e5ca5db	0.21547644
161	0xbe153660	-0.14571524
162	0x3ea0bea8	0.3139546
163	0x3e389547	0.18025695
164	0xbe0398bb	-0.12851231
165	0xbde850b5	-0.11343519
166	0xbca284ef	-0.019838778
167	0x3d96bf3c	0.07360694
168	0x3d1320cf	0.03591996
169	0x3e0a74a0	0.13521051
170	0xbd8606c3	-0.065442584
171	0xbd9694ae	-0.07352577
172	0xbe683d9f	-0.22679757
173	0xbe275ab2	-0.16343191
174	0x3d88dddf	0.066829436
175	0x3e41b0a7	0.18915044
176	0xbbbd67d2	-0.0057801986
177	0x3e09be03	0.1345139
178	0x3dc294a5	0.09501008
179	0x3e636a85	0.22208603
180	0xbe279608	-0.16365826
181	0xbea51caa	-0.3224843
182	0xbe25b3b4	-0.16181833
183	0x3e8ab2e6	0.27089614
184	0x3d69af3f	0.057051893
185	0xbddce3d8	-0.10785645
186	0xbe0c724a	-0.13715473
187	0xbe202e86	-0.15642747
188	0xbe106583	-0.14101224
189	0xbe0bed9d	-0.13664861
190	0x3eafed82	0.34360892
191	0xbe60fc47	-0.21971236
192	0xbe4142c0	-0.1887312
193	0x3d420f9f	0.04737818
194	0x3e2ad4dc	0.16682762
195	0x3afb1440	0.0019155815
196	0x3e20a53e	0.15688035
197	0x3d850970	0.06495941
198	0xbe1be818	-0.15225255
199	0xbc53eff7	-0.01293563
200	0x3e284889	0.1643392
201	0x3e65f76f	0.2245767
202	0x3e2cd072	0.1687639
203	0x3e344a03	0.17606358
204	0x3e8f5b66	0.2799942
205	0x3e0963b3	0.13416938
206	0xbd775117	-0.060380068
207	0x3dd47e22	0.103756204
208	0x3e49a19a	0.19690552
209	0x3d169490	0.036762774
210	0xbe299fb0	-0.16564822
211	0xbe23bfbb	-0.15991108
212	0xbe5751fc	-0.21027368
213	0xbe21dc05	-0.15806587
214	0xbe869576	-0.26285905
215	0xbd2c891a	-0.042122938
216	0x3e118f85	0.14214905
217	0xbe8c65fa	-0.27421552
218	0x3c38a48b	0.011269699
219	0x3e1ea0c8	0.1549102
220	0x3d96d4fd	0.07364843
221	0xbc0e6752	-0.008691626
222	0x3df98fa3	0.121856
223	0x3e20a157	0.15686546
224	0xbe060fce	-0.13091967
225	0xbe04c8a8	-0.1296717
226	0x3e7a4749	0.24441256
227	0xbe80f504	-0.25186932
228	0xbc65c560	-0.014024109
229	0xbde16756	-0.11006038
230	0xbd6004fa	-0.054692246
231	0x3e117d64	0.14207989
232	0x3d37f62e	0.04491251
233	0xbe55bca3	-0.2087274
234	0x3e2caeaa	0.16863504
235	0xbdbb7b8f	-0.09154426
236	0xbe19d939	-0.1502427
237	0x3e4fa56b	0.20277946
238	0x3dfbf6fe	0.123029694
239	0x3e8333cb	0.25625452
240	0xbd886452	-0.066597596
241	0xbd54261d	-0.05179416
242	0xba5ee56d	-0.0008502815
243	0x3e6041c1	0.21900083
244	0xbd6c0ef9	-0.057631467
245	0x3c9ca043	0.019119387
246	0x3d5b8b11	0.05359942
247	0xbe814194	-0.25245345
248	0xbdb94e25	-0.09048108
249	0x3e4fa537	0.20277868
250	0xbe95d0a4	-0.29260743
251	0x3d24c12c	0.040223286
252	0x3e61bdde	0.22045085
253	0xbd0ae673	-0.03391118
254	0xbe1a638d	-0.15077038
255	0x3e88500e	0.26623577

net.0.bias f4 [128]
0	0x3e595f7c	0.2122783
1	0x3cbf00e9	0.023315864
2	0x3e3de72e	0.1854522
3	0x3e34c818	0.17654455
4	0x3e1f9f7e	0.15588185
5	0x3e3ab79b	0.18234102
6	0x3d9f8adb	0.077901565
7	0x3e91bd7a	0.28464872
8	0xbcc1cff3	-0.023658728
9	0xbd852fe7	-0.06503277
10	0x3d8e2fdb	0.069427215
11	0xbd97dd53	-0.07415261
12	0xbd5357fb	-0.051597577
13	0xbd278621	-0.0408994
14	0x3dcdbb0c	0.10045442
15	0xbe033de8	-0.12816584
16	0xbda7447b	-0.081673585
17	0xbd934444	-0.07190755
18	0xbe316ab4	-0.1732586
19	0x3e5afc83	0.21385388
20	0x3e18df22	0.14928868
21	0xbde11a92	-0.10991396
22	0x3de3c99a	0.11122437
23	0x3e020fda	0.1270136
24	0xbdc74fd4	-0.09732023
25	0x3d537a2c	0.051630184
26	0xbd336140	-0.043793917
27	0x3d288b9a	0.04114876
28	0xbe3fbe42	-0.18724921
29	0x3e776e89	0.2416326
30	0x3de0e77b	0.109816514
31	0x3d46e41d	0.04855739
32	0xbd0e22f8	-0.034701318
33	0x3dafef29	0.08590538
34	0x3e9116ad	0.28337613
35	0xbe71a089	-0.23596396
36	0x3c23800e	0.009979261
37	0xbded321e	-0.11581825
38	0x3e870e0b	0.263779
39	0x3e081d55	0.1329244
40	0x3e36dd04	0.17857748
41	0x3d8cc143	0.06872799
42	0x3dc59c28	0.09648925
43	0x3c99d9b0	0.01878056
44	0x3d84126c	0.06448826
45	0xbe093112	-0.13397625
46	0x3e8eb534	0.27872622
47	0x3d2ae915	0.04172619
48	0x3e8022fb	0.25026688
49	0xbdf8b624	-0.121441156
50	0x3d945a31	0.07243765
51	0xbd2e298d	-0.042520095
52	0xbd6b6390	-0.057467997
53	0x3e373585	0.1789151
54	0x3def9049	0.11697442
55	0xbe6e5ea3	-0.23278289
56	0x3d78e0fb	0.060761433
57	0xbd0bd39c	-0.034137353
58	0x3e838230	0.25685263
59	0xbe51f495	-0.20503457
60	0x3dd7f1bb	0.10544153
61	0x3e47a8c1	0.19497968
62	0xbdd11118	-0.102083385
63	0x3de6848a	0.112557486
64	0xbe29d452	-0.165849
65	0x3db8c88d	0.09022627
66	0x3e1ede39	0.15514459
67	0x3c4a8625	0.012361084
68	0xbe1bd3ff	-0.15217589
69	0x3e0788dd	0.13235803
70	0xbc369d27	-0.0111458665
71	0x3e398809	0.181183
72	0x3c266c03	0.010157588
73	0xbe106009	-0.14099135
74	0x3b824b31	0.0039762487
75	0x3e52ff3e	0.2060518
76	0xbe376d11	-0.179127
77	0xbdf6f0fa	-0.120576814
78	0xbd8f8564	-0.07007864
79	0xbda8b881	-0.08238316
80	0xbdf29223	-0.118442796
81	0x3e19943c	0.14997953
82	0xbd9b3757	-0.075789146
83	0x3a821d30	0.0009926911
84	0x3e82f46f	0.25577113
85	0xbd82e3cc	-0.06391105
86	0xbd214b5c	-0.03937851
87	0xbe3f6042	-0.18689063
88	0x3e928778	0.2861898
89	0x3e5b01ab	0.21387355
90	0xbdd37f29	-0.10326988
91	0x3e054a56	0.13016638
92	0x3e8f4c7c	0.2798804
93	0x3e35ab1c	0.17741054
94	0x3d385cc3	0.04501034
95	0x3e9384b6	0.28812188
96	0x3e0ee770	0.13955474
97	0x3be8b12d	0.007101199
98	0x3e5d17eb	0.21591155
99	0x3dc6c86a	0.09706195
100	0xbde9838c	-0.11402044
101	0x3e4c4c1f	0.19950913
102	0x3e88395b	0.2660626
103	0x3cf22dbc	0.029562823
104	0x3e4d00b8	0.20019805
105	0xbc6d3b93	-0.014479536
106	0xbdbf5baf	-0.09343659
107	0x3d8487a8	0.06471187
108	0x3e456ffd	0.19281001
109	0xbd5512c8	-0.052019864
110	0xbe4bb6f8	-0.19894016
111	0xbe2164a7	-0.15761052
112	0xbd7c2ddc	-0.061567172
113	0x3e6d7bb5	0.23191722
114	0xbd458e8c	-0.048231646
115	0x3e7c0e07	0.24614726
116	0x3d931d62	0.07183339
117	0xbb978274	-0.0046237055
118	0xbe36a983	-0.17838101
119	0xbe2b3379	-0.16718854
120	0x3d2a5f27	0.04159465
121	0xbd6d3ac9	-0.05791739
122	0x3b0d7a97	0.0021587962
123	0xbc8cbede	-0.017180856
124	0x3cb6373e	0.022243138
125	0xbde47b10	-0.11156285
126	0xbe1a2730	-0.15054011
127	0xbd8aff00	-0.06786919

net.2.weight f4 [256, 128]
0	0x3df1817b	0.117922746
1	0xbd59d712	-0.053183623
2	0x3d02f09f	0.031967755
3	0x3dcdea32	0.10054435
4	0x3d1abe80	0.03777933
5	0x3da6eb5b	0.08150359
6	0xbdf39fd2	-0.11895718
7	0xbb2aab8d	-0.0026042194
8	0x3dd672ba	0.10471101
9	0x3d491a8f	0.049097594
10	0x3d3e881c	0.046516523
11	0x3d6c03bf	0.05762076
12	0x3d81b275	0.06332866
13	0xbcc13860	-0.023586452
14	0x3db1f299	0.0868885
15	0xbdb483b7	-0.08814185
16	0xbe58e733	-0.21181946
17	0x39833dfb	0.00025032446
18	0x3c1cfa41	0.00958115
19	0x3d063e62	0.032774337
20	0x3d042ecb	0.032271188
21	0xbe19cd9b	-0.15019839
22	0xbb9224dd	-0.004459961
23	0x3bd80e28	0.0065934844
24	0xbe07e849	-0.13272204
25	0xbd624e53	-0.055250477
26	0xbd196e0f	-0.037458476
27	0xbdb2f630	-0.08738363
28	0xbd4e7c93	-0.050411772
29	0xbcbf53fb	-0.023355475
30	0x3c255874	0.01009189
31	0xbe241275	-0.16022666
32	0x3d22022b	0.03955285
33	0x3ddd9727	0.10819846
34	0x3d6d1889	0.057884727
35	0xbcc9d073	-0.02463553
36	0x3db72b26	0.08943777
37	0xbe28a6de	-0.16469905
38	0x3d0e7652	0.034780808
39	0x3d9f5bf8	0.077812135
40	0xbd336996	-0.043801866
41	0x3d6902f6	0.05688759
42	0xbe67a2fe	-0.2262077
43	0x3d7a26c3	0.061072122
44	0x3d0c882f	0.034309562
45	0x3d809385	0.06278137
46	0x3d4c874d	0.04993372
47	0x3dff96c6	0.124799296
48	0x3d0f798d	0.03502803
49	0x3de60d56	0.112330124
50	0x3df43c9c	0.11925623
51	0x3c1b00b9	0.0094606215
52	0x3e0a9deb	0.13536803
53	0x3e22b677	0.15889917
54	0x3deac0bf	0.11462545
55	0x3d367df2	0.044553705
56	0x3ba011a5	0.004884916
57	0xbca86fa2	-0.020561043
58	0x3e2f08bb	0.17093174
59	0xbca93900	-0.020657063
60	0xbd908eaf	-0.07058465
61	0x3dec761e	0.115459666
62	0xbd6e0ec2	-0.058119543
63	0xbcb85465	-0.02250118
64	0x3da5f70b	0.0810376
65	0xbb55d55f	-0.00326284
66	0x3bbe2ea7	0.0058039012
67	0xba6303da	-0.0008659937
68	0xbe5becc9	-0.21477045
69	0x3cb39f36	0.021926504
70	0xbc48e1ac	-0.012260836
71	0x3dc0637b	0.093939744
72	0xbd605816	-0.054771505
73	0xbe1839b4	-0.14865762
74	0x3dfd26a5	0.123608865
75	0x3a1f699e	0.0006081107
76	0xbd921e65	-0.071347035
77	0x3d98963f	0.07450532
78	0x3dc30f47	0.09524398
79	0xbc978adc	-0.01849883
80	0xbd58f75a	-0.052970268
81	0xbd537bed	-0.051631857
82	0xbd61d8ae	-0.055138282
83	0x3db603a8	0.08887416
84	0x3d926078	0.07147306
85	0x3debe6cd	0.11518631
86	0x3d9e8267	0.07739716
87	0x3df7afb9	0.12094063
88	0xbb13047d	-0.0022433095
89	0x3c202bd7	0.009776077
90	0x3d5624fb	0.05228136
91	0x3c9ed3b2	0.019388054
92	0x3d5fad51	0.054608647
93	0x3ce0ab45	0.027425418
94	0xbdd3ce64	-0.103421
95	0x3e133ce1	0.14378692
96	0x3d653892	0.055962153
97	0x3dd82336	0.10553591
98	0x3d970b67	0.07375222
99	0x3e00d62b	0.12581699
100	0x3d3b0f79	0.045669053
101	0x3df74a84	0.120747596
102	0x3cd861a0	0.026413739
103	0xbd8e47ee	-0.06947313
104	0x3d849fdd	0.06475804
105	0x3da0df82	0.07855131
106	0xbd889ad7	-0.06670158
107	0x3d788f97	0.060683813
108	0x3d73fd4b	0.05956773
109	0x3c5266c4	0.012841884
110	0xbd07436b	-0.03302328
111	0xbd14ee73	-0.036360215
112	0x3d5ea4aa	0.054356255
113	0x3e06646d	0.13124247
114	0x3d0000c9	0.03125075
115	0x3db692bf	0.08914708
116	0x3e1c8695	0.15285714
117	0x3ae103a6	0.0017167225
118	0xbd4b296d	-0.049600054
119	0xbddd217f	-0.107974045
120	0x3d6aa671	0.057287637
121	0xba746bba	-0.0009323914
122	0xbe0c2b63	-0.13688426
123	0x3e247a0d	0.16062184
124	0x3d617cf3	0.0550508
125	0xbd325466	-0.04353752
126	0x3c653703	0.013990167
127	0x3d2087c4	0.039191976
128	0xbda47689	-0.08030421
129	0xbd8089ea	-0.06276305
130	0x3d2715f3	0.040792417
131	0xbcca342c	-0.02468308
132	0x3cb425dc	0.021990709
133	0xbd97fe60	-0.07421565
134	0xbd8f0bab	-0.06984647
135	0x3d6393dc	0.05556093
136	0xbd77f83c	-0.06053947
137	0xbc9ae5e8	-0.018908456
138	0x39b8b0f1	0.00035227046
139	0x3d64f9e2	0.05590237
140	0x3c559468	0.013035871
141	0x3d13c99d	0.036080945
142	0xbd02a47c	-0.031895146
143	0x3b8f8f60	0.0043811053
144	0xbcc77424	-0.024347372
145	0xbd44e9d4	-0.04807456
146	0xbd3b6abe	-0.045756094
147	0x3d7c2ce1	0.061566237
148	0x3c548678	0.012971513
149	0xbc689b98	-0.014197253
150	0xbd92106b	-0.07132038
151	0xbd1f0e28	-0.03883186
152	0xbda5a6c0	-0.08088446
153	0xbda296f9	-0.07938952
154	0xbc8a8c58	-0.016912624
155	0x3d99a81f	0.0750277
156	0xbcf5abd8	-0.029989168
157	0xbd9458dd	-0.07243512
158	0x3d371b04	0.0447035
159	0xbdb33b21	-0.08751512
160	0x3d8bbeaf	0.068234794
161	0xbd421f8b	-0.047393363
162	0xbd27e476	-0.04098936
163	0xbd74f843	-0.059807073
164	0x3d765556	0.060139976
165	0x3d7dfa62	0.06200636
166	0xbc692ead	-0.01423232
167	0x3d7a7c72	0.061153837
168	0xbc6debfe	-0.014521597
169	0x3c2ba893	0.010477203
170	0xbcfc9a21	-0.030835213
171	0xbc91352b	-0.017725548
172	0x3c65a5e6	0.014016604
173	0xbceb8bae	-0.028753128
174	0xbdb21b4b	-0.08696612
175	0x3d2d98b2	0.04238195
176	0x3d94bfa7	0.07263117
177	0xbdb260ae	-0.087098464
178	0xbc12cf2e	-0.008960528
179	0x3d99ebe0	0.07515693
180	0x3d41570a	0.047202148
181	0xbd7deca3	-0.061993252
182	0xbd895d84	-0.0670729
183	0xbd2a2adc	-0.04154478
184	0x3b62f556	0.0034631095
185	0x3b5abda5	0.0033377197
186	0x3cfac567	0.030611707
187	0xbcde0903	-0.027103906
188	0xbd96a88e	-0.07356368
189	0xbd3a686a	-0.045509733
190	0x3bca4ac0	0.0061734617
191	0xb844ca68	-4.6918547e-05
192	0x3c2f0470	0.01068221
193	0x3ab56bc0	0.0013841316
194	0x3cdce85b	0.026966264
195	0x3d847cb7	0.064691
196	0xbc98a59c	-0.018633656
197	0x3da21e86	0.07915978
198	0xbdb587a3	-0.08863761
199	0xbc80bb08	-0.015714183
200	0xbdabe784	-0.083937675
201	0xbd999d23	-0.075006746
202	0x3d4b60bb	0.049652796
203	0x3d922cf7	0.071374826
204	0x3d6f8842	0.058479555
205	0x3b197700	0.0023416877
206	0xbd99aec9	-0.07504041
207	0xbb4c5900	-0.0031180978
208	0xbd221681	-0.039572243
209	0x3dac90eb	0.084260784
210	0xbcbb5a8c	-0.022870325
211	0xbbd44995	-0.006478498
212	0x3b7064e4	0.003668123
213	0x3b19235d	0.0023367025
214	0x3d88450f	0.06653797
215	0x3d430342	0.04761053
216	0xbd99a142	-0.075014606
217	0x3d656b43	0.056010496
218	0xbd86c246	-0.065800235
219	0xbd367091	-0.044540945
220	0xbd5aab0e	-0.053385787
221	0xbda70a28	-0.08156234
222	0x3b324580	0.002720207
223	0xbcc1d94d	-0.023663187
224	0xbdba05a6	-0.090831086
225	0xbd7da8cc	-0.061928555
226	0x3d8e6cd7	0.06954353
227	0xbb51f3a2	-0.0032036086
228	0xbd5569c1	-0.052102808
229	0x3b77d2c0	0.0037814826
230	0x3d026850	0.03183776
231	0xbda604b8	-0.08106369
232	0xbcd81951	-0.02637926
233	0xbb8acfd1	-0.0042361994
234	0x3da752f9	0.08170123
235	0xbc5c49b8	-0.01344531
236	0x395df50d	0.00021167491
237	0xbd621cbe	-0.055203192
238	0xbc36c270	-0.011154756
239	0x3d64554a	0.0557454
240	0x3d0bd32f	0.034136947
241	0x3c087e54	0.0083309
242	0xbcbdf428	-0.023187712
243	0x3a698dd5	0.0008909379
244	0x3ca43afc	0.020047657
245	0x3cb979c8	0.022641078
246	0x3c80bb5c	0.01571434
247	0xbd129bb4	-0.03579302
248	0x3d958a9e	0.0730183
249	0xbd512780	-0.05106306
250	0x3c77f670	0.015134439
251	0x3d39ed4e	0.045392327
252	0x3dab856f	0.0837506
253	0x3dacb56c	0.08433041
254	0x3dade5d7	0.08491104
255	0x3cec77a1	0.028865637

net.2.bias f4 [256]
0	0x3ca6eca0	0.020376503
1	0xbd86240f	-0.065498464
2	0xbccf6884	-0.025318392
3	0x3dfef781	0.124495514
4	0x3dcb40ad	0.09924445
5	0x3e0eb275	0.13935263
6	0xbc04e5a1	-0.008111388
7	0xbd5d9b5a	-0.054103233
8	0x3d91ff13	0.0712873
9	0x3bbf7a5a	0.005843443
10	0xbd250d0b	-0.040295642
11	0xbcae0980	-0.021244764
12	0x3dab95f2	0.08378209
13	0x3ddd9ea7	0.10821276
14	0x3ceba819	0.028766679
15	0xbc61fe31	-0.013793514
16	0x3cab0637	0.020876987
17	0xbccfafe7	-0.025352431
18	0x3def6c40	0.11690569
19	0x3cdcee35	0.026969055
20	0xbd9b0243	-0.07568791
21	0xbbf124c3	-0.0073591187
22	0x3dd503bf	0.10401105
23	0xbdb2bd76	-0.08727543
24	0x3da3b10c	0.079927534
25	0x3e0bee95	0.1366523
26	0xbd74def9	-0.059782956
27	0xbda1a166	-0.078921124
28	0xbd65978d	-0.056052733
29	0x3dbd02c2	0.09229042
30	0x3dcb2584	0.09919265
31	0x3d4363bb	0.047702532
32	0xbd7f49d4	-0.062326267
33	0x3d6299c2	0.055322416
34	0x3cf12103	0.029434687
35	0xbd527f56	-0.05139097
36	0x3de6183e	0.112350926
37	0x3db4ae15	0.08822266
38	0xbcc1c22c	-0.023652159
39	0xbd43aa65	-0.047769923
40	0x3d631c4c	0.055446908
41	0xbda208cb	-0.079118334
42	0xbd880975	-0.06642429
43	0x3d7c6e3f	0.061628576
44	0x3d2f8ddb	0.042859893
45	0x3cd8a633	0.026446437
46	0x3da5c5f4	0.08094397
47	0x3d905831	0.07048071
48	0x3cc0f9cd	0.023556614
49	0xbc36ff4e	-0.011169268
50	0x3dcb964b	0.099407755
51	0x3dd0c594	0.10193935
52	0xbd328f7c	-0.04359387
53	0x3d6e88a0	0.058235765
54	0x3ce6ee6e	0.028189864
55	0xbcb66b2e	-0.022267904
56	0x3d8fb835	0.070175566
57	0x3c976e27	0.018485142
58	0x3df47230	0.11935842
59	0x3dc009d9	0.09376878
60	0xbd0e1ff4	-0.03469844
61	0x3d66fa1e	0.056390874
62	0xbcc0b06e	-0.023521628
63	0x3dddd85c	0.10832283
64	0xbd3f6878	-0.04673049
65	0xbd31e00e	-0.043426566
66	0x3d6dfe16	0.058103643
67	0x3d1879a6	0.037225388
68	0xbcb1bc2e	-0.021696176
69	0x3c6c9ff0	0.014442429
70	0x3e0c5d74	0.13707525
71	0x3dc40a60	0.095722914
72	0x3d087294	0.033312395
73	0xbc9d9312	-0.019235168
74	0x3db0f2b4	0.08640042
75	0xbd3e5aa6	-0.046473168
76	0x3cf8dd98	0.030379102
77	0x3d90ebaf	0.07076203
78	0x3dd92ff7	0.10604852
79	0xbd2fade3	-0.04289044
80	0x3df23a76	0.11827557
81	0x3d941814	0.07231155
82	0xbd32c732	-0.043647
83	0x3e00c256	0.12574133
84	0x3de03fa1	0.10949636
85	0x3dca4a26	0.09877424
86	0x3db8880c	0.09010324
87	0x3d1f73b5	0.038928706
88	0xbd26df75	-0.04074045
89	0x3d213ebb	0.039366465
90	0x3da065bf	0.078319065
91	0xbd62e4e5	-0.055394072
92	0x3d8496d3	0.0647408
93	0xbda97f03	-0.08276179
94	0x3dcc8e4b	0.09988078
95	0x3d44927a	0.047991253
96	0x3d4d664f	0.050146397
97	0x3d9df3eb	0.07712539
98	0x3dd36012	0.10321058
99	0xbd15df5d	-0.03658997
100	0x3dc956b9	0.09830994
101	0xbd171f9f	-0.03689539
102	0xbd9f91fd	-0.07791517
103	0x3ce6f205	0.028191576
104	0xbd4a2a7a	-0.049356915
105	0x3c0d7e83	0.00863612
106	0xbb1814cd	-0.0023205758
107	0x3e0e72c7	0.13910972
108	0x3d7eb0eb	0.06218044
109	0x3e090cd3	0.13383798
110	0xbd59636d	-0.053073335
111	0xbdb3b99f	-0.08775639
112	0xbd622f05	-0.055220623
113	0x3d8abd13	0.06774344
114	0x3ca256e5	0.019816825
115	0xbd67beaa	-0.056578316
116	0x3e0a20e1	0.13489105
117	0xbcde7b12	-0.027158294
118	0xbc63e9c8	-0.013910718
119	0xbb2e1ea9	-0.0026568568
120	0x3d876a70	0.06612098
121	0x3d96662d	0.07343707
122	0x3e0d0cde	0.1377444
123	0x3d565d3a	0.052335
124	0xbd0e0133	-0.034669112
125	0x3cb310c6	0.021858584
126	0xbd1c77f7	-0.038200345
127	0xbd9b8a08	-0.07594687
128	0x3d827ac7	0.06371074
129	0x3d0e8f13	0.034804415
130	0x3d0273e6	0.03184881
131	0x3dbe9d57	0.09307354
132	0xbbc7bab0	-0.006095253
133	0x3d9e9160	0.07742572
134	0x3d4ec37a	0.05047939
135	0x3d355d4a	0.04427842
136	0xbbfc4a60	-0.007699296
137	0x3d9dd847	0.07707267
138	0x3cff474f	0.031161932
139	0x3c32a412	0.010903375
140	0xbd839cea	-0.06426413
141	0x3de532f2	0.11191358
142	0x3d9bd1b0	0.07608354
143	0x3cd3c951	0.025852831
144	0xbca53cee	-0.020170655
145	0xbd6adf7c	-0.057342038
146	0xbce76f19	-0.028251218
147	0xbd9db962	-0.077013746
148	0x3ba9cabc	0.0051816385
149	0x3d39ddbe	0.045377485
150	0x3d861b95	0.065482296
151	0x3d00802e	0.03137224
152	0x3d78d852	0.060753174
153	0x3db1e419	0.08686084
154	0x3d6306bd	0.055426348
155	0x3c2a016f	0.010376318
156	0x3d642c62	0.05570639
157	0xbbf93c8e	-0.0076060956
158	0xbccbe6fe	-0.02489042
159	0x3d086ca0	0.033306718
160	0x3e093cbc	0.13402075
161	0xbcc2bc7d	-0.023771519
162	0x3cb67fdc	0.022277765
163	0x3ce07506	0.027399551
164	0x3db4c343	0.08826306
165	0x3e0a89a6	0.13529071
166	0x3cf5bea0	0.029998124
167	0xbcde6811	-0.027149232
168	0x3dcf66f3	0.10127058
169	0x3c0efa87	0.008726723
170	0x3be3365b	0.00693397
171	0x3b1f8d60	0.002434574
172	0xbc8c7810	-0.017147094
173	0xbc9ac094	-0.018890657
174	0x3aac4000	0.0013141632
175	0xba2abc9f	-0.0006513092
176	0x3b3e9b23	0.0029084168
177	0x3dbada81	0.091237076
178	0x3b9eb5d0	0.004843451
179	0x3dc2b996	0.09508054
180	0x3b92fec3	0.0044859364
181	0x3e04bab5	0.12961848
182	0x3cf1ae81	0.029502155
183	0x3df8851a	0.12134762
184	0xb9a9ea00	-0.00032408535
185	0x3df9170f	0.12162601
186	0x3de1dfc4	0.11029008
187	0x3c812652	0.015765343
188	0x3d0d4541	0.034489874
189	0x3d666202	0.05624581
190	0x3d962fcd	0.07333336
191	0xbcc79896	-0.02436475
192	0x3d2b5f43	0.041838896
193	0xbced7396	-0.02898578
194	0x3dc28a22	0.09499003
195	0x3dd637e1	0.10459877
196	0xbd657d64	-0.056027785
197	0x3cd8af53	0.026450789
198	0xbda59089	-0.080842085
199	0x3d8f1d08	0.06987959
200	0x3da2751c	0.07932493
201	0x3dcac808	0.09901434
202	0xbc567fe4	-0.013092015
203	0xbaf0170e	-0.0018317418
204	0x3e09986e	0.13437054
205	0xbd83c00e	-0.06433116
206	0xbd0f76b1	-0.035025302
207	0x3d3be269	0.04587022
208	0x39927368	0.00027933274
209	0xbd811e81	-0.06304646
210	0x3d0c9069	0.034317408
211	0x3df202d6	0.11816947
212	0x3d1629f5	0.036661107
213	0x3dbb050a	0.091318205
214	0x3d20423d	0.03912567
215	0xbc82de27	-0.015975071
216	0x3df6dab0	0.1205343
217	0x3d6f4399	0.058414076
218	0x3d3b296b	0.045693796
219	0x3b54d81f	0.003247745
220	0xbd583d61	-0.05279291
221	0x3d04be69	0.03240815
222	0x3dec6672	0.115429774
223	0x3d4a6c27	0.04941955
224	0x3dfd3b8f	0.123648755
225	0x3ddf24bc	0.108956784
226	0x3d6c0dde	0.057630412
227	0xbd79f6db	-0.061026435
228	0xbc4304fc	-0.011903044
229	0x3a3d4d5c	0.0007221305
230	0xbd44227e	-0.047884457
231	0xbd226e33	-0.039655875
232	0x3d85c097	0.06530874
233	0x3d0270d6	0.03184589
234	0xbd45064b	-0.048101705
235	0xbdb038ec	-0.08604607
236	0x3d2f08d1	0.042733017
237	0x3c2645c7	0.010148472
238	0xbcadffb8	-0.0212401
239	0xbc82a98c	-0.015949987
240	0x3bf5eae7	0.007504809
241	0xbd111d5f	-0.0354284
242	0x3e038969	0.12845387
243	0xbc75d07e	-0.015003322
244	0x3db48c99	0.088158794
245	0x3ca3f145	0.020012507
246	0x3bfc0263	0.007690714
247	0x3de67a6e	0.1125382
248	0x3d734241	0.059389357
249	0xbda9a26e	-0.08282934
250	0x3bee42c3	0.007271142
251	0x3cdc25bc	0.026873462
252	0x3d8a9fcf	0.06768762
253	0x3e00ce72	0.12578753
254	0x3d86a9af	0.06575333
255	0x3d2e78ce	0.042595677

net.4.weight f4 [1, 256]
0	0x3dbbe7d3	0.09175076
1	0xbd50012b	-0.050782364
2	0xbd338b8a	-0.043834247
3	0x3de5905e	0.112091765
4	0x3deeb405	0.1165543
5	0x3dcf9b6c	0.10137066
6	0xbd8477b1	-0.06468142
7	0xbd36ab84	-0.044597164
8	0xbd859024	-0.06521633
9	0x3db97c18	0.09056872
10	0xbdbbef30	-0.09176481
11	0x3e0bd0b1	0.13653828
12	0xbde42053	-0.11138978
13	0x3da9a3ad	0.08283172
14	0xbde1b8cd	-0.11021576
15	0xbdfaf19b	-0.12253114
16	0xbddf2816	-0.10896318
17	0x3daf2234	0.085514456
18	0xbe19e5b3	-0.1502903
19	0x3e004d17	0.12529407
20	0xbd6c02ba	-0.057619788
21	0x3dc1bb02	0.09459497
22	0x3dfc24b1	0.12311686
23	0x3d4b6d0e	0.04966455
24	0xbdfb87ca	-0.12281759
25	0x3dd7a1fa	0.105289415
26	0x3cf7f2e5	0.030267188
27	0xbdb369bf	-0.08760404
28	0x3dd563fc	0.10419461
29	0x3db454ae	0.08805214
30	0xbdff01e7	-0.12451535
31	0x3e0b638e	0.13612196
32	0x3de9ee1c	0.11422369
33	0x3e118593	0.14211111
34	0xbd4dd891	-0.050255362
35	0xbe14b732	-0.14523008
36	0x3de7e2d7	0.11322563
37	0xbe227d5c	-0.15868133
38	0x3dff4b36	0.12465517
39	0x3cae1cf0	0.021254033
40	0x3dc453fe	0.09586333
41	0xbd66515e	-0.05622994
42	0x3cece0ac	0.028915726
43	0xbdd0dd1b	-0.101984225
44	0xbdeaa3dc	-0.11457035
45	0x3e0f92df	0.1402087
46	0xbdda43d3	-0.10657468
47	0xbdb59803	-0.088668846
48	0xbe153539	-0.14571084
49	0x3d7c60ec	0.06161587
50	0x3dcbaca8	0.09945041
51	0x3e05509f	0.13019036
52	0xbda82cbb	-0.08211657
53	0xbb5ac506	-0.0033381595
54	0xbd573dd0	-0.052549183
55	0xbe1c8513	-0.15285139
56	0x3dc359ce	0.09538613
57	0xbe38213b	-0.17981426
58	0x3db607ce	0.088882074
59	0x3e0ac0e5	0.13550146
60	0xbd94b607	-0.072612815
61	0x3df52541	0.11969996
62	0x3d84851e	0.064707026
63	0x3dd98343	0.10620739
64	0xbdd2deb3	-0.10296383
65	0xbe2fcd7a	-0.17168227
66	0x3daec404	0.08533481
67	0xbda138f9	-0.07872195
68	0xbdddff44	-0.10839704
69	0xbc97dc5c	-0.018537693
70	0x3deb135b	0.11478301
71	0xbe010100	-0.12598038
72	0x3df54dea	0.119777516
73	0x3dcfd2b6	0.10147612
74	0x3e07a2f0	0.1324575
75	0xbdf8bfb7	-0.12145942
76	0xbe4ac9e4	-0.19803578
77	0x3da76ff6	0.08175652
78	0x3e0395f4	0.12850171
79	0x3d6a1776	0.05715128
80	0x3df21e5c	0.11822197
81	0xbe145190	-0.14484239
82	0xbd82bf68	-0.06384164
83	0x3e095aa5	0.13413484
84	0x3e0c9bfe	0.13731381
85	0x3db0111e	0.08597015
86	0x3d93a9b2	0.07210101
87	0x3e032cd7	0.12810074
88	0xbdd3b36c	-0.103369564
89	0xbe140d5e	-0.14458224
90	0x3da1d18a	0.079012945
91	0x3d4b7756	0.049674354
92	0xbdc63503	-0.0967808
93	0x3d2cd5e0	0.042196155
94	0x3dc7958e	0.09745322
95	0xbddd1eb2	-0.1079687
96	0xbd9b5ac3	-0.07585671
97	0x3db6ad27	0.08919745
98	0xbe323694	-0.17403632
99	0x3e1264d8	0.14296281
100	0x3da818c6	0.0820785
101	0xbe60ed8b	-0.21965615
102	0x3d643790	0.05571705
103	0x3df23f25	0.1182845
104	0x3e03741e	0.12837264
105	0x3dacc53a	0.084360555
106	0xbd8b3d78	-0.067988336
107	0x3daea859	0.085282035
108	0xbdcd843c	-0.10034987
109	0x3dabb104	0.083833724
110	0x3e22d609	0.1590196
111	0x3c46e5d0	0.0121397525
112	0x3d95eda3	0.07320716
113	0x3beabf40	0.007163912
114	0x3dda292f	0.106523864
115	0xbdfde608	-0.123973906
116	0x3dc354cd	0.09537659
117	0xbdecfeae	-0.11572014
118	0x3d1418c8	0.036156446
119	0xbd04f1ec	-0.032457277
120	0xbdb0410c	-0.08606157
121	0x3d98d55b	0.07462569
122	0x3dbf80d2	0.093507424
123	0xbd8ff5d5	-0.070293106
124	0x3d862a83	0.06551077
125	0xbddfa6ac	-0.10920462
126	0xbdd1cdfa	-0.10244365
127	0xbc97e16c	-0.018540107
128	0xbe00fdf5	-0.12596877
129	0xbdcae982	-0.09907819
130	0xbd8d0f59	-0.06887693
131	0x3dd5e00c	0.10443124
132	0x3d3bacb6	0.045819007
133	0xbd735845	-0.059410352
134	0x3df37089	0.11886699
135	0x3e09dd6b	0.1346337
136	0xbd88e97b	-0.06685158
137	0x3d356972	0.044290014
138	0x3db6f646	0.08933692
139	0xbe099f39	-0.13439645
140	0x3ba0e930	0.0049106106
141	0x3dd511b7	0.104037695
142	0xbce0f83b	-0.027462116
143	0x3df3af9b	0.118987285
144	0x3dbca3c6	0.09210925
145	0xbc7f2c62	-0.0155745465
146	0x3da85511	0.0821935
147	0xbd4e6aaa	-0.05039469
148	0xbd5cfcda	-0.053952076
149	0x3e0023d9	0.12513675
150	0xbcdeff8a	-0.02722146
151	0xbbfcab8d	-0.00771088
152	0x3dc7c077	0.09753507
153	0x3dad307a	0.08456512
154	0x3dc273be	0.09494732
155	0xbcb9ef5c	-0.022697143
156	0xbe037f40	-0.12841511
157	0x3e115bff	0.1419525
158	0xbc62034c	-0.013794731
159	0xbdded653	-0.10880723
160	0x3e090249	0.13379778
161	0x3e034eff	0.12823103
162	0xbd93e3bb	-0.072211705
163	0x3db6fa8f	0.08934509
164	0x3dbffccf	0.09374391
165	0x3dcccf6c	0.100005
166	0xbdc0b0ef	-0.094087474
167	0xbdce8566	-0.100840375
168	0x3e01ddba	0.12682238
169	0x3def5815	0.11686722
170	0x3dcadddc	0.099055976
171	0xbd7a4c3c	-0.06110786
172	0x3c44f460	0.012021154
173	0xbe192c33	-0.14958267
174	0xbc68fa08	-0.014219768
175	0x3e108d9b	0.14116518
176	0x3df566e5	0.11982516
177	0xbe204b7f	-0.156538
178	0x3ddef1d4	0.10885969
179	0x3dd364ed	0.103219844
180	0x3de144cb	0.10999449
181	0x3e10ef23	0.14153723
182	0x3daa93a6	0.08328943
183	0x3dda871f	0.106703036
184	0x3c2169c8	0.00985188
185	0x3da96d86	0.08272843
186	0x3de4b539	0.11167378
187	0xbdeaf0d0	-0.114717126
188	0xbd8b33af	-0.06796967
189	0xbdaed128	-0.08535987
190	0x3d9a62a7	0.07538348
191	0xbe247c53	-0.16063051
192	0x3dc739da	0.09727831
193	0x3d739784	0.05947067
194	0x3e110d7f	0.14165305
195	0xbdfa4ab6	-0.12221281
196	0xbda376f6	-0.079816744
197	0xbdd981c3	-0.10620453
198	0x3b9d85ef	0.004807226
199	0x3e099fc3	0.1343985
200	0xbe42a5aa	-0.19008508
201	0x3de99fed	0.114074565
202	0xbe05e565	-0.13075788
203	0xbda15066	-0.07876663
204	0x3da16250	0.0788008
205	0xbd223f5c	-0.039611205
206	0x3ddb88c0	0.10719442
207	0xbd9dd491	-0.077065594
208	0xbdb38fb3	-0.08767643
209	0x3df6e517	0.12055414
210	0xbdf26685	-0.1183596
211	0x3dc882bb	0.0979056
212	0xbdd6fa4e	-0.104969606
213	0xbdc603a6	-0.09668665
214	0xbdf488f6	-0.11940186
215	0xbe13707d	-0.1439838
216	0x3d8cbe9f	0.068722956
217	0xbd66ad8e	-0.05631786
218	0xbda5f985	-0.08104233
219	0x3d9ad67c	0.07560441
220	0xbcc2b774	-0.023769118
221	0x3dcbe87c	0.09956452
222	0x3def55b1	0.11686266
223	0xbe0ba13d	-0.13635726
224	0x3e0a930b	0.13532655
225	0xbe333d5b	-0.17503874
226	0xbdca407b	-0.0987558
227	0x3d63457c	0.055486187
228	0x3e0ca745	0.13735683
229	0x3e10628c	0.14100093
230	0x3cc80752	0.024417553
231	0xbe0791e6	-0.1323925
232	0x3d9bfeaa	0.07616933
233	0x3e0720e0	0.13196135
234	0xbde06449	-0.10956628
235	0xbdf74750	-0.12074149
236	0xbe189dce	-0.14903948
237	0x3e023ea3	0.12719207
238	0x3df3d6d7	0.11906212
239	0xbdfe8dd2	-0.12429394
240	0x3dda7644	0.10667089
241	0xbdd842f6	-0.10559647
242	0x3d8fc438	0.07019848
243	0x3dd915b3	0.10599842
244	0x3d1464cd	0.036228944
245	0x3dc72482	0.0972376
246	0xbd9fc38e	-0.07800971
247	0x3e0551cb	0.13019483
248	0x3e0cb44b	0.13740651
249	0xbd4bf64e	-0.04979544
250	0x3d33eabc	0.043925032
251	0x3dba98e7	0.09111195
252	0x3e0e37df	0.138885
253	0x3e06d43d	0.131669
254	0xbd9f68a6	-0.07783632
255	0xbd1ca80f	-0.03824621
