runs_bakeup/v_no30.pth (torch, 144972 bytes, 5 tensors)

net.0.weight f4 [128, 18]
0	0xbe0234df	-0.12715481
1	0xbb54ef90	-0.0032491423
2	0xbd618174	-0.055055097
3	0x3b4818ad	0.0030532286
4	0x3d8de58f	0.069285505
5	0x3df5a96c	0.11995205
6	0x3d358022	0.04431165
7	0xbe828fec	-0.2550043
8	0x3c645302	0.013935806
9	0x3da9ca73	0.08290567
10	0x3e83f9bb	0.25776467
11	0xbe296078	-0.16540706
12	0x3e12f1dc	0.14350075
13	0xbcb0fe34	-0.021605588
14	0x3d96cdec	0.07363495
15	0xbe89c276	-0.26906174
16	0x3e191380	0.14948845
17	0x3d72b25b	0.059252124
18	0xbe770eca	-0.24126735
19	0xbdf0390a	-0.11729629
20	0xbd35ff94	-0.04443319
21	0x3e5d7762	0.21627572
22	0xbe5cc79c	-0.2156052
23	0x3e184567	0.14870225
24	0xbb21596f	-0.0024619957
25	0xbda3ddd9	-0.080012985
26	0xbe2a563d	-0.1663446
27	0xbdcc7eed	-0.09985147
28	0xbe155fc5	-0.14587314
29	0xbdc7b797	-0.09751814
30	0x3e252c81	0.16130258
31	0x3e4873d4	0.19575435
32	0xbe58a6a4	-0.21157318
33	0xbbf04a7e	-0.007333099
34	0x3dfa4530	0.12220228
35	0xbe8121c7	-0.25221083
36	0xbdd2192e	-0.10258709
37	0x3dc90050	0.09814513
38	0xbe84a480	-0.25906754
39	0x3c5822f2	0.013191925
40	0xbead8780	-0.3389244
41	0xbd5c776b	-0.053824823
42	0xbdfaaa7b	-0.12239548
43	0xbdc54ca3	-0.09633758
44	0xbe113b75	-0.14182837
45	0xbda662bf	-0.08124303
46	0xbd339a60	-0.043848395
47	0x3de5566e	0.11198126
48	0xbdd9227b	-0.1060228
49	0xbdda1bac	-0.10649809
50	0x3e482285	0.19544418
51	0xbe028f71	-0.12750031
52	0xbcb256c5	-0.02176989
53	0xbe064516	-0.13112292
54	0x3d13ca94	0.036081865
55	0xbe1a0b74	-0.15043432
56	0x3dcb5ba0	0.099295855
57	0xbda13da4	-0.07873085
58	0x3eb0befb	0.34520707
59	0xbcfa7971	-0.030575486
60	0x3c567c7b	0.013091202
61	0xbe3ce687	-0.18447314
62	0x3d3981e9	0.045289908
63	0xbe933746	-0.28753108
64	0x3de280fb	0.11059757
65	0xbe818707	-0.2529833
66	0x3c16525f	0.009174912
67	0xbd6eae7b	-0.058271866
68	0xbd2fffff	-0.042968746
69	0xbd14edc7	-0.036359575
70	0x3dbd88fb	0.092546426
71	0xbd41e616	-0.047338568
72	0xbd475486	-0.048664592
73	0x3d80d1eb	0.06290039
74	0xbe84a1d6	-0.2590472
75	0x3ce4d14d	0.027931834
76	0xbe68fa5b	-0.22751753
77	0x3d12dcfa	0.03585527
78	0xbe8c6e68	-0.27427983
79	0x3dc71619	0.09721012
80	0xbe06e5b6	-0.13173565
81	0x3cea19bb	0.028576722
82	0x3e1d4a45	0.15360363
83	0x3e9f5bff	0.31124875
84	0x3d77331f	0.060351487
85	0xbc7e7fb1	-0.015533374
86	0xbd610282	-0.054934032
87	0xbe55d07b	-0.2088031
88	0xbe6127ff	-0.21987914
89	0x3c0106fe	0.007875202
90	0xbe3190c2	-0.17340377
91	0x3e2cb261	0.16864921
92	0x3dd68206	0.10474019
93	0x3b850da0	0.004060462
94	0xbe393a3c	-0.18088621
95	0xbdbc5998	-0.09196776
96	0x3dcb8ab2	0.099385634
97	0xbd905640	-0.07047701
98	0x3d9ff812	0.078109875
99	0xbd425c28	-0.04745117
100	0x3e512b6b	0.20426719
101	0x3e551efd	0.20812602
102	0x3e2d6e9d	0.16936727
103	0xbe2f55ec	-0.1712262
104	0x3e0f9b91	0.14024188
105	0xbe2c26f2	-0.16811731
106	0xbdb39c10	-0.08770001
107	0x3e5c70af	0.2152736
108	0xbd4e1698	-0.050314516
109	0xbd3fb8b2	-0.046807
110	0x3e2b3c90	0.16722322
111	0xbe42400f	-0.18969749
112	0xbd872264	-0.06598356
113	0xbe6d8dfe	-0.23198697
114	0xbdafe0fd	-0.08587835
115	0x3df455b8	0.11930412
116	0xbcde7c4b	-0.027158877
117	0xbe056a79	-0.13028897
118	0x3dfee873	0.1244668
119	0x3e15bbf3	0.14622478
120	0xbda788a2	-0.081803575
121	0xbe1d8a16	-0.15384707
122	0x3e001aed	0.12510271
123	0xbd848140	-0.06469965
124	0x3e66bee4	0.22533756
125	0x3ceb6508	0.028734699
126	0x3e51e4de	0.20497462
127	0x3e4cd521	0.20003177
128	0xbdb222ef	-0.08698069
129	0xbcd908ba	-0.026493419
130	0xbeaa3679	-0.33244684
131	0x3ded1c52	0.11577667
132	0xbdad09a0	-0.084491014
133	0xbe1effc0	-0.15527248
134	0xbea9460b	-0.3306125
135	0x3d83859e	0.0642197
136	0xbd9526f5	-0.07282821
137	0x3ebdf0df	0.37097833
138	0x3c51ee00	0.012813091
139	0xbd5308eb	-0.051522177
140	0x3e40efb9	0.18841447
141	0xbe8f4920	-0.27985477
142	0xbe45f599	-0.1933197
143	0x3db7dcbd	0.08977649
144	0x3d29ace2	0.04142464
145	0xbe738160	-0.23779821
146	0x3e29dfc9	0.16589274
147	0x3b4ab725	0.0030931917
148	0x3dc5cf95	0.09658734
149	0x3e567197	0.20941769
150	0x3d5d8fe2	0.054092295
151	0x3dc94759	0.098280616
152	0x3dcf1ce0	0.10112929
153	0xbe444217	-0.19165836
154	0x3e396c2c	0.1810767
155	0xbddccd41	-0.107813366
156	0x3dadd481	0.084877975
157	0xbc7255b5	-0.014790942
158	0x3c6584ef	0.014008745
159	0xbdac7208	-0.08420187
160	0xbe7fc6c7	-0.24978171
161	0xbd756dbc	-0.059919104
162	0x3c22da6e	0.009939773
163	0x3d3c2c23	0.04594053
164	0xbd8e8dd5	-0.06960646
165	0x3e5c080d	0.21487446
166	0x3e50d132	0.20392302
167	0x3dc327b7	0.095290594
168	0x3d964fe0	0.07339454
169	0xbd87b271	-0.06625832
170	0xbe0fbabd	-0.14036079
171	0xbdb36805	-0.087600745
172	0x3d2fd578	0.04292819
173	0x3dae31db	0.08505603
174	0xbe092de5	-0.13396414
175	0xbdf6d76d	-0.12052808
176	0x3c8c9d18	0.017164752
177	0x3dbab326	0.09116201
178	0xbda09806	-0.07841496
179	0x3c3a15e8	0.011357762
180	0x3de9ab13	0.11409583
181	0xbe0ad848	-0.13559067
182	0xbe71d1a6	-0.23615131
183	0x3e3a346d	0.18184061
184	0xbe9b2587	-0.3030207
185	0x3e62d955	0.22153218
186	0xbe22a34f	-0.1588261
187	0xbe664eb0	-0.22490954
188	0x3e070c10	0.13188195
189	0xbd996923	-0.07490756
190	0xbd9d0f2b	-0.07668909
191	0xbe115998	-0.14194334
192	0xbe55906a	-0.20855871
193	0xbe61c6a9	-0.22048439
194	0xbdbb70d9	-0.09152383
195	0x3dbdb0e1	0.092622526
196	0xbea6bbfe	-0.32565302
197	0xbe6c3e48	-0.23070633
198	0xbe7ab012	-0.24481228
199	0xbe4c3d43	-0.19945244
200	0x3d40853b	0.04700206
201	0x3e0e1250	0.13874173
202	0x3de0cf1e	0.109770045
203	0xbd6bb519	-0.057545755
204	0x3c0f7c1e	0.008757619
205	0xbe151379	-0.1455821
206	0x3d33f13c	0.04393123
207	0x3e64d9f5	0.22348769
208	0x3e801cb1	0.2502189
209	0x3e1990fd	0.14996715
210	0x3e03013e	0.12793443
211	0xbe7a2113	-0.2442668
212	0x3ded0883	0.11573889
213	0xbdd6e121	-0.10492159
214	0xbe6a026d	-0.22852488
215	0xbe3f0a1a	-0.18656197
216	0x3e355fea	0.1771237
217	0xbd3e32ad	-0.046435047
218	0xbd743b9d	-0.059627164
219	0x3eacdf72	0.33764225
220	0xbe3cd1f2	-0.18439463
221	0xbd2dca74	-0.042429402
222	0xbda14be4	-0.07875803
223	0x3e345075	0.17608817
224	0x3d83df00	0.06439018
225	0xbd8a4bca	-0.06752737
226	0xbdfc8760	-0.12330508
227	0x3db6fd5d	0.08935044
228	0x3e129b51	0.14317061
229	0x3c0fb946	0.0087722
230	0xbd68854b	-0.056767743
231	0xbd1e28d4	-0.038613155
232	0xbe077728	-0.13229048
233	0x3cea5dc6	0.028609168
234	0xbe6d6824	-0.23184258
235	0xbe35e6fd	-0.17763896
236	0x3e80ef07	0.25182363
237	0x3e971842	0.29510695
238	0x3e52244d	0.2052166
239	0xbd8754ca	-0.06607969
240	0x3e4ed534	0.20198518
241	0xbdcc3981	-0.099719055
242	0x3e80f5a6	0.25187415
243	0x3ce3189e	0.0277217
244	0x3ea803f8	0.32815528
245	0xbe01a23a	-0.12659541
246	0xbd0e9927	-0.034814026
247	0xbd05f2ac	-0.032702133
248	0xbd97593e	-0.073900685
249	0xbdd93928	-0.10606605
250	0xbde42298	-0.11139411
251	0xbe053d6a	-0.13011709
252	0xbd4d0850	-0.050056756
253	0x3c8999cb	0.016796967
254	0x3d980b14	0.07423988
255	0xbd155b66	-0.036464117

net.0.bias f4 [128]
0	0x3c57a0b7	0.013160876
1	0x3e7bdc36	0.24595723
2	0x3e8d46a0	0.27592945
3	0x3e3c8331	0.1840942
4	0xbd6a6317	-0.057223406
5	0x3c2888d0	0.010286525
6	0xbddabb4b	-0.106802545
7	0xbe07f067	-0.132753
8	0xbd4f6057	-0.050628986
9	0x3dd80ccc	0.10549316
10	0x3e6a2b3c	0.22868055
11	0x3e459297	0.19294201
12	0x3d73b324	0.059497014
13	0x3d512691	0.05106217
14	0x3e9b0d22	0.30283457
15	0xbd2ea86f	-0.0426411
16	0x3e02bdc1	0.12767698
17	0xbda118ea	-0.0786608
18	0x3d933375	0.07187549
19	0x3e9ee474	0.3103367
20	0x3e33ae25	0.175469
21	0x3cbe7679	0.023249852
22	0x3e890d90	0.2676816
23	0x3e899034	0.2686783
24	0xbe1a741c	-0.15083355
25	0x3e884b49	0.26619938
26	0x3ea88f8e	0.32922024
27	0x3e233de1	0.15941574
28	0x3e861cbf	0.26193807
29	0xbe12a92a	-0.14322343
30	0x3d199e5d	0.037504543
31	0x3e214793	0.1574996
32	0xbdcbe1ff	-0.09955215
33	0xbe3d4220	-0.18482256
34	0x3d7391ed	0.059465338
35	0xbda2a128	-0.07940894
36	0x3e791cd3	0.24327402
37	0x3c6985d2	0.014253097
38	0x3e13fd24	0.14452034
39	0xbe170a3f	-0.14750002
40	0x3d612a7e	0.054972164
41	0xbdad7fcd	-0.08471642
42	0x3d9dcccd	0.07705078
43	0xbd471605	-0.048604984
44	0xbd50bf9b	-0.05096398
45	0xbe2724d8	-0.16322649
46	0x3e77aa24	0.24185997
47	0x3ddeee56	0.10885303
48	0xbd551002	-0.05201722
49	0xbdc730e6	-0.097261235
50	0x3dcbf1e3	0.099582456
51	0x3e271796	0.16317591
52	0xbc55dd72	-0.013053285
53	0x3ce932c2	0.028466586
54	0x3e950612	0.29106194
55	0xbe059b5c	-0.13047546
56	0xbddd4adf	-0.10805296
57	0x3e72c466	0.23707733
58	0x3e7f0f48	0.24908173
59	0x3a080c30	0.00051898044
60	0x3cacb1ab	0.021080812
61	0x3e5cf7f1	0.21578957
62	0xbe288396	-0.16456446
63	0x3e3aa7b4	0.18228036
64	0x3e298751	0.16555525
65	0x3de396ee	0.11112772
66	0xbc52166a	-0.012822727
67	0x3e7a43e8	0.24439967
68	0x3e8d279f	0.2756929
69	0x3d0fc0ae	0.035095863
70	0xbdc310b4	-0.0952467
71	0xbdc3cb6a	-0.095602825
72	0xbe182558	-0.14857996
73	0xbe088263	-0.13330989
74	0x3e61db75	0.22056372
75	0x3e32744b	0.17427175
76	0x3e6b8462	0.22999719
77	0x3e45e7c1	0.19326688
78	0x3e8cbef6	0.27489442
79	0xbe61e01f	-0.22058152
80	0x3d68cad1	0.056834046
81	0x3e01193d	0.12607284
82	0x3e840b70	0.25789976
83	0xbd2ac748	-0.041693956
84	0xbc943a4f	-0.01809421
85	0x3db5618b	0.088564955
86	0xbda40f7c	-0.08010766
87	0x3e8223f3	0.25418052
88	0x3e5ddc8f	0.21666168
89	0x3e896763	0.2683669
90	0xbc3f7d8c	-0.011687648
91	0x3e94ce31	0.29063562
92	0x3cd94635	0.026522735
93	0x3db0f5e6	0.086406514
94	0x3d119b97	0.035548773
95	0x3db94204	0.090457946
96	0x3e525ce5	0.20543249
97	0x3e75263e	0.2394037
98	0xbdd46722	-0.103712335
99	0x3e2e7026	0.17034969
100	0x3e3afd28	0.18260634
101	0xbe440ba8	-0.19145072
102	0x3e590903	0.21194844
103	0x3e7cedf0	0.24700141
104	0x3d252c70	0.040325582
105	0xbcc552a8	-0.024087265
106	0x3e1080fc	0.14111704
107	0x3e4393a9	0.19099297
108	0xbd88cb42	-0.06679393
109	0xbdc093f5	-0.094032206
110	0x3d153ab0	0.036432922
111	0x3e42d14f	0.19025157
112	0x3e39e59d	0.18153997
113	0xbd1d21b3	-0.038362216
114	0x3e96ce03	0.2945405
115	0xbcd35c2a	-0.025800783
116	0xbdc0de2a	-0.094173744
117	0xbdd2fbbd	-0.103019215
118	0x3e5ec094	0.2175315
119	0x3dd910fa	0.10598941
120	0x3e5ba56a	0.21449819
121	0x3d9866d1	0.07441486
122	0xbd1f6d4c	-0.038922593
123	0xbc8e9bd2	-0.017408285
124	0x3db9f841	0.09080554
125	0x3dd767a5	0.105178155
126	0xbd9b2107	-0.07574659
127	0xbd8f0cb8	-0.06984848

net.2.weight f4 [256, 128]
0	0xbd8af2bc	-0.06784579
1	0x3d86aba4	0.065757066
2	0xbd4b50ad	-0.049637485
3	0x3ccd5ef4	0.025069691
4	0x3bf1aac7	0.0073750946
5	0xbd59a494	-0.05313547
6	0xbc757d90	-0.01498355
7	0xbc5c822a	-0.013458768
8	0x3d752af3	0.059855413
9	0xbc3127e1	-0.0108127305
10	0xbb60427f	-0.0034219322
11	0xbdcb3a07	-0.09923177
12	0x3cbcc2d8	0.023042127
13	0xbdc56e97	-0.09640234
14	0x3d3e84d8	0.04651341
15	0xbc0c61a1	-0.008568198
16	0x3ca372b8	0.019952163
17	0xbd8d2b59	-0.068930335
18	0x3d4c923f	0.04994416
19	0xbce64e5c	-0.028113537
20	0xbd30102f	-0.042984184
21	0xbdae9cc8	-0.085259974
22	0x3c1a0321	0.00940016
23	0xbd3234da	-0.043507434
24	0xbd499caa	-0.049221672
25	0xbd8bf6d2	-0.068341866
26	0xbac4bd3e	-0.0015010012
27	0x39be8d2d	0.00036344808
28	0xbc72e6cb	-0.014825533
29	0x3d99ceac	0.07510123
30	0x3d0ff990	0.03515011
31	0xbc90d044	-0.017677434
32	0x3d502c6a	0.050823607
33	0xbd1f8e0e	-0.038953833
34	0x3d2e6694	0.042578295
35	0xbd558cc9	-0.052136216
36	0x3d956de3	0.0729635
37	0x3d624380	0.055240154
38	0xbda5d080	-0.08096409
39	0xbcd52ad2	-0.026021395
40	0x3d00efda	0.03147874
41	0x3dae399e	0.08507083
42	0x3cb165d2	0.021654997
43	0xbc63e9c6	-0.013910716
44	0xbd95875e	-0.0730121
45	0x3d802e6d	0.06258855
46	0xbd5c00a0	-0.053711534
47	0xbc06f63b	-0.008237417
48	0x3d879275	0.06619731
49	0xbcb398a5	-0.021923373
50	0x3cbcf8c0	0.023067832
51	0xb9148ed8	-0.00014167593
52	0xbd263a01	-0.04058266
53	0x3c8cc754	0.01718489
54	0x3cd5feb7	0.026122434
55	0x39314b54	0.00016908097
56	0xbc51fcdf	-0.012816637
57	0xbd656a66	-0.056009673
58	0x3c837b8e	0.016050126
59	0xbd68feb9	-0.056883547
60	0x3bc55129	0.006021638
61	0xbbaa5923	-0.005198614
62	0xbd7fe6b2	-0.062475868
63	0x3d63d397	0.05562171
64	0x3d83b4e9	0.0643099
65	0xbd690d29	-0.056897316
66	0xbda89b6e	-0.08232771
67	0x3d7cbda7	0.061704304
68	0xbda9def6	-0.082944795
69	0x3d834237	0.06409114
70	0xbd2690dc	-0.040665492
71	0xbcbfa82c	-0.02339562
72	0x3caa650c	0.020800136
73	0x3d203934	0.039117053
74	0xbda2f049	-0.07955987
75	0x3c75ef74	0.015010703
76	0x3cc84a84	0.024449594
77	0xbdb88baf	-0.090110175
78	0xbdcd6ec7	-0.10030895
79	0xbbc95240	-0.006143838
80	0x3d166a91	0.036722723
81	0x3d78fb49	0.06078652
82	0x3c426d78	0.01186692
83	0xbdb1bed4	-0.08678976
84	0x3d3fb5d2	0.046804257
85	0xbd89e4a7	-0.06733065
86	0x3d42ee0a	0.047590293
87	0xbd31ecdf	-0.04343879
88	0x3a6fb0b8	0.00091434596
89	0x3bf6e230	0.007534288
90	0xbda2909f	-0.079377405
91	0xbdb5081b	-0.088394366
92	0xbaa49ee7	-0.0012559564
93	0x3cf8dad7	0.030377788
94	0x3d327e4d	0.04357748
95	0xbd80831d	-0.06275008
96	0x3d7e029c	0.062014207
97	0xbd0e4724	-0.034735814
98	0x3d147bbe	0.036250822
99	0xbdb7d46c	-0.08976063
100	0xba6edf4d	-0.0009112254
101	0x3db256f2	0.0870799
102	0xbdb2f2a9	-0.0873769
103	0x3d6b0896	0.057381235
104	0xbd1abd6b	-0.0377783
105	0x3db3adf7	0.087734155
106	0xbc124ef1	-0.008929954
107	0xbab360b0	-0.0013685431
108	0x3d01fae6	0.031733416
109	0x3d941361	0.07230259
110	0x3d96a236	0.07355158
111	0xbd125123	-0.03572191
112	0x3d598ee1	0.053114776
113	0xbd2a3bc1	-0.041560892
114	0x3c12461e	0.00892785
115	0xbd8d7c10	-0.06908429
116	0x3c306d47	0.010768241
117	0x3d84c57f	0.06482982
118	0x3d434462	0.047672637
119	0xbdaea797	-0.08528059
120	0x3d501046	0.05079677
121	0x3be53a2f	0.0069954614
122	0x3d365a30	0.044519603
123	0x3d2f4e52	0.0427993
124	0xbd1e950d	-0.038716365
125	0x3d8bb79f	0.06822132
126	0x3d7db881	0.061943535
127	0xbc8d5e1a	-0.017256785
128	0x3ce63055	0.028099218
129	0x3d83cbbb	0.06435343
130	0x3e3580a4	0.17724854
131	0x3d987e92	0.07446016
132	0x3e09017c	0.13379472
133	0xbd6f748e	-0.058460765
134	0xbd8b4c70	-0.06801689
135	0x3df2c654	0.11854234
136	0x3d06544d	0.03279524
137	0x3d222d60	0.039594054
138	0x3e070d23	0.13188605
139	0x3d280ea8	0.041029602
140	0x3dc48435	0.09595529
141	0x3e0c119b	0.13678591
142	0x3e0b3708	0.13595212
143	0xbde287c3	-0.11061051
144	0x3e32d5d3	0.1746438
145	0x3c5de85a	0.013544166
146	0x3e1a2e02	0.15056613
147	0x3c239198	0.009983443
148	0x3e128254	0.14307529
149	0xbcb736f7	-0.022365076
150	0x3dd977d4	0.106185585
151	0x3d3ddb7d	0.0463519
152	0xbd2a6916	-0.041604124
153	0x3d8b5681	0.06803609
154	0xbca9d0ef	-0.02072951
155	0x3d78022e	0.060548954
156	0x3d71baee	0.05901616
157	0xbd8ac8a5	-0.06776551
158	0xbbb6f363	-0.005583213
159	0x3d66531b	0.0562316
160	0x3daca25a	0.084294036
161	0x3d9ec0b2	0.077515975
162	0xbc8ff50c	-0.017572902
163	0x3e360511	0.1777537
164	0x3dc38182	0.09546186
165	0xbdc5af7c	-0.096526116
166	0x3cbe04b6	0.023195606
167	0x3db07b9a	0.08617325
168	0xbc48ba6f	-0.0122514805
169	0x3d9edad4	0.07756582
170	0x3d8827c4	0.0664821
171	0x3d9a518d	0.07535086
172	0x3e12c4ec	0.14332932
173	0xbdaf7c2f	-0.08568608
174	0x3c02566e	0.007955177
175	0x3e1e935e	0.15485904
176	0x3e2c6fea	0.16839567
177	0x3e2a5e54	0.16637546
178	0x3df6d31e	0.12051986
179	0x3d9bad3a	0.076014
180	0x3ba3402a	0.004982014
181	0xbd0d9849	-0.03456906
182	0x3d24b290	0.040209353
183	0x3cd1a7c2	0.025592688
184	0x3c87aeb4	0.016562797
185	0x3d9d6900	0.07686043
186	0x3dd4ed3f	0.103968136
187	0x3e5fd20f	0.21857475
188	0xbd83e819	-0.064407535
189	0x3d01ea7c	0.031717762
190	0x3c87e0fd	0.016586775
191	0xbc869e3b	-0.016432872
192	0x3e4af5e0	0.19820356
193	0xbc922d14	-0.01784376
194	0x3d9b6543	0.075876735
195	0x3df64be1	0.120261915
196	0x3e1521e9	0.14563717
197	0x3e2ecc6b	0.17070167
198	0xbc5319c0	-0.012884557
199	0xbdded135	-0.10879747
200	0x3d40a85c	0.04703556
201	0xbcbcf1cd	-0.023064518
202	0x3e172392	0.14759663
203	0x3b9bc5f5	0.004753823
204	0x3dc31e40	0.09527254
205	0x3e25591b	0.16147272
206	0x3e11d049	0.1423961
207	0xbd364b56	-0.04450544
208	0x3c5787aa	0.013154903
209	0xbd548ed8	-0.05189404
210	0xbda52e86	-0.08065514
211	0xbdf67dce	-0.12035714
212	0x3dcc191e	0.09965728
213	0x3dcae03a	0.09906049
214	0xbe051b23	-0.12998633
215	0x3daa81c1	0.0832553
216	0x3da05d1f	0.078302614
217	0xbd11de28	-0.035612255
218	0x3e0b6c07	0.13615428
219	0x3e0565fe	0.13027188
220	0x3c844386	0.016145479
221	0x3d8f435a	0.06995268
222	0x3ddbcb83	0.10732176
223	0x3d1065d5	0.035253365
224	0x3dece472	0.1156701
225	0x3e0b6035	0.13610919
226	0x3c89200f	0.01673892
227	0x3d22fa29	0.039789353
228	0x3e065968	0.13120043
229	0xbde27302	-0.11057092
230	0x3d4455fe	0.04793357
231	0x3d888f0c	0.06667909
232	0x3d25ca8d	0.04047637
233	0x3d19173e	0.03737568
234	0x3d096cb6	0.03355094
235	0x3d3e4780	0.046454906
236	0xbc4ac348	-0.01237566
237	0xbded4ff3	-0.11587515
238	0x3dd5c60e	0.104381666
239	0x3d9e0a32	0.07716788
240	0x3d921f7a	0.0713491
241	0x3dfb1b79	0.12261099
242	0x3db5593b	0.0885491
243	0x3d6fa038	0.058502406
244	0x3d94929e	0.072545275
245	0xbda57562	-0.080790296
246	0x3db0ed2c	0.08638987
247	0x3dadf0eb	0.08493217
248	0x3dfeb9ba	0.12437768
249	0x3e1fcddc	0.15605873
250	0x3ca7ce36	0.020484071
251	0xbd19001c	-0.03735362
252	0x3e2540c4	0.16137987
253	0x3d7b820e	0.061403327
254	0x3e2df255	0.16986974
255	0x3e1ba54d	0.15199776

net.2.bias f4 [256]
0	0xbd14b8a1	-0.03630889
1	0x3d2e3be5	0.04253759
2	0x3ca4064d	0.020022536
3	0x3d1aa800	0.037757874
4	0x3d60f47b	0.054920655
5	0x3d93bb53	0.07213464
6	0xbd475c21	-0.048671845
7	0x3d2de437	0.04245397
8	0x3d917420	0.07102227
9	0x3c92f501	0.017939093
10	0x3cad12af	0.021127073
11	0x3d89844f	0.06714689
12	0xbd08a4d3	-0.033360314
13	0xbcbf7254	-0.023369946
14	0xbc89d31c	-0.016824298
15	0x3b8a9108	0.004228715
16	0xbd24c8cd	-0.04023056
17	0x3c58ea5f	0.013239472
18	0x3e0aa717	0.13540302
19	0x3e20e627	0.15712796
20	0xbd67152f	-0.056416687
21	0x3cfb7b8d	0.030698562
22	0x3d8aaa2c	0.06770739
23	0xbd8f3fc8	-0.06994587
24	0x3e248391	0.16065814
25	0xbd8160f4	-0.063173205
26	0xbd2607cf	-0.04053479
27	0xbdb37939	-0.08763356
28	0x3dbd7fe2	0.09252907
29	0xbb218d0a	-0.0024650716
30	0xbd792389	-0.060824905
31	0xbdb1dfe5	-0.086852826
32	0x3d81c983	0.063372634
33	0x3bf19096	0.0073719723
34	0x3d3c4fa4	0.04597439
35	0x3db42bc7	0.08797412
36	0x3db17226	0.0866435
37	0x3d12d5ac	0.035848305
38	0x3d896d3f	0.0671029
39	0xbbeaee80	-0.0071695447
40	0xbd1c007d	-0.038086403
41	0x3cb455c7	0.022013558
42	0x3d63c5d5	0.05560859
43	0xbd0c0b93	-0.034190726
44	0x3dc605f9	0.09669108
45	0xbcb5631f	-0.022141991
46	0xbcec97b5	-0.028880933
47	0x3d3bdd60	0.045865417
48	0x3d8d1930	0.0688957
49	0xbd0f5dbe	-0.03500151
50	0xbcf88af1	-0.03033969
51	0x3d6e7bee	0.058223657
52	0x3d44ce48	0.048048288
53	0xbcf487d4	-0.029849924
54	0xbdae3dee	-0.08507906
55	0x3e05ccb7	0.13066374
56	0xbd6406d3	-0.05567057
57	0x3dec8028	0.11547881
58	0xbcfdcfc0	-0.030982852
59	0x3d4c52e1	0.049883727
60	0x3d3ff019	0.046859834
61	0x3db65823	0.089035295
62	0x3e1d1fd3	0.15344171
63	0x3ded3878	0.11583036
64	0x3db98aec	0.090597
65	0x3d0bf5fc	0.034170136
66	0xbd362804	-0.044471756
67	0xbd8d93ef	-0.06912982
68	0x3dbc7938	0.09202808
69	0x3daafa0b	0.08348473
70	0xbc9b8bb4	-0.018987514
71	0x3dd39756	0.103315994
72	0x3caa7a6b	0.020810327
73	0xbcc91840	-0.024547696
74	0x3e2aa1d5	0.16663297
75	0x3da5c0e2	0.0809343
76	0x3d8262d3	0.063665055
77	0xbd9f7c8f	-0.077874295
78	0x3d527ee9	0.051390562
79	0xbbe66000	-0.007030487
80	0x3d899824	0.06718472
81	0xbd9c64b3	-0.07636394
82	0x3dee121f	0.1162455
83	0xbd8357d2	-0.06413235
84	0xbd4e2f19	-0.050337885
85	0xbd857be7	-0.06517773
86	0xbcc0b3da	-0.02352326
87	0x3e073ee9	0.13207592
88	0x3e069b48	0.13145173
89	0x3d3b02f5	0.045657117
90	0xbc195575	-0.009358753
91	0xbd53f6a2	-0.05174888
92	0x3dd0dc7d	0.10198305
93	0xbd26aa63	-0.040689837
94	0x3ce9da1c	0.028546385
95	0x3c996ea1	0.01872951
96	0x3d3c00ae	0.045899086
97	0xbd277fa4	-0.040893212
98	0x3d800a88	0.06252009
99	0xbbcf30ee	-0.0063229715
100	0xbccf6090	-0.0253146
101	0xbda345b5	-0.0797228
102	0x3d239e6f	0.039946016
103	0x3c84caf4	0.016210057
104	0xbc618b94	-0.013766188
105	0x3db9f751	0.09080375
106	0xbcf3e22c	-0.029770933
107	0x3c594e13	0.013263243
108	0xbc34dfe8	-0.011039712
109	0x3e083a6d	0.13303538
110	0x3db990c6	0.090608165
111	0x3d3d29c2	0.0461824
112	0xbbd273c6	-0.0064224927
113	0xbc9a8ac3	-0.018864995
114	0x3d14817f	0.03625631
115	0x3dadacca	0.084802225
116	0x3d3a08d6	0.045418583
117	0xbc46c408	-0.012131698
118	0xbd2ece06	-0.042676948
119	0xbb1b9305	-0.0023738754
120	0x3d86ca3d	0.06581543
121	0x3df7f85e	0.12107919
122	0x3d4ec6a4	0.050482407
123	0x3dfd7bbd	0.12377117
124	0xbd1c0909	-0.038094554
125	0xbcdf6e49	-0.027274268
126	0x3e162690	0.14663148
127	0x3ce5a695	0.028033534
128	0x3de0acea	0.10970481
129	0x3d5072d5	0.050890762
130	0x3d93f8c0	0.0722518
131	0x3e10a16b	0.14124076
132	0x3e14b35c	0.14521545
133	0xbcd3324c	-0.02578082
134	0xbd9234b5	-0.07138959
135	0xbd00066a	-0.031256117
136	0x3bf5221f	0.007480874
137	0xbc87aed2	-0.016562853
138	0xbd97be1f	-0.074093096
139	0xbda4bd1a	-0.08043881
140	0x3cfcbaf7	0.03085087
141	0x3c885ed2	0.016646776
142	0x3d660e72	0.05616612
143	0x3e12cd9c	0.14336246
144	0x3d1e3cb3	0.038632106
145	0xbd0fc03a	-0.03509543
146	0xbd7d1469	-0.061787043
147	0x3d749cda	0.059719898
148	0xbd639288	-0.055559665
149	0x3dac25c2	0.08405639
150	0xbd64025b	-0.05566631
151	0xbda1de9f	-0.0790379
152	0x3e06ac9d	0.13151784
153	0xbd653c0e	-0.055965476
154	0x3e225033	0.15850906
155	0x3d0bd41c	0.03413783
156	0xbbba7200	-0.0056898594
157	0xbd74ab6b	-0.05973379
158	0x3dbbed7d	0.09176157
159	0x3d70402c	0.05865495
160	0x3e052957	0.13004051
161	0x3dc3ca66	0.09560089
162	0xbd39a044	-0.045318857
163	0x3d7d0608	0.06177333
164	0x3d81d26b	0.06338962
165	0x3d86aa59	0.0657546
166	0x3d4399ef	0.047754224
167	0x3dfbd24d	0.12295971
168	0x3d28d9e1	0.04122341
169	0xbb88d867	-0.004176188
170	0xbd54057f	-0.051763054
171	0x3d6edeca	0.058317937
172	0x3d40b01e	0.04704296
173	0x3d5f9942	0.054589517
174	0x3de970af	0.11398446
175	0x3d93e670	0.07221687
176	0x3d585873	0.052818727
177	0xbd212162	-0.039338477
178	0x3e0e3fc3	0.1389151
179	0x3ce66621	0.02812487
180	0x3dd70fd9	0.105010696
181	0x3d08dc83	0.03341342
182	0x3db79045	0.08963064
183	0x3d364eee	0.044508867
184	0x3d467118	0.0484477
185	0x3d0ecbbb	0.03486226
186	0xbd3ff170	-0.046861112
187	0x3e186dfc	0.14885706
188	0x3d1c5faa	0.03817717
189	0x3db9af73	0.090666674
190	0x3cacf5b2	0.02111325
191	0x3cf29c4a	0.02961554
192	0x3dca821d	0.098880984
193	0xbd9a6480	-0.075387
194	0x3de13502	0.109964386
195	0xbd95ebe3	-0.073203824
196	0x3c094e96	0.008380553
197	0x3db2d12e	0.08731304
198	0x3e0917f9	0.13388051
199	0xbcecbd0a	-0.028898735
200	0xbd8bba83	-0.06822684
201	0x3ab5a140	0.001385726
202	0x3d76c4c3	0.06024624
203	0x3d7560a7	0.059906628
204	0x3d862ec2	0.06551887
205	0x3de148f1	0.110002406
206	0x3e0e42e3	0.13892703
207	0x3db369fb	0.087604485
208	0x3d965249	0.073399134
209	0xbd48d0f0	-0.049027383
210	0xbc84cccf	-0.016210942
211	0xbc710162	-0.014709802
212	0x3dcdfc0a	0.10057838
213	0x3d189a4f	0.037256535
214	0x3c5e1aa8	0.01355616
215	0xbc281e02	-0.010261061
216	0x3da5a79a	0.08088608
217	0x3dc9e916	0.09858911
218	0x3d838363	0.064215444
219	0x3e025ab4	0.12729913
220	0xbd86e64c	-0.065868944
221	0x3db2d1ea	0.08731444
222	0x3db12d34	0.086512
223	0xbba30d45	-0.004975947
224	0xbc4167ab	-0.0118045015
225	0xbc59c6e9	-0.013292053
226	0x3d5fe2c8	0.054659635
227	0x3d9e526b	0.07730564
228	0xbd3fc284	-0.046816364
229	0x3ba02052	0.0048866654
230	0x3cdb2284	0.026749857
231	0x3d8b296b	0.06795009
232	0x3bf34935	0.0074244984
233	0x3dbbcd14	0.09169975
234	0x3d950ba7	0.07277613
235	0x3d9de0fa	0.077089265
236	0x3e0a38d1	0.13498236
237	0xbceb66cb	-0.028735539
238	0x3e0ff7e1	0.14059402
239	0x3de4dc49	0.111748286
240	0x3d2d9604	0.042379394
241	0x3daeea03	0.08540728
242	0x3c4c5f60	0.012473911
243	0x3dcef855	0.10105959
244	0x3c2851fd	0.010273454
245	0xbd3ca7db	-0.046058517
246	0x3d99b46c	0.07505116
247	0x3e1d3015	0.15350373
248	0x3d3ac3d3	0.04559691
249	0xbbbe98fe	-0.005816578
250	0xbd152d8d	-0.036420394
251	0xbc7653e0	-0.015034646
252	0xbd8319e4	-0.064014226
253	0x3d8ba6c6	0.06818919
254	0x3df22b19	0.118246265
255	0x3d4f8bdf	0.0506705

net.4.weight f4 [1, 256]
0	0xbd5b5e95	-0.053556997
1	0x3e0965a6	0.13417682
2	0xbdb35b4e	-0.08757649
3	0xbb03ac62	-0.0020091762
4	0xbd11ee23	-0.035627495
5	0xbdfb3aa3	-0.122670434
6	0x3b6b6c00	0.0035922527
7	0xbdde49b9	-0.10853905
8	0x3e08c8b0	0.13357806
9	0x3e25cfd7	0.16192566
10	0x3e1445d5	0.14479764
11	0x3a9e424b	0.00120742
12	0x3b48f200	0.0030661821
13	0xbdf4fa18	-0.11961764
14	0xbd07f9e4	-0.0331973
15	0xbaf2176f	-0.0018470119
16	0xbe165f70	-0.14684844
17	0xbdb2260b	-0.08698662
18	0x3e1bdd7c	0.15221208
19	0x3dd469a5	0.103717126
20	0xbd902f23	-0.070402406
21	0x3df3cb66	0.119040295
22	0xbe04acb7	-0.1295651
23	0xbdcbc2ee	-0.09949289
24	0x3dd786a4	0.105237275
25	0xbc7e4c32	-0.015521096
26	0xbe17e638	-0.14833915
27	0xbd7ad464	-0.061237708
28	0x3dc7a74e	0.09748708
29	0xbd99d0e4	-0.07510546
30	0xbddc32ff	-0.10751914
31	0xbcf838d5	-0.030300537
32	0x3de2a80d	0.110672094
33	0x3e239712	0.15975598
34	0xbe039242	-0.12848762
35	0xbe19cb62	-0.1501899
36	0x3db8f92d	0.090319015
37	0x3da43bee	0.08019243
38	0x3dcd0a26	0.10011701
39	0x3cbc0a24	0.022954054
40	0xbdca36b1	-0.09873713
41	0x3dd5110a	0.104036406
42	0xbd310374	-0.043216184
43	0xbdd54add	-0.1041467
44	0x3e09a0cc	0.13440245
45	0xbe0b3c59	-0.1359724
46	0xbe0d9643	-0.13826852
47	0x3e169190	0.14703965
48	0xbe2cade9	-0.16863216
49	0x3d231c8d	0.03982215
50	0xbcab5361	-0.020913782
51	0xbdc5bc3c	-0.096550435
52	0x3dc1282e	0.09431492
53	0x3ce48524	0.027895518
54	0x3ce1ed74	0.027579047
55	0x3e17c804	0.14822394
56	0xbca49ccc	-0.020094298
57	0x3e10b1ef	0.14130376
58	0x3d75da6c	0.060022756
59	0x3dd1fe1b	0.10253545
60	0xbdfd9154	-0.12381235
61	0x3dc89859	0.09794683
62	0x3e04d681	0.12972452
63	0x3e111a7e	0.14170262
64	0x3dc4763d	0.09592865
65	0x3cade6a0	0.021228135
66	0xbe17fb09	-0.14841856
67	0xbd1aa134	-0.03775139
68	0x3e1040c6	0.14087209
69	0x3df66284	0.12030509
70	0x3caae354	0.020860352
71	0x3db6c991	0.089251645
72	0xbe02d0e2	-0.12774995
73	0xbcf9e6a0	-0.030505478
74	0x3db942f3	0.09045973
75	0xbe12bd65	-0.14330061
76	0xbe0dd2ab	-0.13849895
77	0x3d75524b	0.059892934
78	0x3dc6a0ce	0.0969864
79	0xbd1adf22	-0.037810452
80	0xbe0d8114	-0.1381877
81	0xbe015821	-0.12631275
82	0x3dc53e63	0.0963104
83	0x3c1bf608	0.009519108
84	0xbddae310	-0.1068784
85	0xbd107d99	-0.03527603
86	0xbe1dd9b8	-0.15415084
87	0x3dc5208c	0.096253484
88	0x3e0a960c	0.13533801
89	0x3d20f0cd	0.039292146
90	0xbcc4fe0e	-0.024046924
91	0xbc2a8638	-0.010407977
92	0x3e30f431	0.17280652
93	0xbdf23346	-0.11826186
94	0xbd5b43b2	-0.053531356
95	0x3dc84980	0.09779644
96	0xbe1a02a2	-0.15040067
97	0xbe1ec86e	-0.15506145
98	0xbe0184a3	-0.12648253
99	0x3dd58c86	0.10427193
100	0x3d50a6de	0.050940387
101	0xbd0eb447	-0.034839895
102	0xbdd69e54	-0.104794174
103	0xbe02436e	-0.12721035
104	0x3e0b96d2	0.13631752
105	0x3e0b252d	0.135884
106	0x3d65ad4c	0.056073472
107	0xbde4d896	-0.11174123
108	0x3c8e5c00	0.017377853
109	0x3dc1c2ac	0.09460959
110	0xbdef41de	-0.11682485
111	0xbdf5dc82	-0.12004949
112	0xbdf74a44	-0.12074712
113	0xbe167fe1	-0.1469722
114	0x3e3c4405	0.18385322
115	0xbe281417	-0.16413914
116	0xbdfe2470	-0.12409294
117	0x3b8a74c0	0.0042253435
118	0xbde29dba	-0.1106524
119	0xbe0286b4	-0.12746698
120	0x3e00d09f	0.12579583
121	0x3e07194d	0.13193245
122	0x3e1579a0	0.14597178
123	0x3e13dcf3	0.14439754
124	0x3e09b898	0.13449323
125	0xbd85b9ca	-0.06529577
126	0x3e00b7c4	0.12570101
127	0x3de4413f	0.11145257
128	0x3dccf024	0.10006741
129	0xbcda0d1c	-0.02661758
130	0xbe0de0fe	-0.13855359
131	0x3e1db6ef	0.15401815
132	0x3dfc93d2	0.12332882
133	0xbccf5b38	-0.025312051
134	0x3d47a68a	0.04874281
135	0xbe271535	-0.16316684
136	0xbe0847e6	-0.13308677
137	0x3c8fc5ee	0.017550435
138	0xbdfc280b	-0.12312325
139	0x3c27f8d3	0.010252195
140	0xbdf6f052	-0.12057556
141	0x3dd8a51c	0.10578367
142	0x3e1b644b	0.15174977
143	0x3db0b013	0.086273335
144	0xbd5494bd	-0.05189966
145	0xbd15feb6	-0.036619864
146	0xbd389ea5	-0.04507317
147	0x3df34d36	0.11879961
148	0xbd13c2c1	-0.036074404
149	0x3dea1dcd	0.11431465
150	0x3d638ed1	0.055556122
151	0xbe09ed1e	-0.1346936
152	0x3e2069ce	0.15665361
153	0xbccd15fb	-0.025034895
154	0x3e1ddcd8	0.15416276
155	0x3e13bfb6	0.144286
156	0x3dac59ca	0.084155634
157	0x3cd0db50	0.025495201
158	0x3df19b44	0.11797193
159	0xbe071bbf	-0.13194178
160	0x3e1c6226	0.15271816
161	0x3dcd66f8	0.10029405
162	0xbcdaa926	-0.026691984
163	0x3e181cf2	0.14854792
164	0x3dcd0d44	0.10012296
165	0x3dbebfdc	0.09313938
166	0x3dd989b1	0.10621966
167	0x3dfb0bf6	0.12258141
168	0xbd1b0ae2	-0.037852176
169	0x3e21402a	0.15747133
170	0xbda2237b	-0.079169236
171	0xbdf7f0a2	-0.12106444
172	0x3d58c014	0.052917555
173	0xbe0f22bf	-0.13978098
174	0x3df63265	0.12021331
175	0x3e1b16a8	0.15145361
176	0x3df04ab0	0.117329955
177	0x3d547630	0.051870525
178	0x3dacb18d	0.084323026
179	0x3d8df55e	0.06931566
180	0x3de753c3	0.11295273
181	0x3d7de039	0.061981414
182	0xbdcefd5e	-0.1010692
183	0xbd9eeb31	-0.07759703
184	0xbcb0058e	-0.021487024
185	0xbe004b53	-0.12528734
186	0x3bcb7f71	0.0062102606
187	0x3dbdd2ea	0.09268744
188	0xbe0cfb1f	-0.1376767
189	0x3e0e5c04	0.13902289
190	0xbe1e6992	-0.1546996
191	0x3dbaae03	0.09115221
192	0xbe16f134	-0.14740449
193	0x3ce63f8c	0.028106473
194	0x3e07ce62	0.13262323
195	0xbdce7a41	-0.10081912
196	0x3e088d31	0.1333511
197	0x3def8bfc	0.11696622
198	0x3da531a5	0.080661096
199	0xbe38d6d0	-0.18050694
200	0xbe13a4bf	-0.14418314
201	0x3d31044e	0.043216996
202	0x3e16beb7	0.1472119
203	0x3e33cef4	0.17559415
204	0xbe1cc54a	-0.15309635
205	0x3db12ad6	0.086507484
206	0x3dfafa09	0.12254722
207	0xbe3bf84f	-0.18356441
208	0xbd378017	-0.04479989
209	0xbdf5bfff	-0.11999511
210	0x3e0e12db	0.1387438
211	0xbce79ef1	-0.028274031
212	0x3db55700	0.088544846
213	0xbdce85f7	-0.100841455
214	0x3dca8ca7	0.098901086
215	0x3e00bef6	0.12572846
216	0xbdb3a6ef	-0.087720744
217	0x3d9c908b	0.07644757
218	0xbe11d311	-0.14240672
219	0x3dc624a6	0.09674959
220	0x3d4f7c70	0.050655782
221	0x3df405dc	0.1191518
222	0x3e0a1db0	0.13487887
223	0xbde286ec	-0.110608906
224	0x3e1bfdc3	0.15233521
225	0xbda4a361	-0.080389746
226	0xbe2adf01	-0.16686632
227	0xbe277b48	-0.16355622
228	0x3e075a90	0.1321814
229	0xba42006f	-0.00074005773
230	0xbe113e0a	-0.14183822
231	0xbd0ac830	-0.03388232
232	0xbe2eec46	-0.17082319
233	0x3ddf4ced	0.10903344
234	0x3e107de2	0.1411052
235	0x3e20fd96	0.15721735
236	0x3e06426c	0.13111275
237	0xbd85589b	-0.06511041
238	0x3dd26828	0.102737725
239	0x3e1cfb89	0.15330328
240	0x3caecb31	0.021337124
241	0xbe21f674	-0.1581667
242	0x3ca5ccf8	0.020239338
243	0x3e0de8bd	0.13858314
244	0x3df6fd29	0.12060005
245	0xbc4f7548	-0.012662239
246	0x3e0a18ef	0.13486074
247	0x3e06c93c	0.13162702
248	0xbddf3706	-0.10899167
249	0xbdc08dbb	-0.09402033
250	0xbd91e99c	-0.071246356
251	0x3d34e236	0.044161044
252	0xbe0b4465	-0.13600309
253	0xbdd0e35f	-0.101996176
254	0x3dd9edab	0.10641035
255	0x3e16bb06	0.14719781
