model/defensive_left/v.pth (torch, 140876 bytes, 5 tensors)

net.0.weight f4 [128, 10]
0	0xbe6e602c	-0.23278874
1	0xbdcb8c14	-0.09938827
2	0xbdf13c89	-0.11779124
3	0xbe694f2d	-0.2278411
4	0x3e3394aa	0.1753718
5	0xbe8a0be2	-0.2696219
6	0xbdb5368c	-0.088482946
7	0x3ea091f3	0.3136135
8	0x3e883901	0.2660599
9	0x3eb5929c	0.35463417
10	0x3d076805	0.033058185
11	0xbd88757b	-0.066630326
12	0xbbbaaa8a	-0.0056965994
13	0xba414649	-0.0007372839
14	0xbc692133	-0.014229107
15	0xbd247035	-0.04014607
16	0xbe581865	-0.21103056
17	0x3e928e3e	0.28624147
18	0xbe283d84	-0.16429716
19	0x3ea676df	0.32512566
20	0x3db40cbf	0.087914936
21	0x3e4fb78c	0.20284861
22	0x3e5017b2	0.20321539
23	0xbe77e5b2	-0.24208716
24	0x3d470302	0.048586853
25	0xbe95929d	-0.2921342
26	0xbe2c1a24	-0.16806847
27	0xbe888977	-0.26667377
28	0x3ec92c9c	0.39291847
29	0xbe69bbd9	-0.22825564
30	0xbce6d389	-0.02817704
31	0x3e845c35	0.25851598
32	0x3bdf6912	0.0068179453
33	0x3e036b08	0.12833798
34	0x3e8e1dab	0.2775701
35	0x3d1e5fb8	0.038665503
36	0x3e7790a8	0.24176276
37	0x3e94c33d	0.29055205
38	0x3e3778d9	0.17917193
39	0x3eab1cd1	0.33420423
40	0xbe30f9a4	-0.1728273
41	0xbe45e6f8	-0.19326389
42	0x3e09db51	0.13462569
43	0x3cf327b2	0.029682014
44	0x3e0b0e11	0.13579585
45	0x3e7f4751	0.24929549
46	0x3e9180be	0.28418535
47	0x3e6fce1c	0.23418468
48	0x3e534533	0.20631866
49	0x3ea4aa7e	0.32161325
50	0x3e44c84f	0.19217037
51	0x3ddef11b	0.10885831
52	0xbe90bae2	-0.2826758
53	0xbda1fdc3	-0.07909729
54	0xbe3a2831	-0.18179394
55	0x3e8063f8	0.2507627
56	0x3e443173	0.19159488
57	0x3ac44e8b	0.0014977021
58	0x3d155f02	0.03646756
59	0xbe7a3f33	-0.24438171
60	0x3e913095	0.28357378
61	0xbe30e991	-0.17276599
62	0x3e491f64	0.19640881
63	0x3e790cc6	0.24321279
64	0x3e2c8d4a	0.16850773
65	0xbd14c138	-0.03631708
66	0xbd2aedca	-0.04173068
67	0x3cb661a4	0.022263356
68	0xbe043f61	-0.12914802
69	0x3e63ae2c	0.2223441
70	0x3da1e01d	0.07904074
71	0xbe2a9508	-0.16658413
72	0xbd001475	-0.03126951
73	0xbe6c49b8	-0.23074996
74	0xbe76dd85	-0.2410794
75	0xbe57b7c4	-0.21066195
76	0x3de797f2	0.11308278
77	0xbc9a9a77	-0.018872483
78	0x3cac60a4	0.021042176
79	0xbe25cb9c	-0.16190952
80	0xbe89ac89	-0.26889446
81	0xbe84a60f	-0.25907943
82	0x3c8fade1	0.017538967
83	0xbda712c0	-0.08157873
84	0x3df454e3	0.11930253
85	0xbe965d31	-0.29367974
86	0x3d67cd27	0.056592133
87	0xbe50ffdb	-0.20410101
88	0x3c08dc8c	0.008353364
89	0x3d8f9cb4	0.070123106
90	0xbea0ca87	-0.31404516
91	0xbe390cc5	-0.18071277
92	0xbd82efa6	-0.063933656
93	0x3e089443	0.13337807
94	0x3e0a2f8c	0.134947
95	0x3e2d7411	0.16938807
96	0xbd63712a	-0.055527844
97	0x3e8cba76	0.27486008
98	0x3e6fd4e6	0.23421058
99	0xbdc3fffa	-0.09570308
100	0x3e187c67	0.14891206
101	0xbdde5e78	-0.10857862
102	0xbe31b787	-0.17355166
103	0x3d755652	0.059896775
104	0xbe90a7b7	-0.28252956
105	0x3e2e488a	0.17019859
106	0x3e552e92	0.20818546
107	0xbead8f29	-0.33898285
108	0xbd8583f5	-0.065193094
109	0xbe24fe88	-0.16112721
110	0x3daef18e	0.08542167
111	0xbe383e69	-0.17992558
112	0xbe212ec6	-0.15740499
113	0x3d512174	0.051057294
114	0x3e900b57	0.28133652
115	0x3ecdda74	0.4020573
116	0xbe87694a	-0.26447517
117	0xbdda953c	-0.106729954
118	0xbdf2394e	-0.11827336
119	0x3dfa473a	0.12220617
120	0x3e7a8c7b	0.24467652
121	0xbe9c5a84	-0.30537808
122	0xbda49c2d	-0.08037601
123	0xbe911e7d	-0.28343573
124	0xbd2417ab	-0.040061634
125	0x3d796ffc	0.060897812
126	0xbe1e5976	-0.15463814
127	0x3e040657	0.12893043
128	0xbe2561f5	-0.16150649
129	0xbd452276	-0.048128568
130	0xbbe84110	-0.007087834
131	0x3bf056eb	0.00733458
132	0xbe0718b8	-0.13193023
133	0x3df6546c	0.12027821
134	0x3e4aea67	0.1981598
135	0xbe041105	-0.12897117
136	0x3e53a7e4	0.20669514
137	0xbd4311ad	-0.04762428
138	0x3eb72607	0.357712
139	0xbe61accd	-0.22038575
140	0xbe945263	-0.28969106
141	0xbe099ea9	-0.1343943
142	0xbe2ccc58	-0.16874826
143	0xbea5ddb2	-0.32395703
144	0x3e062f09	0.1310388
145	0x3e929f20	0.28637028
146	0x3d37f0b6	0.044907294
147	0x3e955d6e	0.29172844
148	0xbd24c3a0	-0.040225625
149	0xbd04aa69	-0.03238908
150	0x3e207480	0.15669441
151	0xbea333e7	-0.31875536
152	0x3e7a689a	0.24453965
153	0x3e92e1ea	0.28687984
154	0xbe546b7a	-0.20744124
155	0xbe682a42	-0.2267237
156	0x3eac302f	0.3363051
157	0xbe3e7c7e	-0.18602178
158	0xbde5521e	-0.11197303
159	0x3b48d1ca	0.0030642622
160	0x3e8f6ec0	0.28014183
161	0xbe07ceb5	-0.13262446
162	0x3db7bf70	0.08972061
163	0x3e92df5e	0.2868604
164	0x3e0ae74d	0.13564797
165	0x3ebb4a16	0.3657996
166	0xbd9ea493	-0.07746234
167	0x3d5cdce1	0.053921584
168	0xbe0edae2	-0.13950685
169	0xbe7d2571	-0.24721314
170	0xbd031e28	-0.03201118
171	0x3e0e6b80	0.13908195
172	0x3d9864ea	0.07441123
173	0xbe9bb3fe	-0.3041076
174	0xbac535e6	-0.001504597
175	0xbc284dcc	-0.0102724545
176	0x3ea98105	0.33106247
177	0x3ea1785e	0.31537145
178	0x3e9d2b18	0.3069694
179	0x3e7386a9	0.23781838
180	0xbdd63bee	-0.104606494
181	0x3c6fc5af	0.014634534
182	0x3cd62960	0.026142776
183	0x3e48f8e3	0.19626193
184	0xbe745580	-0.2386074
185	0x3d81e5e6	0.06342678
186	0x3eda774b	0.42669138
187	0xbe009b14	-0.12559158
188	0xbb28ec70	-0.0025775693
189	0x3e261d2f	0.1622207
190	0x3d23471a	0.03986273
191	0x3d5cda88	0.053919345
192	0x3e1f0a69	0.15531315
193	0xbe44e6dc	-0.19228691
194	0x3e8cf292	0.27528816
195	0x3e0e04e8	0.13869059
196	0xbdb86863	-0.09004285
197	0xbe42caaf	-0.1902263
198	0xbd806af5	-0.062704004
199	0xbcb26656	-0.021777313
200	0x3c970ca2	0.018438641
201	0x3e3371ec	0.17523926
202	0x3e8d35b3	0.27580032
203	0xbd60c792	-0.054877825
204	0x3d9695f6	0.073528215
205	0x3e0d9932	0.1382797
206	0xbcfd00fe	-0.030884262
207	0xbe85f4de	-0.2616338
208	0xbe201a4c	-0.15635031
209	0x3e132be2	0.14372209
210	0x3e2616e7	0.16219674
211	0x3e142f33	0.1447113
212	0xbe11ffd6	-0.1425775
213	0xbe55fb00	-0.2089653
214	0x39132d44	0.00014035875
215	0x3eb37339	0.35048845
216	0xbe331fb1	-0.17492558
217	0x3e0dcee7	0.13848458
218	0x3eadcfb9	0.33947542
219	0xbe03f5a7	-0.12886678
220	0xbeb5e5ac	-0.35526788
221	0xbe6a5751	-0.22884871
222	0x3db15305	0.08658413
223	0xbe5dcc79	-0.21660031
224	0xbd524122	-0.051331647
225	0xbe89c710	-0.26909685
226	0x3ead895b	0.33893856
227	0x3e933102	0.28748327
228	0xbe0bef26	-0.13665447
229	0x3be476b7	0.0069721597
230	0x3d36bab7	0.04461166
231	0xbed85c7f	-0.4225807
232	0xbd68750d	-0.056752253
233	0xbe2c7d7b	-0.16844742
234	0x3de5c241	0.112186916
235	0x3e8c50c0	0.27405357
236	0x3d8c14c0	0.06839895
237	0x3cbd0f14	0.023078479
238	0x3dba4454	0.09095064
239	0xbd4a8ae9	-0.04944888
240	0xbe259edd	-0.16173883
241	0xbea70349	-0.32619694
242	0xbd0d3ee5	-0.03448381
243	0xbe83b365	-0.25722805
244	0x3e5195f5	0.2046736
245	0xbddc306a	-0.10751422
246	0x3e542a1a	0.20719185
247	0x3e681455	0.22664006
248	0xbe5f4724	-0.21804482
249	0xbbc2ca81	-0.0059445505
250	0x3e7a5535	0.24446566
251	0x3e9c14dc	0.30484664
252	0x3e820d40	0.25400734
253	0xbdb06bf0	-0.086143374
254	0xbd2ac4d6	-0.041691624
255	0x3e866daa	0.26255542

net.0.bias f4 [128]
0	0xbdcbf10a	-0.09958084
1	0x3ea09662	0.31364733
2	0x3e591b57	0.21201836
3	0x3dd672e6	0.10471134
4	0x3ebac084	0.36475003
5	0xbe529577	-0.20564829
6	0x3dc86bb9	0.097861715
7	0xbd51c3ed	-0.05121224
8	0x3e2ec971	0.17069031
9	0xbdb44ac4	-0.08803323
10	0x3ea445cb	0.32084498
11	0x3e9455cb	0.28971705
12	0x3eac266f	0.33623073
13	0xbd9a26b6	-0.07526915
14	0x3dd091c2	0.10184051
15	0x3ea3386f	0.31878993
16	0x3e852fbd	0.26012984
17	0xbd994c73	-0.07485285
18	0x3e2760d2	0.16345528
19	0xbd9519bd	-0.072803
20	0x3eb71a5f	0.35762307
21	0x3cac520a	0.021035213
22	0x3e28b924	0.16476876
23	0xbc859a00	-0.016308784
24	0xbe731e39	-0.23741998
25	0xbe9478b4	-0.2899834
26	0x3e012cf8	0.1261481
27	0xbd94af8c	-0.072600454
28	0xbddcb8da	-0.10777445
29	0x3be87736	0.007094289
30	0xbe784af3	-0.24247341
31	0x3c0be543	0.008538547
32	0x3e566e77	0.20940576
33	0x3ea57a1f	0.32319734
34	0x3dc621a9	0.09674389
35	0x3e5cb3fe	0.21553037
36	0x3c060d62	0.008181902
37	0xbe49a42b	-0.19691531
38	0x3db57875	0.08860866
39	0x3eb9165e	0.36149877
40	0xbe4ba89d	-0.1988854
41	0x3e1b33ec	0.15156525
42	0x3e04fd45	0.1298724
43	0x3df014bf	0.11722707
44	0x3e2271b9	0.15863694
45	0xbe839e45	-0.25706688
46	0xbe55e961	-0.20889808
47	0xbe32b5b3	-0.17452125
48	0x3deb5cf3	0.11492338
49	0xbe9fed3f	-0.31235692
50	0x3e57b172	0.21063784
51	0xbd486b49	-0.04893044
52	0x3b37113f	0.0027933863
53	0xbe4c11cf	-0.19928668
54	0x3ea151e0	0.31507778
55	0xbe8be729	-0.273248
56	0xbe9d6eaa	-0.30748492
57	0x3ce061f9	0.027390467
58	0xbe3eac74	-0.18620473
59	0xbe2fbc90	-0.17161775
60	0xbcdf347f	-0.027246712
61	0xbe2143ac	-0.15748471
62	0x3d4fc92b	0.050728958
63	0x3eab83cc	0.3349899
64	0xbe80dad0	-0.2516694
65	0xbe88797f	-0.26655194
66	0xbe403207	-0.18769084
67	0xbe9495f7	-0.29020664
68	0xbe789818	-0.24276769
69	0xbe7edbc2	-0.24888518
70	0x3e829f26	0.25512046
71	0x3e27ac4b	0.16374318
72	0x3d446526	0.047948025
73	0xbdfa8e12	-0.12234129
74	0x3ec2cc55	0.38046518
75	0x3e2ebd8f	0.17064498
76	0xbd6eeadf	-0.05832946
77	0x3dc7c877	0.097550325
78	0x3e01dbce	0.12681505
79	0xbe280abd	-0.16410346
80	0xbde52152	-0.11187996
81	0xbe42795e	-0.1899161
82	0x3df77aea	0.12083991
83	0xbe50f680	-0.20406532
84	0x3e947ea4	0.2900287
85	0xbd95db3c	-0.07317206
86	0xbdb17b88	-0.0866614
87	0xbe7ea8fc	-0.2486915
88	0xbe028259	-0.12745036
89	0x3ea10bf9	0.31454447
90	0xbb35b335	-0.0027725224
91	0x3c2d0a41	0.010561527
92	0xbe404a48	-0.18778336
93	0xbe6ec47a	-0.23317137
94	0xbb289117	-0.0025721246
95	0x3d2c5e10	0.042081892
96	0x3cfc3cf6	0.030790787
97	0x3e0855d8	0.13313997
98	0x3e003c97	0.12523113
99	0xbdea1ca3	-0.11431243
100	0xbe8f6f6f	-0.28014705
101	0xbe02e131	-0.12781216
102	0xbe18e3da	-0.14930668
103	0x3ea9da4b	0.33174357
104	0xbe0e2973	-0.13882999
105	0xbe7624e8	-0.24037516
106	0xbde6f3c5	-0.11276964
107	0x3e83edc1	0.2576733
108	0x3e8a10d8	0.26965976
109	0xbe4311de	-0.19049785
110	0x3d528150	0.051392853
111	0x3e5ed8a2	0.21762326
112	0x3e8c5a13	0.2741247
113	0xbe120d4f	-0.1426289
114	0x3d94b5bc	0.072612256
115	0x3dae46e2	0.085096136
116	0x3ba67669	0.0050800336
117	0xbe86e414	-0.26345885
118	0x3bf4ffb9	0.0074767736
119	0xbe5817d9	-0.21102847
120	0xbdbd1264	-0.09232023
121	0xbe782034	-0.24231035
122	0x3e78db7a	0.24302474
123	0xbdbf6023	-0.093445085
124	0x3e59baf3	0.21262722
125	0x3e7c0687	0.24611865
126	0xbe09d830	-0.13461375
127	0x3de6b74d	0.112654306

net.2.weight f4 [256, 128]
0	0x3d86ada9	0.06576092
1	0xbda61f52	-0.081114426
2	0x3d071a5c	0.032984123
3	0x3d653a3d	0.055963743
4	0x3cd4d4c6	0.025980365
5	0x3d0ee110	0.034882605
6	0xbe0b9fe8	-0.13635218
7	0xbd212b84	-0.03934814
8	0x3dad7479	0.08469481
9	0x3cba8185	0.022766838
10	0xbdab1698	-0.08353919
11	0xbd4d4e07	-0.05012324
12	0xbda368c1	-0.079789646
13	0x3e292c42	0.1652079
14	0x3d8e625c	0.06952354
15	0x3d8b67e7	0.06806927
16	0xbe0714ed	-0.13191576
17	0x3df78ad0	0.12087023
18	0xbd0cff16	-0.034422956
19	0xbcbeb905	-0.023281584
20	0xbdbf17b2	-0.093306914
21	0xbd321399	-0.04347572
22	0x3d5dab67	0.05411854
23	0x3d39c1b5	0.04535075
24	0x3dbc3451	0.09189666
25	0xbd7c721c	-0.06163226
26	0xbd1dfc34	-0.038570598
27	0xbe184460	-0.14869833
28	0xbc56c897	-0.013109348
29	0xbc1a9825	-0.009435688
30	0x3a0ea834	0.00054419343
31	0xbd5487c4	-0.05188729
32	0xbd5288e8	-0.051400095
33	0x3d86aba3	0.06575706
34	0xbbaebd4a	-0.0053326236
35	0xbdaa2014	-0.083069
36	0xbc6c402d	-0.014419598
37	0xbe10ce3d	-0.14141174
38	0x3d979f82	0.074034706
39	0xbd95e397	-0.073188
40	0xbd82fd0c	-0.06395921
41	0x3d14c7a1	0.036323193
42	0x3d381507	0.04494193
43	0x3d124aef	0.035715993
44	0x3d8f1cdd	0.06987927
45	0x3e164c79	0.1467761
46	0xbd5d29c9	-0.053994928
47	0xbd8bec15	-0.068321384
48	0xbd6e8465	-0.05823173
49	0x3a2949e1	0.0006457847
50	0x3d8eb12d	0.06967387
51	0xbdc2bb7c	-0.09508416
52	0x3df8f17a	0.12155433
53	0x3d665a01	0.05623818
54	0xbdf03cdd	-0.11730359
55	0x3d9286b8	0.07154602
56	0xbd84faf8	-0.06493181
57	0xbd178187	-0.03698876
58	0xbdcb9831	-0.099411376
59	0xbb0be76c	-0.0021347655
60	0xbcca98df	-0.024731098
61	0x3caeecfe	0.021353241
62	0x3debd6c4	0.11515573
63	0x3d55ffa4	0.05224575
64	0x3c781a74	0.015143026
65	0x3d943aba	0.07237764
66	0xbdceb947	-0.100939326
67	0xbe5d0434	-0.21583635
68	0xbd99f21e	-0.07516883
69	0xbc5a33fe	-0.01331806
70	0x3919a540	0.00014652777
71	0x3d9422f5	0.0723323
72	0x3de1846c	0.110115856
73	0xbde35ccb	-0.11101683
74	0xbccddbd1	-0.02512923
75	0xbb827611	-0.00398136
76	0xbdb0be34	-0.08630028
77	0xbc1a21d2	-0.009407477
78	0xbd9b0df2	-0.07571019
79	0x3c9d7057	0.019218607
80	0xbd57882d	-0.0526201
81	0xbd69f0c2	-0.05711437
82	0x3de09881	0.10966588
83	0xbe45b5a6	-0.19307575
84	0xbd2eed2a	-0.042706646
85	0x3d8eb669	0.06968386
86	0x3e000442	0.12501624
87	0x3d923d4b	0.07140597
88	0xbd264b96	-0.040599428
89	0xbbff1db9	-0.0077855256
90	0xbcb38f21	-0.021918835
91	0x3e14d4ea	0.14534345
92	0xbd88c557	-0.066782646
93	0x3d824911	0.063615926
94	0xbdc8ad0c	-0.09798631
95	0x3bbdf93e	0.0057975342
96	0x3c379456	0.0112048
97	0x3dc992a0	0.098424196
98	0xbd7aa3f7	-0.061191525
99	0xbd7aeac5	-0.06125905
100	0x3da106a5	0.078625955
101	0x3e054d0e	0.13017675
102	0xbcef62c9	-0.02922191
103	0x3d14b7dc	0.036308154
104	0x3d4570f6	0.04820343
105	0x3df31912	0.11870016
106	0xbd0fd845	-0.03511836
107	0x3d9c0105	0.07617382
108	0x3db7cb2f	0.08974301
109	0x3e41bd6a	0.18919912
110	0x3d9ed244	0.07754949
111	0x3c9285fa	0.01788615
112	0x3ccff86e	0.025387015
113	0x3d39bfd5	0.04534896
114	0x3d99558d	0.07487021
115	0x3d35afd9	0.044357155
116	0xbc8fc050	-0.017547756
117	0xbe122ea5	-0.14275606
118	0xbd915632	-0.070965186
119	0xbd40a3c4	-0.04703118
120	0x3c4d8b8c	0.012545478
121	0x3e096b1d	0.13419767
122	0xbcc3033e	-0.023805257
123	0x3d03dec4	0.032194868
124	0xbd7511a1	-0.059831265
125	0x3da552a5	0.08072404
126	0xbe0cf611	-0.13765742
127	0xbd2dfe36	-0.042478763
128	0x3cc91f97	0.024551196
129	0x3cb6b508	0.02230312
130	0x3e04ed9f	0.1298127
131	0x3dbef4c9	0.09324033
132	0x3de20935	0.11036912
133	0x3ba223c6	0.004948112
134	0x3d368d24	0.044568196
135	0xbe228564	-0.15871197
136	0xbc3c6443	-0.011498514
137	0x3da14b98	0.078757465
138	0xbd6ab343	-0.057299864
139	0x3d1fc91d	0.039010156
140	0x3c7c2d36	0.0153916385
141	0x3da78636	0.081798956
142	0x3d93dd79	0.07219977
143	0xbc9427e8	-0.018085435
144	0xbd848e80	-0.06472492
145	0x3d269655	0.04067071
146	0x3d867f05	0.06567196
147	0x3cba3b95	0.022733489
148	0xbcb807cb	-0.022464653
149	0xbd4c046d	-0.04980891
150	0x3d15c1d2	0.036561795
151	0xba0bf2fb	-0.0005338636
152	0xbddbc0f9	-0.10730166
153	0xbd1e4e74	-0.038649037
154	0x3ca926fb	0.02064847
155	0xbdf93938	-0.12169117
156	0xbdf5184e	-0.119675264
157	0xbdcd3ab6	-0.10020964
158	0xbe0de063	-0.13855128
159	0xbc708e16	-0.014682313
160	0xbdad810b	-0.084718786
161	0x3db2a156	0.08722179
162	0xbced7b45	-0.028989444
163	0x3df49e8a	0.119443014
164	0xbd1e2986	-0.03861382
165	0xbe0d2a00	-0.13785553
166	0x3d1ee6a0	0.03879416
167	0xbc075fd1	-0.0082625905
168	0xbe2b7277	-0.16742884
169	0x3be2791e	0.006911411
170	0x3d54eb9a	0.0519825
171	0x3d95772a	0.07298119
172	0x3d42848d	0.04748969
173	0xbd96b96f	-0.073595874
174	0xbd52faa9	-0.05150858
175	0xbe1532c2	-0.14570144
176	0xbd081d29	-0.033230934
177	0xbb974edc	-0.004617555
178	0x3dcdd19f	0.10049748
179	0xbe0cd971	-0.13754822
180	0x3e2388a7	0.15970097
181	0xbd979942	-0.074022785
182	0xbdb663aa	-0.08905728
183	0xbd33175c	-0.04372345
184	0xbcd1c9bb	-0.025608888
185	0x3d8c7609	0.06858451
186	0xbe041eb8	-0.12902343
187	0x3d00685a	0.031349517
188	0x3d81678b	0.063185774
189	0x3deab9b7	0.114612035
190	0x3d940711	0.0722791
191	0xbce277c6	-0.027645003
192	0xbc0f620b	-0.008751403
193	0x3cc4b0cd	0.024010086
194	0xbd544709	-0.051825557
195	0xbda2599e	-0.07927249
196	0x3d8006af	0.06251275
197	0xbd330fae	-0.043716125
198	0x3de17270	0.11008155
199	0x3dbbb496	0.091653034
200	0x3de33351	0.11093772
201	0xbd3ab42b	-0.045581978
202	0x3de93317	0.11386698
203	0x3df8c7e9	0.12147505
204	0xbd9063a0	-0.07050252
205	0x3c39af6f	0.011333331
206	0x3d837a98	0.06419867
207	0x3d2acb0f	0.041697558
208	0x3d1240ee	0.035706453
209	0x3d00f518	0.03148374
210	0x3dc9cc08	0.09853369
211	0xbd48ff1a	-0.04907141
212	0x3d9665f2	0.07343663
213	0xbd8df047	-0.06930595
214	0x3e17fefe	0.14843366
215	0xbd81ad00	-0.06331825
216	0xbd58e9d7	-0.052957382
217	0x3e078c51	0.1323712
218	0x3da65498	0.08121604
219	0xbd5ac5ea	-0.0534114
220	0xbc819a2a	-0.015820581
221	0x3dcef4d2	0.101052895
222	0xbd0f1a4a	-0.03493718
223	0x3d2a14bc	0.04152368
224	0x3e122c24	0.14274651
225	0x3d9be29f	0.07611584
226	0x3d3efa7f	0.04662561
227	0xbce622d2	-0.028092775
228	0x3d9e25a2	0.07722022
229	0xbcffe73c	-0.03123819
230	0xbc42c4c6	-0.011887735
231	0xbc491e60	-0.012275308
232	0xbd1a3f22	-0.037657864
233	0x3d706917	0.05869397
234	0xbb9cf753	-0.0047902255
235	0x3da23961	0.079211004
236	0x3d2cbc4e	0.04217177
237	0x3e1e4b2b	0.15458362
238	0x3ddf9854	0.10917726
239	0x3c824561	0.015902223
240	0xbcd14d9f	-0.025549708
241	0x3dce08ef	0.10060298
242	0xbda50955	-0.080584206
243	0x3d36f653	0.044668507
244	0x3d60ec97	0.05491313
245	0xbc6ec648	-0.014573641
246	0x3cb8c983	0.022557026
247	0xbdc324ed	-0.095285274
248	0x3d6b0c38	0.0573847
249	0x3d472162	0.04861582
250	0x3dd27f20	0.102781534
251	0x3ca83568	0.020533279
252	0x3da8a6cd	0.0823494
253	0xbd8afc2f	-0.067863815
254	0xbdb23b25	-0.08702687
255	0x3da0da78	0.078541696

net.2.bias f4 [256]
0	0xbd6df61d	-0.05809604
1	0x3c71aee8	0.014751174
2	0xbd511d10	-0.051053107
3	0x3d3b3bb2	0.045711227
4	0xbd11545e	-0.03548085
5	0x3cad8fbb	0.0211867
6	0xbc9a9825	-0.018871376
7	0xbd1ae2df	-0.037814017
8	0x3c259031	0.010105179
9	0xbca7cd94	-0.02048377
10	0x3d804fb6	0.06265204
11	0x3dcfc476	0.10144894
12	0xbd0d5cbf	-0.034512278
13	0x3d17e6d4	0.03708537
14	0xbd422190	-0.04739529
15	0xbd631e2a	-0.05544869
16	0x3d72c1cb	0.059266847
17	0xbd9d9dbf	-0.07696103
18	0xbd884fd2	-0.066558495
19	0x3d761480	0.060078144
20	0xbd6ae2b9	-0.057345126
21	0xbbe73374	-0.0070556942
22	0x3d150728	0.036383778
23	0x3db40494	0.08789936
24	0x3d88b0b3	0.06674328
25	0x3dbec2d0	0.09314501
26	0x3e108881	0.14114572
27	0xbcf46729	-0.029834347
28	0x3d81357f	0.06309032
29	0x3d4100fb	0.047120076
30	0xbb1a48df	-0.002354197
31	0xbd889a76	-0.06670086
32	0x3c4f664d	0.012658668
33	0xbc8c96cd	-0.017161751
34	0x3d890ae2	0.06691529
35	0x3da9c5ad	0.08289657
36	0x3c8f92ff	0.017526148
37	0x3dec7f76	0.11547749
38	0x3d7ee732	0.062232204
39	0x3c7fbec3	0.015609446
40	0xbd4e2359	-0.05032668
41	0xbc83ed58	-0.016104385
42	0x3d5269a4	0.051370278
43	0x3d8c9aac	0.06865439
44	0xbd751e5e	-0.059843414
45	0x3da0cf09	0.07851989
46	0x3d887250	0.066624284
47	0x3d2be05a	0.041962005
48	0x3c8fd1e5	0.01755614
49	0x3d1f8f2c	0.0389549
50	0x3dd8787b	0.10569855
51	0xbd075f86	-0.033050083
52	0xbd576a68	-0.05259171
53	0x3dee8adf	0.11647581
54	0x3cd1cf64	0.025611587
55	0xbd38f2a5	-0.04515328
56	0xbd8896bb	-0.066693746
57	0x3dc54c15	0.09633652
58	0x3d4d3b04	0.05010511
59	0x3d82e1c3	0.06390717
60	0x3d229d6e	0.039700918
61	0x3c2c9d26	0.010535514
62	0x3d5e4315	0.054263193
63	0x3c836613	0.016039884
64	0x3cbf6c28	0.023367003
65	0x3dcd341c	0.10019705
66	0xbbae1c62	-0.005313442
67	0x3d85f89a	0.065415576
68	0x3a86f243	0.0010295588
69	0x3c8638bd	0.016384477
70	0x3df434f3	0.11924162
71	0x3c84a15a	0.01619022
72	0x3ca8bee9	0.020598846
73	0x3dd3f8ac	0.10350165
74	0x3dd7d467	0.105385594
75	0x3d8fd4f7	0.07023042
76	0xbc596827	-0.013269461
77	0x3ce6e151	0.028183611
78	0x3bbfd942	0.0058547566
79	0x3dc05165	0.09390525
80	0x3c783a87	0.015150673
81	0x3dcdcad2	0.100484505
82	0xbc4e14f5	-0.012578239
83	0x3bddb269	0.006765653
84	0x3dd4cd2a	0.103906944
85	0xbce49c0d	-0.027906442
86	0xbc8ce22d	-0.017197693
87	0xbcf506a2	-0.02991039
88	0x3dbda48c	0.092599005
89	0x3a9dd612	0.0012041947
90	0xbb34a7df	-0.002756588
91	0xbda77a53	-0.08177628
92	0x3def96d2	0.116986886
93	0x3db47f34	0.088133246
94	0x3e022761	0.12710334
95	0x3de3dac2	0.11125709
96	0x3d157679	0.036489937
97	0x3b83f604	0.00402713
98	0x3cc90531	0.024538608
99	0x3b8da39f	0.0043224837
100	0x3d82e957	0.06392162
101	0xbd0c7605	-0.03429224
102	0x3d8d5bdc	0.069022864
103	0x3ced50f5	0.028969267
104	0xbdb32c33	-0.08748665
105	0x3b93193b	0.0044890917
106	0xbd4afb7b	-0.049556237
107	0xbd41520c	-0.047197387
108	0x3db09d1e	0.08623718
109	0xbd10e8f4	-0.03537841
110	0xbd0fd75a	-0.035117485
111	0x3dbd48b7	0.09242385
112	0xbd4299a7	-0.047509816
113	0xbda5c23c	-0.08093688
114	0x3d6af477	0.057362046
115	0x3e07d0aa	0.13263193
116	0xbd7bfd4a	-0.061520852
117	0x3d5bbd1d	0.05364715
118	0x3b3a9e6d	0.0028475777
119	0x3d5441d1	0.05182058
120	0xbcbfeb9d	-0.023427779
121	0x3e0f3d1e	0.13988158
122	0xba1bd12d	-0.00059439504
123	0xbcf2f6d9	-0.029658722
124	0x3de38d54	0.111109406
125	0xbd32593b	-0.043542128
126	0x3d9c1e23	0.076229356
127	0xbd0c9d73	-0.034329843
128	0xbda7cb55	-0.081930794
129	0x3e08379a	0.1330246
130	0x3c837af2	0.016049836
131	0x3cf32ebf	0.029685376
132	0x3c8704dc	0.01648181
133	0xbd924df3	-0.07143774
134	0x3db44e46	0.08803992
135	0x3cfd88f5	0.030949095
136	0xbdb541d0	-0.08850443
137	0x3e08a2ed	0.13343401
138	0x3df94037	0.12170451
139	0xbc2d5054	-0.010578234
140	0x3dfb9d0c	0.12285814
141	0x3d6bc8f3	0.057564687
142	0xbd090bb3	-0.033458423
143	0x3d446b55	0.047953922
144	0x3d00ef9d	0.031478513
145	0x3cbd48ae	0.023105945
146	0xbc9b5074	-0.018959261
147	0xbd76471f	-0.06012642
148	0x3db56aff	0.088582985
149	0x3daaf3b5	0.08347265
150	0x3d84be3d	0.064815976
151	0x3dd4689a	0.10371514
152	0x3d1a644f	0.037693318
153	0xbd81a2d4	-0.06329885
154	0xbb8ad4e4	-0.0042368043
155	0xbc4944d9	-0.012284481
156	0x3c98fbea	0.01867481
157	0x3d4a7942	0.049432047
158	0xbc1b35d4	-0.009473283
159	0x3d165d78	0.036710232
160	0x3a87d8ac	0.0010364256
161	0x3cc4d986	0.024029505
162	0x3c784fc4	0.015155736
163	0x3cc6ce97	0.024268432
164	0xbc168d41	-0.009188951
165	0xbdaed34a	-0.08536394
166	0x3de60577	0.11231511
167	0xbc9f5d9d	-0.019453818
168	0xbd26f33b	-0.040759306
169	0xbda4c4bc	-0.080453366
170	0xbca8bac4	-0.02059687
171	0x3d918076	0.0710458
172	0xbd2ebe44	-0.04266192
173	0x3db675c3	0.0890918
174	0x3d8333a3	0.06406333
175	0x3d686dde	0.056745403
176	0x3d6aead6	0.057352863
177	0x3dfb3613	0.12266173
178	0x3d97f1b8	0.07419151
179	0x3d9ba528	0.075998604
180	0xbb4a7ca5	-0.0030897048
181	0x3d28e6e6	0.041235827
182	0x3d9e77d4	0.07737699
183	0x3c782dd7	0.015147648
184	0xbd8fbd85	-0.0701857
185	0x3cd94fc0	0.026527286
186	0x3d91f8eb	0.071275555
187	0x3db06dd1	0.08614696
188	0xbc4696d0	-0.012120917
189	0xbcbda5c1	-0.023150327
190	0x3dfb9c77	0.12285703
191	0x3bc5cda9	0.0060364795
192	0x3dd91b88	0.10600954
193	0x3cb2a2a3	0.021806067
194	0x3db5fa34	0.08885613
195	0x3da05a87	0.07829767
196	0x3d871833	0.065964125
197	0xbb23184f	-0.0024886315
198	0xbd8b3ef7	-0.06799119
199	0x3d66226a	0.056185164
200	0x3d0627da	0.03275285
201	0x3cc3f882	0.023922209
202	0x3d8a81e6	0.067630574
203	0x3b8c5d9e	0.004283621
204	0x3dcaeeb6	0.09908812
205	0xbdb58aea	-0.088643864
206	0xbd4228c1	-0.047402147
207	0xbda68567	-0.08130913
208	0x3da9e0da	0.0829484
209	0x3d49b469	0.04924432
210	0xbd433b2f	-0.047663864
211	0x3db16c07	0.08663183
212	0xbd464544	-0.0484059
213	0x3dfdb194	0.12387386
214	0x3d0db27c	0.034594044
215	0xbd14a820	-0.03629315
216	0x3da6e688	0.08149439
217	0x3d842296	0.06451909
218	0xbda40a30	-0.080097556
219	0x3db6c86d	0.08924947
220	0xbd815c7a	-0.06316467
221	0x3cdcda8e	0.026959684
222	0x3d323a05	0.043512363
223	0xbcd7e400	-0.026353836
224	0x3d64e4d9	0.05588231
225	0x3e11f202	0.14252475
226	0xbd157c41	-0.03649545
227	0x3de6c59e	0.11268161
228	0x3d9d0ab7	0.07668059
229	0x3de7efd1	0.11325038
230	0xbdb024fd	-0.08600805
231	0xbd167431	-0.036731903
232	0x3dfadc2f	0.12249028
233	0xbd421bf6	-0.047389947
234	0xbca8aca8	-0.020590141
235	0xbd4952a9	-0.049151096
236	0xbc799193	-0.0152324615
237	0xbcbeb18b	-0.023278018
238	0xbd034a54	-0.032053307
239	0x3c0157fe	0.007894514
240	0x3d70dd6e	0.05880492
241	0xbd125d2a	-0.03573338
242	0x3ce586de	0.028018411
243	0xbd552fc9	-0.052047525
244	0x3dc080d8	0.09399575
245	0x3d99ed15	0.07515923
246	0xbd00cc4f	-0.031444844
247	0xbc0060ec	-0.007835608
248	0x3dab857a	0.08375068
249	0xbd3a3fca	-0.04547099
250	0x3d9feaed	0.078084804
251	0x3d43f2dd	0.047839034
252	0x3cd3d062	0.0258562
253	0x3cd0c95d	0.025486642
254	0x3d0c224b	0.03421239
255	0xbd753343	-0.05986334

net.4.weight f4 [1, 256]
0	0x3e019778	0.12655437
1	0x3d82f7bf	0.0639491
2	0x3dffa9bd	0.12483547
3	0x3db1e7eb	0.08686813
4	0x3dedca64	0.116108686
5	0xbe13ff0b	-0.1445276
6	0x3deb7158	0.11496228
7	0x3dbbcf78	0.09170431
8	0xbe0134e5	-0.12617834
9	0xbded40e3	-0.11584642
10	0x3ddd77aa	0.1081384
11	0x3dc131fc	0.09433362
12	0x3e0ea27b	0.13929169
13	0xbe1780dc	-0.1479525
14	0xbc7bb8d8	-0.015363894
15	0xbe35fc9e	-0.17772147
16	0x3e00549d	0.12532277
17	0xbdb54d5e	-0.08852647
18	0x3ce99304	0.028512485
19	0x3df46c2e	0.11934696
20	0x3e09ba4c	0.13449973
21	0xbdfd0f2b	-0.12356409
22	0xbdefd288	-0.117100775
23	0xbe12a1fa	-0.14319602
24	0x3dd4998a	0.10380848
25	0x3dad474f	0.08460867
26	0x3dde63f1	0.10858906
27	0xbdb96a79	-0.09053511
28	0xbd8ea10a	-0.069643095
29	0xbd6859a5	-0.056726117
30	0xbdea6cab	-0.11446508
31	0xbdcf2fa9	-0.10116512
32	0x3dbb5839	0.091476865
33	0x3dff55c8	0.12467533
34	0x3dafe697	0.085889034
35	0x3df6a277	0.120427065
36	0x3e023cc7	0.12718497
37	0x3df73880	0.120713234
38	0xbe0fcb16	-0.14042315
39	0xbd8f05d9	-0.06983537
40	0x3e0db86f	0.13839887
41	0x3e072f55	0.1320165
42	0xbdf7973f	-0.12089395
43	0x3dfc0b45	0.12306837
44	0xbded1b1e	-0.11577438
45	0xbe099cc2	-0.13438705
46	0x3e0892c7	0.13337241
47	0xbe1cf9f4	-0.15329725
48	0x3dc8e429	0.09809143
49	0x3dfe1ace	0.12407456
50	0x3db9a86a	0.090653256
51	0x3ddddb14	0.108328015
52	0xbdf94dd9	-0.121730514
53	0x3df1538f	0.11783516
54	0x3e45becd	0.19311066
55	0xbca87430	-0.020563215
56	0x3e15cf1f	0.14629792
57	0x3df6a063	0.1204231
58	0xbc2334d1	-0.009961323
59	0x3e38275b	0.17983763
60	0x3e19e70c	0.15029544
61	0xbdc58911	-0.09645284
62	0xbddc1ebb	-0.10748049
63	0xbda2bee1	-0.079465635
64	0x3ca6fc1c	0.020383887
65	0x3df28aff	0.11842918
66	0x3dc3e8e2	0.09565903
67	0xbd87fc10	-0.06639874
68	0xba0bbfa6	-0.0005330987
69	0xbdaf73d0	-0.08567011
70	0x3db1776d	0.08665357
71	0x3e01a5cc	0.12660903
72	0x3dcf5df0	0.10125339
73	0x3dc28990	0.09498894
74	0x3db7c43b	0.08972975
75	0xbdccfe8c	-0.100094885
76	0x3e0aa8f7	0.13541017
77	0xbdb91537	-0.090372495
78	0xbe1047f7	-0.14089952
79	0x3d988dd3	0.07448926
80	0xbe015345	-0.12629421
81	0x3df18c5e	0.11794351
82	0x3d905251	0.070469506
83	0x3db67cb6	0.089105055
84	0x3de114fd	0.10990331
85	0xbdb4ee49	-0.08834512
86	0x3dcae710	0.09907353
87	0xbdfb1602	-0.12260057
88	0xbdf7b7b0	-0.120955825
89	0xbdb015ca	-0.08597906
90	0xbe0b62fe	-0.13611981
91	0xbcdc84c4	-0.026918776
92	0x3dbe5ee4	0.09295443
93	0x3df1b02c	0.1180118
94	0x3d88c3b4	0.066779524
95	0x3d9973e5	0.07492808
96	0x3ddcca7d	0.10780809
97	0x3e17a89c	0.14810413
98	0xbde62361	-0.11237217
99	0xbc23d7e1	-0.0100002
100	0x3dc20561	0.09473682
101	0xbd215d50	-0.03939563
102	0x3da6b8bd	0.08140705
103	0xbda6551b	-0.08121701
104	0xbd95c3bc	-0.07312724
105	0xbdd38a69	-0.10329134
106	0xbe0c4a04	-0.1370011
107	0x3de225ae	0.11042343
108	0x3ddc057d	0.10743234
109	0xbdd972de	-0.10617612
110	0xbe26860e	-0.16262075
111	0xbe3c1b5e	-0.18369815
112	0x3e2a1a7a	0.16611663
113	0xbe336e4c	-0.17522544
114	0xbdeeb115	-0.116548695
115	0x3dc2ad30	0.09505689
116	0xbe06ed0b	-0.13176362
117	0xbdcf19e7	-0.10112362
118	0x3c00c5d0	0.007859662
119	0xbdfc6614	-0.12324157
120	0xbd084a73	-0.033274125
121	0x3dc5fd50	0.09667456
122	0x3dfffadb	0.12499019
123	0xbca60b00	-0.020268917
124	0x3e278ee6	0.16363105
125	0xbd9f4133	-0.07776108
126	0x3dc7d2fb	0.09757038
127	0xbd922d63	-0.07137563
128	0x3c983cc8	0.01858367
129	0x3dba9e51	0.09112228
130	0x3de1dbc1	0.11028243
131	0x3cc90380	0.024537802
132	0x3ca5098c	0.020146154
133	0x3d7bfdac	0.061521217
134	0xbd849fde	-0.06475805
135	0x3e0c0665	0.13674314
136	0x3d5afbd5	0.053462822
137	0x3de17ecc	0.11010513
138	0x3e0d51dd	0.1380076
139	0x3dfc02ff	0.12305259
140	0x3debb0c9	0.115083285
141	0xbe07016b	-0.13184135
142	0xbe373c15	-0.17894013
143	0xbe2eaf23	-0.17058997
144	0x3e08580b	0.13314836
145	0x3dd36bac	0.10323271
146	0xbe41e8f3	-0.1893652
147	0xbe01fe5f	-0.12694691
148	0xbde1194d	-0.10991154
149	0x3debbb0c	0.11510286
150	0xbdd5e5aa	-0.104441956
151	0x3e08e6fb	0.13369362
152	0xbe042118	-0.1290325
153	0xbd9af379	-0.0756597
154	0x3dd1ba29	0.10240585
155	0xbe16d992	-0.14731434
156	0xbd87c46a	-0.0662926
157	0x3dce9ea6	0.100888535
158	0x3e0ebf31	0.13940121
159	0xbd58a984	-0.052896038
160	0xbdc2bfb1	-0.095092185
161	0x3dc40bb5	0.095725454
162	0xbe247ffb	-0.16064446
163	0xbdfd2871	-0.12361229
164	0xbd88d3ce	-0.066810235
165	0xbcb2ef18	-0.021842524
166	0x3d9688e2	0.07350327
167	0xbe27ded8	-0.16393602
168	0xbe0f8df0	-0.14018989
169	0xbd69cb9c	-0.057078943
170	0xbce24f3c	-0.027625673
171	0xbe0dd7b9	-0.13851823
172	0xbde61b98	-0.11235732
173	0xbe01e771	-0.12685944
174	0x3db0616c	0.08612332
175	0x3e81a3af	0.25320193
176	0x3dc8342e	0.097755775
177	0x3e0ec016	0.13940462
178	0xbdb595f5	-0.08866493
179	0xbe0d5f6d	-0.13805933
180	0x3da0ab68	0.07845193
181	0x3deaf84a	0.11473139
182	0xbe02da14	-0.12778503
183	0x3e1ade01	0.1512375
184	0xbd8ffce1	-0.07030655
185	0x3e052163	0.13001017
186	0xbddd169e	-0.107953295
187	0x3de89687	0.11356836
188	0x3d69dc98	0.05709514
189	0x3e108ca5	0.14116152
190	0x3d9b6d7a	0.0758924
191	0x3e0afd76	0.1357325
192	0x3dbd683f	0.09248399
193	0x3e119b6f	0.1421945
194	0xbe067144	-0.13129145
195	0x3dbc898a	0.09205921
196	0xbd9522db	-0.07282039
197	0xbe0948cc	-0.13406676
198	0x3d697522	0.056996472
199	0xbd506098	-0.05087337
200	0xbdc79f25	-0.09747151
201	0x3dd77c42	0.10521747
202	0xbc88eaba	-0.016713489
203	0x3e0ff6a0	0.14058924
204	0x3dd7d999	0.1053955
205	0xbe00921b	-0.12555735
206	0xbd9affbd	-0.075683095
207	0xbe2d1234	-0.16901475
208	0xbe0f97f1	-0.14022805
209	0xbdeab0c7	-0.11459499
210	0xbdfccbbf	-0.12343549
211	0x3dd0d5d0	0.101970315
212	0x3dffd249	0.124912806
213	0x3dae5d2c	0.08513865
214	0x3dac78bc	0.08421466
215	0x3dc9f1e7	0.09860592
216	0x3e0c9d3f	0.1373186
217	0x3dada06e	0.08477865
218	0x3be1d630	0.006891988
219	0x3d98dc4d	0.07463894
220	0x3d2b2ad6	0.0417889
221	0xbdda4b36	-0.106588766
222	0xbdaca82f	-0.08430516
223	0xbe4e8be3	-0.2017055
224	0xbdadbaf9	-0.08482928
225	0x3dabfacf	0.08397447
226	0x3e262ce4	0.16228062
227	0x3dc9bee3	0.09850862
228	0x3da320e7	0.0796526
229	0x3db07e7f	0.08617877
230	0x3cd5a2d6	0.026078623
231	0xbe351561	-0.17683937
232	0x3e0b3411	0.1359408
233	0xbdba607c	-0.09100434
234	0xbe04e6b3	-0.1297863
235	0xbd5d10b0	-0.053970993
236	0xbe447f74	-0.19189245
237	0x3e20c91d	0.15701719
238	0x3d97ec02	0.07418062
239	0x3de3d9f4	0.11125556
240	0x3e10eb78	0.14152324
241	0xbe11c138	-0.14233863
242	0xbdb394d3	-0.0876862
243	0xbdadbaf7	-0.08482926
244	0x3e0473d0	0.12934804
245	0xbdc4c939	-0.09608693
246	0xbdaf8b7a	-0.08571525
247	0xbd5ae76c	-0.053443357
248	0x3dfd8e5e	0.1238067
249	0xbe1296d1	-0.14315344
250	0x3db22c77	0.08699887
251	0xbd46288d	-0.048378516
252	0xbdc72d34	-0.09725419
253	0x3ddec949	0.10878236
254	0xbe160bb8	-0.14652908
255	0x3babce6a	0.0052431123
