model/HAC_defensive_left_EHMI/p.pth (torch, 279442 bytes, 12 tensors)

net.0.weight f4 [128, 14]
0	0xbe21d394	-0.15803367
1	0x3e0e22a1	0.13880397
2	0x3dfd7d59	0.12377424
3	0x3dae559d	0.08512423
4	0x3d5451f6	0.051835977
5	0xbe1ebe82	-0.1550236
6	0xbcde634b	-0.027146956
7	0x3e3f9126	0.18707713
8	0xbe1e1a60	-0.15439749
9	0x3e84cd87	0.25938055
10	0xbdfc6544	-0.123240024
11	0xbd54bd3e	-0.051938288
12	0xbd0451f4	-0.03230472
13	0x3d8c8244	0.06860784
14	0xbd11ce8f	-0.03559738
15	0xbc3cd6ab	-0.01152579
16	0x3e69ece8	0.22844279
17	0xbe26f7d4	-0.16305476
18	0x3e17742d	0.14790411
19	0xbe1d5c04	-0.15367132
20	0x3b18897b	0.0023275304
21	0xbe3ae4a9	-0.1825129
22	0x3e3247db	0.17410223
23	0x3d6569fe	0.056009285
24	0xbe6e1cfb	-0.23253243
25	0xbdce1938	-0.10063404
26	0x3e2644d2	0.1623719
27	0x3e257a07	0.16159831
28	0x3dfb78b0	0.12278879
29	0x3e074a8b	0.1321203
30	0x3decf578	0.11570257
31	0x3e97e220	0.29664707
32	0x3daa4464	0.08313826
33	0x3e7d7615	0.24752076
34	0x3e8384a6	0.2568714
35	0xbd252394	-0.040317133
36	0x3e5d311a	0.21600762
37	0xbe4995e1	-0.1968608
38	0xbde578fc	-0.112047166
39	0x3e404c63	0.18779139
40	0xbe5bf914	-0.21481735
41	0x3e6355f4	0.22200757
42	0x3e4733a9	0.194533
43	0xbdff74cd	-0.1247345
44	0xbd61d9ae	-0.055139236
45	0xbe13a9f2	-0.14420298
46	0x3e93d778	0.28875327
47	0x3d76f8b8	0.06029579
48	0x3c0481de	0.008087603
49	0x3e216fe6	0.15765342
50	0x3e4c4ed4	0.19951946
51	0xbe3e9479	-0.18611325
52	0x3e06409a	0.13110581
53	0x3e5b800f	0.21435569
54	0xbe21da71	-0.15805985
55	0x3ddb1d70	0.10698974
56	0xbe3e8e59	-0.18608989
57	0xbd94cddf	-0.07265829
58	0xbc16d5b9	-0.009206229
59	0x3e418af6	0.18900666
60	0x3e5887b7	0.21145521
61	0xbe8e1b74	-0.2775532
62	0x3d74a487	0.059727218
63	0x3e74c667	0.2390381
64	0xbe84cbf9	-0.2593687
65	0xbe56633f	-0.20936297
66	0x3e8c1614	0.27360594
67	0xbe1be0fa	-0.1522254
68	0xbe82d61a	-0.25553972
69	0x3d196d5b	0.037457805
70	0x3ae72858	0.0017635925
71	0xbc4e3e7e	-0.0125881415
72	0x3df6c310	0.12048924
73	0xbe7c141e	-0.24617049
74	0x3dce51f4	0.10074225
75	0x3deaf877	0.11473172
76	0x3e684936	0.22684178
77	0xbd5ebd28	-0.054379612
78	0xbd60152b	-0.054707687
79	0x3e634be7	0.22196923
80	0xbe48bee1	-0.19604065
81	0xbe6b4540	-0.22975636
82	0x3e500a15	0.20316346
83	0xbe221d1f	-0.15831421
84	0xbe890162	-0.26758868
85	0xbe1fd397	-0.15608059
86	0xbd7cc34d	-0.06170969
87	0x3e00e6cf	0.12588046
88	0xbe8c1850	-0.273623
89	0xbe4cd480	-0.20002937
90	0xbd81829a	-0.063237384
91	0xbe6b5096	-0.2297996
92	0x3cb8ed24	0.022574015
93	0xbc42af14	-0.011882562
94	0x3cfde19c	0.030991368
95	0x3e7d6e3e	0.24749085
96	0x3e832ec7	0.25621626
97	0x3c0c1874	0.008550752
98	0xbe79de6e	-0.24401256
99	0xbe11c439	-0.14235009
100	0x3e123a1f	0.14279984
101	0x3e8b5349	0.2721198
102	0x3d5fa8c0	0.054604292
103	0xbd85784f	-0.06517088
104	0x3e16078e	0.1465132
105	0x3e2b0caf	0.16704057
106	0xbd75d781	-0.060019974
107	0x3e315447	0.17317306
108	0xbe0df064	-0.13861233
109	0xbc278906	-0.01022554
110	0x3e492a9d	0.19645162
111	0x3dd85057	0.105621986
112	0xbe81b2a6	-0.2533161
113	0x3c6022a0	0.01368013
114	0xbca00898	-0.019535348
115	0xbe0aa1d6	-0.13538298
116	0x3e25c48a	0.16188255
117	0x3dec519c	0.11539003
118	0xbe6c1c72	-0.23057726
119	0x3db177dc	0.086654395
120	0xbc056ec0	-0.008144081
121	0xbe555666	-0.2083374
122	0xbe7f1716	-0.2491115
123	0xbd5aca80	-0.053415775
124	0xbe4202ab	-0.1894633
125	0xbe04e93f	-0.12979601
126	0x3e503156	0.2033132
127	0xbe6f21dd	-0.23352762
128	0x3ddba13f	0.107241146
129	0x3cf51465	0.029916951
130	0x3a8018d7	0.0009773028
131	0x3e901de0	0.28147793
132	0xbe7c5469	-0.24641575
133	0xbdb07733	-0.086164854
134	0x3e20870e	0.1567652
135	0x3a37a334	0.0007005215
136	0xbc8e4834	-0.017368414
137	0x3d50dbdf	0.050990935
138	0x3dfa8255	0.1223189
139	0x3e0551bf	0.13019465
140	0x3dc97030	0.09835851
141	0xbccf7299	-0.0253232
142	0x3d18e5c9	0.037328515
143	0xbe91b002	-0.28454596
144	0xbe1516b4	-0.14559442
145	0xbc2fa12d	-0.01071958
146	0xbe05154d	-0.12996407
147	0x3e87e43d	0.2654132
148	0x3e87fe11	0.26561025
149	0x3e85b057	0.261111
150	0x3de42c11	0.111412175
151	0x3e7a3641	0.24434759
152	0xbdab874d	-0.08375416
153	0x3e2a4a90	0.16630006
154	0x3d25521b	0.040361505
155	0xbdb13dd0	-0.08654368
156	0xbd10555a	-0.035237648
157	0xbd81256a	-0.06305964
158	0xbe330782	-0.17483333
159	0xbe54b727	-0.20772992
160	0xbe4738a2	-0.19455197
161	0x3dd82850	0.10554564
162	0xbc552fef	-0.013011917
163	0xbdd269ce	-0.10274087
164	0xbe81500b	-0.2525638
165	0x3dc68631	0.09693564
166	0x3e3df954	0.18552142
167	0x3d10fa8f	0.0353952
168	0x3b84d28f	0.004053421
169	0xbe3a4e27	-0.18193875
170	0xbc9af9b0	-0.018917888
171	0xbe01e309	-0.12684263
172	0xbd0b8683	-0.034063827
173	0x3e1de024	0.15417534
174	0x3e85d044	0.26135457
175	0x3dab6da3	0.08370521
176	0xbe26b2fe	-0.16279218
177	0xbe221456	-0.1582807
178	0xbc905675	-0.01761935
179	0x3de361c5	0.111026324
180	0x3e06a39f	0.13148354
181	0xbd60a7da	-0.054847576
182	0xbe724841	-0.23660375
183	0x3c639875	0.013891329
184	0xbe751c59	-0.23936595
185	0x3dd9d0d7	0.10635536
186	0x3e5411cb	0.20709912
187	0x3e98b103	0.2982255
188	0x3d6e1508	0.058125526
189	0xbd802835	-0.06257669
190	0x3e1875ae	0.14888641
191	0x3e2a918b	0.16657083
192	0xbd543d9c	-0.051816568
193	0x3e070efb	0.13189308
194	0x3dc5c2f4	0.09656325
195	0x3dd415e5	0.103557386
196	0x3e46e389	0.19422735
197	0xbdb60fea	-0.08889754
198	0xbd41961c	-0.047262296
199	0x3e635a9c	0.22202533
200	0x3e90bfd7	0.28271362
201	0x3e936166	0.28785247
202	0x3d50dfd7	0.05099472
203	0x3e7b73f2	0.24555948
204	0xbcc70e5e	-0.024298843
205	0xbe49dd92	-0.19713429
206	0x3df5aa5d	0.11995385
207	0x3de2e16b	0.11078151
208	0x3dc67708	0.09690672
209	0x3d8be851	0.0683142
210	0x3e3a0dbb	0.181693
211	0xbd9c98c5	-0.07646326
212	0x3cd16f1b	0.025565675
213	0xbdb4cc5d	-0.08828042
214	0x3e4f20dd	0.2022738
215	0x3d803b08	0.06261259
216	0x3cb14674	0.02164004
217	0x3dea04ce	0.11426698
218	0x3df13271	0.11777199
219	0x3e6ae449	0.22938646
220	0x3c07ba04	0.008284096
221	0xbdbe1fe2	-0.09283425
222	0x3db300ef	0.087404124
223	0xbe7205cd	-0.23635025
224	0xbd2352c9	-0.039873872
225	0xbe583459	-0.21113719
226	0x3e33588d	0.17514248
227	0x3e8121f6	0.25221223
228	0xbd1135e6	-0.035451792
229	0x3d0a917a	0.033830144
230	0x3e7e9918	0.24863088
231	0xbe12e7cb	-0.14346235
232	0x3e1bd2cf	0.15217136
233	0xbd1e3ac9	-0.03863028
234	0x3bf42ead	0.0074518532
235	0xbe6d6dd9	-0.23186435
236	0xbe27c740	-0.16384602
237	0x3e419530	0.18904567
238	0xbe44bf01	-0.19213487
239	0xbe88eb82	-0.26742178
240	0xbe4551be	-0.19269463
241	0xbe1c5f5b	-0.1527075
242	0xbd704fc3	-0.058669817
243	0x3e11782a	0.14205995
244	0xbe202dd7	-0.15642487
245	0x3d474bcb	0.048656266
246	0xbd70666b	-0.058691423
247	0xbe1078bf	-0.14108561
248	0xbe3cb301	-0.1842766
249	0x3d97be64	0.07409361
250	0x3e7a2069	0.24426426
251	0xbd240171	-0.040040437
252	0x3e1e9642	0.15487006
253	0xbd93919a	-0.07205506
254	0xbe575128	-0.21027052
255	0x3e3fbb93	0.18723898

net.0.bias f4 [128]
0	0x3e05f547	0.13081847
1	0x3e7835bd	0.2423925
2	0xbdbb009d	-0.09130976
3	0xbe150b81	-0.1455517
4	0xbda53a6b	-0.08067783
5	0xbd93883b	-0.07203718
6	0x3e31f70d	0.17379399
7	0x3e4e8e96	0.2017158
8	0xbbcd3f80	-0.0062636733
9	0x3e0cc86e	0.13748333
10	0x3e402fe0	0.18768263
11	0x3e6a729b	0.22895281
12	0xbe4bf8d7	-0.19919144
13	0x3dd7b46c	0.105324596
14	0xbd2a6d65	-0.041608233
15	0xbc05cc25	-0.008166348
16	0xbe5c53e4	-0.21516377
17	0x3dd5e02e	0.104431495
18	0x3e38540a	0.18000808
19	0x3e71d145	0.23614986
20	0x3a3f3ef2	0.00072954514
21	0xbe0ccc93	-0.13749914
22	0x3da9b404	0.082862884
23	0x3daeb452	0.08530487
24	0x3e1677c3	0.14694123
25	0x3c96f7de	0.01842874
26	0xbe4ec3de	-0.20191905
27	0xbe06d011	-0.13165309
28	0x3e71f7e4	0.23629719
29	0x3c1aad7e	0.009440778
30	0x3d8b14d8	0.06791085
31	0xbe4df947	-0.20114623
32	0x3b68cfba	0.0035524205
33	0xbda95b51	-0.0826937
34	0xbe57995b	-0.21054594
35	0xbe140d20	-0.14458132
36	0xbd4a4009	-0.049377475
37	0x3e841721	0.25798896
38	0x3d9c63f9	0.07636256
39	0xbdd03352	-0.101660386
40	0xbdbcff98	-0.09228438
41	0xbd718749	-0.05896691
42	0xbe183ae8	-0.14866221
43	0x3e2bbefa	0.1677207
44	0x3d81b9b4	0.06334248
45	0xbe2f4607	-0.17116557
46	0xbe1f13f4	-0.15534955
47	0x3e7b28f8	0.24527347
48	0xbddc6207	-0.10760885
49	0x3dbc61cb	0.0919834
50	0x3e80b9c0	0.25141716
51	0xbe745c9a	-0.2386345
52	0x3db065a4	0.086131364
53	0xbe80140e	-0.250153
54	0x3e1dcb12	0.15409496
55	0xbd0ce0d8	-0.034394115
56	0x3e5836db	0.21114676
57	0xbda038c4	-0.07823327
58	0x3d39f2cc	0.045397565
59	0x3e56fb5d	0.20994325
60	0x3e7780b9	0.24170198
61	0xbda53e69	-0.080685444
62	0x3c12a408	0.008950241
63	0xbe6f4e8b	-0.23369806
64	0x3c4b0884	0.012392167
65	0x3e2feee9	0.1718098
66	0x3e568ee8	0.20952952
67	0xbe302605	-0.17202003
68	0xbe15ffe3	-0.14648394
69	0xbc1853c6	-0.009297317
70	0xbe0753a0	-0.13215494
71	0xbe5c0b44	-0.21488672
72	0x3c85e88c	0.016346239
73	0xbe20afb2	-0.15692022
74	0xbe84a890	-0.25909853
75	0xbd8a998e	-0.067675695
76	0x3e008f08	0.12554562
77	0xbe033a9f	-0.12815331
78	0x3e43b8f0	0.19113517
79	0x3dff9ee3	0.12481477
80	0xbe475b2e	-0.19468376
81	0x3e84d00d	0.2593998
82	0xbe0f3899	-0.13986434
83	0xbe6baac9	-0.23014368
84	0x3de4c643	0.11170628
85	0xbe503b0a	-0.20335022
86	0xbd775e49	-0.06039265
87	0xbd579db2	-0.052640624
88	0xbd6b1bcf	-0.057399567
89	0x3c656a9b	0.0140024675
90	0xbe13f881	-0.14450265
91	0xbddba958	-0.10725659
92	0x3e0e6794	0.139067
93	0xbe4a6246	-0.19764051
94	0xbe20593f	-0.15659045
95	0xbd89218c	-0.06695852
96	0xbc3c71e6	-0.011501765
97	0xbd08d2d0	-0.03340417
98	0x3e80f9a2	0.25190455
99	0xbc93ea33	-0.01805601
100	0x3e22a6b7	0.15883909
101	0x3c1f0a6e	0.0097070765
102	0xbe76a469	-0.24086155
103	0xbe31935c	-0.1734137
104	0x3e12a08b	0.14319055
105	0x3e89d8d5	0.26923242
106	0x3dbe36ee	0.09287821
107	0xbdfe7fac	-0.12426695
108	0x3db29e9f	0.08721661
109	0x3e8ce818	0.27520823
110	0x3e4e16e8	0.20125926
111	0xbdb4b5a2	-0.08823706
112	0x3b42d25b	0.0029727432
113	0x3cdb482b	0.02676781
114	0x3e76f56d	0.2411706
115	0xbc9f19ad	-0.019421423
116	0x3dc391e1	0.095493086
117	0xbe3a9f3c	-0.18224806
118	0x3e03d1ed	0.12873049
119	0x3db2f1bc	0.087375134
120	0x3e125e9f	0.14293908
121	0x3d2ec5bc	0.042669043
122	0x3ce6c609	0.028170602
123	0x3ddd1627	0.10795241
124	0x3e7b49ae	0.24539825
125	0x3c64478d	0.013933075
126	0x3d1557b9	0.036460612
127	0xbe3234dd	-0.17402978

net.2.weight f4 [128, 128]
0	0xbcc2f2b2	-0.023797367
1	0x3da8e289	0.08246333
2	0x3d4a950d	0.049458552
3	0xbc9846a3	-0.01858837
4	0x3d4323e5	0.047641654
5	0x3dd98b1d	0.10622237
6	0x3c70f887	0.014707691
7	0x3d8f3b26	0.069937035
8	0x3db4e02d	0.08831821
9	0x3da6bfb4	0.08142033
10	0x3d1088a8	0.035286576
11	0x3b4de525	0.0031417098
12	0xbc85c589	-0.016329544
13	0x3ca27ec1	0.019835832
14	0xbd5c5f63	-0.053801905
15	0x3ceb3e60	0.028716266
16	0xbd9e4971	-0.077288516
17	0xbd587eec	-0.052855417
18	0xbda992ad	-0.08279929
19	0x3d17748d	0.036976386
20	0x3d95f539	0.07322163
21	0x3d52e012	0.05148322
22	0xbcb40f20	-0.021979868
23	0xbd92ea60	-0.0717361
24	0xbdae5f52	-0.08514275
25	0xbb9d613b	-0.0048028505
26	0xbbd881f0	-0.0066072866
27	0x3d80d6af	0.06290948
28	0xbd9a8179	-0.07544226
29	0xbd962ebf	-0.07333135
30	0xbd55a29c	-0.05215703
31	0xbd76666c	-0.06015627
32	0x3d13370b	0.035941165
33	0x3d9254cb	0.07145079
34	0x3d06ac41	0.032879118
35	0xbd043450	-0.03227645
36	0x3dc4dac4	0.09612039
37	0x3d75274d	0.059851933
38	0x3d998cfc	0.07497594
39	0x3d153860	0.036430717
40	0x3cd7b838	0.02633296
41	0x3daafa7c	0.08348557
42	0x3d2f7efe	0.04284572
43	0x3d5c2f4f	0.053756054
44	0x3d7e7ec8	0.062132627
45	0xbdb87599	-0.09006805
46	0xbb48188c	-0.003053221
47	0xbd1e02b3	-0.038576793
48	0x3d2c4617	0.04205903
49	0xbbe6574d	-0.00702945
50	0xbbdaafab	-0.0066737733
51	0xbd525064	-0.051346198
52	0x3d6a0a8e	0.057138972
53	0x3cb2e360	0.021836936
54	0xbccc71fb	-0.024956694
55	0xbd00b277	-0.031420197
56	0x3d2a9292	0.041643687
57	0x3caaf310	0.020867854
58	0x3cdc299e	0.026875313
59	0xbb19473b	-0.0023388404
60	0xbcbe09c6	-0.02319802
61	0xbd07af72	-0.033126302
62	0xbd8b8b29	-0.06813652
63	0x3d1c1e8e	0.038115077
64	0x3d100aee	0.035166673
65	0x3d40a4d6	0.0470322
66	0xbd700cd7	-0.058605995
67	0x3dc35c60	0.095391035
68	0x3b176248	0.0023099352
69	0xbd8a9b8f	-0.06767952
70	0xbce0c975	-0.027439812
71	0xba695388	-0.0008900692
72	0x3d2680b8	0.0406501
73	0xbd3d0214	-0.04614456
74	0x3d5a99f6	0.053369485
75	0xbda76b63	-0.08174779
76	0x3d9cffa6	0.076659486
77	0x3d9a8a26	0.07545881
78	0xbd3aa454	-0.04556687
79	0xbd8e491c	-0.06947538
80	0x3c56bff9	0.013107293
81	0xbda5b106	-0.08090405
82	0xbcf601b4	-0.030030109
83	0x3db2b7c6	0.08726458
84	0x3d842e98	0.064541996
85	0x3d4b13d5	0.04957946
86	0xbb7d48bc	-0.003864809
87	0xbca3f62f	-0.02001485
88	0x3c5ca5d7	0.013467274
89	0xbd954f42	-0.07290508
90	0xbcf6e743	-0.030139571
91	0x3d9284d0	0.07154238
92	0x3da8a256	0.08234088
93	0x3d94700f	0.07247936
94	0x3cd99bf2	0.026563618
95	0x3d5fe165	0.054658312
96	0x3d3556a5	0.044272084
97	0xbd44fc63	-0.048092257
98	0xbd147cb1	-0.036251727
99	0xbcdb7759	-0.026790308
100	0xbba3abcc	-0.004994845
101	0x3d804d84	0.06264785
102	0x3cf71969	0.030163484
103	0x3d8a557d	0.06754587
104	0xbd82766a	-0.06370242
105	0xbd812073	-0.06305017
106	0x3d9f0133	0.077639006
107	0xbd61f563	-0.05516566
108	0x3cf04725	0.0293308
109	0x3d6b6f6c	0.057479307
110	0xbda21dd0	-0.079158425
111	0xbb635558	-0.003468832
112	0xbd3d85e5	-0.04627027
113	0x3d288aa0	0.041147828
114	0x3d84cc9b	0.06484338
115	0x3c5d18de	0.013494698
116	0xbd8d8478	-0.06910032
117	0x3d927ec6	0.07153086
118	0xbcab1d2f	-0.02088794
119	0xbd9e60b8	-0.077332914
120	0xbb4a254c	-0.0030844985
121	0x3d8c3e7a	0.06847854
122	0xbd794276	-0.060854398
123	0xbd37384b	-0.04473142
124	0x3d242dda	0.04008279
125	0xbd55276f	-0.05203956
126	0xbb9dfcd7	-0.0048214006
127	0x3d239c09	0.03994373
128	0xbbc7b1f0	-0.00609421
129	0xbd8bf000	-0.06832886
130	0x3dd09de4	0.10186365
131	0xbd4bdccf	-0.049771126
132	0x3c96406c	0.018341266
133	0x3d1989b0	0.037484825
134	0x3d968688	0.073498785
135	0x3d091567	0.033467676
136	0xbcb1493c	-0.021641366
137	0xbd71742f	-0.058948692
138	0xbd8f9333	-0.07010498
139	0xbd8cc744	-0.068739444
140	0x3c38794a	0.011259386
141	0x3cba300c	0.022727989
142	0xbd1dc1ca	-0.03851489
143	0xbd456467	-0.048191454
144	0x3d83ad58	0.06429547
145	0x3d1c7ad1	0.038203064
146	0xbd2e8f9d	-0.04261743
147	0xbd4d4351	-0.050113026
148	0xbd719a3a	-0.058984973
149	0x3d2f0e36	0.042738162
150	0xbc95c260	-0.018281162
151	0xbd8dcd1f	-0.06923889
152	0xbbda5965	-0.0066634887
153	0xbdaa3ac0	-0.08311987
154	0x3d72d2ee	0.05928319
155	0xbc4e5287	-0.012592918
156	0x3cabc3d8	0.020967409
157	0xbc8caa15	-0.017170945
158	0x3dac9145	0.084261455
159	0x3cbb0566	0.022829723
160	0xbb9103dc	-0.004425509
161	0x3c24965d	0.010045615
162	0x3d88d6b0	0.066815734
163	0xbc8a5b8e	-0.01688936
164	0xbd390135	-0.045167167
165	0xbd059f01	-0.03262234
166	0x3d53026b	0.051515978
167	0xbda1f530	-0.07908094
168	0x3d4d458d	0.050115157
169	0xbc587a7a	-0.013212794
170	0xbc7cce43	-0.015430036
171	0xbbb03770	-0.0053777024
172	0xbdad6f1f	-0.0846846
173	0x3d57f25a	0.05272136
174	0x3d8d8905	0.069109
175	0x3d9b15da	0.07572527
176	0xbd100cb7	-0.035168376
177	0xbd089199	-0.033341978
178	0x3c8f04b0	0.01745829
179	0xbc950960	-0.018192947
180	0x3d50e65c	0.051000938
181	0x3cdf46ab	0.027255377
182	0x3ce1541c	0.027505927
183	0x3c0d8185	0.008636837
184	0x3d0f301b	0.034957986
185	0x3d7b10f2	0.061295457
186	0xbd0448b1	-0.032295886
187	0x3c828aac	0.015935265
188	0x3d0543b8	0.032535285
189	0x3cb7e96f	0.022450177
190	0xbd9d0029	-0.07666046
191	0xbcdf3e76	-0.027251463
192	0x3da4c700	0.08045769
193	0xbd7c382e	-0.061577015
194	0xbc090168	-0.008362152
195	0xbd87e442	-0.066353336
196	0x3d708d9a	0.05872879
197	0xbc4b8d74	-0.012423862
198	0x3da30b8a	0.07961185
199	0x3dba1a75	0.090870775
200	0xbdb253ad	-0.08707366
201	0x3cfaf911	0.030636342
202	0xbd507ef6	-0.05090233
203	0xbd9f24a7	-0.07770663
204	0x3d0e1d18	0.034695715
205	0xbd93d673	-0.07218637
206	0x3d07fd16	0.033200346
207	0x3d080fb0	0.033218086
208	0x3d38580c	0.045005843
209	0x3c13e314	0.009026308
210	0x3d9eff05	0.07763485
211	0x3d8e835f	0.06958651
212	0xbb9b162b	-0.0047328672
213	0xbd990890	-0.07472336
214	0x3c6d6775	0.014489998
215	0xbd67fe12	-0.056638785
216	0xbc19e1a6	-0.009392178
217	0x3d668aa6	0.05628457
218	0xbc1c9230	-0.009556338
219	0xbda8b3d4	-0.082374245
220	0xbc6335fe	-0.013867853
221	0xbda9c924	-0.08290318
222	0x3da0c565	0.0785015
223	0xbcbf6537	-0.023363693
224	0x3d9b61b1	0.075869925
225	0xbd9289da	-0.07155199
226	0x3d88bd78	0.06676763
227	0xbcd1d74a	-0.025615353
228	0x3d885704	0.06657222
229	0xbce17c93	-0.027525222
230	0xbd947ab5	-0.07249967
231	0xbb153aa7	-0.0022770555
232	0x3d2fcfb0	0.042922676
233	0x3c9bd827	0.019023968
234	0xbd7bf6ee	-0.061514787
235	0xbda12d5d	-0.078699805
236	0xbc8f060d	-0.01745894
237	0xbc848954	-0.016178764
238	0x3d154dc8	0.03645113
239	0xbd6d2c93	-0.057903837
240	0xbdb00399	-0.08594436
241	0xbc6c5deb	-0.014426689
242	0xbd5cd8d1	-0.05391771
243	0xbd99e93b	-0.07515188
244	0xbd69291f	-0.05692398
245	0x3aa6cc99	0.001272577
246	0xbd535623	-0.05159582
247	0xbb940954	-0.0045177136
248	0x3d7e84ce	0.06213837
249	0xbcfbddbd	-0.030745381
250	0xbcc638a8	-0.024196938
251	0x3d653450	0.055958092
252	0x3c31f53a	0.010861689
253	0xbce1ec10	-0.027578384
254	0xbc6b83fb	-0.014374728
255	0xbc4cac54	-0.012492258

net.2.bias f4 [128]
0	0xbd866cba	-0.06563707
1	0xbd958aa6	-0.07301836
2	0x3cb7fbc4	0.022458918
3	0xbda4cf11	-0.08047307
4	0x3da2a4de	0.07941602
5	0xbda4bf17	-0.0804426
6	0xbcfe543b	-0.031046024
7	0xbd873e9d	-0.066037394
8	0xbca5503c	-0.02017986
9	0x3d9b34ec	0.075784534
10	0xbdb31f8b	-0.08746251
11	0xbd8f707b	-0.07003876
12	0xbcee44db	-0.029085567
13	0xbd6d826b	-0.057985704
14	0xbc8dd47c	-0.017313235
15	0xbc48a040	-0.012245238
16	0xbd3e8748	-0.046515733
17	0xbda2a0ad	-0.07940803
18	0xbda2c8bf	-0.079484455
19	0x392313cb	0.00015552265
20	0x3d7efac0	0.062250853
21	0x3d10eae6	0.035380267
22	0x3ca2d9ab	0.019879183
23	0x3db2d50d	0.087320425
24	0xbd884525	-0.06653813
25	0x3cd2ebaa	0.025747139
26	0x3c657b50	0.014006451
27	0xbb20d940	-0.0024543554
28	0x3d930a37	0.07179683
29	0xbd2b7a33	-0.041864585
30	0xbc8cdb98	-0.017194554
31	0x3d267b0f	0.0406447
32	0x3cda532d	0.02665099
33	0x3d3666e6	0.044531725
34	0x3c9c7e7d	0.019103283
35	0x3dbcfdb9	0.09228081
36	0x3db10e1a	0.08645268
37	0x3c28af44	0.010295693
38	0xbd52144c	-0.051288888
39	0x3b678c90	0.0035331585
40	0x3d916668	0.070996106
41	0xbda2efa9	-0.07955868
42	0xbd7f77d4	-0.062370136
43	0xbd94fa88	-0.072743475
44	0x3c0a42eb	0.008438806
45	0xbbfef80c	-0.0077810343
46	0xbd897904	-0.06712535
47	0xbd4306c7	-0.047613885
48	0xbd83fe21	-0.064449556
49	0xbd3ef8c9	-0.04662398
50	0x3d2b9e83	0.041899215
51	0x3daef4c7	0.08542781
52	0xbd66e06d	-0.056366373
53	0x3d0ae571	0.03391022
54	0x3c295f0d	0.010337603
55	0xbd5786aa	-0.05261866
56	0x3c37f76f	0.011228426
57	0xbd924ae8	-0.071431935
58	0xbc7077c4	-0.014676992
59	0x3d890262	0.066899076
60	0xbd146bce	-0.036235623
61	0xbc407144	-0.011745755
62	0x3d1aa19c	0.03775178
63	0xbc814fdb	-0.015785148
64	0xbd9743a1	-0.07385946
65	0x3cf6991d	0.030102307
66	0xbd3b3c15	-0.045711596
67	0xbdb77ba0	-0.089591265
68	0xbdb069cc	-0.08613929
69	0x3d6766d4	0.05649455
70	0xbbceb3a6	-0.006308037
71	0xbd553652	-0.052053757
72	0xbc8816dd	-0.016612465
73	0xbd073aa9	-0.033014927
74	0x3d3a852d	0.045537163
75	0xbc91851a	-0.017763663
76	0xbdb01462	-0.08597638
77	0xbda31494	-0.07962909
78	0xbd1369f5	-0.03598972
79	0xbd003b8f	-0.0313068
80	0x3d40f913	0.047112536
81	0x3db36769	0.08759958
82	0x3d88b93a	0.06675954
83	0x3db50eee	0.08840738
84	0xbd4c7997	-0.049920645
85	0xbcbb5a0a	-0.022870082
86	0xbc71550a	-0.014729748
87	0xbc25d93b	-0.010122593
88	0xbc3709d8	-0.0111717805
89	0x3d90c45c	0.070687026
90	0x3d8548bd	0.06508014
91	0xbd97521b	-0.07388707
92	0xbcd4832d	-0.025941456
93	0x3c35551f	0.011067658
94	0xbc60ebb1	-0.013728068
95	0xbd9ba8c5	-0.076005496
96	0x3db4b2e2	0.08823182
97	0xbd44b8a5	-0.048027653
98	0xbce24d2f	-0.027624695
99	0xba40dc9a	-0.0007357091
100	0xbcebb447	-0.028772486
101	0x3d827094	0.06369129
102	0xbd1a0ec8	-0.037611753
103	0x3cc82276	0.024430495
104	0xbcb87963	-0.02251882
105	0xbd8ec091	-0.06970323
106	0x3d861cdf	0.065484755
107	0x3d8f827f	0.07007312
108	0x3d56c002	0.052429207
109	0xbda179f1	-0.078845866
110	0xbcebaf07	-0.028769983
111	0x3d966217	0.07342928
112	0x3dace065	0.08441237
113	0x3dbefd46	0.09325652
114	0xbd27de15	-0.04098328
115	0x3c8205f4	0.01587198
116	0x3c804398	0.015657231
117	0x3d4156ad	0.0472018
118	0x3cd5c104	0.026093014
119	0x3dbd6365	0.092474736
120	0xbbad7b6e	-0.005294255
121	0x3d6b62b5	0.05746718
122	0x3dcd2c36	0.10018198
123	0x3dac9802	0.08427431
124	0x3de023df	0.10944342
125	0x3b98a23c	0.0046580117
126	0x3d9e6190	0.07733452
127	0x3b055b42	0.0020348583

net.4.weight f4 [128, 128]
0	0x3daebf6d	0.08532605
1	0xbd9b26a1	-0.07575727
2	0xbcaa6f85	-0.02080513
3	0x3d52be40	0.051450968
4	0xbda039cf	-0.07823526
5	0xbdac040d	-0.0839921
6	0x3d373434	0.04472752
7	0x3d5eddf6	0.054410897
8	0x3b1cb8cc	0.0023913858
9	0x3d48060a	0.048833884
10	0xbd823599	-0.06357879
11	0xb9d2e4b6	-0.00040224724
12	0xbda966b8	-0.08271545
13	0x3d8aef68	0.06783944
14	0xbd3a45e7	-0.04547682
15	0x3d0e6f5a	0.034774162
16	0xbc16a3c6	-0.00919432
17	0xbbcea9c0	-0.006306857
18	0x3c887920	0.01665932
19	0x3c4e9089	0.012607702
20	0xbc91887d	-0.017765278
21	0x3cbe758c	0.02324941
22	0x3d86b82a	0.06578095
23	0xbd94d1e8	-0.07266599
24	0x3c8c39f3	0.017117476
25	0x3d31c9d1	0.043405358
26	0x3d850bc7	0.06496387
27	0x3d4d63ba	0.050143935
28	0xbd14d11e	-0.036332242
29	0x3d49df77	0.04928538
30	0x3d7bb1bf	0.06144881
31	0xbd1bf6cf	-0.038077172
32	0xbba26fa0	-0.0049571544
33	0xbce345d1	-0.027743252
34	0x3d39eb54	0.045390442
35	0x3cdbf81d	0.026851708
36	0x3d69a75a	0.057044365
37	0xbd8fdd3c	-0.07024619
38	0x3d3e7263	0.046495806
39	0x3d24ff3a	0.040282466
40	0x38ebd25e	0.00011244857
41	0x3d71a322	0.058993466
42	0xbd6e663d	-0.05820297
43	0x3d45f33c	0.04832767
44	0xbd5067ec	-0.050880358
45	0xbd9a9984	-0.07548812
46	0x3ce160d0	0.027511984
47	0x3d0bba4e	0.03411322
48	0xbb7594a0	-0.003747262
49	0xbd979b91	-0.07402719
50	0x3d12bca4	0.035824433
51	0x3cbde6b6	0.0231813
52	0xbd934272	-0.07190408
53	0xbc435fb0	-0.011924669
54	0xba1b84e3	-0.00059325824
55	0xbc336e7d	-0.010951635
56	0xbda2d26e	-0.079502925
57	0xbd0d9f74	-0.034575894
58	0x3c258354	0.010102112
59	0x3c941e88	0.018080965
60	0xbdaafd67	-0.08349114
61	0x3da21cc7	0.07915645
62	0x3b050c7e	0.0020301635
63	0x3d83e1fb	0.06439587
64	0xbd4b8fcb	-0.04969768
65	0x3d833301	0.064062126
66	0x3d9f048e	0.077645406
67	0xbd3a9bbf	-0.045558687
68	0xbd2159ad	-0.039392162
69	0xbd92b33b	-0.07163092
70	0x3cb4a000	0.02204895
71	0xbcf92a9d	-0.030415827
72	0x3d553a56	0.052057587
73	0x3d23b8d8	0.039971203
74	0xbc348ada	-0.011019433
75	0xbd3027ae	-0.04300659
76	0xbda31498	-0.07962912
77	0x3d5c4516	0.053776823
78	0x3cf874d4	0.030329145
79	0x3c7a0408	0.01525975
80	0xbcc29d42	-0.023756627
81	0xbd67a94e	-0.056557946
82	0xbd2c0e02	-0.042005546
83	0xbc8684e0	-0.016420782
84	0x3cff815c	0.031189613
85	0xbd398df4	-0.045301393
86	0xbd138ea9	-0.036024723
87	0x3cfaed6a	0.030630786
88	0x3d848695	0.06470982
89	0x3c1ec85c	0.009691324
90	0xbbf46920	-0.007458821
91	0xbd06e68e	-0.032934718
92	0x3cd77828	0.026302412
93	0xbd120e23	-0.035658013
94	0x3d9afb4d	0.07567463
95	0xbc81d7b9	-0.015849935
96	0x3b616e1a	0.00343979
97	0xbd05b7d6	-0.032646023
98	0xbcd85ab8	-0.026410446
99	0x3dae022f	0.0849651
100	0xbdb09fd5	-0.086242355
101	0x3da37bff	0.07982635
102	0xbce72b78	-0.02821897
103	0x3d45b72c	0.04827039
104	0xbc71ef77	-0.0147665655
105	0x3cc20627	0.023684574
106	0xbc9ef979	-0.019406067
107	0xbd942c4f	-0.07235014
108	0x3c7bfa46	0.015379494
109	0xbd2cdde6	-0.042203806
110	0xbd93355a	-0.071879104
111	0xbd954491	-0.07288469
112	0x3d112569	0.035436068
113	0x3d15c390	0.036563456
114	0x3d6bfd26	0.057614468
115	0x3d7ab546	0.061208032
116	0xbd232d90	-0.039838374
117	0x3c46d2c9	0.012135216
118	0xbd0f796f	-0.035027917
119	0xbd877237	-0.06613582
120	0x3d121f27	0.03567424
121	0xbc0655e1	-0.008199186
122	0xbd65758c	-0.056020305
123	0x3c5f31b0	0.013622686
124	0xbd2f7450	-0.042835534
125	0x3ccef70d	0.025264287
126	0xbb85950e	-0.0040766066
127	0x3d1d23b7	0.03836414
128	0x3d8fd31e	0.07022689
129	0xbccca8dd	-0.024982864
130	0x3d4e40ea	0.050354876
131	0xbd142bfe	-0.036174767
132	0x3d929f15	0.07159249
133	0x3c5a5b38	0.013327412
134	0xbc6a1fc4	-0.0142898
135	0x3d7f157f	0.06227636
136	0x3d92aa00	0.07161331
137	0x3d8ed293	0.069737576
138	0x3b80a03d	0.003925352
139	0x3de62aea	0.11238654
140	0xbd89ad04	-0.06722453
141	0x3d0a15d0	0.03371221
142	0x3cced1ec	0.025246583
143	0x3d32922a	0.043596424
144	0x3d6edaff	0.05831432
145	0x3dad396d	0.08458219
146	0x3b5381a0	0.0032273307
147	0x3c6e5652	0.014546948
148	0xbc029ac9	-0.007971474
149	0x3cc04304	0.023469456
150	0x3d42eb0f	0.04758745
151	0x3d8011b0	0.062533736
152	0x3c5b2bda	0.013377154
153	0x3da88076	0.08227627
154	0xbcd17208	-0.02556707
155	0x3b7f9960	0.003900133
156	0x3d9e8b23	0.07741382
157	0x3da1d5ad	0.079020835
158	0xbd14287e	-0.03617143
159	0xbd9b9fdf	-0.07598852
160	0x3dbdbddb	0.09264728
161	0x3d2ee7f3	0.042701673
162	0x3d33433a	0.043765284
163	0x3d07bd1d	0.033139337
164	0xbcb82947	-0.02248062
165	0xbd4fa657	-0.050695743
166	0x3ca00241	0.019532325
167	0xbdcf5717	-0.10124033
168	0x3d12beed	0.035826612
169	0x3da04b13	0.07826819
170	0xbd83252a	-0.06403573
171	0x3b800d26	0.0039078174
172	0x3dab87c6	0.08375506
173	0x3d5dd885	0.054161567
174	0x3d896b35	0.06709901
175	0x3d1ffb35	0.03905793
176	0xbd99f4dc	-0.07517406
177	0x3d9687c4	0.07350114
178	0x3c0664a2	0.008202704
179	0xbd576482	-0.052586086
180	0xbd1ee5cc	-0.03879337
181	0x3d29bb41	0.041438345
182	0x3cf85e6f	0.030318467
183	0xbd3b61e2	-0.045747645
184	0x3d19f322	0.037585385
185	0x3d7a0b56	0.061045967
186	0xbcfa46ae	-0.03055128
187	0xbcb7e392	-0.022447381
188	0xbcbd96fe	-0.023143288
189	0x3c173d18	0.0092308745
190	0x3da0328a	0.078221396
191	0x3d85040d	0.06494913
192	0x3c057988	0.008146651
193	0xbdd13cd0	-0.10216677
194	0xbbedb589	-0.0072543067
195	0xbd0296f0	-0.031882226
196	0xbdaa8591	-0.08326257
197	0xbd20413b	-0.03912471
198	0x3d263382	0.040576465
199	0xbc54ed1f	-0.012995987
200	0xbdac098b	-0.08400258
201	0xbd5ea687	-0.05435803
202	0xbbbbe480	-0.0057340264
203	0x3cb830b5	0.022484163
204	0x3d83c152	0.06433357
205	0xbdaf82eb	-0.085698925
206	0xbd5ba75b	-0.0536264
207	0xbafc1bd0	-0.0019234363
208	0x3d81e1f8	0.06341928
209	0x3d5313da	0.051532604
210	0x3d5d298b	0.053994697
211	0xbd54b920	-0.05193436
212	0x3c7b5598	0.015340231
213	0xbd96daa4	-0.07365921
214	0xbbe2df2f	-0.006923578
215	0xbd814817	-0.06312578
216	0xbd4172c6	-0.047228597
217	0xbd50c590	-0.05096966
218	0xbb5fb300	-0.0034133792
219	0xbd75023d	-0.059816588
220	0x3d171f3d	0.036895026
221	0xbde505b4	-0.111827284
222	0xbca536b1	-0.02016768
223	0xbd806d2d	-0.06270824
224	0xbbd35a05	-0.00644994
225	0x3be52bb9	0.0069937375
226	0x3ddda008	0.10821539
227	0xbc3e6507	-0.0116207665
228	0x3da60ec1	0.08108283
229	0x3dca609f	0.0988171
230	0xbd1cb240	-0.03825593
231	0x3dbe06d2	0.092786446
232	0xbc689bc6	-0.0141972955
233	0xbd9a3691	-0.07529939
234	0x3d645282	0.055742748
235	0x3d6da3a3	0.058017384
236	0x3cea7627	0.028620793
237	0x3d735bac	0.059413597
238	0x3d927c87	0.07152658
239	0xbd073e1d	-0.03301822
240	0x3d63260b	0.055456202
241	0x3dd202c0	0.10254431
242	0x3db9b16f	0.09067046
243	0xbda369bc	-0.079791516
244	0x3c3cd261	0.011524768
245	0xbd72d55f	-0.059285518
246	0x3c99de0e	0.018782642
247	0xbd1c10bd	-0.0381019
248	0x3c3cbd8f	0.011519804
249	0x3d21e8a9	0.039528523
250	0x3b79d70a	0.0038122558
251	0x3d13392c	0.035943195
252	0x3da7f134	0.08200303
253	0x3dd0577c	0.10172936
254	0xbb4a1e04	-0.0030840645
255	0xbd03bdcd	-0.03216343

net.4.bias f4 [128]
0	0x3d937207	0.07199483
1	0xbc9fe886	-0.019520056
2	0xbd1a06c5	-0.037604112
3	0xbd35d520	-0.044392705
4	0x3c6123b0	0.013741419
5	0xbd95b19e	-0.073092684
6	0xbd94f81e	-0.07273887
7	0xbcbb15b2	-0.022837494
8	0x3d590c60	0.052990317
9	0x3d95f5ce	0.07322274
10	0x3d1f5167	0.03889599
11	0x3b921ac6	0.004458758
12	0x3d9e6820	0.07734704
13	0xbd0305a5	-0.031987805
14	0xbcb1ad6a	-0.021689136
15	0xba81bd1e	-0.000989828
16	0xbd6e2336	-0.05813905
17	0x3da28edf	0.07937407
18	0x3b3237c3	0.002719388
19	0x3ce848d2	0.028355036
20	0xbcc5f29f	-0.024163542
21	0x3d566695	0.052343924
22	0x3d6cc93f	0.05780911
23	0x3dd8f010	0.10592663
24	0xbc0d7424	-0.008633647
25	0x3c7865ab	0.015160958
26	0x3d824a33	0.06361809
27	0x3cb3212d	0.021866405
28	0x3da82e90	0.08212006
29	0x3c1dfd35	0.009642889
30	0x3cb90169	0.02258368
31	0x3dc38d70	0.095484614
32	0x3db20e40	0.08694124
33	0x3d23c6a1	0.03998435
34	0x3ce66f8b	0.02812936
35	0x3affe824	0.0019524139
36	0xbda1e39a	-0.0790474
37	0x3c0ceb7d	0.008601067
38	0xbd885dea	-0.06658538
39	0x3db028be	0.08601521
40	0x3dc3c84f	0.0955969
41	0x3db593f5	0.08866111
42	0xbbcb49a1	-0.0062038456
43	0x3d58450f	0.052800234
44	0x3d7fe326	0.062472485
45	0xbd7f70c8	-0.062363416
46	0x3d46f59b	0.04857407
47	0x3d61af08	0.055098563
48	0x3d99e3dc	0.07514164
49	0xbd23b925	-0.03997149
50	0xbc733474	-0.014844049
51	0x3c1a6d2b	0.009425442
52	0x3d2bf967	0.041985895
53	0x3bee86c5	0.0072792494
54	0x3d4d6912	0.05014903
55	0x3d8d51af	0.069003455
56	0x3db849da	0.08998461
57	0x3dd03400	0.10166168
58	0xbcd72d4a	-0.026266713
59	0xbdaad7bd	-0.0834193
60	0xbc457ba7	-0.012053407
61	0xbd19246f	-0.03738826
62	0x3d877109	0.066133566
63	0xbda0ab68	-0.07845193
64	0x3d2091f2	0.039201684
65	0x3d94ba95	0.0726215
66	0x3daf13df	0.08548712
67	0x3d565ba7	0.0523335
68	0x3d659de1	0.05605877
69	0x3d2132e1	0.039355163
70	0xbd28f721	-0.041251305
71	0xbccf847b	-0.025331726
72	0xbc2cb19a	-0.01054039
73	0x3dbb5bc6	0.09148364
74	0xbd10a66e	-0.03531497
75	0x3d32f43c	0.04368995
76	0xbb989e64	-0.0046575535
77	0xbccd10f7	-0.025032504
78	0x3d895dad	0.0670732
79	0x3c68bfa1	0.014205844
80	0x3d03589b	0.032066923
81	0xbc9aa407	-0.018877042
82	0xbbb84965	-0.0056239837
83	0xbbad8235	-0.005295063
84	0x3ce2cdf4	0.027686097
85	0xbc9d72d6	-0.019219797
86	0xbcdfad81	-0.027304413
87	0x3dc40ffc	0.09573361
88	0xbd82a4d5	-0.063790955
89	0x3db2ba31	0.087269194
90	0xbd36f588	-0.04466775
91	0x3d818176	0.06323521
92	0xbdb491d4	-0.08816877
93	0x3c322b42	0.010874571
94	0x3dc7f8d3	0.09764256
95	0xbd89bcb8	-0.06725448
96	0x3c368f57	0.011142573
97	0xbd471a3c	-0.048609003
98	0x3d36a676	0.044592343
99	0x3d9f1f0e	0.07769595
100	0x3ccb0f2a	0.024787504
101	0xbcf4321a	-0.029809047
102	0x3dbf2abd	0.093343236
103	0xbcc748b5	-0.024326662
104	0x3ca6f243	0.020379191
105	0x3d17cc82	0.03706027
106	0xbd6fa249	-0.058504377
107	0x3d557f10	0.05212313
108	0x3d839a7f	0.06425952
109	0x3d892a5e	0.06697534
110	0x3d13b9cf	0.036065873
111	0xbb9a56dc	-0.0047100615
112	0x3d42b3d4	0.04753478
113	0x3c4fceb8	0.012683563
114	0x3c36e873	0.011163819
115	0xbda66ef0	-0.081266284
116	0x3d1c1af8	0.038111657
117	0x3d71db4a	0.05904702
118	0x3d213ba1	0.039363507
119	0x3bc72d90	0.0060784295
120	0x3db35ced	0.087579586
121	0xbc7f978b	-0.0156000955
122	0x3d8e7f24	0.06957844
123	0xbc9af7cf	-0.018916992
124	0x3d879fa0	0.06622243
125	0x3d96595a	0.07341261
126	0xbd9d510a	-0.076814726
127	0x3d0a7687	0.033804443

net.6.weight f4 [256, 128]
0	0x3db4489f	0.08802914
1	0x3d9c44c0	0.076303005
2	0xbd0e87b4	-0.034797385
3	0xbd6682cd	-0.056277085
4	0x3d32fee6	0.04370012
5	0xbcde93d0	-0.027170092
6	0xbcbe71c1	-0.023247601
7	0xbcc3ec5c	-0.023916416
8	0xbd509ff3	-0.05093379
9	0xbda61775	-0.08109943
10	0xbd800d06	-0.06252484
11	0xbd7eda47	-0.062219884
12	0xbd017765	-0.031608004
13	0x3d8c19db	0.06840869
14	0xbcc7dae9	-0.024396377
15	0xbda52e66	-0.080654904
16	0x3da5f5c5	0.081035174
17	0x3da4c94e	0.08046208
18	0xbd9557be	-0.07292126
19	0xbd937a2a	-0.07201035
20	0xbd6f3a35	-0.05840512
21	0x3d91d585	0.07120804
22	0x3d27a111	0.04092509
23	0x3cbaf715	0.022822896
24	0xbc2c79aa	-0.010527054
25	0xbdab52eb	-0.08365425
26	0xbd059295	-0.032610495
27	0x3c9fe2f2	0.019517396
28	0x3c01d448	0.007924147
29	0x3d293dbb	0.041318636
30	0xbdb1b283	-0.086766265
31	0x3c37e180	0.011223197
32	0xbd930390	-0.07178414
33	0xbc9e47e0	-0.019321382
34	0x3d8d132b	0.068884216
35	0x3cbf2227	0.023331715
36	0x3ca13cec	0.01968237
37	0xbd415e84	-0.047209278
38	0xbc9f6a84	-0.01945997
39	0x3da695ef	0.08134066
40	0xbd5801eb	-0.052736204
41	0x3d2c116d	0.042008806
42	0xbd1758bf	-0.03694987
43	0x3cb31a04	0.021862991
44	0xbd95521a	-0.0729105
45	0x3d53d162	0.051713355
46	0x3b771a1f	0.0037704778
47	0x3c867562	0.016413394
48	0xbcf82f09	-0.030295866
49	0x3a262684	0.0006338137
50	0x3d539fd1	0.051666085
51	0xbc9ca2f2	-0.019120667
52	0xbce7c3da	-0.028291631
53	0xbbabcc05	-0.005242827
54	0xbd68b8ed	-0.056816984
55	0x3d289177	0.04115435
56	0xbba9a7b7	-0.005177464
57	0xbd814d72	-0.063136
58	0xbd906b4e	-0.07051717
59	0xbb478780	-0.0030445755
60	0xbda3999e	-0.079882845
61	0x3ac794ae	0.0015226805
62	0xbda13171	-0.07870758
63	0x3d835f5f	0.06414675
64	0xbd77f9c2	-0.060540922
65	0xbc648faa	-0.013950268
66	0x3d898e93	0.06716647
67	0xbd8f1b74	-0.06987658
68	0x3d52d7d3	0.051475357
69	0xbd739cad	-0.05947559
70	0xbd5346b5	-0.051581103
71	0xbd86d368	-0.06583291
72	0x3cbdca54	0.023167767
73	0x3d9a8708	0.075452864
74	0x3d539684	0.051657215
75	0x3c99d2e9	0.018777328
76	0xbd6fe33c	-0.058566317
77	0xbd129d2b	-0.03579442
78	0xbd8ef67c	-0.06980607
79	0xbdb66368	-0.08905679
80	0x3d133d94	0.035947397
81	0x3b9a86dd	0.004715784
82	0x3d8c3bf7	0.06847375
83	0x3d8d563e	0.06901215
84	0x3d017020	0.03160107
85	0x3da4b83e	0.08042954
86	0x3d8a419d	0.06750796
87	0xbc1aeb83	-0.009455564
88	0xbd6849a5	-0.056710858
89	0xbd9f82fb	-0.077886544
90	0x3c125d24	0.008933339
91	0x3d617db2	0.055051513
92	0x3ca05748	0.019572869
93	0x3c80647f	0.01567292
94	0xbda152a0	-0.078770876
95	0x3d08ffde	0.03344714
96	0x3c105134	0.008808423
97	0xbcc047fc	-0.023471825
98	0x3d320f96	0.043471895
99	0x3da934dc	0.08262035
100	0xbd7a463e	-0.061102144
101	0x3cd12544	0.025530465
102	0x3d8c5387	0.06851869
103	0xbd9609e0	-0.07326102
104	0xbdadfdd1	-0.08495677
105	0xbd16ff40	-0.03686452
106	0x3d8c2e75	0.068447985
107	0x3ca24cc0	0.019811988
108	0xbcb604f4	-0.022219159
109	0xbd1de58c	-0.03854899
110	0xbd323185	-0.043504257
111	0xbd0140e8	-0.03155604
112	0xbc65d850	-0.014028624
113	0x3bed84f3	0.007248515
114	0xbda53a85	-0.08067802
115	0x3d11f29e	0.03563177
116	0x3c6975a3	0.014249238
117	0xbd285ffb	-0.04110716
118	0xbc811269	-0.015755849
119	0xbd8d883f	-0.069107525
120	0x3d2dfd6e	0.042478018
121	0xbcc35ade	-0.02384704
122	0x3d1a17ff	0.03762054
123	0xbd03a472	-0.03213925
124	0x3c14816e	0.009064062
125	0xbd02eae6	-0.031962298
126	0x3d916575	0.070994295
127	0xbda98bfa	-0.082786515
128	0x3d791863	0.060814273
129	0xbd0cefeb	-0.03440849
130	0xbd72d3db	-0.059284072
131	0xbc395568	-0.011311866
132	0x3bf90030	0.0075988993
133	0xbd93c21e	-0.07214759
134	0xbcc592d1	-0.02411786
135	0xbd9d2fe8	-0.07675153
136	0xbb154599	-0.002277708
137	0xbdb16c54	-0.0866324
138	0xbd611e52	-0.054960556
139	0xbd8537c4	-0.06504777
140	0xbd6a95d1	-0.057271782
141	0xbcdcd3aa	-0.026956398
142	0x3cf2666f	0.02958986
143	0x3d11ca69	0.035593424
144	0xbd846c22	-0.06465937
145	0xbd277422	-0.040882237
146	0x3d1c4e96	0.038160883
147	0x3dbcfc61	0.09227825
148	0x3c43905b	0.0119362725
149	0xbdb5e878	-0.088822305
150	0x3d1c4c24	0.03815855
151	0xbcf17cfe	-0.029478546
152	0xbd13af5d	-0.03605591
153	0xbce23272	-0.027611945
154	0x3d758816	0.059944235
155	0x3d81baa4	0.06334427
156	0xbdbad13b	-0.09121939
157	0xbd6ea3e4	-0.058261767
158	0x3ddff9aa	0.109362915
159	0x3db1b90b	0.08677872
160	0x3adeea31	0.001700705
161	0xbd8d360f	-0.068950765
162	0x3dac586a	0.08415301
163	0xbd37093e	-0.04468655
164	0x3d941373	0.07230272
165	0x3d3f2346	0.0466645
166	0xbc9ac850	-0.018894345
167	0x3d7e1757	0.062033977
168	0x3dc3c207	0.09558492
169	0x3c963281	0.018334629
170	0x3d79fb58	0.061030716
171	0x3db084fb	0.08619114
172	0xbd1039ec	-0.03521149
173	0x3d0a77ca	0.033805646
174	0x3dbe429f	0.09290051
175	0x3d708fc5	0.05873086
176	0xbcd4e234	-0.025986768
177	0xbd6c12cf	-0.057635125
178	0xbd0c9cb2	-0.034329124
179	0xbd20f71f	-0.039298173
180	0xbda11528	-0.07865363
181	0x3d95a6e6	0.07307224
182	0xbca58996	-0.020207208
183	0xbd50ff18	-0.051024526
184	0x3dbca219	0.09210605
185	0x3d8ab497	0.06772726
186	0xbd4585f5	-0.048223455
187	0xbcf556fd	-0.029948706
188	0xbd8069f3	-0.06270208
189	0x3dc54a59	0.09633321
190	0x3b9b4420	0.0047383457
191	0x3c6850b8	0.014179401
192	0x3d8ffe2b	0.070309006
193	0x3d957d7e	0.07299326
194	0xbbe31763	-0.006930278
195	0xbda355e2	-0.07975365
196	0xbd6627f7	-0.056190457
197	0x3d420f16	0.04737767
198	0xbc81f611	-0.015864404
199	0xbd881011	-0.066436894
200	0x3ce6317c	0.028099768
201	0x3db5ca57	0.08876484
202	0x3cc041ec	0.023468934
203	0xbc756270	-0.014977083
204	0x3d466405	0.04843523
205	0xbd95b507	-0.07309919
206	0x3b3c5b01	0.0028740766
207	0x3b9006c9	0.00439534
208	0x3dd82577	0.10554021
209	0xbd23fae5	-0.040034194
210	0xbc7ab3a1	-0.015301616
211	0x3d8c1bc0	0.068412304
212	0x3d9fcd57	0.07802837
213	0x3cc6b07a	0.024254072
214	0xbcf69515	-0.030100385
215	0x3d90c4f5	0.070688166
216	0xbd921f5e	-0.07134889
217	0xbd2a6029	-0.04159561
218	0x3da7f492	0.08200945
219	0xbb9c95e7	-0.004778612
220	0xbcc57174	-0.02410195
221	0x3d2840be	0.041077368
222	0xbd0c1dd1	-0.034208123
223	0xbd4d82e6	-0.050173663
224	0x3cdd8403	0.027040487
225	0x3a4a1200	0.00077083707
226	0x3d2c499e	0.042062394
227	0xbd86e1a2	-0.06586005
228	0x3d9f65a9	0.07783062
229	0x3da8be68	0.08239442
230	0x3c94f630	0.018183798
231	0xbdb93115	-0.09042565
232	0x3c2bc5f2	0.010484206
233	0xbc901ccb	-0.017591855
234	0xbdac4fc4	-0.084136516
235	0xbcf76393	-0.030198848
236	0x3a38bef6	0.00070474984
237	0x3d87bb7f	0.06627559
238	0x3b84ec6b	0.0040565035
239	0xbd80d6bd	-0.06290958
240	0xbd8bb6d5	-0.06821982
241	0x3dce501c	0.100738734
242	0x3db2b6d0	0.08726275
243	0x3d76e152	0.060273476
244	0x3dc1198a	0.09428699
245	0xbcbc8741	-0.023013713
246	0x3d969faf	0.07354676
247	0x3c49e498	0.012322567
248	0xbc245300	-0.010029554
249	0xbd34e7f1	-0.04416651
250	0xbd14d68d	-0.036337424
251	0xbda3650b	-0.07978257
252	0xbc95b0d2	-0.018272791
253	0xbac03620	-0.0014664568
254	0x3d19ca95	0.037546713
255	0x3d39ae6c	0.045332357

net.6.bias f4 [256]
0	0xbcb0c9eb	-0.021580657
1	0x3d80a029	0.06280548
2	0xbcbb19ac	-0.02283939
3	0xbda5250c	-0.08063707
4	0x3dcb1d11	0.09917653
5	0xbcd5d683	-0.026103264
6	0x3ca98290	0.02069214
7	0xbd4d91a3	-0.050187718
8	0xbbe13240	-0.0068724453
9	0x3d3ea123	0.04654039
10	0x3c1212f6	0.008915653
11	0x3c61655e	0.013757078
12	0xbd82f401	-0.06394196
13	0xbd768c16	-0.06019219
14	0x3d306d9e	0.04307329
15	0xbd908c1e	-0.07057975
16	0x3cb85a2c	0.022503935
17	0x3d9895ca	0.07450445
18	0xbd7ed8ce	-0.06221848
19	0xbcc920b3	-0.024551725
20	0x3d045cc2	0.032315023
21	0x3cd2e2a0	0.025742829
22	0xbda114d4	-0.07865301
23	0xbc9a19a5	-0.018811056
24	0x3da1ed27	0.07906561
25	0x3d93f561	0.07224537
26	0xbd5adddf	-0.05343425
27	0xbd490819	-0.04907999
28	0xbd4df67a	-0.050283886
29	0xbad98440	-0.00165952
30	0x3db156d7	0.086591415
31	0xbd3b4618	-0.045721143
32	0xbdb2d55e	-0.08732103
33	0x3d87ea6f	0.066365115
34	0xbc8534ff	-0.016260622
35	0xbd88698c	-0.066607565
36	0xbd5c190e	-0.05373483
37	0xbd4048e2	-0.046944506
38	0xbda64038	-0.081177175
39	0xbca13230	-0.019677252
40	0xbcb8c4cc	-0.022554778
41	0x3d4a2453	0.049351048
42	0xbce9f008	-0.028556839
43	0x3da978f9	0.08275027
44	0x3d8d08e9	0.06886465
45	0xbdadc0fb	-0.08484074
46	0x3c7e765c	0.015531149
47	0x3d086223	0.033296715
48	0x3d131663	0.03591002
49	0x3d9f3634	0.0777401
50	0xbd99b70b	-0.07505616
51	0xbd4aa686	-0.049475215
52	0x3c84f11c	0.016228251
53	0xbc4c4aa7	-0.01246897
54	0xbd08646d	-0.0332989
55	0xbba98c25	-0.0051741772
56	0x3d9f2a0d	0.077716924
57	0x3c0bee5d	0.008540717
58	0x3db58295	0.08862797
59	0x3d0b9230	0.034074962
60	0x3d32ece7	0.04368296
61	0x3d805df5	0.06267921
62	0xbc9c9c18	-0.0191174
63	0x3c7c6283	0.015404346
64	0x3d885f1c	0.06658766
65	0x3d7be94c	0.061501786
66	0x3d2d4829	0.042305145
67	0x3d925a29	0.07146103
68	0x3db730a8	0.08944827
69	0x3c1cd67d	0.009572622
70	0xbd92b903	-0.071641944
71	0x3d78fb84	0.06078674
72	0x3bbeb304	0.00581968
73	0xbd5fd70e	-0.05464845
74	0xbd849898	-0.064744174
75	0x3c886cf0	0.016653508
76	0x3d58845b	0.0528606
77	0xbcaba14d	-0.020950938
78	0xbd2e7dad	-0.042600323
79	0x3d9a6613	0.07539
80	0x3dbeeee7	0.09322911
81	0xbdae5f07	-0.08514219
82	0x3d939384	0.07205871
83	0x3d1bde48	0.03805378
84	0x3b54e719	0.0032486378
85	0xbd93efdb	-0.07223483
86	0xbaef8fd4	-0.0018277117
87	0x3d4fb3b3	0.050708484
88	0xbc724452	-0.014786797
89	0x3c2752d8	0.010212623
90	0xbc059b0f	-0.008154645
91	0x3c8c4c8b	0.017126342
92	0xbd250e3c	-0.040296778
93	0xbcb7d95b	-0.02244251
94	0xbd73cff7	-0.059524503
95	0x3a9f0dc0	0.0012134835
96	0xbd9a74a0	-0.07541776
97	0x3d5a6ce6	0.05332651
98	0xbcdbd73d	-0.026836032
99	0x3d83d155	0.06436411
100	0x3d879f94	0.06622234
101	0x3d4eb443	0.05046488
102	0x3d5d0d5b	0.053967815
103	0xbd8168d4	-0.063188225
104	0xbbf8be5c	-0.007591052
105	0x3bc4b9e1	0.006003604
106	0xbb60acca	-0.0034282678
107	0xbd99b114	-0.07504478
108	0x3c0878fe	0.008329628
109	0x3d8ac01c	0.06774923
110	0xbccc73a2	-0.024957482
111	0x3ca7ce05	0.02048398
112	0xbd94f273	-0.07272806
113	0x3d82738a	0.063696936
114	0x3d8a824a	0.06763132
115	0x3b4123f0	0.0029470883
116	0x3d80cc67	0.06288987
117	0x3db4d46f	0.08829581
118	0x3b120188	0.0022278745
119	0x3966b042	0.0002200017
120	0x38fb177c	0.00011972987
121	0x3d57b55d	0.052663196
122	0x3c3d3619	0.011548542
123	0x3d42ae34	0.047529414
124	0xbd234972	-0.039864965
125	0xbcafe1fb	-0.02147006
126	0x3dbc1c30	0.09185064
127	0xbd683929	-0.056695137
128	0xbca30218	-0.01989846
129	0x3d375c46	0.044765733
130	0xbc348348	-0.011017628
131	0xbc7885eb	-0.015168647
132	0xbd239916	-0.039940916
133	0x3c48cb77	0.012255541
134	0xbd9a9f32	-0.07549895
135	0xbd6187be	-0.055061094
136	0x3c7a682c	0.015283626
137	0xbccbb5d0	-0.024866968
138	0xbda062d6	-0.078313515
139	0xbd836ea8	-0.064175904
140	0x3bb78c20	0.005601421
141	0xbd67addd	-0.056562293
142	0xbd30b1d4	-0.04313834
143	0x3d3a2801	0.045448307
144	0xbc91e2d8	-0.017808363
145	0xbd94a9d7	-0.07258957
146	0x3d961048	0.07327324
147	0xbd4349ff	-0.04767799
148	0xbd9fecf9	-0.07808871
149	0x3d1bc32c	0.038027927
150	0x3d8df093	0.069306515
151	0x3cb997fa	0.022655476
152	0x3da2d0f6	0.079500124
153	0x3d5a8f7b	0.05335949
154	0xbc8f456c	-0.017489158
155	0xbd64197d	-0.05568837
156	0xbce706ce	-0.028201487
157	0x3b968c2f	0.004594348
158	0x3d8f38ed	0.069932796
159	0x3d443bfb	0.047908764
160	0xbda77585	-0.08176712
161	0x3b85a7c4	0.004078837
162	0xbd8c431c	-0.068487376
163	0xbcc447c8	-0.02396001
164	0x3db41869	0.08793718
165	0xbd7d48da	-0.061837055
166	0xbd44f1e0	-0.048082232
167	0x3d86a9f1	0.065753825
168	0xbd4a367e	-0.049368374
169	0x3d788d83	0.06068183
170	0xbcb04d8f	-0.021521358
171	0xbda49cd9	-0.08037729
172	0xbd4301d9	-0.047609184
173	0xbd8446d4	-0.06458822
174	0xbc18a191	-0.009315864
175	0x3d1a9a55	0.03774484
176	0x3db21d17	0.08696955
177	0xbd8a0abd	-0.067403294
178	0xbd933d74	-0.07189456
179	0xbd0c5523	-0.03426088
180	0xbbb3f995	-0.005492399
181	0x3ce7393b	0.028225532
182	0x3d2380b7	0.039917674
183	0x3d955be9	0.07292921
184	0xbc88e87a	-0.016712416
185	0x3d162cb2	0.03666372
186	0xbd1fc366	-0.039004706
187	0x3d035c88	0.032070667
188	0xbca40c8b	-0.020025512
189	0xbd8cc7ae	-0.068740234
190	0x3d1f5146	0.038895868
191	0xbc59c05e	-0.013290493
192	0x3ce4bf0f	0.027923135
193	0xbd7548b7	-0.0598838
194	0x3d13c060	0.036072135
195	0xbcf4945c	-0.0298559
196	0x3b432734	0.0029778006
197	0x3db6d685	0.08927635
198	0x3db999a3	0.09062507
199	0xbcf219c4	-0.029553302
200	0xbd5c9a59	-0.053858135
201	0xbbb432a3	-0.0054992004
202	0x3c4b6bd6	0.012415847
203	0x3d238f50	0.039931595
204	0xbbb168de	-0.0054141125
205	0xbd7fdcc8	-0.062466413
206	0x3b0c92e1	0.0021449851
207	0xbae3f836	-0.0017392698
208	0xbca8da06	-0.020611774
209	0x3d587317	0.052844133
210	0xbce2ddaa	-0.027693588
211	0x3db53d70	0.08849609
212	0xbd384f22	-0.044997342
213	0x3dbfa12e	0.093569145
214	0xbda9e759	-0.08296079
215	0xbdb2c46a	-0.08728869
216	0x3942b600	0.00018569082
217	0xbdb99361	-0.090613134
218	0xbce9abb0	-0.02852425
219	0x3dc269b0	0.094928145
220	0xbcea6009	-0.028610246
221	0xbcfc48ae	-0.030796375
222	0xbd741305	-0.05958845
223	0xbda13e93	-0.07873263
224	0x3c38bba8	0.0112752095
225	0x3d2f466e	0.042791776
226	0x3d2d521a	0.042314626
227	0x3d11fd99	0.03564224
228	0x3d655621	0.055990342
229	0x3c7e97a4	0.015539084
230	0xbbeaf490	-0.0071702674
231	0x3dab2302	0.083562866
232	0x3d520153	0.051270794
233	0xbd4a14df	-0.04933631
234	0x3d542124	0.051789418
235	0x3c25d712	0.010122078
236	0xbd743b7e	-0.05962705
237	0xbd5ab2bc	-0.05339311
238	0x3c41afb8	0.01182168
239	0xbc0737f0	-0.008253083
240	0x3c4bbdd0	0.012435392
241	0x3db33f55	0.08752314
242	0x3d19f587	0.03758767
243	0xbd608dbd	-0.054822672
244	0xbda2030c	-0.079107374
245	0xbcbbc355	-0.02292029
246	0x3d8411f2	0.06448735
247	0xbc866fd0	-0.016410738
248	0xbd35f8b7	-0.044426646
249	0xbd864813	-0.06556716
250	0xbbd502a1	-0.0065005575
251	0xbca77ab0	-0.020444244
252	0xbdaba1b7	-0.08380454
253	0xbd1d49fe	-0.038400643
254	0x3d4caf01	0.049971584
255	0xbd118626	-0.035528325
