model/HAC_defensive_left_EHMI/p_level0.pth (torch, 278278 bytes, 10 tensors)

net.0.weight f4 [128, 13]
00000000: 1706 8a3e ffd5 16be fa1c 05be 30ad e33d
00000010: 26c4 02be 8f81 85be 42db 643e 049c c13d
00000020: 0605 363e c00c 7b3d 98ca 1dbe 16ad 08be
00000030: 345c b43d 428a e1bd eec1 cebd 742e 1cbe
00000040: 8c9d 443e 0a33 23be b473 b5bd 26a7 77be
00000050: 0ad6 37be 5c53 553e e558 53be 5884 263d
00000060: 908f d13c ed1e 40be 8034 c13d c794 88be
00000070: c0a6 c9bc 3045 b23c c342 17be 3824 5e3e
00000080: 748a 2bbe 122f 84be 602d 56bc 8022 413e
00000090: b82d 8a3d 60f5 27bd 5fc1 4ebe 18da df3d
000000a0: 52bc 2d3e 9a64 673e 0da2 33be a229 783e
000000b0: 35d1 843e 18b9 1b3d fcbb b53d c868 3c3d
000000c0: ecea e93d ec40 3abe c050 65bd 0063 b0bc
000000d0: ac64 f73d 2e5c 46be f0ad 9cbd 76e8 6b3e
000000e0: 418d 893e 70ee 9d3c ae5b 7fbe 9a8c 31be
000000f0: 3066 093d a823 5c3d c0ad 88be e9c7 1bbe
00000100: 6c8d b63d 12e4 1e3e fa27 753e 6426 03be
00000110: 78f2 f83d 6037 323e b812 67bd c109 53be
00000120: ec97 19bd 4867 673d ee29 4abe 3457 e13d
00000130: badc 0ebe 5e83 783e e6e3 8ebd 00b5 23bc
00000140: 1abe 173e b4fa 1dbd 50d2 1f3d a61e 52be
00000150: 10bc 6f3d 4ecc 7c3e 587d 3f3e d0cb e73d
00000160: 9047 37bd 003b 3abb a0b7 1abc 20f7 e9bd
00000170: cef9 553e 7522 76be 7ccb 5f3e 24a3 093e
00000180: 47e0 0abe ea22 e6bd 802b ad3d 1244 1abe
00000190: 5ed8 71be 2c13 b8bd 5ac9 dcbd e010 6a3c
000001a0: fb27 23be 4746 1cbe 1fae 73be 84f9 25bd
000001b0: 8087 243b cac2 cfbd 32c1 443e 5408 8dbe
000001c0: f6cb 633e bdad 803e dd26 04be 84d6 90bd
000001d0: 56bb 7c3e 9a30 80bd 5e6c 34be 6c2c 5abd
000001e0: 9ab1 1c3e d870 843d c020 883b 3eb3 123e
000001f0: 46e9 653e fbc2 4dbe 326c 84be 209f d1bc
00000200: 6858 e3bd 403d e6bb a047 3c3c e2e7 c0bd
00000210: b12e 5cbe c61b 673e b0f1 b93c aada fdbd
00000220: 90ac 193d 36e9 6b3e 490f 63be 7419 16be
00000230: d0bd afbc c8a3 ab3d c3e3 843e 002c 4fbc
00000240: fdf9 803e 4863 73be aa9a 703e f637 783e
00000250: 874d 1dbe 10db f1bd d019 f63d 4068 64bc
00000260: 9c56 52be 2812 90bd 6440 59be 8029 713c
00000270: eae8 7dbe 84b2 50be c847 a43d cefb 10be
00000280: 5088 3fbd 0a48 debd 88ac 043d f8ed 91bd
00000290: e259 623e a8c3 453d a8f5 163d 0088 7e3d
000002a0: 90b7 f7bd 030e 4ebe e0a7 8dbe 2a8d 6c3e
000002b0: e8b9 4ebe 42ad 5cbe 6cf5 a73d cb75 88be
000002c0: c06c 8abc dffd 5ebe 0c32 2f3e 282b f13d
000002d0: a06a f8bd 58ee 153e e614 6d3e 70da 333d
000002e0: 1a88 2e3e 3eb0 343e 3e57 c0bd ba67 e4bd
000002f0: 9a41 83be 2083 babc 8afc 523e 888b 403d
00000300: 38bc 093d 3400 d23d bb13 66be 859e 54be
00000310: 682f 923d 1252 7b3e 586c 3ebe 4d3d 67be
00000320: e084 b0bd 6ced ee3d 7855 dd3d 3ce5 febd
00000330: ba53 043e 7788 8c3e 0ad1 ddbd 0488 d3bd
00000340: 7cd5 143e b4ea 5fbe 589a 43bd 5894 1a3e
00000350: feaa 84be 34cd 73bd 2cd7 f03d ca7a 453e
00000360: 3cc4 35bd e6ed 443e bb95 22be fee1 3d3e
00000370: 221b 6e3e aa06 04be 6eb1 3e3e 2094 47be
00000380: 8c9c f83d cc16 ccbd 1a56 8abe 9c53 fb3d
00000390: 83fa 823e 0066 c23d eccc 363e b55c 893e
000003a0: 22bd 76be 820a c9bd a447 933d abdd 35be
000003b0: 16d8 88be 4091 d5bb b418 4bbd 5aae 33be
000003c0: da7a 1b3e 9603 f3bd 5829 253d f0d7 37be
000003d0: bed6 7e3e 50ef 553e 9904 3bbe 929a 333e
000003e0: 2c73 5bbd f470 15be 68de 653d dcee c7bd
000003f0: 48e7 d7bd 3517 89be 6456 b73d 002c 363c
0.2695777 -0.1473007 -0.12999335 0.11117017 -0.12770137 -0.26075408 0.22349265 0.09453586
0.17775354 0.061291456 -0.15409315 -0.13347277 0.08806649 -0.11012699 -0.10095583 -0.15252095
0.19200724 -0.15937439 -0.08859959 -0.24184856 -0.17952743 0.2083258 -0.2063938 0.040653557
0.025581151 -0.18761797 0.09433842 -0.26676008 -0.024615645 0.021761507 -0.14771561 0.21693504
-0.16752034 -0.25817162 -0.013072342 0.18860817 0.067470014 -0.041005492 -0.20190953 0.1093027
0.1696637 0.2259697 -0.17542286 0.24234632 0.25940862 0.038018316 0.08873746 0.045998365
0.11421761 -0.18188828 -0.055985212 -0.021531582 0.120797485 -0.19371101 -0.076503634 0.23037896
0.2686558 0.019278735 -0.24937317 -0.17338791 0.03354472 0.053744942 -0.2669506 -0.15212978
0.08913693 0.1551669 0.23941031 -0.12807614 0.12155622 0.17403936 -0.056414336 -0.2060919
-0.0374984 0.05649498 -0.19742557 0.11002961 -0.13951388 0.24268863 -0.06977062 -0.009991884
0.14818612 -0.038569167 0.03901893 -0.20519504 0.05852896 0.24687311 0.18700159 0.11318171
-0.04474598 -0.0028416514 -0.009443194 -0.114240885 0.20896074 -0.24036582 0.21854967 0.1344114
-0.13562118 -0.11237128 0.084555626 -0.1506503 -0.23617694 -0.08988032 -0.10780592 0.01428625
-0.1593322 -0.15261184 -0.2379689 -0.04052116 0.0025105178 -0.10144575 0.19214323 -0.27545416
0.22245774 0.25132552 -0.1290545 -0.070721656 0.24680838 -0.0625927 -0.17619464 -0.05326502
0.15302125 0.06466836 0.0041542947 0.14326188 0.22452268 -0.2009391 -0.25863796 -0.025588572
-0.111008465 -0.0070263445 0.011491686 -0.09419228 -0.21502186 0.22569188 0.022698253 -0.123952225
0.037518084 0.23038182 -0.221738 -0.14658147 -0.021452814 0.08380848 0.25955018 -0.012644768
0.25190726 -0.23768342 0.234965 0.24240097 -0.15361606 -0.11809361 0.12016642 -0.013940871
-0.20540851 -0.07034713 -0.2121597 0.014719367 -0.24795881 -0.20380598 0.08021504 -0.14158556
-0.046760857 -0.10853584 0.0323911 -0.07125467 0.221046 0.048282295 0.03685537 0.06214142
-0.12095559 -0.20122533 -0.2766714 0.23100725 -0.20188105 -0.21550468 0.082011074 -0.2665237
-0.01689756 -0.21776532 0.17108935 0.117758095 -0.12129712 0.14641702 0.23152503 0.04390949
0.17044106 0.17645356 -0.0939164 -0.11152597 -0.25635988 -0.022767603 0.20604149 0.047008067
0.033626765 0.10253945 -0.22468464 -0.20763595 0.07137948 0.24543026 -0.18596017 -0.22581978
-0.08619094 0.116663784 0.108073175 -0.12446067 0.12922564 0.27447864 -0.10830887 -0.10328677
0.14534563 -0.21866876 -0.047754616 0.15095651 -0.25911707 -0.05952187 0.11759791 0.19285122
-0.044376597 0.19231376 -0.1587743 0.1854324 0.23252538 -0.12893167 0.18622372 -0.19490099
0.12139234 -0.09965286 -0.27018815 0.122718066 0.2558175 0.09492111 0.17851609 0.26828542
-0.24095586 -0.09816457 0.07191399 -0.17760341 -0.2672736 -0.0065175593 -0.049584106 -0.17546979
0.15183583 -0.11865918 0.04032263 -0.17953467 0.24886605 0.20892072 -0.18263473 0.17539433
-0.053576633 -0.1459387 0.056120306 -0.09762356 -0.1054216 -0.26775518 0.089520246 0.011118889

net.0.bias f4 [128]
00000000: 9826 f83d e826 e8bd aac8 9dbd 9047 9a3d
00000010: 0964 0dbe 0bca 8b3e c8e8 663d 024c 223e
00000020: 68dc 26be 7f6e 2cbe 18ca 14be 057d 41be
00000030: 5538 853e 488d bd3d 9c45 3dbd 746b bf3d
00000040: 8851 4f3e 806d 1d3c 0014 a1b9 84bc c93d
00000050: 5240 50be 428b b2bd 201d e2bc 561d efbd
00000060: a005 f63c d68a 1b3e 760a ebbd fcd6 02bd
00000070: 12e7 6d3e d0cf c03d f2aa 5cbe 19b8 45be
00000080: c6f0 7b3e f07e efbc 6057 65bc 66e5 b8bd
00000090: 9ead ebbd 00dc d3bd f446 3bbd e86c 80bd
000000a0: 0492 f4bd a952 65be 1ce4 9c3d aa7e 253e
000000b0: 0eb2 bebd 1ec3 193e fa3d 4a3e b664 8bbd
000000c0: 1855 bd3d 763d 393e 306c 173d 4041 1fbc
000000d0: 420e 84bd e1ba 16be 3ca8 96bd 80e1 c33d
000000e0: a881 803d dcda a7bd 8d5a 813e 62a4 5fbe
000000f0: 28e7 dabd 4c04 203e 2693 3e3e 5203 90bd
00000100: c48f db3d 408f 1f3e 6e86 e7bd df81 65be
00000110: beb9 00be 899b 08be 40e5 823c b53d 833e
00000120: 31fb 84be a0ec 373e 0204 2d3e f4c6 ab3d
00000130: 1182 8dbe cc84 263e 50a5 18be 7210 133e
00000140: 12c7 133e 8e83 56be 6839 ff3d 5e23 32be
00000150: 9059 11bd a4e9 0cbd 2425 11bd 7585 883e
00000160: 0e37 6ebe 886b 543e e1f2 48be c439 2dbe
00000170: 387f 1cbe e433 2abe 61be 60be 025c 23be
00000180: 8e74 64be 8f16 863e 469a cdbd f3a7 32be
00000190: 06ad fabd c8ec 953d 74de d63d d456 2c3e
000001a0: e83a 48bd 747f 9d3d 5be7 8c3e 4819 7d3d
000001b0: c89e 063e 6e0a 8bbe 10e0 1a3e 2ffb 30be
000001c0: 541b 87be 3b4e 813e 54b3 85be 5bfb 823e
000001d0: 94ab ed3d c692 7bbe 31a7 5fbe b011 8d3d
000001e0: b430 a43d b886 c43d 62fb 5f3e 202a 0a3c
000001f0: c1a7 823e c3de 26be 206d fabd f8dc 643d
0.12116736 -0.11335546 -0.07704289 0.07533181 -0.13807692 0.27302584 0.05637434 0.15849307
-0.16295016 -0.16839026 -0.14530218 -0.18895347 0.2601954 0.09255463 -0.046208963 0.09346667
0.20245945 0.009608626 -0.00030723214 0.098504096 -0.20337036 -0.087179676 -0.027601779 -0.11675517
0.03003198 0.1518968 -0.11476605 -0.031943306 0.23232678 0.09414637 -0.21549585 -0.19308509
0.24603567 -0.029235333 -0.013997883 -0.09028129 -0.11507724 -0.10344696 -0.045721963 -0.06270772
-0.11941913 -0.22394814 0.07660696 0.161616 -0.09311305 0.15015838 0.19750205 -0.068063185
0.09244746 0.18089852 0.03696841 -0.009720147 -0.06448032 -0.14719726 -0.07356307 0.09564495
0.0627473 -0.08196041 0.25264397 -0.21840051 -0.10688621 0.15626639 0.1861082 -0.07031883
0.107207805 0.1558199 -0.11304937 -0.22412823 -0.12570855 -0.13340582 0.015978456 0.25633016
-0.25972894 0.17961359 0.1689606 0.08387557 -0.27638295 0.16261595 -0.14906812 0.14361742
0.14431408 -0.20948622 0.12462121 -0.17396304 -0.035485804 -0.034402505 -0.03543581 0.2666432
-0.23263189 0.20744145 -0.19623901 -0.16916567 -0.15282905 -0.16621357 -0.21947624 -0.15953067
-0.22310087 0.26189086 -0.10039191 -0.1744688 -0.12240033 0.07320553 0.10491648 0.16829997
-0.048884302 0.076903254 0.2752026 0.06179169 0.13146508 -0.27156395 0.15124536 -0.17283319
-0.26388037 0.25254998 -0.2611338 0.25582394 0.116049916 -0.24567708 -0.21841122 0.06888139
0.08017102 0.09596008 0.21873239 0.008432895 0.2551861 -0.16295914 -0.12227845 0.055874795

net.2.weight f4 [128, 128]
00000000: 0f17 973d 0b64 70bd 78ec 9cbd 58c8 903c
00000010: cec0 563d cb60 42bd 2bd1 993d 6a4d 77bd
00000020: 8698 673d 6f26 a13d 3d17 a83d 4eb1 5dbd
00000030: aa54 213d 994c a0bd 92c6 603d 13cf a8bd
00000040: 105f 7abc 9253 153d 97a3 833d ba5e 5e3d
00000050: 40b2 2bbb b0ba cb3c 38ff 123c 4004 85bb
00000060: 84e3 e7bc c053 67bc 9c47 83bd 701d e8bb
00000070: 29fd b0bd b323 a03d 2d96 a63d a9d0 aebd
00000080: d22d 253d 40c6 59bc 9891 63bc b408 be3c
00000090: d0e4 c13c 8e65 213d b0ae 31bc 9405 afbc
000000a0: 7042 a7bd 7e55 3b3d 445b 023d 9c6e 56bd
000000b0: a458 8dbd 66ea 9ebd 726d 6f3d 00b3 4b3a
000000c0: cf0a 8f3d 0bbf 9bbd 2262 3e3d 2f5b 74bd
000000d0: cf9b a03d 00f3 d63a 0caf 83bd 1ecc 593d
000000e0: 7639 7f3d a30f 983d ac6a 9abc 2e9c 403d
000000f0: 83c8 54bd 5c1c c33c 5316 893d 5a5f a7bd
00000100: e4dd 843c aa1a 34bd f27d 32bd a149 00bd
00000110: 710f 9e3d 825d 2c3d 20ea 9abc e0ec 4ebb
00000120: 7a08 703d db39 49bd 0023 bdbc 17a3 56bd
00000130: ea8c 363d 62a9 633d bc9f c2bc 14bf b9bc
00000140: eefc 653d f8e0 27bc 88ca f6bc fad0 333d
00000150: f276 81bd d1f3 9f3d 51a7 a53d 5162 a2bd
00000160: d013 703c 03a8 6abd 55a6 b43d 462a 17bd
00000170: b889 01bc 8158 9a3d a0cb 633b 50e7 a5bd
00000180: b4a1 88bd e290 4e3d 5d01 b53d e79d 8f3d
00000190: d905 69bd c97e a93d be31 7f3d f6bb 54bd
000001a0: c68e 8ebd 61ba 9d3d 9750 69bd 0819 6fbd
000001b0: 5616 073d 3e33 0d3d e444 b2bc de91 83bd
000001c0: 133f a23d 6c0a 7cbd 81a3 1abd 0e77 8ebd
000001d0: c983 883d 189d 8ebc 0235 533d 38d5 f83c
000001e0: 2438 a93c 0623 59bd 801f 993c 7d05 993d
000001f0: 4439 97bd a035 483c 566f 303d 1adb 85bd
00000200: f4ca e53c 92d4 6d3d bd5b aebd da53 5e3d
00000210: 30fe 8cbb b3d2 843d 549b a7bd c10f 823d
00000220: 341c d5bc 754e 9a3d 6eb1 373d 3277 7e3d
00000230: 442b 863c 0bf1 a13d b367 afbd 827a 2cbd
00000240: a871 28bc 3aeb 76bd f059 88bd f935 17bd
00000250: 8222 583d fcbf ab3c 6414 993c 2062 89bd
00000260: 4083 353c 87ce a43d abff 87bd 40bf d73c
00000270: 5095 78bc 50fa 94bc 52f5 6ebd ae16 703d
00000280: efac 81bd 9425 9bbd c7c8 8f3d 8cc7 6abd
00000290: ac66 79bd 0c8f 88bc 5a60 0b3d b0e8 47bc
000002a0: 6d38 b13d 471d 0fbd d75a 9ebd e036 c0bb
000002b0: 06ec 003d 0049 7ebc 490d 0ebd 48d2 11bc
000002c0: 4009 8dbb f4fe a4bd 6ee3 64bd c0d9 26bc
000002d0: ebfd 67bd 5499 acbc cf0a 813d b808 453c
000002e0: 0e24 483d 8de9 34bd 6a81 2c3d 608d 703b
000002f0: 1470 37bd 3c35 c8bc 1a2d 193d 87e1 60bd
00000300: 4006 e63b 870e 973d 6c39 73bd 8af2 133d
00000310: f808 34bc 486e 503c 4ee7 76bd 46d0 8cbd
00000320: 7c8b a4bc 3030 b3bc 1236 8ebd 4cfc b1bc
00000330: edb6 9a3d b6b3 293d 64fd 45bd 2b30 913d
00000340: 02d0 a7bd 7b06 34bd 05cc 1cbd 0056 d7ba
00000350: 4b13 b0bd 664d 76bd 2e67 413d c6ad 063d
00000360: b862 51bc b7fd 8a3d d10a a93d 1ad1 6f3d
00000370: 0c13 4ebd 8c57 d3bc b817 20bc 707c 81bb
00000380: 003d d13b 105b eabb 0093 4fbc e701 a23d
00000390: 3e42 a3bd d2a3 1c3d 9c58 74bd 4b91 ac3d
000003a0: e0a0 423b 50f5 1fbc ed95 9e3d bc3d df3c
000003b0: cc3f 78bd 893d 873d 44b7 2ebd e0fc 59bc
000003c0: 78a3 4d3c 0dc1 24bd 3f34 2dbd b126 a4bd
000003d0: 3060 433c 1c6b 3abd f1fa 9d3d 083c b53c
000003e0: b64b 6d3d de75 efbc be75 7a3d 8052 63bb
000003f0: 653f 913d a6bd 683d 48ab 603c 8d40 9b3d
0.07377445 -0.05868916 -0.0766229 0.017673656 0.052429967 -0.04745559 0.07510599 -0.060376562
0.056541942 0.07868659 0.08207557 -0.05412417 0.039387383 -0.0782711 0.05487687 -0.08242621
-0.015281454 0.036456652 0.06427687 0.054289557 -0.0026198775 0.024869293 0.008971982 -0.0040593445
-0.02830673 -0.014119089 -0.06410143 -0.0070835873 -0.086420365 0.07819309 0.081341125 -0.085358925
0.0403269 -0.013291895 -0.013889693 0.02319751 0.023668677 0.03940349 -0.010844871 -0.021364965
-0.08166969 0.04573583 0.03182532 -0.05235158 -0.069016725 -0.07759552 0.058453985 0.00077705085
0.069844835 -0.07604798 0.046480305 -0.059657272 0.07842218 0.0016399324 -0.06429872 0.053173177
0.06231066 0.074248575 -0.018849693 0.047023945 -0.051949035 0.023817234 0.06693711 -0.08172484
0.016219087 -0.04397074 -0.043577142 -0.031320218 0.07717789 0.042081363 -0.018910468 -0.0031574294
0.058601834 -0.04912744 -0.023087978 -0.05240163 0.04456798 0.055581458 -0.023757808 -0.022674121
0.056149416 -0.010246508 -0.030125871 0.043900467 -0.06321515 0.07810176 0.08088554 -0.079289086
0.014653161 -0.057289135 0.08820788 -0.03690555 -0.00790637 0.07536412 0.003475882 -0.0810076
-0.066714674 0.05043114 0.08838151 0.07012539 -0.056890342 0.082761355 0.062303297 -0.051937066
-0.069608256 0.077015646 -0.056961622 -0.05837348 0.032980286 0.034472696 -0.021761365 -0.06424306
0.07922187 -0.061533377 -0.037753586 -0.06956302 0.06665761 -0.017408893 0.051564224 0.030375108
0.020656653 -0.053011917 0.018691778 0.0747175 -0.073839694 0.012219816 0.04307493 -0.06535931
0.028050877 0.05806405 -0.085135914 0.054279186 -0.0043027624 0.064855 -0.08183923 0.06350661
-0.026014425 0.07534496 0.044846945 0.062125392 0.016378053 0.079073034 -0.08564701 -0.04210902
-0.010281004 -0.060282923 -0.06657779 -0.036916707 0.052767284 0.020965569 0.01868648 -0.06708169
0.011078656 0.080472045 -0.06640562 0.026336312 -0.015172318 -0.018185765 -0.058339424 0.05861538
-0.063318126 -0.07575527 0.07020717 -0.05731921 -0.06088893 -0.016669773 0.034027435 -0.012201473
0.086533405 -0.03494003 -0.0773217 -0.0058659166 0.03147509 -0.015520334 -0.03468064 -0.008900233
-0.004304081 -0.08056441 -0.055880956 -0.010183752 -0.05663864 -0.021069206 0.0630089 0.0120260045
0.04886251 -0.044168044 0.042115606 0.003670536 -0.04478462 -0.024439447 0.037396528 -0.05490258
0.007019788 0.07375818 -0.059380934 0.036119975 -0.010988466 0.012721606 -0.060279183 -0.068756625
-0.020086043 -0.021873564 -0.06943907 -0.02172675 0.075544216 0.04143115 -0.048337355 0.070892654
-0.08193971 -0.043951493 -0.038280506 -0.0016428828 -0.0859743 -0.060132407 0.04721754 0.032880567
-0.012779884 0.067866735 0.08254016 0.058549024 -0.050311133 -0.025798582 -0.00977128 -0.0039516017
0.0063854456 -0.007151969 -0.012669325 0.07910519 -0.07971619 0.03824217 -0.059654817 0.0842615
0.002969794 -0.009763077 0.0774344 0.027251117 -0.060607716 0.06603534 -0.042655244 -0.013304919
0.012551181 -0.04022317 -0.042286154 -0.08015192 0.011924788 -0.045512304 0.07713879 0.022123352
0.05793353 -0.029231008 0.061147444 -0.0034686625 0.0709217 0.056821488 0.013712712 0.075806715

net.2.bias f4 [128]
00000000: b9a0 46bd b1cd 96bd d216 633d 0028 26ba
00000010: e35d b33d 969e 1f3d 7e35 0cbd 51ce 903d
00000020: e8a9 47bc b461 81bc 5e61 7f3d b6db 6c3d
00000030: 94b7 18bd 60a9 b1bc 98ba 9dbd 3f14 73bd
00000040: efb1 b43d fc44 84bd 55c6 8e3d 1027 6bbc
00000050: 0894 08bc 5cb1 89bc d659 753d f71a 993d
00000060: 529b 8fbd 80ed 72bd 518d 9e3d ec1d e63c
00000070: 70a4 633c 5a14 623d 95f5 983d 3ae8 263d
00000080: 3219 04bd eeba 33bd e371 943d c0f5 0e3d
00000090: e85a 9fbc a3a3 a7bd a2ae 3f3d c893 0b3c
000000a0: f020 de3b 494d 35bd af3a a2bd a894 3fbc
000000b0: 6ab9 383d 4275 eabc 10f9 83bd fc6c 863c
000000c0: 0b20 913d 7332 04bd 40ef 75bb 4c15 98bc
000000d0: 584b 7cbd 0e3d 9ebd 8066 82ba deb6 573d
000000e0: bb05 3cbd 4f25 a93d cc8c afbc 5015 edbc
000000f0: 743f 87bd b200 61bd 6f03 99bd e24a 263d
00000100: 6005 0a3d 2401 a0bc 39a4 823d 20b0 90bc
00000110: e9f1 15bd 2ae6 423d 0673 283d c82c 0f3d
00000120: 1ab5 3abd 4fab 15bd e2b7 453d e59c aa3d
00000130: f2cf 4a3d a6c2 6c3d f73c 943d 9c13 913c
00000140: 3af3 86bd 1c58 92bd fb44 71bd 818b a93d
00000150: 8315 3bbd 794f 9b3d cb8e 9abd 7699 10bd
00000160: 598d 833d 30d2 91bd 655a 923d 6f10 a53d
00000170: bf1a 81bd 4dfc 96bd 5652 753d a888 01bd
00000180: af63 893d f802 a5bd ba6f 1a3d d108 92bd
00000190: b2fb 153d b0e2 df3b bb40 53bd abe3 17bd
000001a0: bebe 463d 4f00 9abd 23fe a83d 0c92 79bd
000001b0: 0ac6 613d ad86 a5bd 0565 95bd e30a 9bbd
000001c0: 4042 19bc 211c 39bd 0ba7 9c3d decc 4c3d
000001d0: 6d46 adbd e43c 0b3d 40d8 cd3b 3d3f ad3d
000001e0: b54c 85bd 176a 13bd a485 9dbc 3cf7 843c
000001f0: 9c46 82bd 00e8 84b8 bad8 223d e840 17bc
-0.04849312 -0.07363451 0.055441685 -0.0006338358 0.08758142 0.0389696 -0.0342307 0.07070602
-0.012186505 -0.015793659 0.062348716 0.05782672 -0.03728445 -0.02168721 -0.077016056 -0.05934548
0.08823001 -0.0645847 0.069714226 -0.014352575 -0.008336075 -0.016808204 0.059900127 0.07475846
-0.07012047 -0.05930853 0.07741798 0.02809044 0.013894185 0.05519519 0.07468716 0.040748812
-0.03225059 -0.043879442 0.07248285 0.034902334 -0.019452527 -0.08185508 0.046797402 0.0085191205
0.006778829 -0.044263158 -0.07921349 -0.011693157 0.0450987 -0.028620366 -0.06443989 0.01640939
0.0708619 -0.032274675 -0.0037526637 -0.018564843 -0.06159529 -0.07726489 -0.000994876 0.05266463
-0.045903903 0.08259069 -0.021429442 -0.028940827 -0.066038996 -0.054932304 -0.07471358 0.040598758
0.033696532 -0.019531794 0.06378979 -0.017662108 -0.036607657 0.047582783 0.04112532 0.034954816
-0.04558287 -0.036540326 0.048271067 0.083307065 0.04951472 0.05780282 0.072381906 0.017709546
-0.065893605 -0.07145712 -0.058903676 0.082785614 -0.045674812 0.075835176 -0.07546767 -0.0353026
0.06423444 -0.07120168 0.07146148 0.08059775 -0.063039295 -0.07372341 0.059892975 -0.031624466
0.06708466 -0.08057207 0.037704207 -0.07130588 0.03661699 0.006832443 -0.051575404 -0.037082355
0.04852175 -0.0751959 0.08251598 -0.060930297 0.055120505 -0.08082328 -0.072946586 -0.07570436
-0.009354174 -0.04519284 0.076490484 0.050000064 -0.08460698 0.033993617 0.0062818825 0.08459327
-0.06508771 -0.035989847 -0.019228764 0.016231172 -0.06361124 -6.337464e-05 0.039757468 -0.009231783

net.4.weight f4 [128, 128]
00000000: 48b0 d83c aa75 6f3d 0959 893d 68b3 bcbc
00000010: d39f 05bd 72ad 6f3d 7c35 6cbd 0aa1 f9bc
00000020: 3841 c33c 76e0 9abd 208c 65bb 4483 aabd
00000030: 8716 b0bd 3942 953d 4047 bb3a 4069 c9bc
00000040: 778d 923d 38be 95bc 56ff 2f3d 20ab 91bd
00000050: e2bb 513d 1477 8fbc dc9c a93c 281d 5bbc
00000060: d9a2 65bd 58a1 3a3c 8474 0c3d 5c36 c9bc
00000070: 9e16 453d 6059 80bc 18da 9c3c 9c4c 74bd
00000080: 40cd 00bb 88db f63c 2441 2fbd 92e0 523d
00000090: f121 813d 8b18 06bd d2f9 3e3d e877 7d3c
000000a0: 886d 88bc 675b 51bd 82f8 723d f614 403d
000000b0: 7a60 1a3d 9b9e a53d 4bb5 6abd 44ee 8cbd
000000c0: 2869 dfbc 301c e23c ca8d 5b3d 801e b6ba
000000d0: e81c adbc a762 b0bd 4e95 95bd 4666 92bd
000000e0: 6ce9 35bd f01f e63c 7622 793d d038 fd3c
000000f0: 2689 0f3d 65b3 823d e671 5c3d 83ed 93bd
00000100: 4a8f 323d 9d0a acbd f01b f2bb 6098 143d
00000110: 7f2f b43d 16bb 5c3d 4aa3 43bd 124a 093d
00000120: 20d9 7a3c 4749 56bd 37d1 8e3d fa9f 3c3d
00000130: 2c06 c4bc 3f20 a73d afe6 41bd 71ad 04bd
00000140: a4c8 9fbd c144 9b3d 1082 adbb e063 97bc
00000150: 506f b2bc ef5f 813d 3ef0 503d 0561 873d
00000160: 1b8b a63d a85b 79bd 0565 903d e6cd 33bd
00000170: 1192 12bd 8a6e 013d 620d 113d e895 aebc
00000180: 0594 06bd f8e3 11bc 0a1e 8cbd 1900 a33d
00000190: bc4c c33c 1f3d 983d d243 1a3d 1099 dabb
000001a0: 3c4f 5cbd d034 e8bc 90f7 e63b fa4f 6b3d
000001b0: 64e1 83bc 6e6d 793d 3e8f 8cbd 27dd ac3d
000001c0: 48e7 23bc b2f4 683d 004f 56bb a73c 863d
000001d0: 84c7 b5bc 7247 25bd 586a 96bd 9e01 85bd
000001e0: e0b9 40bc dead 2e3d b371 a73d c0ba afba
000001f0: 7ca1 78bd c029 2dbd 824b 3f3d 6f48 933d
00000200: 1ef9 3a3d 0672 e2bc 421a 8fbd 52b0 443d
00000210: 4f9d 9cbd d05d 87bd 165a 773d 0a24 543d
00000220: 8d83 a23d b6fa 85bd f003 c9bb 82f3 16bd
00000230: f03c 763c 14ca fd3c 3161 44bd 29e1 813d
00000240: 84cd f1bc b697 f1bc a5a0 8abd 42e0 10bd
00000250: 569d 1b3d 12d4 91bd fdc0 a33d 5030 213c
00000260: 3034 163c 178d 13bd bf53 83bd 3f8c 4dbd
00000270: aef9 753d 0ee2 4e3d aa97 313d 7fbe 87bd
00000280: 875d 82bd 322a 4c3d 3cdb 96bc 239f a73d
00000290: 53e5 22bd e062 23bc 2e07 8cbd d86e 52bc
000002a0: b809 09bc 209e 573b 8ecd 98bd 2834 86bc
000002b0: 9cbf a2bd e063 b03c 91d5 863d 0652 0fbd
000002c0: ed8f 38bd c033 713b 567c 4fbd 8039 a7bc
000002d0: 9631 3dbd 20bc 56bc 201f adbd d886 99bd
000002e0: 390b 1ebd 0450 b8bc 1d21 a33d 28cf 7bbc
000002f0: 6a2d 7cbd aab0 633d a48a 0d3d bbbc 39bd
00000300: c8b7 4bbc ef5f 57bd 9052 8f3c d200 85bd
00000310: bf10 913d a207 343d 4449 b13c 2f79 1bbd
00000320: 14f8 d93c c503 a43d 56b7 0d3d f013 32bd
00000330: 50af 94bd 3354 86bd ed20 56bd c606 5f3d
00000340: a28a f1bc 36b4 5fbd faf7 463d 0c3e bebc
00000350: 73a8 08bd 63af a83d 50da 6fbc a008 263c
00000360: 7877 c83c bc82 93bd 24f4 13bd bc3c 133d
00000370: fb11 38bd 8428 afbc c06e 33bc 3c0d 86bd
00000380: 2737 abbd 12b7 62bd 070c ac3d b214 623d
00000390: e0eb 78bd 4603 563d 0ade 3c3d 250e a43d
000003a0: c05c 31bc f03f 253c 9195 26bd 6489 81bd
000003b0: 8082 a9bc 9c30 2dbd 7b2a 823d e2f0 653d
000003c0: f45d 8d3c 4802 fbbc d32f 8dbd 6830 88bc
000003d0: 0b6d 943d 82cc 4abd 35a4 953d 124f 2fbd
000003e0: a248 70bd e075 783c 2a7f 01bd f885 8bbc
000003f0: 00e4 1a39 4425 de3c 006f 2dbb 60cc 9ebb
0.026451245 0.058461823 0.06706435 -0.023034766 -0.032623123 0.05851502 -0.057668194 -0.030472297
0.02383481 -0.07562344 -0.0035026148 -0.08325818 -0.08598047 0.072880216 0.0014288202 -0.02458632
0.071558885 -0.01827918 0.042968117 -0.07112718 0.05120457 -0.017512836 0.02070468 -0.013373651
-0.056063507 0.011391006 0.034290805 -0.024562053 0.048117273 -0.015667617 0.019146964 -0.059643373
-0.0019653589 0.030133978 -0.042786732 0.0514837 0.06305302 -0.03273825 0.046624966 0.015470482
-0.016653791 -0.05111256 0.059319027 0.04689499 0.037689663 0.08086892 -0.0573018 -0.06881383
-0.027271822 0.027601331 0.053602017 -0.0013894588 -0.021131948 -0.086125664 -0.07303868 -0.07148413
-0.04441206 0.0280914 0.06082388 0.03091088 0.035042904 0.06381873 0.05381956 -0.07223036
0.043593682 -0.08400462 -0.0073885843 0.03627813 0.08798122 0.053889357 -0.047763146 0.033517905
0.015310556 -0.052315976 0.06973498 0.046051003 -0.023928724 0.08160447 -0.047339138 -0.03239197
-0.07801941 0.07581473 -0.0052950457 -0.018480241 -0.021781594 0.06317126 0.051010363 0.06610302
0.08132001 -0.060878426 0.07050518 -0.043897532 -0.03578383 0.03159956 0.035413153 -0.021311715
-0.032856006 -0.00890445 -0.06841667 0.07959003 0.0238403 0.07433533 0.037662335 -0.0066710785
-0.0537865 -0.028345495 0.0070485547 0.05744932 -0.016098686 0.060895376 -0.06863259 0.08440619
-0.010003872 0.056873985 -0.0032700896 0.06554537 -0.022189863 -0.04035134 -0.07344502 -0.06494449
-0.011763066 0.04264628 0.08175983 -0.0013407096 -0.06070088 -0.042276144 0.04670287 0.0719155
0.045647733 -0.027642261 -0.0698743 0.048019715 -0.07647192 -0.0660969 0.060388647 0.051792182
0.079352476 -0.0654196 -0.0061345026 -0.03685332 0.015029177 0.030980147 -0.04794425 0.06341774
-0.029516943 -0.029491287 -0.06768922 -0.03537012 0.037991844 -0.07120527 0.07995794 0.009838179
0.009167716 -0.036023226 -0.06412458 -0.050182577 0.060052566 0.05050855 0.04335753 -0.06628131
-0.06365495 0.049844928 -0.018415086 0.0818465 -0.039769482 -0.009972304 -0.06837307 -0.01284381
-0.008364134 0.0032900646 -0.074610814 -0.016382292 -0.07946703 0.021532 0.06583703 -0.034990333
-0.045059133 0.0036804527 -0.050655685 -0.02041316 -0.046189867 -0.013106376 -0.08453202 -0.074964225
-0.03858492 -0.022499092 0.079653 -0.015369214 -0.061566748 0.0555884 0.034556046 -0.045346003
-0.012433954 -0.052581724 0.017495424 -0.06494297 0.07083272 0.04395259 0.021641381 -0.037957367
0.02660755 0.080085315 0.03459867 -0.043476045 -0.07260001 -0.065590285 -0.052277494 0.05444982
-0.02948505 -0.054615222 0.048576333 -0.023222946 -0.03336377 0.08236577 -0.014639452 0.010133892
0.02447103 -0.0720267 -0.036121503 0.035946593 -0.044939023 -0.021381624 -0.010951698 -0.06545493
-0.08360129 -0.05535037 0.084007315 0.055195518 -0.060771823 0.052249216 0.04611019 0.0801051
-0.010825336 0.010086045 -0.04066998 -0.06325033 -0.02069211 -0.042282686 0.06355759 0.056137927
0.017256714 -0.030640736 -0.06893887 -0.016624644 0.07247361 -0.04951144 0.07306711 -0.042800017
-0.058663018 0.015164822 -0.031615414 -0.017031655 0.00014771521 0.027117379 -0.0026463866 -0.0048461407

net.4.bias f4 [128]
00000000: a0d1 6a3c 8fe5 a93d 00e1 edba 7816 2b3c
00000010: de2f a6bd 7b2c 9ebd 3a4a 2b3d af4d 76bd
00000020: 2bcd 91bd 46f6 363d 5208 563d a640 403d
00000030: e20f 1d3d 304f 8abd d218 363d 667a 393d
00000040: d07a d33b 48ea 14bc d0ee 71bc 4059 89bb
00000050: 3e6f 673d aa8f 773d 9dda 49bd 982f e83c
00000060: 0d39 91bd c24c b4bd 11ae 9f3d c651 313d
00000070: 5658 273d c92d 9b3d ff01 94bd 5452 c7bc
00000080: 0393 973d 98ed 5fbc fa74 e0bc c0f3 08bb
00000090: ceca 353d 00bc f93a f2a3 73bd 44d7 cabc
000000a0: 70bb d3bb 2545 afbd 3f0c b23d 6914 30bd
000000b0: 4eef 8cbd 66b6 473d 6a62 573d 975e 923d
000000c0: a26c 7a3d 28e1 c4bc f36a a63d 74a5 e63c
000000d0: 52fd 413d 0e4c 173d 401d 0abc b4dc 9fbd
000000e0: 1e9c 2d3d 6081 fd3c 88f6 403c ccd4 be3c
000000f0: 1887 30bc aa42 5bbd 22e5 4c3d b0ab b23c
00000100: b71c 8dbd 8e69 dcbc f378 a13d e284 54bd
00000110: 896f 923d c52d 97bd 48bf bbbc 8675 ffbc
00000120: 9f8a 03bd a074 1fbb bbd4 58bd 110f a33d
00000130: a0c3 99bc 119e a63d a830 373c 90f5 233c
00000140: 70f4 e4bc 1c7e bdbc 0053 26ba c24c 063d
00000150: a101 25bd c8f2 963c 008c 69ba a1d5 903d
00000160: 1cc3 c8bc c8a4 4c3c 0ca3 e9bc fc55 ef3c
00000170: f2ea 0bbd 10b9 263c 50dc 4bbd 3a59 463d
00000180: f220 453d d061 b7bc 0044 63bb 9da2 04bd
00000190: 2bb2 853d 909f a43b 34fc 003d 5c24 f53c
000001a0: e149 33bd f020 94bc a788 9d3d 2041 34bc
000001b0: 57da 05bd 869f 71bd 02ec 80bd 448c 7cbd
000001c0: acee e63c 2e9b 193d a6d3 7f3d 56fd 783d
000001d0: 84e9 b3bc e7e5 a83d 4f95 8ebd feca f2bc
000001e0: 08f7 66bd e848 c13c 00ad 1fbb 2ca2 ff3c
000001f0: b09e 96bc 90b5 743c f9ce 61bd 2bcf 8f3d
0.014332205 0.08295738 -0.001814872 0.010442369 -0.08114599 -0.07723328 0.041818835 -0.06013268
-0.07119211 0.04466846 0.05225403 0.046936654 0.038345225 -0.06753385 0.044457264 0.045282744
0.0064538494 -0.00908906 -0.01476641 -0.0041915476 0.056502573 0.060439743 -0.04928075 0.028343007
-0.0709096 -0.08803703 0.077968724 0.043290876 0.040855728 0.07577092 -0.07226943 -0.02433125
0.07401087 -0.013667487 -0.027399529 -0.002089724 0.044382863 0.0019053221 -0.059482522 -0.02476085
-0.0064615533 -0.0855811 0.08693742 -0.042988215 -0.06881581 0.048757933 0.05258409 0.07146948
0.061138757 -0.024033144 0.08125868 0.028155066 0.047360726 0.036937766 -0.008429825 -0.07805768
0.042385213 0.03094548 0.011777528 0.023294829 -0.010774396 -0.053530373 0.050023206 0.021810383
-0.068902425 -0.026905801 0.07884397 -0.05188454 0.0715018 -0.07381777 -0.022918358 -0.03118397
-0.03211462 -0.0024330989 -0.05293725 0.07961858 -0.01877004 0.081356175 0.011181034 0.010007277
-0.027948588 -0.023131423 -0.00063447654 0.032788046 -0.040284757 0.018426314 -0.0008909106 0.070719965
-0.024507098 0.012490459 -0.02852013 0.029215805 -0.03415961 0.010175958 -0.049770653 0.048424937
0.048127122 -0.022385508 -0.0034677982 -0.032381643 0.065281235 0.005023904 0.03149052 0.029924564
-0.04377163 -0.018082112 0.0769208 -0.011001855 -0.03267893 -0.058990024 -0.06295015 -0.061657205
0.02818998 0.037501507 0.062457703 0.060788475 -0.021961935 0.082469754 -0.06962072 -0.02963781
-0.05638793 0.023594335 -0.002436459 0.03120526 -0.018386215 0.014935866 -0.055129025 0.07021936

net.6.weight f4 [256, 128]
00000000: 3a57 07bd 9f0a 953d cc2f 02bd 509e a23b
00000010: 70da 243c 88ab 08bd c0f2 053c 9295 573d
00000020: 8b54 863d 81ad 7dbd ced5 0abd 183d b7bc
00000030: 9ad9 17bd 6430 8f3c 514d 9fbd d0aa 053c
00000040: 8ce0 38bd 9c7a c0bc 6241 2fbd f800 26bc
00000050: 7709 99bd 787a 4fbc fa5d 3f3d 38a3 29bc
00000060: 82c4 8bbd cfe9 8ebd 705b 763c adab 9b3d
00000070: e0de b43c f1e1 a93d 4b55 823d ec40 90bc
00000080: 6fe5 9bbd d00f 69bd 6ddd 933d a0e7 fbbb
00000090: 2250 6a3d 42be 793d 397e 833d ee68 653d
000000a0: b032 8abc 6c2b 003d 3a2a 003d 887d a4bc
000000b0: 141a 82bd 7ac2 183d c313 9e3d 32ea 4ebd
000000c0: 7d3b 1fbd bf70 60bd baff 2f3d df79 ad3d
000000d0: 1fdf 953d 92e3 703d 24bd d4bc 145f a5bc
000000e0: b252 6abd 601e cf3b 01bd 823d 6a30 6b3d
000000f0: a0d2 e4bc 0831 b1bc dcb0 90bd 0401 a6bd
00000100: 4670 7bbd ee44 303d a932 a9bd ed4e 49bd
00000110: b028 073c 0033 a8bd 8742 23bd 68b6 40bc
00000120: 6675 97bd 7f8c a93d 224b 743d 201c f1bb
00000130: d30f a03d 7c47 c1bc eada a0bd 4abd 053d
00000140: 5719 963d 1221 06bd 1496 9e3c f4c1 f3bc
00000150: 34bb 18bd 589a 4e3c 82f7 783d ade7 ae3d
00000160: db04 25bd 388c 69bc 3755 6abd da94 373d
00000170: c64f 543d 870f b13d 4edb 253d 3107 2dbd
00000180: c2e0 613d f820 b0bc 939c 8f3d c0c2 aa3c
00000190: 60f4 f3bc 3b80 92bd 08fd 97bd 815b 89bd
000001a0: 1d48 943d 08cf b1bc 39a4 87bd 8f0c 42bd
000001b0: e6f6 783d dc24 b93c d1e1 68bd bdc8 12bd
000001c0: 56b6 8ebd 200a 5bbb c6ea 1e3d 3e95 31bd
000001d0: ce71 593d 2c7c 8a3c 2f59 8d3d 3e43 043d
000001e0: 96b8 003d 7e2d 463d 8b8e 32bd 213d 98bd
000001f0: 7821 a0bc 1367 00bd 5a51 4ebd a75d 933d
00000200: 3a5d 433d 21a3 a03d c82b 4e3c 789d 7ebc
00000210: 6f27 9b3d a647 f7bc 1adf 633d 8730 2cbd
00000220: d47e d4bc 2219 e2bc 4084 92bc 1d51 5cbd
00000230: 92ba 8dbd b022 4c3c 69f4 a0bd 59a9 01bd
00000240: 18d9 8bbd 4891 9fbd 0c86 bbbc 5692 93bd
00000250: 2cee 5dbd 18a5 27bc a0ca a0bc 608c c6bc
00000260: bcb0 b03c 49e8 ad3d c68e 603d 7c22 98bc
00000270: 6626 a7bd 00e3 843a a988 81bd 9eac 92bd
00000280: 4038 69bd f02d acbd 9cd3 f33c 187a 68bc
00000290: a0dd 72bd 8b91 46bd a8a2 c1bc 7e1b 93bd
000002a0: 4adf 293d 39fe 7bbd a8a2 b53c 675f 873d
000002b0: c1e0 32bd 4222 633d 2e7b 1a3d 4f68 3bbd
000002c0: a034 abbb cf0a a43d f47d c93c f6e8 11bd
000002d0: d380 1ebd 8504 2abd 002d 2aba 40d6 993c
000002e0: b8ad b23c f0a7 64bc 2487 a43c 81cc 943d
000002f0: e0e6 92bc c22a 2a3d 80e2 9fba faca 523d
00000300: 6204 6c3d a3a1 abbd 68aa ed3c b84f 8dbc
00000310: 3d88 33bd 5a21 533d f883 b93c 7547 b13d
00000320: 1d0c 9dbd 2ae9 753d 366d 343d a440 f2bc
00000330: d330 aa3d ae1a 773d 6036 a1bc 2936 8dbd
00000340: f316 76bd 1095 a4bc 30a2 053d 5a67 043d
00000350: 8890 13bc 70f8 ffbb 1b9e 9a3d d268 6bbd
00000360: 40bf b4bd 71b1 52bd 1b37 a83d 5433 96bd
00000370: 309e 833c 108f b03c 9868 70bc e0d4 d43b
00000380: 70f7 44bc 58fa 80bd 236a 8e3d 5755 4abd
00000390: 2a4a 253d 4418 04bd f670 6b3d 083a 21bd
000003a0: c047 403c 3c34 933c a02a a1bb 7bf1 88bd
000003b0: 08f0 2ebd 31fa 99bd 904f c4bc e8a6 a3bc
000003c0: 1c66 c63c ce25 5f3d af5f 2abd 400c 323c
000003d0: 6c9b 85bd ed41 07bd 467a a3bd 1622 3b3d
000003e0: 66e7 7dbd a0f0 673c c09f 72bd da4c 773d
000003f0: e2ca 3f3d cb7f 843d 1f21 a43d a8b2 493c
-0.03304217 0.072774164 -0.031783864 0.00496272 0.010061845 -0.03336671 0.008175552 0.052632876
0.06559094 -0.061933044 -0.033895306 -0.022367999 -0.037072755 0.01747913 -0.07778419 0.008158401
-0.04513602 -0.023495965 -0.042786963 -0.010132067 -0.074725084 -0.012663476 0.046720482 -0.010353856
-0.0682459 -0.06978189 0.015036449 0.07601104 0.022078931 0.08295048 0.063639246 -0.017609082
-0.0761212 -0.056899846 0.07219968 -0.007687524 0.057205327 0.06097246 0.064205594 0.056008272
-0.016869873 0.03129141 0.03129027 -0.02007939 -0.0635263 0.037294842 0.07718613 -0.050516315
-0.03887509 -0.054795023 0.04296849 0.08470511 0.073179476 0.058810778 -0.025969096 -0.020186938
-0.05720777 0.0063207597 0.06383706 0.057419218 -0.027932465 -0.021629825 -0.07064983 -0.081056625
-0.06138637 0.043034486 -0.08261616 -0.049147535 0.008249447 -0.082128525 -0.039858367 -0.011762239
-0.07395439 0.08278751 0.059641965 -0.007358089 0.07815518 -0.023593657 -0.078542545 0.032651223
0.07329052 -0.032746382 0.019358672 -0.02975557 -0.037287906 0.012610041 0.060782917 0.085402824
-0.040287834 -0.014254622 -0.057210173 0.04481969 0.05183389 0.0864554 0.04049235 -0.042243186
0.055145986 -0.021500096 0.07012286 0.020844817 -0.029779613 -0.07153364 -0.07421309 -0.06706906
0.07240317 -0.021705166 -0.0662312 -0.047375258 0.060782336 0.022600584 -0.05685598 -0.03583597
-0.069683716 -0.0033422783 0.038798116 -0.04335522 0.05308705 0.016904913 0.06901776 0.03229069
0.031426035 0.04838323 -0.04359297 -0.074335344 -0.01954721 -0.0313483 -0.05037055 0.07195597
0.04769633 0.07843614 0.01258368 -0.015540473 0.07575881 -0.030185532 0.055632688 -0.042038467
-0.025939383 -0.027599875 -0.017885327 -0.053788293 -0.06920351 0.012459442 -0.078591175 -0.031655643
-0.06828517 -0.07791382 -0.022891067 -0.07205646 -0.054182217 -0.0102322325 -0.01962787 -0.024236858
0.021568649 0.084915705 0.05482366 -0.018571131 -0.08161621 0.0010138452 -0.06324894 -0.0716183
-0.05693841 -0.084071994 0.02976399 -0.014189266 -0.05929339 -0.048478644 -0.02363713 -0.07182978
0.04147271 -0.061521742 0.022172287 0.066099934 -0.043671373 0.055452593 0.03771513 -0.045753773
-0.0052247792 0.08009874 0.024596192 -0.03562256 -0.038697075 -0.041508216 -0.0006491691 0.01877892
0.021811351 -0.013956055 0.020083971 0.072655685 -0.017932355 0.041544683 -0.001219824 0.051463105
0.057621367 -0.08380439 0.02901192 -0.017249927 -0.0438311 0.05154548 0.022645935 0.086562075
-0.07668326 0.060036816 0.044049464 -0.029571839 0.08310094 0.060328178 -0.019679248 -0.06895096
-0.06008048 -0.02009061 0.032625377 0.032325126 -0.009006627 -0.0078115985 0.075496875 -0.05747301
-0.088255405 -0.051438753 0.082136355 -0.07334009 0.01606664 0.021552593 -0.014673375 0.0064951032
-0.012021884 -0.06297749 0.06953838 -0.049397793 0.04035393 -0.032249704 0.057480775 -0.039361984
0.0117358565 0.017969243 -0.0049184114 -0.06686684 -0.04270938 -0.07518423 -0.02396372 -0.019977048
0.024218611 0.054479413 -0.041595157 0.010867178 -0.06523785 -0.033021856 -0.07982306 0.045686804
-0.061988257 0.014156491 -0.05923438 0.060376026 0.046824344 0.06469687 0.0801413 0.012310661

net.6.bias f4 [256]
00000000: f827 063d ad76 0abd d253 3a3d 3f33 7ebd
00000010: 50a6 b43c 8cc2 89bd 2e56 3a3d e806 26bc
00000020: dd4e 8ebd 7617 5cbd 528c 503d 82b4 4dbd
00000030: b0fb b73b 60ee 39bc 86f3 393d 60ff d7bc
00000040: 87ff 8d3d 87d5 43bd f24a 573d 1903 04bd
00000050: 4088 5fbc f002 aebc f86b 103c 18b9 1cbd
00000060: 5e0f 99bd 83fa 1cbd f5be 38bd 18e0 3cbc
00000070: 8098 78ba 1683 7a3d cb70 5bbd 40f6 26bd
00000080: 50e2 f9bc 105e 3b3c 70b8 f23c 8261 1a3d
00000090: 2a4a 073d 5d3d 953d 1653 6f3d d035 02bc
000000a0: 7042 f93c bb1a 54bd b934 863d 95eb 87bd
000000b0: 0a6d 19bd e07e 063d 2e07 433d 7e90 6c3d
000000c0: 490e b0bd e08a 193c 1838 b83c ad50 933d
000000d0: a236 8ebd 2b38 8f3d c826 a4bc b130 883d
000000e0: 4641 7c3d 221e 3d3d ecb5 8abc cdda 8a3d
000000f0: fdbf 823d 85e5 a23d 10a5 b9bb 3ff3 9d3d
00000100: af4f 983d 91a6 33bd 4e3b 543d 159e aa3d
00000110: 3d0e a03d 64e2 a2bc 58b1 b73c 9023 0dbc
00000120: 3224 713d 3ad5 333d 826c 3f3d 800f ef3a
00000130: 58f4 033c 1964 b03d 20ae 98bb 60b4 afbd
00000140: d865 c73c ee39 333d 7c46 8d3c fcac bfbc
00000150: c4a2 e03c 4745 19bd c096 69bb c200 5d3d
00000160: 4a45 58bd 5030 bb3c a02e 813c 21c5 a53d
00000170: e7bf 46bd 0035 72bd 1738 a5bd 804a 3f3c
00000180: a027 a1bb e697 6c3d bd2a 04bd 50a1 d9bb
00000190: a0c4 893c e152 56bd fe2e 7cbd 42f4 97bd
000001a0: d6c5 98bd dc24 7ebd a863 5bbd 708e c5bc
000001b0: 3eab 603d d11e 19bd 0880 95bd 65f8 b03d
000001c0: 4cd1 103d 5592 a0bd 4efe febc b4dd 69bd
000001d0: 300f 23bd 8302 8b3d a5ce a83d 7ca8 73bd
000001e0: 10aa a23b c361 b0bd d692 1f3d 50cb 84bd
000001f0: 9191 843d 6102 5cbd caa2 003d f03b 76bd
00000200: eacb 5d3d d2f6 71bd 844a b2bd c644 373d
00000210: 4054 f8bb 3222 6d3d 3099 21bc 47c8 a63d
00000220: 5196 8a3d a0a3 94bc b406 81bd a6d5 5a3d
00000230: f587 b23d 6e8b 7fbd 35a8 8d3d 9c34 adbc
00000240: 6b9b 55bd df80 81bd e2cb 82bd 7d7f aa3d
00000250: 2865 77bc 5693 6e3d 09bd ad3d f06a 69bc
00000260: 5804 583c 9643 f1bc c2c5 86bd e841 523c
00000270: cc68 883c 3e4d 96bd a920 a13d 12c1 afbd
00000280: 938e 8a3d 96bd 133d ee54 9cbd a6b0 60bd
00000290: ec3d 3ebd 5a5c 2e3d 3aef 623d d604 4f3d
000002a0: 60ba 86bc f544 82bd 420f 743d e038 1bbc
000002b0: ab89 843d ff83 933d a807 b2bc 6007 91bd
000002c0: cc51 83bd f0a7 863c 1e07 383d 569d 7a3d
000002d0: 90c7 9c3b aed1 5f3d 80de d83a bc96 923c
000002e0: 7613 5b3d f385 59bd 9066 573c 3cfc 083d
000002f0: d127 33bd 9288 713d 6cc0 9cbc 5c4d 1ebd
00000300: a0e7 1bbc 386b 87bc d102 a73d 0d03 803d
00000310: e301 a73d 5ea9 703d 5beb a1bd 79fe 02bd
00000320: 40e0 02bc 3891 acbc 5038 42bc 6577 943d
00000330: c292 4f3d c461 bdbc d28a 033d 0cbe b73c
00000340: d05f 2dbc fd34 a33d 309f 513c 9fcc 7abd
00000350: b898 68bc 6e05 013d 9b7f 8c3d 92be d6bc
00000360: 1bed a83d 1017 34bd e059 0b3b 6e64 b0bd
00000370: 50d2 98bc c041 993c 29d2 34bd 6f86 9e3d
00000380: 1202 32bd ea65 f8bc c99d 67bd 8f74 8b3d
00000390: a6e1 2b3d 4d09 a53d 567a debc 037f 1cbd
000003a0: 3694 5f3d 501b f33b 2da3 28bd fb72 7fbd
000003b0: 30eb bfbb e0eb 5dbd 6643 103d 3e9b 2fbd
000003c0: f836 313c ef41 933d bc92 90bd 0a8a 89bd
000003d0: 569a 603d 3654 1abd 70e2 69bc 9757 853d
000003e0: eeac 723d 2582 41bd c0e0 83bb c033 573c
000003f0: d0db 9e3b 800b 1bbc 0434 b0bd 3203 4f3d
0.03275296 -0.033804584 0.045490094 -0.06206059 0.02205196 -0.0672656 0.045492344 -0.0101334825
-0.06948636 -0.05373331 0.05091507 -0.050220974 0.0056147203 -0.011348337 0.045398258 -0.02636689
0.069335036 -0.047811057 0.052561708 -0.032229517 -0.013643324 -0.021241635 0.008814804 -0.038262457
-0.07473634 -0.038324844 -0.045103986 -0.0115280375 -0.00094831735 0.06116017 -0.053574365 -0.040762186
-0.030503422 0.0114360005 0.029628962 0.037690647 0.033029713 0.07287095 0.058428846 -0.0079474
0.030427188 -0.051783305 0.06553025 -0.066367306 -0.037457503 0.03283584 0.04761427 0.057754986
-0.08596475 0.009371489 0.022487685 0.07193122 -0.06944014 0.06993135 -0.020038024 0.06649912
0.061585687 0.046171315 -0.01693245 0.06780014 0.06384275 0.079539336 -0.005665429 0.07712411
0.074370734 -0.043860022 0.05181437 0.08330933 0.07815216 -0.019883342 0.022423431 -0.008614436
0.05887241 0.04390452 0.04673434 0.0018238872 0.008053862 0.08612842 -0.004659429 -0.08579326
0.024340555 0.043756418 0.017245524 -0.023397915 0.027421363 -0.037419584 -0.0035642833 0.0539558
-0.052800454 0.022850186 0.015769303 0.0809424 -0.048522856 -0.059132576 -0.08067339 0.011675477
-0.0049180537 0.05776205 -0.03226732 -0.0066415444 0.01681739 -0.052325133 -0.061568253 -0.07419635
-0.07459609 -0.06204687 -0.053561836 -0.024115771 0.05485081 -0.037382904 -0.07299811 0.086411275
0.03535585 -0.078404106 -0.031127121 -0.0570962 -0.039809406 0.067875884 0.08242539 -0.05948685
0.0049641207 -0.086123966 0.038958393 -0.06484091 0.06473077 -0.053713206 0.031405248 -0.060115755
0.054149546 -0.059073277 -0.08705619 0.04474332 -0.0075784028 0.05789394 -0.009863183 0.081436686
0.06766952 -0.018144429 -0.06300107 0.053426407 0.08717338 -0.06238883 0.069168486 -0.02114325
-0.05215017 -0.06323408 -0.06386544 0.08325098 -0.015099801 0.05824598 0.08483321 -0.014246687
0.013184629 -0.029451173 -0.06580688 0.012833096 0.016651534 -0.073389515 0.078675576 -0.08581747
0.06765475 0.036069475 -0.076333866 -0.054855965 -0.046445772 0.042568542 0.055403925 0.05054172
-0.016446292 -0.06360809 0.059584863 -0.009474009 0.064715706 0.07202911 -0.021732166 -0.07081485
-0.06412086 0.0164375 0.044928662 0.061185203 0.004784532 0.054643326 0.0016545802 0.017894141
0.053485356 -0.05310626 0.013147011 0.033443674 -0.043739144 0.058968134 -0.019134723 -0.038647994
-0.009515673 -0.016530618 0.08154834 0.06250582 0.08154657 0.05875527 -0.079062186 -0.031980965
-0.007988036 -0.02106534 -0.011854246 0.07249335 0.05067707 -0.023117907 0.03211481 0.022429489
-0.0105819255 0.07969091 0.012794301 -0.061230298 -0.014196567 0.03149932 0.06860276 -0.026213918
0.08248349 -0.043967307 0.0021263286 -0.086129054 -0.018654972 0.01870811 -0.044145737 0.07740485
-0.043459006 -0.030322034 -0.05654696 0.06809341 0.041963242 0.080584146 -0.027157944 -0.038207065
0.054584704 0.0074190274 -0.04117124 -0.062365513 -0.005856894 -0.054180026 0.035220526 -0.04287266
0.010816328 0.0719031 -0.07059237 -0.06715782 0.054834686 -0.037677966 -0.014275178 0.06510847
0.05924695 -0.047243256 -0.004024595 0.013134897 0.004847981 -0.009463191 -0.08603671 0.050540157

action_logits.weight f4 [3, 256]
00000000: d0da 7c3c 48e4 18bc 2ead 783d 28e9 a83c
00000010: 00b3 ef3a 7440 e3bc 04bf 933c 982b e4bc
00000020: 90b0 d0bb bc2f bc3c 508c 4f3d d86d 23bc
00000030: 1094 7d3d 8cd0 07bd 98aa c33c 3c0c 3dbd
00000040: b03a 32bd 9860 093c 2c0f 0fbd 209c 66bc
00000050: ce1a 1dbd e073 5fbc c2dc 6b3d 02aa 683d
00000060: b0a8 8fbc ace3 56bd eca6 41bd c01f 543d
00000070: 206b 20bd c03f 68bc d2aa 38bd 4068 5a3c
00000080: 0432 ebbc c01d adbc baf0 673d 6aa9 26bd
00000090: ac94 0b3d 20d8 6b3c 00c7 ae3b c01b dc3a
000000a0: d61a 3c3d a02c 3fbb 803f 43bd e467 d8bc
000000b0: 30a2 413d e84c 7f3c 2cb2 ac3c e49c 953c
000000c0: 847c e03c 00b3 a23a 305c 1cbd c43e 6d3d
000000d0: 966f 533d 4c75 7ebd 5845 2f3d 52a4 3a3d
000000e0: 8c4a 77bd 5c2e b5bc a673 453d 0051 6dba
000000f0: 3434 cb3c de7e 6dbd 6443 52bd 82b3 61bd
00000100: 00d2 f039 bc35 233d 7a1d 2fbd 9ed5 09bd
00000110: 70b6 5dbc b81d 0bbd e882 093d a6e1 603d
00000120: 2c07 1bbd 00a7 f03a 5c4b 15bd 4c39 773d
00000130: a0de 0b3b 60b6 963c 3a54 5cbd c829 463d
00000140: 2e54 413d 0a44 4abd a084 b7bc cad6 7a3d
00000150: b0f3 22bd 3aaf 1ebd 6ce2 b3bc 745e 1bbd
00000160: 6847 ccbc b0cf 94bb bc12 47bd 2879 813c
00000170: 8eb4 75bd f4b9 b4bc e6a5 643d 5264 753d
00000180: b47d e13c 8c10 06bd 14c9 373d c03a 5f3c
00000190: d42d 9c3c f0eb 113c 80dc 523a d081 98bb
000001a0: 22b1 24bd d86c 173c 7047 51bc 1842 3bbc
000001b0: 5643 77bd c82c 1f3d f095 363d 50d6 663c
000001c0: be89 663d 14a1 493d de78 78bd 1c4b 053d
000001d0: 7c3a 58bd 7409 08bd b465 9d3c 14f1 63bd
000001e0: 52f7 74bd d22d 113d b47f 8cbc 60e4 69bc
000001f0: 3618 703d 705a 333d 2c06 9f3c f408 b43c
00000200: 7062 84bc 6e5a 383d 80f4 413c de05 50bd
00000210: 12ac 1abd 18c6 25bd 2036 fe3c 34b4 3bbd
00000220: f071 a0bb 2a54 76bd 0e8f 723d ce9e 3fbd
00000230: fe65 243d 9c4d 3abd dcba 913c 1af5 4c3d
00000240: 72ec 27bd b655 313d 9632 72bd 80f7 673d
00000250: 1405 fcbc d2b0 183d b82c d73c 4ec2 7f3d
00000260: e04e 07bc a0e4 233b 88f6 46bd 4872 bf3c
00000270: 5063 ae3b 1401 86bc 489a 573d ac44 6abd
00000280: 8019 013b eed2 613d 2270 443d 10d9 e1bc
00000290: 0210 043d 94f8 c43c 80a1 a03c bc64 043d
000002a0: a035 63bc 6426 f63c 42b7 753d cc7a 3c3d
000002b0: 38a6 05bc 405b 34bb 345a b7bc 6a13 62bd
000002c0: 9e2d 34bd 488d 05bc ec66 00bd 0418 ef3c
000002d0: 6efd 043d 3251 7a3d 2c24 64bd d025 cabb
000002e0: 78b0 093d 40ed 6d3d c8f7 573c 9666 7b3d
000002f0: 186b 163c 405e be3b 46ab 5fbd e078 bcbc
00000300: 78c1 03bd 9203 5c3d c871 19bc 844b ea3c
00000310: 501d 323c 6c80 9f3c d49e 933c 18a3 0dbc
00000320: a09b 73bb 0657 3abd 24e0 9cbc c4ba 283d
00000330: 2a9e 0c3d b425 fbbc 68a5 103c 00d8 593b
00000340: 8ec5 18bd ce6f 243d 7ee1 52bd 2896 16bd
00000350: 40cc 8a3a 1037 21bc 849c 84bc 4825 66bc
00000360: 4833 9d3c 9057 1dbd ea6b 543d 107a a8bc
00000370: 88de 1bbc 9e19 453d d04e b43b c045 063b
00000380: c010 0fbc 7c42 21bd f8e0 9abc ea47 0c3d
00000390: 70b9 2c3d b670 1cbd 6a15 58bd caf5 7e3d
000003a0: aacd 68bd 8c91 9fbc 8065 fa3c 6233 5abd
000003b0: 8c60 e43c a87a 9b3c dedf 633d 4c96 41bd
000003c0: 663c 60bd 44d4 f33c ce32 7fbd 0029 1bbb
000003d0: cc4b 48bd 96d7 753d aa52 3e3d b498 e0bc
000003e0: 926f 63bd fe14 67bd f07d b43b fa7a 063d
000003f0: 16b7 53bd 58b5 073c 9095 e7bc 20d7 4abd
0.015433028 -0.00933177 0.060712032 0.02061899 0.0018287599 -0.027740695 0.01803542 -0.027852818
-0.006368704 0.02297198 0.05067092 -0.009974919 0.06190878 -0.03315787 0.023885056 -0.046154246
-0.043513 0.008384846 -0.03492658 -0.014075309 -0.03835564 -0.013638467 0.057583578 0.056802757
-0.017536491 -0.05246322 -0.04727833 0.05178809 -0.039164662 -0.014175355 -0.045084782 0.013330519
-0.028710373 -0.02113235 0.05662606 -0.04068891 0.03407733 0.01439479 0.0053337812 0.0016792938
0.04592403 -0.0029170886 -0.04766798 -0.026416726 0.047273815 0.015582301 0.021081053 0.018263288
0.027403124 0.0012412965 -0.038173854 0.057921186 0.05162009 -0.06212358 0.04279074 0.045566864
-0.060373828 -0.022116832 0.048205994 -0.00090529025 0.024805166 -0.057982318 -0.0513338 -0.055102833
0.0004593283 0.039846167 -0.04275272 -0.033650987 -0.013532266 -0.03396389 0.033572108 0.054902695
-0.037848637 0.0018360317 -0.03644882 0.060357377 0.0021342412 0.01839751 -0.053791262 0.04837969
0.04719942 -0.049381293 -0.022402108 0.061239995 -0.03978318 -0.038741328 -0.021958552 -0.037931874
-0.024936393 -0.00454136 -0.04860185 0.015804842 -0.059986643 -0.022061326 0.055822276 0.059910126
0.02752576 -0.032730624 0.044869497 0.013624847 0.019064821 0.00890635 0.00080437213 -0.0046541467
-0.04020799 0.009242259 -0.01277338 -0.011429332 -0.06036695 0.038861066 0.044576585 0.014089182
0.056283705 0.04922588 -0.060662143 0.032542333 -0.05279015 -0.03321214 0.019213535 -0.055649832
-0.059806176 0.03544409 -0.017150737 -0.01427564 0.05861684 0.04378742 0.019412123 0.021976925
-0.01616022 0.045008115 0.0118380785 -0.050786845 -0.037761755 -0.04047212 0.031031668 -0.045826152
-0.004896395 -0.06013886 0.05921846 -0.046782307 0.04013633 -0.04548417 0.017789297 0.050038435
-0.040996976 0.04329463 -0.059130274 0.05663252 -0.03076414 0.037278004 0.02626644 0.062441163
-0.008258551 0.0025008097 -0.048574954 0.023369923 0.0053218976 -0.016357936 0.05263737 -0.057194397
0.0019699037 0.0551328 0.0479585 -0.027569324 0.03224183 0.024044313 0.01960826 0.03232263
-0.013867766 0.030047603 0.05998922 0.046015546 -0.008157305 -0.002752021 -0.02238188 -0.055194296
-0.043988816 -0.00815136 -0.031348154 0.029186256 0.032468252 0.06111259 -0.05569856 -0.0061690584
0.03361556 0.058087587 0.013181634 0.06137713 0.009180807 0.0058095753 -0.0546067 -0.023006856
-0.032166928 0.053714342 -0.0093655065 0.028600462 0.010871246 0.019470416 0.018020071 -0.008644842
-0.0037171617 -0.04549315 -0.019149847 0.04119374 0.034330525 -0.030657627 0.008828498 0.0033240318
-0.037297778 0.040145688 -0.051484577 -0.036764294 0.0010589436 -0.009839788 -0.016187914 -0.0140469745
0.019189492 -0.038413584 0.051860727 -0.020566016 -0.009513505 0.048120134 0.0055025592 0.0020488352
-0.008732021 -0.039370045 -0.018906102 0.03424827 0.042169034 -0.038193427 -0.052754797 0.06224612
-0.05683676 -0.019478582 0.030565977 -0.05327166 0.027878068 0.018979385 0.05563342 -0.047262475
-0.0547451 0.029764302 -0.06230431 -0.002367556 -0.04890041 0.060020052 0.046465553 -0.027416565
-0.055526324 -0.056416504 0.005508177 0.032832123 -0.051688276 0.008282982 -0.02826956 -0.049521565

action_logits.bias f4 [3]
00000000: 7421 65bd f4d8 7fbd 1cf3 5dbd
-0.055940107 -0.062462762 -0.054186925
